results/ppo/My Behavior/My Behavior-1856.pt (torch, 156380 bytes, 20 tensors)

discrete_act_size_vector f4 [1, 5]
8.0 4.0 4.0 2.0 2.0
00000000: 0000 0041 0000 8040 0000 8040 0000 0040
00000010: 0000 0040

network_body._body_endoder.seq_layers.0.weight f4 [128, 1]
1.2718842 0.5769604 -0.2050098 -0.9363288 -0.34621868 -1.6154647 -0.041752473 -2.0405025
0.083416 0.5191971 0.60174644 -2.044193 -1.1156358 0.23183297 -1.534977 -0.45917508
0.62881756 -1.2995322 0.2832477 0.37645748 1.4880337 0.7450103 0.19423765 -0.010058682
-0.4926864 1.3032454 1.6184791 0.12508324 0.29857007 -0.9770061 -2.0507896 0.014162074
-1.5121828 -0.66126126 -0.041919418 -0.101262294 -2.064356 1.9978657 -0.5852005 0.031961057
1.4446987 0.21260433 0.52474666 0.74068165 -1.4477274 1.4722146 0.42190206 1.7362299
-1.2483677 0.028319856 1.4598458 -1.6395748 1.4262823 0.016112015 -0.9513681 -0.8424396
-0.16901366 1.430555 0.9014499 -0.7319409 -0.14507014 1.49845 0.55841696 0.7554065
1.0118084 0.16148782 -0.056465752 0.6415691 1.2215544 -0.68074197 -1.4202933 -0.1921983
0.4288645 1.1170967 -0.45692325 0.19830605 -0.38827178 0.582166 0.14183201 -0.23821579
0.38542372 0.958557 -0.3395608 1.1351955 -0.546981 0.5330899 0.7501581 -0.86636645
0.19160312 1.6531849 -0.12489087 1.5162787 -1.2462356 0.22371693 -0.4894652 0.6767293
-1.6012571 -0.28972888 -0.6210799 1.2002658 0.2216202 1.948358 -0.18171117 -0.08834223
0.7151237 1.4638555 -3.1101305 0.7612878 0.63869214 0.48479667 1.8507056 -0.61710024
0.93511325 -1.116748 1.6361588 1.7156582 1.4247172 -0.6827271 -0.1180968 -0.19235314
0.55811024 1.2139536 1.1797695 -0.24421667 -0.97388136 -0.41585252 -0.6551973 -0.29775673
00000000: 1acd a23f adb3 133f 17ee 51be 3fb3 6fbf
00000010: 9343 b1be 8cc7 cebf a404 2bbd 9897 02c0
00000020: 02d6 aa3d 1aea 043f 0e0c 1a3f 0fd4 02c0
00000030: 27cd 8ebf 9f65 6d3e 207a c4bf ff18 ebbe
00000040: 30fa 203f 1257 a6bf d805 913e 09bf c03e
00000050: e377 be3f ffb8 3e3f 3ce6 463e 2ccd 24bc
00000060: 6441 fcbe bfd0 a63f 532a cf3f d215 003e
00000070: 2dde 983e 121d 7abf 2340 03c0 0b08 683c
00000080: 358f c1bf 6b48 29bf b2b3 2bbd 9b62 cfbd
00000090: 691e 04c0 10ba ff3f b3cf 15bf 99e9 023d
000000a0: e3eb b83f f3b4 593e cc55 063f 509d 3d3f
000000b0: 224f b9bf 8771 bc3f 8c03 d83e c83c de3f
000000c0: 83ca 9fbf 0bff e73c 3adc ba3f 96dd d1bf
000000d0: 6b90 b63f 58fd 833c dc8c 73bf 1faa 57bf
000000e0: eb11 2dbe 6d1c b73f 6cc5 663f 7b60 3bbf
000000f0: 448d 14be 36cd bf3f 6af4 0e3f 5262 413f
00000100: f082 813f 105d 253e a248 67bd df3d 243f
00000110: e55b 9c3f 1b45 2ebf 2ccc b5bf a2cf 44be
00000120: 2194 db3e 06fd 8e3f d8f1 e9be be10 4b3e
00000130: 8fcb c6be d508 153f 693c 113e d7ee 73be
00000140: 4256 c53e fe63 753f eada adbe 164e 913f
00000150: f206 0cbf 9478 083f 5c0a 403f 31ca 5dbf
00000160: 9c33 443e 909b d33f c9c6 ffbd 6c15 c23f
00000170: a684 9fbf 0d16 653e 2f9b fabe 223e 2d3f
00000180: fef5 ccbf 5857 94be 18ff 1ebf 4fa2 993f
00000190: 68f0 623e cc63 f93f 7e12 3abe c5ec b4bd
000001a0: 5912 373f 9e5f bb3f 610c 47c0 c2e3 423f
000001b0: 5481 233f 4537 f83e ece3 ec3f 48fa 1dbf
000001c0: 9563 6f3f 99f1 8ebf a76d d13f b09a db3f
000001d0: 225d b63f 34c7 2ebf bcdc f1bd 39f8 44be
000001e0: 50e0 0e3f d562 9b3f b002 973f ef13 7abe
000001f0: 4a50 79bf 9fea d4be 03bb 27bf 9273 98be

network_body._body_endoder.seq_layers.0.bias f4 [128]
0.0 0.0 0.0 0.0 0.0 0.0 0.0 0.0
0.0 0.0 0.0 0.0 0.0 0.0 0.0 0.0
0.0 0.0 0.0 0.0 0.0 0.0 0.0 0.0
0.0 0.0 0.0 0.0 0.0 0.0 0.0 0.0
0.0 0.0 0.0 0.0 0.0 0.0 0.0 0.0
0.0 0.0 0.0 0.0 0.0 0.0 0.0 0.0
0.0 0.0 0.0 0.0 0.0 0.0 0.0 0.0
0.0 0.0 0.0 0.0 0.0 0.0 0.0 0.0
0.0 0.0 0.0 0.0 0.0 0.0 0.0 0.0
0.0 0.0 0.0 0.0 0.0 0.0 0.0 0.0
0.0 0.0 0.0 0.0 0.0 0.0 0.0 0.0
0.0 0.0 0.0 0.0 0.0 0.0 0.0 0.0
0.0 0.0 0.0 0.0 0.0 0.0 0.0 0.0
0.0 0.0 0.0 0.0 0.0 0.0 0.0 0.0
0.0 0.0 0.0 0.0 0.0 0.0 0.0 0.0
0.0 0.0 0.0 0.0 0.0 0.0 0.0 0.0
00000000: 0000 0000 0000 0000 0000 0000 0000 0000
00000010: 0000 0000 0000 0000 0000 0000 0000 0000
00000020: 0000 0000 0000 0000 0000 0000 0000 0000
00000030: 0000 0000 0000 0000 0000 0000 0000 0000
00000040: 0000 0000 0000 0000 0000 0000 0000 0000
00000050: 0000 0000 0000 0000 0000 0000 0000 0000
00000060: 0000 0000 0000 0000 0000 0000 0000 0000
00000070: 0000 0000 0000 0000 0000 0000 0000 0000
00000080: 0000 0000 0000 0000 0000 0000 0000 0000
00000090: 0000 0000 0000 0000 0000 0000 0000 0000
000000a0: 0000 0000 0000 0000 0000 0000 0000 0000
000000b0: 0000 0000 0000 0000 0000 0000 0000 0000
000000c0: 0000 0000 0000 0000 0000 0000 0000 0000
000000d0: 0000 0000 0000 0000 0000 0000 0000 0000
000000e0: 0000 0000 0000 0000 0000 0000 0000 0000
000000f0: 0000 0000 0000 0000 0000 0000 0000 0000
00000100: 0000 0000 0000 0000 0000 0000 0000 0000
00000110: 0000 0000 0000 0000 0000 0000 0000 0000
00000120: 0000 0000 0000 0000 0000 0000 0000 0000
00000130: 0000 0000 0000 0000 0000 0000 0000 0000
00000140: 0000 0000 0000 0000 0000 0000 0000 0000
00000150: 0000 0000 0000 0000 0000 0000 0000 0000
00000160: 0000 0000 0000 0000 0000 0000 0000 0000
00000170: 0000 0000 0000 0000 0000 0000 0000 0000
00000180: 0000 0000 0000 0000 0000 0000 0000 0000
00000190: 0000 0000 0000 0000 0000 0000 0000 0000
000001a0: 0000 0000 0000 0000 0000 0000 0000 0000
000001b0: 0000 0000 0000 0000 0000 0000 0000 0000
000001c0: 0000 0000 0000 0000 0000 0000 0000 0000
000001d0: 0000 0000 0000 0000 0000 0000 0000 0000
000001e0: 0000 0000 0000 0000 0000 0000 0000 0000
000001f0: 0000 0000 0000 0000 0000 0000 0000 0000

network_body._body_endoder.seq_layers.2.weight f4 [128, 128]
0.08933047 0.12712996 0.012954426 -0.12534621 0.11419697 0.11025962 -0.11061589 0.0147290705
-0.054326825 0.10320301 0.065452166 -0.07428727 0.09364906 0.031089287 0.040654544 0.0645566
-0.14009552 0.051860515 0.13595444 0.04431831 0.07762238 -0.011657319 0.012238105 0.029621031
-0.03879499 0.10163087 -0.19431138 -0.096849285 -0.027187625 -0.1253409 0.13005589 0.051109355
0.16428167 0.18737802 0.03484668 -0.24015652 -0.06745998 0.07975978 0.0005480165 0.17641963
-0.02542382 -0.020743862 -0.024183992 0.0861898 -0.058831416 -0.12679645 0.17923999 0.051505517
0.048198476 0.053997215 0.13886493 -0.093544126 0.105302095 0.010648297 -0.12351652 0.112211935
-0.17860791 0.08358453 0.12962991 0.100169905 0.074300006 -0.09939122 -0.060675815 -0.11234154
-0.13698824 -0.037003633 0.09420484 -0.034356054 0.018341396 -0.119017586 0.046293132 -0.11355689
0.06292354 -0.010550521 -0.33729047 0.07158229 -0.032814514 0.03154261 0.11595145 0.02789663
-0.06140399 -0.15616506 -0.13153903 -0.038971018 0.025921704 0.031020962 0.021811238 0.036315233
-0.019468643 -0.19620074 0.19362175 -0.012217967 0.092325866 -0.014789166 0.052987956 0.06362692
-0.09930796 0.067128494 -0.048817117 0.011336471 -0.048176114 -0.037000086 -0.019265497 -0.029545931
0.18346615 -0.1070672 -0.05914242 -0.054725025 0.07992451 -0.020409433 -0.025106462 0.06910811
0.10597424 -0.25692737 -0.19152781 0.106089726 -0.009933117 0.060325146 -0.07872102 -0.104419135
-0.010133298 -0.13524438 -0.064759776 -0.017466689 -0.014966565 -0.057396878 0.042340104 0.024918362
-0.118513614 -0.07400845 -0.17984952 0.06537836 0.02221323 0.15855694 -0.039104003 -0.025113098
-0.05066962 0.11971074 0.06699775 -0.019512882 0.06487676 -0.085375786 0.06595715 -0.14397219
-0.11258526 -0.02361406 -0.13356467 -0.09335338 -0.07339792 0.002921501 -0.029609647 0.06238875
-0.011281592 -0.072793715 -0.037583437 0.19820048 0.26604798 -0.11912182 -0.07747593 -0.026511313
0.023830887 -0.017069759 -0.04105216 -0.014449581 -0.17659733 0.01569511 -0.06817443 0.16731712
0.053539995 0.121196106 -0.06752199 -0.030407136 -0.15528768 0.16718665 0.031460587 -0.008464419
0.05112568 0.0028482622 -0.15687093 0.06346174 0.04596021 0.09824254 0.20126247 -0.04205598
0.044812374 -0.008963418 0.10059733 0.1673824 0.026856627 -0.03724589 -0.08858032 0.09776492
0.111727215 0.0829814 -0.0063183103 0.12674588 0.021251563 0.02654474 0.02776285 -0.24168454
0.14707993 -0.14726019 -0.0005772052 -0.017031346 0.08158757 -0.0010541101 0.024634393 0.07379018
0.074512795 -0.04643825 0.068797484 0.1681607 -0.10107776 0.10123733 0.11445444 -0.1721491
0.08817258 -0.04478601 -0.0078015756 0.09621761 -0.09532678 0.16728169 -0.053642016 0.028611708
0.032286964 -0.055354115 0.2862411 0.008562707 -0.09956938 0.037459493 -0.04836106 -0.119935736
0.036553454 0.019492447 -0.043901965 0.025161115 -0.09106764 -0.066767976 -0.0085214535 -0.034575958
0.11984301 -0.12828426 -0.029790606 0.10295458 -0.15298048 -0.121636964 0.01590193 0.050231088
-0.018105475 0.11607287 0.029730123 -0.17676349 0.0037052396 -0.014342418 -0.049798977 -0.13402238
00000000: e5f2 b63d 5b2e 023e cd3e 543c c25a 00be
00000010: 1ae0 e93d cccf e13d 958a e2bd 3352 713c
00000020: ce85 5ebd 1a5c d33d c90b 863d ed23 98bd
00000030: 14cb bf3d f6ae fe3c 6185 263d 4036 843d
00000040: 3375 0fbe b16b 543d a437 0b3e 1e87 353d
00000050: 7bf8 9e3d 57fe 3ebc 5582 483c cea7 f23c
00000060: 7fe7 1ebd d823 d03d 90f9 46be eb58 c6bd
00000070: 95b8 debc 5d59 00be 5f2d 053e 0b58 513d
00000080: 7439 283e 06e0 3f3e 64bb 0e3d 97eb 75be
00000090: 7528 8abd 1859 a33d c4a8 0f3a 59a7 343e
000000a0: 9d45 d0bc 08ef a9bc 821d c6bc 4784 b03d
000000b0: 36f9 70bd eed6 01be b08a 373e 73f7 523d
000000c0: c46b 453d 2f2c 5d3d 9c32 0e3e 1094 bfbd
000000d0: a0a8 d73d 3276 2e3c 3bf6 fcbd 5fcf e53d
000000e0: fee4 36be 5e2e ab3d b4bd 043e e125 cd3d
000000f0: 9a2a 983d a08d cbbd 3487 78bd 5213 e6bd
00000100: a546 0cbe 1f91 17bd 78ee c03d efb8 0cbd
00000110: b240 963c 7ebf f3bd de9d 3d3d 8490 e8bd
00000120: 0fde 803d 18dc 2cbc 56b1 acbe bc99 923d
00000130: 8368 06bd d332 013d f477 ed3d 7987 e43c
00000140: c082 7bbd bce9 1fbe 2bb2 06be 13a0 1fbd
00000150: c159 d43c ac1f fe3c 7bad b23c 48bf 143d
00000160: b47c 9fbc d9e8 48be c844 463e de2d 48bc
00000170: 5815 bd3d 424e 72bc e609 593d d54e 823d
00000180: f961 cbbd aa7a 893d 75f4 47bd 9bbc 393c
00000190: 5154 45bd 678d 17bd add2 9dbc 4f0a f2bc
000001a0: 8dde 3b3e 0c46 dbbd 523f 72bd 5927 60bd
000001b0: 76af a33d af31 a7bc 11ac cdbc 8e88 8d3d
000001c0: 0609 d93d fc8b 83be de1f 44be 9245 d93d
000001d0: 83be 22bc 8017 773d 7c38 a1bd b3d9 d5bd
000001e0: 2206 26bc 817d 0abe c6a0 84bd 4d16 8fbc
000001f0: 5336 75bc fd18 6bbd d16c 2d3d 9821 cc3c
00000200: 44b7 f2bd be91 97bd 792a 38be 17e5 853d
00000210: 85f8 b53c c05c 223e 852b 20bd fcb9 cdbc
00000220: f38a 4fbd e82a f53d 1e36 893d 7bd9 9fbc
00000230: 1bde 843d 80d9 aebd 8b14 873d 726d 13be
00000240: 1a93 e6bd 4672 c1bc 2dc5 08be 0f30 bfbd
00000250: a651 96bd a776 3f3b ee8f f2bc 598b 7f3d
00000260: 6dd6 38bc df14 95bd 17f1 19bd 11f5 4a3e
00000270: 7137 883e 24f6 f3bd b3ab 9ebd 412e d9bc
00000280: fe38 c33c e1d5 8bbc 4f26 28bd efbd 6cbc
00000290: eed5 34be 0893 803c 099f 8bbd 2e55 2b3e
000002a0: c14c 5b3d aa35 f83d f848 8abd 6318 f9bc
000002b0: bc03 1fbe fa32 2b3e d1dc 003d 59ae 0abc
000002c0: 2969 513d e9a9 3a3b c6a2 20be 3bf8 813d
000002d0: c640 3c3d 6333 c93d c017 4e3e e442 2cbd
000002e0: 2e8d 373d 4ddb 12bc f905 ce3d 4b66 2b3e
000002f0: 6e02 dc3c 258f 18bd 9969 b5bd f938 c83d
00000300: 3dd1 e43d 27f2 a93d d409 cfbb acc9 013e
00000310: c217 ae3c 5b74 d93c eb6e e33c 277c 77be
00000320: 1f9c 163e 60cb 16be 964f 17ba 5285 8bbc
00000330: 6217 a73d 112a 8aba 11ce c93c 4e1f 973d
00000340: 2a9a 983d 0936 3ebd b2e5 8c3d 5232 2c3e
00000350: db01 cfbd 8455 cf3d 1767 ea3d db47 30be
00000360: d393 b43d 8971 37bd 5ca4 ffbb bd0d c53d
00000370: b03a c3bd e44b 2b3e bbb7 5bbd 1a63 ea3c
00000380: 563f 043d ffba 62bd 328e 923e 994a 0c3c
00000390: 08eb cbbd 206f 193d 3f16 46bd dea0 f5bd
000003a0: 13b9 153d a0ae 9f3c 8cd2 33bd af1e ce3c
000003b0: ac81 babd a6bd 88bd 919d 0bbc 859f 0dbd
000003c0: 4170 f53d f35c 03be 6e0b f4bc dad9 d23d
000003d0: eaa6 1cbe cd1c f9bd c444 823c 1dbf 4d3d
000003e0: ef51 94bc 9db7 ed3d 968c f33c 7d01 35be
000003f0: 9bd3 723b 76fc 6abc 03fa 4bbd 2a3d 09be

network_body._body_endoder.seq_layers.2.bias f4 [128]
0.0 0.0 0.0 0.0 0.0 0.0 0.0 0.0
0.0 0.0 0.0 0.0 0.0 0.0 0.0 0.0
0.0 0.0 0.0 0.0 0.0 0.0 0.0 0.0
0.0 0.0 0.0 0.0 0.0 0.0 0.0 0.0
0.0 0.0 0.0 0.0 0.0 0.0 0.0 0.0
0.0 0.0 0.0 0.0 0.0 0.0 0.0 0.0
0.0 0.0 0.0 0.0 0.0 0.0 0.0 0.0
0.0 0.0 0.0 0.0 0.0 0.0 0.0 0.0
0.0 0.0 0.0 0.0 0.0 0.0 0.0 0.0
0.0 0.0 0.0 0.0 0.0 0.0 0.0 0.0
0.0 0.0 0.0 0.0 0.0 0.0 0.0 0.0
0.0 0.0 0.0 0.0 0.0 0.0 0.0 0.0
0.0 0.0 0.0 0.0 0.0 0.0 0.0 0.0
0.0 0.0 0.0 0.0 0.0 0.0 0.0 0.0
0.0 0.0 0.0 0.0 0.0 0.0 0.0 0.0
0.0 0.0 0.0 0.0 0.0 0.0 0.0 0.0
00000000: 0000 0000 0000 0000 0000 0000 0000 0000
00000010: 0000 0000 0000 0000 0000 0000 0000 0000
00000020: 0000 0000 0000 0000 0000 0000 0000 0000
00000030: 0000 0000 0000 0000 0000 0000 0000 0000
00000040: 0000 0000 0000 0000 0000 0000 0000 0000
00000050: 0000 0000 0000 0000 0000 0000 0000 0000
00000060: 0000 0000 0000 0000 0000 0000 0000 0000
00000070: 0000 0000 0000 0000 0000 0000 0000 0000
00000080: 0000 0000 0000 0000 0000 0000 0000 0000
00000090: 0000 0000 0000 0000 0000 0000 0000 0000
000000a0: 0000 0000 0000 0000 0000 0000 0000 0000
000000b0: 0000 0000 0000 0000 0000 0000 0000 0000
000000c0: 0000 0000 0000 0000 0000 0000 0000 0000
000000d0: 0000 0000 0000 0000 0000 0000 0000 0000
000000e0: 0000 0000 0000 0000 0000 0000 0000 0000
000000f0: 0000 0000 0000 0000 0000 0000 0000 0000
00000100: 0000 0000 0000 0000 0000 0000 0000 0000
00000110: 0000 0000 0000 0000 0000 0000 0000 0000
00000120: 0000 0000 0000 0000 0000 0000 0000 0000
00000130: 0000 0000 0000 0000 0000 0000 0000 0000
00000140: 0000 0000 0000 0000 0000 0000 0000 0000
00000150: 0000 0000 0000 0000 0000 0000 0000 0000
00000160: 0000 0000 0000 0000 0000 0000 0000 0000
00000170: 0000 0000 0000 0000 0000 0000 0000 0000
00000180: 0000 0000 0000 0000 0000 0000 0000 0000
00000190: 0000 0000 0000 0000 0000 0000 0000 0000
000001a0: 0000 0000 0000 0000 0000 0000 0000 0000
000001b0: 0000 0000 0000 0000 0000 0000 0000 0000
000001c0: 0000 0000 0000 0000 0000 0000 0000 0000
000001d0: 0000 0000 0000 0000 0000 0000 0000 0000
000001e0: 0000 0000 0000 0000 0000 0000 0000 0000
000001f0: 0000 0000 0000 0000 0000 0000 0000 0000

action_model._discrete_distribution.branches.0.weight f4 [8, 128]
0.008647757 -0.0123323435 0.0051924153 0.01501288 -0.013514272 0.011094482 0.010501521 0.013155277
-0.0011191949 0.015415519 -0.01138047 0.0051088845 -0.0072574015 -0.0045361705 -0.010634805 0.0041613067
0.006230987 0.017938932 0.01564458 -0.0061413455 -0.004651123 -0.00043981112 -0.0098327985 -0.004492482
0.002223962 0.01529521 0.0043171286 0.008827365 0.0009270888 0.0121023385 -0.0015722234 -0.009655669
-0.005388269 0.0059462073 -8.267564e-05 0.009443552 -0.0013198887 -0.00446337 0.0010696354 0.007496923
-0.00076601317 0.00461217 0.0044452334 0.0062890784 -0.00971827 -0.0032828134 0.005112269 0.005005467
-0.00864602 -0.008858806 -0.0027822705 0.007866352 0.010370504 -0.0019424215 -0.011370013 -0.00141188
0.018883048 0.0011750145 -0.008369683 -0.009495775 -0.005714241 0.0020422689 -0.0010527163 -0.0134975435
-0.004587026 -0.005167167 -0.004664179 0.004181612 0.0059648138 -0.009945209 0.0068854354 0.0016685978
-0.00186436 -0.0057151155 -0.005075048 0.015526081 0.0068827085 -0.0010553196 -0.006701566 0.008965289
-0.0018786675 0.003567074 -0.0038688965 -0.015898556 0.01063951 -0.007020291 9.848505e-05 0.0031510207
-0.006717493 0.001067484 0.0073586623 0.011032837 -0.0069653676 -0.009357187 -0.0055182786 0.000241195
0.007655229 -0.005713966 0.008068284 0.0069015543 0.0008745091 -0.0036578767 0.019319938 0.019685358
-0.01677823 -0.005205318 -0.0063170134 -0.011130701 -0.0030588198 0.016045123 -0.003065812 -0.0020236082
0.004192309 -0.012016485 0.0004302364 0.0013936142 0.0058643846 -0.020131912 -0.0016371396 -0.018570509
-0.0017544195 -0.0066496762 0.01045981 -0.0061448 -0.00066361984 0.001444007 -0.00031205866 -0.010852001
0.000694171 -0.0071146763 0.0060031596 -0.0032471858 -0.015695136 0.009529265 -1.3884785e-05 -0.011374025
0.010820459 0.00032122314 7.968629e-05 -0.0011914341 -0.004981182 0.0054167854 -0.006199407 -0.010785083
-0.013735029 0.009931575 -0.0028667834 0.00958221 -0.0051361765 0.004191899 0.009803458 0.010651067
0.0016827856 -0.0078107044 -0.00035220245 0.0046700262 -0.011816755 0.004291233 0.0004586062 -0.005074679
-0.00018376533 -0.012036119 -0.0006495329 0.008102022 -0.003692054 0.008566759 -0.014596425 0.010599944
-0.0076628313 0.0006099618 -0.00061927445 0.0070482916 0.0067651905 0.009729317 -0.0020725492 -0.003959063
0.014071255 0.0025242106 0.0011208808 -0.014538385 -0.0030156802 -0.011629204 0.01938912 -0.0048480993
0.009649991 -0.014196529 -0.0038192098 -0.0028653303 0.0038674132 0.0046102027 -0.00067012396 0.00142613
-0.023305966 -0.015289659 0.01486629 -0.0060288687 -0.013297021 -0.0022769806 0.0039409585 0.0043996684
0.007461133 0.006294983 -0.0024544706 -0.0003153328 0.005107882 0.002678342 0.01608886 -0.0031010804
-0.0024215907 0.006040713 0.017269602 -0.030629495 0.024288658 0.0091005275 -0.010944646 -0.00067662
-0.013116206 0.023829428 -0.002388392 -0.0063937316 0.0011825114 -0.0045947987 0.004107056 -0.0029319795
-0.011961925 0.0026888845 0.00026010946 0.011357548 0.014413722 0.007989835 0.014095909 0.00650801
-0.0018317917 -0.004327769 -0.0075501697 -0.013808194 -0.011503426 -0.005483056 -0.005006814 -0.0027697838
0.01341177 -0.0002754698 0.0125386 -0.004388008 0.009615542 -0.0021705565 0.0026603115 0.011995713
-0.0031996015 0.007221039 0.0019818307 -0.005417803 -0.0011059685 0.003142573 -0.005386462 -0.0043863277
00000000: 52af 0d3c 990d 4abc 2325 aa3b 95f8 753c
00000010: f76a 5dbc a1c5 353c 920e 2c3c 3b89 573c
00000020: f3b1 92ba 5f91 7c3c 2775 3abc 6e68 a73b
00000030: 7fcf edbb 28a4 94bb 9b3d 2ebc 925b 883b
00000040: 4f2d cc3b abf4 923c 1029 803c 573d c9bb
00000050: 7368 98bb 7396 e6b9 bf19 21bc ac35 93bb
00000060: e4bf 113b c398 7a3c b376 8d3b a7a0 103c
00000070: e007 733a e348 463c 1013 ceba d032 1ebc
00000080: 1490 b0bb 67d8 c23b 2562 adb8 21b9 1a3c
00000090: 1e00 adba 7641 92bb 0233 8c3a c0a8 f53b
000000a0: 46ce 48ba b021 973b 52a9 913b 9d14 ce3b
000000b0: 6139 1fbc 7824 57bb d284 a73b e704 a43b
000000c0: 09a8 0dbc 8724 11bc c156 36bb dfe1 003c
000000d0: 0ce9 293c da98 feba 4a49 3abc d50e b9ba
000000e0: 9fb0 9a3c f202 9a3a ff20 09bc 2b94 1bbc
000000f0: 873e bbbb 96d7 053b 4cfb 89ba cd24 5dbc
00000100: c34e 96bb 5751 a9bb f8d5 98bb e705 893b
00000110: 7c74 c33b 3bf1 22bc 389f e13b dab4 da3a
00000120: 8a5d f4ba dd45 bbbb 974c a6bb 1b61 7e3c
00000130: 5888 e13b a652 8aba cf98 dbbb 26e3 123c
00000140: 9f3d f6ba 92c5 693b 508d 7dbb b03d 82bc
00000150: 5751 2e3c 780a e6bb c289 ce38 5b81 4e3b
00000160: 6a1e dcbb d2ea 8b3a ef20 f13b 13c3 343c
00000170: bd3d e4bb e34e 19bc add2 b4bb 4ae9 7c39
00000180: b7d8 fa3b 393c bbbb d630 043c 6f26 e23b
00000190: 503f 653a fdb8 6fbb d944 9e3c 3043 a13c
000001a0: 8072 89bc 5f91 aabb f3fe cebb 8b5d 36bc
000001b0: 7b76 48bb 1071 833c caeb 48bb 839e 04bb
000001c0: a35f 893b cbe0 44bc 5a91 e139 efa9 b63a
000001d0: 062a c03b aeeb a4bc 4a95 d6ba 2e21 98bc
000001e0: 8df4 e5ba 87e5 d9bb 9f5f 2b3c 525a c9bb
000001f0: c6f6 2dba d644 bd3a ce9b a3b9 97cc 31bc
00000200: 07f9 353a 3b22 e9bb 27b6 c43b bdce 54bb
00000210: 1693 80bc a220 1c3c b3f2 68b7 1e5a 3abc
00000220: 4b48 313c d769 a839 401d a738 e529 9cba
00000230: 2f39 a3bb 4a7f b13b 6524 cbbb ebb3 30bc
00000240: e308 61bc 0bb8 223c a5e0 3bbb b4fe 1c3c
00000250: 5f4d a8bb 335c 893b af9e 203c d081 2e3c
00000260: ea90 dc3a f0f0 ffbb d0a7 b8b9 0507 993b
00000270: 109b 41bc 799d 8c3b 1571 f039 7e49 a6bb
00000280: 21b1 40b9 2433 45bc 6a45 2aba 58be 043c
00000290: 63f6 71bb 975b 0c3c d825 6fbc 63ab 2d3c
000002a0: 7d18 fbbb d8e5 1f3a ce56 22ba 5bf5 e63b
000002b0: 88ae dd3b b767 1f3c 9bd3 07bb 07bb 81bb
000002c0: 1f8b 663c 3a6d 253b 85ea 923a 6832 6ebc
000002d0: b8a2 45bb 6b88 3ebc efd5 9e3c cedc 9ebb
000002e0: ff1a 1e3c 8f98 68bc b54b 7abb 44c8 3bbb
000002f0: 6d74 7d3b 2f11 973b 42ab 2fba fbec ba3a
00000300: 27ec bebc 7a81 7abc bd91 733c d18d c5bb
00000310: c0db 59bc 6539 15bb 2823 813b 182b 903b
00000320: 857c f43b 2546 ce3b 2fdb 20bb 4153 a5b9
00000330: 0560 a73b 1f87 2f3b c9cc 833c 7f3b 4bbb
00000340: 8db3 1ebb 2cf1 c53b fb78 8d3c b5ea fabc
00000350: 02f9 c63c 611a 153c 2c51 33bc 335f 31ba
00000360: 5be5 56bc ef35 c33c 9286 1cbb 8282 d1bb
00000370: 80fe 9a3a f78f 96bb 7c94 863b 7426 40bb
00000380: f3fb 43bc ff37 303b 4d5f 8839 0215 3a3c
00000390: 8827 6c3c cce7 023c 87f2 663c 2541 d53b
000003a0: bb18 f0ba f5cf 8dbb 6a67 f7bb c33b 62bc
000003b0: de78 3cbc 35ab b3bb 3310 a4bb 4385 35bb
000003c0: 0abd 5b3c ee6c 90b9 b36e 4d3c 47c9 8fbb
000003d0: 828a 1d3c e53f 0ebb 9f58 2e3b ab89 443c
000003e0: 68b0 51bb 779e ec3b 9ae1 013b d387 b1bb
000003f0: 25f6 90ba a0f3 4d3b eb80 b0bb 2fbb 8fbb

action_model._discrete_distribution.branches.0.bias f4 [8]
0.0 0.0 0.0 0.0 0.0 0.0 0.0 0.0
00000000: 0000 0000 0000 0000 0000 0000 0000 0000
00000010: 0000 0000 0000 0000 0000 0000 0000 0000

action_model._discrete_distribution.branches.1.weight f4 [4, 128]
0.004807407 0.016208231 0.009427412 -0.0018996462 0.009538626 0.007310076 -0.013607136 -0.011532131
0.008258972 -0.005644427 -0.0020874653 -0.0073667723 -0.017007524 0.004447792 0.0009406741 -0.001039808
0.010440831 0.014247988 -0.015700499 -0.00047274362 -0.0012200199 -0.017023265 -0.010696168 0.0064650453
0.009169526 -0.004248649 0.0071723 0.00895484 -0.0049156533 0.009873368 -0.0036909045 -0.005050942
0.021329787 -0.002971617 0.00717566 -0.0068133282 0.01786506 -0.009336123 0.008509403 -0.0069012158
0.0003844636 0.015245478 -0.013526633 0.0005734684 0.005989028 -0.011765185 -0.0021811926 0.011772956
-0.00025593935 -0.009501665 -0.010491417 0.014053757 -0.008478215 -0.0012942057 0.0013908035 0.011249478
0.012014249 0.00033164854 0.012339287 0.0024224697 0.011971078 0.010842032 0.010715102 0.014149387
0.0037045318 -0.00072688045 -0.009860033 0.015155064 0.008855328 -0.0023145422 0.002713139 0.014160921
-0.003107356 -0.0019221051 0.0026341847 0.0012735253 -0.012510481 0.0036742908 0.006866517 -0.009313688
-0.00476748 0.0010337053 -0.0028873195 -0.0068569197 -0.0018092152 -0.0023734726 -0.009069535 -0.0035399583
0.00096882175 -0.0008185161 0.0057832045 -0.02159538 0.016088104 -0.0065279487 -0.005908603 -0.00013427284
0.0107239215 0.019813983 -0.00073643995 -0.004711607 -0.0011577576 0.01364087 0.011460113 -0.0060704425
-0.009475463 -0.0030760088 -0.009497165 -0.022557495 -0.007987766 0.0068313903 0.017711312 -0.0012122876
-0.000615688 0.0016126473 -0.012256212 -0.006908455 0.00446268 -0.011942145 -0.008887838 -0.0045099775
0.011357972 0.015491496 -0.002258083 0.010044596 -0.013818966 0.01680136 -0.008283176 -0.0036872276
-0.0012333274 0.0059499475 -0.0048831995 0.0012779771 0.0044773365 -0.0060584787 -0.008039276 -0.000952994
0.00017394232 0.0034757794 -0.012871528 -0.0014600757 0.007080035 -0.0023492174 0.0069285864 -0.0063181273
0.0037380585 0.008359526 -0.004607751 0.0033307194 -0.0062671043 0.002121681 0.011887285 0.0029252642
0.00080796937 0.00046694357 -0.0056833248 0.00824971 -0.004966449 -0.0047796955 0.012320966 -0.007115297
-0.008907172 -0.0037491769 -0.009441359 0.0064724297 -0.0038521227 0.019026458 0.010462941 0.0059629893
0.024549617 0.010945297 -0.0035896648 -0.0139461635 0.017143855 0.014426502 0.009917974 0.00929254
-0.003709443 -0.0092798555 -0.005532337 -0.01701094 0.0013091437 -0.0038625163 -0.0010809567 -0.006798561
-0.005175576 0.011014709 0.00027824056 0.0028427513 0.0024539358 0.005576487 -0.01310633 0.00072660035
0.00064000086 -0.019107625 -0.0049937083 -0.013283396 0.006349752 -0.006337527 0.006062949 -0.009788935
0.010168406 0.019457277 0.008289973 0.0018557133 0.00074473204 -0.014746367 -0.0013572507 -0.0067620613
0.0071219834 -0.0132230595 -0.0035991669 0.008911183 -0.010601501 0.00630409 -0.008067065 -0.0034740218
-0.006147416 -0.005060261 0.0055117463 0.0031117972 0.0038416001 -0.008037757 0.0039284243 -0.004457141
-0.0069741346 -0.0017689982 -0.020484537 0.011247768 0.0025920596 -0.01669772 -0.002724489 0.0019879478
-0.0023800565 0.008115818 0.0036284383 -0.006921816 0.00092044065 -0.002151516 -0.002431439 0.0041410555
0.010532491 -0.0024115646 0.014098105 -0.0028088426 0.00089382817 -0.0240482 0.01589438 0.012430886
0.0076355026 0.0011651126 0.0032435004 0.0011381827 0.0008238989 0.0015924588 0.006904155 0.0013408795
00000000: 7487 9d3b 20c7 843c 6f75 1a3c 8dfd f8ba
00000010: e647 1c3c 5d89 ef3b 77f0 5ebc 43f1 3cbc
00000020: a450 073c e3f4 b8bb dbcd 08bb f764 f1bb
00000030: 5d53 8bbc c9be 913b 9297 763a 2b4a 88ba
00000040: 0510 2b3c 6570 693c 559e 80bc 93da f7b9
00000050: 13e9 9fba 6074 8bbc fb3e 2fbc bbd8 d33b
00000060: c83b 163c 4038 8bbb 9d05 eb3b 52b7 123c
00000070: 7d13 a1bb e8c3 213c 1ae3 71bb 5f82 a5bb
00000080: cebb ae3c 76bf 42bb cd21 eb3b 5742 dfbb
00000090: bf59 923c 8af6 18bc 066b 0b3c 9823 e2bb
000000a0: d591 c939 2bc8 793c d09e 5dbc d054 163a
000000b0: 9c3f c43b c3c2 40bc 57f2 0ebb 5be3 403c
000000c0: 992f 86b9 dfac 1bbc 31e4 2bbc bb41 663c
000000d0: 36e8 0abc 56a2 a9ba 9f4b b63a bb4f 383c
000000e0: 6ad7 443c 1de1 ad39 b92a 4a3c 4cc2 1e3b
000000f0: 5722 443c c7a2 313c 658e 2f3c d5d2 673c
00000100: bbc7 723b 1f8c 3eba fa8b 21bc f24c 783c
00000110: f015 113c 93af 17bb ebce 313b 3503 683c
00000120: c8a4 4bbb 25ef fbba 49a2 2c3b 6bec a63a
00000130: c3f8 4cbc 5fcc 703b 8500 e13b 7098 18bc
00000140: 8538 9cbb 657d 873a 2f39 3dbb 03b0 e0bb
00000150: 3023 edba 438c 1bbb 6398 14bc a5fe 67bb
00000160: 87f8 7d3a b091 56ba 0981 bd3b cbe8 b0bc
00000170: 33cb 833c 67e8 d5bb f49c c1bb 97cb 0cb9
00000180: 63b3 2f3c ef50 a23c a60d 41ba d363 9abb
00000190: e6bf 97ba f57d 5f3c 33c3 3b3c 90ea c6bb
000001a0: f93e 1bbc dd96 49bb ff99 1bbc 7fca b8bc
000001b0: 1edf 02bc dbd9 df3b 5017 913c 9fe5 9eba
000001c0: 1f66 21ba 775f d33a 47ce 48bc 5260 e2bb
000001d0: ac3b 923b fda8 43bc 4b9e 11bc 6fc8 93bb
000001e0: ca16 3a3c 0bd0 7d3c 59fc 13bb 1792 243c
000001f0: f268 62bc 01a3 893c 29b6 07bc 6aa5 71bb
00000200: 9aa7 a1ba c7f7 c23b 3f03 a0bb cc81 a73a
00000210: 9fb6 923b 3486 c6bb 2bb7 03bc 58d2 79ba
00000220: 4964 3639 e7c9 633b 1ae3 52bc 0360 bfba
00000230: a3ff e73b 54f5 19bb 3209 e33b 4b08 cfbb
00000240: 37fa 743b 65f6 083c 9efc 96bb 3348 5a3b
00000250: 485c cdbb e70b 0b3b e3c2 423c cab5 3f3b
00000260: e8cd 533a 1bd0 f439 2f3b babb cb29 073c
00000270: 98bd a2bb fe9e 9cbb e1dd 493c 7027 e9bb
00000280: 63ef 11bc c0b4 75bb eeaf 1abc ad16 d43b
00000290: e573 7cbb 60dd 9b3c c16c 2b3c 2e65 c33b
000002a0: 471c c93c e753 333c 9540 6bbb 737e 64bc
000002b0: 4571 8c3c 235d 6c3c ff7e 223c bd3f 183c
000002c0: 201a 73bb 890a 18bc 9b48 b5bb 875a 8bbc
000002d0: 9397 ab3a 4522 7dbb e3ae 8dba 77c6 debb
000002e0: e197 a9bb 0a77 343c d1e0 9139 744d 3a3b
000002f0: 36d2 203b f7ba b63b efbb 56bc 5379 3e3a
00000300: bbc5 273a 9887 9cbc 43a2 a3bb 9aa2 59bc
00000310: 9511 d03b 08ab cfbb b4ab c63b c561 20bc
00000320: 6399 263c de64 9f3c abd2 073c 683b f33a
00000330: 1f3a 433a bf9a 71bc c7e5 b1ba 4894 ddbb
00000340: 875f e93b 88a5 58bc 00e0 6bbb 3600 123c
00000350: ebb1 2dbc 8a92 ce3b b92b 04bc 6aac 63bb
00000360: 4370 c9bb 8cd0 a5bb e19b b43b 4bef 4b3b
00000370: 5bc3 7b3b ccb0 03bc 03ba 803b 350d 92bb
00000380: 4887 e4bb bbdd e7ba 30cf a7bc 8f48 383c
00000390: 8bdf 293b a8c9 88bc 578d 32bb 3b48 023b
000003a0: b9fa 1bbb 35f8 043c 18cb 6d3b 67d0 e2bb
000003b0: ba49 713a 7300 0dbb c758 1fbb b1b1 873b
000003c0: 7890 2c3c 570b 1ebb bdfb 663c 8f14 38bb
000003d0: cb4f 6a3a bb00 c5bc ee34 823c eaaa 4b3c
000003e0: 3d33 fa3b b1b6 983a e890 543b 132f 953a
000003f0: ebfa 573a 0dba d03a 403c e23b 73c0 af3a

action_model._discrete_distribution.branches.1.bias f4 [4]
0.0 0.0 0.0 0.0
00000000: 0000 0000 0000 0000 0000 0000 0000 0000

action_model._discrete_distribution.branches.2.weight f4 [4, 128]
0.0033468872 -0.0066999714 0.0042519723 0.0034509369 -0.011156209 0.016194342 -0.02437198 0.005515987
-0.008724912 0.0054732068 0.003387112 0.024432927 0.0015378508 0.003151121 -0.008749164 0.009923917
-0.007783461 -0.004763054 0.005253696 -0.012720746 -0.0052597537 0.0033996738 -0.0073289797 -0.009382221
-0.0048568673 0.005546805 -0.0055307816 0.0027411804 -0.0052019055 0.008929373 -0.006117983 -0.0088020405
0.0079352595 0.013486937 0.0068964944 0.006414305 0.0031991084 0.008461284 -0.00464049 0.0108277025
-0.002191189 0.008525254 0.0015372311 0.0107539445 -0.0090375645 -0.019308839 -0.015177128 0.0026195229
-0.014679092 0.018544093 -3.351392e-05 0.01725754 0.0007610572 0.0054665892 -0.0012326537 0.0007695742
-0.007559432 0.011165372 0.0054940316 0.0010692127 -0.016154213 0.010660998 0.005235312 -0.0031846657
0.0048474884 0.011069688 -0.011615797 -0.0043635885 0.013490682 -0.0052377726 0.007108409 -0.0014955037
0.01298987 0.007723783 -0.00039688335 0.006833742 0.004218122 0.0057040774 0.00031689624 0.025902513
-0.0006634132 -0.002604533 0.003392872 0.0044156965 0.014113708 -0.010901037 -0.0039693792 0.0071335123
-0.00018068642 -0.00472898 -0.0007629196 0.011312029 -0.0064591416 -0.0067469566 0.010713761 -0.009322392
0.02478487 -0.0014720701 0.00015312317 0.0005223568 -0.011963195 0.00043436605 0.010320706 -0.011252387
0.0045265607 -0.0019640157 0.0073430086 0.0008208751 -0.016703883 0.009674362 0.0077262945 0.010780882
-0.0033005264 0.010788891 0.0064076143 0.009245205 0.013509355 0.013464443 0.019075459 -0.0071585313
0.011434992 0.006111393 0.0008775815 -0.01255207 0.011414054 0.0031173094 -0.0011198655 0.0036947725
0.0013094988 -4.760202e-05 0.004139332 0.00081526535 -0.0043062745 -0.009042447 -0.009765482 -0.022932509
0.010490517 0.0032176997 -0.004375979 0.006581673 -0.004690242 0.00063547905 -0.025405124 -0.013423572
0.012319052 -0.008461574 -0.009765181 0.011438739 0.020214297 -0.009276022 -0.0085112 0.015584381
0.008397494 -0.0055864765 0.0125865135 0.0027099662 -0.0031288767 0.009807731 0.004761439 0.004833037
-0.00088533945 0.0026000591 0.0022834165 -0.0008026228 0.009234442 0.009763143 -0.009738468 0.005174851
0.00034434308 0.0023846393 -0.007610665 0.012710909 0.0048795543 0.012088201 0.0007359952 0.0074462886
0.010196828 0.011145091 0.007699836 0.011840062 2.3882561e-05 -0.00035829566 -0.0020109592 -0.0048183077
0.0073778443 -0.0032410254 0.0029975937 0.0018120094 -0.008270313 -0.00083588297 0.00487189 0.004180744
-0.008438453 0.008092531 -0.0019325566 -0.001274427 0.018425515 0.007644241 -0.0045311917 0.014087957
-0.0060050506 0.006180279 -0.0027318744 -0.0014832224 -0.0056900643 -0.0050392975 9.45026e-06 0.0032517724
-0.0086483685 -0.0028288767 -0.00047366117 0.0061382926 0.00907972 0.010480647 -0.010645232 -0.0022626787
-0.009246956 0.009155249 -0.015082679 -0.002180503 0.0061168615 0.00070468 0.002908919 -0.006633926
-0.015806373 0.017980838 0.0019891185 -0.015417047 0.00096413615 0.019531438 -0.00018635915 -0.014030784
-0.001997332 0.0020711923 0.021376772 0.017461015 -0.0012714774 0.0002418204 -0.0014563871 0.0027032613
-0.013873753 0.027612373 -0.005513587 0.0053487886 0.0009964592 0.0052716774 0.015596434 -0.006291166
-0.0020867204 0.020523602 0.005426624 -0.009743863 0.003410864 0.011431646 0.0041412585 0.0069299415
00000000: 7357 5b3b 6f8b dbbb 2154 8b3b 1d29 623b
00000010: 88c8 36bc ffa9 843c bfa7 c7bc 74bf b43b
00000020: eff2 0ebc 9658 b33b 4ffa 5d3b 9027 c83c
00000030: b691 c93a 0a83 4e3b a758 0fbc ed97 223c
00000040: 670c ffbb 6513 9cbb 3227 ac3b ad6a 50bc
00000050: 035a acbb 10cd 5e3b f027 f0bb e3b7 19bc
00000060: 5b26 9fbb f9c1 b53b 8f3b b5bb 60a5 333b
00000070: bf74 aabb 814c 123c 5c79 c8bb 6f36 10bc
00000080: e402 023c 50f8 5c3c fdfb e13b 172f d23b
00000090: 22a8 513b 33a1 0a3c 400f 98bb ad66 313c
000000a0: 0d9a 0fbb 82ad 0b3c eb7c c93a 5031 303c
000000b0: 4b12 14bc 922d 9ebc 7da9 78bc 4dac 2b3b
000000c0: 9380 70bc c8e9 973c 4c91 0cb8 af5f 8d3c
000000d0: af81 473a 1321 b33b ff90 a1ba 40bd 493a
000000e0: 1db5 f7bb f7ee 363c 4707 b43b d324 8c3a
000000f0: d755 84bc 77ab 2e3c fb8c ab3b d3b5 50bb
00000100: aed7 9e3b a35d 353c 2f50 3ebc 6ffc 8ebb
00000110: 0508 5d3c 9fa1 abbb a8ed e83b c704 c4ba
00000120: 77d3 543c ca17 fd3b c814 d0b9 95ed df3b
00000130: 2c38 8a3b 45e9 ba3b 1825 a639 8231 d43c
00000140: e8e8 2dba d0b0 2abb f25a 5e3b 8cb1 903b
00000150: 2f3d 673c 439a 32bc 9111 82bb 3dc0 e93b
00000160: a476 3db9 8ff5 9abb abfe 47ba 1756 393c
00000170: 35a7 d3bb 9315 ddbb c588 2f3c f2bc 18bc
00000180: a409 cb3c 7af2 c0ba b08f 2039 c5ee 083a
00000190: 4701 44bc a0bb e339 2e18 293c ef5b 38bc
000001a0: 8b53 943b b7b6 00bb 9f9d f03b ff2f 573a
000001b0: 95d6 88bc 3781 1e3c db2c fd3b 4ca2 303c
000001c0: a54d 58bb e4c3 303c f7f6 d13b 3379 173c
000001d0: 5756 5d3c f899 5c3c 2344 9c3c 1d92 eabb
000001e0: d559 3b3c 1542 c83b 7f0d 663a 33a7 4dbc
000001f0: 0302 3b3c c64b 4c3b 73c8 92ba ff23 723b
00000200: 7da3 ab3a 48a8 47b8 3ca3 873b 88b7 553a
00000210: a61b 8dbb c626 14bc 66ff 1fbc f5dc bbbc
00000220: 6be0 2b3c 0be0 523b 5f64 8fbb 13ab d73b
00000230: 9ab0 99bb 4796 263a 681e d0bc 8bee 5bbc
00000240: d9d5 493c 6aa2 0abc 23fe 1fbc 8c69 3b3c
00000250: 7498 a53c 75fa 17bc 8f72 0bbc a255 7f3c
00000260: a595 093c c30e b7bb aa37 4e3c b099 313b
00000270: d70d 4dbb 9bb0 203c d805 9c3b 745e 9e3b
00000280: 2016 68ba c165 2a3b 5fa5 153b 1b67 52ba
00000290: 0f4c 173c 97f5 1f3c 188e 1fbc cc91 a93b
000002a0: f288 b439 9c47 1c3b e362 f9bb 6b41 503c
000002b0: abe4 9f3b 970d 463c cdef 403a ffff f33b
000002c0: 9910 273c e699 363c e84e fc3b d2fc 413c
000002d0: 6957 c837 a1d9 bbb9 4cca 03bb e5e2 9dbb
000002e0: d8c1 f13b 6267 54bb 4773 443b f280 ed3a
000002f0: 3580 07bc 281f 5bba 60a4 9f3b 9ffe 883b
00000300: 7041 0abc 8996 043c d74d fdba ad0a a7ba
00000310: 1bf1 963c 8b7c fa3b 647a 94bb 2dd1 663c
00000320: 04c6 c4bb f083 ca3b 3f09 33bb af68 c2ba
00000330: b873 babb b120 a5bb 8f8c 1e37 b01b 553b
00000340: e3b1 0dbc ad64 39bb ba55 f8b9 bb23 c93b
00000350: 1bc3 143c 05b7 2b3c 5769 2ebc 7349 14bb
00000360: 8b80 17bc e6ff 153c 571d 77bc c5e6 0ebb
00000370: f46f c83b 46ba 383a 90a3 3e3b 6861 d9bb
00000380: 5e7c 81bc 8d4c 933c df5b 023b c897 7cbc
00000390: 15be 7c3a 6500 a03c 6769 43b9 60e1 65bc
000003a0: ace5 02bb d7bc 073b 571e af3c 670a 8f3c
000003b0: b4a7 a6ba 2b91 7d39 3ee4 beba 3329 313b
000003c0: bd4e 63bc 5833 e23c 52ab b4bb e444 af3b
000003d0: 9f9b 823a 09be ac3b 2f88 7f3c 2026 cebb
000003e0: 5cc1 08bb 1d21 a83c d2d1 b13b b9a4 1fbc
000003f0: cd88 5f3b cc4b 3b3c 65b3 873b 9014 e33b

action_model._discrete_distribution.branches.2.bias f4 [4]
0.0 0.0 0.0 0.0
00000000: 0000 0000 0000 0000 0000 0000 0000 0000

action_model._discrete_distribution.branches.3.weight f4 [2, 128]
0.017133525 -0.003565525 0.005419019 -0.005573197 -0.0052918396 0.005895264 -0.0013445269 -0.012149519
0.009154084 -0.0023678131 -0.02074748 -0.0067539825 0.00043247078 0.0024686898 -0.007512569 0.009767498
-0.005572857 -0.00090042053 -0.0052991225 -0.01037364 0.0025368137 0.000226277 -0.008420745 -0.0054767397
-0.0012929422 -0.015201292 -0.005484691 -0.0027434295 -0.012221218 -0.007046555 0.007886143 -0.002049327
-0.0011508123 -0.0031825171 0.0056170765 0.0025576346 -0.009603608 -0.008378088 0.0057260594 -0.0025614072
-0.007823189 0.021967797 -0.0041561443 -0.0008798181 0.00936241 -0.022244005 8.68204e-05 -0.008751165
0.008327729 -0.010297212 -0.017995568 -0.0028059133 -0.0069379583 0.007194822 0.0072865807 -0.0031032832
-0.012968319 0.01569209 -0.003301308 0.017302718 -0.0014831742 -0.0062841023 0.0036293052 0.0016368488
-0.010278131 0.0021932973 0.008002849 0.011479309 0.002538172 -0.0028549752 -0.0071171634 -0.0071244366
-0.005734485 -0.0014950276 -0.009374543 -0.011064181 0.00625154 0.00089989364 -0.0045787836 0.0069578574
-0.0025563391 -0.00048300842 0.0037072424 -0.0034486824 -0.0012509067 -0.0027482437 -0.0021245184 0.0030492141
-0.00035045552 -0.010704678 -0.0054208534 -0.006797157 0.010733711 0.009277259 0.0034794323 -0.0022724671
-0.007921892 -0.0079016965 -0.003331224 0.002869512 0.0026520772 0.005650398 -0.016749019 -0.02143785
0.013109969 -0.00966151 -0.0036004756 -0.00192733 0.006799458 0.005882237 -0.012706137 -0.00048794333
-0.00078935904 0.012761766 0.005993237 -0.0054149944 -0.0066755535 -0.0048850626 -0.020514963 0.008160478
0.0066180304 -0.021284835 -0.004600724 -0.015407137 -0.00092862063 0.0019795129 0.007221447 0.004562821
-0.0020270026 -0.0060355193 0.018253569 0.0009131023 0.0039390493 0.00061214005 0.007381248 -0.0062790713
0.0015667537 0.008126016 0.0060897954 0.013101595 0.0102307 0.0035050132 -0.0057008937 0.005391663
-0.0017453898 0.0042812163 0.00065148354 -0.014566885 0.013116357 -0.004381516 0.0060559595 0.011177491
0.0020799697 -0.014434044 -0.003871357 -0.0055688536 0.0032710985 -0.007728621 -0.010959316 -0.0031743515
-0.0072583817 0.0081579685 -0.0024099713 0.008251558 -0.005217663 -0.012558812 0.015119858 -0.010273765
-0.015721997 0.0060093305 -0.0031132489 0.018130204 -0.0022571918 0.007859852 0.00035580047 -0.009416181
-0.001026722 0.010527769 -0.0011812364 -0.0063846335 0.0016365176 -0.0007779374 -0.012292829 0.013820305
0.00027995286 0.009829759 0.0055433284 0.005352537 0.005304621 0.0068906764 0.011492165 -0.010307363
0.00061292195 0.01287414 -0.0033070245 -0.0020762868 0.009459033 -0.011465105 0.019622767 -0.001796935
0.012225735 0.0010231084 0.0021886854 0.0038696479 0.008396314 -0.00299518 -0.00956315 0.010642352
0.013012416 0.0080155255 -0.0062659294 0.0071586 0.018479247 0.0050256113 0.0015905803 0.0056801005
0.0033655774 -0.0016152887 0.0005725469 0.0030169932 -0.00067878555 -0.0002684301 0.0046258075 -0.0012359188
-0.015632806 -0.003986375 0.0027421636 -0.016896972 0.018357111 0.0009036792 -0.0072681657 0.0046883402
-0.0099214455 0.017891843 0.001971199 -0.0018501681 0.014595397 -0.0077316514 0.009324584 0.008981385
-0.018207967 0.000693066 0.014129499 0.0007901112 0.0090280725 0.0010448917 -0.0077002305 -0.0042998656
-0.0011653209 0.0036093318 -0.004446771 0.008893664 0.0025234001 -0.0027179765 -0.0013285107 0.005886993
00000000: 9b5b 8c3c 95ab 69bb 0792 b13b 5d9f b6bb
00000010: 2b67 adbb 0f2d c13b d63a b0ba c70e 47bc
00000020: 03fb 153c 502d 1bbb 9ff6 a9bc 8350 ddbb
00000030: 3fbd e239 bec9 213b ff2b f6bb db07 203c
00000040: 839c b6bb 330a 6cba 43a4 adbb 33f6 29bc
00000050: ac40 263b c544 6d39 2af7 09bc 3976 b3bb
00000060: f177 a9ba d70e 79bc ecb8 b3bb 1ccb 33bb
00000070: 813b 48bc cae6 e6bb e234 013c 004e 06bb
00000080: dad6 96ba c791 50bb 740f b83b fd9d 273b
00000090: 7458 1dbc 3f44 09bc aba1 bb3b 48dd 27bb
000000a0: d52c 00bc cff5 b33c 4430 88bb 98a3 66ba
000000b0: cb64 193c 0f39 b6bc 5913 b638 0c61 0fbc
000000c0: 0771 083c a3b5 28bc 716b 93bc 6ae3 37bb
000000d0: d057 e3bb 8bc2 eb3b 45c4 ee3b 7460 4bbb
000000e0: 1279 54bc b38c 803c c25a 58bb 6ebe 8d3c
000000f0: 1167 c2ba dfea cdbb a3d9 6d3b 888b d63a
00000100: 9b65 28bc 6cbd 0f3b 621e 033c b613 3c3c
00000110: 7657 263b 891a 3bbb 1837 e9bb 1b74 e9bb
00000120: 59e8 bbbb cdf4 c3ba af97 19bc 8a46 35bc
00000130: b8d9 cc3b d7e6 6b3a 9f09 96bb bdfe e33b
00000140: 4188 27bb 4b3c fdb9 35f5 723b 4a03 62bb
00000150: 77f5 a3ba e11b 34bb 813b 0bbb 53d5 473b
00000160: 58bd b7b9 ac62 2fbc 6aa1 b1bb b0ba debb
00000170: 72dc 2f3c a5ff 173c 3007 643b aced 14bb
00000180: d3ca 01bc 1e76 01bc aa50 5abb 6c0e 3c3b
00000190: 79ce 2d3b f926 b93b 3d35 89bc 6e9e afbc
000001a0: 32cb 563c 4f4b 1ebc f5f5 6bbb 779e fcba
000001b0: fdcd de3b c8bf c03b 672d 50bc a5d2 ffb9
000001c0: fdec 4eba ba16 513c ea62 c43b 4470 b1bb
000001d0: 9abe dabb e012 a0bb ff0e a8bc 87b3 053c
000001e0: 10dc d83b 895d aebc acc1 96bb 376e 7cbc
000001f0: ad6e 73ba b7ba 013b e3a1 ec3b b783 953b
00000200: 76d7 04bb 9bc5 c5bb 8288 953c 425d 6f3a
00000210: 2413 813b 0678 203a 65de f13b abc0 cdbb
00000220: 885b cd3a fb22 053c e88c c73b 13a8 563c
00000230: aa9e 273c 5db4 653b 90ce babb 8cac b03b
00000240: 90c5 e4ba 7249 8c3b 52c8 2a3a f2a9 6ebc
00000250: fde5 563c d292 8fbb 1271 c63b cc21 373c
00000260: 1a50 083b c57c 6cbc 98b6 7dbb ee7a b6bb
00000270: ed5f 563b 5f40 fdbb b48e 33bc c808 50bb
00000280: b8d7 edbb 00a9 053c 9cf0 1dbb 8b31 073c
00000290: eef8 aabb 7ac3 4dbc 48b9 773c 4b53 28bc
000002a0: 6bcb 80bc ebe9 c43b a607 4cbb cb85 943c
000002b0: 65ed 13bb 9cc6 003c bb8a ba39 5346 1abc
000002c0: 1393 86ba aa7c 2c3c b7d3 9aba 3036 d1bb
000002d0: 6b80 d63a 7fee 4bba dd67 49bc 8f6e 623c
000002e0: a3c6 9239 ff0c 213c cfa4 b53b 5664 af3b
000002f0: 63d2 ad3b 2fcb e13b a249 3c3c 37e0 28bc
00000300: 7fac 203a 0fee 523c aaba 58bb 5012 08bb
00000310: 0ffa 1a3c 23d8 3bbc edbf a03c 2287 ebba
00000320: 734e 483c d219 863a 0c70 0f3b eb99 7d3b
00000330: b290 093c c84a 44bb c2ae 1cbc 425d 2e3c
00000340: 0732 553c 8d53 033c 6d52 cdbb b092 ea3b
00000350: ca61 973c e2ad a43b 057b d03a 2320 ba3b
00000360: 0591 5c3b 18b8 d3ba f916 163a bfb8 453b
00000370: 87f0 31ba 14bc 8cb9 1694 973b 8efe a1ba
00000380: 5f10 80bc 23a0 82bb dfb5 333b 856b 8abc
00000390: a761 963c e2e4 6c3a cb29 eebb a6a0 993b
000003a0: 8f8d 22bc ea91 923c 3b2f 013b 5781 f2ba
000003b0: 8821 6f3c cb59 fdbb 24c6 183c a926 133c
000003c0: e028 95bc dfae 353a 6a7f 673c 771f 4f3a
000003d0: 7bea 133c bff4 883a 3752 fcbb e3e5 8cbb
000003e0: aebd 98ba 8a8a 6c3b 38b6 91bb bbb6 113c
000003f0: a15f 253b 1420 32bb 6c21 aeba ade7 c03b

action_model._discrete_distribution.branches.3.bias f4 [2]
0.0 0.0
00000000: 0000 0000 0000 0000

action_model._discrete_distribution.branches.4.weight f4 [2, 128]
0.0020847854 0.0065316753 0.0010058183 -0.01841191 0.02239598 0.0052101966 -0.0032172077 -0.0037983942
-0.0017230846 0.0063232863 0.009461335 -0.016096829 -0.024581414 0.010282154 -0.00871916 -0.0017784141
-0.010167186 -0.007632208 -0.0006716499 -0.005318472 0.0006276533 0.010746045 -0.010671931 -0.004512036
-0.0076764748 0.0014825502 -0.0076713087 -0.003717516 0.0014581549 -0.0012024385 -0.0038922955 -0.0051796497
-0.009326875 -0.008760838 -0.010288085 -0.01022662 0.0024451036 3.304779e-05 0.006174535 0.0016665176
0.012347264 -0.010806928 0.006678179 0.0017373039 -0.004131209 -0.0058328016 0.008684713 0.0076681934
-0.0008152779 -0.0033106722 -0.0054137902 -0.0051697115 -0.0021355562 0.0039542723 -0.008203171 0.0017452057
0.00075465924 -0.010714004 0.0061564217 -0.010274517 -0.00849863 -0.007356821 0.020269789 -0.017178848
0.018219303 -0.011299695 -0.010134737 -0.0051060123 0.0030562724 -0.0041139713 -0.001179989 0.003075354
-0.003495238 -0.0051705497 0.0019247112 0.0048804474 0.011671945 0.008763634 -0.015217477 -0.004433573
-0.008543096 0.005994813 -0.010125863 0.0074676233 -0.003177377 -0.0043871757 -0.0017297043 0.003937624
0.00558447 -0.0057775816 -0.0023585318 -0.010052618 -0.006017987 -0.00939406 0.00886786 -0.0040974594
-0.0036194006 0.0008240384 0.015167658 0.0230578 0.004918351 0.02465942 -0.0046335636 -0.015980896
0.007818174 0.0051083486 -0.0008140944 -0.00324674 -0.016872805 0.005586274 0.0038278722 -0.013999509
0.00075227016 -0.0058937906 -0.00444527 0.0009916766 -0.0056823087 0.02184218 0.0029183454 0.0055051893
0.00543327 0.014333658 0.011615506 0.014011033 0.0013317992 -0.007847635 -0.0063436995 0.0022808316
0.0018910276 -0.00084765005 -0.0076873093 -0.0043774503 0.0011878425 0.00051783986 0.0071452046 -0.00035269704
-0.0051569617 -0.006874893 0.0034617488 0.00048589162 0.0011135078 0.009104571 0.012312929 0.0069084126
0.014150641 0.021351459 0.0011313884 0.00074546883 -0.0035986442 -0.010486957 0.0029437018 0.0041596787
0.0025272453 -0.016412359 -0.0058073476 -0.0047730855 0.0046925093 0.0118270805 -0.00075695565 0.015846293
0.0049212542 -0.004976343 -0.01848915 -0.003142237 0.013269329 0.00017036384 -0.010879227 0.013569954
-0.01317617 0.004756048 -0.012736417 -0.005543877 0.008427454 0.00704636 -0.006014741 -0.008377084
0.0062422934 -0.0015354425 -0.0011880724 0.015661871 0.0036975127 0.0024554469 0.0062871235 -0.0005313288
-0.00045678453 0.0072105746 0.008604188 -0.016036274 0.003778093 -0.012095454 0.0031223842 0.014183313
0.0048171985 0.0034140588 0.00067693996 -0.01811978 -0.004768506 -0.005089456 0.010023911 -0.010487697
-0.0142248375 -0.002591428 0.0032323636 0.013457823 -0.0008564608 -0.019467933 0.020683939 -0.008402489
-0.0019275601 0.011573526 0.00017403999 -0.0012972966 -0.0031617258 -0.020412734 -0.0005597169 -0.014316968
0.006465667 -0.0029494145 -0.005235608 0.002607297 -0.0065924674 0.008931811 0.0018032223 0.022525089
0.0017373677 -0.0054983995 0.017707972 0.0068598697 -0.0054554413 -0.0027689335 -0.0076964176 0.012955903
0.0043620807 -0.013384267 0.01729465 0.000606403 0.0093372185 0.0065754266 0.010944279 0.014887169
-0.008925273 -0.0015338394 0.004971696 0.008712196 -0.0043335925 0.002844812 -0.016784426 -0.02561894
0.01642865 0.005125139 -0.0016045552 0.0029676887 -0.011850841 0.0035998959 -0.004668138 -0.004739554
00000000: e5a0 083b aa07 d63b a9d5 833a 93d4 96bc
00000010: c677 b73c 4cba aa3b cad7 52bb 7bee 78bb
00000020: 20d9 e1ba 9233 cf3b b703 1b3c 7fdd 83bc
00000030: f65e c9bc 7b76 283c cfda 0ebc ad19 e9ba
00000040: 4594 26bc 9a17 fabb a911 30ba 9446 aebb
00000050: 1a89 243a 2e10 303c 53d9 2ebc b4d9 93bb
00000060: f08a fbbb 2152 c23a 9a5f fbbb 92a1 73bb
00000070: 8f1f bf3a 249b 9dba e215 7fbb 0dba a9bb
00000080: c0cf 18bc 9e89 0fbc 5b8f 28bc 8e8d 27bc
00000090: 083e 203b cb9c 0a38 c153 ca3b 0d6f da3a
000000a0: 2e4c 4a3c 8b0f 31bc a0d4 da3b 3fb6 e33a
000000b0: 185f 87bb 1621 bfbb 544a 0e3c 7845 fb3b
000000c0: 60b8 55ba ddf7 58bb 2a66 b1bb af66 a9bb
000000d0: b0f4 0bbb d792 813b 9866 06bc 63bf e43a
000000e0: 53d4 453a ca89 2fbc cfbb c93b 7356 28bc
000000f0: d63d 0bbc 7d11 f1bb d40c a63c a8ba 8cbc
00000100: a640 953c 5b22 39bc 2b0c 26bc 5650 a7bb
00000110: be4b 483b 7ece 86bb dca9 9aba e18b 493b
00000120: 5d10 65bb b76d a9bb 9746 fc3a 29ec 9f3b
00000130: b03b 3f3c 5895 0f3c ba52 79bc 8247 91bb
00000140: 57f8 0bbc 2370 c43b f3e6 25bc f7b2 f43b
00000150: 8a3b 50bb 4cc2 8fbb 3fb7 e2ba 2f07 813b
00000160: eefd b63b de51 bdbb 9991 1abb bcb3 24bc
00000170: 8932 c5bb 8be9 19bc 804a 113c fb43 86bb
00000180: 7733 6dbb 4804 583a c581 783c b6e3 bc3c
00000190: 1e2a a13b 8d02 ca3c 26d5 97bb 5eea 82bc
000001a0: cc17 003c ef63 a73b f368 55ba 42c7 54bb
000001b0: d638 8abc 100d b73b 0add 7a3b 325e 65bc
000001c0: ff33 453a b320 c1bb a1a9 91bb 25fb 813a
000001d0: a932 babb 5fee b23c b641 3f3b e064 b43b
000001e0: 9209 b23b b8d7 6a3c f74e 3e3c 888e 653c
000001f0: c48f ae3a 5e93 00bc cfde cfbb 017a 153b
00000200: 5bdc f73a d534 5eba d3e5 fbbb b770 8fbb
00000210: 61b1 9b3a a5bf 073a 5222 ea3b 32ea b8b9
00000220: bbfb a8bb c846 e1bb 82de 623b 45bf fe39
00000230: 1ff3 913a 572b 153c 2bbc 493c f75f e23b
00000240: 17d8 673c 41e9 ae3c 184b 943a 916b 433a
00000250: 3bd7 6bbb 7cd1 2bbc 1feb 403b ea4d 883b
00000260: 24a0 253b 3673 86bc 904b bebb 8b67 9cbb
00000270: 9fc3 993b 5fc6 413c 6f6e 46ba 16d0 813c
00000280: 7942 a13b 9710 a3bb 8f76 97bc fded 4dbb
00000290: 9a67 593c b2a3 3239 c93e 32bc 8354 5e3c
000002a0: dde0 57bc 9fd8 9b3b 68ac 50bc 69a9 b5bb
000002b0: 4e13 0a3c 27e5 e63b 4e17 c5bb 0940 09bc
000002c0: 278c cc3b e740 c9ba 18b9 9bba 534d 803c
000002d0: f851 723b 90eb 203b 3704 ce3b df48 0bba
000002e0: 957c efb9 af46 ec3b 95f8 0c3c 815e 83bc
000002f0: e299 773b 032c 46bc eaa0 4c3b 2061 683c
00000300: 97d9 9d3b 67be 5f3b ac74 313a ef6f 94bc
00000310: 2141 9cbb 74c5 a6bb 543b 243c 97d4 2bbc
00000320: 4b0f 69bc f3d4 29bb 10d6 533b 337e 5c3c
00000330: 1d84 60ba 377b 9fbc 5d71 a93c 98aa 09bc
00000340: 2fa6 fcba e39e 3d3c 817e 3639 0d0a aaba
00000350: f534 4fbb 9b38 a7bc f7b9 12ba b791 6abc
00000360: f2dd d33b f74a 41bb 778f abbb 2fdf 2a3b
00000370: a005 d8bb bb56 123c 1a5a ec3a 8986 b83c
00000380: 63b8 e33a eb2b b4bb 4f10 913c c2c8 e03b
00000390: 8fc3 b2bb ff76 35bb 3b32 fcbb ff44 543c
000003a0: c9ef 8e3b af49 5bbc 83ad 8d3c 04f7 1e3a
000003b0: 22fb 183c ad76 d73b a24f 333c 50e9 733c
000003c0: 4f3b 12bc 1c0b c9ba 9ce9 a23b 99bd 0e3c
000003d0: cf00 8ebb 0770 3a3b 7e7f 89bc d0de d1bc
000003e0: 6095 863c c8f0 a73b f04f d2ba 8e7d 423b
000003f0: 082a 42bc 3bec 6b3b 2ef7 98bb 434e 9bbb

action_model._discrete_distribution.branches.4.bias f4 [2]
0.0 0.0
00000000: 0000 0000 0000 0000

network_body._body_endoder.seq_layers.0.weight f4 [128, 1]
1.7963204 -0.5152927 0.30122304 1.3344038 1.3337427 -2.0091407 -1.1591159 -0.9343998
-0.02042677 2.1341493 0.6572589 -0.13652991 0.9866408 -1.7662609 -0.542775 -2.7659333
0.5292784 -0.19382502 2.0411837 -0.27350485 0.5116462 -1.0185353 0.035753597 -0.5172401
-0.116343796 -0.16119559 -0.5445688 -0.3039857 -0.43903393 1.4565234 -0.24670275 0.2876448
1.6301914 0.15976314 0.83939546 -0.7782864 -0.21200052 0.38251826 -0.18357852 0.1010542
-0.8212724 -0.18295102 1.6544342 1.2674366 -2.6839693 -1.0437831 0.08377958 -0.26582274
1.323822 -0.54803663 0.5463461 1.2326285 0.2944276 0.8822612 -0.5053041 1.1997355
-0.21837516 -0.046992756 0.6192249 0.031359155 -2.0598683 -1.6580212 -1.4861803 -0.14205012
1.1758828 -0.6898883 0.9221556 -1.3695862 0.013652106 -0.53881705 1.5829194 1.8970132
-1.0377651 -0.13818727 -2.160405 1.881123 1.6240984 0.14414352 0.6261284 -0.034027677
-0.9072253 -0.049805097 0.5943831 -0.11032962 0.3228428 0.07226031 0.7788781 -0.05416145
0.18782566 0.32997677 -0.9587645 0.8300465 1.3475354 1.5202525 -0.69761556 1.3105414
-0.35797235 -0.48960194 -0.3953429 -0.89691234 0.5633333 -1.3483216 -0.48395732 -0.46211243
0.840759 -1.1999227 -1.3791398 0.21861106 2.5113523 -0.5789179 -0.17955095 0.46664676
-0.25950527 -1.1999363 0.2520581 0.9017757 0.7268574 0.00083126145 0.83191967 0.7061345
-0.46659297 -0.06612586 0.4708348 -0.1860053 -1.3091574 0.58212996 -0.23130412 0.44673434
00000000: d4ed e53f 39ea 03bf e839 9a3e becd aa3f
00000010: 15b8 aa3f c395 00c0 e95d 94bf d334 6fbf
00000020: 0b56 a7bc e795 0840 1f42 283f 7fce 0bbe
00000030: 7e94 7c3f d614 e2bf 4df3 0abf 0d05 31c0
00000040: ca7e 073f 117a 46be c1a2 0240 d408 8cbe
00000050: 3ffb 023f 5d5f 82bf 5d72 123d d969 04bf
00000060: a845 eebd 7510 25be dc68 0bbf 03a4 9bbe
00000070: 0ec9 e0be 5c6f ba3f a59f 7cbe 2e46 933e
00000080: 1daa d03f f398 233e 9fe2 563f c73d 47bf
00000090: aa16 59be 6fd9 c33e 02fc 3bbe 81f5 ce3d
000000a0: e83e 52bf 8357 3bbe 80c4 d33f 5d3b a23f
000000b0: 27c6 2bc0 af9a 85bf a194 ab3d eb19 88be
000000c0: 0073 a93f 214c 0cbf 57dd 0b3f c5c6 9d3f
000000d0: 37bf 963e dfdb 613f 9c5b 01bf ef90 993f
000000e0: bd9d 5fbe 7a7b 40bd 8685 1e3f 7572 003d
000000f0: e2d4 03c0 0a3a d4bf 283b bebf 9675 11be
00000100: 5483 963f 859c 30bf 6412 6c3f 9a4e afbf
00000110: 15ad 5f3c eaef 09bf 1a9d ca3f 54d1 f23f
00000120: 7dd5 84bf f780 0dbe 1344 0ac0 a3c8 f03f
00000130: 75e2 cf3f 5c9a 133e f349 203f 9b60 0bbd
00000140: eb3f 68bf 6e00 4cbd 7e29 183f 7ff4 e1bd
00000150: a74b a53e 37fd 933d 8e64 473f 66d8 5dbd
00000160: 5f55 403e b7f2 a83e 9771 75bf ed7d 543f
00000170: 0a7c ac3f a297 c23f ef96 32bf d2bf a73f
00000180: 2748 b7be 1bad fabe 626a cabe 0c9c 65bf
00000190: 9c36 103f cd95 acbf 41c9 f7be 009a ecbe
000001a0: fb3b 573f 1197 99bf a787 b0bf 94db 5f3e
000001b0: ffb9 2040 f733 14bf 34dc 37be 53ec ee3e
000001c0: e0dd 84be 8397 99bf c20d 813e c6da 663f
000001d0: 5413 3a3f 03e9 593a b0f8 543f 3bc5 343f
000001e0: 46e5 eebe ff6c 87bd 4211 f13e 2c78 3ebe
000001f0: 7892 a7bf 7806 153f fdda 6cbe 5dba e43e
