results/ppo/My Behavior/My Behavior-2112.pt (torch, 151876 bytes, 16 tensors)

discrete_act_size_vector f4 [1, 3]
8.0 3.0 3.0
00000000: 0000 0041 0000 4040 0000 4040

network_body._body_endoder.seq_layers.0.weight f4 [128, 1]
0.23514533 -0.39421123 -0.21919493 -0.5176859 0.057144277 1.5919484 0.24720825 -0.020058088
-1.8085357 0.33511236 0.61036503 -0.5012265 3.0019362 0.25556567 0.5613861 1.51655
0.46364647 0.6174802 -0.027024124 -0.41453066 -1.4376309 0.62968963 0.34296235 -1.229387
0.48566628 0.5160062 1.3419595 1.0640897 -0.616513 1.8015873 -0.7514197 1.0188185
0.6550113 -0.54657704 -0.7245696 0.19088426 -0.7413778 -0.3907068 0.3286366 -0.549574
0.044453543 0.97818935 0.3694603 -0.15404445 0.009767454 0.07189173 -0.27793333 0.8551441
-2.9138513 -1.1375173 0.58854544 -1.2611326 -0.5394181 -0.52524805 0.5225196 -0.16579005
-0.89544356 0.04692141 -0.9922964 -0.9347959 -0.659559 0.13312098 -1.364358 0.9308832
0.5388482 0.3837078 0.7756674 1.47473 0.16939273 3.1572225 0.6248727 -0.67010045
0.1907356 1.9787459 2.203105 -0.0065381955 -0.8281468 -0.0587501 -0.5614983 0.0618851
-0.05638334 -0.8783839 1.4849436 1.0045564 0.11670439 -0.40503007 0.9642345 0.1450385
0.7336604 0.46318135 0.23468667 -0.64599144 -0.6610267 -1.3117503 0.25684822 -0.6566822
0.49918205 1.3411037 -0.8183294 2.1365852 -0.43130776 -1.1519998 0.80435824 -0.34302968
0.88221097 -0.48040408 0.3503481 0.102324165 -0.033977304 -0.16436681 0.1550569 -1.4417834
0.8318292 -2.5342617 0.9924121 0.9413266 0.99482983 0.107488625 -0.05368958 -0.15206599
-0.46942824 -1.2529465 -0.15292865 0.8771416 -0.27245033 -0.25728512 -0.9954888 -0.6896855
00000000: f0c9 703e 0ed6 c9be a374 60be 1087 04bf
00000010: 1e10 6a3d f7c4 cb3f 2924 7d3e dc50 a4bc
00000020: 197e e7bf d993 ab3e e240 1c3f 6150 00bf
00000030: b91f 4040 81d9 823e 00b7 0f3f 4f1e c23f
00000040: 1263 ed3e 2f13 1e3f b261 ddbc 5d3d d4be
00000050: 4a04 b8bf 5733 213f c398 af3e 8e5c 9dbf
00000060: 40a9 f83e fb18 043f 54c5 ab3f 1734 883f
00000070: ccd3 1dbf 6a9a e63f 0b5d 40bf a568 823f
00000080: d2ae 273f 79ec 0bbf 657d 39bf 2a77 433e
00000090: efca 3dbf b90a c8be 0e43 a83e e2b0 0cbf
000000a0: eb14 363d 9e6a 7a3f e729 bd3e d4bd 1dbe
000000b0: ac07 203c f93b 933d 474d 8ebe b9ea 5a3f
000000c0: 8a7c 3ac0 2b9a 91bf eaaa 163f cb6c a1bf
000000d0: 4e17 0abf a876 06bf d8c3 053f dec4 29be
000000e0: ca3b 65bf aa30 403d 2307 7ebf c94e 6fbf
000000f0: dcd8 28bf de50 083e 48a3 aebf 5d4e 6e3f
00000100: f5f1 093f 5975 c43e 2492 463f f4c3 bc3f
00000110: 4a75 2d3e ef0f 4a40 a8f7 1f3f b48b 2bbf
00000120: 3150 433e 8c47 fd3f acff 0c40 5c3e d6bb
00000130: 6e01 54bf f2a3 70bd 5abe 0fbf 3b7b 7d3d
00000140: 38f2 66bd c4dd 60bf a212 be3f 4e95 803f
00000150: b602 ef3d 1a60 cfbe 12d8 763f f984 143e
00000160: 2bd1 3b3f 1b26 ed3e b451 703e b25f 25bf
00000170: 0c39 29bf 6fe7 a7bf 9c81 833e 531c 28bf
00000180: ca94 ff3e 49a9 ab3f 097e 51bf d0bd 0840
00000190: 5fd4 dcbe bb74 93bf 6cea 4d3f 96a1 afbe
000001a0: 94d8 613f 86f7 f5be d360 b33e 558f d13d
000001b0: c92b 0bbd c64f 28be 3cc7 1e3e 5c8c b8bf
000001c0: c2f2 543f 5831 22c0 b80e 7e3f c8fa 703f
000001d0: 2bad 7e3f ff22 dc3d 9be9 5bbd 30b7 1bbe
000001e0: e658 f0be 8d60 a0bf 5499 1cbe 5a8c 603f
000001f0: 9c7e 8bbe e0ba 83be 5bd8 7ebf 3b8f 30bf

network_body._body_endoder.seq_layers.0.bias f4 [128]
0.0 0.0 0.0 0.0 0.0 0.0 0.0 0.0
0.0 0.0 0.0 0.0 0.0 0.0 0.0 0.0
0.0 0.0 0.0 0.0 0.0 0.0 0.0 0.0
0.0 0.0 0.0 0.0 0.0 0.0 0.0 0.0
0.0 0.0 0.0 0.0 0.0 0.0 0.0 0.0
0.0 0.0 0.0 0.0 0.0 0.0 0.0 0.0
0.0 0.0 0.0 0.0 0.0 0.0 0.0 0.0
0.0 0.0 0.0 0.0 0.0 0.0 0.0 0.0
0.0 0.0 0.0 0.0 0.0 0.0 0.0 0.0
0.0 0.0 0.0 0.0 0.0 0.0 0.0 0.0
0.0 0.0 0.0 0.0 0.0 0.0 0.0 0.0
0.0 0.0 0.0 0.0 0.0 0.0 0.0 0.0
0.0 0.0 0.0 0.0 0.0 0.0 0.0 0.0
0.0 0.0 0.0 0.0 0.0 0.0 0.0 0.0
0.0 0.0 0.0 0.0 0.0 0.0 0.0 0.0
0.0 0.0 0.0 0.0 0.0 0.0 0.0 0.0
00000000: 0000 0000 0000 0000 0000 0000 0000 0000
00000010: 0000 0000 0000 0000 0000 0000 0000 0000
00000020: 0000 0000 0000 0000 0000 0000 0000 0000
00000030: 0000 0000 0000 0000 0000 0000 0000 0000
00000040: 0000 0000 0000 0000 0000 0000 0000 0000
00000050: 0000 0000 0000 0000 0000 0000 0000 0000
00000060: 0000 0000 0000 0000 0000 0000 0000 0000
00000070: 0000 0000 0000 0000 0000 0000 0000 0000
00000080: 0000 0000 0000 0000 0000 0000 0000 0000
00000090: 0000 0000 0000 0000 0000 0000 0000 0000
000000a0: 0000 0000 0000 0000 0000 0000 0000 0000
000000b0: 0000 0000 0000 0000 0000 0000 0000 0000
000000c0: 0000 0000 0000 0000 0000 0000 0000 0000
000000d0: 0000 0000 0000 0000 0000 0000 0000 0000
000000e0: 0000 0000 0000 0000 0000 0000 0000 0000
000000f0: 0000 0000 0000 0000 0000 0000 0000 0000
00000100: 0000 0000 0000 0000 0000 0000 0000 0000
00000110: 0000 0000 0000 0000 0000 0000 0000 0000
00000120: 0000 0000 0000 0000 0000 0000 0000 0000
00000130: 0000 0000 0000 0000 0000 0000 0000 0000
00000140: 0000 0000 0000 0000 0000 0000 0000 0000
00000150: 0000 0000 0000 0000 0000 0000 0000 0000
00000160: 0000 0000 0000 0000 0000 0000 0000 0000
00000170: 0000 0000 0000 0000 0000 0000 0000 0000
00000180: 0000 0000 0000 0000 0000 0000 0000 0000
00000190: 0000 0000 0000 0000 0000 0000 0000 0000
000001a0: 0000 0000 0000 0000 0000 0000 0000 0000
000001b0: 0000 0000 0000 0000 0000 0000 0000 0000
000001c0: 0000 0000 0000 0000 0000 0000 0000 0000
000001d0: 0000 0000 0000 0000 0000 0000 0000 0000
000001e0: 0000 0000 0000 0000 0000 0000 0000 0000
000001f0: 0000 0000 0000 0000 0000 0000 0000 0000

network_body._body_endoder.seq_layers.2.weight f4 [128, 128]
0.081284635 0.10028269 -0.078704424 0.07074919 -0.08059027 0.14252488 -0.00079736684 0.0038285248
-0.0140005415 0.10348208 0.10275836 0.12804744 0.005179053 -0.21863091 0.08421131 0.017745018
0.009091196 -0.007937965 -0.13880524 -0.1936448 -0.025593821 0.14556275 -0.029909581 0.07472915
-0.019581538 -0.07919746 0.003422409 0.017375747 0.084122956 0.10904301 0.06604345 -0.017861977
0.0055601024 -0.016818743 -0.009608881 -0.11461751 0.08191847 0.0650778 0.018606504 0.008730403
-0.03092692 0.1923859 -0.06830945 -0.0083130235 0.110834576 0.10143839 0.012060052 -0.1250947
-0.06904554 -0.07214787 -0.13284458 0.029824464 0.069238976 0.07508936 -0.074987024 -0.08142607
0.0687133 -0.07989181 0.062689975 -0.11322873 -0.12084939 0.05435339 -0.0016385274 0.106431566
-0.026948482 0.09239138 -0.07529269 0.1326596 -0.010943862 0.0766007 0.11455183 -0.020068398
-0.025399646 0.059956558 -0.00062265736 -0.022303382 -0.1333732 0.005177753 -0.09124112 0.022175625
0.09125923 -0.072920084 -0.008486097 0.03232513 -0.13980776 -0.06390867 -0.045992557 -0.01563895
0.15656418 0.05282804 -0.058330383 0.015907824 0.06829135 0.10991272 0.021043044 0.016540732
-0.0010712818 0.009698552 -0.03402814 -0.20958635 -0.044910703 0.013666812 0.058277726 0.040646233
0.20587885 -0.19474804 -0.01566801 -0.09708447 -0.1 0.06994059 -0.028299913 -0.18979096
0.06439708 0.12267197 0.078513965 0.03609666 0.019410111 0.03298495 -0.07880856 0.028277816
0.016966255 -0.060523894 -0.03787068 0.035761263 0.024322368 0.040203393 0.08932604 0.04365703
0.04760556 0.09598287 -0.08726919 0.0088175405 -0.00023969157 -0.004527302 0.09119587 0.07463214
-0.0083764875 -0.14157878 -0.043288305 -0.03400632 -0.032315094 -0.06456595 0.030736024 0.073879555
-0.04572335 -0.017768666 -0.05156189 -0.02357055 -0.015726369 -0.20678142 0.013029515 -0.08097903
-0.06825239 -0.033123676 -0.073121816 -0.008073833 -0.12381132 -0.13177378 0.0066564875 0.017553475
-0.079883575 0.14378776 -0.062004223 0.013166481 0.007208302 -0.0024285954 -0.047327965 -0.022321278
0.05313182 0.009787201 0.04231748 0.04895486 0.118731834 0.14328294 -0.061347134 0.09050327
-0.06261483 0.12520918 0.06212317 -0.10295804 -0.041456282 0.015154589 0.0060092253 -0.019030727
-0.042205162 -0.16339341 -0.038282357 0.046143327 0.19744676 -0.11647006 0.0804219 0.04500498
0.11410785 -0.04458828 0.24580675 0.05293403 -0.0055270223 0.15710515 -0.08452678 -0.046700977
-0.06366353 0.13604558 -0.0034041817 0.044026867 0.007425824 0.12818286 0.2675769 0.11272464
-0.037394952 -0.049874894 -0.0031049603 0.06907588 -0.005160702 -0.09314022 0.010071461 -0.13283804
0.06380842 0.039269242 -0.095905565 0.02064372 -0.04113331 -0.003207763 -0.14238526 0.09075069
-0.24781303 -0.047397994 -0.14016749 -0.08873417 -0.21624245 0.031360578 0.0022226528 -0.06417219
0.08755335 0.015530658 0.032853965 0.0019905227 -0.12727971 -0.03559052 -0.071944244 0.10174562
-0.0010017504 -0.0012108717 -0.20735292 0.02940706 -0.04528387 0.026603382 -0.096273966 -0.07588475
-0.06926073 -0.08053004 0.14710903 0.010519319 -0.0116331335 -0.07446966 -0.16925953 0.07912213
00000000: 8f78 a63d 0361 cd3d c92f a1bd f4e4 903d
00000010: 830c a5bd 0bf2 113e 6206 51ba fde7 7a3b
00000020: 8762 65bc 6aee d33d fa72 d23d de1e 033e
00000030: 0cb5 a93b c8e0 5fbe fb76 ac3d 005e 913c
00000040: 3df3 143c 3d0e 02bc f622 0ebe d34a 46be
00000050: 22aa d1bc 670e 153e f004 f5bc 990b 993d
00000060: 7669 a0bc 4732 a2bd 7f4a 603b 9557 8e3c
00000070: a848 ac3d f151 df3d ca41 873d 4853 92bc
00000080: 8531 b63b 76c7 89bc 916e 1dbc 96bc eabd
00000090: dfc4 a73d 8247 853d ab6c 983c f709 0f3c
000000a0: 745a fdbc cf00 453e d3e5 8bbd 5933 08bc
000000b0: 3dfd e23d eebe cf3d 8697 453c d318 00be
000000c0: c067 8dbd 43c2 93bd 6908 08be 6f52 f43c
000000d0: 2acd 8d3d 73c8 993d cc92 99bd b6c2 a6bd
000000e0: 8fb9 8c3d 519e a3bd 9a63 803d 77e4 e7bd
000000f0: e37f f7bd a9a1 5e3d dbc3 d6ba cbf8 d93d
00000100: 10c3 dcbc b137 bd3d 0e33 9abd ebd7 073e
00000110: e24d 33bc d4e0 9c3d 269a ea3d 7b66 a4bc
00000120: eb12 d0bc 0295 753d d439 23ba 95b5 b6bc
00000130: fc92 08be 24aa a93b a0dc babd a8a9 b53c
00000140: 1fe6 ba3d 2057 95bd 4509 0bbc 5b67 043d
00000150: c429 0fbe 8ce2 82bd b162 3cbd 411d 80bc
00000160: 5c52 203e 3762 583d d7eb 6ebd 2051 823c
00000170: 56dc 8b3d ec19 e13d 7662 ac3c 6e80 873c
00000180: 416a 8cba ade6 1e3c 1761 0bbd ce9d 56be
00000190: 49f4 37bd c4ea 5f3c a0b4 6e3d aa7c 263d
000001a0: e8d1 523e 086c 47be 335a 80bc 39d4 c6bd
000001b0: cdcc ccbd 033d 8f3d 38d5 e7bc 9058 42be
000001c0: 9ee2 833d 713b fb3d eecb a03d 17da 133d
000001d0: f401 9f3c 3a1b 073d 6266 a1bd e1a6 e73c
000001e0: d1fc 8a3c e7e7 77bd 491e 1bbd 677a 123d
000001f0: b43f c73c 50ac 243d 92f0 b63d b7d1 323d
00000200: 0cfe 423d ab92 c43d 30ba b2bd 7277 103c
00000210: b755 7bb9 c359 94bb e6c4 ba3d bcd8 983d
00000220: 893d 09bc 07fa 10be 144f 31bd 364a 0bbd
00000230: d55c 04bd 273b 84bd 1dca fb3c 2a4e 973d
00000240: 6848 3bbd 988f 91bc 8f32 53bd 0717 c1bc
00000250: 96d4 80bc 82be 53be bf79 553c 55d8 a5bd
00000260: e9c7 8bbd b1ac 07bd e4c0 95bd 1c48 04bc
00000270: ca90 fdbd b5ef 06be aa1e da3b 4ecc 8f3c
00000280: 009a a3bd 193d 133e 24f8 7dbd 39b8 573c
00000290: 9f33 ec3b 1229 1fbb f8da 41bd 1ddb b6bc
000002a0: c0a0 593d 7f5a 203c 1855 2d3d e484 483d
000002b0: ad29 f33d c3b8 123e 2247 7bbd c759 b93d
000002c0: 343c 80bd d636 003e dd74 7e3d aadb d2bd
000002d0: 10ce 29bd f44a 783c 09e9 c43b 54e6 9bbc
000002e0: 52df 2cbd 9a50 27be f6cd 1cbd c900 3d3d
000002f0: 7c2f 4a3e db87 eebd 3db4 a43d 2457 383d
00000300: 60b1 e93d 33a2 36bd c4b4 7b3e 5ad1 583d
00000310: 061c b5bb 2ce0 203e 601c adbd 8649 3fbd
00000320: 0662 82bd 884f 0b3e b118 5fbb 8455 343d
00000330: 5454 f33b 5e42 033e d7ff 883e 2ddc e63d
00000340: 732b 19bd 9e49 4cbd 977c 4bbb a877 8d3d
00000350: 1b1b a9bb 4dc0 bebd c502 253c b206 08be
00000360: fdad 823d c9d8 203d 236a c4bd 051d a93c
00000370: 677b 28bd 5539 52bb 71cd 11be 7fdb b93d
00000380: b3c2 7dbe 6624 42bd 1188 0fbe 43ba b5bd
00000390: a96e 5dbe f373 003d eda9 113b b66c 83bd
000003a0: 2c4f b33d 4d74 7e3c e191 063d 6e73 023b
000003b0: 9d55 02be 5dc7 11bd 8157 93bd 0260 d03d
000003c0: 2a4d 83ba 1db6 9eba 5354 54be 13e7 f03c
000003d0: 947b 39bd 56ef d93c 492b c5bd 7769 9bbd
000003e0: 92d8 8dbd efec a4bd c0a3 163e 3959 2c3c
000003f0: e698 3ebc 8d83 98bd 5f52 2dbe c90a a23d

network_body._body_endoder.seq_layers.2.bias f4 [128]
0.0 0.0 0.0 0.0 0.0 0.0 0.0 0.0
0.0 0.0 0.0 0.0 0.0 0.0 0.0 0.0
0.0 0.0 0.0 0.0 0.0 0.0 0.0 0.0
0.0 0.0 0.0 0.0 0.0 0.0 0.0 0.0
0.0 0.0 0.0 0.0 0.0 0.0 0.0 0.0
0.0 0.0 0.0 0.0 0.0 0.0 0.0 0.0
0.0 0.0 0.0 0.0 0.0 0.0 0.0 0.0
0.0 0.0 0.0 0.0 0.0 0.0 0.0 0.0
0.0 0.0 0.0 0.0 0.0 0.0 0.0 0.0
0.0 0.0 0.0 0.0 0.0 0.0 0.0 0.0
0.0 0.0 0.0 0.0 0.0 0.0 0.0 0.0
0.0 0.0 0.0 0.0 0.0 0.0 0.0 0.0
0.0 0.0 0.0 0.0 0.0 0.0 0.0 0.0
0.0 0.0 0.0 0.0 0.0 0.0 0.0 0.0
0.0 0.0 0.0 0.0 0.0 0.0 0.0 0.0
0.0 0.0 0.0 0.0 0.0 0.0 0.0 0.0
00000000: 0000 0000 0000 0000 0000 0000 0000 0000
00000010: 0000 0000 0000 0000 0000 0000 0000 0000
00000020: 0000 0000 0000 0000 0000 0000 0000 0000
00000030: 0000 0000 0000 0000 0000 0000 0000 0000
00000040: 0000 0000 0000 0000 0000 0000 0000 0000
00000050: 0000 0000 0000 0000 0000 0000 0000 0000
00000060: 0000 0000 0000 0000 0000 0000 0000 0000
00000070: 0000 0000 0000 0000 0000 0000 0000 0000
00000080: 0000 0000 0000 0000 0000 0000 0000 0000
00000090: 0000 0000 0000 0000 0000 0000 0000 0000
000000a0: 0000 0000 0000 0000 0000 0000 0000 0000
000000b0: 0000 0000 0000 0000 0000 0000 0000 0000
000000c0: 0000 0000 0000 0000 0000 0000 0000 0000
000000d0: 0000 0000 0000 0000 0000 0000 0000 0000
000000e0: 0000 0000 0000 0000 0000 0000 0000 0000
000000f0: 0000 0000 0000 0000 0000 0000 0000 0000
00000100: 0000 0000 0000 0000 0000 0000 0000 0000
00000110: 0000 0000 0000 0000 0000 0000 0000 0000
00000120: 0000 0000 0000 0000 0000 0000 0000 0000
00000130: 0000 0000 0000 0000 0000 0000 0000 0000
00000140: 0000 0000 0000 0000 0000 0000 0000 0000
00000150: 0000 0000 0000 0000 0000 0000 0000 0000
00000160: 0000 0000 0000 0000 0000 0000 0000 0000
00000170: 0000 0000 0000 0000 0000 0000 0000 0000
00000180: 0000 0000 0000 0000 0000 0000 0000 0000
00000190: 0000 0000 0000 0000 0000 0000 0000 0000
000001a0: 0000 0000 0000 0000 0000 0000 0000 0000
000001b0: 0000 0000 0000 0000 0000 0000 0000 0000
000001c0: 0000 0000 0000 0000 0000 0000 0000 0000
000001d0: 0000 0000 0000 0000 0000 0000 0000 0000
000001e0: 0000 0000 0000 0000 0000 0000 0000 0000
000001f0: 0000 0000 0000 0000 0000 0000 0000 0000

action_model._discrete_distribution.branches.0.weight f4 [8, 128]
-0.0029634915 -0.0064778775 0.0077627855 -0.007087341 0.008276848 -0.0029376352 -0.0047107865 -0.005574368
-0.0030679412 -0.007101213 0.014683914 0.0025733642 -0.0025167693 0.005263538 0.0033446427 -0.0032391306
-0.00052216114 -0.006557207 -0.001719924 0.013597237 -0.008328641 -0.008496955 -0.007176482 -0.0016462173
0.005318472 0.0061901347 0.021935223 -0.0025963099 0.005475787 0.008611728 0.004615111 0.014664193
0.0043784576 -0.009145821 0.0051320326 -0.0001605201 -0.00082106964 -0.0106607005 0.011653013 0.0005209056
-0.0013384831 -0.0015308205 0.00645241 0.00019256758 0.024098897 -0.0065342644 -0.0023899123 -7.045717e-05
-0.0020032737 -0.0015823174 -0.0052383593 0.014121908 -0.00072872237 -0.0036492066 0.00657335 0.00898956
0.0042254804 -0.0065963245 -0.00061069516 -0.015122898 0.0066567743 -0.0011677394 -0.0070415847 0.0022086739
0.0074308366 0.0075617903 0.012885781 0.0039894134 0.0051680403 -0.0078078583 0.0075147077 -0.006079371
-0.0021034144 -0.009180694 0.0172229 -0.011533955 -0.006105768 0.0055570207 -0.009069117 0.01101982
-0.0020051096 -0.002729303 0.005760978 0.012500462 0.006654605 0.0023559423 -0.0077274493 0.008034415
-0.008200276 0.016876655 0.00043013794 0.010170134 -0.00048713756 0.016942326 0.01416338 0.0027517301
0.0049192663 0.003745864 0.010507841 -0.0026702874 -0.00036247986 0.00092819345 0.011698991 -0.017666366
-0.0040673367 -0.0004662509 0.0018065782 -0.003994048 -0.004199551 -0.013208327 -0.0034267516 -0.012512559
-0.00265191 0.012839267 -0.0004542359 -0.0073927613 0.008288879 -0.008144819 -0.006650813 -0.016411854
-0.0042254063 0.005747954 0.0015370855 0.0026549816 -0.0032857915 -0.016644334 0.011121913 -0.013108486
-0.0029719016 0.004392006 -0.0024724228 -0.009219068 -0.0064596147 0.0045324913 -0.0029984561 -0.0057179215
0.0043559256 -0.0002609482 0.0014056967 -0.016747974 0.0007791791 -0.009691894 -0.019995615 -0.0009834875
0.002621301 0.008753689 0.002953846 0.010376969 0.009432721 -0.0046949824 -0.02587608 0.0031798761
-0.00518014 0.010346316 -0.0035147574 -0.0036001455 0.010204686 -0.005288146 0.0089272 -0.008707265
-0.0009453281 -0.008897092 0.015402366 -0.0067233453 0.0001343329 -0.019311057 0.0077146003 0.010328948
-0.0015901247 0.003727596 -0.0023678793 -0.013926493 0.002512088 0.00019625547 0.008354137 -0.022179324
0.0055525 0.0018973968 -0.014353241 0.01437427 -0.011925014 0.0063117626 -0.0063543357 0.010538462
-0.0036411516 -0.0057017663 -0.0078044385 -0.0047583766 -0.0126827005 -0.003333137 -0.007388322 0.0072725224
0.0142032895 0.003931373 -4.3000335e-05 -0.001002422 0.0039198715 0.0034984045 -0.001872401 -0.0043181116
-0.008876226 -0.020318681 0.019187473 0.008878268 0.0030565853 0.014149259 -0.005418066 0.009121231
-0.010647613 -0.00555493 0.002864042 0.017234942 0.0028007776 0.008924573 0.005408718 -0.006813429
0.0012210759 0.005539382 -0.0025961448 0.00012256214 0.018075792 -0.0013178447 0.006362119 -0.010332847
-0.020551123 -0.00010668185 0.0030202782 0.0030685046 -0.0034239336 -0.0025165707 0.007519112 0.002744682
-0.0049071186 -0.0004913322 -0.009679083 -0.008347216 0.002629507 -0.0028367701 -0.0040953425 0.002118047
0.01653883 0.0010298798 0.0034208354 -0.0009890128 -0.014430498 0.012477579 0.004931147 0.0014713792
0.0027226086 -0.015638119 -0.0016618958 0.0064778808 -0.0026628925 -0.0054077683 -0.004102504 0.022598267
00000000: 2337 42bb 6044 d4bb f75e fe3b ed3c e8bb
00000010: 9e9b 073c 5785 40bb f15c 9abb 30a9 b6bb
00000020: 830f 49bb 4bb1 e8bb cd94 703c e3a5 283b
00000030: 62f0 24bb c279 ac3b cb31 5b3b 9847 54bb
00000040: a4e1 08ba d7dd d6bb 136f e1ba f2c6 5e3c
00000050: da74 08bc d036 0bbc b228 ebbb e3c5 d7ba
00000060: 9446 ae3b 9dd6 ca3b 7fb1 b33c da26 2abb
00000070: 3b6e b33b 3518 0d3c 5b3a 973b 1542 703c
00000080: 2a79 8f3b 5bd8 15bc 9c2a a83b 4951 28b9
00000090: 0d3d 57ba 38aa 2ebc 47ec 3e3c 628d 083a
000000a0: 0a70 afba d0a5 c8ba bd6e d33b f7eb 4939
000000b0: 0d6b c53c 621d d6bb 13a0 1cbb 68c2 93b8
000000c0: 5b49 03bb c365 cfba 8ba6 abbb 935f 673c
000000d0: bb07 3fba 8727 6fbb 4265 d73b f348 133c
000000e0: e675 8a3b fb25 d8bb 0f17 20ba 08c6 77bc
000000f0: 1221 da3b d50e 99ba 18bd e6bb 66bf 103b
00000100: 607e f33b e5c8 f73b e21e 533c a0b9 823b
00000110: aa58 a93b 10d9 ffbb f03d f63b 7635 c7bb
00000120: 70d9 09bb 9f6a 16bc 0a17 8d3c eaf8 3cbc
00000130: e512 c8bb ab17 b63b a296 14bc 7a8c 343c
00000140: 2868 03bb 1bde 32bb 96c6 bc3b bdce 4c3c
00000150: df0e da3b 2766 1a3b 8b36 fdbb c7a2 033c
00000160: 735a 06bc e940 8a3c 2384 e139 a2a0 263c
00000170: 7f66 ffb9 a2ca 8a3c 850d 683c 5f56 343b
00000180: cc31 a13b 2b7d 753b 1429 2c3c fdff 2ebb
00000190: 390b beb9 0252 733a 20ad 3f3c 0eb9 90bc
000001a0: 4b47 85bb 2373 f4b9 b5ca ec3a 81e0 82bb
000001b0: 639c 89bb bd67 58bc 5a93 60bb 7a01 4dbc
000001c0: abcb 2dbb ca5b 523c 8326 eeb9 fa3e f2bb
000001d0: 14ce 073c d971 05bc 10ef d9bb 2772 86bc
000001e0: 4775 8abb 5559 bc3b 0878 c93a 33ff 2d3b
000001f0: 6f56 57bb b359 88bc af38 363c fac4 56bc
00000200: 3cc4 42bb d1ea 8f3b 5f08 22bb 930b 17bc
00000210: 2dab d3bb 4b85 943b bf81 44bb 675d bbbb
00000220: 27bc 8e3b e0cf 88b9 5b3f b83a 0c33 89bc
00000230: d341 4c3a c0ca 1ebc d8cd a3bc 5de8 80ba
00000240: 22ca 2b3b a26b 0f3c 5095 413b 2a04 2a3c
00000250: b38b 1a3c 5ed8 99bb 13fa d3bc 7865 503b
00000260: 2abe a9bb 9883 293c d857 66bb 6bf0 6bbb
00000270: 8e31 273c 2f48 adbb 6443 123c eba8 0ebc
00000280: e5cf 77ba 1cc5 11bc 355a 7c3c 824f dcbb
00000290: b7db 0c39 3932 9ebc c2ca fc3b bf3a 293c
000002a0: bb6b d0ba af4a 743b 6c2e 1bbb f22b 64bc
000002b0: d8a1 243b edc9 4d39 cadf 083c 6ab1 b5bc
000002c0: bff1 b53b 12b2 f83a db29 6bbc 0f82 6b3c
000002d0: 2261 43bc e7d2 ce3b 0838 d0bb 83a9 2c3c
000002e0: 63a0 6ebb e2d5 babb 60bc ffbb 28ec 9bbb
000002f0: 1acb 4fbc c270 5abb bd19 f2bb 574e ee3b
00000300: eab4 683c bfd2 803b 425b 34b8 b363 83ba
00000310: 4472 803b 7d45 653b 5a6b f5ba f27e 8dbb
00000320: 976d 11bc 5d73 a6bc 0c2f 9d3c 2876 113c
00000330: fe50 483b 4bd2 673c 088a b1bb 3771 153c
00000340: 5373 2ebc 2106 b6bb a7b2 3b3b 4b30 8d3c
00000350: 408d 373b 5f38 123c 9d3b b13b 2f43 dfbb
00000360: 820c a03a b483 b53b 1524 2abb 0684 0039
00000370: af13 943c 88bb acba 5379 d03b 1a4b 29bc
00000380: d45a a8bc 62ba dfb8 dcef 453b f718 493b
00000390: 1364 60bb 0ded 24bb e262 f63b 1fe0 333b
000003a0: e5cb a0bb bfcc 00ba 0495 1ebc c3c2 08bc
000003b0: cf53 2c3b 1be9 39bb 3932 86bb efce 0a3b
000003c0: 717c 873c 08fd 863a 1830 603b c3a1 81ba
000003d0: e56d 6cbc c26e 4c3c 7695 a13b 4bdb c03a
000003e0: cb6d 323b 831b 80bc f8d3 d9ba 6744 d43b
000003f0: ec83 2ebb a633 b1bb 4c6e 86bb 0020 b93c

action_model._discrete_distribution.branches.0.bias f4 [8]
0.0 0.0 0.0 0.0 0.0 0.0 0.0 0.0
00000000: 0000 0000 0000 0000 0000 0000 0000 0000
00000010: 0000 0000 0000 0000 0000 0000 0000 0000

action_model._discrete_distribution.branches.1.weight f4 [3, 128]
4.3840082e-05 -0.015441763 -0.016324578 0.0065038265 -0.0020504813 -0.0020572913 0.008282105 0.008960458
-0.01750213 0.0132782655 -0.0029714387 0.016809 -0.009554098 0.004772393 -0.0023098309 -0.0054119914
-0.0104807345 -0.0034578189 0.0051334244 -0.004301501 0.007090696 -0.009793787 -0.0008200733 0.007668396
0.021074444 0.010293734 0.004784914 -0.0050942055 -0.000863899 0.01106937 7.540314e-05 0.013616678
-0.0045114867 0.014384717 -0.015057712 0.0047281086 0.014356109 -0.0030068455 -0.005890773 0.007091243
0.0032465074 -0.0004378092 -0.009592119 -0.0075147995 0.009258231 -0.0030827161 0.0044798474 0.0052186805
-0.008824225 0.009886181 0.0062400275 0.009541436 0.0031124472 -0.00076939573 0.024172029 -0.01610027
-0.0013867648 0.012889326 -0.002414002 -0.012161418 -0.0028488964 0.0030208998 0.00775969 0.0008440427
0.00064276234 0.021479687 -0.006370004 -0.014070715 0.0013697054 0.0037533564 -0.012268704 -0.003730635
-0.014843737 0.006443545 -0.0058020996 -0.010861962 -0.011545643 0.005655023 0.0016973516 -0.008306065
0.002724577 -0.0020457609 -0.0071180216 -7.472559e-05 -0.015917934 0.01039359 -0.0063585076 0.014384401
-0.0014575123 0.0031005992 -0.0062125507 0.011792289 -0.003964932 -0.014024 0.011785105 -0.0058792457
-0.0034137422 -0.014436836 0.0044215214 -0.00059063104 -0.0066193477 -0.0017519603 -0.008724546 0.0007844275
-0.003067991 -0.0040646237 -0.0028164908 0.0065682135 0.009998992 -0.008766029 -0.016801057 -0.011808705
-0.00039225546 -0.012784185 0.0015281079 -0.00064444204 -0.0026594542 -0.01231742 0.002773852 0.012723607
-0.008283424 0.0020764794 0.007775937 0.005288417 0.0075880066 0.014213638 0.006691504 -0.003010413
-0.0022669605 -0.0073732133 -0.012315572 -0.009501781 0.0132051455 0.0038628837 0.00039343114 -0.011075556
0.00046239133 -0.0024156524 0.0015383818 0.0029843238 -0.015539463 0.023562143 -0.010278076 0.016106747
0.0054198075 0.009975813 0.010447292 -0.020568984 -0.012464804 0.0128788 -0.0058099697 -0.0070184725
-0.001418977 5.3817785e-05 -0.009807504 0.0020541742 0.004960816 0.0019583337 0.010583021 -0.0012149565
-0.0064854375 0.0013309179 -0.00375602 0.0110441735 0.009569179 -0.013097567 0.0070561394 0.007610734
0.0011985748 -0.0034108355 -0.0010481663 0.0070045153 -0.011266946 -0.008156666 0.0063468255 0.016511148
0.004197493 -6.8511305e-05 0.005404971 0.006167 0.0070398673 0.0012973974 0.011415274 -0.0041098143
0.0027978595 -0.0010694488 -0.008955798 -0.008475992 -0.0036972829 -0.012069915 0.004878656 -0.00042782412
0.0100969365 -0.011173236 0.0069290893 0.003312111 -0.0032207116 -0.014986728 -0.01755747 -0.014703566
0.0035229535 -0.0016715477 0.01119413 0.009315687 0.0047342186 -0.016304037 0.0016680397 0.0044148657
0.012561186 0.00487961 -0.0046691247 0.0036866397 -0.0037061435 -0.00837729 -0.0077673756 -0.0053270585
0.006823584 -0.004841757 -0.0032320903 -0.016635008 0.0018215089 0.005333835 -0.011325605 0.0039531207
-0.0030900703 -0.0030059149 -0.004849942 -0.007202761 0.0024690214 -0.005764111 0.01072093 -0.0044220216
-0.0012623068 0.011848466 -0.0037201133 -0.0003934008 -0.007905881 -0.002123831 0.008103007 0.011695147
-0.0045730406 0.011895213 0.006690462 0.0036805738 0.0025755742 -0.0013474327 -0.0040687826 0.011509503
-0.008716127 -0.0059621497 0.00020283484 0.0094144335 -0.0015533104 -0.005773905 0.006713308 -0.011492603
00000000: eee0 3738 73ff 7cbc 1fbb 85bc 0d1e d53b
00000010: 5e61 06bb 9fd3 06bb abb1 073c e3ce 123c
00000020: a060 8fbc 158d 593c 78bc 42bb 07b3 893c
00000030: cb88 1cbc bc61 9c3b 8860 17bb 1357 b1bb
00000040: 63b7 2bbc 939c 62bb 4936 a83b 9bf3 8cbb
00000050: 1259 e83b 1f76 20bc 30fa 56ba 2b47 fb3b
00000060: 50a4 ac3c 0da7 283c c5ca 9c3b 4bed a6bb
00000070: 4877 62ba 4e5c 353c c121 9e38 7d18 5f3c
00000080: 18d5 93bb e0ad 6b3c 9fb4 76bc 40ee 9a3b
00000090: e335 6b3c 7f0e 45bb 6307 c1bb a85d e83b
000000a0: 5bc3 543b c289 e5b9 4328 1dbc b53e f6bb
000000b0: d6af 173c 6507 4abb afcb 923b 7701 ab3b
000000c0: 7b93 10bc a6f9 213c 2579 cc3b af53 1c3c
000000d0: 33fa 4b3b 46b1 49ba 6b04 c63c b7e4 83bc
000000e0: 1bc4 b5ba c02d 533c 3c34 1ebb af40 47bc
000000f0: 8db4 3abb 4afa 453b ff44 fe3b bf42 5d3a
00000100: 0d7f 283a 2bf6 af3c 77bb d0bb db88 66bc
00000110: b087 b33a dffa 753b ad02 49bc ab7d 74bb
00000120: 2533 73bc 6024 d33b 8a1f bebb 5ff6 31bc
00000130: f029 3dbc c54d b93b ab79 de3a 2916 08bc
00000140: d18e 323b 2c12 06bb 4b3e e9bb ffb5 9cb8
00000150: 5466 82bc e049 2a3c 075b d0bb 8dac 6b3c
00000160: ff09 bfba 6c33 4b3b a792 cbbb 7234 413c
00000170: 43ec 81bb ebc4 65bc 5016 413c b0a6 c0bb
00000180: 17b9 5fbb 7b88 6cbc 69e2 903b 94d4 1aba
00000190: 1de7 d8bb 08a2 e5ba 66f1 0ebc 0aa2 4d3a
000001a0: 5910 49bb 8930 85bb e094 38bb 2b3a d73b
000001b0: d0d2 233c 649f 0fbc 5fa2 89bc 4c79 41bc
000001c0: a3a7 cdb9 c274 51bc cb4a c83a c6ef 28ba
000001d0: 3d4a 2ebb 01cf 49bc 84c9 353b ad76 503c
000001e0: 33b7 07bc 8b15 083b 4acd fe3b 754a ad3b
000001f0: d0a4 f83b 52e0 683c 6744 db3b 594a 45bb
00000200: 4991 14bb ff9a f1bb 41c7 49bc 5cad 1bbc
00000210: 655a 583c 6f28 7d3b 6f45 ce39 4076 35bc
00000220: 1d6d f239 ec4f 1ebb 87a3 c93a a594 433b
00000230: 3b99 7ebc 6505 c13c 6065 28bc 4cf2 833c
00000240: a498 b13b 9871 233c 1e2b 2b3c 4980 a8bc
00000250: 2d39 4cbc 9a01 533c 8f61 bebb 37fb e5bb
00000260: f8fc b9ba 68ba 6138 a7af 20bc 539f 063b
00000270: 578e a23b 6357 003b 6864 2d3c 2d3f 9fba
00000280: cb83 d4bb 3272 ae3a 8f27 76bb 9ff2 343c
00000290: 0cc8 1c3c 2d97 56bc 3037 e73b 7763 f93b
000002a0: 7f19 9d3a 5388 5fbb a062 89ba 2286 e53b
000002b0: ff98 38bc 89a3 05bc 08f9 cf3b 6342 873c
000002c0: 208b 893b baad 8fb8 2f1c b13b 8c14 ca3b
000002d0: b0ae e63b 6f0d aa3a 2107 3b3c 9fab 86bb
000002e0: 4b5c 373b bf2c 8cba 57bb 12bc e3de 0abc
000002f0: 1d4e 72bb e5c0 45bc 22dd 9f3b 954d e0b9
00000300: 9f6d 253c f30f 37bc 6a0d e33b 0010 593b
00000310: 9312 53bb e58a 75bc afd4 8fbc 3ae7 70bc
00000320: 5ae1 663b d517 dbba 9667 373c d3a0 183c
00000330: 8121 9b3b 0b90 85bc 20a2 da3a 94aa 903b
00000340: 6fcd 4d3c 23e5 9f3b 75ff 98bb 8d9b 713b
00000350: c5e2 72bb e740 09bc 7885 febb 9b8e aebb
00000360: 5f98 df3b 9aa7 9ebb 7ad1 53bb 2446 88bc
00000370: b2bf ee3a 73c7 ae3b 088f 39bc 2e89 813b
00000380: c782 4abb e2fe 44bb 43ec 9ebb 2305 ecbb
00000390: 4ecf 213b dee0 bcbb d7a6 2f3c 9be6 90bb
000003a0: fd73 a5ba 1120 423c 25cd 73bb 5d41 ceb9
000003b0: ab87 01bc f92f 0bbb 7ac2 043c 009d 3f3c
000003c0: 72d9 95bb 24e4 423c aa3b db3b c835 713b
000003d0: f7ca 283b 579c b0ba 6c53 85bb 5b92 3c3c
000003e0: 16ce 0ebc 235e c3bb 10b0 5439 ff3e 1a3c
000003f0: 7398 cbba 0733 bdbb 4ffb db3b 794b 3cbc

action_model._discrete_distribution.branches.1.bias f4 [3]
0.0 0.0 0.0
00000000: 0000 0000 0000 0000 0000 0000

action_model._discrete_distribution.branches.2.weight f4 [3, 128]
-0.012811084 0.0059479396 0.00476906 0.01740964 0.004991151 -0.011921167 0.019988976 0.00016595765
-0.005066159 -0.0008149004 -0.0042519155 0.0026558267 -0.014061007 -0.01281742 -0.0050388994 -0.0052094846
-0.0095120985 -0.008643518 -0.0010984606 0.0042679496 0.013756233 -0.0075763203 0.0019548724 0.004230344
0.0077116205 -0.0018528886 -0.00653691 0.0013665445 -0.00012399488 0.005298262 -0.00020743567 0.007345537
-0.0009198859 0.0043070843 0.011130418 -0.0013388996 0.0005616713 0.0071207434 -0.0020716249 -0.00061845634
0.007153739 0.0085869795 0.000119542376 0.0064878534 -0.007164658 -0.0036758462 -0.0071544587 -0.005306675
0.008184218 -0.005077157 -0.011795146 -0.00098065 0.0073161083 0.011596812 0.009257109 0.004817109
-0.00653649 -0.00016899497 0.015872324 -0.0112854885 -0.0011970311 0.004610136 0.0070054554 0.0005755472
-0.006527997 -0.0073526874 0.0014120358 0.0024817965 0.004422494 -0.005643276 -0.01778188 -0.00838545
0.015165416 -0.00280755 0.0030069416 0.011688736 0.0052716946 -0.0042366968 0.0016836621 0.002285078
-0.000521509 -0.011123125 -0.0018030364 -0.012299082 -0.021703662 0.0027553446 0.0075477376 -0.0017019025
-0.008925542 -0.009515818 -0.0070726867 0.005918773 0.017243858 0.006507501 -0.00088801945 0.0145932725
-0.0048715044 0.003869048 0.0051249503 0.004272891 0.005746327 -0.003998635 0.0032351494 0.0015818265
-0.007831213 0.006713038 0.007909822 -0.013745244 0.00064423005 -0.00060214446 -0.0147960065 0.0066524805
0.007347502 -0.008249392 -0.009245344 -0.0041436935 -0.012145136 -0.0059271394 -0.01366769 -0.010386317
-0.011826209 -0.0023075433 -0.01315244 0.01302814 -0.0047202404 -0.012108918 -0.0071467995 0.008547614
-0.0034327104 0.0030564598 0.0048702615 -0.0024991226 -0.012112671 0.0003000286 0.0033711463 0.0021807607
0.0031659862 -0.011632169 0.0047526653 0.0012057568 0.0035311666 0.013180971 -0.010638672 0.01956292
0.0023058376 0.009474212 -0.006430735 -0.0004426774 -0.012651416 -0.0070043765 0.0024933298 -0.002056232
-0.0036036212 -0.00020756366 -0.004712424 -0.005734473 -0.0026403249 -0.003457227 -0.002921769 -0.013654676
-0.0031684358 -0.0050890073 -0.0059152623 0.0065212487 0.011689018 0.004644343 -0.0047011506 0.011905814
0.009883513 -0.007838282 -0.0053052525 0.0038022313 -0.0019020021 0.007857309 0.009408251 -0.0041337823
0.0015449369 0.0061986963 0.007213838 -0.0033558395 -0.005079435 -0.018004453 -0.0063193375 0.027841274
0.0015451789 0.012922714 0.011489446 0.0064429133 -0.014194727 -0.0035628495 0.004569407 -0.0019064172
0.00051202846 0.009928973 -0.007636951 0.00025103308 0.0031988563 -0.0075237975 0.009100638 0.00808418
-0.01869354 -0.005481155 0.0019613656 0.002109454 -0.0076290406 -0.00586714 0.0028848841 0.0014969473
-0.004998371 0.0029912048 -0.0005208614 0.023964502 0.0040934132 -0.0067834966 -0.014582387 -0.00030541891
0.015542522 -0.00020404461 -0.008083305 0.005935054 0.0076457113 -0.0144046545 -0.0027995636 0.011429375
0.004286488 -0.01880063 0.0032844003 -0.0009612907 0.006218027 0.0025247687 0.012069607 0.009772896
-0.0033961304 -0.0017800796 0.013909863 0.007080556 0.009322902 0.007998361 -0.0064346525 -0.017514793
0.006831975 -0.0016741293 -0.009413033 -0.013970241 -0.0030268852 0.00012186377 0.010898512 0.0007232059
0.0074172816 -0.0055062375 -0.0003783794 0.0040109633 -0.0030375596 0.012249268 -0.00029906674 -0.0028817398
00000000: 95e5 51bc efe6 c23b c645 9c3b a99e 8e3c
00000010: cf8c a33b 0051 43bc ecbf a33c eb04 2e39
00000020: 0602 a6bb 0a9f 55ba a753 8bbb 610d 2e3b
00000030: 2360 66bc 2800 52bc 5a1d a5bb 53b4 aabb
00000040: a2d8 1bbc 8b9d 0dbc 39fa 8fba 28da 8b3b
00000050: d361 613c c842 f8bb 511d 003b b39e 8a3b
00000060: c3b1 fc3b a0dc f2ba 9333 d6bb a01d b33a
00000070: 9f04 02b9 0b9d ad3b 1783 59b9 d5b2 f03b
00000080: 7f24 71ba 7122 8d3b 5b5c 363c 047e afba
00000090: 1f3d 133a 2055 e93b 19c4 07bb e71f 22ba
000000a0: ea69 ea3b 67b0 0c3c d3b2 fa38 0f98 d43b
000000b0: 82c5 eabb 77e6 70bb f36f eabb 9ee3 adbb
000000c0: 1917 063c 485e a6bb 6e40 41bc 2789 80ba
000000d0: f7bb ef3b 8e00 3e3c 21ab 173c d7d8 9d3b
000000e0: 0d30 d6bb 3e34 31b9 ad06 823c c5e6 38bc
000000f0: b3e5 9cba a010 973b 058e e53b 52e0 163a
00000100: cfe8 d5bb d0ee f0bb 0f14 b93a a3a5 223b
00000110: 92ea 903b 3beb b8bb 4eab 91bc 2063 09bc
00000120: 5d78 783c dffe 37bb 1c10 453b 1d82 3f3c
00000130: 2ebe ac3b fdd3 8abb 53ae dc3a 3fc1 153b
00000140: e0b5 08ba c53d 36bc dd53 ecba 1782 49bc
00000150: e1cb b1bc 0393 343b 0353 f73b 5f12 dfba
00000160: 703c 12bc 3ce8 1bbc ffc1 e7bb 44f2 c13b
00000170: fe42 8d3c e03c d53b fac9 68ba 9f18 6f3c
00000180: 24a1 9fbb db8f 7d3b 33ef a73b 9c03 8c3b
00000190: af4b bc3b fb06 83bb cd04 543b 4a55 cf3a
000001a0: 7d4e 00bc 0bf9 db3b 3398 013c bb33 61bc
000001b0: 8ce1 283a 3bd9 1dba f36a 72bc 0dfd d93b
000001c0: 50c3 f03b 7528 07bc c979 17bc d2c7 87bb
000001d0: 64fc 46bc 7338 c2bb 72ee 5fbc 5f2b 2abc
000001e0: b7c2 41bc 273a 17bb 557d 57bc fb73 553c
000001f0: 3fac 9abb 7c64 46bc b32f eabb 4b0b 0c3c
00000200: 53f7 60bb e34e 483b b796 9f3b 52c8 23bb
00000210: 3974 46bc 284d 9d39 73ee 5c3b 18eb 0e3b
00000220: 6f7c 4f3b da94 3ebc 3fbc 9b3b 7c0a 9e3a
00000230: 256b 673b 00f5 573c d34d 2ebc 6b42 a03c
00000240: 891d 173b ba39 1b3c eab8 d2bb 2817 e8b9
00000250: e247 4fbc f884 e5bb 2267 233b d9c1 06bb
00000260: bb2a 6cbb 72a5 59b9 ad6a 9abb 3fe8 bbbb
00000270: 4d09 2dbb a592 62bb 267b 3fbb ddb7 5fbc
00000280: 88a5 4fbb b0c1 a6bb d1d4 c1bb 33b0 d53b
00000290: 4c83 3f3c 932f 983b 1c0c 9abb 9a10 433c
000002a0: 75ee 213c 236c 00bc afd7 adbb db2e 793b
000002b0: 9a4c f9ba f1bb 003c 1125 1a3c ae74 87bb
000002c0: 7b7f ca3a 6f1e cb3b 0f62 ec3b a5ed 5bbb
000002d0: 6471 a6bb 137e 93bc 7212 cfbb 6213 e43c
000002e0: 9a87 ca3a cbb9 533c 3b3e 3c3c 131f d33b
000002f0: 0091 68bc b27e 69bb f7ba 953b bfe0 f9ba
00000300: a639 063a 22ad 223c 633f fabb 179d 8339
00000310: e7a3 513b 308a f6bb d81a 153c 8273 043c
00000320: 3223 99bc 439b b3bb 418a 003b c43e 0a3b
00000330: 08fd f9bb 2341 c0bb 5310 3d3b 3735 c43a
00000340: 60c9 a3bb 1708 443b 6b8a 08ba 3451 c43c
00000350: 0a22 863b 1848 debb f7ea 6ebc a220 a0b9
00000360: 10a6 7e3c cff4 55b9 d76f 04bc d77a c23b
00000370: e088 fa3b 8001 6cbc e278 37bb 4642 3b3c
00000380: ab75 8c3b c703 9abc 183f 573b 20ff 7bba
00000390: 97c0 cb3b 9776 253b 9abf 453c 7f1e 203c
000003a0: 9d91 5ebb 8f51 e9ba 32e6 633c 0204 e83b
000003b0: 16bf 183c 8f0b 033c c7d9 d2bb 2f7b 8fbc
000003c0: c3de df3b 756e dbba 1f39 1abc 70e3 64bc
000003d0: b55e 46bb 1d91 ff38 ac8f 323c 8795 3d3a
000003e0: ab0c f33b ab6d b4bb 3961 c6b9 666e 833b
000003f0: cb11 47bb 27b1 483c 0fcc 9cb9 92db 3cbb

action_model._discrete_distribution.branches.2.bias f4 [3]
0.0 0.0 0.0
00000000: 0000 0000 0000 0000 0000 0000

network_body._body_endoder.seq_layers.0.weight f4 [128, 1]
1.8312092 0.60158974 -0.5485839 0.23059951 -1.7475873 0.27182615 -1.4277318 1.1132385
0.44492948 0.9655679 0.3540901 -1.0610276 0.67526644 1.6132737 -0.5311722 -0.5935272
-1.197403 -0.8996987 -0.9030958 0.1188703 -0.66539675 2.2165422 0.340361 1.3252411
0.18955867 0.83369523 -1.0230681 -0.4829534 -0.39897436 0.1647114 1.198899 0.3320558
-1.0861773 -1.7426392 0.47317964 -0.64659387 0.75898325 0.2589895 -0.22716539 -0.16009799
-0.23387896 -1.352414 1.0665661 0.16576472 -1.675324 -2.0229855 0.93570864 -0.8367048
1.5604227 -0.39960918 -1.9345577 -2.0714483 -1.4707093 -1.5086651 0.19882102 0.1761609
-0.24546647 1.9725636 -1.7821878 0.51003236 1.1168661 1.6998361 -0.43563533 -0.86019534
1.4946812 -1.5306957 1.4711161 -0.48394346 0.07591485 -0.17910385 0.24567576 1.0771496
0.75955975 0.99669725 0.3877463 1.9039416 -1.1191236 0.5062852 -1.7887203 0.5087709
-0.6957326 0.7299142 0.77648026 -0.5531436 0.48101616 -0.20541894 -0.5506955 0.07587695
0.43630904 -0.69620126 -0.85231405 -1.710347 -0.14816141 0.39156246 -0.64526945 -1.3649365
0.090068765 -1.1484562 0.100691564 -1.3811806 -0.048827533 2.0993893 -0.613237 -1.2007627
-0.3604558 0.3972239 -2.243001 -0.4720856 -1.5085114 1.6052759 -1.682122 0.86821777
0.63748616 0.122623384 -1.7375727 -1.2865261 -0.32380927 -1.5977256 0.29904786 -1.5881563
-0.5246706 1.908182 0.5522376 0.63806987 1.1154422 -0.29026031 0.37749666 -0.28801692
00000000: 1065 ea3f c901 1a3f ff6f 0cbf 4722 6c3e
00000010: f1b0 dfbf cc2c 8b3e eabf b6bf 997e 8e3f
00000020: cccd e33e 752f 773f 4c4b b53e c1cf 87bf
00000030: 43de 2c3f c17f ce3f e7fa 07bf 66f1 17bf
00000040: 8044 99bf a752 66bf 4931 67bf 4672 f33d
00000050: 7157 2abf d4db 0d40 cc43 ae3e 80a1 a93f
00000060: ab1b 423e 0d6d 553f e5f3 82bf ab45 f7be
00000070: 5e46 ccbe 1baa 283e 8675 993f 3803 aa3e
00000080: dc07 8bbf cd0e dfbf 9a44 f23e 2d87 25bf
00000090: ba4c 423f 469a 843e 0b9e 68be baf0 23be
000000a0: f77d 6fbe e71b adbf 3d85 883f 3abe 293e
000000b0: 0471 d6bf 9878 01c0 9a8a 6f3f 4932 56bf
000000c0: eebb c73f 9399 ccbe 969f f7bf 9c92 04c0
000000d0: 3440 bcbf f01b c1bf bd97 4b3e 8663 343e
000000e0: 905b 7bbe f77c fc3f bb1e e4bf 7b91 023f
000000f0: 78f5 8e3f 3b94 d93f 980b dfbe c335 5cbf
00000100: b751 bf3f d6ed c3bf 884d bc3f 70c7 f7be
00000110: 3f79 9b3d 0067 37be 6d92 7b3e 0ae0 893f
00000120: 8272 423f 8d27 7f3f af86 c63e 5cb4 f33f
00000130: 713f 8fbf e89b 013f c9f4 e4bf cf3e 023f
00000140: 881b 32bf a8db 3a3f 69c7 463f d29a 0dbf
00000150: c047 f63e 5859 52be 61fa 0cbf 6065 9b3d
00000160: e663 df3e 3f3a 32bf 4131 5abf a7ec dabf
00000170: a0b7 17be e07a c83e 6130 25bf 3db6 aebf
00000180: f975 b83d 9d00 93bf 6137 ce3d 87ca b0bf
00000190: 61ff 47bd 655c 0640 1afd 1cbf 98b2 99bf
000001a0: aa8d b8be ee60 cb3e 548d 0fc0 34b5 f1be
000001b0: e716 c1bf ae79 cd3f c64f d7bf 8543 5e3f
000001c0: 4b32 233f f821 fb3d c868 debf e3ac a4bf
000001d0: 54ca a5be 4682 ccbf cd1c 993e b548 cbbf
000001e0: d050 06bf 4f3f f43f 715f 0d3f 8c58 233f
000001f0: cfc6 8e3f 009d 94be 3e47 c13e f476 93be

network_body._body_endoder.seq_layers.0.bias f4 [128]
0.0 0.0 0.0 0.0 0.0 0.0 0.0 0.0
0.0 0.0 0.0 0.0 0.0 0.0 0.0 0.0
0.0 0.0 0.0 0.0 0.0 0.0 0.0 0.0
0.0 0.0 0.0 0.0 0.0 0.0 0.0 0.0
0.0 0.0 0.0 0.0 0.0 0.0 0.0 0.0
0.0 0.0 0.0 0.0 0.0 0.0 0.0 0.0
0.0 0.0 0.0 0.0 0.0 0.0 0.0 0.0
0.0 0.0 0.0 0.0 0.0 0.0 0.0 0.0
0.0 0.0 0.0 0.0 0.0 0.0 0.0 0.0
0.0 0.0 0.0 0.0 0.0 0.0 0.0 0.0
0.0 0.0 0.0 0.0 0.0 0.0 0.0 0.0
0.0 0.0 0.0 0.0 0.0 0.0 0.0 0.0
0.0 0.0 0.0 0.0 0.0 0.0 0.0 0.0
0.0 0.0 0.0 0.0 0.0 0.0 0.0 0.0
0.0 0.0 0.0 0.0 0.0 0.0 0.0 0.0
0.0 0.0 0.0 0.0 0.0 0.0 0.0 0.0
00000000: 0000 0000 0000 0000 0000 0000 0000 0000
00000010: 0000 0000 0000 0000 0000 0000 0000 0000
00000020: 0000 0000 0000 0000 0000 0000 0000 0000
00000030: 0000 0000 0000 0000 0000 0000 0000 0000
00000040: 0000 0000 0000 0000 0000 0000 0000 0000
00000050: 0000 0000 0000 0000 0000 0000 0000 0000
00000060: 0000 0000 0000 0000 0000 0000 0000 0000
00000070: 0000 0000 0000 0000 0000 0000 0000 0000
00000080: 0000 0000 0000 0000 0000 0000 0000 0000
00000090: 0000 0000 0000 0000 0000 0000 0000 0000
000000a0: 0000 0000 0000 0000 0000 0000 0000 0000
000000b0: 0000 0000 0000 0000 0000 0000 0000 0000
000000c0: 0000 0000 0000 0000 0000 0000 0000 0000
000000d0: 0000 0000 0000 0000 0000 0000 0000 0000
000000e0: 0000 0000 0000 0000 0000 0000 0000 0000
000000f0: 0000 0000 0000 0000 0000 0000 0000 0000
00000100: 0000 0000 0000 0000 0000 0000 0000 0000
00000110: 0000 0000 0000 0000 0000 0000 0000 0000
00000120: 0000 0000 0000 0000 0000 0000 0000 0000
00000130: 0000 0000 0000 0000 0000 0000 0000 0000
00000140: 0000 0000 0000 0000 0000 0000 0000 0000
00000150: 0000 0000 0000 0000 0000 0000 0000 0000
00000160: 0000 0000 0000 0000 0000 0000 0000 0000
00000170: 0000 0000 0000 0000 0000 0000 0000 0000
00000180: 0000 0000 0000 0000 0000 0000 0000 0000
00000190: 0000 0000 0000 0000 0000 0000 0000 0000
000001a0: 0000 0000 0000 0000 0000 0000 0000 0000
000001b0: 0000 0000 0000 0000 0000 0000 0000 0000
000001c0: 0000 0000 0000 0000 0000 0000 0000 0000
000001d0: 0000 0000 0000 0000 0000 0000 0000 0000
000001e0: 0000 0000 0000 0000 0000 0000 0000 0000
000001f0: 0000 0000 0000 0000 0000 0000 0000 0000

network_body._body_endoder.seq_layers.2.weight f4 [128, 128]
0.08144379 0.14032312 -0.08287503 0.06940133 0.08535765 0.1656249 0.03667603 0.12035828
0.030857647 -0.11719623 0.21326143 -0.017814359 0.029532017 -0.057410393 0.052263703 -0.04901334
-0.10374904 -0.0660572 -0.045975655 0.06462346 0.06449534 0.030076625 -0.039553005 0.04743992
0.112293996 0.03601327 0.073049136 -0.037530735 0.10453298 -0.06127304 0.054646637 -0.13998799
0.09002181 -0.019215835 0.13184729 -0.14563477 -0.0014240853 0.075409584 0.09869684 -0.009015688
-0.07452129 0.07657725 0.01269637 0.06125452 -0.03907692 0.021968495 0.14366168 -0.031864177
-0.039074454 0.0717581 0.02298003 0.06118847 -0.19348449 -0.13112961 -0.16135876 -0.03925166
-0.030682204 -0.08199795 -0.103470944 0.06319045 -0.029011525 -0.009685252 0.061023403 0.030108426
0.09821752 0.11710818 -0.036428608 0.05879519 0.046740286 -0.013812779 0.08189555 0.17867208
-0.077205144 0.19030134 -0.09199992 0.023858104 -0.17058706 0.08419898 0.0011671821 -0.047871247
-0.0734052 0.025029786 -0.019861033 0.06038077 0.027904943 0.016668724 -0.011947915 -0.0688692
0.03909269 0.106599495 0.109030016 -0.051174775 -0.044814847 -0.099880435 -0.10882701 -0.0014564204
-0.028094104 -0.07979615 0.038565274 0.090138234 -0.03804028 0.04143122 -0.096706964 0.030553458
-0.06194267 -0.043575827 0.023575744 0.095532976 -0.0041795694 0.0091775395 0.026704019 -0.0348243
0.09502178 -0.023080165 -0.04253987 -0.007996864 0.010446093 0.012066752 -0.10257232 0.048053514
-0.22653463 0.06723123 -0.121004134 0.08677663 -0.07060952 -0.0029444858 0.11279567 -0.16652688
-0.11161735 0.016211713 -0.117010124 0.08983396 -0.050429165 -0.020075712 0.08291495 0.055625137
0.1214341 -0.036726493 0.06275677 -0.09660058 -0.09100427 0.0659176 -0.013874458 -0.05780152
0.05879143 -0.036061905 -0.032240614 0.02201267 0.02660957 -0.033108644 0.026170572 0.092342466
0.011648274 0.064228065 -0.17058167 0.0008070187 -0.028597265 -0.030807178 0.04991796 -0.14493808
-0.028493442 -0.18257305 -0.05585572 0.05719232 -0.12636027 0.08278529 -0.08775389 -0.042373262
-0.03586316 -0.024437308 -0.013279569 0.17288755 0.010074089 0.056184515 0.09319842 0.050502103
-0.074739754 0.0312704 0.019146841 0.036820907 0.024946311 -0.033060137 0.066754565 -0.024978742
-0.15758556 0.14835155 0.031102749 -0.15558952 -0.022937454 0.070294365 0.04070126 0.1324657
-0.0710436 0.04612834 0.06595227 -0.15158407 0.019466763 -0.0042579956 -0.14260082 0.10977413
-0.034885686 -0.04575986 0.012290059 -0.0146242315 0.049173735 -0.071905665 -0.09630474 -0.014000601
0.14142002 -0.060637243 0.039988305 -0.116077006 0.05073565 0.08737067 -0.0974845 0.0022588389
0.112905286 -0.13418615 0.08581908 0.120618634 -0.063955285 -0.17019053 -0.07240695 0.11230587
0.10073856 0.1442057 -0.07813267 -0.0015233988 0.097183056 0.05769681 0.038716473 0.03565769
0.041101538 -0.026234597 0.06295213 0.045849934 -0.07682711 0.039122157 -0.12693533 -0.03564005
-0.033799827 0.0035143076 -0.15955096 0.06530366 0.085610144 0.025137607 0.01536645 -0.06236908
-0.1372408 -0.024318118 -0.034218647 0.15709041 0.031862255 0.07831605 0.09634738 0.021731816
00000000: 00cc a63d ddb0 0f3e 62ba a9bd 4922 8e3d
00000010: fecf ae3d 9399 293e 9b39 163d 677e f63d
00000020: 2dc9 fc3c 9404 f0bd 3461 5a3e 6bef 91bc
00000030: 21ed f13c 2927 6bbd 7712 563d 36c2 48bd
00000040: 607a d4bd ff48 87bd f850 3cbd 4e59 843d
00000050: 2216 843d 4163 f63c 5502 22bd 5d50 423d
00000060: 65fa e53d a782 133d c99a 953d d4b9 19bd
00000070: 6315 d63d 70f9 7abd 27d5 5f3d 0359 0fbe
00000080: 5b5d b83d 876a 9dbc fa02 073e 4821 15be
00000090: 60a8 baba 5770 9a3d 9221 ca3d 89b6 13bc
000000a0: 9e9e 98bd 89d4 9c3d 6f04 503c 05e6 7a3d
000000b0: 1f0f 20bd 46f7 b33c 0c1c 133e 0384 02bd
000000c0: 890c 20bd e9f5 923d 9e40 bc3c c3a0 7a3d
000000d0: cc20 46be d746 06be 3b3b 25be 59c6 20bd
000000e0: 3f59 fbbc 8bee a7bd 93e8 d3bd ff69 813d
000000f0: 94a9 edbc e4ae 1ebc adf3 793d f2a5 f63c
00000100: 4426 c93d 6ad6 ef3d 2a36 15bd 3ad3 703d
00000110: be72 3f3d ff4e 62bc dbb8 a73d d0f5 363e
00000120: bb1d 9ebd 5bde 423e 746a bcbd 1272 c33c
00000130: 60ae 2ebe 8470 ac3d 22fc 983a a414 44bd
00000140: 7755 96bd 440b cd3c 9bb3 a2bc d451 773d
00000150: e898 e43c d98c 883c 30c1 43bc 4c0b 8dbd
00000160: a81f 203d d650 da3d 214b df3d a49c 51bd
00000170: c68f 37bd 1d8e ccbd b2e0 debd 5ce5 beba
00000180: 9b25 e6bc 2a6c a3bd 9ff6 1d3d 659a b83d
00000190: 20d0 1bbd c8b3 293d 4d0e c6bd 3f4b fa3c
000001a0: 99b7 7dbd 917c 32bd eb21 c13c cba6 c33d
000001b0: c5f4 88bb 645d 163c 63c2 da3c eda3 0ebd
000001c0: c79a c23d 9d12 bdbc 493e 2ebd 4705 03bc
000001d0: 1726 2b3c a0b3 453c 7011 d2bd c3d3 443d
000001e0: b2f8 67be 87b0 893d 04d1 f7bd f2b7 b13d
000001f0: b99b 90bd 46f8 40bb 6b01 e73d 0686 2abe
00000200: a397 e4bd 6dce 843c 01a3 efbd defa b73d
00000210: d08e 4ebd d275 a4bc 50cf a93d 2fd7 633d
00000220: 71b2 f83d 856e 16bd 9f86 803d 86d6 c5bd
00000230: 7260 babd cfff 863d b251 63bc 49c1 6cbd
00000240: 48cf 703d a6b5 13bd bc0e 04bd ea53 b43c
00000250: 50fc d93c ee9c 07bd ab63 d63c 0c1e bd3d
00000260: 67d8 3e3c 018a 833d f6ac 2ebe 1c8e 533a
00000270: d044 eabc 565f fcbc c676 4c3d a66a 14be
00000280: 146b e9bc 6ef4 3abe f8c8 64bd 7e42 6a3d
00000290: 9664 01be 568b a93d 50b8 b3bd 968f 2dbd
000002a0: 40e5 12bd c030 c8bc 8d92 59bc 6f09 313e
000002b0: cb0d 253c bc21 663d d0de be3d 4bdb 4e3d
000002c0: 2811 99bd 6415 003d d6d9 9c3c 85d1 163d
000002d0: 355c cc3c 116a 07bd 9eb6 883d 38a0 ccbc
000002e0: 1c5e 21be 78e9 173e 31cb fe3c dc52 1fbe
000002f0: 54e7 bbbc 7ef6 8f3d 5db6 263d 17a5 073e
00000300: 4f7f 91bd 12f1 3c3d fc11 873d db38 1bbe
00000310: c378 9f3c a886 8bbb f305 12be 42d1 e03d
00000320: 4be4 0ebd b16e 3bbd 3e5c 493c 799a 6fbc
00000330: 666a 493d 4743 93bd 6b3b c5bd c762 65bc
00000340: 69d0 103e c25e 78bd c7ca 233d c8b9 edbd
00000350: 2fd0 4f3d 65ef b23d f4a5 c7bd 0709 143b
00000360: e33a e73d 1868 09be eac1 af3d e706 f73d
00000370: fdfa 82bd 6d46 2ebe 184a 94bd 9f00 e63d
00000380: 0550 ce3d a9aa 133e 0504 a0bd c8ac c7ba
00000390: e907 c73d 7e53 6c3d 2a95 1e3d cc0d 123d
000003a0: 165a 283d f0e9 d6bc 0ced 803d 24cd 3b3d
000003b0: 8857 9dbd 8e3e 203d 56fb 01be 4dfb 11bd
000003c0: b071 0abd 4c50 663b 5461 23be edbd 853d
000003d0: 5f54 af3d 62ed cd3c 90c3 7b3c b876 7fbd
000003e0: da88 0cbe ca36 c7bc da28 0cbd 4fdc 203e
000003f0: ff81 023d 2a64 a03d c651 c53d ec06 b23c

network_body._body_endoder.seq_layers.2.bias f4 [128]
0.0 0.0 0.0 0.0 0.0 0.0 0.0 0.0
0.0 0.0 0.0 0.0 0.0 0.0 0.0 0.0
0.0 0.0 0.0 0.0 0.0 0.0 0.0 0.0
0.0 0.0 0.0 0.0 0.0 0.0 0.0 0.0
0.0 0.0 0.0 0.0 0.0 0.0 0.0 0.0
0.0 0.0 0.0 0.0 0.0 0.0 0.0 0.0
0.0 0.0 0.0 0.0 0.0 0.0 0.0 0.0
0.0 0.0 0.0 0.0 0.0 0.0 0.0 0.0
0.0 0.0 0.0 0.0 0.0 0.0 0.0 0.0
0.0 0.0 0.0 0.0 0.0 0.0 0.0 0.0
0.0 0.0 0.0 0.0 0.0 0.0 0.0 0.0
0.0 0.0 0.0 0.0 0.0 0.0 0.0 0.0
0.0 0.0 0.0 0.0 0.0 0.0 0.0 0.0
0.0 0.0 0.0 0.0 0.0 0.0 0.0 0.0
0.0 0.0 0.0 0.0 0.0 0.0 0.0 0.0
0.0 0.0 0.0 0.0 0.0 0.0 0.0 0.0
00000000: 0000 0000 0000 0000 0000 0000 0000 0000
00000010: 0000 0000 0000 0000 0000 0000 0000 0000
00000020: 0000 0000 0000 0000 0000 0000 0000 0000
00000030: 0000 0000 0000 0000 0000 0000 0000 0000
00000040: 0000 0000 0000 0000 0000 0000 0000 0000
00000050: 0000 0000 0000 0000 0000 0000 0000 0000
00000060: 0000 0000 0000 0000 0000 0000 0000 0000
00000070: 0000 0000 0000 0000 0000 0000 0000 0000
00000080: 0000 0000 0000 0000 0000 0000 0000 0000
00000090: 0000 0000 0000 0000 0000 0000 0000 0000
000000a0: 0000 0000 0000 0000 0000 0000 0000 0000
000000b0: 0000 0000 0000 0000 0000 0000 0000 0000
000000c0: 0000 0000 0000 0000 0000 0000 0000 0000
000000d0: 0000 0000 0000 0000 0000 0000 0000 0000
000000e0: 0000 0000 0000 0000 0000 0000 0000 0000
000000f0: 0000 0000 0000 0000 0000 0000 0000 0000
00000100: 0000 0000 0000 0000 0000 0000 0000 0000
00000110: 0000 0000 0000 0000 0000 0000 0000 0000
00000120: 0000 0000 0000 0000 0000 0000 0000 0000
00000130: 0000 0000 0000 0000 0000 0000 0000 0000
00000140: 0000 0000 0000 0000 0000 0000 0000 0000
00000150: 0000 0000 0000 0000 0000 0000 0000 0000
00000160: 0000 0000 0000 0000 0000 0000 0000 0000
00000170: 0000 0000 0000 0000 0000 0000 0000 0000
00000180: 0000 0000 0000 0000 0000 0000 0000 0000
00000190: 0000 0000 0000 0000 0000 0000 0000 0000
000001a0: 0000 0000 0000 0000 0000 0000 0000 0000
000001b0: 0000 0000 0000 0000 0000 0000 0000 0000
000001c0: 0000 0000 0000 0000 0000 0000 0000 0000
000001d0: 0000 0000 0000 0000 0000 0000 0000 0000
000001e0: 0000 0000 0000 0000 0000 0000 0000 0000
000001f0: 0000 0000 0000 0000 0000 0000 0000 0000

value_heads.value_heads.extrinsic.weight f4 [1, 128]
0.10468754 0.074637294 -0.043820024 -0.15321931 -0.16634665 0.031178772 -0.12219751 0.1839472
0.06276935 -0.03468074 0.03780508 -0.121068455 0.14498612 0.031613335 -0.13035667 -0.12202595
-0.11136357 -0.04413496 0.09669581 0.023518845 -0.06639464 -0.17025122 -0.16848716 0.20791137
-0.14187813 -0.062438652 -0.1983563 -0.036750883 0.1915062 -0.05899383 0.20698422 0.14057907
0.12403643 0.14449087 0.13941994 -0.209121 -0.1132368 0.018876985 -0.19490921 -0.10988623
0.07637328 -0.20077609 -0.11287003 0.12076914 0.01855959 -0.21254884 0.12139049 0.10732147
0.08854541 0.14254269 -0.1751603 -0.0967259 0.101916015 -0.06486677 0.13579565 0.065512896
0.07292661 -0.1648789 -0.2058689 0.059094697 -0.1578496 -0.0069984347 0.058294713 0.19178489
-0.05281405 0.16988567 -0.08906609 0.20392656 -0.16949698 -0.04824239 -0.07706286 -0.13435787
0.0010932833 0.13316968 -0.022817627 -0.17044593 -0.14236957 0.042667836 -0.017107025 0.088249415
0.15910476 0.06760076 -0.16236413 -0.19311062 -0.008278489 0.06467819 0.018240541 0.14437672
0.21148834 -0.06013669 -0.045449898 -0.1717088 -0.034649894 0.1310817 0.21426326 -0.044040486
0.14344788 0.057979286 0.15238526 -0.11483911 -0.117223546 -0.024111524 0.10998833 0.036556244
0.01092428 0.02501379 -0.20118703 0.04438281 -0.21561179 -0.10756656 -0.11205638 0.18654385
0.081397444 -0.042567357 -0.16479929 -0.16240509 0.1531789 -0.03325233 -0.20276417 -0.20057784
-0.18860894 -0.14672947 0.21199432 -0.1489043 0.0092677325 0.0888336 -0.18114027 -0.13197863
00000000: 6c66 d63d 70db 983d a07c 33bd 86e5 1cbe
00000010: c756 2abe a06a ff3c b042 fabd a85c 3c3e
00000020: 388d 803d 640d 0ebd 80d9 1a3d bdf2 f7bd
00000030: 3e77 143e fc7c 013d 387c 05be bee8 f9bd
00000040: 9512 e4bd dcc6 34bd 7408 c63d 98aa c03c
00000050: eaf9 87bd 5656 2ebe e687 2cbe b8e6 543e
00000060: 8048 11be acbf 7fbd ea1d 4bbe 1888 16bd
00000070: 341a 443e 84a3 71bd acf3 533e f6f3 0f3e
00000080: d006 fe3d 6af5 133e 1ac4 0e3e d123 56be
00000090: b2e8 e7bd e8a3 9a3c 4896 47be 080c e1bd
000000a0: 9869 9c3d 3f98 4dbe 6728 e7bd d055 f73d
000000b0: 480a 983c 67a6 59be 949b f83d 5ccb db3d
000000c0: 4c57 b53d b6f6 113e 395d 33be 3b18 c6bd
000000d0: 58b9 d03d ded8 84bd 040e 0b3e a02b 863d
000000e0: 8c5a 953d 04d6 28be 4ccf 52be 480d 723d
000000f0: 53a3 21be 2053 e5bb 70c6 6e3d 4263 443e
00000100: 8c53 58bd 82f6 2d3e 4868 b6bd 20d2 503e
00000110: 9e90 2dbe d099 45bd 22d3 9dbd 1c95 09be
00000120: 804c 8f3a a25d 083e 08ec babc 6189 2ebe
00000130: 54c9 11be 78c4 2e3d 0824 8cbc 1cbc b43d
00000140: 5cec 223e 4472 8a3d c842 26be cabe 45be
00000150: 80a2 07bc 0076 843d 306d 953c 7ed7 133e
00000160: 6690 583e e451 76bd ac29 3abd 6fd4 2fbe
00000170: 0ced 0dbd 483a 063e d467 5b3e cc63 34bd
00000180: 00e4 123e b07b 6d3d e20a 1c3e c430 ebbd
00000190: e612 f0bd 8885 c5bc 9041 e13d 00bc 153d
000001a0: c0fb 323c b8e9 cc3c f903 4ebe c0ca 353d
000001b0: 56c9 5cbe db4b dcbd d17d e5bd 5a05 3f3e
000001c0: b4b3 a63d 1c5b 2ebd 25c1 28be 854d 26be
000001d0: eeda 1c3e 9833 08bd 69a1 4fbe 4764 4dbe
000001e0: b422 41be 4040 16be 0a15 593e 5e7a 18be
000001f0: b0d7 173c 64ee b53d d67c 39be 6825 07be
