results/Easy_2/Player/checkpoint.pt (torch, 893027 bytes, 72 tensors)

discrete_act_size_vector f4 [1, 4]
000000 00 00 40 40 00 00 00 40 00 00 40 40 00 00 40 40
       3.0 2.0 3.0 3.0

network_body.observation_encoder.processors.0.normalizer.running_mean f4 [15]
000000 6b 89 8e bf 1b 46 de c0 73 83 2a 40 59 d0 74 41
       -1.1135687 -6.946058 2.664273 15.300866
000010 16 5c b9 40 cc bf 44 41 e0 73 a4 40 ff 8a c9 40
       5.792491 12.296825 5.139145 6.2982173
000020 91 6d 61 bf 15 95 b3 c0 40 58 fb 3f cb a0 8b 3d
       -0.8805781 -5.6119485 1.9636307 0.06817778
000030 cf 49 d2 be 67 fa 00 bd 6c 7b 90 3b
       -0.41071936 -0.031488802 0.0044092443

network_body.observation_encoder.processors.0.normalizer.running_variance f4 [15]
000000 16 ad 81 4c 73 07 64 44 7b 65 67 4a 78 27 3e 4c
       6.798763e+07 912.1164 3.7911988e+06 4.9847776e+07
000010 a3 8a 05 4b 54 d6 f9 4b 76 38 b3 49 a1 ed b9 49
       8.751779e+06 3.2746664e+07 1.4681748e+06 1.5231241e+06
000020 e9 bf cd 4b 35 e2 d4 4a 77 af cd 4a 5c e3 b7 4c
       2.6968018e+07 6.9757705e+06 6.7398995e+06 9.641034e+07
000030 8c b0 40 4a c4 14 9c 4a ac 7d ab 44
       3.157027e+06 5.114466e+06 1371.9272

network_body.processors.0.normalizer.running_mean f4 [15]
000000 6b 89 8e bf 1b 46 de c0 73 83 2a 40 59 d0 74 41
       -1.1135687 -6.946058 2.664273 15.300866
000010 16 5c b9 40 cc bf 44 41 e0 73 a4 40 ff 8a c9 40
       5.792491 12.296825 5.139145 6.2982173
000020 91 6d 61 bf 15 95 b3 c0 40 58 fb 3f cb a0 8b 3d
       -0.8805781 -5.6119485 1.9636307 0.06817778
000030 cf 49 d2 be 67 fa 00 bd 6c 7b 90 3b
       -0.41071936 -0.031488802 0.0044092443

network_body.processors.0.normalizer.running_variance f4 [15]
000000 16 ad 81 4c 73 07 64 44 7b 65 67 4a 78 27 3e 4c
       6.798763e+07 912.1164 3.7911988e+06 4.9847776e+07
000010 a3 8a 05 4b 54 d6 f9 4b 76 38 b3 49 a1 ed b9 49
       8.751779e+06 3.2746664e+07 1.4681748e+06 1.5231241e+06
000020 e9 bf cd 4b 35 e2 d4 4a 77 af cd 4a 5c e3 b7 4c
       2.6968018e+07 6.9757705e+06 6.7398995e+06 9.641034e+07
000030 8c b0 40 4a c4 14 9c 4a ac 7d ab 44
       3.157027e+06 5.114466e+06 1371.9272

network_body._body_endoder.seq_layers.0.weight f4 [128, 15]
000000 65 95 94 3e f6 55 15 bf 36 2b c7 be b2 03 62 bd
       0.2902023 -0.5833429 -0.38900155 -0.055179305
000010 2d f0 6c 3e 78 4c 1e 3d 64 e3 a4 be da da df 3e
       0.23138495 0.038647145 -0.32204735 0.43721658
000020 4d cf 15 3e 25 e1 26 bd 4e fc c6 be 44 78 9f 3d
       0.1462986 -0.04074206 -0.38864368 0.07786611
000030 31 65 83 3d 07 79 a3 bd ac 1e 84 be ca 74 ec be
       0.06415785 -0.079820685 -0.2580465 -0.46182853
000040 6a f0 07 bd 38 85 7a be b9 c2 36 3e cb 62 82 3e
       -0.03318826 -0.24464881 0.17847718 0.25465998
000050 a0 d2 b9 3b 32 b2 1a 3e 22 49 3e 3e bb 19 64 3d
       0.0056708604 0.15107039 0.18582585 0.0556886
000060 24 df 68 be 93 7d f4 bc a6 76 3f 3e c4 eb 71 be
       -0.22741371 -0.029845035 0.18697605 -0.23625094
000070 57 4f 84 be 25 cc df 3e f7 8d 0d bf 74 78 91 be
       -0.25841781 0.43710437 -0.55294746 -0.2841221
000080 13 bc 0b 3e d7 df a3 3e 89 9c a8 bd 34 47 52 3e
       0.13645963 0.32006714 -0.08232982 0.20534974
000090 4d 56 b6 3e db 1a 8a be 22 d0 2e 3e f1 17 81 be
       0.35612717 -0.26973614 0.17071584 -0.25213578
0000a0 6d 3a 04 3f cd 14 58 bd 3f a3 8d be 62 42 9b be
       0.5165165 -0.052754212 -0.2766361 -0.30324084
0000b0 9d e6 92 bd 05 9b 5f be 02 37 95 3d ce 7e 54 3e
       -0.07172892 -0.21836479 0.072858825 0.20751497
0000c0 df f3 08 bf b9 1d d9 3c 21 26 25 3e 99 a5 ce 3e
       -0.5349712 0.02650343 0.16127826 0.40360716
0000d0 b8 14 63 be 78 c9 1a 3e 88 49 5f be 5b 21 96 3e
       -0.22175872 0.15115917 -0.21805394 0.29322323
0000e0 8d 20 9b 3e 22 1a bd bc c9 2b 79 be 7f a5 dd bd
       0.30298272 -0.02308375 -0.24333109 -0.108225815
0000f0 82 57 5b be 90 91 48 3e 5a f5 54 3e 3a c2 fa 3e
       -0.214201 0.19586778 0.20796719 0.48976308
000100 00 f7 74 3e 00 3b e7 3c 98 8a 08 be 22 3c 03 be
       0.23922348 0.028226376 -0.1333412 -0.12815908
000110 d3 a6 a1 be cd 05 ff be 36 f0 b8 be 99 7c 79 be
       -0.3157259 -0.49809113 -0.36120766 -0.24363936
000120 94 27 d0 bc db a5 3f 3d 35 0e 85 be ff a4 fe 3d
       -0.025409497 0.04678903 -0.25987402 0.12433814
000130 12 e9 f1 3e 74 7b fc bd f3 45 5b be 02 53 e2 bc
       0.4724813 -0.12328234 -0.21413402 -0.027627472
000140 ee 02 b6 3d e4 f0 c5 bd 62 7d 45 3e 71 43 3f be
       0.088872775 -0.09665087 0.19286111 -0.1867807
000150 89 d1 e4 3c 92 c8 30 3e 99 ad 73 be 8f 10 7f be
       0.027931945 0.17264012 -0.23796691 -0.2490866
000160 fb f6 de 3e 4f 78 8d be ba 7b c7 3e ef a6 ce 3e
       0.43547806 -0.2763085 0.38961583 0.40361735
000170 b3 75 86 3e bb 99 e3 be bc bb 1e bc d8 53 76 be
       0.26261672 -0.44453225 -0.009688314 -0.24055421
000180 0e 34 7b 3e a2 01 a6 3e 83 28 01 bf a3 b6 18 3e
       0.24531576 0.3242312 -0.5045244 0.1491342
000190 d2 2c d4 3e c4 54 9d 3e a1 70 3f bd 8a bc 48 bd
       0.41440445 0.30728734 -0.04673827 -0.04900793
0001a0 84 5c cf be 1e 19 b8 bd 44 27 24 3f a3 3d 4e be
       -0.4050027 -0.08989166 0.64122415 -0.201407
0001b0 8e 50 19 3f 35 50 91 bd eb f7 87 3d 30 58 b5 3d
       0.5988854 -0.070953764 0.066390835 0.08854711
0001c0 98 36 ab 3e f1 7b a7 bd 59 1d a5 3d 2c 11 65 bd
       0.3344009 -0.08177937 0.08062238 -0.05592458
0001d0 73 74 38 3e b9 92 18 3f fd d6 3f 3e fc 53 1e 3e
       0.18013172 0.5959888 0.18734355 0.15461725
0001e0 69 69 6c bd 98 d6 b9 3c f9 93 09 bf 64 76 91 be
       -0.057717714 0.022685334 -0.53741413 -0.28410637
0001f0 24 d3 5d bd 01 75 d1 3c 21 9d 0f bf e4 20 f0 3e
       -0.054156438 0.025568487 -0.56099135 0.46900094
000200 bc e5 e5 3e d1 f9 1e 3e c2 35 10 be 4b d3 58 be
       0.44901836 0.15524985 -0.14083007 -0.21174352
000210 37 f1 46 be 3e 33 26 3d 03 6e 43 be f6 90 4f bd
       -0.19427954 0.040576212 -0.19084935 -0.050675355
000220 3e 06 1f be 88 e4 df 3e 6c 02 a5 3d 96 63 3a 3e
       -0.15529725 0.43729043 0.080571026 0.18202052
000230 71 5d 7f 3d 7a 78 42 be 5b 2f 74 3e 2e 4c b9 3e
       0.062344972 -0.1899127 0.2384619 0.36190933
000240 00 8b ba be 8c 23 17 be d5 9c 86 3e 8c 54 54 bd
       -0.36434174 -0.14759654 0.26291528 -0.051838443
000250 a7 46 dd bd a4 39 b5 be 96 f0 1b be 9e 4a 3c 3c
       -0.108044915 -0.3539554 -0.15228495 0.0114923995
000260 b6 df b5 3e 6b 72 d0 3e 34 82 05 3f 53 06 a1 3e
       0.3552224 0.40712294 0.521518 0.31450137
000270 67 60 cc be cd 7e ea 3d 9d da e8 bc 28 e7 9d 3e
       -0.399173 0.114499666 -0.028424555 0.3084042
000280 54 ce fe 3d d0 77 60 bd cc a3 35 be c2 3d ab bd
       0.12441698 -0.054801762 -0.17738265 -0.08361389
000290 f0 58 f3 3d 82 90 d7 be a3 52 42 3e 9b 13 8d be
       0.11882198 -0.42102438 0.18976836 -0.2755402
0002a0 42 38 42 bf 58 68 3a 3e 1d 24 8a be f6 07 9d bd
       -0.7586709 0.18203866 -0.26980677 -0.07667534
0002b0 0a e2 53 be 99 9c d3 3d 8f 52 94 3e 3b 10 8b be
       -0.20691696 0.10332603 0.28969237 -0.2716082
0002c0 95 79 e4 3e e2 36 b2 bd b2 8f 4a 3e 2a 73 bb bd
       0.4462401 -0.08701874 0.19781378 -0.09152825
0002d0 97 3c cb 3e 09 a5 81 bc 4f db c9 be 85 84 8e bd
       0.39694664 -0.015825765 -0.39425132 -0.0695887
0002e0 2f 1b 6e 3c 97 03 04 3d b1 43 ea 3d 10 61 23 bb
       0.014532848 0.032229986 0.11438692 -0.002492968
0002f0 33 d8 ce be 4e 68 1f be ba aa 31 3f df 1f 2f 3e
       -0.40399322 -0.15567133 0.69401133 0.17102002
000300 8a ff df be 3d 80 c2 3e 51 71 52 3e b5 2a c0 3e
       -0.43749648 0.37988463 0.2055104 0.37532583
000310 f2 27 14 bd ef fa d9 be 46 8e 25 3d 7a 3d 15 bf
       -0.036170907 -0.4257426 0.040418886 -0.5829693
000320 4d ae ea 3d 9f ff 45 be 04 2d fd bd a0 a4 29 3e
       0.114590265 -0.19335793 -0.12362102 0.16566706
000330 c4 aa bf 3d 49 ac f0 3e 4b 8d d4 3c 6d a5 16 3e
       0.09358743 0.47006443 0.02594628 0.14711542
000340 07 30 18 bf 2c d6 8b 3b 52 53 19 bf 57 0f 97 be
       -0.59448284 0.0042674746 -0.5989276 -0.2950389
000350 91 0c ad be 0a ba 9b be e4 8a 38 bb 28 a3 93 be
       -0.3379865 -0.30415374 -0.0028158957 -0.28835416
000360 8c 6a 78 3e 61 8b c2 bd 6e df b5 be bf 2d 8d be
       0.24259394 -0.09499241 -0.35522026 -0.27573964
000370 39 31 c8 3d 40 2a 0a 3e db 3e b0 bc d3 2f 84 be
       0.097750135 0.1349268 -0.021514347 -0.25817737
000380 97 d2 13 bd 01 2f b7 3d f9 65 16 3f 81 0a 00 3e
       -0.036089506 0.08944512 0.5874935 0.12504007
000390 e6 07 1b bf 03 9b 77 3e 97 0c 54 3e be 30 8b 3e
       -0.6055893 0.24180226 0.20707928 0.27185625
0003a0 e0 b6 4c be a0 40 cd be 96 3c 46 be af 2b 9b be
       -0.19991636 -0.40088367 -0.19359049 -0.30306765
0003b0 53 6e 7a be 8f 53 1a 3f a7 a7 77 bb 74 44 5e 3d
       -0.24456148 0.6028375 -0.0037789138 0.0542645
0003c0 8a b7 49 3e a3 30 d9 3d b5 23 9f be c9 8d 4a bd
       0.19698921 0.1060498 -0.3108193 -0.049451623
0003d0 e9 0b 19 3f 56 0c c5 3e a7 76 91 3d 19 71 a8 3e
       0.597838 0.38485974 0.07102709 0.32898787
0003e0 b9 74 0a bf 87 c5 77 be 9e 7c f2 3e 8f 25 f0 3d
       -0.54084355 -0.24196444 0.473607 0.11725914
0003f0 a2 66 1d 3e b6 75 50 be 32 96 29 3e 20 47 42 3d
       0.15371183 -0.20357403 0.16561201 0.04743111

network_body._body_endoder.seq_layers.0.bias f4 [128]
000000 84 43 47 3c 6d 69 9b bd e1 e5 91 bd e5 2c 15 bd
       0.012162093 -0.07588468 -0.07123924 -0.036419768
000010 61 f2 40 bc 60 cb a5 3c a0 24 9b 3d 3c 05 a2 3c
       -0.011776538 0.020238578 0.07575345 0.019777887
000020 ab 60 a0 3c 58 10 a2 3b 22 6d 9a 3d 58 ab 8d 3c
       0.019577345 0.004945796 0.07540347 0.017293617
000030 16 ac 1b 3c 53 52 5b 3d 50 c4 86 bc 0b 85 8f 3d
       0.009501478 0.053545307 -0.016451031 0.07007798
000040 2b 25 77 3d 6c 7c 33 bd bc 6b ce 3c fa 45 20 3b
       0.06033818 -0.04381983 0.025197856 0.0024455772
000050 85 50 27 bb 5a c4 86 3d 7f 6e 2f 3c 2a 3d 0a 3d
       -0.002553017 0.0658042 0.010707497 0.033749737
000060 9e 2f b4 bc 9e a7 42 bd 5c e2 d7 3d e0 9c 4d 3d
       -0.021995362 -0.047523133 0.105412215 0.050198436
000070 53 63 43 3d 4d 5b 5f bb 4a fc 19 bd 45 68 9d 3d
       0.047702145 -0.003408152 -0.037594117 0.076859035
000080 f5 54 c4 3d 89 4b ca bc b2 f2 4e bd 0e de ac 3d
       0.09586517 -0.024694221 -0.05052442 0.08440791
000090 6d 0b 99 bb e5 09 7a 3d 47 28 67 3a 96 56 a3 3d
       -0.0046705515 0.061044592 0.00088179525 0.07975499
0000a0 27 ec 9e 3c d0 b5 f5 3a fd 95 ad 3c 2d 78 a8 bc
       0.019399716 0.0018746201 0.021189684 -0.020565117
0000b0 84 fd 40 bb 88 02 ab 3c 92 a7 70 3d 2b 87 90 3d
       -0.0029447982 0.02087523 0.058753558 0.07057031
0000c0 b0 81 07 3d 55 98 43 bd 34 bd 08 3d ba 92 68 3d
       0.033082664 -0.047752697 0.033383563 0.056780554
0000d0 2a 37 75 3d 8d 45 c2 3c 77 5f 65 3d 3d d9 d9 3d
       0.05986706 0.023714805 0.055999245 0.10637138
0000e0 f3 d3 c3 bc d3 96 ef 3d 7b 31 12 3d 96 b2 33 3c
       -0.023904776 0.11698689 0.03569172 0.010967871
0000f0 ef d6 86 3d a2 f6 74 bc 67 53 52 3d 58 9e 50 3d
       0.06583964 -0.01495138 0.05134907 0.05093226
000100 04 eb 8a 3d ef cb bc 3d 16 4a d1 3d 5d 9c 89 3a
       0.06783107 0.09218585 0.10219209 0.001049887
000110 4a 85 cc 3c 27 93 43 3d 63 03 8f 3d 8c b3 13 3e
       0.0249659 0.047747757 0.06983068 0.1442396
000120 32 a5 3d 3d f4 c4 fa bb ce 16 4b bd 54 d1 06 bd
       0.04630012 -0.007652873 -0.049582295 -0.032914475
000130 ef 0a cd bc bf 7a 35 3d 43 11 20 bd c4 87 08 bd
       -0.025029628 0.044306513 -0.039078962 -0.0333326
000140 31 a5 93 3d df 1b 88 3d f6 d3 b8 3c 51 d8 ed bc
       0.07209242 0.06645941 0.022562008 -0.029033812
000150 f0 85 e4 bc b5 df 73 3d 0f af b0 3c 68 12 8d 3d
       -0.027895898 0.059539516 0.02156785 0.06888276
000160 61 64 97 3c e2 68 10 3d 99 0a 9d 3d e8 2b 89 3d
       0.018480482 0.035256274 0.07668037 0.066978276
000170 65 e2 79 3d eb 94 68 3a be 9f 9f 3c 63 98 b7 3d
       0.061006922 0.0008872288 0.01948535 0.08964612
000180 3b 91 32 3d 24 30 72 3d 9d c4 97 3d 90 0a 3b 3d
       0.043595534 0.05912794 0.07410548 0.04566437
000190 e8 15 55 3c 54 56 b2 3c b3 e8 5c bb 79 76 07 bd
       0.013005711 0.02176968 -0.0033708035 -0.03307197
0001a0 3e ce 91 3d 6a d4 4e 3c 3f e1 09 3d bd e0 e6 3d
       0.07119416 0.012623886 0.033662077 0.11273334
0001b0 62 aa 5d 3d 2f 03 ab 3d e5 48 bf 3c c1 c6 7b 3d
       0.054117568 0.083502166 0.023350189 0.061468843
0001c0 4f de 33 3d 8d 21 4e 3d 60 a0 9e bd 4f 53 33 3d
       0.043913182 0.050324965 -0.07745433 0.04378062
0001d0 9f 83 65 3d 08 a6 05 bd 5a e5 89 3d 8e c8 7a bc
       0.056033727 -0.032629043 0.067331985 -0.015306605
0001e0 b7 52 ff 3d 13 66 6b bc 23 42 aa 3d ed 47 87 3c
       0.124669485 -0.014367598 0.08313396 0.01651379
0001f0 4f d7 7e 3c fb 2a cd 3d d0 c5 89 bd 4b d7 3b 3d
       0.015554263 0.100179635 -0.06727183 0.045859616

network_body._body_endoder.seq_layers.2.weight f4 [128, 128]
000000 ad 1c 91 3d d4 a4 d4 3d f0 ed 09 be d9 63 94 bd
       0.070855476 0.10383001 -0.13469672 -0.07245607
000010 1c d7 7c bd 80 12 0b 3e 5a 3d d5 3d 24 e2 cc bc
       -0.06172858 0.13581276 0.104120925 -0.025010176
000020 79 ae 1f 3e fc 61 32 bb 45 23 20 3d e7 05 5e 3c
       0.155939 -0.0027219048 0.039096136 0.013551212
000030 68 78 21 3e b9 e8 d0 3c 1c cb 8e 3d 44 6a 9c bd
       0.15768588 0.025501596 0.06972334 -0.07637456
000040 9f 1b 84 bd 5d 73 a0 bd d4 6e ff 3d 0c 84 2f 3e
       -0.06450581 -0.07834504 0.12472311 0.17140216
000050 76 fc 7a bd b4 13 84 bc 22 a0 59 3e 6d 16 40 3d
       -0.06127592 -0.016122676 0.21252492 0.046896387
000060 a4 cf 3d 3c d2 96 6a 3c 0a a2 1a 3e 5f d8 44 3c
       0.01158515 0.014318185 0.15100875 0.0120144775
000070 b4 e9 11 3e 45 34 29 3e 00 7a 91 bd 0d 4f ad bc
       0.14249307 0.16523845 -0.07103348 -0.021155858
000080 c1 c2 e5 3d 5c 47 18 be 2a e2 d0 3b 90 4c 70 be
       0.11218787 -0.14870971 0.006374617 -0.23466706
000090 2b 4b aa bd d1 4b 38 3e 2b 40 01 3e bf 4c a5 3d
       -0.083151184 0.17997672 0.12622134 0.08071279
0000a0 6b b4 55 3d 1f 83 06 3e c1 01 7b 3c 74 ab bf 3d
       0.052174013 0.13135956 0.015320242 0.09358874
0000b0 54 44 9c bc 5a e6 03 be 1c db e2 3d 6e e5 6a 3d
       -0.01907555 -0.12880841 0.11076948 0.057347707
0000c0 aa eb 48 bd ad 8f 8f 3d 66 95 bb 3d 6c ad 5a 3d
       -0.04905287 0.07009826 0.09159355 0.053388044
0000d0 12 36 25 bd 86 56 f3 3d d1 26 13 be 69 be 0c 3e
       -0.04033477 0.118817374 -0.14370276 0.1374451
0000e0 89 ce 69 bd de d2 8b bd 33 a4 06 3c d7 c7 12 be
       -0.057081733 -0.06827329 0.008217859 -0.14334045
0000f0 b7 29 8c 3d 87 df d2 bd c9 ab 90 3d 6b 1c c1 3d
       0.06843894 -0.10296541 0.070640154 0.094292484
000100 8e ab 08 3d 0c 04 7b bb bf 65 73 3d 88 1f 03 3d
       0.033366732 -0.0038301973 0.059423205 0.032012492
000110 6f fd 1b 3e e2 32 e6 bd 38 d0 85 bd 60 77 84 3e
       0.15233396 -0.11240174 -0.06533855 0.25872326
000120 9a ae 72 bd 9b 5e 03 3e f1 4f c3 3d fb 00 1f 3e
       -0.059248544 0.12829058 0.09536732 0.15527718
000130 35 cb 1f 3d 80 1a 1d bd 25 a8 b4 bd 41 92 e6 3c
       0.039012153 -0.03835535 -0.088211335 0.028145911
000140 00 b7 e6 3d 3c f1 29 bd 3e eb 8c 3c 30 3c 4e be
       0.11265373 -0.041489825 0.017202016 -0.20140147
000150 aa ac 1f bd c1 f4 ea bd 3b 86 c7 bd 3f 1b 8d bb
       -0.038983025 -0.11472464 -0.09742399 -0.0043062265
000160 17 21 0d 3e d8 7c 26 bd 1c 75 16 be 28 46 80 bd
       0.13782154 -0.040646404 -0.14693111 -0.06263381
000170 b5 e0 fe 3c 20 4d 15 be e4 e6 a3 bd 2a da 1a 3e
       0.031113008 -0.14580202 -0.08003023 0.15122285
000180 52 17 b2 3d 31 1b 6e bb fc b0 0c 3e af 98 d0 3d
       0.08695854 -0.0036332125 0.13739389 0.10185372
000190 da 62 f6 bc b8 ca a4 3d d5 0a bf bc df 5b 44 3c
       -0.030076433 0.08046478 -0.023320595 0.011984794
0001a0 a6 08 b1 3e 99 cd 88 bd e4 e4 00 be e2 9b 06 3e
       0.3457691 -0.0667984 -0.12587315 0.13145402
0001b0 e6 26 fa bd c1 50 0b bd 92 58 c4 3c f4 0f 0d be
       -0.122144505 -0.03401256 0.023968015 -0.13775617
0001c0 e3 87 30 3d 45 54 e2 3b 71 b7 b3 3c 47 18 6c 3d
       0.04309834 0.0069070184 0.021938058 0.05764034
0001d0 40 3d 00 bc 88 70 24 be 08 f0 5d 3d 79 18 85 bc
       -0.007827103 -0.16058552 0.05418399 -0.016247021
0001e0 ff 7d ef 3d fd a4 14 be b4 42 44 3d b0 b2 a3 3d
       0.11693954 -0.14516063 0.047915176 0.07993066
0001f0 d2 5f e3 3d c4 b2 dd 3d 6b 66 0c be 75 6f cb 3d
       0.11102261 0.108251125 -0.13710944 0.09933368
000200 97 37 63 bd 33 e3 17 3d 2f 47 37 3d e4 0f 2a be
       -0.055472936 0.03708191 0.04474562 -0.16607624
000210 58 a3 ee bc 51 2b 4c bd e9 d3 18 3e 64 ed 27 3d
       -0.029130623 -0.049845997 0.14924587 0.040997878
000220 12 a8 3f bc 73 d6 66 bd ab b0 30 3e 5c 2c c2 bd
       -0.011697786 -0.05635686 0.17254893 -0.09481117
000230 ef e6 28 3e 26 6e 3a be 84 17 02 3e 3d 52 21 bd
       0.16494344 -0.18206081 0.12704283 -0.03938507
000240 3f bf f3 3d 1a 90 76 bc 73 78 ae bd de 1e d4 bd
       0.11901712 -0.015049005 -0.085190676 -0.1035745
000250 32 5b 5f bd 4b 23 1e 3c c2 5e da 3d f2 69 e7 3c
       -0.05453033 0.009651969 0.10662605 0.02824876
000260 c0 ca 0f be be 70 05 be 26 e0 53 3e 39 51 44 3d
       -0.14042187 -0.13031289 0.20690975 0.047929022
000270 c8 8d 00 3c 0e c6 1a bd 80 41 c4 bd 27 62 54 bd
       0.007846303 -0.037786536 -0.09582806 -0.051851418
000280 b0 71 06 be 26 01 4d bb 9c f8 03 3d 60 b6 b5 bc
       -0.13129306 -0.0031281202 0.032219514 -0.02218169
000290 a7 81 08 3e 3a f4 21 3e ab 5a 96 3d 5b 95 9b bd
       0.13330708 0.15815821 0.07341512 -0.07596847
0002a0 13 be 10 3e 34 2a e6 3c dd f7 1e 3e e7 4b e2 3d
       0.14135008 0.028096296 0.1552424 0.110496335
0002b0 a1 eb 72 3d 9e 96 45 3d ab 5a 17 be 7a 8c 8c 3d
       0.059306744 0.048239343 -0.14780681 0.06862731
0002c0 4e 21 53 bb bb f8 8d 3d 1c 46 4f 3e 27 59 85 3d
       -0.0032215896 0.06932207 0.20241588 0.06511145
0002d0 38 3a 48 3e df c0 ac bc 8a 93 b0 bd 85 72 98 3d
       0.19553459 -0.021088062 -0.08621891 0.07443718
0002e0 4d 4c 29 bd ad 7f ef bc 17 51 42 3e 19 49 cd bb
       -0.04133253 -0.029235685 0.18976246 -0.0062648174
0002f0 02 e9 29 3e a8 26 33 3d 4c e9 92 3c ac 34 df 3d
       0.16592792 0.043738037 0.01793351 0.10898718
000300 d5 8c b3 3d 0f 40 23 3d 56 d0 2e 3e 9e 39 7e bc
       0.08767096 0.039856013 0.17071661 -0.015516667
000310 00 0a 00 be 02 75 d4 3d 56 81 ca bd 52 7d 56 3c
       -0.12503815 0.1037388 -0.0988795 0.013091402
000320 72 ba 20 be fb 47 28 3d 69 cc 43 3e 8a 57 3b 3e
       -0.15696123 0.04108427 0.19120945 0.18295112
000330 b7 c6 10 3d 96 70 cd 3e e0 55 4c 3e 7b 22 d3 3d
       0.03534576 0.4012496 0.19954634 0.10309311
000340 3a 0f bf bc b8 68 5d be 4c 35 21 bd cc d7 5a bd
       -0.02332269 -0.21621978 -0.03935747 -0.053428456
000350 8e a3 f0 3c a5 47 84 bd 17 20 1e be 00 13 e8 3d
       0.029374864 -0.064589776 -0.15441929 0.11331749
000360 be 79 9d 3c e4 7b 6e bd 47 99 c5 bd 05 85 2f 3e
       0.01922309 -0.05822362 -0.09648376 0.17140587
000370 31 7a 8a 3d 55 3d 14 3e 90 c9 ba bd f9 2e af 3c
       0.067615874 0.14476521 -0.09120476 0.021384703
000380 bb c3 1c 3d 3a df 7f be a0 44 61 be 81 49 7a bd
       0.0382726 -0.24987498 -0.21998835 -0.061105255
000390 d8 a1 7b bd 6d 0b 5e ba 80 f9 ef bd 3f 6b a0 bb
       -0.061433643 -0.00084703305 -0.1171751 -0.004895597
0003a0 31 fc 36 3b 4b 74 e7 bd fd 27 a8 bd 83 de d3 3d
       0.0027921314 -0.11301478 -0.08210752 0.10345175
0003b0 cf ec 2f be a2 08 5a bd bb 81 fd ba 05 72 69 bd
       -0.17180179 -0.05323089 -0.0019341031 -0.056993503
0003c0 48 38 02 bd c3 7d 07 be 26 3b 48 bc b9 9f b6 3c
       -0.031791955 -0.13231568 -0.012221133 0.022292959
0003d0 90 4f 32 3e 6e bf b3 3e e6 94 b1 bd d7 2c 14 3e
       0.17413163 0.35106987 -0.08670978 0.1447023
0003e0 70 d4 20 3d 4b 1d 97 3d 42 52 24 be 70 cd de 3d
       0.039265096 0.07378634 -0.16047004 0.10879028
0003f0 d0 cd a8 3c 00 75 d6 bc 16 ac e2 3d 84 a3 cf bc
       0.020605952 -0.026178837 0.11067979 -0.025346525

network_body._body_endoder.seq_layers.2.bias f4 [128]
000000 22 99 86 3c c2 28 12 bd 10 e7 df bc 36 23 38 3d
       0.016430441 -0.0356834 -0.027331859 0.044955455
000010 70 a6 45 bb 7e 0f 28 3d 81 6b 32 3a 14 9b ea bc
       -0.003015902 0.0410304 0.00068061805 -0.0286384
000020 1c 2f c0 bd 0c e3 01 39 6c 02 8d bc ec c9 76 bd
       -0.093839854 0.0001238698 -0.017213069 -0.06025116
000030 07 35 92 3d ae e5 da 3c 67 ba 0c bc e9 3d 34 3c
       0.071390204 0.026720848 -0.008589364 0.011001089
000040 44 4f 36 3b bb 3b 01 3d 57 60 d8 bc db 05 01 3d
       0.0027818242 0.031551104 -0.026413126 0.031499725
000050 cc 86 86 3d e1 93 b8 3d 8a 9d ae 3c 47 fc ef bc
       0.06568679 0.09012581 0.021315355 -0.0292951
000060 25 be 03 3d 9f a7 32 b9 0a 5b d6 bc 26 4f 96 bc
       0.032163758 -0.00017037847 -0.026166458 -0.018348288
000070 5b 16 46 3b 4a f9 a1 bc 1d 98 06 3d 51 95 9a bc
       0.0030225727 -0.01977219 0.03285991 -0.018870028
000080 09 b6 f3 3c 3f b1 94 3d 1d b7 1a bd a6 c5 5d bc
       0.029749887 0.072603695 -0.037772287 -0.013535893
000090 e6 53 0b 3d 07 eb ed bc a5 d7 18 3d f5 22 c4 3c
       0.03401556 -0.029042734 0.03731503 0.02394245
0000a0 2c dc c1 3c 8c 63 07 bd 16 61 43 ba d1 75 2d bc
       0.023664556 -0.03305392 -0.00074531266 -0.010587172
0000b0 36 74 88 b9 46 a7 55 3d 29 0c 6e 3d ea 63 06 38
       -0.00026026525 0.052161478 0.058117066 3.2041142e-05
0000c0 d0 f8 d4 3c 07 db 98 ba a6 a9 69 bc d8 e4 72 bd
       0.02599755 -0.0011661955 -0.014261639 -0.059300274
0000d0 72 91 36 3d f9 32 00 3c 64 db 0d bd 98 42 9f 3c
       0.0445723 0.007824653 -0.034633055 0.019440934
0000e0 51 cd be 3c c0 23 af bc 4e d7 02 3d 30 7e 89 3c
       0.023291262 -0.021379352 0.03194361 0.016783804
0000f0 7d 4c ee 3c c2 70 e3 3d cb 0c 02 3e b2 5c 73 3d
       0.029089207 0.11105491 0.12700193 0.059414573
000100 68 2c a2 3d 66 03 a4 3d f0 a9 fa bc b1 4a cb bd
       0.07918626 0.08008461 -0.03059861 -0.09926356
000110 12 68 34 3d e8 39 20 3c cd a1 15 3d 40 d8 25 bc
       0.04404456 0.009779431 0.03653126 -0.010122359
000120 29 6c 95 3d ce 64 b3 bc 3d 51 b5 3d 79 3b 97 3b
       0.072960205 -0.021898653 0.088533856 0.004615244
000130 32 a7 27 3d c4 e1 67 3c df f4 d3 bb 64 19 73 3c
       0.040930934 0.014152948 -0.0064684 0.014837597
000140 8c f1 ec bc 67 55 4d bc f4 19 a0 bd c7 92 dd bc
       -0.028923772 -0.012532569 -0.0781745 -0.027047528
000150 cf 78 59 bc 42 53 0b bd 9b 5b f8 3c ec dd 43 3d
       -0.013273432 -0.034014948 0.030317118 0.047819063
000160 9f 1a c0 3d 29 a8 86 3c 73 63 e8 b9 cc cf 39 3b
       0.093800776 0.016437607 -0.00044324584 0.0028352616
000170 85 5e 58 bd ea c8 fb bb b5 43 4f 3c be 1e 1e 3c
       -0.052824516 -0.007683863 0.01265042 0.009650884
000180 d9 cc f5 bc 04 0a e0 3c 4b 91 0d bd 45 20 12 3d
       -0.030004906 0.027348526 -0.03456239 0.035675306
000190 57 f9 d4 3c db 43 9d 3c 2f f1 9a bc 92 e1 48 3c
       0.0259978 0.019197395 -0.018913833 0.012260811
0001a0 89 ec 85 3d 59 24 44 3c 19 2f 4d bd e2 de 4b 3d
       0.06539256 0.011971557 -0.050093744 0.049773104
0001b0 c9 10 ab bc 64 48 5d 3c ae 46 9c bb c9 d3 62 bc
       -0.020882027 0.013506029 -0.004769168 -0.013844439
0001c0 f6 05 75 3d 43 db 96 bc 41 ad c5 bc d5 82 04 3d
       0.059820138 -0.018415099 -0.024130465 0.032351334
0001d0 78 48 74 bd 91 74 aa 3b b4 d4 8f 3d 17 bd bf 3c
       -0.059639424 0.005201884 0.07022992 0.023405595
0001e0 6f ab 11 bd 4e 22 ad bc 62 41 18 bb d5 56 8b bc
       -0.035563882 -0.021134522 -0.002323233 -0.017009178
0001f0 4d c8 be ba 90 5f 4c bd c8 30 93 bd b3 26 1e 3d
       -0.0014555544 -0.049895823 -0.07187039 0.038611125

network_body._body_endoder.seq_layers.4.weight f4 [128, 128]
000000 6f 8b 64 3d e1 ae ec 3d 29 4a 0b 3c 5c 32 53 3d
       0.055797037 0.11556793 0.008501568 0.0515617
000010 ad 57 16 be 9b 81 12 be 89 1e 15 be 1c 32 07 be
       -0.14681883 -0.14307253 -0.1456243 -0.13202709
000020 47 2b 7e 3d 20 a0 51 3d 64 9b 22 bd d8 0f 6d bd
       0.06205299 0.051178098 -0.039698973 -0.057876438
000030 2b 3d c1 bd 17 af 28 be 2c 38 6d 3d 3e 5f 1a 3d
       -0.09435495 -0.16473041 0.057914898 0.037688486
000040 08 c3 9f bc f8 9a ce 3d b0 a8 3e be be 4e b9 bd
       -0.019502178 0.10088152 -0.18619037 -0.09048222
000050 12 a3 20 3d c4 f1 03 3e 21 2a 9b 3d 2d e9 94 bc
       0.039218016 0.12885195 0.07576395 -0.018177593
000060 d3 57 17 bb 6a 00 bd 3d c8 20 e9 bc 8b fd c8 3c
       -0.0023093119 0.092285946 -0.028458014 0.024534961
000070 d0 12 df bb c7 69 c7 bd 24 7a f8 bc fb fe 18 be
       -0.0068076625 -0.09736972 -0.030331679 -0.14941017
000080 0d ce 59 3e 6e 6d ed bd 98 cb 5b bb c3 ca e9 3d
       0.21270008 -0.11593138 -0.00335381 0.11415627
000090 15 73 b3 3d 0f 5e 44 bd 62 08 c3 bd 6a 3b f1 bc
       0.087621845 -0.047941264 -0.09523083 -0.029447276
0000a0 ed 6a b5 3d d0 33 e4 3d 4e 89 64 3e c1 55 e5 3d
       0.08858285 0.11142695 0.22318003 0.11197997
0000b0 85 b4 a0 bd 61 6e a7 bd ae 54 58 be 97 52 19 bd
       -0.07846931 -0.0817535 -0.21126053 -0.03743228
0000c0 83 b4 66 3c e1 1f 47 3e 4e c6 ec bd e9 3c 15 be
       0.014081123 0.19445755 -0.11561261 -0.14574017
0000d0 0c cf c4 bd 7a 50 81 bc 40 dd 03 be 80 86 8b bc
       -0.096098036 -0.015785445 -0.12877369 -0.017031908
0000e0 19 b6 5d 3d 83 21 57 3b b2 ee dd bc 21 13 4f 3e
       0.05412874 0.003282637 -0.027091358 0.20222141
0000f0 83 38 9c bd ed 8a 76 3d 43 66 5e be 41 6e 62 bd
       -0.07627966 0.060191084 -0.21718697 -0.055280928
000100 e2 4a 9e 3a 77 3a 6c 3d 24 95 aa bd ee f0 e6 3d
       0.001207676 0.057672944 -0.083292276 0.112764224
000110 e2 bf db bd 8c 8d 3f 3c 61 9b 1e be 6e a9 40 3d
       -0.10729958 0.011691462 -0.1548896 0.04703658
000120 26 7c a5 bd 0e 0a b2 bd 05 9a 2a be 78 ec 3e 3e
       -0.0808032 -0.08693324 -0.16660316 0.18644893
000130 7a 03 9b be e2 9c de 3c bd 14 d3 bd f6 78 12 be
       -0.3027609 0.027174417 -0.1030669 -0.14303955
000140 6e 1c 2e bc dc 8b 1b be 6e 5d 06 be f4 96 be 3c
       -0.010626895 -0.15190071 -0.13121578 0.02326534
000150 a0 b1 04 be df 6b c1 3d 74 99 8b bd 3a 93 d5 bc
       -0.12958384 0.09444403 -0.06816378 -0.02607118
000160 71 09 6c 3d a9 b8 c7 3b 11 c2 a3 be b8 1c 65 3e
       0.05762619 0.0060950113 -0.31983998 0.22374237
000170 e8 5e 85 bd 97 2a 39 3d 5d dc 9e bd e5 7e 6f be
       -0.065122426 0.045206632 -0.07756875 -0.2338825
000180 dd e2 6d 3d 69 17 17 be d0 23 02 bd 29 94 1d be
       0.05807768 -0.14755024 -0.031772435 -0.1538855
000190 5d 2e e4 bd 5a 2b a6 3d 5c 40 b2 bd bd b3 bc bb
       -0.111416556 0.081137374 -0.08703682 -0.005758731
0001a0 ed 0a 5f bd 22 9e 4b be 0d 28 98 bd 1e 92 f7 bd
       -0.05445378 -0.19884542 -0.07429514 -0.120884165
0001b0 64 1e 2c 3e 74 f9 2a 3d 4b 1f 17 3e 3c df ca bc
       0.16808468 0.041741803 0.14758031 -0.02476465
0001c0 5b 29 80 3d 3c ed ec 3c 9e b8 22 be 35 9a 7c bc
       0.06257888 0.028921716 -0.15890738 -0.015417625
0001d0 b3 91 8c 3d 78 5a 47 3e ce c6 30 bc 74 2a dd bd
       0.068637274 0.19468105 -0.010789586 -0.10799113
0001e0 87 ef 7a bc 43 6d 85 bb c3 64 03 3e ec 0b 56 bd
       -0.015315897 -0.004071863 0.12831406 -0.052257463
0001f0 ab a3 d5 bd fc 5e 4e be 99 58 1c be 8f 87 b4 bc
       -0.10431608 -0.20153421 -0.15268172 -0.022037296
000200 7b c8 44 be c4 90 6b 3d 77 34 2d 3e 16 06 37 3e
       -0.19217102 0.057511106 0.16914545 0.17873415
000210 0e 2d c1 bd 26 d7 1e bd 3b 85 aa bd 7d 7d 6c 3d
       -0.094324216 -0.0387794 -0.08326193 0.057736862
000220 a6 e5 01 3e 35 1e 1e 3e 6a 2c cc bc aa 2a b8 3d
       0.1268526 0.1544121 -0.024923522 0.089925125
000230 e5 97 d1 3b 99 12 84 bd 51 a9 d5 3c f8 08 0c bd
       0.006396281 -0.0644886 0.026081713 -0.03418824
000240 a1 52 18 3e be e3 cf 3b ca 21 5f 3d 60 60 87 bd
       0.1487527 0.0063442877 0.054475583 -0.06610179
000250 52 57 92 3c f6 4f 0b be be 29 a9 be 37 e0 0d be
       0.017863903 -0.13604721 -0.3303966 -0.13855062
000260 5e 66 dd bd 16 1f 3a bc 3a a2 52 bd 79 e0 3b 3d
       -0.108105406 -0.0113599505 -0.051424243 0.04586837
000270 47 fd c1 3d 99 b8 03 3e 2b f9 82 3d 16 8c 96 bd
       0.09472137 0.12863387 0.06395181 -0.07350938
000280 9b 0e b1 3d 0d 5e fa bd 36 9d a7 ba 95 41 59 3d
       0.08645364 -0.1222497 -0.0012787941 0.05304106
000290 ad 58 cf bc 33 9a 00 3e 89 54 01 bd 16 c6 99 bd
       -0.025310839 0.12558822 -0.03157476 -0.07508485
0002a0 10 09 27 be fa dd 9c 3d 76 77 33 3c f5 08 73 3e
       -0.16312051 0.07659526 0.010953775 0.23733886
0002b0 a5 fc 13 be 98 fa 09 be 8b 86 2b 3c a2 c2 3b bd
       -0.14451845 -0.134745 0.010469089 -0.045839913
0002c0 16 0f 0d be a5 cc 80 3d 6d f9 ac 3d 74 0a 6f 3e
       -0.13775286 0.06289033 0.08446012 0.23343831
0002d0 0f 91 9c 3d a9 60 ac bd bf 89 37 bd 9c cd 82 3e
       0.07644855 -0.08416874 -0.0448091 0.25547493
0002e0 50 bb dc 3d d7 ed 85 3d f1 69 f5 3a 42 2a 4d be
       0.107779145 0.06539505 0.001872359 -0.20035651
0002f0 1b f9 4f 3d 6e f6 69 3d b7 90 c4 bd cc db c8 bd
       0.050774675 0.05711978 -0.09597915 -0.09807548
000300 ba 0c eb 3c 39 c4 0b be 7c 95 2e be 0e 87 d2 3d
       0.028692592 -0.13649072 -0.17049211 0.10279666
000310 92 d2 dc bb 1f d5 1b 3e 1b 48 64 3d cb a1 23 3d
       -0.006738969 0.15218018 0.055732828 0.03994922
000320 f7 e3 15 be 45 1d bf 3b ac e9 85 3d 35 25 64 3d
       -0.14637743 0.0058323466 0.0653871 0.055699546
000330 25 41 9f 3c fa b1 e8 bd 8b cd 04 3e 47 00 a1 bd
       0.019440243 -0.11362071 0.12969033 -0.07861381
000340 e6 f5 02 bd 83 3f 04 3c d8 cd c3 bd 0a 0c 29 bd
       -0.03197279 0.008071783 -0.09560746 -0.041271247
000350 5d 5e 15 bd 4e 09 5f 3e 6d 72 f8 3d 8c 0b 1d 3d
       -0.036466945 0.21780893 0.121312 0.03834109
000360 3f fa 54 be 7a de 01 be 6d b3 6b 3d 37 2a b8 3e
       -0.20798586 -0.12682524 0.05754416 0.35969707
000370 7d 09 76 3d b8 65 a0 3d ae 2b 02 3d 5b a6 5a 3e
       0.060067642 0.07831901 0.031779937 0.21352522
000380 23 a2 0d be 92 be 33 bd b5 ff af bd 55 83 8d bd
       -0.13831381 -0.043882914 -0.08593694 -0.06909815
000390 9f 21 53 3d 9c d6 8b 3c be d1 70 bb 35 5c 2a 3b
       0.051545735 0.017070107 -0.003674611 0.00259949
0003a0 7d 18 6f bc 56 da ae 3d 0a 8a 0e 3d be 2e 1c be
       -0.014593241 0.08537738 0.034799613 -0.15252206
0003b0 bf fe 12 be 48 13 0f bd 4b 9d 98 3b 0b 09 7b be
       -0.1435499 -0.034930497 0.0046574227 -0.24515168
0003c0 dc 5c d8 bd 4f fe 9a 3d d5 b0 d0 3c 6c 34 00 be
       -0.105645865 0.07568037 0.025474945 -0.12519997
0003d0 ce 3e c4 3b bf af 6b 3d e0 91 2b be f4 cc 3c 3d
       0.005988932 0.05754065 -0.16754866 0.046093896
0003e0 14 48 16 3a 45 20 54 bd b0 da 86 3d a8 4c 87 bd
       0.00057327864 -0.051788587 0.0658468 -0.06606418
0003f0 0b a1 88 bc 07 f9 01 3d 12 78 ce 3c 3d cd 26 be
       -0.016678354 0.03173163 0.025203738 -0.1628923

network_body._body_endoder.seq_layers.4.bias f4 [128]
000000 49 88 65 bc 32 2b f1 bc 49 6e 81 3c d1 c7 dd 3c
       -0.014009544 -0.029439542 0.015799658 0.027072819
000010 82 ad 59 3d 48 1d 52 bd df d4 57 bd 5e d4 34 bc
       0.053143986 -0.051297456 -0.052693244 -0.01103696
000020 c0 c1 8e 3c 57 c4 08 bd ae c6 cb bd 03 34 67 bd
       0.017426372 -0.03339037 -0.099500045 -0.056446087
000030 c3 f4 df 3d f4 17 5a bd 8f 21 b2 bd 61 da bd bd
       0.109353565 -0.0532455 -0.08697807 -0.09270168
000040 64 fd 9b bd 2f d8 b0 3c b8 f8 fa 3c 4b b7 9b 3c
       -0.0761669 0.02158746 0.030636176 0.0190083
000050 f7 61 a7 bd 4b 85 1e 3d c0 c9 39 bd db 8e a4 bd
       -0.08172982 0.038701337 -0.04535842 -0.0803506
000060 ee 14 71 3c 23 f5 4b bd 0a fa 4b 3c 8f 43 d1 bb
       0.014714463 -0.049794327 0.012449751 -0.0063862274
000070 20 9a 4e bd 51 17 35 bb b0 92 d2 3c 0d 54 00 be
       -0.050439954 -0.0027632306 0.025704712 -0.12532063
000080 43 d8 43 3d f7 2f b5 bb a7 20 a3 3b d8 cd 90 bd
       0.047813665 -0.0055293995 0.0049782577 -0.070705116
000090 d6 32 34 bd 68 18 a1 3c a2 d0 05 bd 13 17 64 3c
       -0.043993793 0.019664958 -0.03266967 0.013921517
0000a0 99 a0 85 bb 01 b7 04 3d 77 02 de bc e7 39 ce bd
       -0.0040779826 0.03240109 -0.027100785 -0.10069638
0000b0 39 6f 7b bd 8b 41 19 bc 24 21 05 bd 70 46 55 3d
       -0.061385367 -0.009354006 -0.03250231 0.052069128
0000c0 f5 56 12 bb 1b 76 01 bd 6b 71 b7 3b 88 9d 25 bd
       -0.0022329662 -0.031606775 0.0055982373 -0.040433437
0000d0 f7 e6 01 bd 48 15 6b bd da c0 d6 3c 9b d2 45 3a
       -0.031714406 -0.057393342 0.026215006 0.0007546336
0000e0 83 72 9a bd e3 ec 50 3d 10 d3 33 bc 13 f6 03 3d
       -0.075413726 0.051007163 -0.010975614 0.032217097
0000f0 ba 52 a6 3c 4d ca f2 3b 1a 70 df bc 98 a4 14 bc
       0.020303119 0.00740937 -0.027275134 -0.009072445
000100 52 70 ab 3c ac 57 d6 3d c4 31 e5 bc 6d 8d 12 3c
       0.020927582 0.10465941 -0.027977832 0.008944851
000110 7b 5a 74 3c 32 35 71 bd 9b 24 0f bd 2e 7f 52 bd
       0.01491415 -0.05888862 -0.03494702 -0.05139082
000120 a2 27 ea 3c f7 0c 78 bd 56 58 9d 3c 23 32 90 3c
       0.028583352 -0.06055924 0.01920716 0.017602032
000130 79 39 85 bd 14 a0 8b bd d0 28 ea bd 81 4a 1a bd
       -0.06505103 -0.06817642 -0.114335656 -0.03766871
000140 0d 1a e5 3b c9 5a 4a 3c 19 1a fb 3c 72 a8 b2 bc
       0.006991631 0.012350746 0.030652093 -0.021808837
000150 ad 84 9a bc ed fb 19 3c 02 2d eb bc ef 51 a0 3c
       -0.018862093 0.009398443 -0.028707985 0.019570319
000160 97 c6 82 bd be 5d ba bc 05 5f dc 3c 78 e9 9b bd
       -0.06385534 -0.022749778 0.026900778 -0.0761289
000170 0a 38 83 bd 15 57 36 3c 14 db 8f 3d 62 20 d9 bc
       -0.06407173 0.01112916 0.07024208 -0.0265047
000180 b7 fd 9b bd c8 e5 0e 3d 41 9a 90 bc e6 d1 62 3c
       -0.07616752 0.034887105 -0.017651679 0.013843989
000190 b9 47 a7 bd ea 19 3f bd 87 c7 46 3d 10 9a 70 3c
       -0.08167977 -0.046655573 0.048530128 0.014685169
0001a0 4d 2a 11 bd 4f 57 86 bd c2 49 5e bc 3c 0f 6c 3b
       -0.03544073 -0.065596215 -0.01356739 0.0036019823
0001b0 e7 ad dc bd c5 e1 0b 3d ed 45 49 3d f4 48 ed 3c
       -0.10775357 0.034150857 0.049138952 0.02896545
0001c0 8c 4b c6 bd cb 7b a2 bc a7 ad 6a bd d2 8a 4b bd
       -0.09682378 -0.01983442 -0.057294514 -0.049692936
0001d0 ec 2b f0 bc 7e 41 8f bd 71 87 c1 3c 0e f1 06 bc
       -0.029317819 -0.069949135 0.023624154 -0.008236183
0001e0 9c b8 51 bd e4 6c 8b bd 59 ed 4d 3d c7 6d b2 bd
       -0.051201448 -0.068078786 0.05027518 -0.087123446
0001f0 73 8f 9f bc e9 4d 02 3d fb 05 2e bd b3 09 73 bc
       -0.019477582 0.031812582 -0.042486172 -0.014833855

action_model._discrete_distribution.branches.0.weight f4 [3, 128]
000000 13 97 0e bd 5e 0c 8c 3b d1 95 e9 bc 69 05 6b 3d
       -0.034812044 0.004273935 -0.02851382 0.057378206
000010 13 f1 10 3d 92 00 14 bd b8 97 8f 3b 2e 7b a9 bb
       0.035386156 -0.036133356 0.0043821 -0.005172155
000020 d9 26 05 bd 04 b3 cf ba ec c4 ea 3d 85 f1 82 bd
       -0.03250775 -0.0015846197 0.11463341 -0.063937224
000030 06 48 07 bd 6e 20 b4 3c 8f 5f 54 bd f5 97 5e bd
       -0.03302767 0.02198812 -0.051848944 -0.054344136
000040 1b ea 87 3c f4 0b 25 bd a0 24 b1 3a 8f 94 f0 bd
       0.016591122 -0.040294603 0.0013514943 -0.11747085
000050 ad 06 d6 bc 4b e5 1d bd 27 20 24 bd ff cc a8 3a
       -0.02612623 -0.03854875 -0.040069725 0.0012878476
000060 7f 73 c6 bd c7 a4 ce bb 81 7a 23 bd 4d 60 0f 3a
       -0.09689998 -0.006306264 -0.03991175 0.0005469367
000070 97 7b d9 3b c7 1c a5 bd 31 0f 3d bd fa 7e 41 3d
       0.0066370475 -0.080621295 -0.046157066 0.047240235
000080 04 1c 9d 3c 1c c6 84 3c b7 cc 99 bc 88 cb 89 bd
       0.019178398 0.016207747 -0.018774373 -0.06728274
000090 94 95 ce 3c 2b ff 98 bc 43 89 11 bd 33 47 cc bd
       0.025217809 -0.018676361 -0.035531294 -0.09974518
0000a0 58 04 44 ba 3f 74 22 bd 6a 70 64 3c ac fb a1 bc
       -0.0007477454 -0.039661642 0.013942817 -0.019773327
0000b0 29 75 ae bc 0a 16 47 3b 7d 93 04 bc de c2 83 bc
       -0.0212961 0.0030378127 -0.008091805 -0.01608413
0000c0 22 ed 61 bc f1 06 02 bc 0f a5 cc bc 87 c1 83 bd
       -0.013789447 -0.007936225 -0.02498105 -0.06433397
0000d0 3a ea 9c bd a9 e4 d2 3d bc 18 03 bd 30 99 cd bc
       -0.07661863 0.1029752 -0.03200601 -0.02509746
0000e0 92 6f 92 bb c9 1b ed bc 10 91 0c 3d 2f de 62 3d
       -0.0044688666 -0.028943913 0.03431803 0.055387672
0000f0 f9 7d 5c 3d d5 ae 85 bc 61 f7 50 3c 34 7a 5c bd
       0.053831074 -0.016318718 0.012754292 -0.05382748
000100 07 2b 4c 3a aa b5 e1 3c 6b fc a9 bd 51 2c ee bc
       0.0007788394 0.027552444 -0.08300098 -0.029073866
000110 48 f3 2d bc 88 48 2c bd be df ab 3d 9d 84 5e 3d
       -0.010617085 -0.04206136 0.08392285 0.05432569
000120 d2 68 5b 3d 56 de ff bd fc 17 57 3d a9 c8 40 bd
       0.05356676 -0.12493579 0.052513108 -0.047066364
000130 8c 5a 99 bd cd 3c 2b 3d c6 f1 0c bd 61 04 8d bc
       -0.074879736 0.04180603 -0.03441026 -0.017214002
000140 8f 3a 23 3d 9e cf 1f 3d 00 6f f3 3c 80 e9 67 3d
       0.039850768 0.03901636 0.029716015 0.056619167
000150 b1 11 4a 3d 90 77 3e 3d 22 30 0b 3d 17 ab 31 bd
       0.049333278 0.046500742 0.03398145 -0.043376055
000160 81 dc 66 bd 91 97 6e bd 3f 9e 9d 3d b6 17 91 bd
       -0.056362633 -0.058250014 0.07696199 -0.070846006
000170 d9 21 64 bd 6a cc 48 bd dd d3 ab 3c 29 93 4f bb
       -0.055696342 -0.04902307 0.020975048 -0.0031673408
000180 99 d0 75 3c 39 b3 91 bd 0b 69 e1 bc da 60 6b 3d
       0.015003347 -0.07114262 -0.027515909 0.05746541
000190 f6 bd a2 3c 35 24 05 bd af 57 b7 bc 08 65 9a bd
       0.019865971 -0.032505233 -0.022380678 -0.075388014
0001a0 bc d1 b3 3c 02 48 c2 bc df 5d f9 bc 9c 04 52 bd
       0.021950595 -0.023715977 -0.030440269 -0.051273927
0001b0 88 7b ed 3d 25 91 3e bd cd 94 dd 3c bb f4 a0 3d
       0.11595827 -0.04652514 0.027048493 0.07859179
0001c0 df 5d 11 3d 4c da f4 bc 0e ca ba 3d d6 87 30 bd
       0.035489913 -0.029889248 0.0912057 -0.043098293
0001d0 57 ba b1 3c 36 da 12 3d b2 f7 39 3d 14 14 08 bc
       0.0216953 0.035852633 0.045402236 -0.008305568
0001e0 f8 fb b7 bd 94 c8 1f 3c f1 cc 71 bd 8f 7b 19 3d
       -0.08983606 0.009752411 -0.059033338 0.03747135
0001f0 bb 22 18 bd c1 19 3f 3d 0b 68 c0 bc a7 e3 38 3d
       -0.037142497 0.04665542 -0.023487112 0.04513898
000200 21 94 b7 3c 64 ee 2f 3d ce ef 11 3d f5 95 88 bd
       0.0224095 0.042951956 0.035629086 -0.06669227
000210 fe 00 0b be f6 be d7 bb 49 95 bb 3c 2f 62 0e 3b
       -0.13574597 -0.0065840436 0.022898333 0.0021726002
000220 f0 d5 e9 b9 3a 08 b5 3d cb 5c 00 be df 7e 11 3c
       -0.0004460062 0.0883946 -0.12535398 0.008880346
000230 5d da 26 3e 86 f5 6d 3b 16 51 4b 3d 4f 3c 3c 3d
       0.16294236 0.0036309673 0.049637876 0.045955952
000240 79 36 ab 3c d8 aa d4 3d da 6d 34 3c 15 6f d0 3d
       0.020899998 0.10384148 0.011012519 0.10177437
000250 aa 86 dc 3c b7 36 b2 3d 69 4c 57 3d 7b 88 97 bc
       0.026919682 0.08701842 0.052563105 -0.018497696
000260 43 57 ed 3d ea c2 be bb 3d f0 be bd 41 c8 65 3d
       0.115889095 -0.0058215754 -0.093231656 0.05609918
000270 48 90 8c 3d 31 f9 09 3d 85 35 39 bd f9 7d 84 bc
       0.06863457 0.033684913 -0.045217056 -0.01617335
000280 5a 72 8f bd c7 1a a1 3c c4 f3 1c be 04 d3 4d 3d
       -0.07004233 0.019666089 -0.15327364 0.05025007
000290 e0 d9 72 3d f4 7e 49 3d f4 f5 ed 3d 1c 50 c0 3d
       0.059289813 0.049193338 0.116191775 0.0939028
0002a0 55 28 b3 bc 6c 37 b8 bd e0 10 85 3d a9 ec 5d 3d
       -0.021869818 -0.08994946 0.06497359 0.054180775
0002b0 79 34 51 bd c3 d5 b8 3d 6a 24 50 bd 66 7c 1c be
       -0.051075432 0.09025147 -0.050815977 -0.15281829
0002c0 da a8 1a 3e c2 ad 92 3d 43 73 c9 bd dd f7 9f 3d
       0.15103474 0.07162048 -0.098364376 0.07810948
0002d0 ca cb ba 3d b1 29 86 3d dd f9 ee 3c c6 37 4a 3d
       0.09120901 0.06550921 0.029171878 0.049369596
0002e0 34 16 19 3b f4 33 f1 3d 38 f1 09 be da 7b 39 3d
       0.0023359181 0.117774874 -0.13470924 0.04528413
0002f0 f0 1f b9 bd bf 9a d6 bd 1d 21 b2 3d 7e 8d a6 3c
       -0.09039295 -0.10478734 0.08697722 0.02033114
000300 ec c2 be bd d4 97 b7 3c 77 c6 db 3d cb a3 e7 bc
       -0.09314522 0.022411264 0.107312135 -0.028276345
000310 af c9 fa 3d dd 53 06 3d 3c 93 a6 bc fb 6c 18 bd
       0.12245499 0.032794822 -0.020333879 -0.037213307
000320 1b 4f 92 bd 45 f3 7e 3d a4 f3 b4 3d c3 b2 29 3b
       -0.071439944 0.06224372 0.08835533 0.0025893904
000330 4c d6 3e 3c ae ed 1e bd 31 17 01 3d 67 b2 cf 3a
       0.011647772 -0.038800888 0.031516258 0.0015846015
000340 f4 67 34 3d 40 90 c4 bd 84 ef 9c bd 10 10 a5 bd
       0.04404445 -0.09597826 -0.076628715 -0.08059704
000350 a5 80 3f bd 91 17 d6 bd 64 d9 54 3d 22 2b fa bd
       -0.046753544 -0.10453714 0.051965132 -0.12215258
000360 57 d6 7f 3d 48 3e 7d bd 82 79 1b bb 71 2a d2 3d
       0.06246027 -0.061826974 -0.0023723547 0.10262001
000370 52 93 88 3d a6 5d 89 3d c8 fd 47 be e7 3b 6e bd
       0.06668724 0.06707315 -0.19530404 -0.058162596
000380 64 11 42 ba 4b 97 cf bd ac 57 5c 3d 44 f6 af bc
       -0.0007403104 -0.10136279 0.053794548 -0.021479733
000390 96 18 39 bd 24 ff 30 3d d1 2e 1f bd 14 56 ba bd
       -0.045189463 0.04321207 -0.038863007 -0.09098449
0003a0 10 56 eb bc 36 9a cf bc 14 c1 c7 3d 03 13 ea 3c
       -0.028727561 -0.025342088 0.097536236 0.028573519
0003b0 24 2c f6 bd 70 e4 15 3b fe 6d 1c 3c 19 df 9b bc
       -0.12020138 0.0022871755 0.009547709 -0.01902728
0003c0 9b 40 87 bd 5a fe 81 bd 68 e9 86 3b 81 fb cc 3c
       -0.066041194 -0.06347342 0.0041171797 0.02502227
0003d0 85 9b 08 bd a0 71 a9 3c 2e b3 c3 bd c8 c5 07 be
       -0.03335144 0.020684063 -0.0955566 -0.13259041
0003e0 85 8f f4 3c 56 56 8c 3d 3a 96 bb 3d fd b0 9a bd
       0.029853592 0.06852405 0.09159513 -0.07553289
0003f0 2e 40 0c bd 77 75 25 be b1 2e 0d be 26 a4 95 bc
       -0.034240894 -0.1615809 -0.13787343 -0.018266749

action_model._discrete_distribution.branches.0.bias f4 [3]
000000 70 7c cf 3b 51 b6 64 3c ef c5 ce bc
       0.006331973 0.013959483 -0.025240866

action_model._discrete_distribution.branches.1.weight f4 [2, 128]
000000 de c6 91 bc ef 01 38 3d 70 ad 01 3c bf db 79 bd
       -0.017795023 0.04492372 0.007914886 -0.06100058
000010 98 19 62 bd a8 e8 8f 3d 83 a7 da 3d 02 76 90 bd
       -0.05520019 0.070267975 0.106764816 -0.07053758
000020 f0 79 b1 3d 7d 02 5b 3d 90 16 04 3d 0a 48 c0 bb
       0.08665836 0.05346917 0.03224808 -0.0058679627
000030 09 21 72 bd 7b ae b6 bc 13 19 9d 3c 29 61 ec bd
       -0.059113536 -0.022299996 0.019176995 -0.11541969
000040 a4 c4 31 bd 5a 5b 03 bc 05 9a af bd 52 58 09 3d
       -0.04340042 -0.008017385 -0.08574299 0.033531494
000050 46 11 38 3d e8 b6 81 bd 10 67 26 3d 0f 6b 3d 3d
       0.04493835 -0.06333715 0.04062563 0.046244677
000060 06 df 0e 3c e5 45 74 3d 80 d1 a2 3d 50 2a b7 3d
       0.008720165 0.05963697 0.07950115 0.08943617
000070 27 8d 90 3d 38 06 98 3b ed 6d ca bd 28 c9 52 3c
       0.07058173 0.004639413 -0.09884248 0.012865342
000080 64 2f e6 3c 45 46 49 ba 15 1a f8 bc 23 58 98 3a
       0.02809877 -0.00076780125 -0.030285874 0.0011622946
000090 cc 4d a7 bd 83 a4 be bb e7 e8 df 3d 18 bb 9e bc
       -0.081691355 -0.005817951 0.109330945 -0.019376323
0000a0 4e 10 1c bc 43 41 95 3b 63 b0 83 bd 93 38 c0 3c
       -0.009525372 0.004554899 -0.064301275 0.023464477
0000b0 40 a6 36 3d cd 94 9b bd 1f 2d 8b bd a3 b8 8e bc
       0.044592142 -0.07596741 -0.067957155 -0.017422026
0000c0 38 25 f4 bc ac e2 3e bd 1a ba d8 bc 8b fc 23 3d
       -0.029802904 -0.04660289 -0.026455928 0.040035766
0000d0 3b fa eb bc 87 ee a5 bd 21 64 d5 3d 74 c4 4b bd
       -0.028805843 -0.08102136 0.10419489 -0.0497479
0000e0 5b 7d ab 3b 92 d7 f3 bd 57 83 f3 3a ab 52 88 bd
       0.0052334494 -0.11906351 0.0018578571 -0.06656393
0000f0 d4 32 bf bd b5 0d 6f bd e4 85 a6 3c bb 7c 03 3e
       -0.093358666 -0.05836268 0.020327516 0.1284055
000100 75 8d 63 3d 45 6a a9 bc f2 3d 3a 3d db 2a c5 bd
       0.055554826 -0.020680556 0.045469232 -0.09627315
000110 bc 7b 90 3d ef 13 bc 3b 48 61 d6 bb 53 03 fb 3c
       0.070548505 0.005739681 -0.0065423585 0.030641234
000120 ee ed d5 bd 0c ab ea bb 0c f0 e4 bc 29 60 27 3b
       -0.10445772 -0.0071615037 -0.027946495 0.0025539494
000130 46 33 af 3d 32 50 56 3d ca 68 2d bc 3e a1 3e bc
       0.085547015 0.052322574 -0.010584066 -0.011635123
000140 7a a1 cd bc fb c7 84 bd 2a 1b 0a 3c 32 b7 97 bd
       -0.025101412 -0.06483456 0.008429328 -0.074079886
000150 f3 26 5a be 99 97 03 3c 91 dc 62 3d d5 e1 b4 bd
       -0.2130392 0.008031749 0.05538613 -0.088321365
000160 71 e9 26 3d 25 77 07 3e 21 69 8c bd 38 c5 6c ba
       0.04074997 0.13229044 -0.06855989 -0.00090320734
000170 9b 24 3c bc 54 ce a3 bd f2 3e 9c 3c 9b 9a e5 bd
       -0.011483337 -0.07998338 0.019072983 -0.11211129
000180 43 b5 31 3c ba 5f 47 be 78 57 b0 3d b7 06 fd 3c
       0.010846439 -0.1947011 0.08610433 0.030886991
000190 1d 75 41 bc 95 c2 b7 3d 32 b3 26 bd e4 b7 47 bd
       -0.011807707 0.089726605 -0.040698238 -0.048759356
0001a0 0e 88 4a 3d a0 7c 8c 3d 43 2b a2 3d 20 dc 0f 3d
       0.049446158 0.06859708 0.07918408 0.035122037
0001b0 46 a3 f0 bc db a3 ff bc e0 88 70 bd 5d 36 3b bd
       -0.02937473 -0.031206062 -0.058724284 -0.04570614
0001c0 e3 f2 3c 3d 08 12 ed 3a 1b 0d 8d 3d 7c 56 bc 3c
       0.046130072 0.0018087039 0.06887265 0.022990458
0001d0 ac 06 34 3d 8c 02 eb ba b4 92 fe bc cd 78 c7 bd
       0.043951675 -0.0017929836 -0.031075813 -0.09739838
0001e0 e6 cc 5f 3d d6 25 03 3d c5 b5 78 bd bf e8 1e bc
       0.054638766 0.032018505 -0.060720224 -0.009699046
0001f0 32 40 75 3d 53 c1 a1 bd a4 8f 72 3d 34 05 72 3c
       0.059875675 -0.07898202 0.059219018 0.014771748
000200 7b 4b b0 3c 73 e0 59 bd 79 f8 e5 bc 1d 23 64 3d
       0.021520367 -0.053192567 -0.028072583 0.05569755
000210 3c 0d 47 3d 2f cf 94 bd 5d ec cc bd 50 21 4d 3d
       0.048596606 -0.0726608 -0.1000602 0.050080597
000220 da ed ac bd cf 35 82 bd 88 c5 d8 bc eb 12 c5 bc
       -0.08443804 -0.063579194 -0.026461378 -0.024056872
000230 e1 35 57 3d 1b 86 dc 3b cc b1 07 bc ad 4a d7 3d
       0.052541617 0.006729854 -0.008282136 0.1051229
000240 36 f9 4c 3d 94 36 ac 3c 08 96 d7 3d e6 8c de bc
       0.050042354 0.021022119 0.10526663 -0.027166795
000250 08 b8 57 bd 5b e7 9a 3d 87 97 24 bd 1b 95 01 bd
       -0.05266574 0.07563659 -0.04018357 -0.03163634
000260 d9 24 1a bc 95 58 74 bd 98 38 98 bd f0 19 8f bd
       -0.009408199 -0.05965479 -0.074326694 -0.06987369
000270 3b 2f 90 bd 41 56 cc b9 74 f8 c6 3d dd 81 30 bc
       -0.070402585 -0.00038974176 0.097153574 -0.010773149
000280 27 f1 f7 bc 1a cb 03 3c de b2 0b 3d f1 92 8a 3a
       -0.030266358 0.008044029 0.034106128 0.0010572356
000290 29 0c ae 3d d1 c1 82 3b ce 49 df bd 81 b7 f1 3b
       0.08498413 0.00399039 -0.10902749 0.0073766117
0002a0 4a a0 fd 3b 25 c7 10 bc c2 d7 4a 3d 99 4c e3 bc
       0.007740055 -0.008836542 0.04952217 -0.027746486
0002b0 20 72 84 bc a7 bb 89 3d b0 a6 bf 3d 14 43 07 3d
       -0.0161677 0.06725245 0.09357965 0.033022955
0002c0 6a 11 6e 3c fd 9f 2c 3d a8 10 23 3d 61 ea 65 bd
       0.014530519 0.042144764 0.039810807 -0.056131724
0002d0 40 9a f9 3c d0 3c db 3d 04 5c 98 bd ec f3 53 3d
       0.03046906 0.107049584 -0.074394256 0.051746294
0002e0 36 44 69 3b 19 3a fc 3d 6a d9 dc bb 1c 74 b5 3d
       0.0035593635 0.12315769 -0.006739785 0.08860037
0002f0 03 9d c0 3d b2 a0 77 3d a7 7c 78 bc b9 b2 16 be
       0.094049476 0.060455985 -0.015166438 -0.14716615
000300 cb ce 4e bd 23 c0 93 3c a0 c7 12 bd 21 dd c2 3d
       -0.050490182 0.018035954 -0.03583491 0.09514833
000310 9d 5e aa bd 92 02 79 3b 65 5d f2 3c 91 59 cb bc
       -0.08318827 0.0037995917 0.02958555 -0.024822982
000320 96 35 d6 3d f2 2d ef b7 e3 53 d6 3c 69 06 a5 3c
       0.104594395 -2.8512415e-05 0.026163047 0.020144658
000330 fc 4a a4 bd b5 aa 84 bd 62 25 5c 3c c7 6b 4f bb
       -0.08022115 -0.06477872 0.013436647 -0.0031649934
000340 07 e4 a6 3c 66 13 79 3d 5d ee 03 bc 3b 8c db 3d
       0.020372404 0.060809515 -0.008052436 0.10720106
000350 53 41 3a 3e a8 16 b5 bb 98 e6 8e bd cd 17 cf 3d
       0.18188982 -0.0055263825 -0.06977576 0.101119615
000360 8f 2c 78 bd 5d 37 05 be 71 d3 64 3d 45 a4 07 3b
       -0.06058937 -0.130094 0.05586571 0.0020697278
000370 10 93 11 3d dd d8 96 3d 95 c8 17 bd e0 03 fd 3d
       0.03554064 0.07365582 -0.037056524 0.12354255
000380 a6 97 e9 bc 25 6d 50 3e a6 89 85 bd 25 76 34 bd
       -0.028514694 0.20354135 -0.06520395 -0.044057984
000390 c5 51 1d 3d 11 f3 89 bd cc 77 50 3d 07 1b 7b 3d
       0.03840806 -0.06735814 0.050895497 0.061305072
0003a0 70 a4 7e bd 5b e0 72 bd 46 72 92 bd 07 4a 9f bc
       -0.06216854 -0.059295993 -0.07150702 -0.019444479
0003b0 c1 1e 32 3d 8e c2 dd bb 9c 7d 75 3d 2c 31 59 3d
       0.04348636 -0.0067675775 0.059934244 0.05302541
0003c0 c2 27 40 bd e9 39 43 3c f4 5d 7f bd 4f 48 bc 3a
       -0.046912916 0.011915662 -0.06234546 0.0014364811
0003d0 51 ea 1e bd 46 84 40 bc d8 db 41 3d be 8a d3 3d
       -0.03879768 -0.011750286 0.0473288 0.10329197
0003e0 b5 57 74 bd 90 02 12 bd fb 61 86 3d 47 e0 7c 3c
       -0.059653956 -0.035646975 0.06561657 0.015434331
0003f0 0b 3b 45 bd 8d 48 af 3d 0d c3 38 bd f6 fe d9 3a
       -0.04815201 0.0855876 -0.04510789 0.001663177

action_model._discrete_distribution.branches.1.bias f4 [2]
000000 62 28 72 bd 60 28 72 3d
       -0.059120543 0.059120536
