results/ppo/Player/Player-10297.onnx (onnx, 34493 bytes, 15 tensors)

discrete_act_size_vector f4 [1, 5]
0	0x40000000	2.0
1	0x40000000	2.0
2	0x40400000	3.0
3	0x40400000	3.0
4	0x40400000	3.0

network_body._body_endoder.seq_layers.0.weight f4 [64, 1]
0	0x3f24ef88	0.64427996
1	0x3f15a189	0.5844961
2	0xbe5edd70	-0.21764159
3	0xbf9419ca	-1.157037
4	0xbed47ec6	-0.4150297
5	0xbe35569d	-0.17708822
6	0x3ec04bdd	0.3755788
7	0x3e2b3e12	0.16722897
8	0xbd244cfb	-0.040112477
9	0xbf1837b5	-0.5946
10	0xc01a36a9	-2.4095862
11	0x3fc55e51	1.5419408
12	0xbf9bbfb4	-1.2167878
13	0x3f186c35	0.5954011
14	0x3f5e7214	0.8689282
15	0x3ee23271	0.4417911
16	0x3ed66377	0.4187276
17	0xbeeb53df	-0.45962426
18	0x3f9a221f	1.2041663
19	0xbd24eed0	-0.04026681
20	0xbf56c822	-0.8389913
21	0xbf9b93c5	-1.2154471
22	0xbf224e29	-0.6340051
23	0x3f1b4733	0.60655516
24	0x3f71adf3	0.9440605
25	0x3eee4f55	0.465449
26	0x3ef5c256	0.4799983
27	0x3e3299ac	0.17441434
28	0xbda64a7e	-0.08119677
29	0xbec294c6	-0.3800413
30	0xbf090a05	-0.53530914
31	0xbf61782a	-0.8807398
32	0x3f036d9b	0.5133912
33	0xbde47991	-0.111559995
34	0xbf55451d	-0.83308583
35	0x3f1850ce	0.594983
36	0xbe54fe6d	-0.2080018
37	0x3f122ad7	0.5709662
38	0x3e06dc96	0.13170084
39	0xc00280c9	-2.0391104
40	0x3baa3419	0.005194199
41	0x3eaf4351	0.34231046
42	0x3f021916	0.5081953
43	0x3f8e874f	1.1135043
44	0xbf907fca	-1.1288998
45	0xbebb1b86	-0.36544436
46	0x3fa17261	1.2613031
47	0x3f179e5a	0.59226
48	0x3f0921ad	0.5356701
49	0xbfaf819d	-1.371143
50	0x3e5a6e19	0.21331061
51	0xbed060fe	-0.40699
52	0x3fa558b6	1.2917697
53	0x3e56d6b4	0.2098034
54	0xbf933d4f	-1.1503085
55	0x4001cc5b	2.0280979
56	0xbf6fda5a	-0.93692553
57	0xbf1afbe8	-0.6054063
58	0x3f8c2037	1.0947331
59	0xbf1eb54e	-0.619954
60	0xbf08aa6c	-0.53385043
61	0xbf8fb12e	-1.1225946
62	0x3e1b7b5d	0.15183778
63	0x3eb4d65c	0.35319793

network_body._body_endoder.seq_layers.0.bias f4 [64]
0	0xbc1b7af4	-0.0094897635
1	0xbc968efa	-0.018378723
2	0xbbbc1dbb	-0.005740849
3	0xbccd83b1	-0.02508721
4	0xbc15adcf	-0.0091356775
5	0xba48d283	-0.0007660763
6	0xbcac5c10	-0.021039993
7	0x3c0be33e	0.0085380655
8	0xb989cb13	-0.00026281978
9	0xbce63a2a	-0.028103907
10	0xbc6fb313	-0.014630097
11	0x375bb92b	1.309653e-05
12	0xbc5289ae	-0.012850208
13	0x3b2070d7	0.002448132
14	0xbb0fa461	-0.0021918046
15	0xbb198296	-0.0023423783
16	0xbc0c0332	-0.008545684
17	0x3b95c83d	0.0045709894
18	0xbb1c3241	-0.0023833665
19	0xbcd323e7	-0.025773956
20	0xbbe21fb0	-0.00690075
21	0xbcb4441c	-0.022005133
22	0x39b265fa	0.00034026784
23	0xbbd590f0	-0.006517522
24	0xbbb0208a	-0.0053749727
25	0x3a073a9c	0.0005158575
26	0xbc802f56	-0.015647572
27	0xbc84f114	-0.016228236
28	0xbbb46679	-0.0055053798
29	0xbc416197	-0.011803052
30	0xbc801639	-0.015635597
31	0xbc921830	-0.0178338
32	0xbc35009f	-0.011047511
33	0xbc1ac67a	-0.009446735
34	0x3c08a4d4	0.008340079
35	0xbbde1b6d	-0.0067781718
36	0x3a966ce8	0.0011476548
37	0x3c947d28	0.018126085
38	0x3c65a5dc	0.014016595
39	0xbc14bdf0	-0.009078488
40	0xbcbfc783	-0.023410564
41	0xbc4051d3	-0.011738258
42	0xbaac374b	-0.0013139037
43	0xb99bd473	-0.0002972219
44	0x3b2aee58	0.0026082005
45	0xbad37cbf	-0.00161352
46	0x3a50fe70	0.00079724845
47	0x3ca859e3	0.020550674
48	0x3bb90be7	0.005647171
49	0xbcb57536	-0.022150617
50	0x3c243e16	0.010024568
51	0xbc01230f	-0.007881894
52	0x3ab9ebd1	0.0014184659
53	0x3c120364	0.008911941
54	0xbc1eb551	-0.009686784
55	0x343899cb	1.7192285e-07
56	0xbc02089a	-0.007936621
57	0xbba5e013	-0.005062112
58	0xbab1285a	-0.0013516054
59	0xbc0c59c0	-0.00856632
60	0xbc21561b	-0.009847189
61	0xbbaf0274	-0.0053408686
62	0x3c88185f	0.016613184
63	0xbb628d18	-0.0034568962

network_body._body_endoder.seq_layers.2.weight f4 [64, 64]
0	0xbe9622b5	-0.29323354
1	0x3ca0dec4	0.019637473
2	0x3dc3ee26	0.095669076
3	0x3dadaad6	0.0847985
4	0x3d2e2365	0.042514224
5	0x3cc54016	0.02407841
6	0x3dc554a5	0.09635285
7	0x3dae0068	0.08496171
8	0x3dac8010	0.084228635
9	0x3d42bb43	0.047541868
10	0xbd166d20	-0.036725163
11	0xbd6f0d46	-0.058362268
12	0x3e0e94e3	0.13923983
13	0x3bffe883	0.0078097
14	0x3c94dcfc	0.01817178
15	0x3e3013a6	0.17194995
16	0xbe7906ab	-0.2431895
17	0x3d5c2741	0.053748373
18	0x3cd472d0	0.025933653
19	0x3ba1117b	0.004915414
20	0x3d1db850	0.038505852
21	0x3e46b72a	0.19405809
22	0xbe569022	-0.2095342
23	0xbe852e9e	-0.2601213
24	0x3cc6bf0b	0.024261018
25	0x3d99f920	0.0751822
26	0x3d4a80a9	0.049439106
27	0x3bf4eab7	0.0074742693
28	0x3cf28b22	0.02960736
29	0xbe93a3ae	-0.28835815
30	0x3dc79f0a	0.09747131
31	0xbdfc5bda	-0.12322207
32	0xbe6facb8	-0.2340573
33	0xbe1c9787	-0.15292178
34	0xbdb43ec1	-0.08801032
35	0xbe11298c	-0.14176005
36	0xbd7fa0a2	-0.06240905
37	0xbe0d0533	-0.13771515
38	0xbca326a9	-0.019915896
39	0x3c65311c	0.013988759
40	0x3e175365	0.14777906
41	0x3db023c1	0.086005695
42	0x3d9ebb1e	0.077505335
43	0x3d805b4b	0.06267413
44	0x3da8c972	0.08241548
45	0xbbb5c41c	-0.0055470597
46	0xbbe8bfbc	-0.0071029346
47	0x3e5b1d25	0.21397837
48	0x3da712ac	0.08157858
49	0xbe164348	-0.14674103
50	0x3dcd827f	0.10034656
51	0xbc9ce2e2	-0.019151155
52	0x3dac993c	0.08427665
53	0xbce6c1a2	-0.028168503
54	0xbc823fc3	-0.015899545
55	0xbe06220a	-0.13098922
56	0xbda83119	-0.0821249
57	0xbda74283	-0.08166983
58	0xbd80912e	-0.06277691
59	0x3d6d5282	0.057940014
60	0x3b95a0ad	0.004566273
61	0x3e01459b	0.12624209
62	0xbcd840b5	-0.026398042
63	0x3e07cd27	0.13261853
64	0xbdd68813	-0.10475173
65	0xbea7116e	-0.32630485
66	0xbd209944	-0.039208665
67	0x3d95d2b6	0.073155805
68	0xbd910397	-0.07080763
69	0x3d432c4c	0.047649667
70	0xbe6483e3	-0.22315936
71	0x3dc9ff52	0.098631516
72	0xbdfcc883	-0.12342932
73	0x3d75ebb9	0.060039256
74	0xbc51c4f2	-0.012803303
75	0xbce01826	-0.027355265
76	0x3cce0dcc	0.025153063
77	0x3de5d674	0.11222544
78	0x3d8fba89	0.07018001
79	0x3ddd80f9	0.10815615
80	0x3d892f80	0.06698513
81	0xbca74a89	-0.020421283
82	0x3d3d65d9	0.046239708
83	0x3d60a9d3	0.054849457
84	0xbd70fc0b	-0.058834117
85	0xbb402b4d	-0.0029322684
86	0x3df31df6	0.11870949
87	0x3e39fc8a	0.18162742
88	0x3e4207f2	0.18948343
89	0xbd761efa	-0.060088135
90	0xbdcea087	-0.10089212
91	0xbc3e0a1c	-0.01159909
92	0xbcbfe4c8	-0.023424521
93	0x3df77d55	0.12084452
94	0x3e5ed094	0.21759254
95	0x3e1f7101	0.15570451
96	0xbe07a0c3	-0.1324492
97	0x3be42ff4	0.0069637243
98	0x3dd13010	0.10214245
99	0x3de32fdf	0.11093115
100	0xbd9165e9	-0.07099516
101	0x3e101deb	0.14073913
102	0x3e494596	0.19655451
103	0x3dab7d9a	0.08373566
104	0x3dda177e	0.10649012
105	0x3de378a7	0.11106997
106	0x3e652895	0.22378762
107	0x3d29bc26	0.041439198
108	0x3ea168c4	0.31525242
109	0xbcc61863	-0.02418155
110	0xbcc98327	-0.024598671
111	0x3e9c7d24	0.30564225
112	0xbeb51a46	-0.35371608
113	0xbd055ac0	-0.03255725
114	0x3dda9682	0.10673238
115	0x3e0b2ca7	0.13591252
116	0x3d8aeb84	0.06783202
117	0x3e204f8a	0.15655342
118	0x3dc9d11d	0.09854338
119	0xbe7fffa4	-0.24999863
120	0x3df618bf	0.12016439
121	0xbc3f8067	-0.011688328
122	0xbd2474b0	-0.040150344
123	0xbc4f6444	-0.0126581825
124	0x3c6b3e12	0.01435806
125	0x3ad42370	0.0016184878
126	0x3e3fbd77	0.18724619
127	0xbd12b234	-0.03581448
128	0x3e4258c1	0.1897917
129	0x3d0892b6	0.03334304
130	0xbcbd933c	-0.023141496
131	0x3e6191a6	0.22028217
132	0x3db3d037	0.08779948
133	0xbdbb2f07	-0.09139829
134	0x3d22851f	0.039677735
135	0xbd21cb1b	-0.039500337
136	0xbe16c87b	-0.14724915
137	0xbdb55553	-0.08854165
138	0xbe0ff625	-0.1405874
139	0xbc98c0d9	-0.018646644
140	0x3dc1b440	0.09458208
141	0xbd8399fd	-0.06425855
142	0xbca23f21	-0.019805493
143	0xbe06dc29	-0.13169922
144	0x3d1fdc2a	0.039028324
145	0xbdc3b3f5	-0.095558085
146	0x3dcc7991	0.099841245
147	0x3e6dbf72	0.23217562
148	0xba82e477	-0.0009986301
149	0x3c87dd43	0.016584998
150	0xbda3f364	-0.080054075
151	0xbc5077f1	-0.012723909
152	0x3d188293	0.0372339
153	0xbb27845b	-0.0025561068
154	0xbe8916d3	-0.26775226
155	0xbdee2e4e	-0.11629926
156	0x3d85b661	0.06528927
157	0x3e443b5a	0.19163266
158	0xbcf3b72c	-0.02975043
159	0x3e4b611c	0.19861263
160	0x3e5b27b9	0.21401872
161	0xbca626d9	-0.020282196
162	0x3dd6d9aa	0.10490735
163	0x3e1dcfa1	0.15411235
164	0xbe0bbf0d	-0.13647099
165	0xbcbb6d17	-0.022879167
166	0x3c0ba7f3	0.008523929
167	0x3d6d81c0	0.057985067
168	0x3c7e6d93	0.015529054
169	0x3cfab05a	0.03060167
170	0x3a979818	0.0011565713
171	0x3d8a56f1	0.06754864
172	0xbc896640	-0.01677239
173	0x3d8996ec	0.06718239
174	0x3d2efc8b	0.042721312
175	0x3e0c6ed9	0.1371416
176	0x3cce2c7c	0.025167696
177	0x3deb44f8	0.11487764
178	0x3e5dc7d6	0.21658263
179	0x3e211f76	0.15734658
180	0xbd61f991	-0.055169646
181	0x3e1101d8	0.1416086
182	0xbd4d7f82	-0.05017043
183	0xbc0b0b52	-0.008486586
184	0xbe3ba8d9	-0.18326129
185	0xbe29230c	-0.16517276
186	0xbc90a98e	-0.017658975
187	0x3c144597	0.009049795
188	0xbe79e8c6	-0.24405202
189	0x3eb7fa52	0.35933167
190	0xbe5e176d	-0.21688624
191	0x3e5a935d	0.21345277
192	0x3e111e1b	0.1417164
193	0xbe662232	-0.22473982
194	0xbdfc5323	-0.123205446
195	0xbd9bb6e3	-0.07603242
196	0xbdba15fb	-0.09086224
197	0xbe6b2bd8	-0.22965944
198	0xbe2c83d1	-0.16847159
199	0xbb83ec5a	-0.004025978
200	0x3e110a3b	0.14164059
201	0xbe058c41	-0.13041784
202	0xbdc4a489	-0.09601695
203	0x3d9b3bf3	0.07579794
204	0x3eba0f5e	0.3633985
205	0x3bd55674	0.00651055
206	0x3d3a61f3	0.045503568
207	0x3d4a761a	0.049429037
208	0xbd3b08ab	-0.045662563
209	0xbdd984f8	-0.10621065
210	0xbd00a7b5	-0.031409938
211	0xbc72f4e6	-0.014828896
212	0x3d193dbd	0.037412394
213	0x3da008d8	0.07814187
214	0xbe5b448e	-0.2141287
215	0x3cece27e	0.028916594
216	0x3cc6eb24	0.024282046
217	0xbbbc2bae	-0.0057425117
218	0xbddc700c	-0.10763559
219	0x3e432d54	0.1906026
220	0xbe2b4988	-0.16727269
221	0xbd593a71	-0.05303425
222	0x3e26ca85	0.16288193
223	0x3dcac1ad	0.09900222
224	0x3ddef102	0.10885812
225	0xbd0a9566	-0.033833884
226	0x3dd3d60c	0.103435606
227	0xbe1dda17	-0.15415226
228	0xbdf51cac	-0.11968359
229	0x3df53f43	0.11974957
230	0x3e052c30	0.13005137
231	0xbbf9c0f3	-0.0076218783
232	0x3da73745	0.08164839
233	0xbe3e2305	-0.18568046
234	0x3d08a0c0	0.03335643
235	0x3da558a3	0.08073547
236	0x3df6643e	0.120308384
237	0x3d346f7a	0.044051625
238	0x3dbf688c	0.093461126
239	0x3daa837b	0.08325859
240	0x3e82e991	0.25568822
241	0x3e1a554c	0.150716
242	0xbd66d97a	-0.056359746
243	0xbd91a7ec	-0.07112107
244	0xbe681a65	-0.22666319
245	0xbd854dc5	-0.06508974
246	0x3d1abb93	0.03777654
247	0x3d8d96c8	0.06913525
248	0x3bd3c969	0.006463219
249	0xbe1b230b	-0.15150087
250	0xbdeeda22	-0.11662699
251	0x3dc33cda	0.09533091
252	0xbe05354f	-0.13008617
253	0xbd91a949	-0.07112367
254	0x3e4bb35b	0.19892637
255	0xbc9a527e	-0.018838163

network_body._body_endoder.seq_layers.2.bias f4 [64]
0	0xbc75f0ac	-0.015010994
1	0xbc4c8a7a	-0.012484187
2	0xbbcb9278	-0.006212529
3	0xbc108b12	-0.008822219
4	0x38a48eae	7.8467056e-05
5	0xbc099010	-0.008396164
6	0xbbf5d992	-0.007502743
7	0xbc001fee	-0.007820113
8	0xbc136011	-0.008995072
9	0xbc7eb8bd	-0.015546975
10	0xbb054e14	-0.0020340728
11	0xbbc547f7	-0.006020542
12	0xbb320169	-0.0027161485
13	0xbbdf0500	-0.006806016
14	0xbad60bb8	-0.0016330397
15	0xbbf1abef	-0.0073752324
16	0xbc6ffe11	-0.0146479765
17	0xbb1993a8	-0.0023433957
18	0xbcf40dbd	-0.029791707
19	0xbad386f3	-0.001613824
20	0xbc38899a	-0.0112632755
21	0xbc0fc5b6	-0.008775165
22	0xbbd14102	-0.0063859234
23	0xbc60ef1b	-0.013728882
24	0xbb82ce9c	-0.003991915
25	0xbc46759d	-0.012113002
26	0xbc275fe3	-0.010215732
27	0xbc1654b9	-0.009175473
28	0xbc86bfbe	-0.016448852
29	0xbbe753d4	-0.0070595536
30	0xbbfde362	-0.0077480534
31	0xbc19ad7a	-0.009379739
32	0xbbd0265a	-0.006352228
33	0xbb424667	-0.0029644014
34	0xbc17abf7	-0.009257308
35	0xbc27c9ef	-0.010241016
36	0xbabf9102	-0.0014615359
37	0xbba49b91	-0.005023428
38	0x39c3898e	0.00037295785
39	0xbc00cb89	-0.007861027
40	0xbbf01206	-0.0073263673
41	0xbc360e94	-0.011111874
42	0xbb9abb57	-0.0047220397
43	0xbc0dc9fb	-0.008654113
44	0xbc3a8ed9	-0.011386597
45	0xbb7ae2fc	-0.0038282266
46	0xbc5aa1e8	-0.0133442655
47	0xbc6ede96	-0.014579436
48	0xbb8ab91d	-0.004233493
49	0xb72fdb33	-1.0481849e-05
50	0xbc218376	-0.009858003
51	0xbc312551	-0.01081212
52	0xba9166f0	-0.00110933
53	0xbbfa55d4	-0.007639626
54	0xbc08e755	-0.008355935
55	0xbb7770e1	-0.003775649
56	0xbc4ef14b	-0.012630771
57	0xbbf288b2	-0.0074015493
58	0xbc1f5720	-0.009725362
59	0xbbb34f3d	-0.0054720924
60	0xba0ecb30	-0.00054471474
61	0xbc263596	-0.010144612
62	0xbabc5ced	-0.0014370956
63	0xbc694d4c	-0.01423962

action_model._discrete_distribution.branches.0.weight f4 [2, 64]
0	0xbc3a6bd7	-0.01137825
1	0x3cc743c4	0.024324305
2	0xb84c4f8a	-4.8711467e-05
3	0xbc336604	-0.010949615
4	0x3bf19628	0.0073726363
5	0xbcf18665	-0.02948303
6	0xbb162fbf	-0.0022916642
7	0xbc665afb	-0.014059777
8	0xbb8a731a	-0.004225147
9	0x3c0f192d	0.00873403
10	0x3b2e0e08	0.0026558656
11	0xbad4a759	-0.001622419
12	0x3c30b8b6	0.010786226
13	0xbb8e5757	-0.004343908
14	0xbb501d94	-0.0031755911
15	0xbb1e4149	-0.00241478
16	0x3b4d0f15	0.0031289507
17	0x3aedd181	0.0018144102
18	0xb9779d7c	-0.00023614423
19	0xbcbd240f	-0.023088483
20	0x3b5cc309	0.0033685586
21	0xbbcafd56	-0.006194751
22	0xbce94abb	-0.028478017
23	0xbc9f7d0f	-0.019468812
24	0x3c0194a2	0.007908972
25	0xbc550960	-0.013002723
26	0xbc9740f0	-0.018463582
27	0x3ca16a54	0.019704022
28	0xbc1a824b	-0.009430478
29	0xbbfba1fc	-0.007679222
30	0x3c82d3fe	0.015970226
31	0x3b1c3cb4	0.0023839893
32	0xbb747e00	-0.0037306547
33	0x3bf0a07c	0.00734335
34	0x3c26750f	0.010159745
35	0xbcba6d2b	-0.022757133
36	0x3becc394	0.007225463
37	0x3b981caf	0.004642091
38	0xbc685598	-0.014180563
39	0x3c1fcec8	0.00975389
40	0x3c8821e5	0.016617725
41	0x3c0c5f9f	0.00856772
42	0xbb9de776	-0.004818852
43	0xbc16ea84	-0.009211186
44	0xbbb9abbe	-0.005666225
45	0xbc450a3e	-0.012026368
46	0xbb8e2806	-0.0043382673
47	0xbb2c2643	-0.0026267923
48	0x3c5a14c8	0.013310619
49	0x3b6a31d4	0.0035735266
50	0x3bc963f4	0.0061459485
51	0x3ca1dcab	0.019758543
52	0xbaadd7ab	-0.0013263127
53	0x3af2ffbf	0.0018539353
54	0xbbb5f138	-0.005552437
55	0x3cba9e30	0.022780508
56	0x3c069fe7	0.008216835
57	0xbcbf4f54	-0.023353256
58	0xb94190fc	-0.00018459925
59	0xbc5a878b	-0.01333798
60	0xbc50c7c7	-0.012742943
61	0x3c154d23	0.009112629
62	0xbc933fc5	-0.017974744
63	0x3c3ee901	0.011652232
64	0xb8e11fba	-0.000107347456
65	0x3c75d604	0.015004639
66	0xbbadc139	-0.005302575
67	0x3cb4bb9b	0.022062114
68	0x3bd3438a	0.0064472603
69	0x3c2c2e09	0.0105090225
70	0xbb321c14	-0.002717738
71	0xb97d4a39	-0.0002415561
72	0x39cf9a9e	0.00039597315
73	0x3ca5eb98	0.020253941
74	0xbaf7fb68	-0.0018919529
75	0x3b19d91d	0.0023475357
76	0xbc903067	-0.017601205
77	0xbcbf5564	-0.023356147
78	0xba94280a	-0.0011303436
79	0xbce1f3f8	-0.027582154
80	0xbb9c512e	-0.0047704196
81	0x3b451fa0	0.0030078664
82	0x3b73926e	0.0037166136
83	0xbc9934c9	-0.018701928
84	0x3ab4cf4e	0.0013794692
85	0xbaba6b4b	-0.001422265
86	0x3c2940f9	0.010330432
87	0x39e84de1	0.00044308513
88	0x3cbafc61	0.022825422
89	0x3b9838bb	0.0046454347
90	0xbc1e2bf9	-0.009654039
91	0xbc1b0db7	-0.009463719
92	0x3c173c07	0.00923062
93	0xbb95cca8	-0.004571516
94	0xbb3adf05	-0.0028514278
95	0x3c3e8362	0.011628004
96	0xbba6a561	-0.0050856327
97	0x3c1f82e9	0.009735801
98	0xbc6b5d82	-0.014365556
99	0xba759e8c	-0.00093696336
100	0x3b585345	0.0033008617
101	0x3b5c2030	0.0033588521
102	0xbc909014	-0.017646827
103	0x3b9793e4	0.0046257842
104	0x3c3025da	0.010751212
105	0x3a63a9f2	0.00086846866
106	0xbba5f1e1	-0.0050642346
107	0xbb3ff6cd	-0.0029291392
108	0xbccc4071	-0.024933072
109	0x3b99dd38	0.004695561
110	0xbc4ae653	-0.012384015
111	0xbc22fb89	-0.009947666
112	0x3bf93600	0.0076053143
113	0x3d013206	0.031541847
114	0xbb93a602	-0.0045058737
115	0x3c95a9be	0.018269416
116	0x3c4ed63f	0.012624322
117	0xbc62064d	-0.013795448
118	0x3d193375	0.03740259
119	0x3c981fef	0.018569915
120	0x3c38effa	0.011287684
121	0x3cc5d781	0.024150612
122	0x3c2c8fc6	0.010532325
123	0xbc20a549	-0.009805032
124	0x3c9e8c8b	0.019354125
125	0xbc41daaa	-0.011831919
126	0x3b2f5b1d	0.0026757189
127	0xbbfa6eaf	-0.007642589

action_model._discrete_distribution.branches.0.bias f4 [2]
0	0x3a8c716b	0.0010714954
1	0xba8c7164	-0.0010714945

action_model._discrete_distribution.branches.1.weight f4 [2, 64]
0	0x3ca4742b	0.020074924
1	0x3c9259de	0.017865118
2	0xbc6f99f9	-0.014624112
3	0x3c548568	0.01297126
4	0xb996c8e1	-0.00028759896
5	0x3ba7e6e8	0.0051239617
6	0xbc582619	-0.013192677
7	0x3c0633c5	0.008191054
8	0x3b99f847	0.0046987864
9	0x3c7dd57f	0.015492796
10	0x3c85a919	0.016315984
11	0xba53bc89	-0.0008077105
12	0xbba738f3	-0.0051032244
13	0x3d4c14c2	0.049824484
14	0xbc54d1ab	-0.012989442
15	0x3bf41f59	0.007450026
16	0x3b0dafc7	0.0021619664
17	0x3b6a0dd7	0.0035713816
18	0xbbff0f31	-0.0077837934
19	0xbbbd266a	-0.0057724016
20	0x3a9a973a	0.0011794337
21	0x3bf0f7d8	0.007353764
22	0xbc38ff52	-0.011291342
23	0xba592303	-0.000828311
24	0x3c714e73	0.014728176
25	0x3bc2e929	0.005948205
26	0x3c029009	0.007968911
27	0xbb5947cb	-0.0033154364
28	0x3ba87a71	0.0051415493
29	0xb9f68100	-0.0004701689
30	0xbbd5fdc2	-0.0065304944
31	0x3c48d5a0	0.012257963
32	0x3ac78423	0.0015221875
33	0xbc1a3222	-0.009411367
34	0x3a93547e	0.0011240391
35	0x3bea45ad	0.0071494193
36	0x3aebef19	0.0018000334
37	0xbc743f93	-0.014907735
38	0xbc24a8a8	-0.010049976
39	0x3ba19a8d	0.004931754
40	0xbc5fcc2a	-0.013659516
41	0x3c31b91c	0.010847356
42	0xbcbc6af2	-0.023000214
43	0x3b820b19	0.003968608
44	0xbc3c8cc4	-0.0115081705
45	0x3c6d70ba	0.014492208
46	0x3b284f32	0.002568197
47	0x3b2711cb	0.0025492783
48	0xbb87222b	-0.004123946
49	0xbc1049cf	-0.00880666
50	0x3b54edb7	0.0032490322
51	0xbc3cc4e9	-0.011521556
52	0xbca3a7b8	-0.019977435
53	0xbbce5dd8	-0.006297808
54	0xbb4efb87	-0.0031583027
55	0xbc8c4324	-0.017121859
56	0x3b37c785	0.0028042507
57	0xbbde0c4f	-0.0067763696
58	0xbb70c2c4	-0.0036737183
59	0x3c26d7be	0.010183273
60	0x3b8b412e	0.0042497134
61	0x3b66177e	0.0035109217
62	0xbc1ef9da	-0.009703124
63	0x3c7b58b3	0.015340972
64	0x3cb44a4b	0.022008082
65	0xbc74ee4e	-0.014949394
66	0xbcb543c4	-0.02212704
67	0x38f6894c	0.000117557676
68	0x3a9d80b9	0.0012016512
69	0x3c0b211f	0.008491783
70	0xbc6a1977	-0.014288298
71	0x3c32a55f	0.010903685
72	0x3bcd1649	0.00625876
73	0x3b607aff	0.0034253
74	0x3c924ada	0.017857958
75	0x3c850608	0.016238227
76	0x3c392933	0.011301327
77	0xbbb8afa2	-0.0056361714
78	0x3b6253c4	0.0034534791
79	0xbac799b9	-0.0015228308
80	0xbb4303a0	-0.00297568
81	0xbc9ce7e3	-0.019153541
82	0xbc04ee75	-0.008113493
83	0xbae8459a	-0.0017720938
84	0xbc2d851a	-0.010590816
85	0x3b8a6312	0.004223236
86	0xbc631b63	-0.01386151
87	0x3ca9db0c	0.020734333
88	0x3bd0dff2	0.0063743526
89	0x3a3a85b3	0.00071152597
90	0x3b796c31	0.0038058872
91	0xbc1fa727	-0.009744442
92	0x3a047482	0.00050527614
93	0x3cfa2b67	0.030538274
94	0x3bb5deb1	0.0055502285
95	0x3c9e2866	0.019306373
96	0xbc0c1c2f	-0.008551641
97	0xbbb6a0cd	-0.005573368
98	0x3c0ccbc6	0.008593505
99	0x3bc2fcb9	0.005950537
100	0xbbf97839	-0.0076132086
101	0xbc86b6ea	-0.016444642
102	0xbc2cf085	-0.010555391
103	0x3b7856af	0.0037893464
104	0x3c977e29	0.018492775
105	0xbc09c1d1	-0.008408026
106	0xbc1de7c7	-0.00963778
107	0xbba91af5	-0.005160684
108	0x3bcfb731	0.006338977
109	0x3bb55d9e	0.0055348417
110	0xbc4e81a5	-0.012604152
111	0x3b289c17	0.0025727802
112	0xb871b454	-5.762682e-05
113	0x3c4a19d6	0.012335261
114	0x3aefce92	0.0018295816
115	0xbc94497b	-0.018101444
116	0x3c1e8887	0.009676105
117	0x38a6f198	7.960497e-05
118	0xbb4b3c35	-0.0031011228
119	0xbc8f44c7	-0.01748885
120	0x3c287012	0.010280626
121	0xbb1a93be	-0.0023586596
122	0x3b9147c4	0.004433604
123	0x3c44c114	0.012008924
124	0x3c467ad1	0.012114243
125	0xbc96de3f	-0.018416522
126	0xbc0afe53	-0.008483487
127	0x3cc1419e	0.023590859

action_model._discrete_distribution.branches.1.bias f4 [2]
0	0x3ac58d8d	0.0015072093
1	0xbac58d90	-0.0015072096

action_model._discrete_distribution.branches.2.weight f4 [3, 64]
0	0x3c5b1c95	0.013373514
1	0xbc17ceda	-0.009265626
2	0xbc14be57	-0.009078584
3	0x3cb434d8	0.021997854
4	0x3aa7986b	0.0012786513
5	0x3ba08d7a	0.004899678
6	0x3cc79632	0.02436361
7	0x3c290b65	0.010317658
8	0xbc9053ae	-0.017618027
9	0xbc1d7d79	-0.009612435
10	0xbbbec5b5	-0.0058219084
11	0x3c56be6b	0.013106923
12	0x3d057b21	0.032588128
13	0x3b3ea185	0.0029087972
14	0x3cb34fd3	0.02188865
15	0xbc0cb42f	-0.008587881
16	0xbbd85285	-0.006601634
17	0x3c07bbf5	0.008284559
18	0x3c84a062	0.016189758
19	0x3b213004	0.002459527
20	0xbc135931	-0.008993433
21	0x3c0510dc	0.008121695
22	0x3acf41f7	0.0015812506
23	0x3c3f9f57	0.011695704
24	0x3bf167e3	0.0073671206
25	0x3bb3a293	0.005482027
26	0xbb66db6f	-0.0035226007
27	0x3bd082e8	0.0063632615
28	0xbc32e880	-0.01091969
29	0x3be97937	0.0071250456
30	0xbc35a879	-0.01108753
31	0x3bc1a54e	0.0059095984
32	0x3c6b001e	0.01434329
33	0xbb1a426a	-0.002353812
34	0x3c1ebd76	0.009688726
35	0xbc97c427	-0.01852615
36	0xbabade47	-0.0014256918
37	0x3c34f707	0.011045224
38	0x3c891e36	0.016738039
39	0x3b3f3092	0.0029173237
40	0x3ca3c47c	0.019991152
41	0x3c4c9480	0.012486577
42	0x3c4d43d7	0.012528381
43	0x3c1601f5	0.00915574
44	0x3cee968e	0.029124524
45	0xbcb0025b	-0.021485498
46	0x3cae5cc7	0.021284474
47	0xbc0e54bd	-0.008687195
48	0xbc085540	-0.008321106
49	0xbc2001fb	-0.009766097
50	0xbc165f8a	-0.009178052
51	0xbc6d42db	-0.014481272
52	0xbb422bd2	-0.002962817
53	0xba8ec6a3	-0.0010892939
54	0xbc990393	-0.018678462
55	0xbcb09e6c	-0.021559916
56	0xbc320b0b	-0.010866891
57	0x3ad0eaa3	0.0015939068
58	0xbb39378c	-0.0028261868
59	0x3a259feb	0.000631808
60	0xbceb95f7	-0.028758032
61	0xb9361ca5	-0.00017367543
62	0xbc802262	-0.015641395
63	0xbb8c47b2	-0.0042810077
64	0x3b0363ce	0.0020048502
65	0xbce876f9	-0.028377043
66	0xbb8e7894	-0.00434787
67	0x3b5c2207	0.0033589618
68	0x394500ea	0.00018787725
69	0x3ba8b094	0.005148003
70	0x3bfd70ae	0.0077343797
71	0x3c8a8a60	0.016911685
72	0x3ce81a7f	0.028332947
73	0x3b513521	0.0031922536
74	0xbcc6322e	-0.02419385
75	0x3b4e2c21	0.0031459408
76	0xbc7c3283	-0.015392902
77	0x3c0603a0	0.008179575
78	0x3b847b32	0.0040430063
79	0x3cb06053	0.021530306
80	0xbba93b1a	-0.005164516
81	0x3c5440a3	0.012954864
82	0x3c60e852	0.0137272645
83	0xbbd7a7f5	-0.0065813013
84	0xbbc6c5da	-0.006066066
85	0x3c56264a	0.013070652
86	0x3c8dd8b8	0.017315254
87	0xbc841895	-0.016125003
88	0x3cab08a1	0.020878138
89	0xbbfb1844	-0.007662805
90	0x3a2100f8	0.0006141807
91	0xbb6a35d3	-0.0035737648
92	0xbb6b6c47	-0.0035922693
93	0x3c12c3d4	0.008957822
94	0x3c6af478	0.014340512
95	0x3c38e505	0.011285071
96	0xbc3c977f	-0.011510729
97	0x3bd3c62e	0.006462834
98	0xba590783	-0.00082790124
99	0xbaf48ac8	-0.0018657083
100	0x3c7e6f9a	0.015529538
101	0x3b74797d	0.0037303858
102	0x3c65f9fe	0.014036654
103	0x3cc0398d	0.023464942
104	0xbc7559f9	-0.014975064
105	0xbc366f25	-0.011134897
106	0x3a9c82ba	0.0011940815
107	0x3c1ff3ab	0.009762685
108	0x3c9fcfdc	0.019508295
109	0x3ba52392	0.0050396407
110	0xbc887b75	-0.016660431
111	0x3bce215b	0.0062905974
112	0xbacecf6f	-0.0015778373
113	0xbbabb735	-0.005240346
114	0x3c3bf2c4	0.011471454
115	0x3c84b1db	0.01619809
116	0x3a2ad0fe	0.00065161276
117	0x3c897c4a	0.016782898
118	0xbb800337	-0.0039066332
119	0x3c722d76	0.014781347
120	0xbad0f70f	-0.001594277
121	0x3c565c50	0.013083532
122	0x3b8f0bf8	0.0043654405
123	0xbb9cd4b4	-0.0047860984
124	0x3c9ff1a6	0.019524407
125	0xbd0bc860	-0.03412664
126	0x3ccfa5f9	0.025347697
127	0xbc1346d3	-0.008989054
128	0x3c27319b	0.010204698
129	0x3a05f989	0.0005110731
130	0x3ba4d0b9	0.0050297645
131	0x3a47c307	0.0007620309
132	0x3b0b0e43	0.0021218217
133	0x3c563499	0.013074064
134	0xbc65dbe3	-0.014029476
135	0xba2a0d42	-0.0006486961
136	0xbc630035	-0.01385503
137	0x3b5bc19c	0.0033532148
138	0xbd258a9b	-0.040415388
139	0xbb849b33	-0.0040468215
140	0xbcb0976d	-0.02155658
141	0x3c2bfa1f	0.010496645
142	0xbcabcff2	-0.02097318
143	0xbc33f91a	-0.010984683
144	0xbc278c2b	-0.01022629
145	0xbb8a38f4	-0.004218215
146	0x3c4a0953	0.012331325
147	0x3c40d0c8	0.011768527
148	0x3ba7477c	0.005104957
149	0x3b82b541	0.0039888923
150	0x3c72cb0a	0.014818916
151	0xbc4eb2eb	-0.0126159
152	0xbca52204	-0.020157821
153	0x3ca458e7	0.020061923
154	0x3cd4ee01	0.025992395
155	0xbce02101	-0.027359487
156	0x3ceba570	0.02876541
157	0xbc070d17	-0.008242867
158	0x3c4da14e	0.012550665
159	0x3bb7b7b0	0.005606614
160	0xbab1abcb	-0.0013555227
161	0xbb8340c7	-0.004005525
162	0x3b031a61	0.0020004737
163	0xbb93d568	-0.004511524
164	0x3b2f56a7	0.002675453
165	0x3c061cbd	0.008185563
166	0x3c896d9d	0.0167759
167	0xbba574ad	-0.005049309
168	0x3bb4afad	0.0055141062
169	0x3b0375c9	0.002005922
170	0xbc969f11	-0.018386396
171	0x3bbff915	0.0058585503
172	0x3c18cfb9	0.009326869
173	0x3c29b9f7	0.010359279
174	0x3b7d49b2	0.0038648662
175	0x3bb3d4c8	0.005488012
176	0xb94b505c	-0.00019389525
177	0x3b955ad9	0.004557949
178	0x3917bf9c	0.00014471862
179	0x3b913355	0.004431168
180	0xba0e998c	-0.00054397504
181	0xbcf6cbee	-0.030126538
182	0xb9aeb643	-0.00033323662
183	0xbbbaa799	-0.0056962487
184	0x3ab0b189	0.0013480644
185	0x3c3dd040	0.011585295
186	0x3a2e9034	0.0006659061
187	0x3b9ffc4a	0.00488237
188	0xbc1ffcc1	-0.009764851
189	0xbbe744b7	-0.007057752
190	0x3c8b7274	0.017022349
191	0x3aa221de	0.0012369712

action_model._discrete_distribution.branches.2.bias f4 [3]
0	0x3c044faf	0.008075639
1	0xbbcdce52	-0.006280699
2	0xbb7d2e67	-0.0038632394

action_model._discrete_distribution.branches.3.weight f4 [3, 64]
0	0x3c16f4b8	0.009213619
1	0x3c93e6c7	0.01805438
2	0x3cf9ef2e	0.030509558
3	0x3bccad0d	0.006246215
4	0xbb8d7963	-0.004317449
5	0xbc9edd24	-0.019392557
6	0x3c1ba08d	0.0094987275
7	0xbc032bab	-0.008006017
8	0x3c074a7e	0.008257506
9	0xbc38d5fb	-0.011281486
10	0x3b833b0d	0.004004842
11	0xbbaea694	-0.0053299163
12	0x3c6a608f	0.014305248
13	0x3c01dfef	0.007926925
14	0x3c40054e	0.011720015
15	0xbb462aa2	-0.0030237813
16	0x3c023e32	0.007949399
17	0x39cd5657	0.00039164975
18	0xbbe0a41b	-0.0068555004
19	0x3c068aff	0.00821185
20	0x3c527c49	0.012847015
21	0xbc049084	-0.008091096
22	0xbaff4379	-0.0019475064
23	0xbc3f8307	-0.011688954
24	0x3cac66c2	0.021045092
25	0x3c842fee	0.016136136
26	0xbc571fde	-0.013130156
27	0xbc4b7290	-0.012417451
28	0xbb393344	-0.0028259316
29	0x3b516e5d	0.003195665
30	0xbad8bc87	-0.0016535678
31	0x3b2d2857	0.002642175
32	0xbae6584d	-0.0017573923
33	0x3b21e820	0.0024705008
34	0xbc80181f	-0.015636502
35	0xbbc77337	-0.0060867327
36	0xbc491e11	-0.012275235
37	0x3a9cd362	0.0011964852
38	0x3be6c831	0.0070429076
39	0xbc8f388f	-0.017483024
40	0x3c47a02c	0.012184184
41	0xbc9a7dc1	-0.018858792
42	0x3b4086de	0.0029377262
43	0x3c292e30	0.010325953
44	0x3aa418ef	0.0012519638
45	0xbb9c0dc6	-0.004762384
46	0x3c1f55e6	0.00972507
47	0xbac6b805	-0.0015161043
48	0x3b9da818	0.004811298
49	0xbc0f13f4	-0.008732785
50	0xbca579ad	-0.020199621
51	0xbbea9b78	-0.0071596466
52	0xbcb3c8b1	-0.021946283
53	0x399d1ca4	0.00029966712
54	0x3c91b147	0.017784728
55	0x3b4e50ab	0.0031481187
56	0xbb85d5a7	-0.0040843072
57	0xbc1d1900	-0.00958848
58	0xbc25315c	-0.010082569
59	0x3b82f830	0.0039968714
60	0xbaae8500	-0.0013314784
61	0xbc785a19	-0.0151582
62	0x3b817424	0.0039506126
63	0x3886f731	6.435661e-05
64	0xbb591ca4	-0.0033128643
65	0x3a4dae1a	0.00078460725
66	0xbc6d1fc1	-0.014472903
67	0xbc9afa64	-0.018918224
68	0xbb70a983	-0.003672213
69	0x3c9701a0	0.018433392
70	0x38125f12	3.4897654e-05
71	0xbc2ebb56	-0.010664782
72	0x3bdbb687	0.0067051086
73	0xbb4813fd	-0.0030529492
74	0x3b1de772	0.002409425
75	0x3b13f5e1	0.0022576975
76	0xbbe1f1b3	-0.006895268
77	0xbcb6a923	-0.022297448
78	0xb9991400	-0.00029197335
79	0x3c464d04	0.012103323
80	0x3b953e14	0.0045545194
81	0x390d2414	0.00013460248
82	0xbc4d9672	-0.012548076
83	0x3c5141f6	0.012772074
84	0x3c82320b	0.015893003
85	0xb95b0aa7	-0.00020889436
86	0x3aeb90be	0.0017972214
87	0xbbb372aa	-0.0054763155
88	0xbbdce083	-0.006740631
89	0xbc6b628b	-0.014366756
90	0x3be8e7d1	0.007107713
91	0xbc841ff4	-0.016128518
92	0x3a594acd	0.0008289039
93	0xbc979d6c	-0.018507682
94	0xbc3b74c2	-0.011441411
95	0xbbfe06a0	-0.0077522546
96	0xbcf9e813	-0.03050617
97	0xba10939f	-0.00055151613
98	0x39d76428	0.00041082618
99	0x3acc17f0	0.0015571099
100	0xbb0f995e	-0.0021911482
101	0xbb1e4a05	-0.0024153006
102	0x3b2d0d00	0.0026405454
103	0xbb02cfe9	-0.001996035
104	0xbabfbbc6	-0.0014628104
105	0x3c6673ca	0.014065692
106	0xbbd73f73	-0.006568843
107	0xbb9dd128	-0.004816193
108	0xbca47cfd	-0.02007913
109	0x3c0d1492	0.008610861
110	0x3cb18a3c	0.02167236
111	0xbd332f7f	-0.043746468
112	0xba6c2536	-0.00090082304
113	0x3c455b0b	0.012045632
114	0xbc5e7f18	-0.013580106
115	0x3bc2eee9	0.0059488905
116	0xbbbdb263	-0.0057890876
117	0xba7c598e	-0.0009626382
118	0x3bd70312	0.0065616453
119	0x3b19de9d	0.0023478635
120	0xbcb3966f	-0.021922318
121	0x3cbbc524	0.022921152
122	0xbc7f83d9	-0.0155954
123	0x3c3387ea	0.010957697
124	0x3cc56510	0.024096042
125	0x3bc28732	0.0059365267
126	0x3c899053	0.016792452
127	0xbbc8ea9e	-0.006131484
128	0x3c29a515	0.0103543
129	0xb9999636	-0.0002929435
130	0xbc52ff63	-0.012878272
131	0x3c0fd3e7	0.008778549
132	0xba86a982	-0.0010273906
133	0xbacf5323	-0.0015817623
134	0x3c2cc51b	0.0105450405
135	0xbbdff5e7	-0.0068347338
136	0xbc0c0939	-0.008547121
137	0xbbcf0be3	-0.0063185557
138	0xbbfeb257	-0.0077727246
139	0xbc569c70	-0.013098821
140	0xbc1669b6	-0.009180477
141	0xbbae7a95	-0.0053246715
142	0x3b79067b	0.0037998247
143	0xbc7ac0ad	-0.015304727
144	0x39256358	0.00015772635
145	0x3c892e20	0.016745627
146	0xbc054807	-0.008134848
147	0x3b5264ce	0.0032103541
148	0x3ca13d0d	0.019682432
149	0xbc698903	-0.014253858
150	0xbbd4dfcd	-0.0064964057
151	0x3c9cbcc2	0.019132975
152	0xbc7cf1dc	-0.015438523
153	0xbc80137e	-0.015634295
154	0x3b130655	0.0022434194
155	0xbc1278e1	-0.008939953
156	0xbc6a163b	-0.014287527
157	0x3bb005b4	0.0053717736
158	0xbbc9cdda	-0.0061585726
159	0x3c07f04b	0.008297036
160	0x3c772d8a	0.015086541
161	0x3a0790b7	0.00051714055
162	0x3c1431b4	0.009045053
163	0xbaaecbc4	-0.0013335873
164	0x3910f36c	0.00013823592
165	0x385118f6	4.985273e-05
166	0x3b220727	0.0024723501
167	0xbab90dcd	-0.0014118493
168	0xbbb7202d	-0.0055885524
169	0xbb686a97	-0.0035463923
170	0x3af31680	0.0018546134
171	0xbc85b436	-0.016321283
172	0xbc9e49d0	-0.019322306
173	0x3bb5c2e5	0.005546915
174	0x3c1a1271	0.009403811
175	0x3c2defc7	0.010616249
176	0xbc433a07	-0.01191569
177	0x3c185574	0.009297717
178	0x3c8cea1b	0.017201474
179	0x3b4ae19c	0.0030957228
180	0xbc084454	-0.008317072
181	0x3c0a9fec	0.00846098
182	0xbc1e102f	-0.009647413
183	0xbc7cf229	-0.015438595
184	0xbc06479e	-0.008195786
185	0xbb076f37	-0.0020665654
186	0x3c8a4718	0.016879603
187	0x3a07b310	0.00051765237
188	0xbbca3ead	-0.0061720223
189	0xbc87c596	-0.016573709
190	0x3b5c4f3b	0.003361656
191	0xbc70a7b7	-0.014688424

action_model._discrete_distribution.branches.3.bias f4 [3]
0	0x3b961f21	0.0045813476
1	0xbaf37ddc	-0.0018576938
2	0xbb4d3b30	-0.0031315796

action_model._discrete_distribution.branches.4.weight f4 [3, 64]
0	0x3ccfd07f	0.025367973
1	0x3bfb9254	0.007677356
2	0x3cb80dbe	0.02246749
3	0x3c24a2bc	0.0100485645
4	0xbbfed4b2	-0.00777682
5	0x3b52a4e8	0.0032141749
6	0x3c2410dc	0.010013785
7	0xbc629851	-0.01383026
8	0xbbd4a9b2	-0.006489956
9	0xbbc74fe5	-0.006082522
10	0xbcb65612	-0.022257838
11	0xbcabcddd	-0.020972187
12	0xbbfb7533	-0.0076738833
13	0x3b5d881a	0.0033803047
14	0xb949d020	-0.00019246386
15	0x38da5354	0.00010410571
16	0xbbe27a73	-0.0069115697
17	0x3b857d78	0.004073795
18	0x3b9dd89f	0.004817083
19	0x3c5967ed	0.013269407
20	0xbbde197e	-0.0067779412
21	0xbc05d5bb	-0.008168633
22	0xbc53a4b8	-0.01291769
23	0x3c31ef0d	0.010860217
24	0x39aab3c9	0.00032558877
25	0x3c579deb	0.013160209
26	0xbc6a4cca	-0.0143005345
27	0x3c304596	0.010758778
28	0x3b0827b2	0.0020775613
29	0x3c24174b	0.010015319
30	0xba7af6a8	-0.0009573498
31	0xbc1317a9	-0.008977809
32	0x3cbc8513	0.023012673
33	0x3afe8024	0.0019416851
34	0xbb48d383	-0.003064365
35	0xba8d1f0f	-0.0010766702
36	0xbab38dea	-0.001369891
37	0x3bc485fc	0.0059974175
38	0x3b3d5be0	0.0028893873
39	0x3bb3d928	0.0054885335
40	0x3c77b6c5	0.015119259
41	0x3b8ca800	0.004292488
42	0xbc89a4c1	-0.016802194
43	0xbc8cb165	-0.017174432
44	0x35c21980	1.4461548e-06
45	0xbc7e3b14	-0.015517015
46	0x3b0746d7	0.002064159
47	0x3bdcaaff	0.0067342515
48	0xbcc5c8c6	-0.024143588
49	0x3ad821a3	0.0016489517
50	0x3bb23788	0.0054387487
51	0xbbb992aa	-0.0056632357
52	0x3c81a338	0.0158249
53	0xbc3399e2	-0.0109619815
54	0xbbfaf819	-0.00765897
55	0xbae7b5d8	-0.0017678095
56	0x3cab403f	0.020904658
57	0x3c3b06aa	0.011415163
58	0xbb11d817	-0.0022254044
59	0x3c712548	0.014718361
60	0x3bae0d24	0.005311625
61	0x3abd3690	0.0014435817
62	0x3b73d8f2	0.0037208167
63	0xbb0fc50b	-0.0021937515
64	0x3c8e0096	0.017334264
65	0x3c23b2f9	0.009991401
66	0xbcbd7531	-0.02312717
67	0x3ba61b44	0.0050691683
68	0xbb5e0c50	-0.003388185
69	0x3cbff363	0.023431486
70	0x3c3b3702	0.011426689
71	0xbc92da23	-0.017926281
72	0xbb9ec3a0	-0.0048450977
73	0x3b24f2ad	0.002516906
74	0xbc1a23d1	-0.009407953
75	0xbc35448c	-0.011063706
76	0xbcc5b51f	-0.024134217
77	0xbb10009a	-0.0021973015
78	0x3c2049eb	0.009783248
79	0x3a9063c1	0.0011016057
80	0xbbd4ea47	-0.0064976546
81	0xbbfabe51	-0.007652082
82	0x3bbfa7e1	0.00584887
83	0x3c361c66	0.011115169
84	0xbc778ce5	-0.0151092755
85	0x395a4e56	0.00020819283
86	0x3c54926c	0.012974363
87	0xbade262f	-0.0016948635
88	0xbbbcbd80	-0.005759895
89	0x3bbf8a50	0.0058453456
90	0x3a8f3de9	0.0010928485
91	0xbb2a5533	-0.0025990724
92	0x3c8a00f5	0.01684616
93	0xbc14dcef	-0.009085878
94	0xbc202c2e	-0.009776158
95	0x3b99277a	0.0046738954
96	0x3b85ccd5	0.004083256
97	0xbaabd783	-0.0013110492
98	0xbc882339	-0.016618358
99	0x3bd3650b	0.0064512542
100	0x3c80ebfe	0.01573753
101	0x3a500695	0.0007935551
102	0xbb35955f	-0.002770744
103	0xbbb9ffc8	-0.0056762435
104	0xbb9539fc	-0.0045540314
105	0x3c781922	0.015142711
106	0x3c60da85	0.013723974
107	0xbb37a47f	-0.0028021631
108	0x3c94e742	0.018176679
109	0xbc159bc4	-0.009131376
110	0xbb69c49d	-0.003567017
111	0x3a987940	0.0011632815
112	0xbc23be7f	-0.009994148
113	0xbc80613d	-0.015671367
114	0xbc1c8659	-0.009553515
115	0xbc0c1e8d	-0.008552206
116	0xbc0b6424	-0.008507762
117	0xbb2a3107	-0.0025969164
118	0xbc110ca3	-0.0088531105
119	0x3ba0fe96	0.0049131615
120	0x3c3d3f53	0.011550742
121	0x39840f04	0.0002518819
122	0x3c5c27b3	0.013437199
123	0x3c44eca9	0.012019315
124	0x3b6bb2ff	0.0035964844
125	0xbb11f9c0	-0.0022274107
126	0x3b646341	0.00348492
127	0xbaae868c	-0.0013315245
128	0x3b70d9b0	0.0036750846
129	0xbb7858cc	-0.0037894724
130	0xbcccab99	-0.024984168
131	0xbc985934	-0.018597223
132	0xbba2d865	-0.004969644
133	0x3bdcfcd5	0.006744007
134	0xba0b747b	-0.0005319786
135	0x3bedf238	0.0072615407
136	0x3bfde881	0.007748664
137	0xbc959a46	-0.01826204
138	0x3b8d0593	0.004303643
139	0x39206b31	0.00015298721
140	0xbc8b14c6	-0.016977679
141	0xbbd6d49d	-0.006556107
142	0xbc87dbd4	-0.016584314
143	0xbba825ed	-0.005131474
144	0x3c080234	0.0083013065
145	0x3c51e00f	0.012809767
146	0xbc10ce94	-0.008838315
147	0x3c06773d	0.00820714
148	0xbc878311	-0.01654199
149	0x3bcb329f	0.006201103
150	0x3c41d8f9	0.0118315155
151	0x3c0bba0a	0.008528242
152	0x3cd66387	0.026170505
153	0xbb15af9d	-0.002284027
154	0x3b4408a5	0.002991238
155	0xbb28c5f2	-0.002575275
156	0x3bfc534a	0.0077003585
157	0x3b22d6c1	0.0024847242
158	0x3c84d5de	0.016215261
159	0x3babfcc1	0.0052486365
160	0x3d077ca7	0.033077862
161	0xbbb2cab5	-0.0054562935
162	0xbc93aa9c	-0.018025689
163	0x3c986333	0.01860199
164	0x3b082c82	0.0020778482
165	0x3bb912ef	0.005648009
166	0xbbacf460	-0.005278155
167	0x3c55c103	0.013046506
168	0xbb9005cf	-0.0043952237
169	0x3be46923	0.006970541
170	0x3cac7b04	0.021054752
171	0x3c15ae9e	0.00913587
172	0xbc8308c3	-0.015995389
173	0x3bbfb590	0.0058505014
174	0xbc8b7ba8	-0.017026737
175	0x3b2685ec	0.0025409414
176	0x3c3379ee	0.010954363
177	0xbb8a3952	-0.004218259
178	0xbc938303	-0.018006807
179	0xbbc860ac	-0.00611504
180	0x3d055058	0.032547325
181	0x3c257712	0.010099189
182	0x3bc67c4a	0.006057297
183	0x3b1f6bc7	0.0024325715
184	0x3b463869	0.0030246025
185	0xbbc111f9	-0.005892035
186	0x3b69c64c	0.0035671173
187	0x3c82a675	0.015948514
188	0x3c0c4a13	0.008562583
189	0xbbc6ef01	-0.006070972
190	0x3c512231	0.0127644995
191	0x3ae52841	0.001748331

action_model._discrete_distribution.branches.4.bias f4 [3]
0	0x3b896a16	0.0041935546
1	0xbad6a6ae	-0.0016376579
2	0xbb218731	-0.002464723
