results/1/Player/Player-63302.pt (torch, 451416 bytes, 58 tensors)

discrete_act_size_vector f4 [1, 5]
0	0x40000000	2.0
1	0x40000000	2.0
2	0x40400000	3.0
3	0x40400000	3.0
4	0x40400000	3.0

network_body._body_endoder.seq_layers.0.weight f4 [128, 1]
0	0xbd7cf7a8	-0.06175962
1	0xbeb1969c	-0.34685218
2	0x3f2f337e	0.68437946
3	0x3e9dd02a	0.3082288
4	0x3e2cbf5e	0.16869876
5	0xbf231a41	-0.63711935
6	0xbdfbaebf	-0.122891895
7	0xbf2cbd8a	-0.67476714
8	0x3e7d0f8f	0.24712966
9	0xbecb2243	-0.39674577
10	0x3cf7ec12	0.030263934
11	0x4011bfa2	2.2773213
12	0x3f21211d	0.6294115
13	0x3f03f92b	0.51552075
14	0xbef9fd6b	-0.48826155
15	0xbf5bd423	-0.8587057
16	0x3f56976f	0.8382482
17	0x3f950f66	1.1645324
18	0xbf728f88	-0.9475026
19	0x3f5c25e0	0.8599529
20	0x3eed79ea	0.46382076
21	0xbef4d572	-0.47819096
22	0xbece511a	-0.4029625
23	0x3f1423f7	0.5786738
24	0xbfc7b4bb	-1.560203
25	0x3e91febc	0.2851466
26	0xbd651b8a	-0.055934466
27	0xbef2b087	-0.47400305
28	0xbe4e0e02	-0.20122531
29	0xbf8cdb7c	-1.1004481
30	0xbf2772ce	-0.65409553
31	0x3f5c4daf	0.86056036
32	0x3f8830b2	1.0639861
33	0xbd39ce53	-0.04536278
34	0x3fa91659	1.3209945
35	0x3eada64b	0.33915934
36	0x401858d2	2.3804212
37	0xbc774d19	-0.015094065
38	0x3f16fd04	0.5897982
39	0xbe36d0fc	-0.17853159
40	0xbe0d4e23	-0.13799338
41	0xbf881d4a	-1.0633938
42	0xbf0d6ff5	-0.5524896
43	0xbf8faa01	-1.1223756
44	0xbf4018e0	-0.75037956
45	0x3eb8e38d	0.36111107
46	0xbe796548	-0.24355042
47	0xbf74fe31	-0.95700365
48	0xc021d9e3	-2.5289237
49	0x3fc2c140	1.5215225
50	0x3eb35d44	0.35032094
51	0x3f405731	0.75133044
52	0xbfc927da	-1.5715287
53	0x3f972143	1.1807026
54	0xbf838303	-1.0274357
55	0xbee7071c	-0.45122612
56	0xbea55ad8	-0.3229587
57	0xbf537c69	-0.8261171
58	0xbee8f4b7	-0.45499203
59	0xbecb413f	-0.39698216
60	0x3fb0c3d1	1.3809758
61	0xbe5d0ae6	-0.21586189
62	0x3c185d52	0.009299593
63	0xbe8a5f2f	-0.27025744
64	0xbf742384	-0.9536669
65	0x4004d11f	2.0752637
66	0x3e4dd46e	0.20100567
67	0x3f3c1952	0.73476136
68	0xbfc84855	-1.5647074
69	0x4009056c	2.140956
70	0xbf53e5b6	-0.82772386
71	0xbfab7654	-1.3395486
72	0x3bcaf54d	0.006193793
73	0x3e695e59	0.22789897
74	0xbe5ab77f	-0.2135906
75	0x3ee1e91f	0.4412317
76	0xbfb651e6	-1.4243743
77	0xbeb4c138	-0.35303664
78	0x3df85e7f	0.12127399
79	0xbfe08233	-1.7539734
80	0xbf8d9430	-1.1060848
81	0xbe1374ea	-0.14400068
82	0xbf602b3f	-0.8756599
83	0xbe90fc21	-0.2831736
84	0xbf24363f	-0.6414527
85	0xbff8339b	-1.9390749
86	0x3f990c88	1.1956949
87	0xbf06524e	-0.52469337
88	0x3f177416	0.5916151
89	0xbf3d8648	-0.7403302
90	0xbfb98976	-1.4495075
91	0xbeb3bb53	-0.35103855
92	0xbe8662ce	-0.26247257
93	0xbe8e9d94	-0.27854598
94	0x3ec2fbfa	0.38082868
95	0x3e013fb8	0.12621963
96	0x3f682107	0.90675396
97	0x3f112f96	0.56713235
98	0x3f1c2449	0.60992867
99	0xbf9a7c45	-1.2069174
100	0x3ed24f2a	0.41076022
101	0xbff5ca96	-1.9202449
102	0x3f7d6eda	0.9899727
103	0x3e98f34b	0.29873118
104	0xbf563c20	-0.83685493
105	0x3f22cbeb	0.63592404
106	0x3fa87081	1.3159333
107	0x3eeef9c7	0.4667494
108	0xbe305d5b	-0.17223112
109	0x3f83a37d	1.0284268
110	0x3ef1b8bb	0.4721125
111	0x3f2895c9	0.65853554
112	0xbfcc662e	-1.5968683
113	0xbf8f3035	-1.1186587
114	0x3f28f195	0.65993625
115	0xbfa12744	-1.2590108
116	0xbef733ea	-0.48281795
117	0x3fc5e21b	1.5459627
118	0xc0148b7f	-2.3210142
119	0xbf95e696	-1.1710994
120	0x3ee04e6f	0.4380984
121	0xbf854578	-1.0411825
122	0x3e27e0ee	0.16394398
123	0x3fe648dc	1.7990985
124	0x3f86d2e5	1.053311
125	0xbed2db83	-0.411831
126	0xbf377722	-0.7166616
127	0x3f310979	0.6915508

network_body._body_endoder.seq_layers.0.bias f4 [128]
0	0xba1af4a2	-0.0005911087
1	0x3b3d2bdb	0.0028865251
2	0xb9a6ef9a	-0.00031840504
3	0xbb854aab	-0.004067739
4	0xbb5e59f6	-0.0033928133
5	0x3a328897	0.00068105146
6	0xbb2f92d2	-0.0026790393
7	0xba44d0a5	-0.0007507897
8	0x3a923132	0.0011153577
9	0xba928e4b	-0.0011181323
10	0x3b0ba3b1	0.0021307284
11	0x3aeb7258	0.0017963154
12	0xba8cf9d5	-0.0010755608
13	0x3b102f62	0.0022000899
14	0xbb07ed78	-0.0020740908
15	0x3a944017	0.0011310604
16	0xbac7f380	-0.0015255064
17	0xbbd024f7	-0.006352063
18	0xbb2a65c3	-0.0026000596
19	0xba452a01	-0.00075212127
20	0x3bcba073	0.0062141954
21	0x3afac8c0	0.0019133314
22	0x3b3bb7e9	0.0028643555
23	0xbb25b3fa	-0.0025284276
24	0x3a8048fb	0.0009787375
25	0x3a47018a	0.0007591477
26	0x3b3bbf72	0.0028648046
27	0xba55e393	-0.00081592164
28	0xbacff92a	-0.0015867103
29	0xbb5ac150	-0.0033379383
30	0xb9e3039e	-0.0004329951
31	0xbb0d9bec	-0.002160783
32	0xbb89e6bc	-0.004208414
33	0x3b1d842b	0.0024035077
34	0xbac7a89a	-0.0015232742
35	0x3a4a5274	0.0007717975
36	0xbbe3dffb	-0.006954191
37	0x3a8bf39f	0.0010677463
38	0x3b3f50b7	0.0029192397
39	0xb98305e4	-0.00024990656
40	0xbaefdcad	-0.001830002
41	0xba37f876	-0.00070179196
42	0x3a28ccf9	0.0006439235
43	0xbb2d263b	-0.0026420492
44	0xbb3fed48	-0.0029285718
45	0xbbb7fc36	-0.0056147827
46	0xba189b51	-0.0005821484
47	0xbb1a0f8b	-0.00235078
48	0xbaa81384	-0.0012823199
49	0xbb51806a	-0.003196741
50	0xbb2070fd	-0.0024481409
51	0xbb250ac8	-0.0025183428
52	0xba8b2dfb	-0.0010618562
53	0xbc2289fa	-0.0099205915
54	0xbb12a539	-0.0022376312
55	0xb9e6a6be	-0.0004399325
56	0xbaa8922a	-0.0012860943
57	0xba8d9b8b	-0.0010803802
58	0xb91ae1c8	-0.00014770695
59	0x35e16120	1.6792073e-06
60	0xbc04db5e	-0.008108942
61	0xba956555	-0.0011397997
62	0x3a6843dd	0.000886021
63	0x3934003e	0.00017166228
64	0xbab7e53d	-0.001403011
65	0x3bac7c3f	0.0052638347
66	0xbbe34b3f	-0.0069364603
67	0xbb02b122	-0.0019942005
68	0xbb9519c8	-0.0045501925
69	0xbb8a33f4	-0.004217619
70	0x380ddba8	3.382159e-05
71	0xbadc176d	-0.0016791649
72	0x3a420615	0.0007401419
73	0xba609be9	-0.00085681543
74	0xba9429f7	-0.001130401
75	0xba2cb63e	-0.00065884355
76	0xbb63df87	-0.0034770684
77	0xb9c8d512	-0.00038305722
78	0xb941df16	-0.0001848902
79	0xb9ca769c	-0.00038616813
80	0xba9d9e23	-0.0012025278
81	0xbad5cc75	-0.0016311543
82	0xbb62b928	-0.0034595225
83	0x3987d80e	0.0002591018
84	0x39f924d8	0.00047520432
85	0xba18ca56	-0.000582849
86	0xbc261d64	-0.010138843
87	0xbae6a4d1	-0.0017596727
88	0x3b65d2e3	0.0035068325
89	0x3b53d8cc	0.0032325266
90	0xbb481923	-0.003053256
91	0xbb0e4dd4	-0.002171387
92	0x3b202470	0.002443578
93	0xbb34231c	-0.0027486747
94	0xbb9144a0	-0.0044332296
95	0x3ace19f5	0.0015724289
96	0xbb4dfbd5	-0.0031430621
97	0xbb0f2963	-0.0021844737
98	0x3ab48678	0.0013772985
99	0xba7ee78a	-0.0009723833
100	0x3a831332	0.0010000227
101	0xbad80abb	-0.001648269
102	0x39392e6e	0.00017660271
103	0x39ea9924	0.00044746057
104	0xbb1f2cd9	-0.0024288206
105	0x38861456	6.393406e-05
106	0x39857d11	0.0002546092
107	0xba18efe4	-0.00058340863
108	0x3b127199	0.0022345542
109	0xbb9aa477	-0.004719313
110	0x3b12cca7	0.0022399814
111	0xbb825b34	-0.0039781574
112	0xbbab86c4	-0.005234571
113	0x3a36d290	0.0006974125
114	0x3b645b8e	0.003484461
115	0xbb0b4f98	-0.0021257158
116	0x3b44773b	0.0029978293
117	0x3b0e291a	0.002169198
118	0xbb92f896	-0.0044852
119	0xba2fa47d	-0.0006700231
120	0xba4e3ba1	-0.0007867162
121	0x3ad910f1	0.0016560835
122	0xba9548b1	-0.0011389462
123	0xbb73bb1b	-0.003719038
124	0x3906c310	0.00012851902
125	0x3b90e4cd	0.0044218064
126	0xbb6d16c3	-0.0036176897
127	0xbaaf4482	-0.0013371857

network_body._body_endoder.seq_layers.2.weight f4 [128, 128]
0	0x3d2b131d	0.041766275
1	0x3ddf0e28	0.10891372
2	0x3daf7d7b	0.085688554
3	0xbdd9bd71	-0.10631836
4	0xbda634bc	-0.08115527
5	0xbd10a457	-0.035312977
6	0xbd03be21	-0.032163743
7	0x3d3a2df1	0.04545397
8	0x3e099179	0.134344
9	0x3dfd45d2	0.12366833
10	0xbdf45ed6	-0.11932151
11	0x3e04279f	0.12905739
12	0x3de163e9	0.110053845
13	0x3d7fb6ae	0.062430076
14	0x3e34ef03	0.176693
15	0xbd2c8dc9	-0.042127404
16	0xbce2f415	-0.027704278
17	0x3da9785a	0.08274908
18	0xbdf3170e	-0.11869632
19	0x3df5cce5	0.12001971
20	0xbd547cc9	-0.051876817
21	0x3d360582	0.044438846
22	0xbc4de6b5	-0.012567212
23	0xbdc2af6e	-0.09506117
24	0xbd3f9363	-0.04677142
25	0xbcd21810	-0.02564624
26	0x3d3db768	0.046317488
27	0xbc9cc3e7	-0.019136382
28	0x3e1c4409	0.15260328
29	0x3db1e30b	0.08685883
30	0xbbcf3a30	-0.006324075
31	0x3d37dcc0	0.044888258
32	0x3ddff041	0.10934497
33	0x3db2578a	0.08708103
34	0x3d6db00e	0.058029227
35	0x3dec6c65	0.11544112
36	0xbd2c6d91	-0.04209668
37	0xbc2fabe5	-0.010722135
38	0x3d5bf6bc	0.0537021
39	0xbdabec6c	-0.08394703
40	0xbdf7b1d9	-0.120944686
41	0x3ae38a4e	0.0017359944
42	0xbd01ccb3	-0.031689357
43	0x3d84e1f1	0.064884074
44	0x3d9ca210	0.076480985
45	0xbd646975	-0.055764634
46	0xbd043296	-0.032274805
47	0xbd490f69	-0.049086962
48	0x3d439fa7	0.04775968
49	0xbe27542c	-0.16340703
50	0x3d5e685d	0.054298747
51	0xbcf0f35b	-0.029412916
52	0x3d62d3d3	0.055377793
53	0x3dfe8a0c	0.12428674
54	0x3d09c166	0.033631705
55	0x3c5d21b0	0.013496801
56	0x3c5d61e6	0.01351211
57	0x3db446ab	0.08802541
58	0x3d524cda	0.051342823
59	0x3d6d37dc	0.0579146
60	0xbd3bea35	-0.045877654
61	0x3c9568d7	0.018238468
62	0xbda4b2be	-0.08041905
63	0xbd558e5e	-0.052137725
64	0x3dce8b22	0.10085131
65	0xbe1b3ac0	-0.1515913
66	0xbc2d477b	-0.010576124
67	0xbcd90d84	-0.026495703
68	0xbc8eeb4f	-0.017446188
69	0x3e13ce1e	0.14434096
70	0x3c8ac699	0.016940402
71	0x3d6ac34b	0.057315152
72	0xbc7f60fb	-0.015587087
73	0xbcb31752	-0.021861706
74	0x3dc96849	0.09834344
75	0xbdc018a7	-0.09379702
76	0x3d00aed1	0.031416718
77	0x3d881442	0.06644489
78	0x3dbf6c13	0.093467854
79	0xbcd4684e	-0.025928643
80	0xbcdca153	-0.026932394
81	0xbe0fc3b2	-0.14039496
82	0xbcbb5642	-0.02286828
83	0xbd27ba5a	-0.040949203
84	0xbc0462c9	-0.008080193
85	0x3dcb80dc	0.09936687
86	0x3e0bf801	0.13668825
87	0xbdb223cc	-0.08698234
88	0x3e2a5aa5	0.1663614
89	0x3dfb83a9	0.122809716
90	0x3b9c3ff4	0.004768366
91	0x3df01262	0.11722256
92	0x3d13c543	0.036076795
93	0xbe15c6e5	-0.14626653
94	0x3b9ec538	0.0048452877
95	0x3c010263	0.007874104
96	0x3d414065	0.047180552
97	0xbda6abaf	-0.08138215
98	0xbc6813f4	-0.014164913
99	0x3cd448d6	0.025913637
100	0xbc84f48a	-0.016229887
101	0xbc1e307b	-0.009655113
102	0x3d3d87df	0.046272155
103	0xbcda3a98	-0.026639268
104	0xbe03c5de	-0.12868449
105	0xbe0e79ad	-0.13913603
106	0xbba75f24	-0.005107777
107	0x3da3b943	0.0799432
108	0x3d45f75f	0.048331615
109	0x3d001362	0.031268485
110	0x3e1db594	0.15401298
111	0xbdbe1d2f	-0.0928291
112	0xbdc6d52d	-0.09708629
113	0xbd85a7a6	-0.06526117
114	0x3e01e672	0.12685564
115	0x3c5c2c9f	0.013438373
116	0xbc7d31cc	-0.015453767
117	0x3d9b3b42	0.07579662
118	0xbe0930cd	-0.13397522
119	0xbd4ffef9	-0.05078027
120	0x3d1e4d1b	0.038647752
121	0x3dd2e882	0.102982536
122	0xbdc80432	-0.09766425
123	0xbe0d7899	-0.13815536
124	0x3df2c406	0.11853795
125	0xbdab97bc	-0.083785504
126	0x3d7527d1	0.059852425
127	0x3d1f3a16	0.038873754
128	0xbdb6727e	-0.089085564
129	0x3de77b6a	0.11302836
130	0x3cf1e94c	0.02953019
131	0xbd4d2df9	-0.05009267
132	0x3dd0fe7d	0.1020479
133	0x3cc254d2	0.023722086
134	0xbd88e80c	-0.066848844
135	0xbe259336	-0.16169438
136	0xbc8c9a70	-0.017163485
137	0xbd3c1b15	-0.045924265
138	0xbd1616e5	-0.036642928
139	0x3d035b64	0.03206958
140	0x3dbfb42d	0.09360538
141	0xbc89e144	-0.016831048
142	0x3de402c5	0.11133341
143	0x3e03db7a	0.12876692
144	0xbe1358eb	-0.14389388
145	0x3de854f3	0.11344328
146	0x3d894ad1	0.06703723
147	0x3db3074f	0.087416284
148	0xbcf2718f	-0.029595165
149	0x3c4c814f	0.012482001
150	0xbc6e310d	-0.014538062
151	0xbdc1b7cf	-0.09458887
152	0xbd368841	-0.044563536
153	0x3dc9954f	0.098429315
154	0x3e410d93	0.18852834
155	0xbdb6cc3d	-0.08925674
156	0x3d90ce3a	0.070705846
157	0x3d40764e	0.046987824
158	0x3dad2a14	0.084552914
159	0x3d8be52f	0.06830823
160	0x3d80b148	0.06283814
161	0xbcc1bef9	-0.023650633
162	0x3adc5473	0.0016809836
163	0xbdb19d8a	-0.08672626
164	0x3ce279b4	0.027645923
165	0xbe088a60	-0.13334036
166	0x3d2bb182	0.04191733
167	0xbcda00dc	-0.026611738
168	0xbdf04d61	-0.11733509
169	0x3dcd9afc	0.100393265
170	0xbc030400	-0.007996559
171	0xbe2c8e7f	-0.16851233
172	0x3ddb8520	0.10718751
173	0x3d36855a	0.044560768
174	0xbce3edfe	-0.027823444
175	0x3dde8795	0.10865704
176	0xbd9a1956	-0.07524364
177	0xbda80e39	-0.08205838
178	0xbd011077	-0.031509843
179	0xbe351b97	-0.17686306
180	0xbdc33818	-0.095321834
181	0x3d99c1d2	0.075076714
182	0x3d160fe8	0.036636263
183	0xbd4c1a8e	-0.049830012
184	0xbcb2f276	-0.02184413
185	0xbe4faf54	-0.20281726
186	0x3df22392	0.11823191
187	0x3d61b9db	0.055108886
188	0x3d5adb35	0.05343171
189	0xbe0edda2	-0.13951734
190	0x3dc73991	0.09727777
191	0xbd0bcfcc	-0.034133717
192	0xbd4a3a37	-0.049371924
193	0xbe0773ab	-0.13227718
194	0x3dccd61f	0.10001778
195	0x3e26ecfb	0.16301338
196	0xbd976ed6	-0.07394187
197	0x3d4b1a3a	0.04958556
198	0xbde88351	-0.113531716
199	0x3d9f0630	0.07764852
200	0xbe0bd3b0	-0.13654971
201	0xbce7e991	-0.028309615
202	0x3ce4ada4	0.02791483
203	0x3c9e0c24	0.019292898
204	0x3e124efe	0.14287946
205	0xbd4d50f2	-0.050126024
206	0xbcea915b	-0.028633764
207	0x3d9b50ac	0.07583746
208	0xbd120e5c	-0.035658225
209	0xbd0466c4	-0.032324567
210	0x3e371338	0.17878425
211	0xbba3da5b	-0.0050003952
212	0x3df0d895	0.1176006
213	0xbe032e32	-0.12810591
214	0x3db14d35	0.08657304
215	0x3d8e8934	0.06959763
216	0xbd5510b8	-0.052017897
217	0xbd2e05fa	-0.04248617
218	0x3d3b5e10	0.045744002
219	0x3d301648	0.04299
220	0x3d0e4cc1	0.034741167
221	0xbce20dd6	-0.027594488
222	0x3d71dda6	0.05904927
223	0xbd9fd3fb	-0.07804104
224	0x3d15ef6b	0.03660528
225	0x3cd871b1	0.0264214
226	0x3e470ea1	0.19439174
227	0xbe0c85fd	-0.13722987
228	0xbdcdf4d7	-0.10056465
229	0x3db1927c	0.08670518
230	0x3dad31c4	0.08456758
231	0xbe32ffe3	-0.17480426
232	0x3c2feab2	0.010737108
233	0xbdcb2c88	-0.09920603
234	0xbcd7fdc2	-0.026366118
235	0xbe45fb2e	-0.19334099
236	0x3cf879f2	0.030331586
237	0x3d512a45	0.051065702
238	0xbe540c34	-0.2070778
239	0x3d51b5fa	0.051198937
240	0x3d609e31	0.054838363
241	0x3d7d3d2c	0.061825916
242	0x3c887b38	0.016660318
243	0xbda27757	-0.079329185
244	0x3d7e4a38	0.0620825
245	0x3de9350f	0.11387073
246	0xbdecac80	-0.11556339
247	0x3d8bb48d	0.06821547
248	0x3e08d1df	0.1336131
249	0xbe134769	-0.1438271
250	0x3d966fce	0.07345544
251	0xbd88366d	-0.06651006
252	0xbdbf4727	-0.09339743
253	0xbc585a79	-0.013205164
254	0x3cd60afc	0.026128285
255	0x3c58ffad	0.013244552

network_body._body_endoder.seq_layers.2.bias f4 [128]
0	0x3b40d2a4	0.0029422427
1	0xbae5302b	-0.0017485669
2	0xbb0e659f	-0.0021728051
3	0xbb2ad84f	-0.0026068871
4	0xbb8a112a	-0.004213472
5	0xbacef0c0	-0.0015788302
6	0x3a3aace8	0.0007121102
7	0x3ac754bb	0.0015207747
8	0xbb52b036	-0.0032148487
9	0x3800b84c	3.0689218e-05
10	0xbbc87ec3	-0.006118627
11	0xbb646a17	-0.0034853274
12	0xbb1f6e60	-0.0024327263
13	0xbb05c11f	-0.0020409299
14	0xba19aa8b	-0.00058618997
15	0xbb0b21f9	-0.0021229966
16	0xbae0739f	-0.0017124302
17	0xbb85ac0a	-0.0040793465
18	0xbb729028	-0.0037012193
19	0x3a978b21	0.0011561849
20	0xbc2b8212	-0.010468023
21	0xbb332525	-0.0027335372
22	0xbb43f51c	-0.0029900735
23	0x3a7817ac	0.00094639766
24	0xbb90bd1e	-0.004417076
25	0xbbbdf990	-0.0057975724
26	0x39f19a96	0.00046082278
27	0x3b49184d	0.003068465
28	0x3adeb0bf	0.001698993
29	0xbc328ae8	-0.010897376
30	0xbb0eb91b	-0.0021777812
31	0xbb2bdaf6	-0.002622304
32	0x3b4cc475	0.0031245027
33	0xba4d6ac3	-0.0007836038
34	0x3b57f32a	0.0032951334
35	0x3ad468cb	0.0016205547
36	0x3b0cf4cd	0.0021508217
37	0xbb58782d	-0.0033030615
38	0xbb89a0e5	-0.0042000883
39	0xbb0f2a23	-0.0021845184
40	0x3c28adc2	0.010295333
41	0xbb69844f	-0.003563184
42	0xbb0aea1e	-0.0021196674
43	0xbb2588c0	-0.0025258511
44	0x3ab11a6e	0.0013511905
45	0x3aa06612	0.001223745
46	0xbb0dade2	-0.0021618535
47	0xbc3ac470	-0.011399373
48	0xbaeaa12a	-0.0017900814
49	0x3b5769fe	0.0032869573
50	0xba2062b2	-0.00061182224
51	0xbaacaf1b	-0.0013174744
52	0xba184f88	-0.0005810191
53	0x3c9255dd	0.017863208
54	0xbb255c91	-0.0025232176
55	0x3ad66642	0.001635738
56	0xbb8256e5	-0.003977644
57	0xbae530b4	-0.0017485828
58	0xbad68698	-0.0016367016
59	0xb9a0a81d	-0.00030642832
60	0xb9ccd2d1	-0.00039066983
61	0xb9d5dc74	-0.00040790776
62	0xba317988	-0.0006770124
63	0xbbb86e81	-0.0056284075
64	0xbb12d0e4	-0.002240234
65	0x3bda43c2	0.0066609094
66	0xbb99f512	-0.004698404
67	0xbbb50410	-0.005524166
68	0xbb67f131	-0.0035391564
69	0xbc21a290	-0.009865418
70	0xba10df7b	-0.0005526465
71	0xbb1244aa	-0.002231876
72	0xbb4e8a88	-0.0031515677
73	0x3a80b1db	0.000981863
74	0xbb07814a	-0.0020676428
75	0xbb0e26ac	-0.002169053
76	0xbb8ed36d	-0.0043587
77	0xbbc0516b	-0.005869081
78	0xbb9cc191	-0.004783817
79	0xbb082d8f	-0.0020779108
80	0x3bb6c35f	0.0055774893
81	0x3bd0c696	0.0063713295
82	0xbc215c1a	-0.009848619
83	0xbb46edaa	-0.003035406
84	0xbb2624ea	-0.0025351592
85	0xbb13fcb9	-0.0022581054
86	0x3bd848c3	0.0066004707
87	0xbb2cb509	-0.0026353023
88	0xbade0274	-0.0016937987
89	0xbb4d9a72	-0.0031372574
90	0x3b027374	0.0019905241
91	0xba31e95b	-0.0006786787
92	0xbbcbba76	-0.0062172962
93	0x3a290fd7	0.00064491987
94	0xbb5808e9	-0.0032964295
95	0xbc103c7a	-0.008803481
96	0xb98d29dd	-0.00026924806
97	0x393510ed	0.0001726781
98	0x3ab735f7	0.0013977875
99	0xbaee5eac	-0.0018186173
100	0xbc1d24a9	-0.00959126
101	0x3a5f0e9f	0.00085089536
102	0xbb930da2	-0.004487709
103	0x3b4221b1	0.0029622132
104	0x3abee93d	0.001456536
105	0xbb74f3ab	-0.0037376683
106	0xbb244562	-0.002506577
107	0xbaf2d627	-0.0018526957
108	0xbb7fb42f	-0.003901731
109	0xba001285	-0.0004885572
110	0x3a446417	0.0007491721
111	0xbb242df5	-0.0025051807
112	0xbb3aad91	-0.0028484801
113	0xb7245383	-9.794606e-06
114	0xbb8b38e6	-0.004248726
115	0x3bf244ee	0.007393471
116	0xba3e6768	-0.00072633335
117	0xb69cc4c0	-4.672067e-06
118	0x39f962ac	0.00047566497
119	0xbb7749a1	-0.0037733095
120	0xbb5b9193	-0.0033503517
121	0xba1a547a	-0.0005887222
122	0xbb0a96a3	-0.0021146915
123	0xba09e9b7	-0.00052609615
124	0xbaec1779	-0.0018012366
125	0xbb8e721f	-0.0043471004
126	0xbc07f7ff	-0.008298873
127	0x3ab934fe	0.0014130173

action_model._discrete_distribution.branches.0.weight f4 [2, 128]
0	0xb881a043	-6.1810504e-05
1	0xbbeab038	-0.00716212
2	0xbbfc1029	-0.007692356
3	0xbb9c866e	-0.0047767675
4	0x3c655161	0.013996453
5	0xb93d0430	-0.00018026005
6	0xbc2c8bba	-0.01053136
7	0x3c6bc7b4	0.014390875
8	0xbacde61f	-0.001570884
9	0x3b9b9ecd	0.004749155
10	0x3be529e2	0.006993518
11	0x3c7238ec	0.014784079
12	0x3c213efc	0.009841677
13	0x3bce3ebf	0.006294101
14	0xbb8be920	-0.004269734
15	0x3c04233b	0.00806504
16	0xbc4028a1	-0.011728437
17	0x3bd75546	0.0065714447
18	0xbafd6fb1	-0.0019335655
19	0xbb997dec	-0.0046842005
20	0xb983eedc	-0.0002516423
21	0x3b574a22	0.0032850583
22	0x3a86bc6e	0.0010279545
23	0xbc86c8d7	-0.01645319
24	0xbc0cd8e2	-0.008596631
25	0xb93421a9	-0.00017178677
26	0x3c6c2776	0.014413705
27	0x3b916537	0.0044371146
28	0x3bcc5a98	0.0062363856
29	0x3c6c7e8a	0.014434466
30	0x3bd1db26	0.0064042984
31	0xbbcd6c67	-0.006269026
32	0x3b8a58ef	0.0042220275
33	0xbc05e2f9	-0.00817179
34	0x3bb7b0e8	0.0056058057
35	0x3b7638db	0.003757051
36	0x3b8721c6	0.004123899
37	0x3b301760	0.0026869401
38	0x3b1202f3	0.002227959
39	0xbc098b53	-0.008395034
40	0xbb664868	-0.0035138372
41	0x3c502ce6	0.012706017
42	0xb95334d2	-0.00020142205
43	0x3c11e094	0.008903641
44	0x3c6b1a31	0.014349506
45	0x3c0a7552	0.008450823
46	0x3b3b36aa	0.0028566518
47	0xbaebe94e	-0.0017998607
48	0x3b0e94e3	0.0021756224
49	0x3b9d0e6f	0.0047929804
50	0x3b505279	0.0031787439
51	0x3c0ff5c8	0.008786626
52	0x3b2e4f74	0.002659765
53	0xbc15032e	-0.009094996
54	0xbc2b618f	-0.0104602715
55	0xbbd7a66d	-0.006581119
56	0x3b958e0a	0.0045640515
57	0xbb1b5ae4	-0.0023705298
58	0x3c640107	0.013916261
59	0x3c170eac	0.009219807
60	0xbbc030ed	-0.0058652074
61	0xbc227df0	-0.009917721
62	0x3bafe814	0.005368242
63	0xbbcfe8ab	-0.006344875
64	0x3a9aef91	0.0011820664
65	0xbb9577d6	-0.0045614047
66	0xbc348c17	-0.011019728
67	0xbc8df94c	-0.017330788
68	0xbba978ea	-0.005171885
69	0xbafe3e13	-0.0019397162
70	0x3bb5afe2	0.0055446485
71	0xbac50149	-0.001503029
72	0xbb0ce078	-0.0021496098
73	0xbc2e5176	-0.010639539
74	0xbcb5f357	-0.02221076
75	0x3c88fae3	0.016721195
76	0x3c929225	0.017891953
77	0xbaeaa06c	-0.0017900593
78	0x3c3c1ba1	0.011481197
79	0xba803c69	-0.0009783629
80	0xbb080b08	-0.0020758528
81	0xbaf95453	-0.0019022323
82	0xbc71eaf8	-0.014765494
83	0x3adbabcf	0.0016759577
84	0x3ba211a1	0.004945949
85	0x3b4a8db1	0.0030907209
86	0x3be94834	0.007119203
87	0x3c58592f	0.013204857
88	0xbc04898c	-0.008089434
89	0xba8e6c7b	-0.001086607
90	0x3cabc545	0.020968089
91	0x3a99d536	0.0011736515
92	0xbb8965eb	-0.004193058
93	0x3ba3fba5	0.0050043636
94	0x3ac3d404	0.0014940505
95	0x3c0fc311	0.008774535
96	0x3c51bc0e	0.012801183
97	0x3b192f7d	0.0023374252
98	0x3bb135aa	0.0054080086
99	0xbc10c170	-0.008835182
100	0x3b4153e6	0.002949947
101	0x3b17ea95	0.0023180593
102	0xbb9cad00	-0.0047813654
103	0xbbfd9759	-0.0077389893
104	0xbbc4d059	-0.0060062823
105	0x3c2dd4fe	0.010609863
106	0x39b4bcb7	0.0003447288
107	0xbbacc36f	-0.005272321
108	0x3b7f8843	0.003899113
109	0xbb7b5a05	-0.0038353216
110	0xbbcdf2ab	-0.006285032
111	0x3c15cffe	0.0091438275
112	0xbb68991d	-0.0035491653
113	0xbbd3bc15	-0.00646163
114	0x3c3bf75d	0.01147255
115	0xbc5a0068	-0.013305761
116	0xbc0c2e74	-0.008555997
117	0x3c63d04d	0.013904643
118	0xbadf580c	-0.001703979
119	0x3c79e62b	0.01525263
120	0xbc24a528	-0.010049142
121	0x3c8e5f20	0.017379344
122	0xbb12c248	-0.0022393633
123	0x3c6867b1	0.014184878
124	0xbbe007a3	-0.006836848
125	0xbc55ae68	-0.01304207
126	0xba47c0f6	-0.0007620001
127	0x3b3d1015	0.0028848697
128	0xbbb14f9a	-0.0054111006
129	0xbbc0e902	-0.0058871517
130	0x3c142a78	0.009043328
131	0x3bdcf97f	0.0067436094
132	0xbc19e365	-0.009392594
133	0xbc36de9b	-0.011161472
134	0x3bef3705	0.00730026
135	0x3c03a3b6	0.008034637
136	0xbb6ae5b9	-0.0035842492
137	0xba5e0e17	-0.00084707275
138	0xbc0fd77e	-0.008779405
139	0xbb9e9152	-0.004839101
140	0x3b554901	0.0032544734
141	0xbc174114	-0.009231824
142	0xbac6907e	-0.0015149263
143	0xbabf2568	-0.0014583291
144	0xbb48d3ae	-0.003064375
145	0xbc4e0646	-0.012574738
146	0xbc36f7e8	-0.011167504
147	0x3b4fba61	0.0031696784
148	0xbc1d89fa	-0.009615416
149	0xbc10d80c	-0.008840572
150	0xbc9b90ed	-0.018990004
151	0xbbcb39bb	-0.0062019504
152	0xbc11ad79	-0.008891457
153	0x3b93b32a	0.004507442
154	0x3aaf35db	0.0013367491
155	0x3c10cc5f	0.008837788
156	0xbb364f72	-0.002781835
157	0xba7d6855	-0.0009666731
158	0xbc0633b3	-0.008191037
159	0xbb7c7c9e	-0.0038526426
160	0x3ba9bb53	0.0051798015
161	0x3bf0fcad	0.00735434
162	0x39ddc47e	0.00042298803
163	0xb9e7bb29	-0.000441992
164	0xbc21bc79	-0.009871596
165	0xbb901abc	-0.0043977182
166	0x3b52d003	0.0032167442
167	0x3ca1da69	0.019757466
168	0x3b1ee831	0.0024247284
169	0xbb1d7461	-0.0024025666
170	0xbc068519	-0.008210444
171	0x3b875c15	0.00413085
172	0x3c50a617	0.012734911
173	0xbb949948	-0.004534874
174	0x3c2a0679	0.01037752
175	0xbc0b07c5	-0.008485739
176	0xbc7915c1	-0.01520294
177	0x3bb074f7	0.005385037
178	0xbb7f01b6	-0.0038910932
179	0xbc2d0ce8	-0.010562159
180	0x3958a8e4	0.00020662282
181	0x3bc8ee94	0.0061319564
182	0x3c2883ee	0.010285361
183	0x3b434c93	0.002980028
184	0xbbb7458e	-0.0055930084
185	0x3c03d3a5	0.008046065
186	0xba0b470d	-0.00053130166
187	0x3a234934	0.00062288647
188	0x3a9d1de8	0.0011987062
189	0x3c244e6c	0.010028463
190	0xbb34675d	-0.002752743
191	0xbbad2038	-0.005283382
192	0x39ce2285	0.000393171
193	0xbb0855b9	-0.0020803048
194	0x3c859540	0.01630652
195	0x3b7bf664	0.003844642
196	0x3c11f11c	0.008907583
197	0xbc6b68ee	-0.014368279
198	0xba85b379	-0.0010200582
199	0x3a025b94	0.00049727526
200	0x3bb8d1e9	0.0056402576
201	0xbc3ae1de	-0.01140639
202	0x3c69bddb	0.0142664565
203	0xbccd31b9	-0.025048124
204	0x3c1583cb	0.00912566
205	0x3ac9e4db	0.0015403287
206	0xba94f811	-0.0011365433
207	0x3c20c17a	0.009811753
208	0x3bf67f96	0.0075225336
209	0x3b08d4c5	0.0020878774
210	0xbc4f1de4	-0.012641404
211	0xbc207c9c	-0.009795334
212	0x3c06d31f	0.008229046
213	0xbbee5742	-0.0072735855
214	0x3b1df332	0.0024101255
215	0x3c82cc8e	0.01596668
216	0x3bad4b88	0.005288545
217	0xbc3a7407	-0.011380202
218	0xbc45e315	-0.012078066
219	0x3c12e3d0	0.008965448
220	0x3b434293	0.002979432
221	0xbc2425aa	-0.010018745
222	0x3a925737	0.0011164908
223	0xbbfa11e3	-0.007631527
224	0xbbdb4dfa	-0.006692645
225	0x3bb0b202	0.005392314
226	0x3c81cedd	0.01584571
227	0xbbc36806	-0.0059633283
228	0xbc190f9e	-0.009342102
229	0xbc378404	-0.011200909
230	0x3c6a0d7c	0.0142854415
231	0xbb967445	-0.004591497
232	0xbad9111f	-0.0016560889
233	0x3b1d11a2	0.0023966809
234	0xba56dc86	-0.00081963127
235	0xb9721c2d	-0.00023089415
236	0x3bf271ca	0.0073988186
237	0xbc854269	-0.016267018
238	0xbb6bc13f	-0.0035973338
239	0xbbf434bb	-0.007452575
240	0x3c02a10a	0.007972965
241	0x3c29ffbc	0.010375913
242	0xbb0eb360	-0.0021774396
243	0xbc1006c4	-0.008790676
244	0xbb15059a	-0.0022738934
245	0xbc0afc75	-0.008483042
246	0x3c5a68e3	0.013330671
247	0x3c3e8305	0.011627917
248	0xbc943b04	-0.018094547
249	0xb906a1c5	-0.000128395
250	0xbc1b5c5a	-0.009482468
251	0xbc25283d	-0.010080394
252	0xbca5fb00	-0.020261288
253	0xbbdc8e94	-0.006730864
254	0xbc4182d6	-0.011810979
255	0x3b9411c9	0.0045187217

action_model._discrete_distribution.branches.0.bias f4 [2]
0	0x39cba47f	0.00038841736
1	0xb9cba496	-0.00038841803

action_model._discrete_distribution.branches.1.weight f4 [2, 128]
0	0xbbe851a9	-0.007089813
1	0x3c461fb3	0.012092519
2	0x3d06cd2c	0.03291051
3	0x3c958dfc	0.01825618
4	0x3b8f0be1	0.0043654297
5	0x3b04f919	0.0020290075
6	0x3b93f94a	0.0045158016
7	0xbb559275	-0.0032588516
8	0xbbc52081	-0.0060158377
9	0xbbe9e3a3	-0.007137732
10	0x3c35fc4e	0.011107517
11	0xbc16587c	-0.00917637
12	0x3bb9b246	0.005667004
13	0xbb16baeb	-0.0022999595
14	0xbc178e60	-0.009250253
15	0x3bbf93c0	0.0058464706
16	0x3b42c8a8	0.0029721651
17	0xbc0c8316	-0.008576175
18	0x3c847474	0.01616881
19	0x3add5894	0.001688736
20	0x3cc3fdb3	0.023924684
21	0x3c870715	0.01648287
22	0x3c00b0b9	0.007854634
23	0xbc8c5b0e	-0.017133262
24	0xbb846dde	-0.0040414175
25	0xb836d264	-4.3588123e-05
26	0x3b76b4fe	0.00376445
27	0xbcd193f3	-0.025583243
28	0x3c2cd19b	0.010548021
29	0x3c15f494	0.00915255
30	0x3942fb42	0.00018594883
31	0x3b7e7517	0.0038827115
32	0x3c6ffebf	0.014648139
33	0xbc8651d0	-0.016396433
34	0xbbbdb307	-0.005789164
35	0x3cac1263	0.021004861
36	0xbc6c1c40	-0.014411032
37	0x3c8774ee	0.016535249
38	0x3cbd3c2c	0.023099981
39	0x3c014506	0.007889992
40	0x3cd2758e	0.02569082
41	0xb898fe78	-7.295323e-05
42	0x3c2c694e	0.0105231535
43	0xbb4f9321	-0.003167339
44	0x3b28a9d6	0.0025735996
45	0xbb8188d2	-0.003953078
46	0x3adce501	0.0016852916
47	0x3cc22bfc	0.023702614
48	0x3ab82bb6	0.0014051113
49	0x3bd4be27	0.0064923945
50	0x3a8d8d11	0.0010799487
51	0x3ca7d2a7	0.020486189
52	0xbb851f6f	-0.004062585
53	0x3d205715	0.039145548
54	0xbbb6040c	-0.0055546816
55	0xbc04f116	-0.00811412
56	0x3c1a8c5e	0.00943288
57	0xbb032b15	-0.0020014693
58	0xbba2aaa6	-0.0049641905
59	0xbc390253	-0.011292058
60	0x3cb26e4d	0.021781111
61	0xbba8f70b	-0.005156403
62	0xbc910106	-0.017700683
63	0x3cff1831	0.031139465
64	0xbc7fc373	-0.015610564
65	0xbba70531	-0.0050970544
66	0x3ba6e18e	0.005092806
67	0x3c71838d	0.014740837
68	0xbbd61f6c	-0.0065345075
69	0x3c40fadb	0.011778559
70	0xbba8f18b	-0.0051557473
71	0xbc7417b9	-0.014898234
72	0x3b081cba	0.0020769075
73	0xbc052afb	-0.008127923
74	0x3c437c27	0.011931456
75	0x3c413abe	0.01179379
76	0xb9f76180	-0.00047184154
77	0x3c67f8b2	0.014158415
78	0x3ad28ee7	0.0016064317
79	0x3b3689c1	0.0027853104
80	0xbc14b6c9	-0.0090767825
81	0xbc8480ca	-0.016174693
82	0x3d10ac5b	0.03532062
83	0xbc5722ad	-0.013130826
84	0x3c48eaa0	0.01226297
85	0x3c245e90	0.010032311
86	0x3ce74032	0.028228853
87	0x3c63c498	0.013901852
88	0x3a99a413	0.0011721872
89	0x3abe2460	0.001450669
90	0xbbf94acd	-0.007607794
91	0xbc20a35d	-0.009804574
92	0x3bda9e5c	0.00667171
93	0xbcaf81a8	-0.02142413
94	0x3c68a706	0.014199978
95	0x3c610228	0.013733424
96	0xbb4d1452	-0.003129263
97	0xbbc3e258	-0.00597791
98	0xbc403925	-0.011732374
99	0xbc1a7f32	-0.00942974
100	0x3bcb5148	0.006204758
101	0xbc07458d	-0.008256328
102	0x3a71a0c8	0.00092173787
103	0xbaec2483	-0.0018016252
104	0x3bc87bf4	0.006118292
105	0x397084ac	0.00022937608
106	0x3c9799e4	0.018505998
107	0xba9a3dbc	-0.0011767666
108	0xbbca2878	-0.006169375
109	0x3cddc6ce	0.027072337
110	0x3cef1886	0.029186498
111	0x39939578	0.00028149388
112	0xbb76a264	-0.0037633413
113	0xbac241af	-0.0014820601
114	0x3c0ce0a1	0.008598478
115	0x3d354b10	0.04426104
116	0xbb934542	-0.00449434
117	0xbc2501d8	-0.01007124
118	0xbc23130b	-0.009953271
119	0xbb3e2d3d	-0.0029018663
120	0x3c42b3b0	0.011883661
121	0xbc8c6b6f	-0.017141072
122	0x3d08c485	0.03339054
123	0x3c061fcd	0.008186293
124	0x3c0cd82c	0.008596461
125	0x3c3a3098	0.011364125
126	0x3c606ab5	0.013697316
127	0xbc6d6025	-0.014488255
128	0xbb08feb2	-0.0020903763
129	0x3a0be1e8	0.0005336092
130	0xbce2928c	-0.02765777
131	0xbc9605e7	-0.018313361
132	0x3bb1e1db	0.0054285354
133	0xbbbd1899	-0.0057707545
134	0xbaa247f4	-0.0012381063
135	0x3bac7795	0.0052632787
136	0xbaf9469e	-0.0019018238
137	0x39339978	0.00017127942
138	0x3bbbdce5	0.00573312
139	0xbb16d10b	-0.0023012783
140	0x3c822fa0	0.01589185
141	0xba449266	-0.00074986217
142	0x3b50d14e	0.0031863037
143	0xba08bfe7	-0.0005216584
144	0xb9eb02d2	-0.00044824794
145	0xbbde8a2f	-0.006791375
146	0xbcf46f41	-0.029838206
147	0xbbeeeac8	-0.0072911717
148	0xbce6da72	-0.028180335
149	0xbb0b3998	-0.0021244045
150	0xbc721c27	-0.01477722
151	0x3b93c836	0.004509951
152	0x3b4826ac	0.0030540628
153	0xbbd950a1	-0.006631926
154	0x3ab5c035	0.0013866486
155	0x3ae0bc23	0.0017145913
156	0x3c7a30aa	0.0152703915
157	0xbc41ce8d	-0.011829031
158	0xbc1ce7d4	-0.0095767565
159	0x3be75f61	0.0070609306
160	0x3c02dd32	0.007987307
161	0xbc7d462e	-0.015458627
162	0x3c739b6a	0.014868597
163	0xbd11f42e	-0.03563326
164	0xbb70a222	-0.0036717732
165	0xbc07956b	-0.00827537
166	0xbc8e3028	-0.017356947
167	0x3c32cd82	0.010913255
168	0xbd2792bf	-0.040911432
169	0xbc1a4e47	-0.009418077
170	0x3c3c146e	0.01147948
171	0xbc8ea2c5	-0.017411599
172	0x3c13b4cb	0.009015272
173	0x3bc71edc	0.006076677
174	0x3b50432c	0.0031778319
175	0xbc5106b7	-0.012757949
176	0xbc2ce25e	-0.010552017
177	0x3b1bc9b5	0.002377135
178	0x3a83b960	0.0010049753
179	0x3c431ff0	0.01190947
180	0xbb78dadd	-0.003797225
181	0xbcee52d1	-0.029092224
182	0xbbb2f04c	-0.0054607745
183	0x3c5cef5b	0.013484801
184	0x3b9569e8	0.004559744
185	0x3beb533d	0.0071815536
186	0xba12d692	-0.00056014315
187	0xbb810c6a	-0.0039382474
188	0xbd003d0b	-0.031308215
189	0x3bd3b679	0.0064609614
190	0xbc8123b3	-0.015764093
191	0xbd22e423	-0.03976835
192	0x3a8cbe4c	0.0010737865
193	0x3ce4fd8a	0.027952928
194	0xbc8b4548	-0.01700081
195	0x3ac86f89	0.0015292029
196	0xbbfa090a	-0.007630472
197	0xbc9a4e3c	-0.018836133
198	0xbb0f98e4	-0.0021911198
199	0xbc051d19	-0.008124613
200	0xba119b94	-0.0005554494
201	0x3c8b6425	0.017015526
202	0x3b0ce09f	0.002149619
203	0xbc861dec	-0.01637169
204	0xbb7ec416	-0.00388742
205	0xbcd57acf	-0.026059536
206	0x3b959e27	0.0045659724
207	0x3b1c21cb	0.0023823853
208	0x3be8ef99	0.0071086404
209	0x3a8ebda0	0.0010890253
210	0xbcf53d1a	-0.029936362
211	0xbc23fe19	-0.010009312
212	0xbc985644	-0.018595822
213	0xb956d346	-0.00020487336
214	0xbc72b603	-0.014813903
215	0x3be0d526	0.006861347
216	0x3b53ad68	0.0032299403
217	0xbbfe19b2	-0.007754528
218	0x3b33d736	0.0027441508
219	0xbb9a574f	-0.004710115
220	0xbb734a42	-0.0037123119
221	0x3b77aacb	0.003779101
222	0xbb6aa3d9	-0.0035803227
223	0xbb821804	-0.003970148
224	0x3b09e1c4	0.0021039108
225	0x39ce6305	0.00039365157
226	0x3c5ddfdf	0.013542145
227	0xbb3c37c4	-0.0028719762
228	0xbbcb203e	-0.006198912
229	0x3bc66bd3	0.006055334
230	0xbba10265	-0.0049136155
231	0xbb1d566a	-0.0024007806
232	0x3c672a25	0.014109169
233	0xbc823f6c	-0.015899383
234	0xb9f87ac9	-0.00047393728
235	0xbc005244	-0.007832114
236	0xbc522263	-0.012825581
237	0xbcb1e93a	-0.021717656
238	0xbcc326b6	-0.02382217
239	0xbbeafd2b	-0.0071712933
240	0xbb89d415	-0.0042061904
241	0xbb0e17ef	-0.0021681746
242	0x3b9274d4	0.0044694934
243	0xbd05800b	-0.032592814
244	0xbc328025	-0.01089481
245	0xbc20cf3a	-0.009815032
246	0x3a96ea3b	0.0011513898
247	0x3b6b0f8c	0.003586742
248	0xbb9b33ce	-0.0047364
249	0xbb3646e1	-0.0027813243
250	0xbd0d148b	-0.03444342
251	0xbc61f061	-0.013790221
252	0xbb84b7ba	-0.004050222
253	0x3bf0b341	0.0073455875
254	0xbbe6423a	-0.007026938
255	0x34e0db80	4.188296e-07

action_model._discrete_distribution.branches.1.bias f4 [2]
0	0xbbd8dd41	-0.0066181724
1	0x3bd8dd42	0.006618173

action_model._discrete_distribution.branches.2.weight f4 [3, 128]
0	0xb985242f	-0.00025394696
1	0xbc8e3e44	-0.017363675
2	0x3c39508d	0.011310709
3	0x3c0b46d7	0.008500776
4	0x3bbc22ba	0.0057414444
5	0x3b509b28	0.0031830762
6	0x3b4f73a8	0.003165463
7	0x3b9073b1	0.0044083227
8	0xb9929abc	-0.00027962576
9	0x3c5c44a2	0.013444098
10	0x3b82a586	0.003987017
11	0xbb73090a	-0.0037084245
12	0xbbf18d6b	-0.0073715947
13	0x3b74d7cf	0.0037360077
14	0x3b86934d	0.004106915
15	0x3bbed1ab	0.005823334
16	0xbbdfba23	-0.006827609
17	0x3c19e4ae	0.0093929
18	0xbc01b11a	-0.007915759
19	0xbc728a21	-0.01480344
20	0x3b9c0842	0.0047617266
21	0x3b144b6f	0.002262797
22	0xbb00f2d8	-0.0019675996
23	0xba395498	-0.00070697954
24	0xbc26f281	-0.010189653
25	0xba655614	-0.00087484834
26	0x3ab92a7e	0.0014127044
27	0xbc0591d4	-0.008152444
28	0x39feaead	0.000485768
29	0x3aadae12	0.001325073
30	0xbb9b432b	-0.0047382317
31	0xbb8df275	-0.0043318816
32	0xbb3d19f6	-0.0028854585
33	0xbc8a2c57	-0.016866846
34	0xbb9f2678	-0.0048568808
35	0x3c2e0bb9	0.010622912
36	0xbbd7b8d1	-0.006583311
37	0xbb86777c	-0.004103599
38	0x3b51f5e6	0.0032037436
39	0xbac01520	-0.0014654733
40	0xb9b816be	-0.0003511216
41	0xbb848a3c	-0.004044799
42	0xbc0bcdd1	-0.008532957
43	0x3ba17b27	0.004928011
44	0x3c02a247	0.00797326
45	0xbc4239f6	-0.011854639
46	0x3c07ef10	0.008296743
47	0x3c858b29	0.016301708
48	0x3be6b3ec	0.0070404913
49	0x3ba1956f	0.004931144
50	0xbacc8fee	-0.0015606859
51	0x3b1e9198	0.0024195667
52	0x3badf1ea	0.0053083794
53	0x3bda69e4	0.006665455
54	0xbb602166	-0.0034199595
55	0xbaa8b713	-0.0012871943
56	0xbbc1bf18	-0.0059126727
57	0x3c71942b	0.014744799
58	0xbad9aa7d	-0.0016606596
59	0xbb6ec392	-0.0036432487
60	0x39831d52	0.00025008112
61	0xbbcdb3e0	-0.0062775463
62	0xba35a34e	-0.00069289363
63	0x3c4b0340	0.012390912
64	0x3cb0c08f	0.021576194
65	0xbc756ef9	-0.014980071
66	0xbb4b09ba	-0.003098114
67	0xbbb219ff	-0.005435228
68	0x3bb860ea	0.0056267874
69	0x3bbef876	0.0058279587
70	0x3b1641de	0.0022927443
71	0xba339c8e	-0.00068516366
72	0x3a972292	0.0011530688
73	0xbc01a095	-0.007911821
74	0xbad91b80	-0.0016563982
75	0xbbba9d3b	-0.005695013
76	0x3c5cfc2f	0.01348786
77	0x3a83259a	0.0010005713
78	0x3bf511d4	0.007478932
79	0xbc24b6e9	-0.010053375
80	0x3bf3e970	0.0074435994
81	0x3abf45a6	0.00145929
82	0x3ca65a90	0.020306855
83	0xbb2337da	-0.0024905116
84	0x3b763bd4	0.0037572281
85	0xbb82f79a	-0.0039968016
86	0x3c0966b6	0.008386305
87	0xbb1be887	-0.002378972
88	0xbbc0e948	-0.0058871843
89	0xb9ac36f2	-0.00032847334
90	0xbc140868	-0.009035207
91	0xbb0277e3	-0.0019907884
92	0xbad06e39	-0.001590199
93	0x3c6a1b86	0.014288789
94	0x3bed4195	0.007240484
95	0x3bf8d3d6	0.007593612
96	0xbc851799	-0.016246604
97	0xbaa24794	-0.0012380951
98	0x3c95864b	0.018252512
99	0xbbd2f1b7	-0.006437506
100	0x3c408120	0.011749536
101	0xbc2d75ae	-0.010587139
102	0x3cce415b	0.025177648
103	0xbbbe1103	-0.005800368
104	0x3c137914	0.009001035
105	0xbcab3e45	-0.020903716
106	0xba479a32	-0.00076142245
107	0xbc56fd0d	-0.013121855
108	0xbc11204a	-0.008857796
109	0xbb0f1eed	-0.0021838502
110	0x3c280351	0.010254697
111	0xbc9088b1	-0.017643305
112	0x3b1ea9ae	0.0024210024
113	0x3b2fa01f	0.002679832
114	0xbad76039	-0.0016431875
115	0xba461468	-0.00075561414
116	0xbb3197c1	-0.002709851
117	0x3b6c495a	0.0036054463
118	0xb9fcb4e5	-0.00048199962
119	0x3c2c94a6	0.010533487
120	0x3b67ee2e	0.003538977
121	0x3c653cff	0.013991593
122	0x3bf44c8c	0.007455414
123	0xbb90697b	-0.0044071055
124	0x3c0aecc8	0.008479305
125	0xbc85cd2c	-0.016333185
126	0x3c26f7fe	0.010190962
127	0xbbd7d9f3	-0.006587261
128	0x3c6421d4	0.013924081
129	0x3b8a4004	0.004219057
130	0xbb106a1f	-0.002203591
131	0xbbb67ce0	-0.0055690855
132	0xbc639199	-0.013889694
133	0xbc20cabc	-0.009813961
134	0xbbeb7e58	-0.007186692
135	0x3cb191bf	0.021675942
136	0xbc13427a	-0.008988017
137	0xba366841	-0.0006958284
138	0xbb9d2c6c	-0.0047965553
139	0xbb6e922b	-0.003640304
140	0xbcaddf3a	-0.021224607
141	0xbb37fdb1	-0.0028074796
142	0x3b0b8847	0.0021290944
143	0x3c3a3110	0.0113642365
144	0xbb0aa76d	-0.0021156922
145	0xbbd054b5	-0.006357754
146	0xbcc85ca1	-0.024458231
147	0x3c271121	0.010196955
148	0xbc919ec3	-0.017775899
149	0xbc13cf96	-0.00902166
150	0x3a8f5398	0.0010934947
151	0xbbcad27a	-0.0061896415
152	0xbc97ae46	-0.018515717
153	0x38665b70	5.492143e-05
154	0xbbd89a51	-0.006610193
155	0xba49d7b5	-0.00076996844
156	0xbb8ba93a	-0.0042621167
157	0xbb3d48b9	-0.0028882457
158	0xbc220c7a	-0.00989067
159	0x3bdd2dc5	0.006749841
160	0x3bfaeef7	0.0076578814
161	0xbbd105f2	-0.0063788826
162	0xbaa94a31	-0.0012915788
163	0xbbcc5b45	-0.006236466
164	0x3ca0577b	0.019572964
165	0xbc1d948b	-0.009617935
166	0x3a3d4b31	0.0007220982
167	0x39ee1b1a	0.0004541509
168	0xbbfffe48	-0.007812295
169	0xbc5a1923	-0.013311657
170	0xbc1a695a	-0.009424532
171	0x3c168961	0.009188027
172	0x3c06ab99	0.008219623
173	0xbbdbebdd	-0.0067114667
174	0xbc120453	-0.008912164
175	0x3a2bc1cf	0.0006552012
176	0x3c474126	0.012161529
177	0x3c24841e	0.010041265
178	0xbb2ff450	-0.0026848502
179	0xbc1f4adb	-0.009722437
180	0x3c069f4f	0.008216693
181	0xbc2df4b6	-0.010617426
182	0x3b33d6b1	0.0027441198
183	0xbb343da0	-0.0027502552
184	0x3bfa3381	0.0076355343
185	0x3c7c01fe	0.015381334
186	0xba8387ee	-0.0010035017
187	0x3b7626f5	0.0037559841
188	0xbb1171d5	-0.0022193093
189	0x3c1211c2	0.008915367
190	0x3c29a361	0.010353894
191	0x3bafe7c2	0.005368204
192	0x3c1b453e	0.009476958
193	0x3c2cbfab	0.010543744
194	0xbc854d6f	-0.016272275
195	0xbc9ca8dd	-0.019123489
196	0x3855754a	5.089239e-05
197	0xba8a8ff3	-0.0010571465
198	0xbc92cdab	-0.017920336
199	0xbb3e46b4	-0.0029033842
200	0xbbc627ca	-0.0060472237
201	0xbc712068	-0.014717199
202	0x3ca00efb	0.019538393
203	0x3bd8cf99	0.0066165444
204	0xbbf74b56	-0.0075468225
205	0x3abf5c1d	0.0014599595
206	0x3b87cd3b	0.0041443384
207	0xbb7dff0c	-0.0038756756
208	0x3ab2d0c8	0.0013642544
209	0xbbf68638	-0.0075233243
210	0xbb7dc648	-0.003872292
211	0xbb0fdc09	-0.002195122
212	0xba35f246	-0.00069407036
213	0x3a3f7f18	0.000730501
214	0xbb10d4eb	-0.0022099565
215	0x3bcfbceb	0.0063396594
216	0x3be84e24	0.007089393
217	0x3bc88ab7	0.0061200517
218	0xbb383286	-0.0028106286
219	0xbb82d48b	-0.0039926223
220	0xbc9cd694	-0.019145288
221	0x3b103cb8	0.0022008847
222	0x3b485339	0.0030567183
223	0xbc7ddfb1	-0.015495227
224	0xbbca185e	-0.0061674556
225	0x3c2acbc9	0.010424563
226	0x3a563636	0.000817153
227	0xbb346cf3	-0.002753076
228	0xbc725fc8	-0.014793344
229	0xba0f6e4a	-0.00054714514
230	0xba4b6daf	-0.00077601796
231	0x37e67560	2.7472794e-05
232	0xbc247f65	-0.010040139
233	0xbc43f6e0	-0.011960715
234	0x3c3df4df	0.011594026
235	0x3c394a57	0.011309228
236	0xbb86788c	-0.004103726
237	0xbc87d2b0	-0.016579956
238	0xbbea7582	-0.0071551213
239	0x3b2a5e34	0.002599609
240	0x3b91877b	0.0044411994
241	0xbb6e438e	-0.0036356184
242	0xbb455e8f	-0.0030116176
243	0x3add7253	0.0016895033
244	0xbbbba9d3	-0.0057270317
245	0xba75c153	-0.0009374816
246	0xbbe622e7	-0.0070232037
247	0x3c16a908	0.009195574
248	0x3c8e002f	0.017334072
249	0xba0551b2	-0.0005085721
250	0xbcbd45b1	-0.02310452
251	0x3c14ee23	0.009089979
252	0xbc9d5fe6	-0.019210767
253	0x3a4008d8	0.00073255366
254	0x3b0f6226	0.002187857
255	0x3ac889b5	0.0015299829

action_model._discrete_distribution.branches.2.bias f4 [3]
0	0xbb1d5d8f	-0.0024012064
1	0x3b4b71ec	0.0031043245
2	0xba7ebdba	-0.00097176025

action_model._discrete_distribution.branches.3.weight f4 [3, 128]
0	0xbb885b03	-0.00416124
1	0x3b9218d6	0.004458527
2	0x3b0128ca	0.001970815
3	0xbb8186e1	-0.0039528464
4	0xbb4697f2	-0.0030302969
5	0x3b23f9ff	0.0025020835
6	0x3c8928bb	0.016743055
7	0xbbe42a00	-0.0069630146
8	0x3bf80d47	0.007569942
9	0xbb9ab2ba	-0.004721013
10	0xbb071c1b	-0.0020616117
11	0xbb9f537c	-0.004862247
12	0x3b181151	0.002320368
13	0xbb089af3	-0.002084431
14	0xbb3200dc	-0.0027161157
15	0x3c884d5b	0.016638448
16	0xbb9b92ca	-0.004747723
17	0xbb687699	-0.003547108
18	0x3b8f93ef	0.0043816487
19	0x3b13cfc8	0.0022554267
20	0x3bfc9c5e	0.00770907
21	0x3b99833e	0.0046848347
22	0xbc6161cc	-0.013756227
23	0xbc8724ea	-0.016497094
24	0x3b8e9c58	0.0043521337
25	0x3c0d3117	0.008617661
26	0xbc44cd52	-0.012011843
27	0x3b853ac6	0.004065844
28	0x3bccb720	0.006247416
29	0xbc2a3d6b	-0.01039062
30	0xbc252f2b	-0.0100820465
31	0x3c589d3b	0.01322108
32	0x3b4891ee	0.003060456
33	0xbbb160c5	-0.005413147
34	0xba3f988c	-0.0007308803
35	0x3b2f7144	0.0026770392
36	0x3be09aa0	0.0068543702
37	0x3c6d27a4	0.014474783
38	0x3bb779d2	0.005599239
39	0x3b6b0b4f	0.0035864895
40	0xbc0465e1	-0.00808093
41	0xbbb74a88	-0.0055936016
42	0x3abf4a8b	0.0014594359
43	0xba544969	-0.0008098097
44	0xbb69ad43	-0.003565625
45	0x3b4d001a	0.0031280578
46	0x3a64fe0e	0.0008735367
47	0x3c7658b8	0.015035801
48	0xbbb3e0ee	-0.00548946
49	0x3b9bb471	0.004751735
50	0xbc8a8730	-0.016910166
51	0xbc0ee6aa	-0.008721987
52	0xbc2ae601	-0.010430814
53	0x3b1cdd8b	0.002393576
54	0xb69d3d32	-4.6860887e-06
55	0x3c102814	0.008798618
56	0x3a533bb6	0.0008057909
57	0xbb7beac8	-0.00384395
58	0xbaa493f0	-0.0012556296
59	0x3b5c6e77	0.0033635178
60	0x3720ca13	9.583792e-06
61	0xbbab27a3	-0.005223231
62	0xbb94a9d4	-0.0045368467
63	0x3b820dad	0.0039689154
64	0x3c3d01cf	0.011536076
65	0x3a0d984a	0.0005401416
66	0xbb6f223d	-0.0036488913
67	0x38790ee8	5.938011e-05
68	0xbbca53ea	-0.006174554
69	0x3c925ee6	0.017867517
70	0xbc4142cf	-0.011795714
71	0x3c70a39c	0.014687445
72	0xbb9735dd	-0.0046145753
73	0xba9fe171	-0.0012197924
74	0xbba740a7	-0.0051041427
75	0xbc575b0f	-0.013144269
76	0xbbee91de	-0.0072805723
77	0x3bbe128a	0.00580055
78	0xba4b9dfc	-0.0007767377
79	0x3c1a6518	0.009423517
80	0x3b02bfe9	0.0019950813
81	0xba748b78	-0.0009328644
82	0xbc15f92b	-0.009153645
83	0xbb0fc2ba	-0.0021936134
84	0x3ca150ab	0.019691786
85	0xbc559ffd	-0.013038632
86	0xbb5aab15	-0.0033366133
87	0xbc8d00e2	-0.017212335
88	0xbb156002	-0.002279282
89	0x3c9a913f	0.018868087
90	0xbc1df51e	-0.00964096
91	0xbbd7683f	-0.0065737064
92	0xbb173b9d	-0.0023076304
93	0x3b558315	0.0032579352
94	0x39bbc5f7	0.00035814915
95	0xbbbaf4ce	-0.0057054525
96	0x3c1018a3	0.008794936
97	0x3ca1d3ee	0.019754376
98	0xbb4b0fbc	-0.003098472
99	0x3bc53b98	0.006019067
100	0x3c0681c4	0.0082096495
101	0x3af40a7f	0.0018618851
102	0x3c36931a	0.01114347
103	0xbb92e9ef	-0.0044834535
104	0x3c04d1bc	0.008106645
105	0x3b88f822	0.0041799704
106	0xb9cb678f	-0.00038796334
107	0x3c0aa553	0.008462268
108	0xbbcff557	-0.0063463855
109	0x3c85ca9b	0.016331961
110	0x3b8cac9f	0.004293039
111	0xba52cd13	-0.00080414227
112	0xbbc4a2ba	-0.006000844
113	0xbc50276c	-0.012704711
114	0x3c321b2e	0.010870738
115	0x38eaa999	0.000111895795
116	0x398c5da5	0.00026772651
117	0xbc32336a	-0.010876516
118	0xbadaeda9	-0.0016702908
119	0x3b976345	0.004619988
120	0x3c64275a	0.013925398
121	0x3af335ab	0.0018555423
122	0x3c6f050a	0.014588604
123	0x3c651c9c	0.013983872
124	0xbba5ecff	-0.0050636525
125	0xbb9d724b	-0.0048048845
126	0x3ad9d2ad	0.0016618572
127	0x3b55e237	0.0032636055
128	0x3b433ad4	0.0029789703
129	0xbb1ba868	-0.00237515
130	0x3b89c363	0.0042042
131	0x3b8a32c7	0.004217479
132	0x3b672928	0.0035272334
133	0xbbd39b5e	-0.00645773
134	0xbc4a5def	-0.012351497
135	0x3ac218b8	0.0014808392
136	0x3a0c51c2	0.0005352759
137	0x3baf3894	0.005347321
138	0xbbc4aa62	-0.0060017565
139	0xbb941c27	-0.0045199576
140	0x3c27c5c3	0.010240021
141	0x3c6938f2	0.014234768
142	0x3ba825e1	0.0051314686
143	0x3bc5c401	0.0060353284
144	0x3c2eb14e	0.01066239
145	0x3c261103	0.010135892
146	0x3c5bb4f2	0.01340984
147	0xbcb442f6	-0.022004586
148	0x3c106092	0.008812087
149	0x3c1eb67d	0.009687063
150	0x3c15459b	0.0091108335
151	0xbc6ece26	-0.014575517
152	0x3c4eb939	0.012617403
153	0x3afacae6	0.0019133955
154	0xb994132f	-0.00028243053
155	0xbb854bc4	-0.00406787
156	0x38d1f943	0.00010012325
157	0x3ba4a0bf	0.0050240452
158	0xbc3d63fc	-0.011559483
159	0xbba8d3d0	-0.005152203
160	0x3b2d5044	0.0026445547
161	0xbc85b5c6	-0.016322028
162	0xbb250a3a	-0.0025183097
163	0xbbaa2c6b	-0.0051932833
164	0xbb8b00e9	-0.004242052
165	0x3a8b6151	0.0010633861
166	0x3c63d505	0.013905768
167	0x3ba5f7bc	0.0050649326
168	0xbc805f16	-0.01567034
169	0x3b10389b	0.0022006396
170	0x3b224aa3	0.0024763725
171	0xb9a0c1f6	-0.0003066209
172	0xbb78dd57	-0.0037973726
173	0xbbfd0c2e	-0.007722399
174	0xbb96edde	-0.0046059927
175	0x3c92898a	0.01788785
176	0xba9091a9	-0.0011029738
177	0xbbb2ab4d	-0.0054525496
178	0xbbe906ea	-0.00711142
179	0xbaf01a32	-0.0018318354
180	0x3b5eb037	0.0033979544
181	0x3c7bc7ff	0.015367507
182	0x3c8f79bf	0.017514108
183	0x3b1e589d	0.0024161704
184	0x3a8e633f	0.0010863318
185	0x3c606928	0.013696946
186	0x3c02d320	0.007984906
187	0xb9240a8e	-0.0001564419
188	0x3c4761fa	0.0121693555
189	0xbb98dfc7	-0.004665348
190	0xbc40aae8	-0.011759497
191	0x3c5314e1	0.012883396
192	0x3c718fbc	0.014743742
193	0xbc2b2019	-0.010444664
194	0xbb8d3387	-0.004309121
195	0x3c1846e1	0.009294243
196	0x3c010e38	0.007876925
197	0xbc0b0cef	-0.00848697
198	0xbb39a546	-0.002832727
199	0x3c3de52a	0.0115902815
200	0x3ca3e934	0.02000866
201	0xbbd17a41	-0.0063927476
202	0x3b1a845d	0.002357743
203	0xbbfb79ba	-0.007674423
204	0x3c2882ff	0.010285138
205	0xbc09cfba	-0.008411342
206	0xbbe0e960	-0.006863758
207	0xbb85d8e8	-0.004084695
208	0x3c893e6f	0.016753403
209	0x3bf77092	0.007551261
210	0x3b246071	0.0025081898
211	0xb9d5c010	-0.00040769624
212	0x3c2326ca	0.0099579785
213	0xbbbf0ad5	-0.0058301487
214	0x3c65a624	0.014016662
215	0x3c3f8e5a	0.011691654
216	0x3bfe4892	0.007760116
217	0xbb07b6ff	-0.002070844
218	0x3bd1006b	0.0063782237
219	0xbc592434	-0.01325326
220	0x3c3aac23	0.01139358
221	0xbc721210	-0.014774814
222	0x3a97cfdc	0.0011582333
223	0x3ca05d80	0.019575834
224	0xbb3f2d83	-0.0029171414
225	0x3bf0fc6c	0.00735431
226	0x3ba33326	0.0049804626
227	0xbb7ec992	-0.003887747
228	0x3c5912c0	0.013249099
229	0x3c04a778	0.008096568
230	0xbc25a618	-0.010110401
231	0xbb860792	-0.004090258
232	0xbc938a77	-0.018010361
233	0x3c25ef29	0.010127821
234	0xbad6d08c	-0.0016389056
235	0x3b9a4c21	0.0047087823
236	0x3bbac5f9	0.0056998697
237	0x3c79837d	0.015229103
238	0xbb034fac	-0.0020036502
239	0x3c00a237	0.007851175
240	0xbb8f4f70	-0.0043734834
241	0x3b6e6caa	0.0036380687
242	0x3beb6b0c	0.007184392
243	0x3c63e2fc	0.013909098
244	0xbb2c4004	-0.0026283273
245	0xbb87b671	-0.0041416218
246	0xbb3200b2	-0.002716106
247	0xbb3f6111	-0.0029202143
248	0x3b89cf13	0.0042055934
249	0xbbb6b331	-0.0055755605
250	0xbbbf9aec	-0.0058473255
251	0xbd0a4695	-0.03375872
252	0xbae85441	-0.0017725305
253	0x3bae4c0f	0.0053191255
254	0x3c59e9d8	0.013300382
255	0xbb6bf1c0	-0.0036002249

action_model._discrete_distribution.branches.3.bias f4 [3]
0	0xbaa33e58	-0.0012454493
1	0xbb612dd8	-0.00343596
2	0x3b814799	0.0039453027
