results/1/Player/Player-1694786.onnx (onnx, 155619 bytes, 17 tensors)

discrete_act_size_vector f4 [1, 5]
00000000: 0000 0040 0000 0040 0000 4040 0000 4040
00000010: 0000 4040
2.0 2.0 3.0 3.0 3.0

network_body._body_endoder.seq_layers.0.weight f4 [128, 1]
00000000: 0b11 813b fab6 2fbe 1b6c c73f 94ec e23f
00000010: 9135 f83f 097d 083e ede0 4b3f ff1d 85bb
00000020: 4b8a ce3e 7384 d83e e33a f13b 9ccf 793f
00000030: f67c 22be 1e96 2b3e 5f5c 483f e913 90bf
00000040: 5566 203d 299d 9d3d 9bc4 bf3e 220f 7c3f
00000050: 92d7 9b3f 3e11 c63b 8f94 fbbf 69da d53a
00000060: 55d6 fb3e 6311 41bf 2503 71be 2d8f efbe
00000070: b4f1 2b3f cefd 02bf ddf7 94be 8d11 e23e
00000080: 3fc3 30bf 1293 92bf 8cf6 1b40 3b08 48bf
00000090: a369 443f 79ba a73d 51fb 0e3e 7d0c 4b3f
000000a0: 6a71 25bd f19d 92bd 418b 1b3c 7c40 523b
000000b0: bc70 a13d f207 ccbe 671f a4bf 5b1a ba3f
000000c0: da3e 56bf bdd0 d83e 1ad0 763f f954 61bf
000000d0: 739f 65be 1c32 c13b ee1c 05be 8466 84be
000000e0: b24a 4b3b b9bb 203d 1803 32bf 50e2 333b
000000f0: 3de8 dfbc e8f4 87bf 28b6 be37 8929 743d
00000100: e2d5 043d 844a a93f 9f68 023e 2c5c b13d
00000110: 71fd 923f 1c2d b73f 522e 8bbf 9a8d b1bf
00000120: d6b1 c3bd 1f9e a8bc 290c 3e3c 3b0a 823d
00000130: e02d 23bc 6fe1 0b3e 4421 38bf 7202 f63e
00000140: 7f55 573f 4aaf 233f 49f3 64bd 3814 1abf
00000150: 9f6c 1dbf f64d 853e d5c4 163d 79cc e63e
00000160: 7352 513e d5ec 603e 8665 003f 91fd aa3f
00000170: 47e7 b33f 9c72 01c0 12d2 b5be 3bfe 023e
00000180: f83f 14bf b669 80be 831b 8bbb 5553 783e
00000190: 09fb 2d3b f9e1 c43e 63aa dfbe 43db 9abf
000001a0: b1ee cc3e eb06 3b40 6c72 4f3f cae6 92bf
000001b0: 74dd 6f3d 6589 b53f ff8f 1dbe 36e8 623d
000001c0: 562d 923d bed5 41bc c40d acbf 4d61 433e
000001d0: b3f8 02bc 087e a13f cad7 05c0 5b28 af3e
000001e0: 632d b0bf 2657 f9bf db57 b43f a91d 0e3f
000001f0: 5454 dcbc a964 30bb 4223 95be 2c19 a13d
0.0039387993 -0.17159644 1.5579866 1.7728448 1.9391347 0.13328947 0.79640085 -0.0040624137
0.40339884 0.4228855 0.007361756 0.9758241 -0.15867981 0.16756484 0.7826595 -1.1256076
0.03916009 0.076959915 0.37454686 0.9846059 1.2175162 0.006044536 -1.9654711 0.0016315702
0.4918696 -0.75417155 -0.23536356 -0.46788922 0.67165685 -0.51168525 -0.29095355 0.44154015
-0.6904792 -1.1451132 2.436923 -0.7813756 0.7672369 0.08189864 0.13963057 0.7931593
-0.040391363 -0.07159031 0.00949365 0.0032081893 0.078828305 -0.39849812 -1.2822083 1.4539293
-0.83689654 0.42346755 0.9641129 -0.88020283 -0.22424106 0.005895866 -0.12999317 -0.25859463
0.0031019864 0.039241526 -0.6953597 0.0027448125 -0.02733242 -1.0621614 2.2734588e-05 0.059609924
0.032430537 1.3225865 0.12735222 0.086601585 1.1483594 1.4310641 -1.0873511 -1.3871338
-0.09555404 -0.02058321 0.011599579 0.063496076 -0.009959668 0.13660215 -0.7192576 0.4804874
0.8411483 0.63939345 -0.055896077 -0.601871 -0.6149387 0.26036042 0.036808807 0.45077875
0.20441608 0.21965344 0.5015491 1.3358632 1.4054955 -2.0226202 -0.35511833 0.12792294
-0.5791011 -0.2508065 -0.004245223 0.24250539 0.0026547334 0.38453653 -0.43684682 -1.2098163
0.40025857 2.9222972 0.8103397 -1.1476681 0.058560804 1.4182554 -0.15386961 0.055397235
0.071375534 -0.011830745 -1.3441701 0.19080086 -0.007993865 1.2616587 -2.0912957 0.34210476
-1.3763851 -1.947972 1.4089311 0.5551401 -0.02689568 -0.0026915467 -0.29128462 0.07866129

network_body._body_endoder.seq_layers.0.bias f4 [128]
00000000: 372f 2fbc 3aac 053d 16e8 06bd dd2e cd3b
00000010: cd2e 79bd 4836 963d 7616 16be 4bec 83bb
00000020: aa7a ae3b 83bc a73d ef49 b6bb d515 1dbd
00000030: fc01 95bd 45f6 2fbd 8d9a cdbc fcaa c3bd
00000040: 78a6 043d e81a d7bc 652a 0e3e 5ce9 9bbd
00000050: 916d dbbc 6017 7b3b 2b6e 14be 7a07 343b
00000060: 32a3 5cbd 9ae0 abbd ecde b6bd 8a7d 57be
00000070: 2d2e 8bbd 0501 02bd f025 58bd 7a9e b73d
00000080: f8c9 adbd c4d7 d1bd 0432 0fbe c6f9 34bd
00000090: 06e8 803b fbfd 8d3d c3c1 c03d 567f e1bc
000000a0: be76 29bd 0fc7 66bd e3d1 0c3e 5847 0bbb
000000b0: 47ca 653e 75e7 84bd 8197 5fbe a227 ffbd
000000c0: 6314 34be ea01 b9bc e257 edbb a58b 8ebd
000000d0: 8e48 91bc 62bb 28be 2224 0fbe 23fe 55bc
000000e0: 9a4e e7bc 839e e33c 08b2 a0bc 6a56 60bb
000000f0: 10d3 1c3d ca15 a3bc 00cd 9b35 eea8 893d
00000100: a3e7 473e 6cf9 ba3d 5ef9 073e 121a c63d
00000110: 8742 15bc d349 06bd 68b7 fbbd 7a14 9dbc
00000120: aba6 43bd f92a 83bd 808b e936 6b82 533d
00000130: ba17 69b9 b818 f53d 4a23 8fbc 4b36 213c
00000140: dd2a 083d 87d2 0b3d 6c1c c6bd d1a2 dabd
00000150: 1196 2cbe e7c6 5d3d ebae 283d c5db 7cbc
00000160: c1d0 193e 16b2 d8bd f960 bebd 899a 06be
00000170: c18f 1abe ff56 0ebe 85a9 ddbd e047 0c3e
00000180: 9f07 87bc 8662 07be abb5 b339 26ba bcbc
00000190: 17f1 d43b 515c 673d 6359 02bd 1b40 12be
000001a0: 42e1 d7bc 2249 ddbd 0ef4 0b3d fefc 1abe
000001b0: d5b1 fe3d cc0d 0fbe 757a 003e f2e3 983c
000001c0: a535 693d 8f77 6cbc e3a4 e1bd 0282 ae3d
000001d0: 76d0 203d e421 31be 28b0 54be 7e15 4f3d
000001e0: fc61 75be 8e5f e5bd 2ed3 0ebe 34b1 2ebd
000001f0: b6d8 14bd 9216 323e 59f0 a23d b084 393e
-0.010692409 0.03263495 -0.03293618 0.00626169 -0.06083565 0.07334572 -0.14657006 -0.004025971
0.0053246813 0.08190253 -0.005563013 -0.0383509 -0.07275769 -0.04295947 -0.02509811 -0.09554097
0.03238532 -0.026257947 0.1388336 -0.07612869 -0.026785644 0.0038313493 -0.1449515 0.0027470277
-0.053866573 -0.08392449 -0.08929238 -0.21043983 -0.06795917 -0.031739254 -0.052770555 0.08965774
-0.08485788 -0.10246232 -0.13983923 -0.044183515 0.0039339093 0.069332086 0.09411957 -0.027526539
-0.041373007 -0.05634218 0.1375194 -0.002125224 0.22440444 -0.064894594 -0.21835138 -0.12458731
-0.17585902 -0.02258392 -0.0072431425 -0.06960229 -0.017734792 -0.16477731 -0.13978627 -0.013061079
-0.028235722 0.027785545 -0.019616142 -0.0034231194 0.038287222 -0.01990785 1.1608063e-06 0.06721674
0.19521956 0.09129605 0.1327872 0.09672941 -0.0091101 -0.032785248 -0.12290841 -0.019174803
-0.04776637 -0.06404681 6.960181e-06 0.05163805 -0.0002222945 0.11967605 -0.017472882 0.009839605
0.033244003 0.03413632 -0.0967339 -0.10675586 -0.16854121 0.054144766 0.04118244 -0.0154332565
0.1502104 -0.10580842 -0.0929584 -0.13144888 -0.150939 -0.13900374 -0.10823349 0.13699293
-0.016483126 -0.13221177 0.00034276894 -0.023037981 0.0064984667 0.056484524 -0.031823527 -0.14282267
-0.026352528 -0.108049646 0.034168296 -0.15135571 0.124362625 -0.13970107 0.12546714 0.01866338
0.056935925 -0.014432802 -0.11017778 0.08520891 0.039261304 -0.17298084 -0.20770323 0.050557606
-0.2396316 -0.11199866 -0.13947746 -0.042649463 -0.036339484 0.17391422 0.07955999 0.18117023

network_body._body_endoder.seq_layers.2.weight f4 [128, 128]
00000000: 16c7 4fbc 740b 3e3e 7d75 c6bd 788e afbc
00000010: 2e31 813d 4fdc c23b a015 d9ba fcce 093c
00000020: b2b3 22be cf99 bb3d c87e 463d 8101 9d3c
00000030: 78b8 b53d 18f1 053e 70e9 dfbd 9230 d139
00000040: b9f5 2e3c 15d2 7fbc 6ab5 44bc f864 62bd
00000050: 82f5 40bd 1680 09bd 1724 d83d 84b5 63bd
00000060: 0ac4 a7bb 1a30 8dbd f576 86bd 0312 00be
00000070: 5daa 3d3d 17c8 05bd 9a4c 1c3d 8705 dbbd
00000080: 9197 2bbe a774 4abd 515e 2dbe c227 66bc
00000090: 9744 e33d f8ff 2a3d dc70 a6bd cce9 8e3c
000000a0: 6ea1 1e3e 5a65 db3c ea5b 17be 79ce b03d
000000b0: b0e5 c2bd 802d f8bd 9322 9e3c 669c 54bd
000000c0: 5f52 08bd 9391 d5bd 2258 df3d 68f0 94bd
000000d0: d00b 0e3d 4d07 ec3b 0ff0 96bc 681a cdbd
000000e0: f2aa e83a 3299 82bd 1b45 04bd 7513 a83c
000000f0: 4ea2 173d fd51 7ebd eab4 ac3c 68d3 96bd
00000100: 6957 b3bd 7022 5ebd 8df8 b1bd 55bf a1bd
00000110: 65b4 723d cfb5 1d3d 8e80 abbc 70dd adbd
00000120: 6537 e93d 23c4 963d a27e 8abc 1e0a 33bd
00000130: a637 febd 8e54 593d 44ac 573c 22b7 eb3b
00000140: 8df6 bebc 2938 873d d1ed 363e 5ef3 debd
00000150: ac39 253d 9ff5 933d b2fe 5c3d 4c0a 2b3d
00000160: 8048 b33b 41fb 013e 8b71 d73d 6e5a 1e3d
00000170: 05b1 073e 670f 7e3d 099c cbbc df07 36bd
00000180: 5c6b cdbd 1843 f4bb 3b0c dfbc 43ad 8b3c
00000190: 1e43 203e 2df4 b3bd b80b ad3c 3265 97bd
000001a0: c25b 9e3d a7de 66bd 9a1c dfba e1c5 083d
000001b0: 93ad 943d c5e0 0abe 413a 3dbd b6f6 87bd
000001c0: 8409 9b3c 69a1 863b a387 3cbd fc3a 07be
000001d0: 5215 b23b 9b47 9ebd c3b2 263e 465e 9fbd
000001e0: 53c2 5abd 306d cb3d 8c44 69bc b3b0 03be
000001f0: 689c bcbc 01bb b23d 4f67 b0bd f277 2dbd
00000200: d0ab e3bc 4eb0 2ebc 160f 153e 8850 d6bd
00000210: a806 fdbc 17a0 ab3d 32ce 60bd ec75 063d
00000220: 80c9 92ba fc2f 653b 2c80 3b3d 3a62 01be
00000230: 2717 a9bd 5665 fe3d facd 2d3c ef81 0fbd
00000240: 883c e43d c498 3e3d 296b e83d 2768 d83c
00000250: 6be7 523d 4cf3 41be 81e9 fe3c 834c 2d3e
00000260: d649 5fbd fbb9 473d ded9 8abd 22da 11be
00000270: 9c50 413b f3b3 ce3c 0569 fe3d 8ab5 f6bc
00000280: b000 f7bd 9740 04bd 1b49 d4bd 3ff4 ebbc
00000290: cd37 10bc 1b5e 3b3e 5562 1b3e beb6 e2bc
000002a0: 925f 96bb 2f7a 223c f0ff 4dbe 6731 50bd
000002b0: 3ddc 6f3d 410d a6bd 6562 edba e539 18be
000002c0: c76e 33bd 0ff5 973c f83a f63c ba49 02bd
000002d0: b87b 7bbd 1898 a6bd 44ec fcbd b165 e7bc
000002e0: 6a03 4c3c afa3 083d 0e7c 06bd fd75 da3d
000002f0: 41d2 2cbd 5ac0 babd 3e59 b13c 481d cfbd
00000300: 3369 853d 43b4 6a3b 88ef a63d 1fec 4b3e
00000310: c636 48bc 25fe 033e b650 bebd c14e 97bd
00000320: d42b 30be 9c0f 09be acde 04bd d279 063e
00000330: 902a b7bd 9052 3c3e 4237 4dbd a1d8 37bc
00000340: bc37 a9bd 7089 3b3d 9906 91bd c64e b73c
00000350: 1167 76bd 94cc 08bd d16f 12be 531d c5bd
00000360: 5927 173e fd34 2dbd 18cc 9b3d 1cda b7bd
00000370: 37b2 d2bc 7466 3f3d e7d0 18bd cad3 b9bd
00000380: 6042 7c3d b965 003e 443e 153c 4f16 54bc
00000390: 12d0 d7bd c3a4 c0bd 6b34 00bd d059 013e
000003a0: c6ee de3c f74e 85bc 0c48 10be 3bf4 59bd
000003b0: a150 ea3d 52de a3bc 3a9c 40bd 7114 c73d
000003c0: bba6 353d d5ed 87bd 5d6c a8bd 6e5f e63d
000003d0: f830 7abc 244f de3d 5f04 023d 64da 913d
000003e0: e8a2 e0bd 280c fe3d 8379 333d b4ae 023d
000003f0: 4c5a 63bb 3274 66bd 17c6 96bd 05a6 39bd
-0.012681743 0.18559057 -0.09690378 -0.02143024 0.063082084 0.005946673 -0.0016562231 0.008411165
-0.15888861 0.09160196 0.04846075 0.019165756 0.08873075 0.13080251 -0.109331965 0.00039899774
0.010678702 -0.015614052 -0.012006143 -0.055272073 -0.047109134 -0.033569418 0.105537586 -0.05559303
-0.005119805 -0.0689394 -0.06565658 -0.12506871 0.04630505 -0.032661524 0.03815899 -0.10694414
-0.16757037 -0.049427655 -0.1693051 -0.014047565 0.11097067 0.041748017 -0.08126995 0.017445467
0.15491268 0.026781727 -0.14781156 0.086331315 -0.09516466 -0.121180534 0.019303596 -0.051906966
-0.03328168 -0.10428157 0.10905482 -0.07272416 0.034679234 0.0072030188 -0.018425016 -0.10014802
0.0017751141 -0.06376876 -0.032292467 0.02051709 0.03702002 -0.06208991 0.02108236 -0.07364541
-0.087569065 -0.05423206 -0.086899854 -0.07897822 0.05925407 0.038503464 -0.020935323 -0.084895015
0.11387519 0.07361629 -0.016906086 -0.04371082 -0.12412958 0.053059153 0.01316363 0.007193462
-0.023310924 0.066025086 0.17864157 -0.10886262 0.040338203 0.07224583 0.053953834 0.041757867
0.005471289 0.12693502 0.105197035 0.03866046 0.13251121 0.062026408 -0.024854677 -0.0444411
-0.10030243 -0.0074542873 -0.027227512 0.017050391 0.15650603 -0.08786807 0.021123752 -0.07392348
0.07732345 -0.05636468 -0.0017022074 0.033391837 0.07259669 -0.13562305 -0.046198133 -0.06638853
0.018925436 0.004108597 -0.04602779 -0.13206095 0.0054346705 -0.077285014 0.1627913 -0.07781653
-0.05340798 0.09932935 -0.014237534 -0.12860374 -0.023023799 0.087270744 -0.086134546 -0.042350717
-0.027791888 -0.0106621515 0.14556536 -0.10464579 -0.030886963 0.08380144 -0.054884143 0.032827303
-0.0011198968 0.0034971228 0.04577653 -0.12635127 -0.08256369 0.12421672 0.010608191 -0.035036024
0.11144358 0.046532407 0.11348564 0.026416851 0.05149023 -0.18940467 0.031117203 0.16923718
-0.054513775 0.04876135 -0.06779836 -0.14243367 0.002949751 0.02523229 0.12422375 -0.030115861
-0.12060678 -0.03228816 -0.10365506 -0.028802989 -0.008802366 0.18297617 0.1517423 -0.027675029
-0.0045890296 0.009916826 -0.20117164 -0.050828364 0.058559645 -0.08107997 -0.0018110989 -0.14865835
-0.043806817 0.01854947 0.030057415 -0.031808592 -0.061397284 -0.08134478 -0.123497516 -0.028246732
0.012451986 0.033359226 -0.03283315 0.10667036 -0.0421927 -0.091187194 0.021649 -0.10113007
0.06514206 0.003581301 0.08151156 0.19914292 -0.01222009 0.12889917 -0.09292738 -0.07388068
-0.17204219 -0.13384861 -0.03243892 0.13132408 -0.08943665 0.1839087 -0.050101526 -0.011221082
-0.082625836 0.045785367 -0.070813365 0.02237643 -0.060156886 -0.033398226 -0.14300467 -0.09624734
0.14761104 -0.04228686 0.07607287 -0.08977148 -0.025719745 0.046728566 -0.0373086 -0.09073599
0.061586738 0.12538804 0.009109084 -0.012944772 -0.10537733 -0.09406426 -0.03129999 0.12631917
0.027213465 -0.016273005 -0.14089984 -0.053211432 0.1144116 -0.020003472 -0.04702399 0.09720696
0.04434846 -0.0663716 -0.08223794 0.112486705 -0.015270464 0.108549386 0.03174245 0.07121733
-0.10968572 0.12404662 0.043817054 0.03190489 -0.0034691272 -0.056263156 -0.073620014 -0.045324344

network_body._body_endoder.seq_layers.2.bias f4 [128]
00000000: 776f f0bd 7963 2fbd 94b4 793d f846 25be
00000010: c851 9dbd a0b9 4a3d bb49 bb3b bf23 f5bc
00000020: af18 11be cd6e 86bd ad51 35bd 10b0 12be
00000030: 1474 f5bc acb7 2f3c bb17 dd3b 6218 d4bd
00000040: d23b a2bd 3cb7 32bd 980a f0bc 4b61 20bd
00000050: 7c4d 25be 619b e8bd 4a16 77bd f84f 913d
00000060: b526 e5bd 16fc 74bd 4faf 45bd 5e5a e7bc
00000070: 6584 81bd 64fb 5ebd a5b0 d4bd 2111 e3bd
00000080: 02c6 d5bd 3b87 02be 4f5e 32be 007a 0fbd
00000090: 033d 8dbb a481 b53d c449 b3bd 95ae 97bd
000000a0: 2214 ebbd 7469 ff3c ab06 12be 7095 ff3c
000000b0: 6aaa 18be 35f5 cabc 3223 12be 4375 d5bd
000000c0: 0809 d6bd 35ec 12bd 6a1f d0bd 206f 0fbe
000000d0: 154b c2bd 67dc 45bc 3bec b9bd 3a57 3abe
000000e0: 0c43 adbc 40b8 18bc c1c7 0dbe 8c50 4abc
000000f0: 4581 05be a99e a9bc 3453 97bd 2ad4 39be
00000100: ae0c 1bbe 0470 64be 17d1 74bd 0024 90bd
00000110: 1523 debd ab64 863a 1445 22be 77d1 60bc
00000120: 3e7b 21be 8be8 42be 9edd ecbb 5f21 01bd
00000130: fb5b 01be bafc c3bc e97a ddbd 892e eabd
00000140: 05d8 3abe c09e 0bbd 6bce 0ebc 0a4a b03c
00000150: 3661 02be 864f 14be 231a 82bd 764a ae3b
00000160: f03b 05bd faa2 96bd b765 19be 0baf d4bd
00000170: 0b41 41be ff91 e9bd cfbf bd3c 5f97 5d3d
00000180: 9297 02bd b5e9 e73b 95ae 1bbd 8fb9 513c
00000190: 667d e8bd a090 4fbe 0995 813d c0d1 c1bc
000001a0: 445d 79be 7a39 7ebe e376 6dbd 1731 40bc
000001b0: 21b4 003d 8fb4 3b3d 2591 8fbd 7a57 53bc
000001c0: 16ba d2bc a489 49bc 5878 dfbd 3769 cfbd
000001d0: 513e 8fbd 259c 0bbe f04c 34bc 6293 093d
000001e0: 09fd 0fbe acde a5bd b48d 0fbd a047 93bc
000001f0: c16c debd 8283 b9bb 6a11 e7bb 73bb 1a3c
-0.1174001 -0.042819474 0.06096323 -0.16140354 -0.07681614 0.049493432 0.0057155765 -0.029924272
-0.14169572 -0.06564102 -0.044267345 -0.14324975 -0.029962577 0.010724943 0.0067472137 -0.10356213
-0.07921566 -0.043631777 -0.029301926 -0.039155286 -0.16142839 -0.11357761 -0.06032399 0.07095331
-0.111890234 -0.05981072 -0.04826289 -0.028241333 -0.063240804 -0.054438964 -0.10385255 -0.110872515
-0.104381576 -0.12746899 -0.17418788 -0.035028458 -0.0043102517 0.088626176 -0.08754304 -0.07406346
-0.114784494 0.031178214 -0.14260356 0.031199187 -0.14908758 -0.024775127 -0.14271238 -0.104227565
-0.10450941 -0.035869796 -0.10162242 -0.14007235 -0.09486977 -0.012076474 -0.090782605 -0.18197337
-0.021150135 -0.009321272 -0.13845731 -0.012348305 -0.13037594 -0.020705538 -0.073889166 -0.1814734
-0.15141556 -0.22308356 -0.059769716 -0.070381165 -0.10846535 0.001025339 -0.15846664 -0.013721815
-0.1576967 -0.1903402 -0.0072285673 -0.031525966 -0.12632744 -0.02392422 -0.10814459 -0.11434657
-0.18246467 -0.034086943 -0.008716206 0.02151968 -0.12732396 -0.14483461 -0.063526414 0.005318935
-0.032527864 -0.07355304 -0.14980207 -0.10384949 -0.18872468 -0.114048 0.02316275 0.054099437
-0.03188283 0.0070774206 -0.03800829 0.012800588 -0.11352043 -0.20270014 0.06327254 -0.023659587
-0.24351984 -0.24826613 -0.057974707 -0.011730454 0.031421784 0.04582649 -0.07010106 -0.012899274
-0.025723498 -0.0123008825 -0.109116256 -0.1012749 -0.06994308 -0.13633783 -0.011004671 0.03358782
-0.14061369 -0.08099112 -0.035047248 -0.01797849 -0.10860587 -0.005661429 -0.0070516365 0.009444105

network_body._body_endoder.seq_layers.4.weight f4 [128, 128]
00000000: 23b4 693e b3d2 883e b749 003e ce9b a03e
00000010: 47eb 8dbc fffc cdbe e98c b63e 9bfe e13d
00000020: c7d3 833e 85ed b93e 3883 173d 7508 183e
00000030: ab23 893e 12d9 54be f99a 6bbd 3bad 3b3e
00000040: e993 6cbd 160a 4fbe cc8c 7abe 9477 ae3e
00000050: 260c 413e 49aa 733e 57ac a8be c12a a6bd
00000060: 3205 d93d a0c7 e8bd aa85 2f3e b591 85be
00000070: 3975 663c 0d11 e9bd 9e02 dd3d d8a7 393e
00000080: aa87 cc3e 06c4 ccbc 8c4b d93d f6c0 dd3e
00000090: 0fc9 b2be 6516 b7bd c03c 2abe de02 47bd
000000a0: 8070 a33e fab6 87be aa40 7a3e f3bb a8be
000000b0: f9ef b43e 3af4 263e 0979 a03e a6ac ce3e
000000c0: 1974 6e3e b0cd 183e 8542 903e aa3e 903e
000000d0: 4514 c3bd 720e cb3d 2bbd 663e 43bd 073d
000000e0: a9a7 943d e833 a43d b12d 053e cb2a ca3d
000000f0: 3ba9 d53e 709b d63e c243 c03e dfdf 023f
00000100: ea7d 6a3d ce56 b03e fdb9 c73e 5c09 ab3d
00000110: e124 023f 5945 d5bd b9c3 0fbd f5ed c9be
00000120: f6ee 87bd 15da ab3d 9064 b3be 1d54 06be
00000130: 01f8 b33c c857 133e 5278 49be fbcd 9f3e
00000140: 837e 613e 8c11 1fbb 432e c4bd d759 84be
00000150: 5dd2 8e3e fab4 36bd 0d88 1c3e 0e72 fa3d
00000160: 64fb 1dbe a685 70be 8b46 c2bc 363b 31bd
00000170: 2700 473e eeac 00bd 428e 95bb 0192 703e
00000180: 25a0 713e 107e e9bc fe41 afbd 92a0 99bd
00000190: b327 363e 019d fb3e e1f5 343e 6db7 3a3d
000001a0: 0707 c43e 5d4a 483e 7d85 b8be 41ca 74be
000001b0: b200 323e 7741 3b3e 7eae 83bd 39ee ddbd
000001c0: 963f 12bd 5242 ccbd ef6d 2c3e 2f25 4a3e
000001d0: 1895 c33e 6020 b43e c1e6 983e fc24 70bd
000001e0: deb3 603e 31a7 583e 6323 f3bc 7f3d e5bd
000001f0: 2ad9 443e 85ee 893e 1d31 c53d 28e4 b4be
00000200: e875 e53b 3ef9 27bd 7c0f a4ba 0a96 b3bd
00000210: 2326 51bd a525 e03c 6ac5 57bd 3e7f 1ebe
00000220: 1e3b 213e c61d afbc 2d4a a73d 9f01 68bd
00000230: c694 9d3d c0b3 63bd 4e4d 9dbb f9ad c9bc
00000240: fbe0 8abd 8b92 bcbc e28f e2bc 868f 6ebd
00000250: f341 34bd 1a3d b9bd 3bf9 393e 4f85 43bd
00000260: b323 733d 4b80 803d 57be b1bc be7e 9d3c
00000270: efba b33c f498 08bb b398 133d 578d 463c
00000280: b115 61bd 4783 ef3d 6fa1 58bd 4081 3dbd
00000290: 503a 193e 7c94 843c 7e67 a83d 3225 e63c
000002a0: 1b7a 5a3d b733 b7bd 7388 573e 8cb7 a93b
000002b0: e98f 29bc eba3 813c a691 033e aadb 21be
000002c0: 68cd e03c 3bf9 a5bb 0f71 ef3c 7206 6f3e
000002d0: 18a5 233e ae9c 5c3d b994 583b f969 893c
000002e0: 47ad 57bd 4091 24bc 76f6 dc3d 10eb 0abe
000002f0: 20d0 acbd 83ce 03bb 22a1 133d bc4b f1bd
00000300: 3e5e 9dbd fc76 9d3d 5136 cd3d 6691 963d
00000310: 48f2 a7bd f177 103d 345e 0fbe 06e5 57be
00000320: f76a a13d 1b59 8b3c 0973 01be ea9c 8bbd
00000330: b7ae eb3a 5cbd 16ba a4cf c23b 718e 423c
00000340: a593 b9bc b2f4 a6bb 8833 afbd a711 4fbc
00000350: c6e8 e63c 577c dd3d 6656 bc3b da3b 903d
00000360: 2762 833c f274 133e eccb 01bd 468d cdbd
00000370: 728c 573d d266 5dbe 7789 0bbd 48b1 a93c
00000380: 2453 ffbd 2f0a 463b d6c6 203d 7c07 643d
00000390: 719b f1bb e427 5cbd f5a1 5e3d fb48 aebd
000003a0: 53fa bc3c 949c 1eb9 f99a cc3d 69fa 32bb
000003b0: e9ba c83d 4628 773c 934b fdbd 9992 c93d
000003c0: 28eb 8a3d dd41 a4bd 25f1 0dbe 1333 a8bc
000003d0: 6e0c a1bd df84 923d 094f 1abb 1b4b 73bd
000003e0: 40f2 973d dbb6 383c f970 fdbd 68c8 73bd
000003f0: e731 4dbe 111e 903d 02ee f2bd b95b 043e
0.22822623 0.2672325 0.1252812 0.3136887 -0.017324103 -0.40232083 0.3565438 0.1103489
0.2574751 0.36314026 0.036990374 0.14846976 0.26785025 -0.20785931 -0.05752084 0.18327801
-0.057758246 -0.20218691 -0.24467772 0.34075606 0.1885229 0.23795427 -0.32943985 -0.081136234
0.10596694 -0.113662004 0.17140833 -0.26087728 0.014066034 -0.11380205 0.10791515 0.18130434
0.39947253 -0.024995815 0.106101125 0.4331128 -0.3491902 -0.08939818 -0.16624737 -0.04858672
0.31921768 -0.26506788 0.2443873 -0.32955894 0.35339335 0.16304103 0.31342342 0.40366095
0.23286475 0.14922214 0.2817575 0.2817281 -0.095253505 0.099148646 0.225331 0.03313948
0.07258541 0.08017713 0.13005711 0.09871443 0.41730675 0.41915464 0.37551695 0.5112285
0.057248987 0.34441227 0.39009085 0.083513945 0.5083752 -0.10413618 -0.035098765 -0.3943936
-0.06637375 0.08391205 -0.3503766 -0.13118024 0.021968843 0.14388955 -0.19674805 0.31211838
0.22020917 -0.0024271933 -0.09579136 -0.25849792 0.2789487 -0.044606186 0.15286274 0.122287855
-0.15427929 -0.23488483 -0.023715278 -0.04326936 0.19433652 -0.03141492 -0.0045640776 0.23493196
0.23596247 -0.028502494 -0.08557509 -0.075013295 0.17788582 0.49143222 0.1767192 0.045585085
0.3828661 0.19559617 -0.36039343 -0.23905279 0.17383078 0.18286692 -0.06429766 -0.10836453
-0.03570517 -0.09973587 0.16838811 0.19740747 0.38199687 0.3518095 0.2986355 -0.05862902
0.21943614 0.21157528 -0.02967996 -0.1119337 0.19223467 0.26939788 0.09628508 -0.3533032
0.007002581 -0.04100918 -0.0012516822 -0.08768852 -0.05106176 0.0273617 -0.052678503 -0.15478227
0.15745208 -0.021376502 0.08168445 -0.05664217 0.07694392 -0.055591345 -0.004800475 -0.02461909
-0.06781193 -0.023019096 -0.0276565 -0.058242343 -0.044008207 -0.09044857 0.1816148 -0.047734555
0.059360217 0.0627447 -0.021697206 0.019225474 0.021939723 -0.002084312 0.036034297 0.012118659
-0.054952327 0.11694961 -0.05288833 -0.04626584 0.1496365 0.016184084 0.082228646 0.028093908
0.053339105 -0.08945411 0.21048145 0.005179351 -0.010349252 0.015825232 0.12848529 -0.15806451
0.027441695 -0.005065111 0.029228715 0.23342302 0.15980947 0.05386036 0.003304763 0.016774165
-0.052655485 -0.010044396 0.10789196 -0.13566232 -0.08438134 -0.0020112104 0.03604234 -0.11782023
-0.07683991 0.0768871 0.10020126 0.07351951 -0.08200508 0.035270635 -0.1400078 -0.2108346
0.0788173 0.017010262 -0.12641539 -0.06817038 0.0017981146 -0.00057502626 0.005945163 0.011874781
-0.02265341 -0.005095088 -0.08554751 -0.012638486 0.028187167 0.108147316 0.005747604 0.07042666
0.016038014 0.1440008 -0.031688616 -0.100367114 0.052624173 -0.21621254 -0.034066644 0.020714417
-0.1246703 0.0030218472 0.039252125 0.0556712 -0.0073732664 -0.05374898 0.054353673 -0.08510014
0.023068583 -0.00015126384 0.09990496 -0.00273099 0.09801275 0.0150852855 -0.1236793 0.098424144
0.06783134 -0.08020375 -0.1386152 -0.020532167 -0.07863699 0.071542494 -0.0023545644 -0.059397798
0.074192524 0.011274065 -0.123750634 -0.059517294 -0.20038567 0.07036985 -0.11861803 0.12925614

network_body._body_endoder.seq_layers.4.bias f4 [128]
00000000: 0da8 a4be 88d9 8fbc ba8b 47be 91f6 18bb
00000010: e4a2 cdbc 9d20 e9bc a780 f4bd 880f 5bbd
00000020: a695 e13c 2f62 bb3c cc51 f1bd f820 e5bc
00000030: b27b 61bd ac61 01be 3e17 36bc b528 aebd
00000040: 5515 12bd a4c2 ae3c 74ce ecbc 94d9 97bd
00000050: 14fe 35bd 1a27 06bd e4ff a03c ecfc d1bd
00000060: 7e6d 623c 70c0 80bb bd41 2dbd c268 f83b
00000070: d50d 49bd 6953 a1bd e0b3 0bbd 0ca6 3dbd
00000080: 061a cb3c cdcb b4bd 767d 99bc 8a70 bbbd
00000090: 7e1f 02be ac5c 8cbd 4632 6dbd 8c63 163d
000000a0: d90a 40be b90b c83b f68f 2dbd 66f2 b13c
000000b0: f442 aabd 2172 2abd c7c0 29be ec3d aabc
000000c0: c872 89bc 43e2 73be 51c9 123d 290e 88bc
000000d0: ebd8 c33c 1747 b2bb 6023 913c a348 2dbd
000000e0: b671 42bc 7497 87bd aa81 d8bd 26f1 6dbe
000000f0: 9210 053d 3de0 0abd b2aa e3bd 262c d53c
00000100: 944a 18bd 8895 00be a47a 453c 5333 75bd
00000110: d917 9c3d a8a0 813c cfe2 84be a6d7 d33c
00000120: ad5e 233d 51d9 0b3d 1ebf 4abd a6b1 09be
00000130: cdb1 9bbd f65c 0f3d fe15 5bbd 727a 3fbd
00000140: 93ed 433b 7c7a 3d3a 8d55 b2bc dfa3 33bd
00000150: 7da3 96ba 0465 62bc 8721 fa3b fb7a 1ebd
00000160: bcd5 b4bc 2217 4c3d 721a b9bc fb65 74be
00000170: 694a 573c 8af2 26bc 60d3 543b 31cf 42bd
00000180: 34cb fabc 26ef 9e3c 5374 b63c 8014 eebc
00000190: 0a26 43bd 2db0 bf3c 5b5a 0fbd fac9 c3bc
000001a0: 05d7 b4bc 66d9 fa3c 608e 06bc d99d afbc
000001b0: a0f1 76be 9f89 13be 7513 c4bb 228a cabd
000001c0: 0ad0 57be f0f5 d7bb 1940 cb3c 9f2c 7bbb
000001d0: f2c8 a23b fe5e 9bbd 6344 7bbd 068c c1bc
000001e0: c8e1 c3bc 60f9 00be 6c6b 74be 12e4 f43b
000001f0: 61d5 f4bc ac2b 073c 865e 51bb ac78 0f3d
-0.32159463 -0.017559782 -0.19486895 -0.0023340324 -0.025102086 -0.028457934 -0.11938601 -0.05348161
0.027537178 0.022873966 -0.1178318 -0.027969822 -0.055049606 -0.12634915 -0.01111394 -0.08503858
-0.035664875 0.021333046 -0.028907038 -0.074145466 -0.04443176 -0.032752134 0.019653268 -0.10253319
0.01382005 -0.0039291903 -0.04229902 0.0075808475 -0.049085457 -0.07877237 -0.03410709 -0.046300933
0.024792682 -0.088279344 -0.018736582 -0.091523245 -0.12707326 -0.06853613 -0.057909273 0.03671603
-0.18754138 0.006104913 -0.04237362 0.02172203 -0.083135515 -0.041612748 -0.16577445 -0.02078148
-0.016778365 -0.23816781 0.03583652 -0.016608315 0.023907145 -0.0054406035 0.017717063 -0.0423056
-0.011867931 -0.06620684 -0.105716065 -0.23236522 0.032486506 -0.033905257 -0.11116542 0.026022028
-0.0371805 -0.12557042 0.012053166 -0.0598634 0.07621736 0.015823677 -0.2595429 0.025859665
0.03988521 0.034142796 -0.04949867 -0.13446674 -0.07602272 0.035000764 -0.05348777 -0.046747632
0.0029896244 0.00072280294 -0.02176931 -0.04385745 -0.0011492815 -0.013818029 0.0076333913 -0.038691502
-0.022074573 0.04982675 -0.022595618 -0.23867027 0.013140299 -0.010189662 0.0032474622 -0.047560874
-0.030614473 0.019401144 0.022272265 -0.02906251 -0.0476437 0.023399437 -0.03499828 -0.02390002
-0.022075186 0.030621242 -0.008212656 -0.021437572 -0.2411561 -0.14407967 -0.005983765 -0.09889628
-0.21075454 -0.0065905973 0.024810838 -0.0038326157 0.004967802 -0.07586478 -0.061344516 -0.023626339
-0.023911372 -0.12595129 -0.23869103 0.007473477 -0.029886903 0.008250158 -0.003194721 0.03502719

action_model._discrete_distribution.branches.0.weight f4 [2, 128]
00000000: d60c 41bd 1720 95ba 6b89 8bbd ad54 f73b
00000010: 0f14 2a3c 81b9 54b9 74d4 9bbd cfde afbb
00000020: b072 b9b6 a96e 9bba d03d b7bd 53e0 1cbc
00000030: 2b1d 7dbc c6fc aabd 5278 d7bb aa0f 3dbc
00000040: cfc2 aebb eee4 e838 65da 143c a9b5 d1bb
00000050: 4180 98bc 297e 3abd 09b8 59bc 005c 9bbd
00000060: 1fa7 433b e6e6 24bc dd45 86bc 62a4 373b
00000070: bcf1 8f3a 7f0e 78bd 3079 87bc 77dd 12bc
00000080: 57c0 413c 0070 8cbd d2c7 97b9 10c9 6dbd
00000090: f4fe 2fbd 20a4 23bc 0e96 7eba eaf2 fe3b
000000a0: f443 4fbd 1d7e 263b 5ae0 90bb b6b7 a43a
000000b0: 8247 79bd 76c9 70bc 7eca b0bd eb7e 31bb
000000c0: 444f 073c a2b1 42bd 089f ccbb b1ff af3c
000000d0: 7299 263c f102 6f3b ce4a 99bb ed09 64bc
000000e0: d021 2b3b ca34 a4bc 07e6 92bd 6f3a 82bd
000000f0: 5a6a 473c 8052 033c 0902 90bd e1ae 143b
00000100: 8492 63bd 40e5 c7bd b975 f73b 23f7 debc
00000110: bc5e 963c 3da5 003c b71d 18bd 4ada f53b
00000120: 661d d03c 2870 d73b 89a5 2cbb 2057 85bd
00000130: af37 1dbc 5b9f 58bb eb4d eabb c50c 07bc
00000140: 6221 943c 662f c73c e876 d23a 2435 1ebc
00000150: 09c8 10bb d94f 8fbc 0acc d438 1795 953b
00000160: 097e 223c d07a 863b 36b9 8fbc 643f 9dbd
00000170: 1dc8 bebb 5fcf 33bc cd59 2fbc 5570 dabb
00000180: 5556 f5bb 0080 b139 006d 75b9 1704 c8bc
00000190: 4302 b0bc 2f32 5c3c 5fcc 8cbd e0c1 c8bb
000001a0: 8965 4fbc ca00 a83a ce3b 0ebc 6ccf b9ba
000001b0: 34fe 59bd e95c b2bd f309 5c3a 4932 d43a
000001c0: 3af1 7fbd 1321 87b9 638c 87bb eb53 34bc
000001d0: 03af 83ba 29cb e4bc a04a f1bb 11a7 353c
000001e0: e787 04bd f880 93bd df0a 1dbd 6487 e5bb
000001f0: bd79 1abb 753b e9ba c7bf 7fbb b9c5 543c
00000200: 53ee 2f3d cf19 bbbc d2ec 823d a661 793c
00000210: c7e4 5dbc 51cb 80bc d98c 813d c167 e8bb
00000220: 65a2 1abc 0cd0 0b3c da10 8a3d 72c4 0b3b
00000230: 1053 b13c e5aa b63d b7b7 993b 522f f13c
00000240: 838e 69bb 3f0c 0cbc 640e d1bb edf5 99b9
00000250: eb77 c93a d415 ff3c 76fe f6bb aff3 b83d
00000260: df2d 92bc e705 023c 5ad6 833c b5db ea3b
00000270: d429 083a ffc2 4f3d 2bfc 303c b1fd 1f3b
00000280: b036 c13b a8d7 853d efdd 39bc e687 9d3d
00000290: 540d 473d bec5 c13b c548 00bc 2f56 f7bb
000002a0: 8153 ec3c fcea 563c a9dc 783c af92 f4bc
000002b0: b6c4 883d f6d1 773c 4a26 793d c607 783a
000002c0: 102c 3eba 2e86 043d ed9a 1cbc 2337 34bc
000002d0: bb4a 2ebc 4add 53bb 1e15 853c 1aa2 a03c
000002e0: 156d dcba 3b7d 653c d2cb 833d 5eff 823d
000002f0: 4867 46bc fa0c b639 bea8 3c3d 5e85 8abb
00000300: 1f56 573d f5ee ad3d 2a0d bebb 7503 ddba
00000310: ee9d bebc 2830 bc3b 5ba2 463d 0e7a 33bc
00000320: 2d83 c4bc e50d 77bc 3023 023c 79b8 943d
00000330: 9e17 4b3c 461b a53b 4263 cb3c a75c 563c
00000340: 134d 80bb 3522 bebb fcea 853b ed9f 00bc
00000350: d286 70bc 8cb5 373c 3585 703b 96a6 84bc
00000360: 33e1 05ba 8534 ebbb aca5 c6bb 96f1 a83d
00000370: 08c2 d9bb 4680 ff3b bca0 4b3b a130 883c
00000380: 3bcd ac3c 1966 42bc c9d4 ecbb 5954 d13c
00000390: 8b8e d03c e902 68bc a482 8b3d 5a2e feba
000003a0: fcf0 f7bb 342d 533c c226 3bbc f1bf 823b
000003b0: 34b2 233d 4942 903d 5e63 06bc 0b08 6dbc
000003c0: 76e1 3d3d f94a cbbb a306 71ba 9765 d9ba
000003d0: 3e3a 4c3b aba3 fa3c fee0 3d3d 8463 0dbb
000003e0: 4728 4d3c 7fc1 7a3d 3a16 763d 5ef1 42bc
000003f0: 4427 2e3c 8e5b 2ebb dc50 13bc f3c8 90bb
-0.047131382 -0.0011377361 -0.0681332 0.007547936 0.010380759 -0.00020287001 -0.076088816 -0.005367137
-5.526781e-06 -0.0011858541 -0.08947337 -0.009574967 -0.015448849 -0.08348994 -0.0065756226 -0.011539379
-0.0053332816 0.000111052635 0.009085272 -0.0063998294 -0.018615844 -0.045530472 -0.013288506 -0.07585907
0.002985425 -0.010064816 -0.016390735 0.0028021564 0.0010982077 -0.0605607 -0.016537279 -0.008963934
0.011825643 -0.068573 -0.00028949842 -0.058053076 -0.04296775 -0.009987861 -0.0009711691 0.0077804225
-0.050601915 0.002540476 -0.004421276 0.0012566957 -0.06085921 -0.0146964695 -0.08632372 -0.0027083706
0.0082586445 -0.047532685 -0.006244544 0.021484228 0.01016842 0.003647026 -0.004678107 -0.013918382
0.0026112683 -0.020044703 -0.071727805 -0.063588016 0.012171352 0.008015275 -0.07031638 0.0022687244
-0.05555965 -0.09760523 0.0075518754 -0.027217453 0.01835572 0.007851896 -0.037137713 0.0075028287
0.025404643 0.0065746494 -0.0026343784 -0.065107584 -0.009595796 -0.0033053968 -0.007150402 -0.008242791
0.018082324 0.024314594 0.0016057165 -0.009656224 -0.0022091886 -0.017494129 0.00010146953 0.004564892
0.009917744 0.004103996 -0.01754437 -0.076781064 -0.005822195 -0.010974734 -0.0107025625 -0.006666223
-0.007487098 0.00033855438 -0.00023405626 -0.024416013 -0.021485453 0.013439699 -0.06874918 -0.0061266273
-0.012658485 0.0012817618 -0.008681251 -0.0014176196 -0.053220943 -0.087091275 0.00083938165 0.0016189303
-0.06248591 -0.0002577385 -0.0041366084 -0.011006336 -0.0010046664 -0.027928906 -0.0073636323 0.011087195
-0.03235617 -0.07202333 -0.038340446 -0.007004665 -0.0023571097 -0.0017794209 -0.003902422 0.012986594
0.042951893 -0.022839455 0.06392826 0.015221035 -0.013543314 -0.015721949 0.06325693 -0.0070924466
-0.009438132 0.008533489 0.067414954 0.0021326807 0.021646053 0.08919314 0.00469109 0.02944151
-0.0035637922 -0.008547842 -0.0063798893 -0.00029365663 0.0015370821 0.031138338 -0.0075376583 0.09030854
-0.017844139 0.007935978 0.016093422 0.0071673044 0.0005194221 0.050723072 0.010802309 0.0024412686
0.005896412 0.06535274 -0.011344417 0.07691936 0.048596695 0.0059134653 -0.00782985 -0.0075481157
0.028848412 0.013117548 0.015189328 -0.0298551 0.06678145 0.015125742 0.06082753 0.00094616076
-0.00072544906 0.032354526 -0.009558422 -0.010999474 -0.010637934 -0.0032327943 0.016245421 0.019608546
-0.0016817177 0.014006908 0.0643536 0.06396364 -0.012109585 0.00034723413 0.046059363 -0.0042273244
0.052572366 0.08492843 -0.005799909 -0.0016861992 -0.023268666 0.0057430454 0.048494678 -0.010954393
-0.02398833 -0.015078996 0.00794296 0.07261748 0.0123957675 0.0050386516 0.024827603 0.0130836135
-0.003915438 -0.0058024176 0.00408685 -0.007850629 -0.014680581 0.011212718 0.0036700491 -0.016192716
-0.00051071047 -0.0071778917 -0.00606223 0.08249204 -0.006645445 0.007797274 0.0031071147 0.01662475
0.021093955 -0.011865162 -0.0072275144 0.025552915 0.025458595 -0.01416085 0.06812027 -0.0019392476
-0.0075665694 0.012889195 -0.011422815 0.0039901664 0.03996487 0.07043893 -0.008202402 -0.01446725
0.046357594 -0.006204006 -0.00091944094 -0.0016586062 0.0031162645 0.030595621 0.046357147 -0.0021574209
0.01252181 0.06121969 0.06007979 -0.011898367 0.010629479 -0.0026604864 -0.008991446 -0.0044184863

action_model._discrete_distribution.branches.0.bias f4 [2]
00000000: 440f 693d 610f 69bd
0.056899324 -0.056899432

action_model._discrete_distribution.branches.1.weight f4 [2, 128]
00000000: 8e39 6bbd b6a4 21bd d5dc c4bd 35d0 3ebb
00000010: 6874 9fb9 9647 abbc f69b c0bd 7191 34bc
00000020: 9878 7abc e857 363c 1b51 adbd fe6b 873c
00000030: 9041 25bc fadd debd 69d5 c53c 2763 f3bb
00000040: 274e c5bc 5734 973c cf80 8939 bd60 033a
00000050: cae9 a3bb ba8e 9dbd 24f7 11bb 389b ebbd
00000060: 4402 743c 7f82 5fbb cddf da3c f802 b13c
00000070: 0000 07bd 003a babd 8fd5 32bc a2fd 443c
00000080: f176 2abc 5810 9ebd 98e1 b636 26f3 d3bd
00000090: 9b5a aabd 563c acbb 663a dd3c 45fe 44bc
000000a0: b70a b4bd 1d78 7ebc b97b 26bc 9ec8 a83c
000000b0: 7c8d dfbd f342 703c 8510 d4bd 5330 05bc
000000c0: e66b b1bc d8b1 88bd eeea 41bb f3af 5a3c
000000d0: 14b0 7d3a e3ac 4d3c 12c0 d23a b29f 44bc
000000e0: 6052 8739 9d09 41bc 1ed0 efbd 9075 b3bd
000000f0: 88a6 da3c 7d66 0cbd 747e d0bd 8a7c 3ebc
00000100: fcb1 96bd da39 01be c026 703a 8356 73bc
00000110: 937d 4eba e1d5 dfbc 19d3 95bd 0696 933b
00000120: fa3d f6bc 2b69 30bc 626b 56bc 4b8f a5bd
00000130: 2435 08bb e895 b03a 461e 3cbc c431 96bb
00000140: e503 8eb9 ab30 b1bc e326 47bc 9414 5e3b
00000150: 88a1 973c ce6c ba3a 79d1 ca3c 2ae4 cfbc
00000160: 228b c63b 8068 1fbb b102 20bc 678a babd
00000170: 809b 2b3c 4269 cb3b 7747 9ebb 062a 9bbc
00000180: d5a5 1e3c b1f4 d53c 5f59 ca3c dad6 a5bc
00000190: 7fec e4bc f74f 703c 6ae8 80bd e888 8c3a
000001a0: 2a1b 84bb 8a17 633c 06a5 7cbc 6451 9c3c
000001b0: 49ce aabd ce6e c4bd 71a9 b7bc 2420 b8bc
000001c0: 982e adbd de9f 03bc 44e2 67b8 5cbe 80b9
000001d0: f524 1abd 528f 0c3c 60d5 b9bc 31dc cb3c
000001e0: 9977 983b 2381 e7bd 1b44 bcbd 433e 6b3b
000001f0: 41da cdbb acdd 173d 024b e0bc 62c7 323c
00000200: 291a 913d ad6d ed3c 49c9 ca3d 74f9 9d3c
00000210: 36a7 cdbc 4d96 343c 9a78 cf3d 71ec 8bbb
00000220: 91e7 403c a36d c13b d27e c53d 5e36 333c
00000230: e7be 873c 30d3 da3d 0dd4 c9bc 8656 27bc
00000240: 77ca ef3a 29eb 9eba b14c 98bc 38d9 b63a
00000250: 5eac be3a bdd5 6b3d 93cd fa3b 9615 e13d
00000260: 10b8 34bc ef38 863b 0520 67bb 52e2 123b
00000270: b1c6 ce3c c868 a43d 75e6 2d3c 86b4 a0bb
00000280: b71b cf3c 46f6 993d 9b2a 01bc 8f40 e23d
00000290: 1e70 913d ad7d 3b3a ee51 8fbc ffd6 5e3c
000002a0: 1f3c b83d 652a ee3a 8f8f 83bb db2d acbb
000002b0: 0522 ce3d 6ca4 8dbc 3bf5 e43d 8d61 d43c
000002c0: 94d0 163d 50f6 a53d be54 ccbb 2466 cebc
000002d0: 7280 32bc 2241 1dbc 16a6 b93c 7e41 e63b
000002e0: e0f3 52ba 3d0d 4fbc 3cfb d33d a7d2 a73d
000002f0: 06ed 9ebc 330e d03b 5828 cf3d a190 6c3c
00000300: 7e53 593d c588 013e 743d c83c dcba cb3c
00000310: f698 083c ef0a 823c 7bdf a83d c56a 81bc
00000320: 20e5 b23c 5d8d 243c 4dea 71bc 69b3 bf3d
00000330: 79e8 c53b 4e67 483c 82f3 0a3d 3b2f 88b9
00000340: e89e cfbb 44fc ea3b 3601 483b 403b 953a
00000350: c5d7 00bd c767 a7bb 652d 5ebc 46fc ac3c
00000360: bb25 803c bebe 02bb 6c02 3b3c bd66 a33d
00000370: 86d5 3ebc e335 653b bc5c 873c e8a0 893a
00000380: 58cc fabb ae80 14b7 9abd cebc 85a0 1bbc
00000390: 0bbb 433d 385f 163c 3547 b13d d5fe b2bc
000003a0: 417b 203c 1c3f c6bc ad9b f53b ae79 ad3b
000003b0: 2ca2 a93d c3c3 cc3d cfbf 073b 8f18 013d
000003c0: c240 c73d e400 0d3c ef5f 8dbc 13e8 a13c
000003d0: e961 9c3c d857 dd3c 480b 2c3d 5851 1ebc
000003e0: 5b1b 3d3b 63db f53d 05e6 8c3d 5830 133c
000003f0: 9c1a 703c b186 8abc 849d aaba 2a3b 8bbb
-0.057427935 -0.03946372 -0.09612433 -0.00291158 -0.00030413573 -0.020908158 -0.09404747 -0.011021004
-0.015287541 0.011129357 -0.08462735 0.016530987 -0.010086432 -0.108821824 0.024149613 -0.0074275914
-0.024085118 0.018457575 0.00026226646 0.00050116685 -0.005002235 -0.076932386 -0.0022272551 -0.11504215
0.014893118 -0.0034104881 0.026718045 0.02160786 -0.032958984 -0.09093094 -0.010915174 0.012023361
-0.010404334 -0.07717961 5.4502852e-06 -0.10349111 -0.08318063 -0.005256216 0.027005386 -0.012023513
-0.08791106 -0.015531567 -0.010161334 0.020603474 -0.10915658 0.014664399 -0.10354713 -0.008129197
-0.021657895 -0.06674546 -0.0029589492 0.013347614 0.0009677422 0.012553426 0.001607897 -0.012000965
0.0002581058 -0.011782077 -0.11709617 -0.08762658 0.026690736 -0.034277428 -0.10180369 -0.011626372
-0.073581666 -0.12619725 0.00091610476 -0.014852169 -0.00078769884 -0.027323665 -0.07315654 0.004503968
-0.03005885 -0.0107672615 -0.0130871255 -0.080839716 -0.0020783627 0.001347241 -0.011481827 -0.0045835692
-0.00027087252 -0.021629652 -0.012155267 0.0033886777 0.018509641 0.00142231 0.024758087 -0.025377352
0.0060590664 -0.0024323761 -0.009766267 -0.091084294 0.010474086 0.006207616 -0.0048302966 -0.018940937
0.009683092 0.026117655 0.024700819 -0.02024405 -0.027944801 0.014667503 -0.062943295 0.0010721954
-0.0040315585 0.013860593 -0.015420204 0.019081779 -0.08340127 -0.09591447 -0.022419663 -0.022476263
-0.08456153 -0.008033721 -5.5285418e-05 -0.0002455589 -0.0376329 0.008579092 -0.022684753 0.024885269
0.004652929 -0.11303928 -0.091926776 0.0035895265 -0.0062821214 0.037076637 -0.027379517 0.010911794
0.07085068 0.028982962 0.09901673 0.019283988 -0.025104146 0.011022163 0.10130425 -0.0042701294
0.01177396 0.0059029623 0.0964333 0.010938255 0.016570522 0.10684812 -0.024637247 -0.0102135
0.0018294592 -0.0012124527 -0.018591257 0.0013950234 0.0014547219 0.057576884 0.007653901 0.10990445
-0.011030212 0.0040961425 -0.0035266888 0.002241273 0.025241228 0.08027798 0.010614027 -0.0049043326
0.02528177 0.07517676 -0.007883693 0.1104747 0.07101463 0.0007152211 -0.017495122 0.013601064
0.08995842 0.0018170594 -0.0040149163 -0.00525449 0.100650825 -0.017290317 0.111795865 0.025925422
0.03682001 0.08103621 -0.006235688 -0.025195189 -0.010894882 -0.009598048 0.022662204 0.0070268502
-0.00080472045 -0.012637434 0.103506535 0.081944756 -0.019400131 0.006349349 0.10115117 0.014438779
0.05305814 0.1264983 0.024443366 0.024869375 0.00833725 0.015874354 0.082457505 -0.015797982
0.021837771 0.010043469 -0.014765334 0.09360392 0.006039676 0.012231661 0.033923633 -0.0002597513
-0.006336082 0.0071711857 0.00305183 0.0011385456 -0.031455774 -0.005108807 -0.013560628 0.021116387
0.015642991 -0.0019950117 0.011414152 0.0797858 -0.011647588 0.0034974746 0.016523711 0.0010500224
-0.007653754 -8.851448e-06 -0.025236893 -0.00949872 0.0477858 0.009177975 0.0865616 -0.021850029
0.009795011 -0.024200015 0.0074953646 0.0052940464 0.08282885 0.09998276 0.0020713692 0.03151756
0.097291484 0.008606169 -0.017257659 0.019763982 0.019089656 0.027019426 0.042002946 -0.009662949
0.0028855416 0.12004735 0.0687981 0.008983694 0.014654782 -0.016909929 -0.0013016914 -0.0042489963

action_model._discrete_distribution.branches.1.bias f4 [2]
00000000: 696d a23d 6f6d a2bd
0.079310246 -0.07931029

action_model._discrete_distribution.branches.2.weight f4 [3, 128]
00000000: 8915 77bc 6cf9 b83c 462e d73c ce60 82bc
00000010: d085 ee3b 18f1 dd3c 6e00 aabc 2db0 403c
00000020: 1d3b 0abc ca85 9fbc 570a 73ba 587c abbc
00000030: fc10 2ebd 64ab bdbc be16 bdbc 151a 78bc
00000040: 9d97 213d f90f 733c 2282 32bd 8553 0bbd
00000050: 87a9 acbb bebb 48bb a7b8 99bc 10dd 96bc
00000060: b22f f4bc eb02 dcbc b6f4 44bd 7f84 4fbc
00000070: 362c a23c 537f f1ba 1aa8 9e3c 2ddf 0fbd
00000080: 114a 7e3c e65d 9bbc ad98 9eba 99b6 a5bc
00000090: 877d e4bc 4c71 81bc dca1 9fbb daf0 2e3d
000000a0: c322 2c3c 5cad cabc 8f51 90bc 7de2 aebc
000000b0: d647 5ebc 3087 303c 5882 c2bc 64ec 0c3d
000000c0: c523 3f3c 3dac 02ba ae70 c63c 8881 25bc
000000d0: f000 c8bb 17cb 2abc 44ff a7bb 762d 9cbc
000000e0: 6a33 6a3c 8b6b acbb 23a5 1bbd 5a92 ccbb
000000f0: 8c76 f3bc 6ee4 a93c 9cf7 71bc 6b71 cf3b
00000100: 4812 adbc 96ed 92bc 3bcc df3c 8998 9b3b
00000110: d597 0c3c 571b 123d d1bf 5e3c 8885 af3c
00000120: eac0 523d f17a 24bc 001b c53c 436c 18bb
00000130: d4e6 91bc f40b 96bc 454a bbba eff1 cf3c
00000140: 96fb 973b b31b 473d 20d1 3ebd 3c87 85bc
00000150: afcd 7fbc 080e 03bd 0269 e1bc 0fee 123d
00000160: 455b a33c 5902 10bc 1998 87bc 17f4 82bb
00000170: 4830 4ebd 0e6f e6bc 5cc6 b8bc 3a6c 18bc
00000180: e229 c3bc 201b c0b8 5c2b debc d7db bd3b
00000190: 1f86 463c 1574 493c a67e 69ba ab8a 18bd
000001a0: 5f16 dbbc 96f4 1dbc d821 893c bd74 f93b
000001b0: 337e 1dbb de4d ccbb a7d4 18bc 334e 493d
000001c0: b1eb bdbc effe a03a 3bd6 08bd cc61 bdbc
000001d0: 7e74 863c 3cf1 04bb 6d50 8bbc e21c 60bc
000001e0: 2e50 6b3b 981b 5fbb 9194 943c 5c3c 7ebc
000001f0: 358d 4fbc 3295 dabc 9b65 a9bc 2005 b13c
00000200: 9654 18bd d33f f5bc 6592 fcbc b3a6 cf3c
00000210: a460 e7bc be09 a5bb 9505 ccbc d3ca 1bbd
00000220: 3c6d 053c 7d6d 743c a287 bbbc 179a 6a3c
00000230: 2bc9 143d d3c2 90bc f164 16bc b5d2 b13c
00000240: 864e 43bd d1ea 2abd 8796 11bc 945e e93b
00000250: f37a 4cbc a371 5bbd a429 163c 7236 f1bc
00000260: b2ea 0f3c e896 b73c d668 3a3d dd9d 67b9
00000270: 2789 8ebb 4eb7 c0bc a854 2fbc 9c7b 0e3c
00000280: 7b69 2abc 37ba adbc 6427 08bc 0586 1fbd
00000290: 5b5b 52bd dbdf 39bc 83a0 9fbb d157 8cbc
000002a0: 4b0c 1dbd 2ddc 023c 9046 ef3c 407e 743b
000002b0: e777 2f3b 1d0d 923c d730 0cbd ceed 86bd
000002c0: f8ee 2dbc d62c 52bd 2800 84bc 74e6 a6bb
000002d0: 093e bd3a 480b 48bc 2787 adbc 9dbf abba
000002e0: 2f56 62bb 1a0f 203b 4f76 b9bc d5b6 16bd
000002f0: 1d70 a3bb f29a 36bd cae3 d3bc b3b9 a1bc
00000300: 966c f1bc 7e05 aebc a4a0 6ebd 282a 9dbc
00000310: 2777 983a bba5 82bc c70a 05bd e546 eb3b
00000320: 30b8 3bbd 9a48 dbbc e25b 133c 88f0 ddbc
00000330: 8830 803b 3718 34bd 1fd0 acbc 7e8d adbc
00000340: 3b4d 893b 6c43 36bd 805d 37ba f96d 25bc
00000350: 97c8 183c 8b5b fd3c 1890 9f3c 3e83 4fbd
00000360: 5caa d2bc b7f4 e13c 655a ad3c 5487 cfbc
00000370: c766 8d3c 4bca 583c 3a1f 863c 1ab3 623b
00000380: 9e22 723c afdc 25bc 0885 9b3c cbb9 eeba
00000390: 4819 4fbc 9476 2dbd ffd5 93bc 1e14 dd3c
000003a0: b070 8a3c aca0 2d3c a016 8abc 261d 32bd
000003b0: 8b55 11bd f1f1 91bc 72df 683c 84b0 3dbd
000003c0: 7351 f1bc 94a9 e63c 4dfc 733c 505a 813c
000003d0: 20b7 29bc 6895 63ba eaf4 fdbc 8977 533b
000003e0: 70ef 063a a8f6 bcbc f884 2abd 839f 79bc
000003f0: c0b0 8c3c 0112 923c ecbc 083c 00eb 00bd
-0.015080818 0.022579871 0.026267182 -0.0159153 0.0072791353 0.027092502 -0.020752158 0.011760754
-0.008436945 -0.019472975 -0.0009271255 -0.020933315 -0.042496666 -0.023153014 -0.023082133 -0.015142937
0.03945123 0.014835351 -0.043581136 -0.034015197 -0.0052692327 -0.0030629481 -0.018764807 -0.018415958
-0.0298079 -0.02685686 -0.048084937 -0.012665867 0.019796472 -0.0018424786 0.019367266 -0.035124946
0.0155205885 -0.018965673 -0.0012099944 -0.02022867 -0.027891887 -0.015801094 -0.00487159 0.042710163
0.010506335 -0.024740867 -0.017617015 -0.021348232 -0.013566932 0.010774419 -0.023743793 0.034405127
0.011666243 -0.0004984772 0.024223652 -0.010101683 -0.0061036274 -0.010424397 -0.0051268656 -0.019064646
0.014294485 -0.0052618436 -0.037999284 -0.0062430324 -0.029719613 0.020738807 -0.014768507 0.006330659
-0.021126881 -0.017935555 0.027319064 0.004748408 0.008581121 0.035670605 0.013595537 0.021425977
0.05145351 -0.010039077 0.024060726 -0.0023257888 -0.017810263 -0.018316247 -0.0014289102 0.025383918
0.0046381457 0.0486104 -0.046586156 -0.016299836 -0.015613004 -0.031995803 -0.027515892 0.03587156
0.019940982 -0.008789622 -0.016552018 -0.003996383 -0.050339013 -0.028129127 -0.022555523 -0.009303147
-0.023823682 -9.160326e-05 -0.027120285 0.005794029 0.012116938 0.0122957425 -0.0008907117 -0.03724162
-0.026744066 -0.009640833 0.01673977 0.0076127932 -0.002403152 -0.0062348684 -0.009328044 0.049146842
-0.023183675 0.0012283007 -0.03340743 -0.023117922 0.01641297 -0.0020285388 -0.017006123 -0.013678761
0.0035905945 -0.0034043547 0.018137248 -0.0155173205 -0.012667944 -0.02668247 -0.020678332 0.02160889
-0.037190042 -0.02993766 -0.030831525 0.025348043 -0.028244324 -0.0050365617 -0.024905005 -0.038035225
0.008143719 0.014918682 -0.022891823 0.014318964 0.03632466 -0.017671024 -0.00917934 0.021706918
-0.047682308 -0.041727845 -0.008885986 0.0071218703 -0.012480485 -0.05357517 0.009165201 -0.029444907
0.008783983 0.022410825 0.045510136 -0.00022088685 -0.004349846 -0.023524906 -0.010701336 0.008696463
-0.010401125 -0.021206958 -0.008310173 -0.03894617 -0.051356655 -0.011344875 -0.0048714294 -0.017131718
-0.0383418 0.007987064 0.029208452 0.0037306696 0.0026774348 0.017828519 -0.034226265 -0.065883264
-0.010616057 -0.05131229 -0.016113356 -0.00509339 0.0014438044 -0.012209721 -0.02118261 -0.001310337
-0.0034536233 0.0024423064 -0.022639422 -0.036795456 -0.00498773 -0.04458136 -0.025865454 -0.019741869
-0.029470723 -0.021242853 -0.058258668 -0.01918514 0.001163219 -0.015948167 -0.03248098 0.007180082
-0.04582995 -0.026768018 0.008994075 -0.027092233 0.0039120354 -0.043968406 -0.021095334 -0.021185633
0.004190115 -0.044497892 -0.00069948286 -0.01009702 0.009325168 0.03092744 0.019477889 -0.05066227
-0.025716 0.02758251 0.021161268 -0.025333084 0.017260922 0.013231824 0.016372312 0.0034591616
0.014778761 -0.010123416 0.018984333 -0.001821333 -0.012640305 -0.042349413 -0.018046377 0.026987132
0.016899437 0.010597389 -0.016856492 -0.04348483 -0.03548197 -0.017815562 0.01421343 -0.046310917
-0.029457783 0.028157033 0.014891696 0.015790135 -0.010358602 -0.0008681626 -0.031000573 0.0032267293
0.00051473733 -0.023066834 -0.041630715 -0.015235784 0.017174125 0.01783085 0.008345824 -0.031474113

action_model._discrete_distribution.branches.2.bias f4 [3]
00000000: ea96 183d e246 db3b f960 3bbc
0.037253298 0.0066917995 -0.011436694
