results/Hard/Player/Player-41878.onnx (onnx, 159076 bytes, 17 tensors)

discrete_act_size_vector f4 [1, 4]
0	0x40400000	3.0
1	0x40000000	2.0
2	0x40400000	3.0
3	0x40400000	3.0

network_body.observation_encoder.processors.0.normalizer.running_mean f4 [14]
0	0xbff53c7a	-1.9159081
1	0xc0de342d	-6.943869
2	0x404900cb	3.1406734
3	0x41341bec	11.256817
4	0x40842815	4.129893
5	0x40ae9a85	5.4563622
6	0x40bfc91c	5.9932995
7	0xbf7b3830	-0.9813261
8	0xc0b5a6bb	-5.676603
9	0x400d1535	2.2044194
10	0x3d8d87d9	0.069106765
11	0xbe8eb015	-0.27868715
12	0xbddd9c6d	-0.108208515
13	0x3b9b6864	0.004742669

network_body._body_endoder.seq_layers.0.weight f4 [128, 14]
0	0x3e730769	0.23733296
1	0x3e07b85b	0.1325392
2	0x3e771b2c	0.24131459
3	0xbdf1c90d	-0.118059255
4	0x3eb713fa	0.35757428
5	0xbe8dde85	-0.2770883
6	0xbd1e2cf3	-0.038617086
7	0xbeccc8dd	-0.39996997
8	0xbd314800	-0.043281555
9	0xbf2f67a5	-0.68517524
10	0x3e3fcd50	0.18730664
11	0xbd0045ae	-0.03131645
12	0xbd53c46a	-0.051700987
13	0x3da03a59	0.07823629
14	0x3e9cb60b	0.30607638
15	0xbd691eed	-0.05691426
16	0xbe505ddf	-0.20348309
17	0x3e8afa4a	0.2714408
18	0x3e31e9db	0.17374365
19	0x3d3f0ace	0.046641164
20	0xbf125941	-0.5716744
21	0xbdc18ab9	-0.09450287
22	0x3e7058f5	0.23471434
23	0x3d08d3a7	0.033404972
24	0x3e9c679a	0.30547792
25	0xbea8a5b3	-0.32938918
26	0x3e0b7465	0.1361862
27	0x3de257ae	0.1105188
28	0xbef89a8a	-0.48555404
29	0x3dc8e414	0.098091274
30	0x3d93557d	0.0719404
31	0x3e1fe589	0.15614904
32	0x3e9c862c	0.30571115
33	0xbe2d15d9	-0.16902865
34	0xbf4bd675	-0.7962411
35	0xbf305cae	-0.6889142
36	0xbbd201ba	-0.006408897
37	0xbe7c04df	-0.24611233
38	0x3ead06cc	0.33794248
39	0x3e82500c	0.25451696
40	0xbd80ba04	-0.0628548
41	0xbe10f006	-0.14154062
42	0x3d720703	0.05908872
43	0x3d931229	0.07181198
44	0xbf0c9e7f	-0.54929346
45	0x3dcd0f78	0.10012716
46	0xbe25a3e8	-0.16175807
47	0x3f1f4960	0.62221336
48	0xbe9d450c	-0.3071674
49	0xbdc4439a	-0.095832065
50	0x3b0c77d4	0.0021433728
51	0xbd510b37	-0.051036086
52	0x3eaba298	0.33522487
53	0xbd7277df	-0.05919635
54	0x3a2040b5	0.0006113158
55	0xbe715a13	-0.23569517
56	0x3ddecced	0.1087893
57	0x3e1a97f2	0.15097025
58	0x3e01a127	0.12659131
59	0x3e7e1641	0.24813177
60	0xbec9a770	-0.39385557
61	0xbf209609	-0.62728935
62	0x3e85b240	0.26112556
63	0xbe8fad3c	-0.28061855
64	0x3d85c658	0.06531972
65	0xbf09dce4	-0.5385268
66	0xbd492c37	-0.049114432
67	0xbd262e0b	-0.040571254
68	0x3d2f4ed0	0.04279977
69	0xbe248d2d	-0.1606948
70	0xbef293c7	-0.4737837
71	0x3eaa42da	0.3325413
72	0x3f516c7d	0.81806165
73	0x3e0c593b	0.13705914
74	0xbea4d0fd	-0.32190695
75	0x3cb2c785	0.021823654
76	0xbe0ec877	-0.13943659
77	0x3ed43016	0.41442937
78	0xbf11d33a	-0.5696293
79	0xbf2dc5ff	-0.67880243
80	0x3db63d28	0.088983834
81	0x3e9f73e5	0.31143108
82	0xbe151883	-0.14560132
83	0x3b926c97	0.0044685113
84	0x3db1af55	0.0867602
85	0xbda68944	-0.0813165
86	0xbe6b2d2f	-0.22966455
87	0x3f037521	0.513506
88	0x3c382725	0.0112398015
89	0x3d44ce3c	0.048048243
90	0x3e9f7675	0.31145063
91	0xbe093d8c	-0.13402385
92	0xbddd10bd	-0.10794208
93	0xbf1e51bc	-0.61843467
94	0xbd88bed6	-0.06677024
95	0xbe981e70	-0.29710722
96	0x3de315f6	0.11088173
97	0x3c6ee819	0.014581704
98	0xbe850c4b	-0.2598594
99	0x3e8b9093	0.2725874
100	0xbe4ca5bc	-0.19985098
101	0x3e02f679	0.12789334
102	0xbee514ac	-0.44742334
103	0x3e3340c9	0.17505182
104	0x3e2c5708	0.16830075
105	0xbe866e73	-0.2625614
106	0x3c3dc305	0.011582141
107	0x3e988b36	0.2979371
108	0x3d88bb26	0.06676321
109	0x3d0aff1f	0.03393471
110	0xbd84b846	-0.0648046
111	0x3e9690ca	0.2940734
112	0xbef0e4a9	-0.47049454
113	0xbe7c83b6	-0.24659619
114	0x3eaa05da	0.3320759
115	0xbef614a0	-0.4806261
116	0x3d22a2d2	0.03970606
117	0x3f0753ef	0.5286245
118	0x3cbb610b	0.022873422
119	0x3cd7eb9d	0.026357466
120	0xbe788dcc	-0.24272841
121	0xbeb5bb1c	-0.35494316
122	0x3e67b937	0.22629248
123	0xbde85f28	-0.113462746
124	0xbda142ab	-0.07874044
125	0x3e05e2a5	0.1307474
126	0xbe6942be	-0.22779366
127	0xbec5310d	-0.38513985
128	0xbef34ef8	-0.47521186
129	0x3dbab6a3	0.091168664
130	0xbe920888	-0.28522134
131	0x3f168d91	0.58809763
132	0xbf1441b2	-0.57912743
133	0x3e8b8543	0.27250108
134	0xbe04e558	-0.12978113
135	0x3deaa748	0.114576876
136	0xbead1a33	-0.3380905
137	0x3da9ea69	0.08296663
138	0x3ececc93	0.40390453
139	0xbeafb1e9	-0.34315422
140	0xbbc33913	-0.0059577315
141	0xbf23d568	-0.6399751
142	0xbe24ae29	-0.16082062
143	0xbdc8ec9f	-0.09810757
144	0xbc1f9f9f	-0.0097426465
145	0xbf3dfd45	-0.74214584
146	0x3d3c5f9c	0.045989618
147	0xbf123e30	-0.5712614
148	0x3cbd59cf	0.023114113
149	0x3e4cce67	0.20000611
150	0xbe837ab5	-0.25679556
151	0x3da5cc37	0.080955915
152	0xbcbb07b3	-0.02283082
153	0xbe2e3dec	-0.17015809
154	0xbe999272	-0.2999454
155	0xbe8f3128	-0.2796719
156	0x3ee0c2b9	0.43898562
157	0x3d27da1c	0.04097949
158	0xbef46c50	-0.47738886
159	0xbe8a2706	-0.26982898
160	0xbe437af9	-0.19089879
161	0xbddf2d1c	-0.10897276
162	0x3d8201ce	0.063480005
163	0xbee668da	-0.4500187
164	0x3ec39a6c	0.38203752
165	0x3df31f2e	0.118711814
166	0xbf40ce8b	-0.7531516
167	0x3e0ee079	0.13952817
168	0x3ea5275b	0.32256588
169	0xbf038024	-0.513674
170	0xbe79ba71	-0.24387528
171	0xbe1fdf14	-0.15612441
172	0x3ea41486	0.32046908
173	0xbeaaf2d0	-0.33388376
174	0x3e1773d0	0.14790273
175	0xbdf32d38	-0.11873859
176	0x3d817806	0.06321721
177	0x3f9628a5	1.1731154
178	0xbe563413	-0.20918302
179	0x3e504d4a	0.20341983
180	0x3eeed833	0.46649322
181	0xbefc863c	-0.49321163
182	0x3ed53758	0.41643786
183	0x3e524487	0.20533954
184	0xbea90fcf	-0.33019873
185	0x3e5840a0	0.21118402
186	0x3be95f38	0.0071219467
187	0x3f13a89b	0.57679147
188	0xbf249b4e	-0.64299476
189	0xbf0bb010	-0.54565525
190	0xbdca55b3	-0.09879627
191	0x3eb26294	0.34840834
192	0x3f02ceaa	0.51096594
193	0xbf1ce028	-0.61279535
194	0x3ee321dc	0.4436177
195	0x3d4a52e8	0.04939547
196	0x3c96f7b1	0.018428655
197	0x3efad22d	0.48988476
198	0xbeb2729f	-0.34853074
199	0xbd9f5f62	-0.07781865
200	0xbea0adcf	-0.31382605
201	0x3ea21f2d	0.3166441
202	0xbe4e3e11	-0.20140864
203	0xbe42bbd5	-0.19016965
204	0x3f3bca80	0.73355865
205	0x3f27c6ec	0.65537906
206	0xbe7091ca	-0.23493114
207	0xbf071548	-0.5276685
208	0x3e83b633	0.25724944
209	0xbe3a934e	-0.18220255
210	0x3d842ac7	0.06453472
211	0xbeb657d0	-0.3561387
212	0x3ecb143e	0.3966388
213	0xbe258be0	-0.1616664
214	0x3e306194	0.17224723
215	0x3e8ba5d4	0.27274954
216	0xbf6e1ebb	-0.9301564
217	0xbb3d5f32	-0.0028895852
218	0x3df6dfbc	0.12054393
219	0xbf2f2d8d	-0.6842888
220	0x3f00ae53	0.50266
221	0x3e01c4e6	0.12672767
222	0xbe82a9ff	-0.25520322
223	0x3f1b3c93	0.60639304
224	0xbe133802	-0.14376834
225	0xbd3e550d	-0.04646783
226	0x3eb3075b	0.3496655
227	0x3e8a6f50	0.2703805
228	0xbcb801fd	-0.022461886
229	0x3d90872c	0.07057032
230	0xbe467ae9	-0.19382824
231	0x3ef9d033	0.48791656
232	0x3f2f611d	0.6850756
233	0x3eb264c1	0.34842494
234	0xbed98a20	-0.42488194
235	0xbdf47fbe	-0.119384274
236	0xbf6b212f	-0.9184751
237	0xbdb7cbb6	-0.08974402
238	0x3eb0a762	0.34502703
239	0xbebea699	-0.3723648
240	0xbea4b175	-0.3216664
241	0x3f13e07e	0.5776442
242	0xbe27c98a	-0.16385475
243	0x3f1759a9	0.59121186
244	0xbef37fc0	-0.47558403
245	0x3ef7a76d	0.48369923
246	0xbe2b046e	-0.16700909
247	0xbe2fd6d7	-0.17171799
248	0xbd7cbc35	-0.061702926
249	0xbeac5280	-0.33656693
250	0xbd2b963f	-0.041891333
251	0xbd8f0cce	-0.06984864
252	0xbc3cf63a	-0.011533314
253	0xbe61613f	-0.22009753
254	0x3c3b6760	0.011438221
255	0xbde40d90	-0.11135399

network_body._body_endoder.seq_layers.0.bias f4 [128]
0	0x3d093693	0.03349931
1	0x3d20947f	0.039204117
2	0x3e4fb644	0.20284373
3	0x3dff6c77	0.1247186
4	0x3d454ae8	0.04816714
5	0x3dfb2d0e	0.12264453
6	0x3d0a6cad	0.033795048
7	0x3d441f9a	0.0478817
8	0x3cefe2a0	0.029282868
9	0x3cca1de5	0.024672458
10	0x3d0b1a67	0.033960726
11	0x3e236666	0.1595703
12	0x3e5dc7e9	0.21658291
13	0x3d05e192	0.032685824
14	0xbcc61299	-0.02417879
15	0x3da98f2a	0.082792595
16	0x3d87b964	0.06627157
17	0x3d9a35f8	0.07529825
18	0xbafaacd5	-0.0019124994
19	0x3d3c012e	0.045899563
20	0x3cd8305b	0.026390245
21	0x3e043f7c	0.12914842
22	0x3dc7948a	0.097451285
23	0x3dd45856	0.10368411
24	0x3e22db17	0.15903889
25	0x3e357685	0.17720993
26	0xbd2890db	-0.04115377
27	0x3d2e9c4b	0.04262952
28	0x3d056777	0.032569375
29	0xbd3d097a	-0.046151616
30	0x3d8d5ac1	0.069020756
31	0xbd96cff9	-0.073638864
32	0xbdf9439b	-0.12171098
33	0x3cd4adc1	0.025961759
34	0x3af2d7c3	0.0018527437
35	0x3d424a34	0.047434047
36	0xbdd8dac8	-0.10588604
37	0x3e672a3c	0.22574705
38	0xbd90f3a9	-0.070777245
39	0xbdb5d3bc	-0.08878276
40	0xbb4acf76	-0.003094641
41	0x3d1bf84f	0.038078602
42	0x3e2eb564	0.17061383
43	0x3db5db4d	0.08879719
44	0x3e0076de	0.12545344
45	0x3d315397	0.043292608
46	0x3d89f32f	0.06735837
47	0x3d3bf560	0.045888305
48	0xbc8e535c	-0.017373733
49	0xbe0d927f	-0.13825415
50	0x38d30360	0.00010061893
51	0x3c911b08	0.017713085
52	0x3e2a540a	0.16633621
53	0xbc919d2d	-0.017775143
54	0x3c855b4e	0.016278889
55	0x3cea8aff	0.028630732
56	0xbc04c5e1	-0.008103819
57	0x3c478994	0.012178797
58	0x3c778777	0.015107981
59	0xbd381566	-0.044942282
60	0xbdb02d64	-0.086024076
61	0x3cffb0b8	0.031212196
62	0xbda3641b	-0.07978078
63	0x3e2b1175	0.16705878
64	0x3d1d7b6d	0.038447786
65	0x3da9ff48	0.08300644
66	0x3d13a224	0.0360433
67	0x3ddb6c60	0.1071403
68	0xbc83d73e	-0.016093846
69	0xbbd74beb	-0.0065703294
70	0xbd93063f	-0.07178926
71	0x3c365052	0.011127548
72	0x3d8345ff	0.06409835
73	0x3d84ef25	0.06490926
74	0x3cefc3ff	0.029268263
75	0x3d3b483d	0.04572319
76	0x3dc2887d	0.09498689
77	0x3d3b7a1a	0.045770742
78	0x3d874336	0.06604616
79	0x3db001cb	0.08594092
80	0xba963fc6	-0.0011463098
81	0xbc5fd9c4	-0.013662759
82	0x3de044b0	0.10950601
83	0x3ddc1ad4	0.107473046
84	0x3e1f5b8f	0.1556227
85	0x3cfd4d1c	0.030920558
86	0x3b71ed7b	0.003691523
87	0x3db50359	0.08838529
88	0x3d23aa5d	0.039957393
89	0x3d6cc900	0.057808876
90	0x3d892670	0.066967845
91	0x3dcd217e	0.10016154
92	0x3d9271a9	0.07150585
93	0x3d9cb11d	0.07650969
94	0x3dbd2bff	0.09236907
95	0xbc1b5035	-0.009479572
96	0x3dcf200b	0.101135336
97	0xbd15ca03	-0.036569607
98	0x3c2e42be	0.01063603
99	0xbd1206e4	-0.035651103
100	0x3d0f948c	0.035053775
101	0xbe49eebf	-0.1971998
102	0xbc4ec43f	-0.012620031
103	0xbd6402fe	-0.055666916
104	0x3b87356d	0.004126242
105	0x3d8b7660	0.068096876
106	0x3e23506a	0.15948644
107	0x3e0e40fa	0.13891974
108	0x3d8c7944	0.06859067
109	0x3d12af10	0.035811484
110	0xbda5418c	-0.08069143
111	0x3d0ee5ee	0.034887247
112	0x3e07541b	0.13215677
113	0xbc297880	-0.010343671
114	0x3e1d366c	0.15352792
115	0x3e2ffff6	0.17187485
116	0x3d85525e	0.06509851
117	0x3d75e1db	0.060029846
118	0x3d43b621	0.047781114
119	0x3d410aa3	0.047129285
120	0x3dc9099c	0.09816286
121	0x3d7c0631	0.061529342
122	0x3c15ad13	0.009135502
123	0x3dd8c06c	0.105835766
124	0x3dfc8a1e	0.12331031
125	0x3ddda7d2	0.10823025
126	0x3d166c7f	0.036724564
127	0x3dbbbf21	0.09167314

network_body._body_endoder.seq_layers.2.weight f4 [128, 128]
0	0xbe0c8ff6	-0.13726792
1	0xbdc46b94	-0.095908314
2	0xbcc547ef	-0.024082152
3	0x3e00daf5	0.12583525
4	0x3df2d3b4	0.118567854
5	0x3e81be9e	0.25340742
6	0xbcb86ede	-0.022513803
7	0x3ca34167	0.019928647
8	0x3d7dba83	0.06194545
9	0x3dcb21ea	0.09918578
10	0xbdba93cb	-0.091102205
11	0xbd0f3a6e	-0.034967832
12	0xbe6b8724	-0.23000771
13	0xbd947cc5	-0.072503604
14	0x3e8f3e6f	0.2797732
15	0x3e4430f3	0.19159298
16	0x3cb4fee5	0.0220942
17	0x3e908b14	0.28231108
18	0xbe19e1eb	-0.15027587
19	0xbdf83766	-0.121199414
20	0x3e185c6c	0.14879006
21	0x3e11dac7	0.14243613
22	0x3e95df9e	0.2927217
23	0x3d74fa4d	0.059809018
24	0xbce08a2d	-0.027409637
25	0x3c1b5e1c	0.009482887
26	0xbe2eb19e	-0.17059943
27	0xbd5424d9	-0.051792953
28	0xbdb50e1e	-0.08840583
29	0xbd0c3bae	-0.034236602
30	0xbde3fc41	-0.11132098
31	0xbd395ab3	-0.045252513
32	0x3d36f048	0.044662744
33	0xbc01d6ce	-0.007924749
34	0xbe6e2832	-0.23257521
35	0x3d5ba970	0.053628385
36	0x3d04f66e	0.032461576
37	0x3d41b6b1	0.04729337
38	0x3c14edf1	0.009089933
39	0x3e1dad8d	0.15398236
40	0x3e4e5774	0.20150548
41	0xbdfad122	-0.1224692
42	0x3d7df437	0.06200048
43	0x3e38fce9	0.18065228
44	0x3d6362b3	0.05551405
45	0xbe3e12c3	-0.18561845
46	0xbeacc0bd	-0.33740798
47	0xbe48d3c9	-0.1961204
48	0x3ce7852b	0.028261742
49	0x3e3c02c2	0.18360427
50	0xbe30fbb0	-0.17283511
51	0x3dbf4507	0.09339338
52	0x3e0b0142	0.13574699
53	0x3e1773fc	0.14790338
54	0xbdef449c	-0.11683008
55	0x3de5bd76	0.112177774
56	0xbd83349a	-0.06406517
57	0xbb9bee38	-0.0047586225
58	0xbe1c5167	-0.15265428
59	0xbe1b82a4	-0.15186554
60	0xbe75d7f3	-0.2400816
61	0x3d9b6ed3	0.075894974
62	0x3d6ca82f	0.05777758
63	0xbd45e4e4	-0.04831399
64	0x3e5e06c2	0.21682265
65	0xbd7851b5	-0.060624797
66	0xbc8ccfa3	-0.017188853
67	0xbe65b472	-0.22432116
68	0x3da2cc81	0.07949162
69	0xbd423afc	-0.047419533
70	0x3e79846f	0.24366926
71	0xbdffb8e9	-0.12486441
72	0xbdca9f69	-0.09893686
73	0x3bd57b9d	0.00651498
74	0x3e958e16	0.29209965
75	0x3e0dc5a5	0.13844927
76	0x3db25c11	0.087089665
77	0x3e4f2942	0.20230582
78	0xbe09668a	-0.13418022
79	0x3dcf2931	0.101152785
80	0xbd905747	-0.07047897
81	0xbc167c91	-0.009184972
82	0xbddeaf6e	-0.10873304
83	0x3c4962c6	0.012291616
84	0xbd83d10b	-0.06436356
85	0x3b8c5cd8	0.004283529
86	0xbda11100	-0.078645706
87	0x3d43df08	0.04782012
88	0xbd86421b	-0.06555577
89	0xbda1eb39	-0.07906193
90	0x3e5a3b7c	0.21311754
91	0xbd40237e	-0.046908848
92	0xbe8280e1	-0.25488952
93	0xbbb5006b	-0.0055237315
94	0x3d970f7b	0.073759995
95	0x3a746ece	0.00093243725
96	0x3dd1eacc	0.10249862
97	0xbe81ce4d	-0.25352708
98	0xbe423254	-0.18964511
99	0xbc854c53	-0.016271746
100	0xbea7103d	-0.32629576
101	0x3c2aaa8a	0.010416636
102	0x3e031c34	0.12803727
103	0xbdc7fca2	-0.09764983
104	0xbdb7e56c	-0.089793056
105	0xbe5971ec	-0.21234864
106	0xbe6097c4	-0.21932894
107	0x3d8d80cc	0.06909332
108	0x3c87a837	0.016559703
109	0x3ddc2748	0.1074968
110	0x3bd6392e	0.006537578
111	0xbde5e468	-0.11225206
112	0x3e0ceb6f	0.13761686
113	0x3eadc4e6	0.33939284
114	0x3db7c128	0.089723885
115	0xbd9118a7	-0.0708478
116	0x3e91c043	0.28466997
117	0xba0b47fc	-0.00053131557
118	0x3c179cd8	0.009253703
119	0x3b14b45a	0.0022690506
120	0x3df80589	0.12110431
121	0xbe4c9e5e	-0.19982287
122	0x3e0515cf	0.129966
123	0x3cf147d0	0.029453188
124	0x3b48b97b	0.0030628133
125	0x3d90455b	0.070444785
126	0x3d088b7a	0.03333614
127	0x3de468d0	0.11152804
128	0x3e60b5d0	0.21944356
129	0xbb83b4c9	-0.004019354
130	0x3de6ace0	0.11263442
131	0xbe0c01c3	-0.13672547
132	0x3e05352a	0.13008562
133	0xbe3e60e7	-0.18591653
134	0x3e17388d	0.14767666
135	0x3d062d0a	0.032757796
136	0xbe0c53cb	-0.1370384
137	0xbd517709	-0.05113891
138	0x3e7ceb66	0.24699172
139	0xbe29f0bb	-0.16595738
140	0x3e89dfa6	0.26928443
141	0x3c3975dc	0.011319604
142	0x3be78eef	0.0070665996
143	0xbdd9664c	-0.10615215
144	0xbe3f312d	-0.18671103
145	0xbe0ff1f5	-0.14057143
146	0x3e443d60	0.19164038
147	0xbdb1f272	-0.08688821
148	0xbe92688f	-0.28595397
149	0xbe00d9f4	-0.12583143
150	0xbe50cd9b	-0.20390932
151	0x3dc27ded	0.09496675
152	0x3e8dfc43	0.27731523
153	0xbdd67c8f	-0.104729764
154	0xbbda6c24	-0.0066657234
155	0xbd3154d3	-0.043293785
156	0x3e85ae99	0.2610977
157	0x3d915d5b	0.07097884
158	0x3c4ad106	0.012378937
159	0x3e08d733	0.13363342
160	0xbeb9e123	-0.36304578
161	0x3e4d1272	0.20026568
162	0x3dc3851a	0.095468715
163	0xbe0374df	-0.12837552
164	0x3e21e723	0.15810828
165	0x3c29107c	0.010318872
166	0xbd9c49ee	-0.076312885
167	0xbdc50ba8	-0.09621364
168	0xbe95f12a	-0.29285556
169	0x3dfc3577	0.12314885
170	0xbd26aa36	-0.04068967
171	0xbea853f8	-0.32876563
172	0xbe90ab87	-0.28255865
173	0x3d543ca3	0.05181564
174	0x3d9245f0	0.07142246
175	0x3e78af73	0.24285679
176	0x3ac32dd3	0.0014890976
177	0xbdab992f	-0.08378827
178	0x3ddbec05	0.107383765
179	0xbe9d1d75	-0.30686536
180	0x3b73749c	0.0037148362
181	0x3e4a7be0	0.19773817
182	0xbc9b1018	-0.018928573
183	0xbb60e933	-0.0034318685
184	0x3e1ce50b	0.15321748
185	0x3d1f9616	0.038961492
186	0x3e1c0eeb	0.15240066
187	0x3dfd40b6	0.12365858
188	0x3e9f7cfa	0.31150037
189	0x3d822f59	0.06356687
190	0x3e007447	0.12544356
191	0x3d90cad7	0.07069939
192	0x3e1d1b43	0.15342431
193	0x3dbf533b	0.09342047
194	0xbe76c5ef	-0.24098943
195	0xbc604afa	-0.013689751
196	0xbdcabd31	-0.09899367
197	0xbdd8ff69	-0.105955906
198	0xbdc1b021	-0.09457422
199	0x3e61d323	0.22053199
200	0xbe1c831d	-0.15284391
201	0x3e04fa27	0.1298605
202	0xbe21ef6d	-0.1581399
203	0xbda665fd	-0.081249215
204	0xbe31822b	-0.17334811
205	0xbe2078ad	-0.15671034
206	0x3e3d756f	0.18501829
207	0xbd9a7dc0	-0.07543516
208	0x3da91960	0.08256793
209	0xbd5d9dfb	-0.05410574
210	0x3d517b50	0.05114299
211	0xbe42192c	-0.18954915
212	0xbc944293	-0.018098151
213	0x3dd5e7d3	0.104446076
214	0x3dcc00a9	0.099610634
215	0x3e2e8a8a	0.17045036
216	0x3deab554	0.11460367
217	0x3d8b4c53	0.06801667
218	0xbc17ed0c	-0.009272825
219	0xbc1c7954	-0.009550411
220	0x3e14f548	0.14546692
221	0xbe169775	-0.14706214
222	0x3e311bb5	0.17295726
223	0xbe41b25b	-0.18915693
224	0xbe249744	-0.16073328
225	0x3de13d88	0.10998064
226	0x3e631a54	0.22178012
227	0xbd23c5dc	-0.039983615
228	0x3d5409b2	0.05176706
229	0xbd43bb84	-0.04778625
230	0x3ceefc5a	0.029173065
231	0x3e833c18	0.25631785
232	0x3d83291d	0.06404326
233	0xbe1b5c15	-0.15171845
234	0x3e7b1ee8	0.24523509
235	0xbb80ac0c	-0.0039267596
236	0xbc86ecd1	-0.016470345
237	0x3e04884e	0.12942621
238	0xbd9b913f	-0.07596063
239	0xbe1310dd	-0.14361902
240	0xbe8c97fa	-0.274597
241	0xbe89f207	-0.26942465
242	0xbdafbdb3	-0.08581104
243	0xbe1de4ec	-0.15419358
244	0x3d334ff8	0.043777436
245	0x3c67a325	0.014138018
246	0xbd00761d	-0.03136264
247	0xbd7eef3f	-0.06223988
248	0xbdccfc7b	-0.10009094
249	0x3d46e2d8	0.04855618
250	0xbc29e9a9	-0.01037065
251	0x3d315e91	0.043303076
252	0xbce8ecbb	-0.028433194
253	0xbe54c52d	-0.20778342
254	0xbe1a000b	-0.15039079
255	0xbe5aef8d	-0.21380444

network_body._body_endoder.seq_layers.2.bias f4 [128]
0	0x3cb50401	0.022096636
1	0xbbba2bd6	-0.005681495
2	0x3c95d6e3	0.018290943
3	0xbd52e549	-0.051488195
4	0xbda194f6	-0.0788974
5	0x3b238ee6	0.0024957
6	0xbdd542d6	-0.104131386
7	0x3d180f58	0.037124008
8	0x3c729c5c	0.014807787
9	0x3cf1624b	0.029465815
10	0xbd10bfae	-0.03533905
11	0x3de26ecf	0.11056291
12	0x3d127e9a	0.035765268
13	0x3d59c707	0.053168323
14	0x3db4c6f7	0.08827012
15	0xbc18b119	-0.009319567
16	0xbc5e3b16	-0.013563892
17	0x3dd755b6	0.10514395
18	0xbd1b3531	-0.037892524
19	0x3d273c83	0.040829193
20	0x3d734aaa	0.059397377
21	0xbca2c3e0	-0.019868791
22	0x3d2fefd2	0.04295332
23	0xbd25f65a	-0.040518142
24	0x3d072ff2	0.03300471
25	0xbd98bfd7	-0.074584655
26	0xbd02402d	-0.031799484
27	0xbc499b36	-0.012305072
28	0xbd318b6c	-0.043345854
29	0x3ca341f4	0.01992891
30	0x3d9ac6bb	0.07557436
31	0x3e0e8e89	0.1392156
32	0x3d46752b	0.048451584
33	0x3de79acd	0.11308823
34	0xbcb2ddb5	-0.021834234
35	0x3de0c3ee	0.109748706
36	0x3b80ef3b	0.0039347685
37	0xbd7b4135	-0.061341483
38	0x3cb5bee2	0.022185747
39	0x3d6227f3	0.05521388
40	0x3e009646	0.12557325
41	0xbd8f873f	-0.07008218
42	0xbd887e83	-0.06664755
43	0x3e1bb34f	0.1520512
44	0xbad413ed	-0.0016180255
45	0x3c938c4c	0.018011235
46	0xbc358b90	-0.011080638
47	0x3d01616c	0.03158705
48	0x3d4b15dc	0.049581394
49	0x3b895802	0.0041913996
50	0xb9eb88ab	-0.00044924518
51	0x3c6dabcc	0.014506292
52	0x3db5344e	0.08847867
53	0xbc5c7b0c	-0.013457071
54	0xbdad8474	-0.08472529
55	0x3dcefd3f	0.101068966
56	0x3d957c23	0.07299068
57	0x3cfbcada	0.030736376
58	0xbd5a9031	-0.053360168
59	0x3cbac646	0.022799622
60	0x3d570be3	0.05250157
61	0x3c17459c	0.009232905
62	0x3d43139c	0.047626123
63	0xbc2e6042	-0.010643067
64	0x3c002aed	0.007822734
65	0x3daa2f2d	0.08309779
66	0x3d4aa98b	0.049478095
67	0xbcc4a74b	-0.024005553
68	0xbd9cf79c	-0.07664415
69	0x3d772bcf	0.060344514
70	0x3c5ee3b4	0.013604093
71	0x3db1dee4	0.08685091
72	0xbc8d7720	-0.017268717
73	0xbd004313	-0.031313967
74	0xbdcd2be2	-0.100181356
75	0xbd0ba0c8	-0.03408888
76	0x3cef8f7a	0.02924322
77	0x3d119779	0.035544846
78	0xbdc748d2	-0.09730686
79	0xbd654dc6	-0.055982374
80	0x3cd4d231	0.025979133
81	0x3c442619	0.011971974
82	0xbd80fac6	-0.06297831
83	0x3c949a16	0.01813988
84	0xbd879b4e	-0.06621419
85	0x3d488d72	0.048963018
86	0x3c86e934	0.016468622
87	0x3de784e6	0.11304645
88	0xbd18914e	-0.03724795
89	0x3d2fdd70	0.04293579
90	0xbab836df	-0.0014054439
91	0xbd96bdd2	-0.07360424
92	0xbab0a420	-0.0013476647
93	0x3d2dd3d6	0.04243835
94	0xbccefd2c	-0.025267206
95	0x3d2e835c	0.042605743
96	0xbcf416b3	-0.02979598
97	0x3c4fe706	0.012689358
98	0x3d38d563	0.045125376
99	0xbc68abbb	-0.0142011
100	0x3d6880cc	0.056763455
101	0xbb911294	-0.0044272635
102	0xbcc3b0f7	-0.023888094
103	0xbd191722	-0.037375577
104	0xbdc11ef6	-0.094297335
105	0x3c1fca45	0.009752815
106	0x3c021ed2	0.007941918
107	0x3cf8c0cf	0.030365376
108	0x3d8af159	0.06784315
109	0x3b9faf8f	0.004873223
110	0x3c3f43c1	0.011673869
111	0x3cf00042	0.029296998
112	0xbc9b3c37	-0.018949611
113	0x3dbe5e92	0.092953816
114	0x3d65aba1	0.05607188
115	0xbda091e3	-0.07840326
116	0xbd839457	-0.06424778
117	0xbd944698	-0.07240027
118	0x3d176b0c	0.036967322
119	0xbd1e1d48	-0.038602144
120	0x3d8757cb	0.06608542
121	0xbd506061	-0.050873164
122	0xbc3fd4ef	-0.011708482
123	0xbdeae982	-0.11470319
124	0x3c53bbdb	0.012923206
125	0x3c7a77b7	0.015287331
126	0x3d0ebf36	0.03485032
127	0x3d7c6e94	0.061628893

network_body._body_endoder.seq_layers.4.weight f4 [128, 128]
0	0xbdb5bfcf	-0.08874475
1	0x3da060ad	0.078309394
2	0xbddea527	-0.10871344
3	0x3def3f05	0.11681942
4	0xbe3af9c6	-0.18259344
5	0x3e4b3905	0.1984597
6	0xbe5ae014	-0.21374542
7	0xbd4fe1c3	-0.050752413
8	0x3ea603da	0.32424814
9	0x3e11563e	0.14193055
10	0x3ddabb50	0.10680258
11	0x3b519d0b	0.0031984474
12	0x3dc7a39f	0.09748005
13	0xbebec542	-0.3725987
14	0xbdaef7b7	-0.085433416
15	0x3cc3fc47	0.023924006
16	0x3d08ad04	0.033368126
17	0x3ca48eb7	0.020087583
18	0xbd5f3672	-0.054495282
19	0x3e0009c1	0.12503721
20	0x3df24f9c	0.118315905
21	0xbd22bfcf	-0.039733704
22	0x3e5768fa	0.21036139
23	0x3dd4aed2	0.10384907
24	0x3d816bd1	0.063193925
25	0x3cb11ea4	0.021621056
26	0x3d2500d2	0.040283985
27	0x3d28263d	0.041052092
28	0x3dfcd617	0.12345522
29	0x3c8c356c	0.017115317
30	0x3e339e44	0.17540842
31	0xbd81eb08	-0.06343657
32	0xbe789a21	-0.24277546
33	0xbc084017	-0.008316061
34	0xbe188598	-0.14894712
35	0x3e263d81	0.162344
36	0x3df85085	0.12124733
37	0xbb2e03ad	-0.0026552484
38	0xbe470100	-0.19433975
39	0xbec027d2	-0.3753038
40	0x3db3820b	0.08765038
41	0xbe742e23	-0.23845725
42	0xbe5dda72	-0.21665362
43	0x3ca8ade8	0.020590737
44	0xbc83e3ca	-0.01609983
45	0x3e0cb7da	0.13742009
46	0xbc87bc46	-0.016569268
47	0xbe741905	-0.23837669
48	0xbe3a880b	-0.18215959
49	0xbb82ef09	-0.0039957804
50	0xbdc943ec	-0.09827408
51	0xbd23bfaa	-0.039977707
52	0x3d4e5b4e	0.050380044
53	0xbbc3e57b	-0.005978284
54	0xbe547264	-0.20746762
55	0x3e7d8873	0.24759082
56	0x3c897c11	0.016782792
57	0xbd7b1f6a	-0.061309256
58	0xbdb24b54	-0.08705774
59	0xbe716e11	-0.23577143
60	0xbe6810bd	-0.22662635
61	0xbd97aba1	-0.074057825
62	0xbca74f9b	-0.020423701
63	0x3def0224	0.1167033
64	0x3d1b0a63	0.037851702
65	0xbcaa2508	-0.020769611
66	0x3e2530d0	0.16131902
67	0x3d1a0253	0.037599873
68	0x3de796a1	0.11308027
69	0x3d5f6e95	0.05454882
70	0x3dde444f	0.108528726
71	0xbdf9b731	-0.12193144
72	0xbe0b83b1	-0.13624455
73	0xbea01e83	-0.3127328
74	0x3d9fe9e0	0.0780828
75	0xbd991fd0	-0.07476771
76	0xbe44cfc7	-0.19219886
77	0x3e0f4dc9	0.13994516
78	0xbe3b8789	-0.18313421
79	0x3dca36c2	0.098737255
80	0xbe30046a	-0.17189184
81	0x3ce7f531	0.028315159
82	0x3e4cd496	0.2000297
83	0xbd1754f8	-0.036946267
84	0x3b8ff536	0.004393245
85	0x3e042b31	0.12907101
86	0xbc6a931a	-0.014317298
87	0x3c9d1bc6	0.019178282
88	0xbdd6abef	-0.104820125
89	0xbd3b51c1	-0.045732263
90	0xbde4f6f1	-0.11179913
91	0x3e0dc6ee	0.13845417
92	0xbc2b1717	-0.010442517
93	0xbe04437e	-0.12916371
94	0xbe3fe08a	-0.18737999
95	0x3da120fa	0.07867618
96	0xbd14498c	-0.036202952
97	0xbe1f4075	-0.15551932
98	0xbd00604c	-0.031341836
99	0x3db31ef5	0.08746139
100	0xbd26579c	-0.040610895
101	0xbe814cbb	-0.25253853
102	0xbd8cb223	-0.068699144
103	0xbe2df39f	-0.16987465
104	0xbab541cf	-0.0013828817
105	0xbe5c85dd	-0.2153544
106	0x3e6d0ee2	0.23150209
107	0xbe040da9	-0.12895836
108	0x3db0336a	0.086035565
109	0xbe4fb37b	-0.2028331
110	0xbc5988b4	-0.0132772215
111	0xbceeb1a6	-0.029137444
112	0xbd32c7c4	-0.043647543
113	0x3dc8537b	0.09781548
114	0x3ddb1ddc	0.106990546
115	0xbe530123	-0.20605902
116	0xbe3d988d	-0.18515225
117	0xbe206897	-0.15664898
118	0xbe4aa0cb	-0.197879
119	0xbd904db1	-0.070460685
120	0xbd391df2	-0.045194574
121	0xbe255f20	-0.16149569
122	0xbd876eb9	-0.066129155
123	0xbce3cff2	-0.027809117
124	0xbd53013c	-0.05151485
125	0x3dc60a5c	0.09669945
126	0x3e28f012	0.1649783
127	0xbe12c9d3	-0.14334802
128	0xbe23d57e	-0.1599941
129	0xbe09cede	-0.1345782
130	0x3d3cae61	0.04606474
131	0x3e4cfc83	0.200182
132	0xbeb19827	-0.34686396
133	0x3e0e9e7b	0.13927643
134	0x3e072188	0.13196385
135	0x3e00758d	0.12544842
136	0xbdd3f742	-0.10349895
137	0x3c57f115	0.013180037
138	0x3e8f7941	0.28022197
139	0xbd19f0a6	-0.037583016
140	0xbd4c20ca	-0.049835958
141	0x3e4bf5df	0.19918011
142	0xbe81b673	-0.2533451
143	0xbdf17f9c	-0.11791918
144	0x3dde60e8	0.10858327
145	0xbbaf9cb1	-0.0053592552
146	0x3cbd12c1	0.023080232
147	0x3db25ded	0.08709321
148	0xbd4ecb09	-0.0504866
149	0x3ccb0bf6	0.024785977
150	0xbd26bcfe	-0.04070758
151	0xbcd06e02	-0.02544308
152	0x3e94e888	0.29083657
153	0x3e3a19a8	0.1817385
154	0x3e21f3a6	0.15815601
155	0xbd820ed6	-0.06350486
156	0xbcce1240	-0.025155187
157	0xbea1ca39	-0.31599596
158	0x3be962cf	0.0071223746
159	0xbc82cf8c	-0.015968107
160	0x3b81caf1	0.00396096
161	0xbdb225df	-0.086986296
162	0x3d56b08b	0.05241446
163	0xbe896bf8	-0.26840186
164	0xbd54a519	-0.051915262
165	0x3d26e5e2	0.040746577
166	0xbd24e309	-0.04025558
167	0x3e253267	0.16132508
168	0xbb8129eb	-0.0039417646
169	0xbe4c339e	-0.19941565
170	0x3d33d30e	0.04390245
171	0xbc7022d7	-0.014656744
172	0xbcc29f5d	-0.023757631
173	0x3db9704a	0.090546206
174	0x3e039364	0.12849194
175	0x3e12e60c	0.14345568
176	0xbbdfff28	-0.006835837
177	0xbc29cba6	-0.010363495
178	0xbd5881f4	-0.052858308
179	0x3da13ee3	0.07873323
180	0x3e765fcc	0.24059981
181	0x3d83f34c	0.064428896
182	0x3e0d8e0d	0.1382372
183	0xbe13b57a	-0.14424697
184	0x3daf7f30	0.08569181
185	0xbe04c097	-0.12964092
186	0x3cbdff74	0.023193099
187	0xbe81efdf	-0.2537832
188	0xbe36fbda	-0.17869511
189	0xbde9f5d2	-0.1142384
190	0x3c927629	0.017878609
191	0xbc871f7e	-0.016494509
192	0xbd80496b	-0.06264003
193	0xbca77642	-0.020442132
194	0x3dba42b3	0.09094753
195	0xbd4f315b	-0.05058418
196	0xbd114139	-0.03546259
197	0xbd6166ff	-0.055029865
198	0xbdb9480a	-0.090469435
199	0x3e617470	0.22017074
200	0x3d9c4a81	0.07631398
201	0x3dedfba7	0.116202645
202	0x3d29d97f	0.041467186
203	0xbe211a89	-0.15732779
204	0xbee06e32	-0.43834072
205	0xbd5acaf0	-0.053416193
206	0xbd61dd87	-0.055142906
207	0xbe5d3084	-0.21600538
208	0x3e2e3ef1	0.17016198
209	0xbe65fd8e	-0.22460005
210	0xbde2ee5b	-0.11080619
211	0xbd04e5f2	-0.032445855
212	0xbe55f608	-0.20894635
213	0x3e4b4ef6	0.1985434
214	0x3e42a306	0.19007501
215	0x3d8aaa84	0.067708045
216	0xbe6ff1fa	-0.2343215
217	0x3d9ff02f	0.07809483
218	0x3dab54a7	0.083657555
219	0xbd254bcf	-0.0403555
220	0x3bb36972	0.0054752165
221	0xbe189cfc	-0.14903635
222	0xbde5831c	-0.11206648
223	0x3e4e94ca	0.20173946
224	0x3e387250	0.18012357
225	0x3c5c1e42	0.013434948
226	0xbe19c4c0	-0.1501646
227	0x3e3902d6	0.18067488
228	0x3da39e7f	0.07989215
229	0x3d17b121	0.037034158
230	0x3b9cbe9c	0.0047834646
231	0xbe0db195	-0.13837273
232	0x3e661310	0.2246821
233	0xbe27115f	-0.1631522
234	0xbe1b2172	-0.15149477
235	0xbe3af056	-0.18255743
236	0xbe5e4d33	-0.21709137
237	0xbe6caeb3	-0.23113517
238	0xbe24f4ec	-0.16109055
239	0x3c46bc2c	0.012129825
240	0xbe3ec0e3	-0.18628268
241	0xbd1a8238	-0.037721843
242	0xbdc065f1	-0.09394444
243	0x3db4b4ce	0.08823548
244	0xbe2144f5	-0.15748961
245	0x3e29a7ab	0.16567867
246	0xbc075f11	-0.008262412
247	0x3d02c2fb	0.03192423
248	0xbe57a222	-0.21057943
249	0x3e29a6d2	0.16567543
250	0xbea8b33c	-0.32949245
251	0x3d638688	0.05554822
252	0xbdda8344	-0.10669568
253	0x3e1744ef	0.1477239
254	0x3d1f366f	0.03887027
255	0xbd2e4799	-0.04254875

network_body._body_endoder.seq_layers.4.bias f4 [128]
0	0xbcea78aa	-0.02862199
1	0xbdf2e3e7	-0.11859875
2	0x3ad25b41	0.0016048924
3	0xbcf3e3fc	-0.029771797
4	0xbcb7da46	-0.022442948
5	0xbdef91a7	-0.11697703
6	0xbd34555f	-0.04402673
7	0x3b778013	0.0037765547
8	0x3c8f553a	0.017496694
9	0xbccd5a3b	-0.02506744
10	0xbd8d9fbb	-0.06915232
11	0xbe0d6b1c	-0.1381039
12	0x3d15144e	0.036396317
13	0xbbb6e106	-0.005581024
14	0xbdf7a7f0	-0.120925784
15	0xbdfacd23	-0.12246158
16	0xbde4602e	-0.11151157
17	0x3c31dadf	0.010855406
18	0x3d736d92	0.059430666
19	0xbd09242c	-0.03348176
20	0x3d41c74f	0.047309216
21	0xbda54a48	-0.08070809
22	0xbd937009	-0.071991034
23	0xbc9b6f9f	-0.018974124
24	0x3b4db325	0.0031387296
25	0xbd046c13	-0.03232963
26	0x3c579998	0.013159178
27	0x3ca4c607	0.020113958
28	0xbb8ad14b	-0.0042363754
29	0xbcf0bfcb	-0.029388329
30	0x3d08c81b	0.03339396
31	0xbd94f754	-0.072737366
32	0xbd995903	-0.07487681
33	0xbc92a1f7	-0.017899496
34	0x3de44158	0.11145276
35	0xbd338d5d	-0.043835986
36	0xbc460383	-0.012085798
37	0x3c502f93	0.012706655
38	0xbd65adce	-0.056073956
39	0x3ce77ff5	0.028259257
40	0xbd508f4a	-0.0509179
41	0xbce22fe6	-0.02761073
42	0x3d0ea6f9	0.034827206
43	0xbd24f850	-0.04027587
44	0xbe11af88	-0.14227116
45	0xbd3763df	-0.04477298
46	0xbd814311	-0.0631162
47	0xbceed7b9	-0.029155599
48	0x3d261104	0.04054357
49	0xbcb5d9af	-0.022198526
50	0xbb6b60fb	-0.003591596
51	0xbd10e207	-0.035371806
52	0xbcedf0f9	-0.029045569
53	0xbd178abc	-0.03699754
54	0x3a5708e4	0.0008202924
55	0xbd95b1b0	-0.07309282
56	0xbda77ce6	-0.08178119
57	0x3cfb0b69	0.03064509
58	0x3c48d99d	0.012258914
59	0xbdf7c81c	-0.12098715
60	0x3c6c86bf	0.014436423
61	0x3c6e720e	0.01455356
62	0xbdab2ade	-0.08357786
63	0xbde42d44	-0.11141446
64	0xbd857f0c	-0.06518373
65	0xbd8d7068	-0.069062054
66	0xbdf488e8	-0.11940175
67	0xbe032270	-0.12806106
68	0xbd9a7e5d	-0.07543633
69	0xbc89d479	-0.016824948
70	0xbc611ecb	-0.013740252
71	0xbc676997	-0.014124296
72	0xbbc39264	-0.005968379
73	0xbc9bdcc9	-0.019026177
74	0xbc4a4cae	-0.012347383
75	0xbd3ec306	-0.046572708
76	0x3c28c235	0.010300209
77	0x3d2e71d4	0.042589024
78	0xbd9e38d5	-0.077256836
79	0xbd8a4036	-0.067505285
80	0xbd64dd84	-0.055875316
81	0xbd40ec57	-0.04710039
82	0x3bd57ec5	0.0065153562
83	0xbd317afd	-0.04333018
84	0xbd10576e	-0.03523963
85	0x3c75db3d	0.015005884
86	0xbd03335d	-0.032031406
87	0xbd80bacb	-0.06285628
88	0xbc7f3ddc	-0.015578713
89	0xbe15edc5	-0.14641483
90	0xbcd7d7a2	-0.026347939
91	0x3c842de9	0.016135173
92	0x3c5f6fae	0.013637466
93	0xbddd7acc	-0.10814437
94	0xbdfd89bd	-0.12379787
95	0xbd3534a8	-0.04423967
96	0x3d30e590	0.043187678
97	0x3d951b61	0.07280613
98	0x3decf936	0.11570971
99	0xbd010a2e	-0.03150385
100	0xbd8e9cfe	-0.06963538
101	0x3c60ae60	0.013713449
102	0xbc93eaaf	-0.018056242
103	0x3a900d99	0.001099038
104	0xbdff5766	-0.12467842
105	0x3ca4e3c5	0.02012814
106	0xba93f039	-0.0011286802
107	0xbd8a40e0	-0.06750655
108	0xbd849d84	-0.06475356
109	0x3c91bd37	0.01779042
110	0xbc8704ce	-0.016481783
111	0x3c6ba1a0	0.014381796
112	0xbd98d547	-0.074625544
113	0xbdb71784	-0.08940032
114	0x3aaf71f1	0.0013385398
115	0x3ca94364	0.020662017
116	0xbd32f2d9	-0.04368863
117	0xbc982b8f	-0.018575458
118	0xbd8eeda4	-0.0697892
119	0xbe11a075	-0.14221366
120	0xbdc7a790	-0.09748757
121	0xbd995b68	-0.074881375
122	0xbd73bb5d	-0.059504855
123	0xbc0438b7	-0.0080701625
124	0xba9479a9	-0.0011327761
125	0xbdb53b5f	-0.08849215
126	0xba3ea7f7	-0.00072729535
127	0xbc3dd44c	-0.01158626

action_model._discrete_distribution.branches.0.weight f4 [3, 128]
0	0x3dd26175	0.10272495
1	0xbc324861	-0.010881514
2	0xbd46844a	-0.048466004
3	0x3d33b7d3	0.04387648
4	0x3c867453	0.01641289
5	0x3e2e003c	0.16992277
6	0x3cd08d01	0.02545786
7	0x3d37ef72	0.044906087
8	0xbe18bc35	-0.14915545
9	0xbe01c610	-0.12673211
10	0x3dc918ea	0.09819205
11	0x3e027df4	0.1274336
12	0xbdfa0274	-0.12207499
13	0x3da6e059	0.0814826
14	0x3d115384	0.035480037
15	0x3d0a8e9f	0.03382742
16	0x3c33b00b	0.010967265
17	0xbe68032e	-0.22657463
18	0xbd132b9c	-0.03593026
19	0x3dc45c93	0.0958797
20	0xbd91d608	-0.07120901
21	0xbddf8455	-0.10913912
22	0xbc4e19e0	-0.012579411
23	0xbdd17640	-0.102276325
24	0x3bb9d6df	0.0056713666
25	0xbc9ac7af	-0.018894045
26	0x3d0aace3	0.033856284
27	0xbdbe59ee	-0.092944965
28	0x3d5a133f	0.05324101
29	0xbd21b183	-0.03947593
30	0x3d7fb463	0.06242789
31	0xbe03ee13	-0.12883787
32	0xbd4a99a6	-0.049462937
33	0xbdd1020c	-0.102054685
34	0x3c2dc2b9	0.0106055075
35	0xbd636144	-0.05551268
36	0xbd7e6245	-0.062105436
37	0xbd28032b	-0.041018646
38	0xbe253be4	-0.16136128
39	0x3bf69d73	0.0075260936
40	0xbd8912e6	-0.06693058
41	0x3e14cd0f	0.14531349
42	0x3d997d41	0.074945934
43	0x3d40aae8	0.04703799
44	0x3dfc753c	0.12327048
45	0x3e0131eb	0.12616698
46	0x3c8c1201	0.017098429
47	0x3dfb7f04	0.12280086
48	0x3e161898	0.1465782
49	0x3e517c82	0.20457652
50	0x3e0219b2	0.12705114
51	0xbd7c2850	-0.061561882
52	0x3cd914f5	0.02649925
53	0x3e6e0ec2	0.23247817
54	0x3dda3a9d	0.10655711
55	0xbd068a4a	-0.032846726
56	0xbcf85b8e	-0.030317094
57	0x3d9a77e4	0.075423986
58	0xbe14b43b	-0.14521877
59	0xbd963fc1	-0.07336379
60	0x3e1251ef	0.14289068
61	0x3bee1198	0.007265281
62	0xbd3504ba	-0.04419396
63	0x3e7cf132	0.24701384
64	0x3d944778	0.07240194
65	0xbd87c545	-0.06629423
66	0x3de36af6	0.111043856
67	0x3c8e6a57	0.017384691
68	0x3d0a67d0	0.03379041
69	0x3e1de66d	0.15419932
70	0x3d41b0da	0.0472878
71	0x3e0bc701	0.13650133
72	0xbe218f77	-0.15777384
73	0xbe394c2f	-0.18095468
74	0xbd3baba7	-0.045817997
75	0xbc13927d	-0.0090070935
76	0x3c1df7fe	0.0096416455
77	0x3d9ef84c	0.077622026
78	0x3d8bf328	0.06833488
79	0x3e016993	0.1263793
80	0x3da16abb	0.07881685
81	0xbd024bef	-0.031810697
82	0xbe00fced	-0.12596484
83	0xbde50326	-0.11182241
84	0x3d6b6a64	0.05747451
85	0xbce55d39	-0.027998554
86	0x3cb54e19	0.022131966
87	0xbe18b17d	-0.14911456
88	0x39da3060	0.00041616242
89	0xbd754146	-0.059876703
90	0xbdbfb050	-0.09359801
91	0xbccb3385	-0.02480484
92	0xbdf25b03	-0.11833765
93	0x3c08b403	0.008343699
94	0xbb2ccf7e	-0.0026368792
95	0x3c873e2c	0.016509138
96	0xbd61d4b6	-0.055134498
97	0xbd34b8a8	-0.044121414
98	0xbb996f85	-0.0046824836
99	0xbc4d7d5b	-0.012542094
100	0xbbcba468	-0.006214667
101	0xbddd672f	-0.10810696
102	0xbe6417b9	-0.22274674
103	0x3dbbd7da	0.0917203
104	0xbdd03976	-0.1016721
105	0xbde4a4b3	-0.111642264
106	0x3e2e4e7a	0.17022124
107	0x3ac3fff9	0.0014953605
108	0xbd3bb777	-0.045829263
109	0x3e1268a6	0.14297733
110	0x3d84be09	0.06481559
111	0x3d7c23db	0.061557632
112	0x3e4f1c57	0.20225655
113	0x3a83dc11	0.0010060092
114	0x3d61a877	0.0550923
115	0xbcd85790	-0.02640894
116	0x3c431548	0.011906929
117	0xbd993305	-0.07480434
118	0x3dc3e6ce	0.09565507
119	0x3da7e427	0.081978135
120	0x3d7f7706	0.06236937
121	0x3c86d269	0.016457753
122	0x3c12c86f	0.00895892
123	0xbb9e2279	-0.004825887
124	0xbdbeda55	-0.09318987
125	0x3dfdd1c0	0.12393522
126	0xbccf52a8	-0.025307968
127	0xbd8164fe	-0.06318091
128	0x3d7c0f66	0.061538123
129	0x3e3572b8	0.17719543
130	0xbd15437a	-0.036441304
131	0x3dcd9b33	0.100393675
132	0x3c91f89b	0.01781874
133	0xbe67340f	-0.22578453
134	0xbd018c9d	-0.03162824
135	0x3d9292e8	0.071569264
136	0x3df7ec4d	0.12105618
137	0xbbda568c	-0.006663149
138	0x3b8daa6a	0.0043232935
139	0xbe310a2e	-0.1728904
140	0x3dc61cac	0.096734375
141	0x3d9c6d32	0.07638015
142	0xbc983e93	-0.018584525
143	0xbd24886e	-0.040169172
144	0xbd9060a8	-0.07049686
145	0x3de5ea39	0.11226315
146	0x3d0153ec	0.031574175
147	0xbd9af8ff	-0.075670235
148	0x3e20a84d	0.15689202
149	0xbdc306ae	-0.095227584
150	0x39eed786	0.00045555475
151	0x3e270d5e	0.16313693
152	0x3d98b693	0.07456698
153	0xbdb992d5	-0.09061209
154	0x3dedc7e5	0.116103925
155	0xbd4552c5	-0.04817464
156	0xbd048d8b	-0.03236155
157	0x3c764ae1	0.015032501
158	0x3b41311c	0.0029478734
159	0x3db643db	0.08899661
160	0xbd5ac326	-0.053408764
161	0x3dd34918	0.10316676
162	0x3c935679	0.01798557
163	0xbd976b6b	-0.07393535
164	0xbdbd52d2	-0.09244312
165	0x3cb86b7c	0.02251219
166	0x3e67c893	0.22635107
167	0xbe2c3db5	-0.16820414
168	0x3d49e664	0.049291983
169	0x3da14d7b	0.07876106
170	0xbda6c041	-0.08142138
171	0x3d6be539	0.05759165
172	0xbe39145e	-0.18074176
173	0xbd93c40e	-0.07215129
174	0xbd51bd63	-0.051206004
175	0xbc839001	-0.016059877
176	0xbe026aa5	-0.12735994
177	0xbdd75158	-0.10513562
178	0xbe41275d	-0.18862672
179	0x3ddf8880	0.10914707
180	0xbe6ba48f	-0.23011993
181	0xbe465393	-0.19367819
182	0xbd93481e	-0.0719149
183	0x3d5bcfb9	0.053664897
184	0x3becd673	0.007227713
185	0x3e435929	0.1907698
186	0x3d4dc554	0.050237015
187	0xbdef7104	-0.11691478
188	0xbcd76410	-0.02629283
189	0x3dfbb208	0.12289816
190	0x3d81b2b2	0.063329116
191	0xbe813245	-0.25233665
192	0x3dcd492b	0.10023721
193	0x3d8b5cbf	0.06804799
194	0xbe214898	-0.15750349
195	0x3da7f7f2	0.08201589
196	0xbd8686c3	-0.065686725
197	0xbe3d3ed2	-0.18480995
198	0x3cdcfe0b	0.026976606
199	0x3ce7b8be	0.028286334
200	0x3d9984f6	0.074960634
201	0x3d06fd96	0.032956682
202	0xbc80d6dd	-0.015727455
203	0x3e06d9ab	0.13168971
204	0xbc2ecad4	-0.010668475
205	0xbc8058bc	-0.015667312
206	0xbd136d10	-0.035992682
207	0xbd89382a	-0.067001656
208	0xbd4297d7	-0.047508087
209	0xbd8fdce7	-0.07024556
210	0x3e39c0b4	0.18139917
211	0x3d9d8122	0.07690646
212	0xbc8adb9c	-0.016950421
213	0x3cbbf18a	0.022942323
214	0xbd85b847	-0.06529289
215	0x3d80d72a	0.06291039
216	0xbd060844	-0.032722726
217	0x3dabafe3	0.08383157
218	0x3c223d00	0.009902239
219	0x3d07d2ef	0.033160146
220	0x3e0f3a90	0.13987184
221	0xbe0fcdf6	-0.14043412
222	0xbd771bec	-0.060329363
223	0xbdc1d022	-0.09463526
224	0x3aec8b8e	0.0018046962
225	0x3d2b4b1f	0.041819688
226	0x3dc8d905	0.09807018
227	0x3a9742f8	0.0011540344
228	0xbbb1ef2b	-0.0054301224
229	0x3e54ba4e	0.20774195
230	0x3e2329da	0.15933934
231	0x3d05481e	0.03253948
232	0x3db7a0a5	0.089661874
233	0x3a4afc49	0.0007743282
234	0xbdb1e05a	-0.0868537
235	0x3d0501c7	0.032472398
236	0x3da051a1	0.078280695
237	0x3b9b88a1	0.004746512
238	0x3d63a3bb	0.055576067
239	0xbe7ed26b	-0.24884956
240	0xbe5bf0c4	-0.21478564
241	0xbe29d6e9	-0.16585888
242	0xbcdaa590	-0.026690274
243	0xbd860b83	-0.065451644
244	0xbd11c8c0	-0.03559184
245	0xbd798021	-0.06091321
246	0xbdd31bbe	-0.10308026
247	0xbe41ebf1	-0.18937661
248	0x3dbdfefd	0.09277151
249	0xbd517b3c	-0.051142916
250	0x3d462efa	0.048384644
251	0xbd48f920	-0.04906571
252	0x3de52644	0.11188939
253	0xbcc347f3	-0.023838019
254	0x3e614754	0.21999866
255	0x3d5ab727	0.053397324

action_model._discrete_distribution.branches.0.bias f4 [3]
0	0x3ca7ad9a	0.020468522
1	0xbc93bfff	-0.018035887
2	0xbb5fbf0c	-0.0034140972

action_model._discrete_distribution.branches.1.weight f4 [2, 128]
0	0x3b4d7b2e	0.0031353938
1	0x3c5bc4e8	0.013413645
2	0x3dafccae	0.085839614
3	0xbc8b2045	-0.01698316
4	0x3de55ba3	0.11199119
5	0x3cb48a5b	0.02203863
6	0xbe209c5d	-0.15684648
7	0x3e134465	0.14381559
8	0x3d5b32e2	0.053515323
9	0xbd15c4e4	-0.036564723
10	0x3d2e7a0a	0.042596854
11	0xbddd145e	-0.107949
12	0xbd2822b6	-0.041048728
13	0x3e78238f	0.24232315
14	0x3d41bc02	0.04729844
15	0xbd8f8f42	-0.07009746
16	0x3d9bb268	0.07602388
17	0xbd936bb3	-0.07198276
18	0x3d9741a5	0.073855676
19	0x3d8edb5c	0.06975433
20	0x3d6200a8	0.055176407
21	0x3cbc0135	0.022949794
22	0xbdda8354	-0.1066958
23	0xbd847029	-0.06466705
24	0x3d89a434	0.067207724
25	0x3deb3f76	0.114867136
26	0x3dda013d	0.106447674
27	0x3d0d8ce8	0.034558207
28	0xbe3d1606	-0.18465433
29	0xb9bec902	-0.00036389387
30	0xbdbab0fa	-0.09115787
31	0xbc58eda7	-0.0132402545
32	0xbd46eacf	-0.048563775
33	0xbddb220b	-0.106998526
34	0xbd928fca	-0.07156332
35	0x3ad01a22	0.0015876929
36	0x3acc283b	0.0015575954
37	0x3e734f3d	0.23760696
38	0x3d44fcb9	0.048092578
39	0x3db357b3	0.08756962
40	0x3d545645	0.051840086
41	0xbb9c346b	-0.004766991
42	0xbbdca44a	-0.006733452
43	0x3dd74f9d	0.10513232
44	0xbdf0fe73	-0.11767282
45	0xbcd0625a	-0.025437523
46	0x3cbdb14c	0.02315583
47	0x3c1d7c77	0.009612194
48	0x3def9a2c	0.11699328
49	0xbd5910e0	-0.05299461
50	0xbe0f24cd	-0.13978882
51	0xbc658467	-0.014008618
52	0x3d723941	0.059136633
53	0x3e0b2949	0.13589968
54	0xbdfa0629	-0.12208206
55	0x3d1266b2	0.03574247
56	0xbb9fd8df	-0.004878148
57	0xbd4fb852	-0.05071289
58	0xbc155625	-0.009114777
59	0xbdcd8d37	-0.100367
60	0x3be76be2	0.007062421
61	0x3cef08da	0.029179025
62	0x3c859f50	0.016311318
63	0xbc51fbe7	-0.012816406
64	0xbd74ce47	-0.059767034
65	0xbdb5049d	-0.088387705
66	0x3d014aeb	0.031565588
67	0x3ddc032d	0.10742793
68	0x3e64dcd3	0.22349863
69	0xbd008f4c	-0.03138666
70	0xbe1c1537	-0.15242468
71	0x3b134852	0.0022473526
72	0x3e2cea1a	0.16886178
73	0xbb511a46	-0.003190653
74	0x3d8f25c9	0.06989629
75	0x3b9df7f8	0.00482082
76	0xbdfa1d85	-0.12212662
77	0xbcfc4ea9	-0.030799227
78	0xbd162aa5	-0.036661763
79	0x3cfe2bd8	0.031026766
80	0x3da5f8aa	0.081040695
81	0x3d5b5504	0.053547874
82	0xba37de80	-0.0007014051
83	0x3d37bf50	0.044860184
84	0x3dcb0b79	0.099142976
85	0xbd23f6fe	-0.040030472
86	0x3e4dd8e6	0.20102271
87	0xbd64b038	-0.055832118
88	0x3d8950ed	0.067048885
89	0x3cc62302	0.024186615
90	0xbde09723	-0.10966327
91	0xbc8d7b0f	-0.017270593
92	0xbd93d0dc	-0.07217571
93	0xbce8c580	-0.028414488
94	0x3d8bd0f3	0.06826963
95	0xbd00eb25	-0.03147425
96	0xbbee9869	-0.0072813523
97	0xbd63d646	-0.05562427
98	0xbc50f60b	-0.012753974
99	0xbd828865	-0.063736714
100	0xbb77fc69	-0.0037839657
101	0xbe166edf	-0.14690731
102	0x3d0b45e9	0.03400222
103	0xbe025b03	-0.1273003
104	0x3c06543d	0.008198795
105	0xbcdb21ad	-0.026749456
106	0x3ac5b440	0.0015083626
107	0xbddffd40	-0.109369755
108	0xbba722c2	-0.005100579
109	0x3c35c080	0.011093259
110	0x3ab02dc2	0.0013441371
111	0xbd00b08d	-0.031418372
112	0x3e21168e	0.1573126
113	0xbc872602	-0.016497616
114	0x3ce72885	0.028217563
115	0xbc6f4938	-0.014604859
116	0xbe115af5	-0.14194854
117	0x3b95e468	0.0045743473
118	0x3def6892	0.11689867
119	0x3bdb797b	0.006697831
120	0xbca697dc	-0.020336084
121	0x3cd1655c	0.025561027
122	0x3d317ea1	0.043333653
123	0xbe336e23	-0.17522483
124	0x3c6de5e0	0.0145201385
125	0xbdfd85ea	-0.12379058
126	0x3e0c8460	0.13722372
127	0xbd364e8a	-0.044508494
128	0xbb0f4b2c	-0.0021864874
129	0xbcb4f126	-0.022087645
130	0xbd8f6808	-0.07002264
131	0xbb296631	-0.0025848264
132	0xbddb3ae6	-0.10704593
133	0xbcf287c3	-0.029605752
134	0x3e301543	0.1719561
135	0xbe1dbd0b	-0.15404145
136	0xbd428ab3	-0.047495555
137	0x3d41c955	0.047311146
138	0xbd3944e8	-0.04523173
139	0x3ddbd6ea	0.10734351
140	0x3d301098	0.042984575
141	0xbe4fc799	-0.20290984
142	0xbd3bde65	-0.04586639
143	0x3d0db709	0.034598384
144	0xbdac8bdf	-0.08425116
145	0x3d614c66	0.0550045
146	0xbdab9faf	-0.083800666
147	0xbd8bcb46	-0.06825881
148	0xbd425d1a	-0.04745207
149	0xbcddb0d0	-0.02706185
150	0x3dc5d7ce	0.09660302
151	0x3d6e8dbb	0.058240633
152	0xbd723a0c	-0.05913739
153	0xbdde4a1a	-0.108539775
154	0xbdc86410	-0.097847104
155	0xbd0ccdda	-0.034376003
156	0x3e3257c3	0.17416291
157	0x3a6189d0	0.00086036045
158	0x3df8f1ff	0.12155532
159	0x3d08d6af	0.033407863
160	0x3cf2dc54	0.029646076
161	0x3de2bc4d	0.11071072
162	0x3d907dc4	0.07055238
163	0x3c00e923	0.007868084
164	0x3a2a2802	0.0006490947
165	0xbe6f4661	-0.23366691
166	0xbd640d7f	-0.055676933
167	0xbdb09e07	-0.08623891
168	0xbd19d996	-0.03756102
169	0x3c7a87ec	0.015291195
170	0x3c3529fc	0.011057373
171	0xbdbcca74	-0.09218302
172	0x3de32444	0.110909015
173	0x3cccbe05	0.024992952
174	0xbce419f9	-0.027844416
175	0xbc9272e4	-0.01787705
176	0xbdebea99	-0.11519355
177	0x3d7fd99c	0.062463388
178	0x3e0bf694	0.13668281
179	0x3cee3161	0.02907628
180	0xbd8b5a1e	-0.06804298
181	0xbe18fa51	-0.14939238
182	0x3ded491e	0.115862116
183	0xbd5917a0	-0.053001046
184	0xbc66a76d	-0.014078003
185	0x3d5e45cf	0.054265793
186	0x3c377633	0.0111976145
187	0x3db7d962	0.08977009
188	0x3b686f53	0.0035466745
189	0xbd2b5007	-0.041824367
190	0xbc7de7bb	-0.015497143
191	0x3b198398	0.0023424383
192	0x3d161926	0.036645077
193	0x3dab86b3	0.08375301
194	0xbd0e402d	-0.03472917
195	0xbdfaa3b9	-0.12238259
196	0xbe63af1f	-0.22234772
197	0x3d0963c3	0.033542406
198	0x3e39ccae	0.18144485
199	0xbcdd6b5e	-0.027028736
200	0xbe265136	-0.16241917
201	0x3c7b8e41	0.01535374
202	0xbd84a56d	-0.06476865
203	0x3be0b564	0.006857561
204	0x3de8224f	0.11334669
205	0x3cb3bda5	0.021941015
206	0x3cb1b546	0.021692883
207	0xbc9e4836	-0.019321542
208	0xbda33110	-0.07968342
209	0xbd44c39e	-0.048038118
210	0x3c34a22a	0.011024991
211	0xbca86c00	-0.02055931
212	0xbded2cb1	-0.1158079
213	0x3d4cf796	0.050040804
214	0xbe4d21fd	-0.20032497
215	0x3d5c93e4	0.053851977
216	0xbd6652b9	-0.056231234
217	0xbc476032	-0.012168931
218	0x3ddd86ee	0.108167514
219	0x3b749e11	0.003732566
220	0x3d886e4f	0.06661665
221	0x3c89b8d7	0.016811771
222	0xbd8e39b2	-0.06944598
223	0x3cec3184	0.028832205
224	0xbb25a21c	-0.0025273627
225	0x3d6c53df	0.057697173
226	0x3c81d298	0.01584749
227	0x3d16eac2	0.036844976
228	0x3c848d06	0.016180526
229	0x3e133b8e	0.14378187
230	0xbce9b14c	-0.028526925
231	0x3e0f0782	0.13967708
232	0xbbac9db9	-0.0052678254
233	0x3d3b5fa1	0.045745496
234	0x3c134149	0.008987733
235	0x3dd8d443	0.10587361
236	0x3c295e98	0.010337494
237	0xbcf5b1b4	-0.029991962
238	0x3c426ff4	0.011867512
239	0x3d221787	0.03957322
240	0xbe205cea	-0.15660444
241	0x3cb83ad6	0.022488993
242	0xbccfeecb	-0.02538242
243	0x3c0ed1f2	0.008717047
244	0x3deaee7f	0.11471271
245	0x3b897582	0.004194916
246	0xbde5c928	-0.11220008
247	0xbc972f3d	-0.018455142
248	0x3cb44194	0.022003926
249	0xbc9c00a0	-0.019043267
250	0xbccd9227	-0.025094105
251	0x3e36d847	0.17855941
252	0xbca9a50e	-0.020708587
253	0x3dde5701	0.108564384
254	0xbe122bc3	-0.14274506
255	0x3d2efc4b	0.042721074

action_model._discrete_distribution.branches.1.bias f4 [2]
0	0xbd9520a8	-0.07281619
1	0x3d9520ae	0.07281624
