results/Hard/Player/Player-1920.onnx (onnx, 159076 bytes, 17 tensors)

discrete_act_size_vector f4 [1, 4]
0	0x40400000	3.0
1	0x40000000	2.0
2	0x40400000	3.0
3	0x40400000	3.0

network_body.observation_encoder.processors.0.normalizer.running_mean f4 [14]
0	0xc01351cd	-2.3018677
1	0xc0de3074	-6.9434147
2	0x4042c955	3.0435383
3	0x41352055	11.320394
4	0x4085e98c	4.184759
5	0x40ae53f7	5.4477496
6	0x40c061f5	6.0119576
7	0xbf7538c6	-0.95789754
8	0xc0b591fe	-5.6740713
9	0x400ba2e6	2.1818175
10	0x3d9c8560	0.07642627
11	0xbe932761	-0.2874098
12	0xbdde61eb	-0.1085852
13	0x3ba0072d	0.004883668

network_body._body_endoder.seq_layers.0.weight f4 [128, 14]
0	0x3e7682e6	0.24073371
1	0x3e0b642a	0.13612428
2	0x3e81b347	0.2533209
3	0xbdfb1c50	-0.122612596
4	0x3eb3f848	0.3515036
5	0xbe896568	-0.2683518
6	0xbd39a9a7	-0.04532781
7	0xbecff301	-0.40615085
8	0xbd336ecc	-0.043806836
9	0xbf2804b2	-0.65632164
10	0x3e354e21	0.17705585
11	0xbd10311b	-0.03520308
12	0xbd78eda8	-0.06077352
13	0x3da77219	0.08176059
14	0x3ea0651d	0.31327143
15	0xbd6fd225	-0.05855002
16	0xbe54fd63	-0.20799784
17	0x3e8a9332	0.27065426
18	0x3e297415	0.16548188
19	0x3cdb7d4d	0.026793147
20	0xbf0f49d7	-0.55972046
21	0xbdae0cda	-0.08498545
22	0x3e71a195	0.23596795
23	0x3c41089b	0.011781837
24	0x3e9cf39c	0.3065461
25	0xbeab94a8	-0.33511853
26	0x3e02d9d1	0.12778403
27	0x3e108828	0.1411444
28	0xbefa15ad	-0.48844662
29	0x3de64160	0.11242938
30	0x3da55f30	0.08074796
31	0x3e1fe1a6	0.15613422
32	0x3e9767ea	0.29571468
33	0xbe1ec778	-0.15505779
34	0xbf4e6b4b	-0.80632466
35	0xbf31038f	-0.69146055
36	0x3c4b0c31	0.012393043
37	0xbe7f23cb	-0.24915998
38	0x3eaecc09	0.3414004
39	0x3e72a2d7	0.23694931
40	0xbd5b5030	-0.05354327
41	0xbe145094	-0.14483863
42	0x3d8ca926	0.068682
43	0x3d94044e	0.072273836
44	0xbf0b7f48	-0.5449109
45	0x3db795d9	0.08964128
46	0xbe27f509	-0.16402067
47	0x3f2122c7	0.6294369
48	0xbea194f8	-0.31558967
49	0xbdbac1da	-0.091190055
50	0x3b83d6ce	0.0040234094
51	0xbd2646e6	-0.040594958
52	0x3eaeac78	0.34115958
53	0xbd3c6b56	-0.0460008
54	0x3cbdabe4	0.023153253
55	0xbe5d8def	-0.21636175
56	0x3ded2772	0.11579789
57	0x3e14303f	0.1447153
58	0x3e06cda3	0.13164382
59	0x3e6224c2	0.22084334
60	0xbec86b74	-0.3914448
61	0xbf23a2b5	-0.63920146
62	0x3e8a4e0b	0.27012667
63	0xbe909e9a	-0.28246003
64	0x3d76e3b9	0.060275767
65	0xbf06af2e	-0.52611053
66	0xbd48ff6b	-0.04907171
67	0xbd56a4fa	-0.052403428
68	0x3cf83604	0.030299194
69	0xbe271543	-0.16316704
70	0xbef3befa	-0.4760664
71	0x3ea66863	0.32501516
72	0x3f51daa0	0.8197422
73	0x3e143dd3	0.14476709
74	0xbe9f672a	-0.31133395
75	0x3cb9a3d6	0.02266113
76	0xbe0eed55	-0.13957722
77	0x3ed36840	0.41290474
78	0xbf149be3	-0.58050364
79	0xbf29519c	-0.6614015
80	0x3dd1cbbc	0.102439374
81	0x3e987a9e	0.2978105
82	0xbe063669	-0.13106693
83	0x3b66e416	0.0035231165
84	0x3ddefbfd	0.10887907
85	0xbdcb127e	-0.099156365
86	0xbe690d30	-0.22758937
87	0x3efe3122	0.4964686
88	0x3cc05451	0.023477705
89	0x3ca35b62	0.019941036
90	0x3ea7e76a	0.32793742
91	0xbe04c418	-0.12965429
92	0xbdef7075	-0.11691371
93	0xbf1eca94	-0.6202786
94	0xbd5bf511	-0.05370051
95	0xbe9fef51	-0.3123727
96	0x3dce132f	0.10062253
97	0xbbdcfc05	-0.0067439103
98	0xbe86fe76	-0.26366013
99	0x3e90640a	0.28201324
100	0xbe535434	-0.2063759
101	0x3dfecb77	0.124411516
102	0xbedf8ee9	-0.4366372
103	0x3e3ba5d9	0.18324985
104	0x3e290fb9	0.16509904
105	0xbe8a83fe	-0.27053827
106	0x3b9a197e	0.004702746
107	0x3e936c77	0.2879369
108	0x3d797694	0.0609041
109	0x3c7fb957	0.015608153
110	0xbd6bf8ff	-0.057610508
111	0x3e90764b	0.2821525
112	0xbef44759	-0.47710684
113	0xbe7c0470	-0.24611068
114	0x3eabd15a	0.3355816
115	0xbef5fa99	-0.48042753
116	0x3cc2aaff	0.023763178
117	0x3f094528	0.5362115
118	0x3ca1b516	0.019739669
119	0x3c9e83e0	0.019349992
120	0xbe59b6e3	-0.21261172
121	0xbeb1248b	-0.34598193
122	0x3e67a343	0.22620873
123	0xbdd93eeb	-0.10607704
124	0xbd9e7efa	-0.077390626
125	0x3e02e727	0.1278349
126	0xbe7116f5	-0.23543914
127	0xbec89a14	-0.39180052
128	0xbefca0ce	-0.49341434
129	0x3dd2d8a0	0.10295224
130	0xbe8f1dd7	-0.27952453
131	0x3f11f636	0.57016313
132	0xbf10749f	-0.5642795
133	0x3e8321cc	0.25611722
134	0xbdf9e8f8	-0.122026384
135	0x3da6e53c	0.08149192
136	0xbeabbd4b	-0.33542857
137	0x3d97f9d0	0.07420695
138	0x3ecf4cc5	0.40488258
139	0xbeab53fd	-0.33462515
140	0x38358717	4.3279575e-05
141	0xbf21d423	-0.6321432
142	0xbe15b777	-0.14620768
143	0xbdc31fb2	-0.0952753
144	0xbcbbd97c	-0.022930853
145	0xbf3b7779	-0.73229176
146	0x3d0fda1f	0.035120126
147	0xbf1596f8	-0.58433485
148	0x3c3aa7ae	0.011392517
149	0x3e508fd1	0.20367362
150	0xbe860f71	-0.26183656
151	0x3db0aa67	0.08626252
152	0xbcdbed5e	-0.026846584
153	0xbe2c487c	-0.16824526
154	0xbe99a644	-0.30009663
155	0xbe9091c1	-0.282362
156	0x3ee291ed	0.44251958
157	0x3d23fb3b	0.040034514
158	0xbef4c630	-0.47807455
159	0xbe879b26	-0.26485556
160	0xbe46edf3	-0.19426708
161	0xbde087c6	-0.10963397
162	0x3d7920cb	0.06082229
163	0xbee15a1c	-0.4401406
164	0x3ebf78d4	0.37396872
165	0x3de7280e	0.11286937
166	0xbf3f67a4	-0.7476752
167	0x3dece597	0.11567228
168	0x3ea30bc2	0.31844908
169	0xbf001167	-0.50026554
170	0xbe8118c0	-0.25214195
171	0xbe262c72	-0.16227892
172	0x3ea135fb	0.31486496
173	0xbeaa281c	-0.33233726
174	0x3e18e606	0.14931497
175	0xbdf2796c	-0.11839566
176	0x3d71077c	0.05884503
177	0x3f9275ae	1.1442163
178	0xbe4ff1c2	-0.20307067
179	0x3e4bf891	0.1991904
180	0x3ef05940	0.46943092
181	0xbefd18c1	-0.49432948
182	0x3ed88afa	0.4229353
183	0x3e4fe998	0.20303953
184	0xbea87f92	-0.32909828
185	0x3e5c545d	0.21516557
186	0x3a15396b	0.0005692455
187	0x3f11f8a9	0.5702005
188	0xbf23ef51	-0.6403704
189	0xbf082306	-0.5317844
190	0xbe0573eb	-0.130325
191	0x3ea6ff93	0.32616863
192	0x3effd2bd	0.49965468
193	0xbf1a8acc	-0.6036804
194	0x3ed94e20	0.42442417
195	0x3d949fba	0.07257028
196	0xbbe74d0c	-0.0070587453
197	0x3eff685d	0.4988431
198	0xbec3ebdc	-0.38265884
199	0xbd946aa4	-0.072469026
200	0xbe9ba0ca	-0.3039611
201	0x3e91eb78	0.2849996
202	0xbe2db8f4	-0.16965085
203	0xbe404a59	-0.18778361
204	0x3f3e560b	0.7435004
205	0x3f1b2ce9	0.606154
206	0xbe71cc3d	-0.23613067
207	0xbefdec36	-0.49594277
208	0x3e85d9b8	0.2614267
209	0xbe0f0ba6	-0.13969287
210	0x3d7ad3ba	0.061237074
211	0xbebd4c0f	-0.3697209
212	0x3ecb9ace	0.39766544
213	0xbe28a479	-0.16468991
214	0x3e3163c5	0.17323215
215	0x3e91982f	0.2843642
216	0xbf6ffa7f	-0.937416
217	0xbbb0f43f	-0.00540021
218	0x3df275bf	0.118388645
219	0xbf284e10	-0.65744114
220	0x3f008521	0.5020314
221	0x3de05edc	0.10955593
222	0xbe824514	-0.25443327
223	0x3f18b377	0.5964884
224	0xbe005ae9	-0.1253468
225	0xbd72fa6f	-0.059320863
226	0x3eb16d08	0.34653497
227	0x3e83c361	0.25735
228	0xbc96346f	-0.01833555
229	0x3d7c9186	0.06166222
230	0xbe43f081	-0.19134714
231	0x3efb19eb	0.4904321
232	0x3f2e2827	0.6803002
233	0x3eaea1d5	0.34107843
234	0xbedd288a	-0.4319499
235	0xbe0ad076	-0.13556084
236	0xbf68427f	-0.90726465
237	0xbdd19f79	-0.10235495
238	0x3eb5cf37	0.35509655
239	0xbeccbcaa	-0.3998769
240	0xbea36ec4	-0.31920445
241	0x3f15e561	0.5855313
242	0xbe2d00de	-0.16894862
243	0x3f1410ff	0.57838434
244	0xbef1492f	-0.47126147
245	0x3eeea619	0.46611097
246	0xbe2475fe	-0.16060635
247	0xbe486aa7	-0.19571935
248	0xbd93c1ec	-0.07214722
249	0xbeab30df	-0.33435723
250	0xbd428445	-0.047489423
251	0xbd931f4f	-0.07183706
252	0xbd0aeb32	-0.033915706
253	0xbe6deb4f	-0.23234294
254	0xbb92c7a4	-0.0044793654
255	0xbdf6dd53	-0.12053933

network_body._body_endoder.seq_layers.0.bias f4 [128]
0	0x3d0af09f	0.03392088
1	0x3d3dd058	0.04634127
2	0x3e4d00bb	0.2001981
3	0x3e0841e1	0.13306381
4	0x3d5447b5	0.051826198
5	0x3dfa8082	0.12231542
6	0x3d4c1281	0.049822334
7	0x3d289a06	0.041162513
8	0x3cb75bf1	0.022382708
9	0x3ca368e1	0.019947471
10	0x3d24950a	0.040181197
11	0x3e22634b	0.1585819
12	0x3e597889	0.21237387
13	0x3d1ba610	0.038000166
14	0xbd471af9	-0.048609708
15	0x3da27164	0.07931784
16	0x3d9f1d68	0.07769281
17	0x3db2b128	0.08725196
18	0xbcbf7bfe	-0.023374554
19	0x3d7f0105	0.06225683
20	0x3cc97a3c	0.024594419
21	0x3e05b96b	0.13059013
22	0x3dca2c13	0.09871688
23	0x3dc4f715	0.0961744
24	0x3e1d5b69	0.15366901
25	0x3e2f543c	0.17121977
26	0xbd1f7084	-0.038925663
27	0x3cbbfa0b	0.022946378
28	0x3cd2cd9e	0.025732812
29	0xbd1eb4cd	-0.038746644
30	0x3d73d4b7	0.059529033
31	0xbdcf2496	-0.101144
32	0xbe053641	-0.13008977
33	0x3b5d9856	0.0033812723
34	0xbbbe30b4	-0.0058041457
35	0x3d409cd5	0.047024567
36	0xbdd4337a	-0.10361381
37	0x3e5ba212	0.21448544
38	0xbd8e218e	-0.06939994
39	0xbd9ef285	-0.07761101
40	0xbb3dd844	-0.0028968016
41	0x3d101867	0.035179522
42	0x3e229137	0.15875708
43	0x3d92170b	0.07133301
44	0x3e0d06f7	0.13772188
45	0x3d62d5d8	0.05537972
46	0x3d86b906	0.06578259
47	0x3d285442	0.04109598
48	0xbca345fe	-0.019930836
49	0xbe1d5d33	-0.15367584
50	0xbacc8000	-0.0015602112
51	0x3cb5d04d	0.022194052
52	0x3e26f649	0.16304888
53	0xbce0add9	-0.027426647
54	0x3cb75ec4	0.022384055
55	0x3cad75f6	0.021174412
56	0xbc83598a	-0.016033906
57	0x3c2c6a1b	0.010523344
58	0x3cb6f7c1	0.022334935
59	0xbd4c22f4	-0.04983802
60	0xbdae43db	-0.08509036
61	0x3ce27e72	0.027648184
62	0xbda49911	-0.080370076
63	0x3e24d371	0.16096283
64	0x3d07facb	0.03319816
65	0x3db3a5de	0.08771871
66	0x3d25425d	0.040346492
67	0x3de22df5	0.11043922
68	0xbca8ee5f	-0.020621477
69	0xbbd4b85b	-0.0064917034
70	0xbda0518d	-0.078280546
71	0xbb9f896d	-0.0048686774
72	0x3d7c17fb	0.061546307
73	0x3d8ea316	0.069647
74	0x3ce5b3ee	0.028039899
75	0x3d2ab542	0.041676767
76	0x3db61e69	0.08892519
77	0x3d23baef	0.039973196
78	0x3d663b4f	0.056208905
79	0x3dbcde33	0.09222069
80	0xbbf51daa	-0.007480343
81	0xba52d831	-0.0008043079
82	0x3dd787db	0.10523959
83	0x3ddfc1d4	0.10925642
84	0x3e220d01	0.15825273
85	0x3d19760f	0.037466105
86	0x3bc05df4	0.005870575
87	0x3da77d3d	0.08178184
88	0x3d1582d2	0.036501713
89	0x3d5a7280	0.053331852
90	0x3d836210	0.06415188
91	0x3dd1a07a	0.102356866
92	0x3d67c449	0.056583676
93	0x3db92a58	0.090412796
94	0x3db8c366	0.09021644
95	0xbcb2fe47	-0.021849765
96	0x3db7b9f6	0.08971016
97	0xbd025466	-0.03181877
98	0xbc613952	-0.013746576
99	0xbcfb6aaf	-0.03069052
100	0x3c183dc7	0.009292073
101	0xbe4a60b7	-0.19763456
102	0xbc3702bc	-0.0111700855
103	0xbd611045	-0.054947156
104	0xba35ebf9	-0.0006939765
105	0x3d67d973	0.05660386
106	0x3e17e383	0.14832883
107	0x3e15ed45	0.14641292
108	0x3d7611fe	0.060075752
109	0x3cf7a181	0.030228378
110	0xbda25da0	-0.07928014
111	0x3d3795d7	0.044820633
112	0x3df8b457	0.12143772
113	0xbc63e181	-0.013908745
114	0x3e22daa9	0.15903725
115	0x3e1c0b60	0.15238714
116	0x3d989451	0.07450164
117	0x3d590976	0.05298754
118	0x3d437f65	0.047728915
119	0x3d638785	0.055549163
120	0x3db4e3fa	0.088325456
121	0x3d34fbee	0.04418557
122	0x3ba8be4d	0.0051496387
123	0x3dc813d2	0.097694054
124	0x3e08d820	0.13363695
125	0x3dda6144	0.10663083
126	0x3d4c3db2	0.049863525
127	0x3dcb7b25	0.09935597

network_body._body_endoder.seq_layers.2.weight f4 [128, 128]
0	0xbdee0d25	-0.11623601
1	0xbdd972e5	-0.106176175
2	0xbcb90db8	-0.02258955
3	0x3decd02e	0.115631446
4	0x3de894ae	0.113564834
5	0x3e6a88d9	0.22903766
6	0xbc4aef0e	-0.012386097
7	0x3babe818	0.0052461736
8	0x3da279b6	0.07933371
9	0x3d951bf1	0.0728072
10	0xbd9acb90	-0.07558358
11	0xbd460f08	-0.04835418
12	0xbe4f0150	-0.20215344
13	0xbda0834c	-0.07837543
14	0x3e8bc317	0.2729728
15	0x3e439ca6	0.19102725
16	0x3c4a35f8	0.012341969
17	0x3e8647a5	0.26226535
18	0xbe0d2343	-0.13782983
19	0xbe0671c8	-0.13129342
20	0x3e23d8be	0.1600065
21	0x3dfb042d	0.12256656
22	0x3e95d804	0.2926637
23	0x3da909fc	0.082538575
24	0xbcd4cebf	-0.02597749
25	0x3cc66b7a	0.02422117
26	0xbe311b4a	-0.17295566
27	0xbcdcb651	-0.026942404
28	0xbd85119a	-0.06497498
29	0x3a460b2e	0.00075547665
30	0xbdcfffbe	-0.10156201
31	0xbd61a664	-0.055090323
32	0x3d33e5aa	0.043920197
33	0x3cba539b	0.022744944
34	0xbe67933e	-0.22614762
35	0x3d6316ca	0.055441655
36	0x3cf41b74	0.029798247
37	0x3d3a58be	0.045494787
38	0x3cbe75b0	0.023249477
39	0x3e243e67	0.1603943
40	0x3e3f1169	0.18658985
41	0xbe04b797	-0.12960659
42	0x3d9e5a78	0.07732099
43	0x3e27708c	0.16351527
44	0x3d3d63dd	0.046237815
45	0xbe3ec7f6	-0.18630967
46	0xbe9fbc7e	-0.31198496
47	0xbe34658a	-0.17616859
48	0x3d17e223	0.037080895
49	0x3e139577	0.14412485
50	0xbe1eb84e	-0.15499994
51	0x3daf9431	0.08573187
52	0x3de5fceb	0.11229881
53	0x3e0befbb	0.13665669
54	0xbdc74fdd	-0.097320296
55	0x3dc03139	0.093843885
56	0xbd7ecbdb	-0.06220613
57	0x3ac46d58	0.00149862
58	0xbe0f7cff	-0.14012526
59	0xbe05266d	-0.1300294
60	0xbe62f15b	-0.22162382
61	0x3d8168ff	0.063188545
62	0x3d336ee4	0.043806925
63	0xbd2b3707	-0.041800525
64	0x3e4ab5d8	0.1979593
65	0xbd608185	-0.05481102
66	0xbd3df896	-0.04637965
67	0xbe481b3f	-0.19541644
68	0x3d750592	0.059819765
69	0xbd81ce5c	-0.06338188
70	0x3e7fb15f	0.24970005
71	0xbde7e1c4	-0.11322358
72	0xbdbe329a	-0.09286995
73	0xbbf01db3	-0.007327759
74	0x3e957212	0.2918859
75	0x3e0df506	0.13863
76	0x3dc7fc4c	0.09764919
77	0x3e4fdd7a	0.2029933
78	0xbde3a3d1	-0.1111523
79	0x3df72cef	0.12069117
80	0xbd4d9292	-0.05018861
81	0xbb81b851	-0.00395874
82	0xbdf30bac	-0.118674606
83	0x3d30c091	0.043152396
84	0xbcf305f1	-0.029665919
85	0xba8f5f5b	-0.0010938452
86	0xbdaba35a	-0.08380766
87	0x3d7faea1	0.0624224
88	0xbd7d8bc8	-0.061900884
89	0xbdcd91fc	-0.1003761
90	0x3e4cda25	0.2000509
91	0xbd566664	-0.05234374
92	0xbe7928f6	-0.24332032
93	0xbd012f18	-0.031539053
94	0x3da46ffa	0.0802917
95	0x3c83a97d	0.01607203
96	0x3dc90bd9	0.09816713
97	0xbe7a1af9	-0.24424352
98	0xbe32a513	-0.17445783
99	0xbcb5b118	-0.022179171
100	0xbea951d6	-0.33070248
101	0x3c13fbf8	0.009032242
102	0x3e0295ea	0.127525
103	0xbde87591	-0.11350549
104	0xbd518525	-0.051152367
105	0xbe4808c2	-0.19534591
106	0xbe331a06	-0.17490396
107	0x3d676672	0.056494184
108	0x3c14bc2a	0.009078065
109	0x3e03a44c	0.12855643
110	0xbc2c4bde	-0.010516135
111	0xbdb7f280	-0.089818
112	0x3de94acc	0.113912195
113	0x3ea195d4	0.31559622
114	0x3db6e8eb	0.08931144
115	0xbd9ade66	-0.075619504
116	0x3e8c425e	0.27394384
117	0x3c325be3	0.010886165
118	0x3d2dc374	0.042422727
119	0x3925b3d6	0.0001580262
120	0x3de1101c	0.10989401
121	0xbe2db7fd	-0.16964717
122	0x3e104146	0.140874
123	0x3c6a8609	0.014314183
124	0x3c555ee1	0.013023109
125	0x3d8715be	0.06595944
126	0x3c97d842	0.018535737
127	0x3def6b2a	0.11690362
128	0x3e6685b2	0.22511938
129	0xbd24ea69	-0.040262613
130	0x3dd2908e	0.10281478
131	0xbe150637	-0.14553152
132	0x3df7cbc2	0.120994106
133	0xbe4136a5	-0.18868501
134	0x3df4458b	0.11927327
135	0x3d0323d7	0.0320166
136	0xbdcd31f5	-0.10019294
137	0xbd4e8161	-0.050416354
138	0x3e868287	0.2627146
139	0xbe1ba354	-0.15199023
140	0x3e82a2b9	0.25514773
141	0xbbede5b4	-0.0072600488
142	0x3c4b3f8e	0.012405289
143	0xbddb5be4	-0.10710886
144	0xbe443449	-0.1916057
145	0xbe360c89	-0.1777822
146	0x3e3f6a93	0.18692999
147	0xbdaeacf7	-0.08529084
148	0xbe6bd7c8	-0.23031533
149	0xbe29c2bb	-0.1657819
150	0xbe43e3ba	-0.1912984
151	0x3db13246	0.08652167
152	0x3e8e090e	0.27741283
153	0xbd570fc1	-0.05250526
154	0x3b681be1	0.0035417008
155	0xbd74230c	-0.059603736
156	0x3e6edc91	0.23326327
157	0x3dc347e0	0.095351934
158	0x3d229069	0.0396885
159	0x3e12124e	0.14264795
160	0xbeac325c	-0.3363217
161	0x3e431726	0.19051799
162	0x3d9b3cec	0.07579979
163	0xbe1061cf	-0.14099811
164	0x3e270a4c	0.16312522
165	0xbcb0ddd8	-0.021590158
166	0xbd770e5a	-0.06031642
167	0xbdac4018	-0.084106624
168	0xbe8f79c7	-0.28022596
169	0x3ddf6e10	0.10909665
170	0xbd63e6e2	-0.05564011
171	0xbe8f9440	-0.28042793
172	0xbe987a59	-0.29780844
173	0x3db75a86	0.08952813
174	0x3dafcc25	0.08583859
175	0x3e54cfb5	0.20782359
176	0xbd14a029	-0.036285553
177	0xbdb1e098	-0.08685416
178	0x3df40919	0.11915798
179	0xbe923f80	-0.28564072
180	0x3a760f20	0.0009386409
181	0x3e3077bb	0.17233174
182	0x3bb2e0f3	0.005458945
183	0x3c2e83c7	0.010651535
184	0x3e06603c	0.13122648
185	0x3d0c66b2	0.034277625
186	0x3e00786a	0.12545934
187	0x3e1d84e9	0.15382732
188	0x3e9ba07e	0.30395883
189	0x3d9b951a	0.07596798
190	0x3df7fe3e	0.1210904
191	0x3d9e88c8	0.07740933
192	0x3e19d988	0.15024388
193	0x3de1865d	0.11011956
194	0xbe658b1d	-0.22416349
195	0xbbb7e8cb	-0.005612468
196	0xbdea26d0	-0.11433184
197	0xbd97fa34	-0.07420769
198	0xbdcf83b5	-0.10132543
199	0x3e29a514	0.16566879
200	0xbe3c9bbc	-0.18418783
201	0x3e0495d5	0.12947781
202	0xbe036045	-0.12829693
203	0xbdd222cf	-0.102605455
204	0xbe268a9a	-0.1626381
205	0xbe2b107f	-0.16705512
206	0x3e22fcbf	0.15916727
207	0xbdb48afd	-0.088155724
208	0x3de9ad4e	0.11410008
209	0xbcec1376	-0.028817873
210	0x3d0093fb	0.031391125
211	0xbe51da21	-0.20493366
212	0xbcff2ac6	-0.031148326
213	0x3e065982	0.13120082
214	0x3dcba07a	0.09942718
215	0x3e052a00	0.13004303
216	0x3dc37136	0.09543078
217	0x3d606ce6	0.054791354
218	0xbcc6a2f3	-0.024247622
219	0xbc9ff77f	-0.019527195
220	0x3e00b88b	0.12570398
221	0xbe240f7c	-0.16021532
222	0x3e125410	0.1428988
223	0xbe4bbd62	-0.19896463
224	0xbe0c1045	-0.13678081
225	0x3e0c9d74	0.13731939
226	0x3e2bdf36	0.16784367
227	0xbd293a06	-0.0413151
228	0x3d73c463	0.05951346
229	0xbd09d55e	-0.03365075
230	0x3d80ecb9	0.06295151
231	0x3e84b5f7	0.25920078
232	0x3d46e2af	0.048556026
233	0xbdd546ef	-0.1041392
234	0x3e713b3f	0.23557757
235	0xbd712abc	-0.058878645
236	0xbd09ba23	-0.03362478
237	0x3e04c64b	0.12966268
238	0xbdae7848	-0.085190356
239	0xbe052170	-0.13001037
240	0xbe78f431	-0.24311902
241	0xbe85c636	-0.26127785
242	0xbda8e1e5	-0.08246211
243	0xbe2e5104	-0.17023093
244	0x3b435bca	0.002980935
245	0xbb333d6b	-0.002734984
246	0xbd18a62f	-0.03726786
247	0xbd934d85	-0.0719252
248	0xbdd1fbea	-0.10253127
249	0x3daf0fe5	0.085479535
250	0xbccb405b	-0.02481096
251	0x3c9e3791	0.019313606
252	0xbbb08919	-0.005387437
253	0xbe36a8ee	-0.17837879
254	0xbe2ae6a2	-0.16689542
255	0xbe3d86af	-0.18508409

network_body._body_endoder.seq_layers.2.bias f4 [128]
0	0x3c96e7ec	0.018421136
1	0xbc143975	-0.009046902
2	0x3c8aff4a	0.016967434
3	0xbd99d87b	-0.075119935
4	0xbd82e52c	-0.06391367
5	0x3c45e077	0.012077442
6	0xbe020d18	-0.12700307
7	0x3cbdb2aa	0.023156483
8	0xbb2db4fa	-0.0026505576
9	0x3ce15cef	0.027510135
10	0xbc776c27	-0.015101469
11	0x3df51d87	0.119685225
12	0x3c91ba93	0.01778916
13	0x3d4793aa	0.048724808
14	0x3db65724	0.089033395
15	0xbc132cea	-0.008982876
16	0xbc4f39eb	-0.012648086
17	0x3dc6f52b	0.09714731
18	0xbcf59f3a	-0.029983152
19	0x3d19468f	0.037420806
20	0x3d3a378f	0.04546314
21	0xbcb407d3	-0.021976387
22	0x3d1eb27e	0.038744442
23	0xbcfcca1e	-0.030858096
24	0x3d36219b	0.044465642
25	0xbd90287a	-0.0703897
26	0xbcc4e1e0	-0.024033487
27	0xbb6c1de6	-0.0036028563
28	0xbd2b197a	-0.041772343
29	0x3cf9c286	0.030488264
30	0x3d852a85	0.065022506
31	0x3e17de8b	0.14830987
32	0x3d383937	0.04497644
33	0x3dcf32d6	0.10117118
34	0xbca51c69	-0.020155149
35	0x3de3684f	0.1110388
36	0x3ba9add5	0.005178193
37	0xbd94ab51	-0.072592385
38	0x3c7378f2	0.014860379
39	0x3d62d09b	0.055374723
40	0x3e0f0ee7	0.13970529
41	0xbd63cbe6	-0.055614375
42	0xbd834569	-0.06409723
43	0x3e26a912	0.16275433
44	0x3ca47c7a	0.020078886
45	0x3c8a4606	0.016879093
46	0xbc9dc72e	-0.019260015
47	0x3b11a644	0.0022224346
48	0x3d6c1987	0.057641532
49	0x3b725148	0.0036974717
50	0x3c608052	0.013702469
51	0xbba524d2	-0.0050397897
52	0x3d704106	0.05865576
53	0xbcd2a5f4	-0.025713898
54	0xbd9f9327	-0.07791739
55	0x3dd05cf6	0.10173981
56	0x3d965e83	0.073422454
57	0x3d07ae49	0.033125196
58	0xbd50c25b	-0.0509666
59	0x3c4f0c0e	0.012637151
60	0x3d52e483	0.051487457
61	0xbc4bea54	-0.012446005
62	0x3d2c7fb3	0.04211397
63	0xbd084738	-0.033271044
64	0x3c16bf0e	0.009200824
65	0x3da28ec2	0.07937385
66	0x3d412298	0.04715213
67	0xbd05eb80	-0.032695293
68	0xbda970ad	-0.08273444
69	0x3d798d72	0.06092591
70	0x3c920ba9	0.017827826
71	0x3dc73f65	0.097288884
72	0xbc97ec94	-0.018545426
73	0xbcd9acd7	-0.026571674
74	0xbdb82f4c	-0.08993396
75	0xbd2c479e	-0.042060487
76	0x3ca0683f	0.019580958
77	0x3ce0815c	0.027405433
78	0xbdb38e51	-0.08767379
79	0xbd76b018	-0.06022653
80	0x3c880d42	0.016607884
81	0x3c9456fb	0.018107882
82	0xbd98e6c1	-0.07465888
83	0xba2b6a4b	-0.0006538971
84	0xbd51bd7e	-0.051206104
85	0x3d8af7b5	0.067855276
86	0x3c6c4a12	0.014421957
87	0x3de91770	0.113814235
88	0xbd2838a1	-0.04106963
89	0x3d36e012	0.044647284
90	0xbbbe1537	-0.005800869
91	0xbda81700	-0.08207512
92	0xbc5dc347	-0.013535327
93	0x3d0cb61e	0.034353368
94	0xbb0b78f5	-0.0021281813
95	0x3d641843	0.0556872
96	0xbd084eb6	-0.03327819
97	0x3a63f64e	0.0008696065
98	0x3d14ae1e	0.036298864
99	0x3bf713f6	0.0075402213
100	0x3d4ba09c	0.049713716
101	0xbbe35a6e	-0.0069382703
102	0xbca8ee4f	-0.020621447
103	0xbd29d78d	-0.04146533
104	0xbd868058	-0.065674484
105	0x3ca5f023	0.020256108
106	0x3c7834c1	0.015149296
107	0x3ceb5d94	0.028731145
108	0x3d959f35	0.07305757
109	0x3bd1e251	0.006405153
110	0x3d3c5f3e	0.045989268
111	0x3ce413cc	0.027841471
112	0xbd0e38eb	-0.03472225
113	0x3db59ee9	0.088682
114	0x3d88e9c3	0.066852115
115	0xbdc39edd	-0.09551785
116	0xbd5ca66d	-0.053869653
117	0xbda74ef4	-0.08169356
118	0x3d23e3dd	0.04001223
119	0xbd8e5e29	-0.069515534
120	0x3d824c4a	0.06362207
121	0xbd53c3ef	-0.05170053
122	0xbcfe52a2	-0.031045262
123	0xbdeb328a	-0.11484249
124	0x3cc03630	0.023463339
125	0x3d0e2c4c	0.034710214
126	0x3d02de73	0.031950425
127	0x3d6182b5	0.055056293

network_body._body_endoder.seq_layers.4.weight f4 [128, 128]
0	0xbda58ff4	-0.080840975
1	0x3d0eeefc	0.034895882
2	0xbddb8d9e	-0.10720371
3	0x3e01dd3e	0.12682053
4	0xbe2b35af	-0.16719697
5	0x3e49bb42	0.1970034
6	0xbe5a938d	-0.21345349
7	0xbd8779f2	-0.06615056
8	0x3e9cedcb	0.30650172
9	0x3e0ef23d	0.13959594
10	0x3e111d40	0.14171314
11	0xbca3230c	-0.019914173
12	0x3dbc3e44	0.09191564
13	0xbeb6c654	-0.35698187
14	0xbdc98362	-0.098395124
15	0x3d7158bf	0.058922525
16	0x3c30b5ec	0.010785561
17	0x3d185ca9	0.037197743
18	0xbd6f58f6	-0.05843445
19	0x3e01135d	0.12605043
20	0x3db42487	0.087960295
21	0xbd0d5299	-0.0345026
22	0x3e68a6d3	0.22719888
23	0x3dbcde1a	0.0922205
24	0x3d39b666	0.045339964
25	0x3cf391cd	0.02973261
26	0x3d151cd5	0.03640445
27	0x3d794de2	0.06086529
28	0x3df9b30f	0.12192356
29	0x3c27ccae	0.0102416705
30	0x3e2142a4	0.15748078
31	0xbd8d33a6	-0.06894617
32	0xbe6faf80	-0.23406792
33	0xbbf37b0c	-0.00743044
34	0xbe260f71	-0.16216828
35	0x3e2d5ee7	0.16930734
36	0x3d98c991	0.07460321
37	0x3ce4145d	0.027841741
38	0xbe294af7	-0.16532503
39	0xbec3c5a7	-0.38236734
40	0x3dadc928	0.08485633
41	0xbe7c481c	-0.24636883
42	0xbe5b6765	-0.2142616
43	0x3cfa8fa3	0.03058607
44	0x3bca43e3	0.0061726435
45	0x3deee21d	0.116642214
46	0xbc752acb	-0.014963816
47	0xbe6447d6	-0.22293028
48	0xbe58cbaf	-0.21171449
49	0xbb82b6ce	-0.003989077
50	0xbe08fb7d	-0.13377185
51	0xbda65bcd	-0.08122978
52	0x3d0e0d74	0.0346808
53	0xbcafda56	-0.021466415
54	0xbe6c7f60	-0.23095465
55	0x3e6a5f1a	0.22887841
56	0xbc85a86e	-0.016315665
57	0xbdc2ae8f	-0.09505951
58	0xbdcf7ea5	-0.101315774
59	0xbe4b9df7	-0.19884478
60	0xbe574cb9	-0.21025361
61	0xbd9a2f32	-0.07528533
62	0xbcc7651d	-0.024340207
63	0x3dc3816d	0.095461704
64	0x3c9209a8	0.01782687
65	0xbc5ce824	-0.013483081
66	0x3e1b56ab	0.1516978
67	0x3d3c68ab	0.045998257
68	0x3deb543b	0.11490675
69	0x3d5e47de	0.054267757
70	0x3d7b13f4	0.061298326
71	0xbdf2f750	-0.11863577
72	0xbe1845c4	-0.14870363
73	0xbe91c121	-0.28467658
74	0x3d8a6bd5	0.067588486
75	0xbd93873d	-0.07203529
76	0xbe0da9ef	-0.13834356
77	0x3df8de24	0.12151745
78	0xbe23986a	-0.1597611
79	0x3dc71b9f	0.09722065
80	0xbe1efa91	-0.15525271
81	0xbc2296d4	-0.009923656
82	0x3e507e78	0.20360744
83	0xbd6b4e54	-0.057447746
84	0xbd14e27b	-0.0363488
85	0x3dfbd0b0	0.12295663
86	0xbc014248	-0.007889338
87	0x3cc3537a	0.023843516
88	0xbde07dac	-0.1096147
89	0xbce8a9fb	-0.028401366
90	0xbdbb89fc	-0.09157178
91	0x3de2160b	0.110393606
92	0xbc955490	-0.0182288
93	0xbdf1bbf6	-0.11803429
94	0xbe2ee649	-0.17080034
95	0x3db7172a	0.08939965
96	0xbd1580c0	-0.03649974
97	0xbe18e517	-0.14931141
98	0xbcf3791d	-0.029720837
99	0x3db0a96f	0.08626067
100	0xbd4a3c27	-0.049373772
101	0xbe81782d	-0.25287
102	0xbd57fe20	-0.052732587
103	0xbe4cd47a	-0.20002928
104	0xbbcff37f	-0.0063461657
105	0xbe702321	-0.234509
106	0x3e79045e	0.24318072
107	0xbddd71a1	-0.108126886
108	0x3d79c077	0.060974564
109	0xbe4af1a5	-0.19818743
110	0xbd85b6bf	-0.06528997
111	0xbc15a2fb	-0.009133096
112	0xbd572eb2	-0.052534766
113	0x3d8eea0b	0.06978234
114	0x3de8e11f	0.113710634
115	0xbe428893	-0.18997411
116	0xbe391ad2	-0.18076637
117	0xbe1c6d11	-0.1527598
118	0xbe4f5521	-0.20247318
119	0xbd828c07	-0.06374364
120	0xbda300e9	-0.07959158
121	0xbe374326	-0.17896709
122	0xbd87a9ea	-0.066242054
123	0xbd4b0d4e	-0.049573235
124	0xbd72bce2	-0.059262164
125	0x3dcd752f	0.100321166
126	0x3e23aba2	0.15983441
127	0xbe1aa49f	-0.1510186
128	0xbe37c5d0	-0.17946553
129	0xbdf67932	-0.12034835
130	0x3d41c8ee	0.047310762
131	0x3e4aa944	0.19791132
132	0xbeb20567	-0.34769747
133	0x3e1f8ff0	0.15582252
134	0x3e01e5c5	0.12685306
135	0x3e03f07e	0.12884709
136	0xbdcc42f8	-0.09973711
137	0x3d4392da	0.04774747
138	0x3e905168	0.28187108
139	0xbd19873f	-0.037482496
140	0xbd1dd047	-0.038528707
141	0x3e47db14	0.19517165
142	0xbe792b5d	-0.24332948
143	0xbdf63014	-0.12020889
144	0x3df65279	0.12027449
145	0x3ba66c71	0.005078845
146	0x3c85cc32	0.01633272
147	0x3de32fe2	0.11093117
148	0xbd32bfb2	-0.043639846
149	0x3d18b072	0.037277646
150	0xbcda8356	-0.026673954
151	0xbd31cf88	-0.043410808
152	0x3e94ccfe	0.29062647
153	0x3e404948	0.18777955
154	0x3e16b0ee	0.14715931
155	0xbd338184	-0.043824688
156	0xbd6f27bf	-0.058387514
157	0xbe9ebaf6	-0.31002015
158	0x3c44c565	0.012009953
159	0xbad876e8	-0.0016514929
160	0x3ba2529e	0.0049536964
161	0xbd85d6c7	-0.06535106
162	0x3d4d907d	0.050186623
163	0xbe8a3871	-0.26996186
164	0xbd4864cd	-0.048924256
165	0x3c8296c2	0.015941028
166	0xbd74bc75	-0.05975004
167	0x3e18f960	0.14938879
168	0x3a864387	0.0010243513
169	0xbe2b17cb	-0.16708295
170	0x3d05c3b4	0.03265734
171	0xbcd3a741	-0.025836589
172	0xbd472b18	-0.04862508
173	0x3dd90e6f	0.10598456
174	0x3de224ff	0.11042213
175	0x3e12465f	0.14284657
176	0x3c919474	0.017770983
177	0xbc8c14eb	-0.017099818
178	0xbd4fbea0	-0.050718904
179	0x3da8f2b6	0.082494184
180	0x3e818282	0.25294882
181	0x3da3f9ae	0.08006607
182	0x3e07f9ee	0.13278934
183	0xbe031ba8	-0.12803519
184	0x3da73060	0.08163524
185	0xbdd1ac90	-0.10237992
186	0x3cc58a70	0.024113864
187	0xbe8afad0	-0.2714448
188	0xbe3abd7e	-0.18236348
189	0xbdd49190	-0.10379326
190	0x3b96601d	0.0045890943
191	0xba3cf3a5	-0.0007207937
192	0xbd99b8f1	-0.07505978
193	0xbcb6775f	-0.022273717
194	0x3dcdfa34	0.10057488
195	0xbd227389	-0.039660964
196	0xbcbfdb25	-0.023419926
197	0xbd72f442	-0.059314974
198	0xbd6660d0	-0.05624467
199	0x3e740197	0.23828731
200	0x3d455fbd	0.048187006
201	0x3ddae80f	0.10688793
202	0x3d6721ca	0.056428708
203	0xbe36efbf	-0.17864893
204	0xbee566ed	-0.4480509
205	0xbd41a87c	-0.04727982
206	0xbcedfa30	-0.029049963
207	0xbe62244f	-0.22084163
208	0x3e3f0b90	0.18656754
209	0xbe39c700	-0.18142319
210	0xbdd13bad	-0.102164604
211	0xbc80377a	-0.015651453
212	0xbe369096	-0.17828593
213	0x3e454f6f	0.19268583
214	0x3e64a7cd	0.22329636
215	0x3d91d483	0.071206115
216	0xbe5dfff7	-0.21679674
217	0x3d8eab21	0.06966234
218	0x3d893aad	0.06700645
219	0xbce198f8	-0.027538761
220	0x3c1628ec	0.00916503
221	0xbe0b3b0e	-0.13596746
222	0xbe08d662	-0.1336303
223	0x3e8d53e3	0.27603063
224	0x3e38c119	0.18042411
225	0x3c9ec121	0.0193792
226	0xbdf34a7e	-0.11879443
227	0x3e45a744	0.19302088
228	0x3dafba0f	0.0858041
229	0x3d05f0f4	0.032700494
230	0x3c4559b9	0.012045317
231	0xbdfebb98	-0.124381244
232	0x3e68cca9	0.22734322
233	0xbe1d80b1	-0.15381123
234	0xbe06b2a1	-0.13154079
235	0xbe21fde4	-0.15819508
236	0xbe4474fc	-0.19185251
237	0xbe808c1e	-0.251069
238	0xbe274c8b	-0.16337793
239	0x3ac55b19	0.0015057056
240	0xbe583461	-0.21113731
241	0xbd20238c	-0.0390964
242	0xbd8fccbb	-0.07021471
243	0x3d96c422	0.07361628
244	0xbe362fbe	-0.1779165
245	0x3e533bb2	0.2062824
246	0xbc9bb5ed	-0.019007647
247	0x3c5bf295	0.013424535
248	0xbe56d88c	-0.20981044
249	0x3e113fed	0.14184542
250	0xbe9d2c21	-0.3069773
251	0x3d38e40b	0.045139354
252	0xbdbb82b7	-0.09155791
253	0x3e2a1d49	0.16612734
254	0x3d1dd538	0.03853342
255	0xbd30a546	-0.043126367

network_body._body_endoder.seq_layers.4.bias f4 [128]
0	0xbce3fe1d	-0.027831132
1	0xbdfaae6e	-0.12240301
2	0x3cc2bca4	0.023771591
3	0xbc1e21bd	-0.0096515985
4	0xbc55ddbe	-0.013053356
5	0xbe096c17	-0.13420139
6	0xbd44a50f	-0.048008975
7	0xbbd7cca9	-0.0065856767
8	0x3d2a29fb	0.041543942
9	0xbcc14895	-0.02359418
10	0xbd869a2c	-0.06572375
11	0xbe0da199	-0.13831176
12	0x3d26f018	0.040756315
13	0xbcde0977	-0.027104123
14	0xbdf809a7	-0.12111216
15	0xbdee93a8	-0.11649257
16	0xbdbd530d	-0.09244356
17	0x3cc96182	0.024582628
18	0x3d9746ab	0.07386526
19	0xbcfa625b	-0.030564478
20	0x3d534ca2	0.051586755
21	0xbd8b1bb9	-0.06792397
22	0xbd91e526	-0.07123785
23	0xbc0f6a50	-0.008753374
24	0xbc7e13ab	-0.015507619
25	0xbc524a50	-0.0128351
26	0x3b33a8c5	0.0027413827
27	0x3cfa8777	0.030582173
28	0x3c5420ea	0.0129473
29	0xbcf0f0b5	-0.029411653
30	0x3d0dd0c3	0.03462292
31	0xbd97e7ec	-0.074172825
32	0xbd97937a	-0.07401176
33	0xbc0bc359	-0.008530461
34	0x3de3397f	0.11094951
35	0xbd395a74	-0.04525228
36	0x3ba3fa92	0.0050042355
37	0x3c8e6de1	0.017386379
38	0xbd7233b5	-0.059131343
39	0xbb8a58a2	-0.0042219916
40	0xbd402909	-0.046914134
41	0xbca57715	-0.020198384
42	0x3d17cc81	0.037060264
43	0xbcd5ba6a	-0.026089866
44	0xbe070a4a	-0.13187519
45	0xbdb1e114	-0.08685508
46	0xbd81fba4	-0.06346825
47	0xbd1032c8	-0.03520468
48	0x3d4961b8	0.049165457
49	0xbd03d926	-0.03218951
50	0xbc96829a	-0.018372823
51	0xbcb705af	-0.022341577
52	0xbd25fca0	-0.040524125
53	0xbd101e44	-0.035185114
54	0x3c96d2ff	0.018411158
55	0xbd80a7de	-0.06282018
56	0xbdb24426	-0.087044045
57	0x3d1fc7d0	0.039008915
58	0x3c7594b3	0.014989066
59	0xbdd79678	-0.105267465
60	0x3ae448c3	0.0017416704
61	0x3c3abe2f	0.011397882
62	0xbdb6fd21	-0.08934999
63	0xbdd9ef15	-0.106413044
64	0xbda16626	-0.078808114
65	0xbd9c6f9f	-0.076384775
66	0xbe06bef1	-0.13158776
67	0xbe094425	-0.13404901
68	0xbd99ff17	-0.07519358
69	0xbc063b27	-0.008192814
70	0xbc0018b0	-0.007818386
71	0xba2c9274	-0.00065831025
72	0xbcc242d7	-0.023713512
73	0xbc0dff60	-0.008666843
74	0xbc421656	-0.011846146
75	0xbd5f772b	-0.054557007
76	0x3cc544d2	0.024080668
77	0x3cee2529	0.029070454
78	0xbd49ff5d	-0.0493158
79	0xbdb26530	-0.08710706
80	0xbda14502	-0.0787449
81	0xbd256c13	-0.04038627
82	0x3c362606	0.011117464
83	0xbd62aeb5	-0.055342395
84	0xbcd471b7	-0.02593313
85	0x3bd74976	0.0065700365
86	0xbcfaae79	-0.030600773
87	0xbdaeac41	-0.085289486
88	0xba43e2e0	-0.00074724667
89	0xbe161eb6	-0.14660153
90	0xbcf9b159	-0.030480074
91	0x3bc65021	0.0060520326
92	0x3cc21da5	0.023695776
93	0xbdb52207	-0.08844381
94	0xbdf670f0	-0.1203326
95	0xbd2e994c	-0.042626664
96	0x3d3ddac3	0.046351206
97	0x3d8623e3	0.065498136
98	0x3dfa2ffc	0.122161835
99	0xbcb9536f	-0.022622792
100	0xbd56ede1	-0.052472953
101	0x3c7d7ea3	0.015472087
102	0xbc5ceb43	-0.013483825
103	0x3b35d892	0.0027747494
104	0xbde5f330	-0.11228025
105	0x3c961727	0.018321587
106	0xbcf69d6d	-0.030104363
107	0xbdb873d1	-0.09006465
108	0xbd992aa9	-0.0747884
109	0x3ccd872e	0.025088873
110	0xbd025aeb	-0.031824987
111	0x3ca0b95f	0.019619642
112	0xbd5764fc	-0.05258654
113	0xbd7a44d7	-0.061100807
114	0x3cc71e36	0.024306398
115	0x3c83bf29	0.016082363
116	0xbcd2e8e7	-0.025745822
117	0xbd114d45	-0.03547408
118	0xbdb12fab	-0.0865167
119	0xbe1c760c	-0.15279406
120	0xbdac9309	-0.08426482
121	0xbd7d6fd2	-0.06187422
122	0xbd789e0e	-0.060697608
123	0xbcc2304c	-0.02370467
124	0xbcb1d5c7	-0.021708382
125	0xbdb964ef	-0.09052455
126	0x3cc16669	0.023608403
127	0xbc929859	-0.01789491

action_model._discrete_distribution.branches.0.weight f4 [3, 128]
0	0x3dea5bc8	0.11443287
1	0xbc49fc7f	-0.012328266
2	0xbda49b78	-0.08037466
3	0x3d1c74fc	0.038197502
4	0x3c29f810	0.010374084
5	0x3e16152e	0.14656517
6	0x3d0102ac	0.03149669
7	0x3cd367d2	0.025806341
8	0xbe3497d8	-0.17636049
9	0xbe00ef25	-0.12591226
10	0x3d964dac	0.073390335
11	0x3e08d490	0.13362336
12	0xbe17bce7	-0.14818154
13	0x3c51cbb4	0.012804914
14	0xbc243929	-0.010023394
15	0xbb9b03b2	-0.004730665
16	0x3c09f35d	0.008419839
17	0xbe623678	-0.2209109
18	0xbc80a94e	-0.01570573
19	0x3de92c38	0.11385387
20	0xbd926f55	-0.07150141
21	0xbdc7f4bf	-0.097634785
22	0xbc0977e0	-0.008390397
23	0xbdd4a70f	-0.103834264
24	0xbc9ba9c7	-0.019001855
25	0xbc336c1f	-0.010951071
26	0x3adb2105	0.0016718215
27	0xbe106685	-0.14101608
28	0x3d8329ac	0.06404433
29	0xbd1423b5	-0.036166865
30	0x3d45146c	0.04811518
31	0xbe1e368a	-0.15450493
32	0xbd827407	-0.06369787
33	0xbdc6361f	-0.096782915
34	0x3d4d1de1	0.050077323
35	0xbd549573	-0.05190034
36	0xbd801fc3	-0.06256058
37	0xbd313dca	-0.043271817
38	0xbe37c595	-0.17946465
39	0x3cc6add3	0.024252808
40	0xbd719dfa	-0.05898855
41	0x3df76bad	0.120810844
42	0x3db8bb77	0.09020131
43	0x3cd2693b	0.025684943
44	0x3dcac9d9	0.09901781
45	0x3dcbdca1	0.09954191
46	0x3d06da34	0.03292294
47	0x3dfd7396	0.12375562
48	0x3e2d80c1	0.16943647
49	0x3e50b66d	0.2038209
50	0x3dfce681	0.12348653
51	0xbd2e4753	-0.04254849
52	0x3cea3445	0.028589377
53	0x3e6f740a	0.23384109
54	0x3dfa6a61	0.122273214
55	0xbd15456a	-0.03644315
56	0xbce403ab	-0.02783378
57	0x3d8fef60	0.07028079
58	0xbe0798db	-0.13241903
59	0xbde37d03	-0.111078285
60	0x3dec9e92	0.115536824
61	0x3c818ca9	0.015814142
62	0xbd7f03c4	-0.06225945
63	0x3e62a443	0.22132973
64	0x3d97b1a6	0.074069306
65	0xbd882e41	-0.06649447
66	0x3daffc46	0.08593039
67	0x3c7bb77e	0.015363572
68	0x3c3c30d9	0.011486256
69	0x3e135618	0.14388311
70	0x3d0b7b45	0.034053106
71	0x3df63823	0.12022426
72	0xbe09336f	-0.13398527
73	0xbe3351dc	-0.17511696
74	0xbca37bc9	-0.019956486
75	0xbceb6de5	-0.028738925
76	0x3ba020f6	0.0048867417
77	0x3db7efb9	0.0898127
78	0x3d8c8b97	0.06862562
79	0x3da5cc33	0.080955885
80	0x3d196a74	0.037455037
81	0xbd53d8ac	-0.051720306
82	0xbe046600	-0.12929535
83	0xbdf41632	-0.11918296
84	0x3d3bb181	0.045823578
85	0xbd25d7c9	-0.040488992
86	0x3cbf2e09	0.023337381
87	0xbe0bb9d7	-0.13645111
88	0xbc45b17e	-0.012066243
89	0xbd84ea3d	-0.0648999
90	0xbdb6cdd7	-0.089259796
91	0x3c116b63	0.008875701
92	0xbe1da4ff	-0.15394972
93	0x3b365417	0.0027821118
94	0xbd52489e	-0.051338784
95	0xbc84ec00	-0.016225815
96	0xbd4142eb	-0.04718296
97	0xbc586060	-0.013206571
98	0xb7cf93cf	-2.4745152e-05
99	0x3cb8c994	0.022557057
100	0xbc639b8f	-0.0138920685
101	0xbdf7f02d	-0.12106357
102	0xbe536b9f	-0.20646523
103	0x3dd4d0ac	0.103913635
104	0xbddc2b4b	-0.10750445
105	0xbdd1aff4	-0.102386385
106	0x3e148691	0.14504458
107	0xbccb2058	-0.024795696
108	0xbd77bc03	-0.060482036
109	0x3e3bd960	0.1834464
110	0x3ca7bed4	0.020476736
111	0x3d4e09bc	0.050302252
112	0x3e422ce7	0.18962441
113	0x3b17c781	0.0023159685
114	0x3d356633	0.044286918
115	0xbd38d2c7	-0.045122888
116	0xbc041141	-0.008060754
117	0xbd79f42f	-0.061023887
118	0x3d81a2e2	0.063298956
119	0x3d8f32de	0.06992124
120	0x3d9b8dd2	0.075954095
121	0x3cbe166c	0.023204051
122	0xbcb127a9	-0.021625357
123	0xbd02af39	-0.031905387
124	0xbdb0b5f4	-0.08628455
125	0x3e05bd70	0.13060546
126	0x3c85edf9	0.016348826
127	0xbd5d4e5b	-0.054029804
128	0x3d6c206b	0.057648104
129	0x3e2c4a3a	0.1682519
130	0xbd153ae5	-0.03643312
131	0x3dfc5808	0.12321478
132	0x3bb54f22	0.005533115
133	0xbe3e97dd	-0.18612619
134	0xbc635bb3	-0.013876843
135	0x3d84c682	0.06483175
136	0x3e1cf925	0.15329416
137	0xb848a9c4	-4.7841822e-05
138	0x3bfac359	0.007652682
139	0xbe1be13c	-0.15222639
140	0x3dcff7e1	0.10154701
141	0x3dc14720	0.09437394
142	0xbbd31d76	-0.006442721
143	0xbc79f61b	-0.01525643
144	0xbd3a4940	-0.045480013
145	0x3dee4211	0.11633695
146	0x3d3a43d4	0.045474842
147	0xbdc49bf7	-0.096000604
148	0x3e16204e	0.14660761
149	0xbde64644	-0.11243871
150	0x3ccfd5e0	0.025370538
151	0x3e348a57	0.17630897
152	0x3dcac1c0	0.09900236
153	0xbdbac7e3	-0.091201566
154	0x3de6701a	0.112518504
155	0x3c836db4	0.016043521
156	0xbd7bd770	-0.061484754
157	0x3bf42cf0	0.007451646
158	0xbc50ea34	-0.012751151
159	0x3de61623	0.11234691
160	0xbd405c1f	-0.046962854
161	0x3dc0b141	0.094088085
162	0xbb8659b6	-0.00410005
163	0xbdca8335	-0.09888307
164	0xbdd0f324	-0.102026254
165	0x3d0e5f40	0.034758806
166	0x3e6bce48	0.23027909
167	0xbe1f9e4e	-0.15587732
168	0x3d17a1c4	0.037019506
169	0x3dd5a609	0.10432059
170	0xbda711ae	-0.08157669
171	0x3d8a0d3f	0.06740808
172	0xbdf41ba6	-0.11919336
173	0xbd8ceff9	-0.06881709
174	0xbd95a64a	-0.07307108
175	0xbcc7c88e	-0.024387624
176	0xbe15d9e7	-0.14633904
177	0xbddc77dc	-0.10765049
178	0xbe27a956	-0.1637319
179	0x3d9dadaf	0.07699143
180	0xbe6b0f7a	-0.22955123
181	0xbe0b8a75	-0.13627036
182	0xbd955d14	-0.07293144
183	0x3d9d304c	0.076752275
184	0x3bebce02	0.007196189
185	0x3e4beb09	0.19913878
186	0x3d34c764	0.044135466
187	0xbda96c4a	-0.082726076
188	0xbac70ba1	-0.0015185961
189	0x3dbec8ed	0.09315667
190	0x3d947bc3	0.07250168
191	0xbe866d2d	-0.2625517
192	0x3d9996d1	0.07499469
193	0x3d92f3fc	0.071754426
194	0xbdf7b908	-0.12095839
195	0x3dc85faa	0.097838715
196	0xbd894f18	-0.06704539
197	0xbe451bb1	-0.19248845
198	0x3d2d6c73	0.042339753
199	0x3d88895b	0.066668235
200	0x3d19e325	0.037570138
201	0x3d61b89d	0.0551077
202	0xbcfc3871	-0.030788632
203	0x3e166da3	0.1469026
204	0xbb815b51	-0.0039476533
205	0x3bc0ae3e	0.0058801463
206	0xbd429f42	-0.04751516
207	0xbd1d0f77	-0.038344827
208	0xbc8797dd	-0.016551906
209	0xbd65e927	-0.056130555
210	0x3e49b7f6	0.19699082
211	0x3d984309	0.07434661
212	0xbcbca90d	-0.023029828
213	0x3c841b77	0.016126378
214	0xbd3bf229	-0.04588524
215	0x3dbea870	0.09309471
216	0xbcf887a6	-0.03033812
217	0x3d9d1578	0.076701105
218	0x3d1b3a4c	0.037897393
219	0x3d06c7e5	0.032905478
220	0x3e379d42	0.17931083
221	0xbdfac8e2	-0.122453466
222	0xbc164614	-0.009171981
223	0xbd9db078	-0.07699674
224	0x3b97dd3c	0.0046345275
225	0x3bd48541	0.0064856117
226	0x3dc73346	0.097265765
227	0xbc849055	-0.016182104
228	0xbc665c58	-0.014060102
229	0x3e4c96e7	0.1997944
230	0x3e0e64c3	0.13905625
231	0x3d042e78	0.03227088
232	0x3db45c0f	0.08806621
233	0x3b6c1bc9	0.0036027303
234	0xbd36b4a3	-0.044605862
235	0x3d553bfe	0.052059166
236	0x3da9212e	0.08258282
237	0xbc616e4a	-0.013759205
238	0x3d9bcc16	0.07607286
239	0xbe66a3fe	-0.22523496
240	0xbe406db9	-0.18791856
241	0xbe4702a1	-0.19434597
242	0xbd11e0e4	-0.035614863
243	0xbda140a0	-0.07873654
244	0xbd477fec	-0.04870598
245	0xbd01d2ec	-0.03169529
246	0xbd87eb76	-0.066367075
247	0xbe3f63b2	-0.18690374
248	0x3d895dbc	0.067073315
249	0xbd79c2b0	-0.060976684
250	0x3d795caa	0.060879387
251	0xbd2aecb8	-0.04172966
252	0x3dedbe52	0.11608566
253	0xbb9256c2	-0.0044659087
254	0x3e544b91	0.20731951
255	0x3d574c38	0.052562922

action_model._discrete_distribution.branches.0.bias f4 [3]
0	0x3d2d4dc5	0.042310495
1	0xbd26b898	-0.040703386
2	0xbb7b0acc	-0.0038305996

action_model._discrete_distribution.branches.1.weight f4 [2, 128]
0	0x3c1f750e	0.009732498
1	0xbc844d55	-0.016150156
2	0x3da7bf82	0.08190824
3	0xbc82b183	-0.015953785
4	0x3de50416	0.1118242
5	0x3c25bca8	0.01011578
6	0xbdef6b79	-0.11690421
7	0x3ddb7f08	0.10717589
8	0x3d335fc8	0.043792516
9	0xbd04ac7f	-0.032391068
10	0x3d33fd38	0.04394266
11	0xbdec0f76	-0.115263864
12	0xbd3fa925	-0.04679217
13	0x3e5442a0	0.2072854
14	0x3cccc934	0.024998285
15	0xbd3274b3	-0.043568324
16	0x3d6aa54a	0.05728654
17	0xbdc842f8	-0.09778398
18	0x3d941185	0.07229904
19	0x3dabab71	0.08382309
20	0x3d2ad7a4	0.041709557
21	0x3c691070	0.01422511
22	0xbdc563c8	-0.096381724
23	0xbda02d05	-0.07821087
24	0x3d256ca9	0.04038683
25	0x3e0aea19	0.13565864
26	0x3da74948	0.08168274
27	0x3cd701cf	0.02624598
28	0xbe2a9cd2	-0.16661385
29	0x3b370b56	0.002793034
30	0xbdbe9aff	-0.09306907
31	0xbcac097f	-0.021000622
32	0xbd48ea31	-0.049051467
33	0xbdd82b41	-0.10555125
34	0xbd83bdcb	-0.064326845
35	0x3cd56203	0.026047712
36	0x3ca9844e	0.02069297
37	0x3e74a0e8	0.23889506
38	0x3d82966e	0.063763484
39	0x3d722fad	0.0591275
40	0x3da32b07	0.07967191
41	0x3ce1d8a0	0.027569115
42	0xbc923394	-0.01784686
43	0x3d901ca3	0.07036712
44	0xbe0d22c2	-0.1378279
45	0xbbda51a8	-0.006662566
46	0x3d3f088f	0.04663902
47	0x3b38d202	0.0028201346
48	0x3de740c0	0.11291647
49	0xbd6cce1d	-0.057813752
50	0xbe1622a9	-0.1466166
51	0xbd0fb206	-0.035081886
52	0x3d7d02a2	0.06177009
53	0x3e09734d	0.1342289
54	0xbe0899c8	-0.13339913
55	0x3d4cfbb2	0.050044723
56	0xbb05712e	-0.002036165
57	0xbd204a59	-0.039133403
58	0xbc2c5767	-0.010518885
59	0xbde9144c	-0.113808244
60	0x3b86d9ed	0.0041153342
61	0x3d11c335	0.035586555
62	0x3cea07b6	0.02856813
63	0x3c339b41	0.010962308
64	0xbd14d8af	-0.036339458
65	0xbd91c5be	-0.071177945
66	0x3cb00d38	0.021490678
67	0x3dd3ea61	0.103474386
68	0x3e64abcf	0.22331165
69	0xbbe29ee8	-0.0069159158
70	0xbe3077e0	-0.17233229
71	0xbd19b9e0	-0.03753078
72	0x3e151904	0.14560324
73	0xbd02dabc	-0.031946883
74	0x3dad344a	0.08457239
75	0x3a418832	0.00073826604
76	0xbdfb01fe	-0.12256239
77	0xbbed949b	-0.007250381
78	0xbcc4b80d	-0.024013544
79	0x3c97b790	0.018520147
80	0x3d38bc2f	0.04510134
81	0x3cf9fae1	0.030515136
82	0xbc1d53a6	-0.009602463
83	0x3d4226e5	0.047400374
84	0x3dc4aea4	0.096036226
85	0xbc7b7534	-0.015347768
86	0x3e374016	0.1789554
87	0xbc68c62c	-0.014207404
88	0x3cde3737	0.027125938
89	0x3d1a9b97	0.03774604
90	0xbdbb7a9c	-0.09154245
91	0xbd323dc7	-0.043515947
92	0xbd6aeb5a	-0.057353355
93	0xbd29d273	-0.041460466
94	0x3dac2c84	0.08406928
95	0xbd6575c1	-0.056020502
96	0x3b84a2b8	0.004047718
97	0xbd65306f	-0.055954393
98	0xbc4ad477	-0.012379757
99	0xbc82ec8e	-0.015981939
100	0x3b6bb8ec	0.0035968376
101	0xbde68fc0	-0.11257887
102	0x3d4586b5	0.04822417
103	0xbdf67bd0	-0.12035334
104	0xbc7cae2a	-0.015422383
105	0xbd60fcde	-0.054928653
106	0xba84dca8	-0.0010136561
107	0xbdb20ed7	-0.08694237
108	0xbcbd07f1	-0.023075076
109	0x3cef3ad3	0.029202854
110	0x3b92f3f1	0.0044846465
111	0xbcf8c555	-0.030367533
112	0x3e32b1bf	0.17450617
113	0xbc34e321	-0.01104048
114	0x3d57bcfa	0.052670456
115	0xbc63dae1	-0.013907165
116	0xbe0891d8	-0.13336885
117	0x3d2f25f9	0.042760823
118	0x3dcaa005	0.098938026
119	0xbc946c91	-0.018118175
120	0x398bd44a	0.00026670314
121	0x3c705d6f	0.014670714
122	0x3d301594	0.04298933
123	0xbe41359c	-0.18868107
124	0x3d13a228	0.036043316
125	0xbddc8df1	-0.10769261
126	0x3e21c73c	0.15798658
127	0xbd312803	-0.04325105
128	0xbc0fe908	-0.008783586
129	0x3bf4faa0	0.007476166
130	0xbd875adf	-0.06609129
131	0xbb6cdc50	-0.0036142059
132	0xbddae35c	-0.106878966
133	0xbc90dbbd	-0.017682904
134	0x3e072e88	0.13201344
135	0xbdf07036	-0.117401525
136	0xbd1ab796	-0.037772737
137	0x3d30b0f0	0.04313749
138	0xbd3ec816	-0.046577536
139	0x3dead204	0.114658386
140	0x3d479703	0.048728
141	0xbe2be6a9	-0.16787209
142	0xbcc10dff	-0.023566244
143	0x3c043487	0.008069164
144	0xbd862c16	-0.065513775
145	0x3da57d7f	0.08080577
146	0xbda86f90	-0.08224404
147	0xbda89b58	-0.082327545
148	0xbd0b3405	-0.033985157
149	0xbc9637d6	-0.018337172
150	0x3db0b83e	0.086288914
151	0x3d9303bb	0.07178446
152	0xbd045e29	-0.03231636
153	0xbe046f6d	-0.1293313
154	0xbd95ac1e	-0.073082194
155	0xbcd583b1	-0.026063772
156	0x3e1fde8e	0.15612242
157	0xbb1681ee	-0.0022965628
158	0x3dfcdc0d	0.12346659
159	0x3d289fe3	0.041168105
160	0x3cf6dae4	0.030133672
161	0x3ddfc582	0.109263435
162	0x3d81abc7	0.06331592
163	0xbc87ebe5	-0.016591975
164	0xbc97708e	-0.018486287
165	0xbe70980e	-0.23495504
166	0xbd921ec2	-0.07134773
167	0xbd6cbc51	-0.05779678
168	0xbd85ecaa	-0.06539281
169	0xbc8ba1c3	-0.017044907
170	0x3cb59f7f	0.02217078
171	0xbd6b2f06	-0.057417892
172	0x3e0635b3	0.13106422
173	0x3bcbc04e	0.006217993
174	0xbd523cdd	-0.051327575
175	0xbc359df9	-0.011085027
176	0xbde39137	-0.11111682
177	0x3d89cb5e	0.06728242
178	0x3e12f46d	0.14351054
179	0x3d4d69a5	0.05014958
180	0xbd90bede	-0.07067655
181	0xbe174465	-0.14772184
182	0x3e023b39	0.12717904
183	0xbd89d630	-0.06730306
184	0xbc8a9bb5	-0.01691995
185	0x3d2ed7d8	0.042686313
186	0x3c4e7771	0.012601719
187	0x3dd36077	0.103211336
188	0x3bd4c982	0.006493748
189	0xbd458ec6	-0.048231862
190	0xbce35c45	-0.027753958
191	0xbcaf9b26	-0.021436285
192	0x3c588e09	0.013217458
193	0x3d8847d7	0.06654327
194	0xbcc9f7af	-0.024654238
195	0xbdf28af2	-0.11842908
196	0xbe637e1c	-0.22216076
197	0x3c14a15e	0.009071676
198	0x3e4e2f55	0.20135243
199	0x3c50e284	0.012749318
200	0xbe0e801e	-0.1391606
201	0x3d34aca7	0.044109967
202	0xbda2b3ed	-0.07944474
203	0x3c333e2e	0.010940118
204	0x3de906b7	0.11378234
205	0xbad2be10	-0.0016078372
206	0x3c143005	0.009044652
207	0xbbdf4f9f	-0.0068149115
208	0xbd332cf4	-0.043744043
209	0xbcccd80f	-0.025005369
210	0x3ca33bff	0.01992607
211	0xbcbd3b62	-0.023099605
212	0xbde6cfdb	-0.11270114
213	0x3ccfbba1	0.025358023
214	0xbe368930	-0.1782577
215	0x3c4854d0	0.012227252
216	0xbc8598e5	-0.016308257
217	0xbcd2c429	-0.025728302
218	0x3db86a68	0.090046704
219	0x3cf5945a	0.029977966
220	0x3d54262e	0.051794223
221	0x3cf49807	0.029857649
222	0xbdae9546	-0.085245654
223	0x3d5aa34e	0.053378396
224	0xbc630629	-0.013856449
225	0x3d6dadf4	0.058027223
226	0x3c7d83ad	0.0154732885
227	0xbc32bec3	-0.010909739
228	0x3c102ccb	0.008799742
229	0x3de02926	0.109453484
230	0xbd2f197f	-0.042748924
231	0x3e07ea63	0.13273005
232	0x3c9659ce	0.01835337
233	0x3d9765ce	0.073924646
234	0x3c3c938c	0.011509787
235	0x3daae5d8	0.083446205
236	0x3ce7ee85	0.028311977
237	0xbd4505fc	-0.04810141
238	0x3c0efb8b	0.008726965
239	0x3d1dc9a1	0.038522366
240	0xbe31f81a	-0.173798
241	0x3c8b8679	0.017031895
242	0xbd4c201c	-0.04983531
243	0x3c036370	0.008019313
244	0x3dd95c13	0.10613265
245	0xbd0b3ab9	-0.03399155
246	0xbdc1009a	-0.09423943
247	0x3bd06e8d	0.006360835
248	0x3ab7a6c1	0.0014011489
249	0xbc0593e6	-0.0081529375
250	0xbccabfcc	-0.024749659
251	0x3e449fc2	0.19201568
252	0xbd2cfb26	-0.0422317
253	0x3dbd5f35	0.09246675
254	0xbe276e9f	-0.16350792
255	0x3d29d5cb	0.041463654

action_model._discrete_distribution.branches.1.bias f4 [2]
0	0xbd61d830	-0.055137813
1	0x3d61d83e	0.055137865
