results/3/Player_2.onnx (onnx, 155619 bytes, 17 tensors)

discrete_act_size_vector f4 [1, 5]
2.0 2.0 3.0 3.0 3.0
00000000: 0000 0040 0000 0040 0000 4040 0000 4040
00000010: 0000 4040

network_body._body_endoder.seq_layers.0.weight f4 [128, 1]
0.12465115 -0.018862046 0.18249848 -0.08435044 0.032086257 -0.44911945 0.0015843142 0.52887046
-0.29085138 -1.7799435 2.4764476 1.9376526 -0.7984183 1.3334681 -0.25644848 0.25563785
1.0695648 1.4034215 1.0768113 -0.02417399 1.0319009 0.2782626 -0.34219888 0.0130889425
0.2641491 0.43330595 -0.21712214 1.5052166 0.027858835 -0.9343743 -1.1756414 -0.58881253
0.40589148 1.3256896 0.022767484 -1.231648 -0.40459064 -0.1137994 -0.71536815 0.5187838
-0.91527426 1.2283967 0.3109006 -0.24832237 -0.14671467 0.2581835 -0.051984422 -1.0570377
-0.763208 -0.039777175 -0.18806517 -1.4670699 1.8314004 -0.02111434 -0.51409334 -2.2399364
-0.36864513 0.02350265 0.18044591 -1.2929436 0.9855213 1.6100968 1.5891159 -1.0400685
0.78702503 -0.056067172 -1.2930981 -0.02133272 0.6128045 -1.322232 1.0016009 -1.225105
-0.32696754 1.9282533 1.1343468 -0.6435335 -0.45032787 -0.009525771 0.8384626 -0.44018614
-0.21652041 0.81982094 -0.49464953 -0.008864978 -0.22013906 -0.5530739 -0.04026135 -0.3655544
-0.7029022 0.53479147 -1.8180403 0.38233498 1.4820573 0.036679775 -1.9658682 -1.2401398
0.5701464 0.021548005 0.0033983623 -0.9844421 0.9344237 -0.89115316 -0.063982956 -1.1401769
0.91611177 0.36371535 -0.9386706 0.7007717 0.0035800098 1.1809248 0.1157891 1.2612036
0.31288812 0.27013287 1.9191846 1.8214091 -0.2552385 0.5987035 0.005670608 -0.5698256
-0.42622402 1.6324853 -0.2389943 0.8593072 -0.028858837 2.0389972 -3.819576 0.019301584
00000000: 1a49 ff3d 9484 9abc e2e0 3a3e ecbf acbd
00000010: e16c 033d fcf2 e5be c3a8 cf3a 0e64 073f
00000020: 79ea 94be 30d5 e3bf 1e7e 1e40 0005 f83f
00000030: 2465 4cbf 15af aa3f 374d 83be f7e2 823e
00000040: 80e7 883f 51a3 b33f f4d4 893f 8808 c6bc
00000050: 5415 843f 6f78 8e3e b134 afbe 0173 563c
00000060: 8d3e 873e 47da dd3e 4455 5ebe f0aa c03f
00000070: 3638 e43c 2733 6fbf 6b7b 96bf 6bbc 16bf
00000080: 02d1 cf3e 32b0 a93f e082 ba3c a4a6 9dbf
00000090: 8126 cfbe a90f e9bd 5e22 37bf 04cf 043f
000000a0: 6a4f 6abf 1a3c 9d3f 5d2e 9f3e 3848 7ebe
000000b0: 5f3c 16be a130 843e 9eed 54bd 034d 87bf
000000c0: 9961 43bf 64ed 22bd 2894 40be f2c8 bbbf
000000d0: 546b ea3f fbf7 acbc 9f9b 03bf 1e5b 0fc0
000000e0: 0ebf bcbe a188 c03c d0c6 383e 2d7f a5bf
000000f0: 204b 7c3f a717 ce3f 2668 cb3f f720 85bf
00000100: 797a 493f b1a6 65bd 3d84 a5bf f5c1 aebc
00000110: c1e0 1c3f e63e a9bf 7534 803f 3ed0 9cbf
00000120: 4a68 a7be 01d1 f63f 4732 913f 9dbe 24bf
00000130: 6091 e6be fb11 1cbc 7ca5 563f 1460 e1be
00000140: 87b7 5dbe c9df 513f b442 fdbe 6a3e 11bc
00000150: 226c 61be 4096 0dbf 16e9 24bd f229 bbbe
00000160: 66f1 33bf 18e8 083f 8bb5 e8bf 69c1 c33e
00000170: 0eb4 bd3f 883d 163d 92a1 fbbf e7bc 9ebf
00000180: 1df5 113f 7185 b03c 0fb7 5e3b 6604 7cbf
00000190: 6436 6f3f 9d22 64bf 7f09 83bd 51f1 91bf
000001a0: 4d86 6a3f e638 ba3e b74c 70bf c665 333f
000001b0: 999e 6a3b 8b28 973f d622 ed3d 1f6f a13f
000001c0: df32 a03e db4e 8a3e d7a7 f53f ef23 e93f
000001d0: 9fae 82be a244 193f 82d0 b93b 17e0 11bf
000001e0: 093a dabe 47f5 d03f ecba 74be 8ffb 5b3f
000001f0: 5e69 ecbc ee7e 0240 ef73 74c0 5b1e 9e3c

network_body._body_endoder.seq_layers.0.bias f4 [128]
-0.042210724 -0.0024373627 -0.07927461 -0.0696848 0.027796714 -0.06209454 0.005115341 -0.039475497
-0.051555682 -0.05442856 0.026036263 0.020100845 -0.04136651 0.04706178 -0.10724669 0.08134741
0.034386925 0.022423996 0.056288633 -0.06716781 0.04371073 0.08813891 -0.033074863 -0.031715296
0.03599878 -0.061214782 -0.11138068 -0.0076556415 -0.0094573125 0.030534968 0.06304245 -0.044836614
0.036560267 0.07430184 -0.025866153 -0.06219595 -0.007870847 -0.0380956 -0.07582857 -0.08532081
-0.024372581 0.05731119 0.06996241 -0.10750663 -0.00017549706 -0.042611174 -0.041148 -0.07479084
-0.08369285 -0.04049181 -0.024474975 -0.0035994612 0.0075359903 -0.06795773 -0.11624861 0.018047778
-0.11035612 0.01705447 -0.0040280195 -0.0023591612 -0.017070659 0.033935644 -0.093306 -0.12396576
-0.023467552 -0.047004968 0.032068137 -0.014969522 0.046859663 0.00030712388 0.027251689 -0.08188369
-0.008478719 -0.030649602 0.0060644206 -0.021498421 -0.064359605 0.0021018558 0.042943086 -0.07937076
-0.05493792 0.013480662 -0.028573025 0.0029292188 -0.08559659 -0.031005105 -0.04462227 -0.023957795
-0.12090221 -0.0008021843 0.007614225 -0.06796727 0.044205353 0.028015805 0.018029628 -0.01195084
-0.0077722464 0.050905906 0.0028053655 0.0056002988 0.01952078 -0.046495304 -0.0141910175 -0.03685492
0.00912074 -0.030743564 -0.06729317 0.012782959 0.0069012474 0.0050124004 -0.017058417 -0.009257064
0.040144343 0.0022514379 0.031964097 0.022252172 0.05543597 0.030252423 -5.3058477e-05 -0.012355193
-0.06966762 0.035394546 -0.039271075 -0.051386 -0.023921689 0.0053606685 0.028686976 -0.04467539
00000000: 27e5 2cbd 29bc 1fbb ba5a a2bd e8b6 8ebd
00000010: efb5 e33c d856 7ebd 979e a73b 0fb1 21bd
00000020: 0d2c 53bd 7bf0 5ebd 004a d53c 87aa a43c
00000030: ee6f 29bd dac3 403d 27a4 dbbd 7999 a63d
00000040: 4ed9 0c3d 87b2 b73c e98e 663d 478f 89bd
00000050: 060a 333d 2c82 b43d 8279 07bd e6e7 01bd
00000060: 7573 133d 5abc 7abd 8e1b e4bd 2ddc fabb
00000070: d8f2 1abc 7824 fa3c 661c 813d 99a6 37bd
00000080: 38c0 153d 902b 983d 41e5 d3bc 2ec1 7ebd
00000090: baf4 00bc 220a 1cbd 024c 9bbd adbc aebd
000000a0: 02a9 c7bc 23bf 6a3d 7448 8f3d 702c dcbd
000000b0: a205 38b9 0e89 2ebd ce8a 28bd f12b 99bd
000000c0: 2867 abbd bdda 25bd be7f c8bc f0e4 6bbb
000000d0: 78f0 f63b 6c2d 8bbd c013 eebd efd8 933c
000000e0: 6402 e2bd d1b5 8b3c 7afd 83bb 289c 1abb
000000f0: c4d7 8bbc 1a00 0b3d 3717 bfbd c3e1 fdbd
00000100: 063f c0bc 4888 40bd e159 033d ba42 75bc
00000110: ebef 3f3d 7805 a139 ef3e df3c a3b2 a7bd
00000120: 53ea 0abc e014 fbbc 0cb8 c63b 751d b0bc
00000130: f8ce 83bd 4abf 093b 17e5 2f3d 238d a2bd
00000140: 9606 61bd ffdd 5c3c fa11 eabc 23f8 3f3b
00000150: 444d afbd 6bfe fdbc d7c5 36bd 2343 c4bc
00000160: 949b f7bd ad49 52ba c080 f93b 6d32 8bbd
00000170: ac10 353d 6781 e53c dfb2 933c 75cd 43bc
00000180: 54ae febb b682 503d 39da 373b b682 b73b
00000190: 0bea 9f3c dc71 3ebd 7181 68bc 2ff5 16bd
000001a0: 286f 153c edd9 fbbc 00d1 89bd 9e6f 513c
000001b0: dc23 e23b 103f a43b 18be 8bbc f1aa 17bc
000001c0: 656e 243d dc8c 133b c9ec 023d 304a b63c
000001d0: d410 633d eed3 f73c 1b8b 5eb8 6f6d 4abc
000001e0: e6ad 8ebd dff9 103d b5da 20bd 207a 52bd
000001f0: 6bf7 c3bc 8ca8 af3b f300 eb3c 8bfd 36bd

network_body._body_endoder.seq_layers.2.weight f4 [128, 128]
0.17839803 0.010540258 0.11494838 0.063059494 0.06581815 -0.15881325 0.19019756 0.11140819
0.043202695 -0.13374682 0.03890984 0.1284307 -0.049188767 0.10132178 -0.122097574 0.046037592
0.078920916 0.14436994 -0.041571 0.06980451 0.016756069 -0.036859043 -0.05240563 0.033917066
-0.14254047 -0.04610503 -0.19627514 0.09815186 0.06334125 0.041208334 0.041343033 0.06296367
-0.03784918 -0.004988751 0.012098675 -0.11063853 -0.045376148 -0.1273355 -0.1724828 0.18961911
0.047394145 0.075889006 -0.06986617 0.04410238 0.051040046 0.04696345 -0.22889964 -0.0015631425
0.027872905 0.038400408 -0.008722958 -0.03801653 -0.080125764 0.03553269 -0.023832815 -0.21936832
-0.18670757 0.1920006 0.09522637 -0.018812777 -0.08164743 0.15265472 0.22137883 -0.0636705
-0.07728498 -0.10705433 -0.04902716 0.015551655 -0.07876943 -0.05142863 0.099095486 -0.03449564
-0.00658845 -0.10668427 0.0944398 -0.0021267117 0.14177173 -0.12193134 0.12244457 -0.18124762
-0.022645412 0.08736374 -0.12068876 0.0117208045 -0.103793405 -0.021989275 -0.20135547 -0.051398754
-0.07003014 0.15392508 -0.048292816 0.10453671 0.1364109 0.21260647 -0.06551926 -0.026749719
-0.037205074 0.03961889 -0.016527643 -0.08809252 0.023432858 -0.030994453 -0.0849716 -0.019005107
0.09141351 0.07383208 -0.016632581 -0.08635707 0.16291235 -0.02026679 0.038535565 0.17455216
0.011679579 0.15060845 -0.13631801 0.14695235 -0.020964757 7.743137e-05 0.02109002 -0.14859296
-0.027084611 -0.051363245 -0.13210274 0.12460017 -0.16215461 0.06310931 0.025233837 -0.02934405
-0.0937824 0.0371192 -0.13325275 -0.02967462 -0.039027136 -0.049251188 -0.025623428 -0.16110916
-0.09911331 -0.23955883 0.04224016 0.108616546 -0.12026017 -0.08709718 0.05526083 -0.034516398
-0.0946707 -0.02612409 -0.060182203 -0.12729792 0.043643244 -0.03265674 0.07438266 -0.0133134
0.0795188 -0.18775566 0.0075458614 0.11876622 -0.03290837 -0.0068024164 -0.0609888 0.22425051
0.012584785 -0.07314445 0.04905493 0.057866275 0.05811019 0.03182459 -0.14617683 0.014728177
-0.19516402 -0.08564375 -0.083320595 -0.08353168 -0.005292035 0.09531885 0.12236489 -0.010830688
0.22332971 0.021577327 -0.006863975 -0.09487165 -0.024256064 0.0010247362 0.05464944 0.015619211
-0.035729434 -0.13825393 0.09119609 -0.036818787 -0.26247647 -0.012091539 -0.07400737 0.12911513
0.029131208 -0.04918685 0.09742003 0.03213087 -0.027130175 0.081652716 0.040914893 0.028990455
0.06475286 -0.019410705 -0.019257167 0.036071394 0.07430439 0.14710864 0.05973695 -0.07688261
0.06823445 -0.037968323 0.08139312 0.13998117 0.021644793 -0.0011092327 0.018112695 0.08783666
0.08883192 0.17848134 0.083305955 0.067934714 -0.13129067 0.063961856 -0.072754614 0.0075519984
-0.002338347 -0.04292707 -0.16101305 -0.10388837 -0.100310355 -0.081565104 0.20761175 0.027241133
0.070348695 -0.12716231 -0.05143028 -0.06023574 -0.03075214 0.16888118 -0.14951737 -0.090271376
0.02274333 -0.17969519 0.017056992 0.032711525 -0.05605482 -0.061395083 -0.11087961 0.022322787
-0.031131264 -0.1292073 0.06787167 -0.09636238 0.0013427235 -0.034566954 -0.017493477 -0.078203954
00000000: f9ad 363e 0cb1 2c3c 0e6a eb3d 5625 813d
00000010: abcb 863d f19f 22be 26c3 423e fa29 e43d
00000020: 4ff5 303d edf4 08be ed5f 1f3d 5683 033e
00000030: 297a 49bd cb81 cf3d 4b0e fabd ea91 3c3d
00000040: 4aa1 a13d b7d5 133e 5a46 2abd abf5 8e3d
00000050: 0644 893c 82f9 16bd 49a7 56bd 9fec 0a3d
00000060: 21f6 11be a1d8 3cbd 5afc 48be d803 c93d
00000070: 0fb9 813d 12ca 283d 5057 293d 19f3 803d
00000080: be07 1bbd ad78 a3bb 8539 463c 7496 e2bd
00000090: 57dc 39bd 3d64 02be 559f 30be 832b 423e
000000a0: 5d20 423d b26b 9b3d ff15 8fbd b2a4 343d
000000b0: 5e0f 513d bf5c 403d ab64 6abe 5ce2 ccba
000000c0: b855 e43c bf49 1d3d bdea 0ebc 39b7 1bbd
000000d0: fa18 a4bd ba8a 113d 093d c3bc 17a2 60be
000000e0: 4530 3fbe ce9b 443e 0b06 c33d 411d 9abc
000000f0: c536 a7bd 8551 1c3e 22b1 623e ae65 82bd
00000100: 9647 9ebd 4d3f dbbd b4d0 48bd 5ecc 7e3c
00000110: de51 a1bd d4a6 52bd 93f2 ca3d 4d4b 0dbd
00000120: ede3 d7bb 487d dabd a769 c13d 4d60 0bbb
00000130: 9c2c 113e 23b7 f9bd 38c4 fa3d fa98 39be
00000140: df82 b9bc c3eb b23d ab2b f7bd 9e08 403c
00000150: a391 d4bd da22 b4bc 2130 4ebe 8087 52bd
00000160: f66b 8fbd 899e 1d3e b0ce 45bd 5817 d63d
00000170: 4daf 0b3e 83b5 593e f62e 86bd 3a22 dbbc
00000180: 5964 18bd 6b47 223d fb64 87bc da69 b4bd
00000190: 44f6 bf3c 14e8 fdbc 9705 aebd 99b0 9bbc
000001a0: 0237 bb3d 4635 973d 0d41 88bc fadb b0bd
000001b0: 7fd2 263e 8a06 a6bc 78d7 1d3d cdbd 323e
000001c0: b45b 3f3c 1a39 1a3e f396 0bbe ad7a 163e
000001d0: 48be abbc a662 a238 fac4 ac3c c128 18be
000001e0: 8ce0 ddbc 4462 52bd f145 07be 602e ff3d
000001f0: dc0b 26be 743f 813d 31b7 ce3c ef62 f0bc
00000200: fd10 c0bd 4d0a 183d 6973 08be 3018 f3bc
00000210: ebda 1fbd 9dbb 49bd 39e8 d1bc cdf9 24be
00000220: ebfb cabd e94e 75be 0504 2d3d 5a72 de3d
00000230: f74a f6bd 0260 b2bd 2e59 623d 1161 0dbd
00000240: b6e2 c1bd 3002 d6bc 9d81 76bd 635a 02be
00000250: 42c3 323d 13c3 05bd f055 983d 7220 5abc
00000260: c1da a23d 0543 40be 4643 f73b b43b f33d
00000270: edca 06bd cee6 debb 64cf 79bd eda1 653e
00000280: 6a30 4e3c c2cc 95bd d3ed 483d 3005 6d3d
00000290: f304 6e3d 805a 023d 61af 15be 744e 713c
000002a0: 14d9 47be fe65 afbd fda3 aabd a812 abbd
000002b0: cf68 adbb 8736 c33d 729a fa3d 3373 31bc
000002c0: 8bb0 643e efc2 b03c 32eb e0bb 114c c2bd
000002d0: a7b4 c6bc 7150 863a 17d8 5f3d b8e7 7f3c
000002e0: 0759 12bd 7092 0dbe 04c5 ba3d 4ccf 16bd
000002f0: 5163 86be 971b 46bc 2d91 97bd c236 043e
00000300: 92a4 ee3c 2778 49bd 2784 c73d a99b 033d
00000310: 1a40 debc 8a39 a73d 6096 273d 647d ed3c
00000320: 269d 843d 3303 9fbc 35c1 9dbc 99bf 133d
00000330: e62c 983d a6a3 163e bbae 743d a174 9dbd
00000340: 81be 8b3d ac84 1bbd 70b1 a63d 3957 0f3e
00000350: 6c50 b13c ac63 91ba 1361 943c b5e3 b33d
00000360: 82ed b53d d0c3 363e 509c aa3d 5b21 8b3d
00000370: 1071 06be 6ffe 823d 5f00 95bd c176 f73b
00000380: f43e 19bb 4cd4 2fbd 9be0 24be 6dc3 d4bd
00000390: 846f cdbd 9b0b a7bd 2d98 543e cc28 df3c
000003a0: fa12 903d d636 02be 8fa8 52bd c0b9 76bd
000003b0: e9eb fbbc 30ef 2c3e 151b 19be 33e0 b8bd
000003c0: 3850 ba3c 0402 38be 1bbb 8b3c 85fc 053d
000003d0: bd99 65bd 6979 7bbd d914 e3bd 47de b63c
000003e0: fe06 ffbc eb4e 04be 4d00 8b3d a459 c5bd
000003f0: 53fe af3a 1496 0dbd 7b4e 8fbc 6529 a0bd

network_body._body_endoder.seq_layers.2.bias f4 [128]
-0.026222125 0.031146795 -0.0074624894 0.042169504 0.014716983 0.019446291 -0.012304437 0.010706116
-0.014950895 0.008107369 -0.005572291 -0.09470743 0.003475546 0.016923621 0.04556784 -0.13011502
-0.020407706 0.0448609 -0.11199059 -0.010935631 0.034436233 0.017142307 -0.11347546 -0.12089284
-0.06139493 -0.12394213 0.008316484 0.056294855 0.018884944 -0.03019994 -0.0023734202 -0.050480396
-0.06771769 -0.09556511 -0.12961797 0.099215254 -0.017605372 0.0570296 0.028030004 -0.13787293
-0.08295543 0.0061365603 -0.09240868 -0.13133237 -0.05719011 -0.06944046 0.025049703 -0.06263759
-0.06729848 -0.0913013 0.013848043 -0.089951865 -0.023584735 -0.09353384 -0.046789896 -0.052274108
0.083424024 -0.0109539805 -0.119148634 3.0304727e-07 0.040478703 0.0034299274 0.09469217 -0.09489963
-0.0961551 -0.019393137 0.06493234 -0.03317073 -0.10111564 0.05712343 0.074460246 0.025591098
0.030738315 0.0012437444 -0.035793807 0.020666528 -0.04043819 0.0047420873 -0.07281394 0.041020643
-0.027401874 -0.028826313 0.012791052 -0.09200761 -0.018482367 -0.010081111 -0.05719416 0.024738157
0.083950564 -0.06805204 -0.094476976 -0.11368284 -0.023243202 -0.103556044 -0.043293096 -0.0764
0.015785137 -0.12012309 0.05936324 -0.14208375 0.059537467 0.0365555 -0.04403495 -0.06452703
-0.018544318 -0.06359786 -0.095883206 0.03274205 0.06156078 0.11334363 0.041644845 -0.13590206
0.026681788 -0.03989926 -0.07535093 0.059166588 -0.08103575 0.004214842 -0.04941602 -0.1181302
0.069404826 0.027493421 0.022822142 0.05157828 -0.008289863 0.025801612 -0.11487494 -0.09851212
00000000: c8cf d6bc 9027 ff3c e687 f4bb eeb9 2c3d
00000010: 801f 713c d44d 9f3c 8d98 49bc b568 2f3c
00000020: 99f4 74bc c5d4 043c c497 b6bb f8f5 c1bd
00000030: fcc5 633b 68a3 8a3c 58a5 3a3d df3c 05be
00000040: 102e a7bc 10c0 373d 535b e5bd 5c2b 33bc
00000050: 020d 0d3d 066e 8c3c d265 e8bd aa96 f7bd
00000060: 4079 7bbd 5fd5 fdbd dd41 083c 6f95 663d
00000070: 99b4 9a3c dd65 f7bc 628b 1bbb 88c4 4ebd
00000080: 92af 8abd a4b7 c3bd 93ba 04be 5e31 cb3d
00000090: 2439 90bc df97 693d 2e9f e53c 902e 0dbe
000000a0: 89e4 a9bd 3315 c93b c340 bdbd fe7b 06be
000000b0: 2d40 6abd cd36 8ebd 0935 cd3c 2348 80bd
000000c0: c9d3 89bd 2dfc babd e7e2 623c af38 b8bd
000000d0: c634 c1bc ab8e bfbd c3a6 3fbd 601d 56bd
000000e0: 37da aa3d 5378 33bc 3304 f4bd 80b2 a234
000000f0: ffcc 253d a2c8 603b f8ed c13d bd5a c2bd
00000100: f7ec c4bd 5bde 9ebc 3ffb 843d 08de 07bd
00000110: b715 cfbd 42fa 693d 9d7e 983d 6ca4 d13c
00000120: ebce fb3c 2305 a33a 879c 12bd da4c a93c
00000130: 84a2 25bd 8363 9b3b 7a1f 95bd 4305 283d
00000140: e579 e0bc 2925 ecbc 9091 513c 7c6e bcbd
00000150: 5568 97bc 3f2b 25bc 6c44 6abd ada7 ca3c
00000160: 46ee ab3d de5e 8bbd 257d c1bd 8cd2 e8bd
00000170: 8768 bebc 3115 d4bd 1a54 31bd 9a77 9cbd
00000180: d54f 813c 1803 f6bd de26 733d 677e 11be
00000190: 8fdd 733d 38bb 153d fe5d 34bd bf26 84bd
000001a0: 41ea 97bc 983f 82bd 6a5e c4bd 871c 063d
000001b0: 2827 7c3d b520 e83d c993 2a3d e929 0bbe
000001c0: c493 da3c 686d 23bd 9751 9abd aa58 723d
000001d0: 12f6 a5bd a81c 8a3b 7468 4abd 3fee f1bd
000001e0: 1e24 8e3d e239 e13c 80f5 ba3c bf43 533d
000001f0: 35d2 07bc e75d d33c 8d43 ebbd b9c0 c9bd

network_body._body_endoder.seq_layers.4.weight f4 [128, 128]
-0.004036933 -0.046963926 -0.010340599 0.039037563 -0.18829416 0.060901973 0.0956202 0.083319955
0.0032913878 0.10072353 -0.032514192 -0.10497222 0.15976433 -0.034733623 -0.106561854 0.16754833
0.054449663 -0.027654704 0.05566379 -0.045958538 -0.12398926 0.11132116 0.024314296 0.03553435
0.0648445 0.07714737 -0.103894524 0.00347029 -0.16289023 -0.09210315 -0.20220883 0.121368065
0.012841249 -0.005154161 -0.07423518 -0.0142683 -0.06943484 0.009385537 -0.07773883 0.1267402
-0.14166851 0.10283072 0.060128227 0.01666742 0.047979876 -0.12595531 -0.0009962368 0.17031766
-0.09717606 0.24940488 -0.019202974 0.050917868 -0.11137557 -0.06253318 0.015364421 -0.062326923
-0.094022684 0.040361196 0.085129224 0.08042005 0.0012787969 0.028202966 -0.184301 0.09296208
0.09485007 -0.09864184 -0.113122486 0.09423626 0.08491234 0.02975632 0.0019302451 0.033015747
0.030476125 -0.06262891 -0.08243521 0.18474197 0.03336285 -0.06734266 0.045543037 -0.023298144
-0.02913623 0.17204277 -0.056232125 0.02009943 -0.12587154 -0.07860627 -0.15672566 -0.061090004
0.04141962 -0.22719921 -0.12522085 -0.017961705 -0.045989797 0.062049344 0.06592473 -0.027622886
0.07289218 0.22581735 -0.08886736 0.17587638 -0.113934815 -0.013739653 0.019204471 0.1055314
-0.035294935 -0.0024150065 0.21252452 0.003422769 -0.017195692 -0.018011853 -0.08767837 0.10091264
0.057094473 0.04440469 -0.1373503 -0.14058109 -0.048198346 -0.00022768849 -0.033971056 0.1597942
-0.030223515 0.017511806 0.013339553 -0.06195954 -0.06959776 0.02465874 -0.008818641 0.033981305
-0.05233357 0.1268678 0.079736985 0.072618365 -0.17236461 0.07447279 -0.134833 -0.10702762
-0.028479945 -0.06871612 0.051180728 0.05119181 -0.14256439 -0.21329439 0.074521706 -0.13582212
-0.0649833 -0.08603906 -0.028276145 -0.13405612 -0.079686984 -0.10488979 -0.010030416 0.17386688
0.049884796 -0.036474735 -0.03536241 -0.034541104 -0.14234416 -0.036298245 -0.03736991 0.04679798
0.12027011 0.008107127 -0.098675184 -0.12038192 -0.026885347 -0.23048933 -0.027191157 0.0074364864
0.026898235 0.022820383 0.042447142 0.08681751 0.1684643 0.12172117 0.18151489 -0.053567935
-0.024977343 -0.09120052 -0.10243334 0.07667705 0.08072285 0.032060824 0.02274452 0.10384852
-0.14776666 -0.11767379 0.12499332 0.03574405 -0.058662165 -0.057978198 -0.045894384 0.05610679
0.11023001 -0.089739636 -0.09271406 -0.037528798 -0.009267167 -0.08968572 0.052233204 -0.15551575
-0.09303329 0.007938524 0.26629856 -0.074761294 0.18040301 0.18989423 0.0014370311 -0.12298968
-0.110593006 0.13837658 0.14215857 0.036484953 0.0097051645 0.024387887 0.11143553 0.078827776
-0.0865309 -0.021668302 0.020580918 0.205756 -0.11432639 0.01213478 -0.031000497 0.003972243
-0.11635091 0.04913316 -0.20258863 0.15007907 -0.079225935 -0.02452898 0.06399342 0.17024584
0.043845426 -0.0020082549 0.121653095 -0.009885449 0.017183723 -0.023817237 -0.01819341 0.17803642
0.013876014 0.054141887 0.10262739 -0.018903999 0.06899966 0.16368508 0.20656972 0.13170166
-0.15990177 -0.112779655 0.0826092 -0.28290746 0.021642383 0.0013848386 -0.049045824 -0.0012167176
00000000: 4048 84bb 3f5d 40bd 9e6b 29bc dae5 1f3d
00000010: 2fd0 40be 5974 793d 86d4 c33d a7a3 aa3d
00000020: 53b4 573b 2348 ce3d 9a2d 05bd adfb d6bd
00000030: 4399 233e d844 0ebd 1a3d dabd ca91 2b3e
00000040: 9c06 5f3d 1e8c e2bc b7ff 633d 053f 3cbd
00000050: 15ee fdbd 59fc e33d c62e c73c 778c 113d
00000060: 31cd 843d 71ff 9d3d a7c6 d4bd ce6d 633b
00000070: b2cc 26be 94a0 bcbd d50f 4fbe d28f f83d
00000080: 1a64 523c 3ce4 a8bb 9d08 98bd 96c5 69bc
00000090: da33 8ebd ccc5 193c 8935 9fbd 2fc8 013e
000000a0: 8d11 11be ea98 d23d 0449 763d 1d8a 883c
000000b0: 8c86 443d 6efa 00be 2994 82ba c167 2e3e
000000c0: 3e04 c7bd fe63 7f3e 8e4f 9dbc 418f 503d
000000d0: e018 e4bd 6511 80bd 0dbb 7b3c 844a 7fbd
000000e0: f78e c0bd c851 253d 3b58 ae3d 44b3 a43d
000000f0: 4e9d a73a e809 e73c 67b9 3cbe e762 be3d
00000100: c140 c23d bc04 cabd c3ac e7bd f1fe c03d
00000110: 85e6 ad3d 87c3 f33c 4700 fd3a 853b 073d
00000120: 11a9 f93c 9643 80bd cbd3 a8bd 002d 3d3e
00000130: 7ca7 083d f3ea 89bd 568b 3a3d c0db bebc
00000140: 1aaf eebc fb2b 303e a853 66bd 8fa7 a43c
00000150: 78e4 00be 53fc a0bd b17c 20be 8339 7abd
00000160: 9fa7 293d e9a6 68be e539 00be 6d24 93bc
00000170: cc5f 3cbd 7427 7e3d 8b03 873d 6449 e2bc
00000180: 7f48 953d aa3c 673e 1700 b6bd f018 343e
00000190: a856 e9bd 481c 61bc b252 9d3c d920 d83d
000001a0: 6c91 10bd 1645 1ebb 07a0 593e 8950 603b
000001b0: fbdd 8cbc 988d 93bc b890 b3bd 49ab ce3d
000001c0: e5db 693d b1e1 353d 8fa5 0cbe 7df4 0fbe
000001d0: a16b 45bd aabf 6eb9 3c25 0bbd 17a1 233e
000001e0: 4e97 f7bc eb74 8f3c 248e 5a3c 49c9 7dbd
000001f0: 4589 8ebd 2001 ca3c 107c 10bc fb2f 0b3d
00000200: ba5b 56bd a2e9 013e 254d a33d f0b8 943d
00000210: 5980 30be 3185 983d a911 0abe 4c31 dbbd
00000220: c64e e9bc 0abb 8cbd e2a2 513d 81ae 513d
00000230: 66fc 11be d869 5abe d69e 983d f414 0bbe
00000240: f715 85bd 3f35 b0bd 60a3 e7bc 0246 09be
00000250: ee32 a3bd 75d0 d6bd 9d56 24bc 290a 323e
00000260: 0054 4c3d 8866 15bd 2dd8 10bd f97a 0dbd
00000270: abc2 11be 78ad 14bd 3111 19bd 3daf 3f3d
00000280: 2d50 f63d c1d3 043c 3716 cabd cc8a f6bd
00000290: a93e dcbc 6505 6cbe fdbf debc c5ad f33b
000002a0: b059 dc3c d0f1 ba3c 0edd 2d3d 61cd b13d
000002b0: e881 2c3e f348 f93d 0adf 393e 0d6a 5bbd
000002c0: 499d ccbc 57c7 babd 92c8 d1bd db08 9d3d
000002d0: 0652 a53d 3652 033d b752 ba3c 88ae d43d
000002e0: 2550 17be f5fe f0bd 7ffc ff3d 5a68 123d
000002f0: bd47 70bd 8c7a 6dbd c0fb 3bbd 3cd0 653d
00000300: 45c0 e13d 6ac9 b7bd dee0 bdbd ccb7 19bd
00000310: 51d5 17bc 26ad b7bd 7cf2 553d 853f 1fbe
00000320: 3d88 bebd 9510 023c 4958 883e 731c 99bd
00000330: 91bb 383e a273 423e c35a bc3a 03e2 fbbd
00000340: 967e e2bd 97b2 0d3e 0492 113e 3f71 153d
00000350: 6902 1f3c 1bc9 c73c 5038 e43d 7570 a13d
00000360: 1d37 b1bd b981 b1bc 5099 a83c b3b1 523e
00000370: f423 eabd f5d0 463c c1f4 fdbc 9729 823b
00000380: 6349 eebd da3f 493d 6573 4fbe 54ae 193e
00000390: 3541 a2bd 00f1 c8bc fb0e 833d ed54 2e3e
000003a0: 4397 333d ed9c 03bb 4225 f93d 94f6 21bc
000003b0: e1c4 8c3c 5e1c c3bc 590a 95bc 2e4f 363e
000003c0: 3958 633c e2c3 5d3d 4f2e d23d 8fdc 9abc
000003d0: b24f 8d3d 109d 273e 0387 533e cddc 063e
000003e0: 4abd 23be 05f9 e6bd 032f a93d 3fd9 90be
000003f0: 5e4b b13c 7983 b53a 46e4 48bd 457a 9fba

network_body._body_endoder.seq_layers.4.bias f4 [128]
-0.04663778 -0.04897535 -0.15425831 -0.0007052876 -0.1680471 0.02001723 -0.17212413 0.01149496
-0.017568385 -0.19413528 -0.03418234 -0.051507577 -0.037316043 -0.07861627 -0.083226584 0.0033028526
-0.22766837 -0.03122809 0.02805245 0.03164168 -0.050401762 -0.044377193 -0.037789743 -0.0674656
-0.040934272 -0.015649728 -0.18165988 -0.18994007 -0.21104531 0.0115398485 -0.027905889 -0.04283791
-0.0011759527 -0.08724088 -0.052291837 -0.21095243 -0.0076956144 0.005252448 -0.01265013 -0.18763451
-0.017355904 -0.008967792 -0.025993282 -0.07906729 -0.051212996 -0.008252184 -0.044383027 0.010244755
-0.05871548 0.036968168 -0.053248048 0.016431982 -0.050190054 -0.05206179 -0.03348242 -0.025157945
-0.19680056 -0.015918778 0.0055765538 -0.11856551 0.014259212 -0.004659296 0.008981688 -0.022411352
0.020078953 -0.16617191 -0.015057305 -0.035260737 -0.0033951476 -0.048307527 -0.04576416 -0.17928332
-0.01944008 -0.03709055 -0.030164586 0.019625768 -0.03378863 -0.039261002 -0.024629533 -0.028028289
0.0019520784 -0.0046915505 -0.048949163 -0.17840405 -0.14991485 0.022248473 -0.041553013 -0.04735458
0.011169563 0.012025998 -0.0014523277 -0.06667426 -0.06271027 -0.21689074 -0.16676313 -0.2320606
-0.029794252 -0.026862945 -0.01293534 -0.032907613 -0.03807219 0.01518317 -0.055876844 -0.026046462
-0.16844335 -0.029097762 -0.17861328 0.020630365 -0.078428514 -0.021813178 0.014172587 -0.023707937
-0.00030617436 0.0018951774 0.024689896 -0.03193417 -0.026673732 -0.2060258 -0.2026581 -0.18053898
-0.0014510491 -0.20197359 -0.03425495 -0.019361757 -0.05641922 -0.21623327 -0.011418948 -0.15338023
00000000: 4207 3fbd 609a 48bd e4f5 1dbe 0de3 38ba
00000010: 8a14 2cbe 2dfb a33c 4f41 30be 5b55 3c3c
00000020: 93eb 8fbc 66cb 46be c802 0cbd 9cf9 52bd
00000030: b5d8 18bd 9101 a1bd b372 aabd ac74 583b
00000040: e621 69be 0dd2 ffbc 40ce e53c b59a 013d
00000050: 1472 4ebd dcc4 35bd 6bc9 1abd 682b 8abd
00000060: b2aa 27bd dc33 80bc 0c05 3abe a67f 42be
00000070: 431c 58be a211 3d3c e49a e4bc ce76 2fbd
00000080: 6d22 9aba 59ab b2bd f72f 56bd ea03 58be
00000090: 7e2b fcbb ba1c ac3b 7e42 4fbc 4323 40be
000000a0: f82d 8ebc a5ed 12bc ddef d4bc 08ee a1bd
000000b0: b8c4 51bd 2b34 07bc faca 35bd 9ed9 273c
000000c0: a57f 70bd ef6b 173d a01a 5abd 5d9c 863c
000000d0: 1694 4dbd be3e 55bd dd24 09bd 0918 cebc
000000e0: 1686 49be 1968 82bc 86bb b63b 79d2 f2bd
000000f0: 789f 693c 02ad 98bb ee27 133c 0398 b7bc
00000100: 9e7c a43c f828 2abe eab2 76bc 906d 10bd
00000110: 2081 5ebb 1dde 45bd 3373 3bbd 0c96 37be
00000120: cd40 9fbc 43ec 17bd b91b f7bc 38c6 a03c
00000130: f265 0abd 25d0 20bd e0c3 c9bc 959b e5bc
00000140: e2dc ff3a 94bb 99bb eb7e 48bd 8daf 36be
00000150: 4783 19be 6e42 b63c 7e33 2abd e0f6 41bd
00000160: 8b00 373c b108 453c 085c beba 848c 88bd
00000170: 3e6e 80bd 9b18 5ebe f4c3 2abe 4ba1 6dbe
00000180: 1313 f4bc ae0f dcbc c0ee 53bc 22ca 06bd
00000190: 96f1 1bbd d5c2 783c 1edf 64bd 645f d5bc
000001a0: 6a7c 2cbe 6e5e eebc 66e6 36be 0301 a93c
000001b0: 219f a0bd 8db1 b2bc 2334 683c 2637 c2bc
000001c0: 0786 a0b9 9a67 f83a 7742 ca3c 67cd 02bd
000001d0: df82 dabc 6df8 52be 9b85 4fbe 36df 38be
000001e0: 2131 beba 2ad2 4ebe eb4e 0cbd 8c9c 9ebc
000001f0: d717 67bd 416c 5dbe 8a16 3bbc b50f 1dbe

action_model._discrete_distribution.branches.0.weight f4 [2, 128]
0.10974513 0.042100217 0.049849007 0.014485622 0.0741833 0.0047666337 0.07849939 0.0133975865
0.021278726 0.04485004 0.010467643 0.055134427 0.027609983 0.10069562 0.050163317 0.053289093
0.03524253 0.039154585 -0.0015581868 -0.021822955 0.022326507 0.054113254 0.046426415 0.061591085
0.048502926 0.06275439 0.05673035 0.06789973 0.04538146 0.006005112 0.0019037467 0.017121868
0.04885958 0.037423257 0.025653554 0.055556715 0.019053087 0.008030437 0.03603717 0.053384453
-0.0003083712 -0.0016505144 -0.0031715846 0.04285907 0.0417441 0.020814683 0.013110653 0.03902954
0.060467884 -0.0031133879 0.030790607 0.0076582986 0.057684828 0.033751026 0.015386619 0.022844192
0.06017895 0.10606769 0.018855434 0.06726653 -0.014104159 0.0007616825 0.0018358749 0.087555565
-0.00027773474 0.06087926 0.006199347 0.0244641 0.024853101 -0.029458161 0.061234225 0.07778244
0.06444289 0.011902122 0.010276197 0.0037861492 0.117768645 0.010150872 0.00027025474 0.035881158
0.060857084 0.027690297 0.030872906 0.06191641 0.058668785 -0.004465767 0.014958068 0.030494405
0.022838842 0.03980672 0.03109123 0.0059289965 0.09109825 0.05766604 0.060688674 0.06252444
0.0643845 0.007936771 0.0007824985 -0.010522074 0.0041831695 0.04717367 0.048345536 0.056672167
0.077640556 0.0010949771 0.061228354 0.0024501232 0.11138187 0.069209136 -0.0043450124 0.05437219
0.009355111 0.0037305157 0.0047901864 0.05950067 0.089941606 0.046540946 0.047409456 0.06802561
0.002064667 0.055524793 0.035546858 0.027489236 0.0417569 0.044324756 0.015266876 0.08044405
-0.12114611 -0.05034338 -0.059869207 -0.024907108 -0.06500754 -0.001306 -0.08561297 -0.02809962
-0.017869182 -0.05617289 -0.024701709 -0.063033655 -0.047926202 -0.09970502 -0.04920616 -0.058699977
-0.055951465 -0.041867837 -0.00038989197 0.003803051 -0.028375931 -0.056801286 -0.017309608 -0.06242441
-0.038608693 -0.062256534 -0.06308515 -0.046470873 -0.04134381 0.0081459405 -0.011000326 -0.0051805247
-0.05081003 -0.030059362 -0.00044709485 -0.047077723 -0.0013841392 -0.020789696 -0.029461997 -0.0439365
0.004697588 0.0015516607 -0.010820344 -0.03766772 -0.022651266 -0.037915405 -0.003732345 -0.051800992
-0.043701373 0.008072474 -0.025600549 0.007811893 -0.04290959 -0.0386368 -0.01952802 -0.033046894
-0.0548006 -0.09285172 -0.0087362565 -0.08242369 -0.0050077364 -0.028679555 0.004930696 -0.0921387
0.0022462476 -0.06672941 -0.010138322 -0.03717546 -0.013256796 0.02485462 -0.059464715 -0.072721854
-0.07742226 0.004023984 -0.005668619 0.0031080924 -0.1175979 -0.0071297316 -0.005121304 -0.031727687
-0.038739532 -0.023989735 -0.01983337 -0.065766044 -0.06402302 0.004685603 0.0070074704 -0.023218649
-0.026192153 -0.045596633 -0.043665837 0.005107465 -0.09584926 -0.064824976 -0.057418708 -0.072160214
-0.065340124 -0.02629024 -0.0086528 -0.0018666632 -0.010352743 -0.054704044 -0.06294287 -0.053019352
-0.065734886 0.01003842 -0.06901398 -0.020802949 -0.12804434 -0.06614144 0.0017696461 -0.050562546
-0.01278098 -0.001418425 0.016856143 -0.052440185 -0.094668925 -0.064966574 -0.055213667 -0.05401509
-0.003909931 -0.06603727 -0.033960294 -0.029864822 -0.045209005 -0.03695488 -0.028862635 -0.069386885
00000000: 0ec2 e03d 4771 2c3d 792e 4c3d 1a55 6d3c
00000010: 6aed 973d 6c31 9c3b 4ac4 a03d 8d81 5b3c
00000020: b950 ae3c adb4 373d 7a80 2b3c a3d4 613d
00000030: 552e e23c 8139 ce3d 0d78 4d3d aa45 5a3d
00000040: 795a 103d 8f60 203d 133c ccba 0ec6 b2bc
00000050: 14e6 b63c dca5 5d3d a029 3e3d ef46 7c3d
00000060: 01ab 463d 6085 803d 155e 683d 030f 8b3d
00000070: e9e1 393d 88c6 c43b 2487 f93a 2943 8c3c
00000080: fc20 483d 2149 193d 6727 d23c 708f 633d
00000090: 3815 9c3c 1892 033c b69b 133d a8a9 5a3d
000000a0: e2ac a1b9 1356 d8ba 5cda 4fbb fe8c 2f3d
000000b0: ddfb 2a3d 8e83 aa3c 10ce 563c 70dd 1f3d
000000c0: 2cad 773d fb09 4cbb 953c fc3c 77f2 fa3b
000000d0: ed46 6c3d 843e 0a3d 2818 7c3c be23 bb3c
000000e0: 347e 763d 043a d93d b676 9a3c 09c3 893d
000000f0: 2115 67bc a6ab 473a bda1 f03a 5550 b33d
00000100: ed9c 91b9 885c 793d e423 cb3b f068 c83c
00000110: bb98 cb3c 3e52 f1bc bdd0 7a3d 664c 9f3d
00000120: a2fa 833d 1e01 433c 7f5d 283c 0b21 783b
00000130: b030 f13d d84f 263c fab0 8d39 1ff8 123d
00000140: 4745 793d c3d6 e23c 2de9 fc3c 109c 7d3d
00000150: ae4e 703d 9255 92bb af12 753c 67cf f93c
00000160: 8618 bb3c 5f0c 233d 09b3 fe3c 0748 c23b
00000170: b891 ba3d 3a33 6c3d b094 783d d00c 803d
00000180: 05dc 833d 3b09 023c 9620 4d3a c764 2cbc
00000190: f812 893b 2e39 413d f805 463d 1321 683d
000001a0: 0302 9f3d 5685 8f3a 95ca 7a3d 3f92 203b
000001b0: 2e1c e43d 85bd 8d3d 9b60 8ebb 60b5 5e3d
000001c0: 2e46 193c ab7b 743b fff6 9c3b f9b6 733d
000001d0: 4e33 b83d b8a1 3e3d 6b30 423d 0351 8b3d
000001e0: 5d4f 073b f76d 633d 9599 113d 1b31 e13c
000001f0: 4809 2b3d e08d 353d eb21 7a3c dabf a43d
00000200: 741b f8bd dc34 4ebd 6a39 75bd fe09 ccbc
00000210: ac22 85bd 172e abba da55 afbd 2d31 e6bc
00000220: 6462 92bc 8b15 66bd 3d5b cabc ca17 81bd
00000230: 444e 44bd 2532 ccbd 668c 49bd 636f 70bd
00000240: 5d2d 65bd 9c7d 2bbd 6a6a ccb9 9c3c 793b
00000250: a474 e8bc 77a8 68bd e1cc 8dbc bdb0 7fbd
00000260: 2624 1ebd b500 7fbd ca32 81bd 3e58 3ebd
00000270: 2058 29bd 8d76 053c b63a 34bc 64c1 a9bb
00000280: 2e1e 50bd 0d3f f6bc 0e68 eab9 92d4 40bd
00000290: 016c b5ba 274f aabc 495a f1bc c2f6 33bd
000002a0: 39ee 993b 1861 cb3a d047 31bc 7849 1abd
000002b0: 268f b9bc 2f4d 1bbd 5c9a 74bb 472d 54bd
000002c0: 3600 33bd 6942 043c 3eb8 d1bc e8fa ff3b
000002d0: f7c1 2fbd 9f41 1ebd 3af9 9fbc 2e5c 07bd
000002e0: 9876 60bd 0b29 bebd 8422 0fbc c0cd a8bd
000002f0: f017 a4bb 63f1 eabc ad91 a13b 37b3 bcbd
00000300: c835 133b 6ea9 88bd 341b 26bc 4c45 18bd
00000310: 0833 59bc eb9b cb3c 4691 73bd 32ef 94bd
00000320: 908f 9ebd a0db 833b d3bf b9bb 23b1 4b3b
00000330: 2bd7 f0bd 86a0 e9bb 9dd0 a7bb e4f4 01bd
00000340: 58ad 1ebd 1f86 c4bc 9779 a2bc 59b0 86bd
00000350: 801e 83bd b089 993b ec9e e53b 0935 bebc
00000360: ed90 d6bc 89c3 3abd f3da 32bd 865c a73b
00000370: 9e4c c4bd f5c2 84bd e12f 6bbd bcc8 93bd
00000380: 0bd1 85bd a15e d7bc 79c4 0dbc d3aa f4ba
00000390: 8d9e 29bc 5911 60bd 31e8 80bd d22a 59bd
000003a0: 03a0 86bd 2f78 243c 3457 8dbd f26a aabc
000003b0: 0e1e 03be 2a75 87bd 78f3 e73a ac1a 4fbd
000003c0: 5167 51bc 72ea b9ba e515 8a3c 85cb 56bd
000003d0: c8e1 c1bd 320d 85bd ba27 62bd ed3e 5dbd
000003e0: e11e 80bb 8c3e 87bd f319 0bbd 12a7 f4bc
000003f0: 142d 39bd 005e 17bd 5571 ecbc b61a 8ebd

action_model._discrete_distribution.branches.0.bias f4 [2]
-0.13950941 0.13950935
00000000: 8edb 0ebe 8adb 0e3e

action_model._discrete_distribution.branches.1.weight f4 [2, 128]
0.01976535 -0.0379717 0.014928212 -0.041437685 0.021324987 0.005580069 0.0067173406 0.025919847
-0.03159839 0.017928028 -0.00803765 0.009720618 0.03531312 0.03540349 -0.020039195 -0.0076606916
-0.0026469694 -0.016465964 -0.00077989814 0.0038376478 -0.03005301 -0.06813321 -0.03683995 0.009888854
-0.024021942 -0.0052176667 0.028540133 -0.008469459 0.0085323565 -0.013152096 0.0002568274 -0.012379051
0.010186343 -0.00582463 -0.03908039 -0.0006625921 -0.0026308629 0.027372414 0.032730132 0.021821056
-0.007019141 -0.01371118 -0.010074277 -0.03539091 0.027518012 -0.026303967 -0.0026432402 0.014870214
-0.01869112 0.00078079535 -0.046722934 0.0025180802 0.04036702 -0.04599931 -0.003811007 0.016421348
0.023659233 0.017754646 0.0130819315 0.031686977 0.0071160477 0.0024307657 0.00040282196 0.006032318
0.008462444 0.029371522 -0.007395915 0.0020706963 0.027363552 0.02256816 -0.0028767777 0.02177442
-0.003260599 -0.0006113786 0.014876518 -0.0024235996 0.021526368 0.00748087 0.036188513 -0.032262433
0.0021195132 -0.024063429 -0.046599023 0.0047466327 0.035538033 0.0027995522 0.010822127 0.008597204
0.009851064 0.0034086504 -0.014126571 -0.038280282 0.008205617 0.009653456 0.0008800375 -0.0050578504
0.0031612397 0.012927445 0.026747443 0.01139726 -0.013026099 0.026221702 -0.061166156 0.030310705
0.0063847587 0.013213109 0.012936487 -0.00461764 0.023173882 -0.015088869 -0.017686289 -0.016507296
0.01761297 -0.0048412792 0.007815474 0.024712976 0.014653711 0.00013673144 0.00095083995 0.01252264
0.017413825 0.007315681 -0.035686262 -0.0025177612 -0.029849973 -0.00994325 0.020781532 0.015099581
-0.013065418 0.042385828 -0.010637515 0.036999464 -0.02757786 0.00831399 0.010034834 0.009695008
0.060934898 -0.027722802 -0.0025083434 -0.0084374705 -0.022554122 -0.02618432 0.019054573 0.0033163321
0.010122118 0.009497094 0.0034892021 -0.0030915206 0.012275012 0.059683576 0.03220041 -0.00075699325
0.009983662 0.011327923 -0.013259206 0.01187269 -0.0069015827 0.003654541 0.0012455224 -0.005939514
-0.0006066903 -0.01960127 0.01696068 -0.0017046789 0.006176236 -0.013720314 -0.01849585 0.007679143
0.011653923 -0.011823916 0.013405168 0.03780235 -0.028858803 0.022417847 -0.008425393 -0.0027304946
0.042174686 -0.0034444195 0.041001275 0.0049072253 -0.024147734 0.030239187 -0.008627475 0.00081978005
-0.0150585575 -0.017698344 -0.008922426 -0.017684903 0.008660116 0.00033125965 -0.0025850555 -0.008984213
-0.009093597 -0.030073497 -0.0063381293 0.007976573 -0.019053303 -0.03857217 -0.008188236 -0.030786641
-0.0005470141 0.0010946346 -0.014327702 0.0019241159 -0.03732231 -0.0029364727 -0.035847962 0.042223535
0.0056835124 0.017603671 0.024161378 0.003956174 -0.027461069 -0.018747842 0.005264016 -0.017393552
-0.024897922 0.001809693 0.010273694 0.027405847 -0.017381182 -0.0060420237 -0.0126946615 -0.0036665474
-0.02567458 -0.013545164 0.00054626045 -0.016085677 0.015240831 -0.030000146 0.042399194 -0.049030878
-0.012370139 0.014379841 -0.009611064 -0.0092841275 -0.025097432 0.01168573 -0.006130091 0.013785913
-0.015215546 -0.005105204 -0.0077857827 -0.0067262365 -0.015307393 -0.0060690134 -0.0077566854 -0.0061240722
-0.019629983 -0.006045324 0.046980117 0.0011747944 0.005283558 -0.016696729 -0.025253296 -0.013792297
00000000: f1ea a13c 3788 1bbd 7695 743c 90ba 29bd
00000010: bdb1 ae3c 03d9 b63b 231d dc3b dc55 d43c
00000020: 506d 01bd cddd 923c 59b0 03bc 3a43 1f3c
00000030: 7da4 103d 4003 113d 3d29 a4bc 8a06 fbbb
00000040: c778 2dbb a1e3 86bc 1472 4cba 0c81 7b3b
00000050: bb31 f6bc 6d89 8bbd 7de5 16bd dc04 223c
00000060: aac9 c4bc f6f8 aabb ffcc e93c 7cc3 0abc
00000070: 4ccb 0b3c e47b 57bc caa6 8639 81d1 4abc
00000080: 9fe4 263c 8adc bebb c212 20bd ceb1 2dba
00000090: 8e6a 2cbb 1d3c e03c 0810 063d 12c2 b23c
000000a0: d300 e6bb dba4 60bc 950e 25bc 0ff6 10bd
000000b0: 746d e13c 6b7b d7bc 363a 2dbb 33a2 733c
000000c0: 1f1e 99bc 4aae 4c3a 8c60 3fbd 6006 253b
000000d0: e357 253d c669 3cbd 16c2 79bb 1086 863c
000000e0: 02d1 c13c 3172 913c 9955 563c 34ca 013d
000000f0: bc2d e93b 7b4d 1f3b d931 d339 c0aa c53b
00000100: 10a6 0a3c 8c9c f03c 6f59 f2bb 85b4 073b
00000110: 8729 e03c dde0 b83c 5288 3cbb 4560 b23c
00000120: c6af 55bb ec44 20ba a4bc 733c 41d5 1ebb
00000130: 1158 b03c 1622 f53b 683a 143d 9d25 04bd
00000140: 88e7 0a3b ab20 c5bc 9ede 3ebd a489 9b3b
00000150: 5490 113d b178 373b 4a4f 313c 4adb 0c3c
00000160: 5b66 213c aa63 5f3b 2273 67bc c9cb 1cbd
00000170: da70 063c 8729 1e3c 51b2 663a 53bc a5bb
00000180: cd2c 4f3b a2cd 533c 741d db3c 93bb 3a3c
00000190: 6b6b 55bc e5ce d63c 5d89 7abd 284e f83c
000001a0: 3d37 d13b cc7b 583c 8ff3 533c 924f 97bb
000001b0: 27d7 bd3c 4e37 77bc d6e2 90bc 4f3a 87bc
000001c0: 1349 903c 98a3 9ebb 790c 003c de72 ca3c
000001d0: 1e16 703c 915f 0f39 ca41 793a c22b 4d3c
000001e0: 70a7 8e3c 61b8 ef3b c22b 12bd 0601 25bb
000001f0: ee87 f4bc 03e9 22bc 083e aa3c 3c64 773c
00000200: 5610 56bc c39c 2d3d f948 2ebc c08c 173d
00000210: f7ea e1bc 6737 083c 2569 243c d0d7 1e3c
00000220: df96 793d ee1a e3bc 0563 24bb 513d 0abc
00000230: 6cc3 b8bc 8080 d6bc 5618 9c3c d256 593b
00000240: 3dd7 253c b399 1b3c 19ab 643b 1c9b 4abb
00000250: 221d 493c c476 743d 94e4 033d f570 46ba
00000260: 8392 233c c198 393c 243d 59bc ac85 423c
00000270: ac26 e2bb 0681 6f3b cc40 a33a 41a0 c2bb
00000280: 4c0a 1fba d892 a0bc 20f1 8a3c 886f dfba
00000290: 0662 ca3b 2bcb 60bc 9c84 97bc 52a1 fb3b
000002a0: 19f0 3e3c 19b9 41bc 5aa1 5b3c a3d6 1a3d
000002b0: 4c69 ecbc a2a5 b73c a90a 0abc 19f2 32bb
000002c0: 5dbf 2c3d c5bb 61bb f4f0 273d cacc a03b
000002d0: 78d1 c5bc 2cb8 f73c 415a 0dbc 82e6 563a
000002e0: 2bb8 76bc 1efc 90bc 5e2f 12bc eedf 90bc
000002f0: 29e3 0d3c ebac ad39 096a 29bb 8532 13bc
00000300: 4ffd 14bc b25c f6bc 15b0 cfbb 2cb0 023c
00000310: ac15 9cbc dafd 1dbd f327 06bc 4434 fcbc
00000320: 7f65 0fba d879 8f3a bdbe 6abc 9e32 fc3a
00000330: 47df 18bd d671 40bb 50d5 12bd 96f2 2c3d
00000340: c23c ba3b 9335 903c 15ee c53c cba2 813b
00000350: 09f6 e0bc 1395 99bc c47d ac3b ec7c 8ebc
00000360: baf6 cbbc 3933 ed3a ff52 283c 3a82 e03c
00000370: fb62 8ebc 2bfc c5bb 45fd 4fbc 754a 70bb
00000380: 7f53 d2bc 89ec 5dbc eb32 0f3a 1cc6 83bc
00000390: aeb4 793c dec2 f5bc c7aa 2d3d 9ad4 48bd
000003a0: 20ac 4abc 6d99 6b3c b977 1dbc 741c 18bc
000003b0: 2199 cdbc 8175 3f3c eede c8bb 4fde 613c
000003c0: a04a 79bc 8e49 a7bb e11f ffbb c367 dcbb
000003d0: dccb 7abc 93de c6bb cb2b febb 71ac c8bb
000003e0: 0fcf a0bc da17 c6bb 396e 403d 8ffb 993a
000003f0: b221 ad3b 94c7 88bc 00e0 cebc 16f9 61bc

action_model._discrete_distribution.branches.1.bias f4 [2]
-0.04682929 0.0468293
00000000: 12d0 3fbd 14d0 3f3d

action_model._discrete_distribution.branches.2.weight f4 [3, 128]
0.030864047 0.009019816 -0.0028282278 0.0052050184 -0.0075194268 0.0057560327 0.0012787686 0.0060726246
-0.001954759 -0.0016714049 -4.5418732e-05 0.018969074 0.013306559 0.026153872 -0.01676714 0.022972284
0.0067403386 0.0067046923 -0.011968176 -0.012098384 0.018940357 -0.0066770543 0.002273165 0.044790223
0.0034935928 0.013784586 -0.010551582 0.006694699 -0.0033675998 -0.00030484027 0.015127047 -0.005278591
0.021791242 -0.0032190809 0.030855289 0.0066962712 -0.00041427847 -0.011786555 0.029204715 -0.0020191043
-0.013547665 -0.0037029667 -0.021642622 -0.016380884 0.024427071 0.0006993594 0.004992189 0.005272244
-0.0018837927 0.002033724 0.008125605 -0.0056504332 0.01607789 0.0028630649 0.011918129 0.020653391
0.002303835 0.009165016 0.0032333843 -0.01818342 -0.0048755147 -0.018561149 0.0019854188 0.02749943
-0.010459258 -0.0063957376 0.019493964 0.0011059366 -0.0025833366 0.0071342057 0.026089678 0.0025362987
0.0008200437 0.0057513993 -0.0082248505 -0.028434176 0.00455992 -0.019322434 0.020953642 0.005250935
0.037378754 -0.0049264957 0.00873014 0.007674826 -0.0042161355 0.0061867335 -0.008143542 0.017770883
0.00726489 0.030374607 -0.0122436695 0.020427682 0.026431251 7.2727504e-05 -0.0037101544 0.004043359
0.04354865 -0.0071109813 0.0051576155 0.020633845 0.0155867 -0.010115929 -0.006248524 0.02861153
-0.01282883 -0.025003182 -0.016123962 -0.010301048 0.007115022 0.012092431 -0.0075987573 0.01307864
0.037506256 -0.018463038 0.0063036736 0.05097728 0.022975514 -0.0050213165 0.00096673425 -0.001999472
-0.012069289 0.018872742 -0.0049286773 0.00067728054 -0.0032106957 0.010503386 -0.022492493 -0.0070551136
-0.025881985 -0.02580583 -0.02775871 -0.040253185 -0.012021436 -0.016888697 -0.01210967 -0.012111487
-0.039766178 -0.021261934 0.018933877 -0.008808994 0.00052476255 -0.0010067376 -0.025988987 -0.011292156
-0.020157877 -0.017869296 -0.014552003 0.034321576 -0.03377635 -0.010644568 -0.055654526 -0.03859839
-0.023186916 -0.019301828 -0.02269383 -0.015482507 -0.026647909 -0.03849573 -0.022751356 -0.0032176918
-0.026241273 -0.007832047 -0.052290212 -0.031977583 -0.01397218 0.005917247 -0.009911781 -0.018478889
-0.0027158384 0.009835291 0.016351316 -0.040387303 0.008484471 -0.03375263 -0.025401471 -0.0005621731
-0.0012757286 0.0010025982 -0.022520758 -0.0068734563 -0.00055332703 -0.027368436 0.008141139 -0.014542177
-0.003833528 -0.032166 0.029925622 -0.025532667 0.00878244 0.022881433 -0.013351581 -0.0076046074
0.017119434 0.0064737606 -0.0216746 -0.010519923 0.031645134 0.01471815 -0.016135102 -0.013179901
-0.0008479789 0.0047581154 -0.0031873328 0.006454753 -0.025126113 0.02714203 -0.014577209 -0.028129352
-0.0070106196 -0.032709975 -0.04578471 -0.0133946845 -0.011928333 0.026372522 0.0015445683 -0.03031191
0.027772568 -0.0095347045 0.013078812 -0.028366858 -0.0050212303 -0.012349566 -0.021493789 -0.013305472
-0.024593994 -0.024461986 0.013508055 -0.020955438 -0.029215151 -0.0037776788 -0.030531418 0.007304248
-0.0028665625 0.013607496 -0.027531907 0.0013821144 -0.03217912 -0.003956644 0.010491597 -0.023308888
-0.0038569788 -0.006789958 -0.0021235796 -0.040285498 -0.009244177 -0.021788154 -0.022097638 -0.018958902
0.029940149 -0.011394607 -0.04735707 0.00019569117 -0.034398943 -0.015312745 -0.0056530223 -0.0125277955
00000000: 99d6 fc3c dac7 133c ca59 39bb dc8e aa3b
00000010: 8665 f6bb 1a9d bc3b 5b9c a73a defc c63b
00000020: 6a1b 00bb 0b13 dbba fe7f 3eb8 0865 9b3c
00000030: c103 5a3c a540 d63c 3e5b 89bc 5f30 bc3c
00000040: 0fde dc3b 09b3 db3b 2b16 44bc 4d38 46bc
00000050: cf28 9b3c 31cb dabb 61f9 143b f475 373d
00000060: c3f4 643b bfd8 613c 8be0 2cbc 355f db3b
00000070: f3b2 5cbb f8d2 9fb9 6fd7 773c 08f8 acbb
00000080: 8c83 b23c 37f7 52bb 3bc4 fc3c 656c db3b
00000090: 8433 d9b9 651c 41bc ba3e ef3c f352 04bb
000000a0: 07f7 5dbc 79ad 72bb de4b b1bc 3431 86bc
000000b0: 481b c83c 3755 373a 8495 a33b cac2 ac3b
000000c0: 98e9 f6ba 3a48 053b 4221 053c 4527 b9bb
000000d0: c7b5 833c 42a2 3b3b 4244 433c 4d31 a93c
000000e0: f0fb 163b dd28 163c 30e7 533b 65f5 94bc
000000f0: c8c2 9fbb 8d0d 98bc cd1d 023b 7c46 e13c
00000100: 4f5d 2bbc 5693 d1bb ceb1 9f3c 13f5 903a
00000110: 324d 29bb 0ec6 e93b 05ba d53c 0838 263b
00000120: 33f8 563a 3c76 bc3b 86c1 06bc caee e8bc
00000130: 626b 953b 154a 9ebc f9a6 ab3c 0910 ac3b
00000140: 771a 193d 716e a1bb dc08 0f3c 1b7d fb3b
00000150: 8227 8abb 15ba ca3b 7e6c 05bc 3e94 913c
00000160: 500e ee3b 2bd4 f83c ac99 48bc f457 a73c
00000170: 5a86 d83c 4885 9838 1026 73bb 277e 843b
00000180: 1260 323d 3c03 e9bb 3701 a93b 4f08 a93c
00000190: 5c5f 7f3c 48bd 25bc 6bc0 ccbb ba62 ea3c
000001a0: 0330 52bc 79d3 ccbc 6616 84bc bac5 28bc
000001b0: 2125 e93b 551f 463c fffe f8bb cb47 563c
000001c0: 29a0 193d cc3f 97bc 0c8f ce3b 8dcd 503d
000001d0: 2537 bc3c db89 a4bb 706c 7d3a 9309 03bb
000001e0: 44be 45bc 029b 9a3c be80 a1bb 878b 313a
000001f0: 896a 52bb 6516 2c3c 2d42 b8bc 952e e7bb
00000200: 7506 d4bc bf66 d3bc 3c66 e3bc 86e0 24bd
00000210: 8ff5 44bc 2a5a 8abc a367 46bc 426f 46bc
00000220: dce1 22bd 822d aebc 381b 9b3c 9953 10bc
00000230: 3890 093a 82f4 83ba dbe6 d4bc bc02 39bc
00000240: 2222 a5bc a162 92bc 866b 6ebc c894 0c3d
00000250: 1259 0abd 8e66 2ebc 00f6 63bd 5819 1ebd
00000260: 7df2 bdbc de1e 9ebc 69e8 b9bc 57aa 7dbc
00000270: b74c dabc b3ad 1dbd 0d61 babc e9df 52bb
00000280: f0f7 d6bc fc51 00bc 432e 56bd edfa 02bd
00000290: 92eb 64bc 77e5 c13b 0665 22bc 0a61 97bc
000002a0: 35fc 31bb 3324 213c 32f3 853c 286d 25bd
000002b0: 7302 0b3c 3340 0abd bf16 d0bc cc5e 13ba
000002c0: 5936 a7ba 9d69 833a 747d b8bc bb3a e1bb
000002d0: 260d 11ba c533 e0bc 6962 053c 5042 6ebc
000002e0: ed3b 7bbb 7fc0 03bd 9426 f53c e229 d1bc
000002f0: 39e4 0f3c d871 bb3c 97c0 5abc 1230 f9bb
00000300: 0e3e 8c3c d721 d43b ee8e b1bc c15b 2cbc
00000310: 549e 013d 6524 713c c32d 84bc 83f0 57bc
00000320: e74a 5eba f7e9 9b3b 92e2 50bb 6582 d33b
00000330: 47d5 cdbc f658 de3c 3fd5 6ebc 876f e6bc
00000340: 57b9 e5bb e5fa 05bd c088 3bbd 6175 5bbc
00000350: 0e6f 43bc 300b d83c 1d73 ca3a af50 f8bc
00000360: 4c83 e33c 7337 1cbc 8348 563c 9d61 e8bc
00000370: 2289 a4bb d655 4abc be13 b0bc 32ff 59bc
00000380: 5879 c9bc 8164 c8bc e450 5d3c bdaa abbc
00000390: 9d54 efbc ef92 77bb 061d fabc 7958 ef3b
000003a0: f0dc 3bbb faf1 5e3c 988a e1bc 1028 b53a
000003b0: 41ce 03bd bca6 81bb f2e4 2b3c 48f2 bebc
000003c0: 5ec5 7cbb 4c7e debb c12b 0bbb 6802 25bd
000003d0: e374 17bc 127d b2bc 1b06 b5bc b34f 9bbc
000003e0: 0b45 f53c 72b0 3abc 7df9 41bd 7332 4d39
000003f0: e8e5 0cbd 4fe2 7abc fd3c b9bb 6241 4dbc

action_model._discrete_distribution.branches.2.bias f4 [3]
-0.017618984 0.011756598 0.01949297
00000000: b055 90bc bf9e 403c b9af 9f3c
