results/Final_Train/Player/Player-1014950.onnx (onnx, 159076 bytes, 17 tensors)

discrete_act_size_vector f4 [1, 4]
0	0x40400000	3.0
1	0x40000000	2.0
2	0x40400000	3.0
3	0x40400000	3.0

network_body.observation_encoder.processors.0.normalizer.running_mean f4 [14]
0	0xbfbb8205	-1.4649054
1	0xc0de4deb	-6.9470115
2	0x404638c8	3.0972157
3	0x41675b5d	14.4598055
4	0x40aa21c8	5.3166237
5	0x40c3f0e0	6.1231537
6	0xbf79927c	-0.9748914
7	0xc0b5c4b2	-5.6802607
8	0x4011a2d6	2.2755637
9	0x3ed37a08	0.4130404
10	0xbe9cd29d	-0.30629435
11	0xbe3c796d	-0.18405695
12	0x3b5b1b1e	0.003343291
13	0x00000000	0.0

network_body._body_endoder.seq_layers.0.weight f4 [128, 14]
0	0xbef658c1	-0.4811459
1	0x3e31db55	0.17368825
2	0x3edd4cb4	0.43222582
3	0x3d16ed7e	0.036847584
4	0xbddda1f8	-0.10821909
5	0x3e8b14c7	0.2716429
6	0xbdf3fcfa	-0.11913486
7	0xbd6e9b3d	-0.058253516
8	0xbf297198	-0.66188955
9	0x3e689580	0.2271328
10	0x3e5efb24	0.2177549
11	0x3e691b98	0.22764432
12	0x3e050fb8	0.12994277
13	0x3ea63f47	0.32470152
14	0x3eab3331	0.33437493
15	0xbb8ae3ed	-0.0042385967
16	0xbea0f3d2	-0.3143602
17	0xbe8a56e6	-0.27019423
18	0x3dc4fa9b	0.09618112
19	0xbe915508	-0.28385186
20	0x3ec5019c	0.3847779
21	0x3eba7ca8	0.3642323
22	0x3eb8e67a	0.3611334
23	0xbe07717f	-0.13226889
24	0x3e02b7c2	0.1276541
25	0x3e6cce66	0.2312561
26	0x3c5a3e33	0.0133204935
27	0xbeb5366e	-0.3539309
28	0xbe2597b1	-0.16171147
29	0xbcbe632d	-0.02324065
30	0x3ec7d4b0	0.39029455
31	0xbdbc8466	-0.092049405
32	0x3ecb934e	0.39760822
33	0xbf26f00e	-0.65210044
34	0x3e3e090a	0.18558136
35	0x3eeb8438	0.45999312
36	0xbe7ea4c4	-0.2486754
37	0x3c703db2	0.014663147
38	0x3d6c7315	0.05772694
39	0x3deb9e41	0.11504794
40	0x3e99e582	0.30057913
41	0x3d46c0bf	0.04852366
42	0xbdc9a190	-0.09845269
43	0x3d5b8a45	0.05359866
44	0xbcc5176d	-0.024059022
45	0x3ecb1f5f	0.39672372
46	0xbe87cf7c	-0.26525486
47	0x3f2c5cae	0.6732892
48	0x3dfbb1ae	0.12289749
49	0x3e505b39	0.20347299
50	0x3d850041	0.06494189
51	0xbca12278	-0.019669756
52	0x3e63a113	0.22229414
53	0x3dffd9ba	0.124927
54	0xbea52f2d	-0.32262555
55	0x3eaa3c64	0.332492
56	0x3dfb74eb	0.1227816
57	0x3c854706	0.016269218
58	0xbec56443	-0.38553056
59	0x3e733b13	0.23753004
60	0x3e819d8f	0.2531552
61	0x3e88a74a	0.2669013
62	0xbd94630a	-0.07245453
63	0xbeb42a5e	-0.35188574
64	0xbe66ffee	-0.22558567
65	0xbf0d3d1a	-0.5517136
66	0x3e2c4094	0.1682151
67	0xbc78d1fe	-0.015186785
68	0x3d91b840	0.07115221
69	0x3e7c417d	0.24634357
70	0x3eaf2e92	0.34215218
71	0xbdadb4d0	-0.08481753
72	0x3ee053c5	0.4381391
73	0xbe65b014	-0.2243045
74	0xbe07d713	-0.13265638
75	0xbc54ea93	-0.01299538
76	0x3e6f3bb2	0.23362616
77	0xbef418d4	-0.47675192
78	0xbe92c038	-0.28662276
79	0x3e8ca2e3	0.27468023
80	0xbd86c3c0	-0.06580305
81	0x3d14d8bc	0.036339507
82	0xbe2a4167	-0.16626512
83	0x3f0a321e	0.5398272
84	0x3c5de4ba	0.013543302
85	0xbe9223bb	-0.28542885
86	0xbeee1259	-0.46498373
87	0x3eae157f	0.34000775
88	0xbe7f2641	-0.24916936
89	0x3efe0fee	0.49621528
90	0x3eda37eb	0.42620787
91	0x3f0752b4	0.5286057
92	0xbed33453	-0.41250858
93	0xbf06dd08	-0.52681017
94	0xbdedfeea	-0.116208866
95	0x3e1bf18f	0.15228866
96	0x3efc7b2c	0.49312723
97	0xbf218e85	-0.6310809
98	0x3e145d40	0.14488697
99	0xbdc22b0b	-0.09480866
100	0xbe85145a	-0.2599209
101	0x3e96d515	0.29459444
102	0xbe8dbac8	-0.27681565
103	0xbe9b7651	-0.30363706
104	0x3e9f7877	0.31146595
105	0x3e1db9e5	0.15402944
106	0xbe250aa9	-0.16117348
107	0xbe34802d	-0.1762702
108	0x3ddc9abe	0.10771702
109	0xbdc50449	-0.09619958
110	0x3e9dadd2	0.30796677
111	0x3cdd3f01	0.027007582
112	0xbdd047bb	-0.101699315
113	0x3efc3daa	0.49265796
114	0x3cee5a56	0.02909581
115	0x3e9d95c3	0.30778322
116	0xbe60f558	-0.21968591
117	0x3e3eba35	0.1862572
118	0x3ced297b	0.028950443
119	0xbe1e77c4	-0.15475374
120	0xbbafcc33	-0.0053649186
121	0xbdca4d05	-0.098779716
122	0x3e0b4b77	0.13603006
123	0x3e223f1e	0.1584439
124	0x3f1c8d6b	0.61153287
125	0xbebcaec3	-0.36852083
126	0x3db08a2b	0.086201034
127	0xbf4c0f05	-0.7971042
128	0x3d3aad06	0.045575164
129	0xbda66185	-0.08124069
130	0x3b61e186	0.0034466698
131	0xbdd9b1b7	-0.106295995
132	0x3f1b3fc4	0.60644174
133	0x3d669b5e	0.056300513
134	0x3d61b380	0.055102825
135	0xbe4e3a9e	-0.20139548
136	0xbdc9ad08	-0.09847456
137	0xbec83bda	-0.39108163
138	0x3de72f06	0.11288266
139	0x3dd07cc3	0.101800464
140	0x3e5dcdaf	0.21660493
141	0xbdecd3e7	-0.11563855
142	0xbe0c1025	-0.13678034
143	0xbef359cd	-0.4752945
144	0xbf51f7d2	-0.8201877
145	0x3c5fb5a7	0.013654149
146	0xbec1668f	-0.37773558
147	0x3d2dcad5	0.042429764
148	0x3e3ea1b8	0.18616378
149	0x3ed2f920	0.41205692
150	0xbc19bc80	-0.009383321
151	0x3de98a66	0.114033505
152	0x3ed38471	0.41311982
153	0x3ecc1797	0.39861748
154	0x3dfbea7c	0.12300584
155	0xbe344405	-0.17604072
156	0xbe20a2bd	-0.1568708
157	0x3f25c18a	0.6474844
158	0xbeb91bff	-0.36154172
159	0x3e2d5452	0.16926697
160	0x3ba03465	0.0048890584
161	0xbf168a5c	-0.5880487
162	0xbbcc8787	-0.006241742
163	0xbe5cc05d	-0.21557756
164	0x3d3d7a25	0.046259064
165	0x3f0db3cf	0.5535249
166	0xbddb2530	-0.10700452
167	0xbdff38fc	-0.12462041
168	0xbdda8bcf	-0.106711976
169	0xbd9d06ac	-0.07667288
170	0x3f59da44	0.8509867
171	0xbf152159	-0.5825401
172	0xbca409d6	-0.020024221
173	0xbe74a346	-0.23890409
174	0x3ec63b51	0.3871713
175	0x3e54a005	0.20764168
176	0xbd1f6c76	-0.038921796
177	0xbdb33782	-0.08750822
178	0xbdbfe37b	-0.0936956
179	0xbf2007fb	-0.6251218
180	0xbe951f24	-0.2912532
181	0xbc9a50e2	-0.018837396
182	0x3e42e7b2	0.19033697
183	0xbf2e3fcc	-0.68066096
184	0xbe68b1ff	-0.2272415
185	0xbefa0305	-0.4883043
186	0x3bb74fde	0.0055942377
187	0x3db9f7a6	0.09080438
188	0xbf19d0ff	-0.6008453
189	0x3cb282d4	0.0217909
190	0xbebcb5e9	-0.36857536
191	0x3e503074	0.20330983
192	0xbd041271	-0.03224415
193	0x3e5074fe	0.20357129
194	0xbd355872	-0.0442738
195	0xbdee3fe7	-0.11633282
196	0x3c8df6d4	0.01732961
197	0xbe937090	-0.28796816
198	0xbea2e81c	-0.3181771
199	0x3ec078ae	0.3759207
200	0x3ddf1311	0.108923085
201	0xbee2dc9e	-0.44308943
202	0xbeacfeab	-0.33788046
203	0x3ebbbf5a	0.36669427
204	0xbe55b0e3	-0.20868258
205	0xbf25a1f5	-0.6470025
206	0xbdec1ae2	-0.11528565
207	0xbd0eaaa4	-0.034830704
208	0x3ea9b0ed	0.33142796
209	0x3e9f5fc1	0.31127742
210	0x3b829108	0.003984574
211	0xbca36306	-0.019944679
212	0xbeae3451	-0.3402429
213	0x3ebfd92f	0.37470385
214	0xbe95cd43	-0.29258165
215	0xbe8ad728	-0.27117276
216	0xbe270e53	-0.16314058
217	0x3f522aa1	0.82096297
218	0x3ec305a3	0.38090238
219	0x3eaca2a1	0.33717826
220	0xbec61b42	-0.3869267
221	0xbf0685ef	-0.52548116
222	0x3f76327e	0.96170795
223	0xbe54b1ff	-0.20771025
224	0x3f291a51	0.6605578
225	0x3ddda165	0.10821799
226	0x3ec985ed	0.3935999
227	0xbe27755e	-0.16353366
228	0xbe1e558e	-0.15462324
229	0xbe924012	-0.28564507
230	0xbec24f0f	-0.37950942
231	0xbecf53f2	-0.40493733
232	0x3e875d48	0.26438355
233	0xbcea8653	-0.028628504
234	0xbd79722c	-0.0608999
235	0x3f01027b	0.5039441
236	0x3ed0ca0f	0.40779158
237	0xbd2dbf14	-0.042418554
238	0xbe01cbdd	-0.12675424
239	0xbe746f41	-0.23870565
240	0x3f038de5	0.5138839
241	0x3d487e80	0.048948765
242	0xbf3b0d2f	-0.7306699
243	0x3f0ce0dc	0.5503061
244	0xbf1d8d8e	-0.6154412
245	0x3ea976e8	0.3309853
246	0x3e30d9de	0.1727061
247	0x3e94f371	0.2909198
248	0x3e7be3c4	0.24598604
249	0x3eb03306	0.34413928
250	0xbea75c56	-0.32687634
251	0xbec3c368	-0.3823502
252	0x3dbacfe0	0.0912168
253	0x3ecd83e4	0.40139687
254	0xbed7ac2a	-0.42123538
255	0xbed236b7	-0.4105737

network_body._body_endoder.seq_layers.0.bias f4 [128]
0	0x3e105e3e	0.1409845
1	0x3d3c04dc	0.04590307
2	0x3d570ff9	0.052505467
3	0xbc0fb7d2	-0.0087718535
4	0xbd00c9d2	-0.03144247
5	0x3d5780d6	0.052613102
6	0xbc2e90bf	-0.010654627
7	0xbd881611	-0.06644834
8	0x3d451b34	0.048121646
9	0xbd41875f	-0.04724824
10	0x3da541a3	0.0806916
11	0xbcc14d34	-0.023596384
12	0x3dd31cda	0.103082374
13	0x3d785fa0	0.06063807
14	0xbd4e249a	-0.050327875
15	0x3baa4850	0.0051966086
16	0x3d85d567	0.06534844
17	0x3d6d2458	0.05789599
18	0x3daa9b48	0.08330399
19	0xbaf694ae	-0.001881262
20	0x3de56bbe	0.11202191
21	0xbd2c9507	-0.04213431
22	0x3d9cfa35	0.07664911
23	0xbd400376	-0.0468783
24	0x3dbebaa2	0.09312941
25	0xbd0b76cb	-0.034048837
26	0x3d4dd60c	0.05025296
27	0xbb92e253	-0.0044825464
28	0x3ddd9a0c	0.10820398
29	0xbca51fc1	-0.020156743
30	0x3bb20ee7	0.0054339054
31	0x3c8e9434	0.017404653
32	0x3c907aaf	0.017636625
33	0x3d3b7d3e	0.045773737
34	0x3c82ce67	0.015967561
35	0xbc037c2d	-0.008025211
36	0x3d8cfafa	0.068838075
37	0x3dade25e	0.08490442
38	0x3e2e0229	0.16993012
39	0x3dc3a387	0.09552675
40	0xbb5b11e1	-0.0033427405
41	0x3d332b3a	0.043742396
42	0x3cfdf967	0.031002713
43	0x3d865918	0.06559962
44	0xbd3176b3	-0.04332609
45	0x3db7b406	0.089698836
46	0x3c906d65	0.017630288
47	0x3c1a0e7e	0.009402869
48	0x3cf0e2b0	0.029404968
49	0x3c8c1bf1	0.017103167
50	0x3c868cca	0.016424555
51	0x3d8a64c0	0.06757498
52	0x3cb6d56c	0.022318564
53	0x3cbcc857	0.023044748
54	0xbc30512f	-0.010761543
55	0x3d0b9603	0.03407861
56	0xbd2b05a8	-0.04175344
57	0x3d54f275	0.051989038
58	0x3b8c4af2	0.004281395
59	0x3d35a13f	0.04434323
60	0xbdc9188f	-0.09819137
61	0x3d0107ef	0.031501707
62	0xbc2dfdc3	-0.010619584
63	0x3b77f7de	0.003783695
64	0x3d258785	0.040412445
65	0x3dd269c2	0.10274078
66	0xbd6e1956	-0.05812963
67	0x3d720132	0.05908317
68	0x3d2a0f89	0.04151872
69	0x3d40e399	0.047092054
70	0xbd3ba2fe	-0.04580974
71	0x3dc6d85e	0.097092375
72	0x3be67acd	0.007033682
73	0x3de28395	0.110602535
74	0x3c5f1793	0.01361646
75	0x3e1eb5da	0.15499058
76	0xbd3dbd6a	-0.046323217
77	0x3d123a58	0.035700172
78	0x3d732560	0.059361815
79	0xbc1fcacf	-0.009752943
80	0x3dc3a11e	0.09552215
81	0x3df0cdbe	0.11757992
82	0x3da1f899	0.07908744
83	0x3c40d921	0.011770518
84	0x3d827393	0.063697
85	0xbd5d9822	-0.054100163
86	0xbc31ebba	-0.010859424
87	0x3cf18394	0.029481687
88	0x3dd3e376	0.10346119
89	0x3c493773	0.0122812865
90	0x3d1495ab	0.036275547
91	0xbc0ebf64	-0.008712623
92	0x3deb7ba7	0.11498194
93	0x3d63df18	0.05563268
94	0x3cf244d0	0.029573828
95	0x3cd41564	0.025889106
96	0xbc59ae85	-0.013286238
97	0x3d8d4b6f	0.068991534
98	0x3d0d598e	0.034509234
99	0x3dee5968	0.11638147
100	0xbd3073c1	-0.04307914
101	0xbca092e5	-0.019601295
102	0xbb1477cc	-0.0022654412
103	0xbc854c1e	-0.016271647
104	0xbd0d6d97	-0.03452834
105	0xbca4c7e3	-0.020114845
106	0x3d827e9f	0.06371807
107	0x3ce2fbad	0.027707899
108	0x3d8efd04	0.06981853
109	0x3b8f36dc	0.0043705534
110	0x3c3a67af	0.011377259
111	0x3d7fa565	0.062413592
112	0x3e38a1c1	0.18030454
113	0x3d35296f	0.044228967
114	0xbcdfcd69	-0.027319627
115	0x3db81743	0.08988812
116	0x3e0398f8	0.12851322
117	0x3e0ec9ce	0.1394417
118	0x3d23d5b0	0.03999871
119	0x3dbc6afb	0.092000924
120	0xbd03f262	-0.032213576
121	0xbc06de84	-0.008231763
122	0x3cf68bda	0.030095983
123	0x3d16c57d	0.036809433
124	0x3daaa7a6	0.08332758
125	0x3df82f77	0.12118428
126	0x3dccf493	0.10007586
127	0x3d9b0d97	0.075709514

network_body._body_endoder.seq_layers.2.weight f4 [128, 128]
0	0xbe1667bc	-0.14688009
1	0x3d5a4f15	0.053298075
2	0xbd3c2a59	-0.045938823
3	0xbe87d389	-0.26528576
4	0x3d1105bb	0.035405856
5	0xbe8026ca	-0.25029594
6	0xbe14d1a7	-0.14533101
7	0xbd79ee08	-0.06101802
8	0xbde88bc8	-0.11354786
9	0x3bad0d6d	0.0052811415
10	0x3db746c5	0.08949045
11	0xbe8327a7	-0.2561619
12	0xbdc1d1ec	-0.094638675
13	0x3db20876	0.0869302
14	0x3e1e73a3	0.154738
15	0xbd913d9f	-0.070918314
16	0x3ca76c16	0.020437282
17	0xbe07b238	-0.13251579
18	0x3e574bda	0.21025029
19	0xbc074283	-0.008255604
20	0xbe84884e	-0.25885242
21	0x3a5018f2	0.00079382875
22	0x3cd67656	0.026179474
23	0xbe0d136d	-0.13776942
24	0xbdd01c9e	-0.10161708
25	0x3de40751	0.11134208
26	0x3c8e5286	0.017373335
27	0xbe3ae891	-0.1825278
28	0x3e914302	0.28371435
29	0x3a27fce3	0.00064082275
30	0xbe2283a2	-0.15870526
31	0xbdf9b3ef	-0.12192523
32	0xbd98fccb	-0.074700914
33	0xbe08169f	-0.1328988
34	0xbcfa31ec	-0.030541383
35	0xbe568fdb	-0.20953314
36	0xbd8ceac7	-0.06880718
37	0xbe7d96dd	-0.24764581
38	0xbe27498b	-0.16336648
39	0x3dbfd562	0.093668714
40	0xbdf82030	-0.12115514
41	0x3cda9258	0.02668111
42	0x3e91eec6	0.28502482
43	0x3d572509	0.052525554
44	0x3d8d6309	0.06903655
45	0xbe35d13e	-0.17755601
46	0xbd99b2aa	-0.075047806
47	0xbe2eb3f6	-0.17060837
48	0x3dcfe04f	0.10150205
49	0x3db3240c	0.0874711
50	0x3dcb660d	0.09931574
51	0x3d79a3d0	0.06094724
52	0xbb045442	-0.0020191823
53	0xbbc1d386	-0.005915108
54	0xbe171465	-0.14753874
55	0xbd0ae791	-0.033912245
56	0x3db5a773	0.08869829
57	0x3c1dc039	0.009628349
58	0xbce78dd9	-0.02826588
59	0xbb97aa18	-0.004628431
60	0xbe08dd52	-0.13365677
61	0xbe1f6caa	-0.15568796
62	0x3e4cb8c3	0.19992356
63	0x3bab7a86	0.005233112
64	0x3e236cf2	0.15959528
65	0xbe154a40	-0.14579105
66	0xbc63e886	-0.013910418
67	0x3b31c881	0.0027127566
68	0x3e617f41	0.220212
69	0x3d26d5e6	0.040731333
70	0x3e176922	0.14786199
71	0xbddb86de	-0.10719083
72	0x3d60ee85	0.05491497
73	0xbda0f481	-0.078591354
74	0x3e2054cb	0.15657346
75	0xbe6937dd	-0.22775216
76	0x3d40ff89	0.047118697
77	0xbd153bda	-0.036434032
78	0xbd9f0831	-0.07765234
79	0xbe44d4b6	-0.19221768
80	0x3e01a999	0.12662353
81	0xbc8e7f57	-0.017394705
82	0xbd579895	-0.052635748
83	0xbca84015	-0.02053837
84	0x3cba6f6a	0.022758204
85	0x3e2e6d61	0.17033912
86	0xbdc7d088	-0.09756571
87	0x3db3f97d	0.087878205
88	0xbeb4ed19	-0.3533714
89	0xbd0abb0e	-0.033869796
90	0xbe04b06b	-0.12957923
91	0x3e6cb940	0.23117542
92	0xbd3fc7c8	-0.046821386
93	0x3de77716	0.11302011
94	0xbe58bc5b	-0.21165602
95	0xbe73d3d2	-0.23811272
96	0xbdf308f2	-0.118669406
97	0x3c7d7352	0.015469389
98	0xbd7a4431	-0.06110019
99	0x3c9303f2	0.017946217
100	0x3e85b7f5	0.2611691
101	0x3de73f34	0.11291352
102	0x3d8672d5	0.06564871
103	0xbdb85c00	-0.090019226
104	0xbba4463f	-0.005013257
105	0xbd63e241	-0.055635694
106	0x3dc7181d	0.09721396
107	0xbe3ff2cd	-0.18744965
108	0xbcee82f2	-0.029115174
109	0xbdfe62ea	-0.1242121
110	0x3e289f32	0.16466978
111	0xb9c7c5b9	-0.00038103553
112	0xbdaf9325	-0.085729875
113	0x3d2bc4b0	0.041935623
114	0xbc7434ad	-0.014905137
115	0x3df37806	0.11888127
116	0xbeb50f9a	-0.35363466
117	0x3e3c3bdd	0.18382211
118	0xbe0a6438	-0.13514793
119	0xbde5184b	-0.11186274
120	0x3c1d778c	0.009611022
121	0xbdada347	-0.08478408
122	0xbe4875c6	-0.19576177
123	0xbdb77b42	-0.089590564
124	0xbe5f75c3	-0.21822266
125	0xbe9a694f	-0.3015847
126	0xbe303ebf	-0.17211436
127	0xbe3902f5	-0.18067534
128	0x3dc9b435	0.09848825
129	0xbdd557a1	-0.104171045
130	0xbdfc6689	-0.123242445
131	0xbc9a1809	-0.018810289
132	0xbe051579	-0.12996472
133	0x3e654aa3	0.22391753
134	0xbe60d74c	-0.21957129
135	0xbe2d02e8	-0.1689564
136	0xbcc236c7	-0.02370776
137	0xbe097413	-0.13423185
138	0x3e85b0be	0.26111406
139	0xbd25f2ea	-0.040514864
140	0x3d055400	0.03255081
141	0x3c5c48de	0.013445107
142	0xbe9df10a	-0.3084796
143	0x3dbaa975	0.091143526
144	0x3d891f2b	0.06695398
145	0x3e64fea6	0.22362766
146	0xbe143112	-0.14471844
147	0x3e28eabb	0.16495793
148	0x3d998df6	0.0749778
149	0xbc91822e	-0.01776227
150	0x3dbd297a	0.09236427
151	0xbd594320	-0.05304253
152	0xbecc96d8	-0.39958835
153	0xbd0fb1e8	-0.035081774
154	0xbe14c6cc	-0.1452896
155	0xbd642291	-0.055697028
156	0xbde546d7	-0.11195152
157	0xbe2d133e	-0.16901872
158	0xbc505676	-0.012715926
159	0xbe2ba1e1	-0.1676097
160	0xbcd2452c	-0.02566775
161	0xbd758242	-0.059938677
162	0x3daf1e0e	0.08550654
163	0xbd2e3334	-0.0425293
164	0x3d9a64f2	0.07538785
165	0xbd968249	-0.07349069
166	0x3e92fedd	0.2871007
167	0xbe8bcb2c	-0.27303445
168	0xbde7bed1	-0.11315692
169	0xbdbb1fc8	-0.09136921
170	0xbe718078	-0.23584163
171	0xbda0c0c2	-0.07849266
172	0x3dfa0805	0.12208561
173	0x3ddd7320	0.10812974
174	0xbc49a9a9	-0.012308517
175	0x3d815c22	0.06316401
176	0xbe057556	-0.13033041
177	0x3cfddb1a	0.030988265
178	0x3e120f9e	0.1426377
179	0xbe86ad97	-0.26304314
180	0x3d285658	0.04109797
181	0xbe6acf74	-0.229307
182	0x3d7104d9	0.058842514
183	0xbba6f005	-0.0050945305
184	0xbc8d4a6e	-0.017247405
185	0xbceca125	-0.028885433
186	0xbd8a0778	-0.06739706
187	0xbe19e808	-0.15029919
188	0xbe8a8309	-0.27053097
189	0xbe03d493	-0.1287406
190	0xbd6e376c	-0.058158323
191	0xbee30218	-0.44337535
192	0xbe269058	-0.16266
193	0xbe4def24	-0.20110756
194	0xbd72da39	-0.059290145
195	0xbe00e04b	-0.12585561
196	0xbd96e261	-0.07367397
197	0x3d9e7686	0.0773745
198	0xbcd15c34	-0.025556661
199	0xbd64f96b	-0.055901926
200	0xbe66565d	-0.22493882
201	0x3c4a29b7	0.012339047
202	0xbe626155	-0.22107442
203	0xbe2239cf	-0.15842365
204	0xbe08b4c5	-0.13350208
205	0xbd2e2a59	-0.042520855
206	0x3e2d6127	0.16931592
207	0x3d0a64d2	0.033787556
208	0xbc24984e	-0.010046078
209	0xbe7c0cec	-0.24614304
210	0x3ea68ae8	0.32527852
211	0xbe49f986	-0.19724092
212	0xbde9eafc	-0.11421773
213	0x3e2079c5	0.15671451
214	0x3cac06b4	0.02099929
215	0x3dd2eb2e	0.10298763
216	0xbda0edc5	-0.07857851
217	0xbe1be604	-0.15224463
218	0x3e956db3	0.29185256
219	0xbe5bdc53	-0.21470766
220	0x3e833ce8	0.25632405
221	0xbe77e6ce	-0.24209139
222	0x3bde83c7	0.0067906114
223	0x3c471c9c	0.012152817
224	0x3d72fc63	0.059322726
225	0xbdbd4a00	-0.0924263
226	0x3e960c3a	0.29306203
227	0x3dc10397	0.09424513
228	0x3d73eca7	0.05955186
229	0xbe3a4e79	-0.18193997
230	0xbe8f6755	-0.28008524
231	0xbebb12dc	-0.36537826
232	0xbe3c7565	-0.18404157
233	0xbde298da	-0.1106431
234	0xbe08a3bd	-0.13343711
235	0x3e569ecf	0.20959018
236	0xbdc579a8	-0.09642345
237	0x3e0c4b8f	0.13700698
238	0xbd7fb0de	-0.062424533
239	0xbd27b466	-0.040943526
240	0x3d280f78	0.041030377
241	0x3dd75742	0.1051469
242	0xbe27e5fa	-0.16396323
243	0xbdf0b540	-0.11753321
244	0x3e1e135b	0.15437071
245	0xbe15526a	-0.1458222
246	0x3e3a87aa	0.18215814
247	0x3dae6430	0.08515203
248	0xbd3182f8	-0.043337792
249	0x3d11d3bf	0.035602327
250	0x3d11cfdf	0.035598632
251	0x3e7589a7	0.23978291
252	0x3e467d5b	0.19383757
253	0x3e86b4dc	0.2630986
254	0xbea88aec	-0.3291849
255	0x3ea0b61a	0.31388932

network_body._body_endoder.seq_layers.2.bias f4 [128]
0	0xbc1c7660	-0.009549707
1	0x3d90b807	0.070663504
2	0xbbec2a8c	-0.0072072204
3	0xbd541638	-0.051779002
4	0x3ce28b10	0.0276542
5	0x3b97d76d	0.004633835
6	0xbcadc3be	-0.021211501
7	0xbd4479be	-0.047967665
8	0x3c8b43ba	0.017000068
9	0x3ce975cd	0.028498555
10	0xbcc143b2	-0.02359185
11	0xbd1e2af0	-0.038615167
12	0xbd9746ea	-0.07386573
13	0x3cd514ef	0.026010958
14	0x3c752922	0.01496342
15	0x3d2c6e45	0.04209735
16	0xbdcfedfe	-0.10152815
17	0x3ce9e92f	0.028553573
18	0x3d0c5965	0.03426494
19	0x3e394afa	0.18095008
20	0xbceb317e	-0.028710123
21	0x3c105a88	0.008810647
22	0x3cce49a0	0.025181592
23	0xbd431253	-0.047624897
24	0xbcab781b	-0.020931294
25	0xbd2c8e2b	-0.04212777
26	0x3c84745a	0.016168762
27	0xbd9749bd	-0.07387111
28	0xbd0f3df1	-0.03497118
29	0x3d62f6c9	0.055411134
30	0xbdaa55e1	-0.08317161
31	0xbd9eb03d	-0.077484585
32	0x3bf777f9	0.0075521437
33	0xbb53db63	-0.003232681
34	0x3d891a7d	0.06694505
35	0xbcd8c183	-0.026459461
36	0x3d3d5be0	0.046230197
37	0xbd8875d1	-0.06663097
38	0x3d3dc61a	0.046331502
39	0xbda646d1	-0.08118976
40	0x3bc65ecd	0.0060537816
41	0x3d45d15e	0.04829537
42	0x3d677ffd	0.056518544
43	0x3d3838ff	0.04497623
44	0x3d093b60	0.03350389
45	0xbcaad706	-0.020854484
46	0x3d08c812	0.033393927
47	0xbc85b236	-0.01632033
48	0x3c234b66	0.009966707
49	0xbc774e1e	-0.015094308
50	0xbccf177c	-0.025279753
51	0xbd5d3e03	-0.054014217
52	0x3db3c505	0.08777813
53	0x3be6f4fc	0.0070482474
54	0x3bba3929	0.0056830836
55	0x3cb47960	0.022030532
56	0xbd2a4dea	-0.04157821
57	0x3d2f3e29	0.04278389
58	0x3c95b11f	0.018272934
59	0x3d36fa72	0.044672437
60	0xbc8999cb	-0.016796967
61	0x3cbf1773	0.023326611
62	0x3d87c53f	0.066294186
63	0x3d9162a9	0.07098896
64	0x3c2fea22	0.010736974
65	0xbd8fb68d	-0.07017241
66	0x3d9fe3be	0.0780711
67	0x3d2e85c9	0.042608056
68	0xbbc3ce33	-0.0059755086
69	0xbd3b5d22	-0.045743115
70	0xbcf0dc1e	-0.029401835
71	0x3c986960	0.018604934
72	0xbb729c7c	-0.0037019541
73	0x3c247bc7	0.010039276
74	0x3da3080e	0.07960521
75	0x3c54ce75	0.012988676
76	0x3d001e98	0.031279176
77	0x3dbb081e	0.091324076
78	0xb9d2f56c	-0.00040237175
79	0x3ceb09d9	0.02869122
80	0xbcebe84d	-0.028797293
81	0x3d3b4726	0.04572215
82	0x3c568399	0.013092899
83	0xbc8d44ba	-0.017244685
84	0xbd8505c6	-0.06495242
85	0x3aafd389	0.0013414483
86	0xbbc6818c	-0.0060579237
87	0x3d38cd64	0.04511775
88	0x3d9a9aee	0.07549082
89	0xbc4bbb04	-0.012434725
90	0xbc9f1fc6	-0.01942433
91	0xbd8dd04e	-0.069244966
92	0xbae865c7	-0.0017730527
93	0x3ab43c8d	0.0013750956
94	0xbcc5de3d	-0.024153823
95	0x3c864aab	0.016393026
96	0xba72bf88	-0.0009260108
97	0xbc6057ad	-0.013692779
98	0xbca375a0	-0.019953549
99	0xbd7c4508	-0.06158927
100	0x3de0de19	0.10979862
101	0xbb7e415a	-0.0038796277
102	0xb994abea	-0.00028356846
103	0xbdd0164c	-0.10160503
104	0xbd935418	-0.07193774
105	0xbd49d134	-0.049271777
106	0xbcd6d82c	-0.026226126
107	0xbdfc9d13	-0.12334647
108	0xbd44ff46	-0.04809501
109	0xbc752a85	-0.014963751
110	0xbbbf51a6	-0.0058385907
111	0xbd03cbdd	-0.03217684
112	0x3d898cb3	0.06716289
113	0x3d3049a4	0.04303898
114	0x3d387029	0.04502884
115	0xbc8f8d62	-0.017523471
116	0x3cd0d458	0.025491878
117	0xbd568f75	-0.052382905
118	0x3c5e15b7	0.013554982
119	0x3caab50f	0.020838289
120	0x3c4cae8f	0.01249279
121	0x3cdf6182	0.027268175
122	0xbd93b8ec	-0.072130054
123	0x3c169c6f	0.00919257
124	0x3d3afc3f	0.045650717
125	0xbc51e311	-0.0128104845
126	0x3b8dc5f7	0.0043265778
127	0xbb9f4348	-0.0048603155

network_body._body_endoder.seq_layers.4.weight f4 [128, 128]
0	0xbe276d60	-0.16350317
1	0xbe430bdd	-0.19047494
2	0xbd91bce4	-0.07116106
3	0xbdb6b058	-0.08920354
4	0x3d07e4f9	0.03317735
5	0xbdf52c94	-0.11971393
6	0xbce366ee	-0.027759042
7	0x3c2dc141	0.010605157
8	0xbe40e329	-0.18836655
9	0xbec2a023	-0.380128
10	0x3e0b95a6	0.13631305
11	0xbbc848b9	-0.006112185
12	0xbe4a8718	-0.19778097
13	0xbce37d87	-0.027769817
14	0xbc5494d7	-0.012974939
15	0x3a4652ea	0.0007565456
16	0x3ddf7430	0.10910833
17	0xbe9403dd	-0.28909197
18	0x3dce4f26	0.1007369
19	0xbd6a45c8	-0.057195455
20	0x3b8b2560	0.004246399
21	0xbd844f82	-0.064604774
22	0xbdc609c8	-0.096698344
23	0x3ec94376	0.3930928
24	0xbdae3746	-0.08506636
25	0x3e59d769	0.21273579
26	0xbd9bc695	-0.07606236
27	0xbe88697f	-0.26642987
28	0xbe49ec00	-0.19718933
29	0xbe76f48c	-0.24116725
30	0xbce09a66	-0.027417373
31	0xbd7fb3d5	-0.06242736
32	0xbe5dc4cd	-0.21657105
33	0x3e4a65de	0.19765422
34	0xbdc987fe	-0.098403916
35	0xbdd641ca	-0.10461767
36	0xbea2219b	-0.31666264
37	0x3e07175c	0.13192505
38	0x3dcaf9af	0.099109046
39	0xbc829995	-0.015942374
40	0xbe9770bc	-0.29578197
41	0xbe481d09	-0.19542326
42	0xbda7e5ba	-0.08198114
43	0xbbf29cff	-0.0074039693
44	0xbdbc4a14	-0.09193817
45	0xbb5b96e9	-0.0033506698
46	0xbdb4fe7e	-0.08837603
47	0xbcc689f3	-0.024235701
48	0xbdc98e02	-0.09841539
49	0x3d3c6956	0.045998894
50	0x3d622ac0	0.05521655
51	0xbd8b2563	-0.0679424
52	0xbd470c73	-0.048595857
53	0x3b7ddaff	0.0038735268
54	0x3d62f5b5	0.055410106
55	0x3d91c0e5	0.0711687
56	0x3e084266	0.13306579
57	0xbc8c0e30	-0.017096609
58	0x3c06914b	0.0082133515
59	0x3eb53fa8	0.35400128
60	0x3d9a4490	0.075326085
61	0x3e22a00e	0.15881369
62	0xbce34ea5	-0.027747462
63	0xbe26d39f	-0.16291665
64	0xbde0858d	-0.10962973
65	0xbd40ccd4	-0.04707034
66	0xbd5f6aac	-0.05454509
67	0xbdd24694	-0.10267368
68	0x3cfc0058	0.030761883
69	0xbe17ecc0	-0.14836407
70	0x3d7068e3	0.058693778
71	0x3acc61ed	0.0015593149
72	0x3d22db4b	0.039759915
73	0xbe85b953	-0.26117954
74	0x3d9af733	0.07566681
75	0xbeae4e6e	-0.34044212
76	0x3cbbefa6	0.022941422
77	0xbdea0702	-0.11427118
78	0x3e134b8d	0.14384289
79	0x3de8f164	0.113741666
80	0xbdd4b4bd	-0.103860356
81	0xbe3ce99c	-0.1844849
82	0x3d630be3	0.055431258
83	0xbd9df470	-0.077126384
84	0xbdff74a0	-0.12473416
85	0xbe408945	-0.18802364
86	0x3cb06300	0.021531582
87	0xbdb07d96	-0.086177036
88	0xb95bd486	-0.00020964639
89	0xbc71b676	-0.014752975
90	0x3e76fb44	0.24119288
91	0xbb3e624a	-0.0029050284
92	0x3e30de16	0.17272219
93	0xbe1ca99b	-0.15299074
94	0xbdae6148	-0.08514649
95	0xbed929da	-0.42414743
96	0xbd9f2061	-0.07769848
97	0x3d651bcc	0.055934712
98	0xbe0c7d7a	-0.1371974
99	0x3d813251	0.06308425
100	0xbda7fd2b	-0.08202585
101	0x3d228d57	0.039685573
102	0xbe980e04	-0.29698193
103	0xbdf01038	-0.117218435
104	0xbe3ba259	-0.1832365
105	0x3c537ffb	0.012908931
106	0x3d73f520	0.05955994
107	0x3e128db8	0.14311874
108	0xbc67eade	-0.014155118
109	0xbe41edb6	-0.18938336
110	0xbe99fc96	-0.3007552
111	0xbd782deb	-0.060590666
112	0xbe8d7f9c	-0.2763642
113	0xbdbf6c34	-0.0934681
114	0xbd881380	-0.06644344
115	0x3e25164b	0.16121785
116	0x3d9be9b1	0.076129325
117	0xbddb83c7	-0.10718494
118	0xbe167d8e	-0.14696333
119	0xbd837cb0	-0.06420267
120	0x3c42af08	0.011882551
121	0xbde4ed15	-0.11178032
122	0x3d9d177e	0.076704964
123	0x3d82e451	0.06391204
124	0xbdb16a3f	-0.08662843
125	0xbddecc63	-0.108788274
126	0xbe2ef77f	-0.170866
127	0xbdfa032e	-0.12207638
128	0xbe198345	-0.14991482
129	0x3da72596	0.08161466
130	0xbda3117d	-0.0796232
131	0xbd3f3f2b	-0.0466911
132	0x3d135095	0.03596552
133	0x3c510536	0.01275759
134	0xbd2502f2	-0.040286012
135	0xbe044460	-0.12916708
136	0x3e0dad7e	0.13835713
137	0xbe8d0e27	-0.2754986
138	0x3e00fa5e	0.12595508
139	0xbbf81627	-0.007571
140	0xbe88a511	-0.26688436
141	0xbe25bbdc	-0.16184944
142	0x3d8df2c7	0.06931072
143	0xbe20bf2b	-0.15697925
144	0x3ccd714c	0.025078438
145	0x3d769fcc	0.060210988
146	0x3df37e5d	0.11889336
147	0x3df0625e	0.11737512
148	0x3e33da35	0.17563708
149	0xbd0123bc	-0.03152822
150	0xbd926da0	-0.071498156
151	0xbe034004	-0.12817389
152	0xbca9fa5c	-0.020749263
153	0xbdd9c7c4	-0.106338054
154	0xbe4340d9	-0.19067706
155	0x3ea848ed	0.32868138
156	0x3dd2c845	0.10292105
157	0xbbc3c7d7	-0.0059747505
158	0x3cb26cc1	0.021780374
159	0xbdc6db36	-0.0970978
160	0x3d31d6f5	0.04341789
161	0xbe1b6b4f	-0.15177654
162	0xbdd4e4bc	-0.1039519
163	0x3bb7817a	0.0056001516
164	0x3d27aa2f	0.040933784
165	0xbe03cd1d	-0.12871213
166	0x3d3bb2de	0.045824878
167	0xbe38b81b	-0.1803898
168	0x3d3394ce	0.043843083
169	0x3e10bd55	0.14134724
170	0x3e50c3fb	0.2038726
171	0x3d984d10	0.074365735
172	0x3e209314	0.15681106
173	0xbe2fd5eb	-0.17171447
174	0x3ded504d	0.11587582
175	0xbe449060	-0.191957
176	0xbcb99c98	-0.022657678
177	0xbe435525	-0.19075449
178	0xbd4a9228	-0.04945579
179	0xbca7cb6d	-0.020482743
180	0xbd9da783	-0.07697966
181	0xbe3377c7	-0.1752616
182	0xbe7c8b88	-0.24662602
183	0x3e05b75d	0.13058229
184	0xbe3b8042	-0.18310645
185	0x38e062ce	0.00010699556
186	0xbe5f1022	-0.21783498
187	0xbe23e821	-0.16006519
188	0xbde984d2	-0.114022866
189	0x3df66040	0.12030077
190	0x3e84cf6f	0.2593951
191	0x3db38d93	0.087672375
192	0x3dc60979	0.096697755
193	0x3d58b3b7	0.052905764
194	0x3d466d9c	0.048444375
195	0xbd8f4658	-0.06995839
196	0xbccbd42a	-0.024881441
197	0xbdef7021	-0.11691309
198	0xbcc1165a	-0.023570228
199	0xbd12f162	-0.03587473
200	0xbe65b21b	-0.22431223
201	0x3e092a19	0.13394965
202	0xbe5735a6	-0.21016559
203	0x3d61944c	0.055073068
204	0xbdb09486	-0.086220786
205	0xbddb86d4	-0.10719076
206	0x3db56c1e	0.08858512
207	0x3ebdbcd0	0.37058115
208	0x3e1418c2	0.1446257
209	0x3d15a48f	0.03653389
210	0xbd39d057	-0.045364704
211	0xbdb034e4	-0.08603838
212	0xbe023956	-0.12717184
213	0xbdb260cb	-0.08709868
214	0x3e1af95e	0.15134189
215	0x3d9c3c31	0.07628668
216	0x3e6875ac	0.22701138
217	0x3ba221a3	0.0049478575
218	0xbd950a87	-0.072773986
219	0xbdb4f817	-0.08836382
220	0x3e2c558d	0.1682951
221	0xbb4ba331	-0.0031072611
222	0xbc97e8f8	-0.018543705
223	0x3d84c0f4	0.064821154
224	0x3d9b8ccf	0.075952165
225	0xbcb3d16b	-0.021950444
226	0x3da02943	0.0782037
227	0xbd2fcc66	-0.04291954
228	0xbdccc403	-0.09998324
229	0xbd1c7e30	-0.03820628
230	0x3dedc0fb	0.11609074
231	0xbe50bca9	-0.20384468
232	0xbe127634	-0.14302903
233	0x3d8d8bf8	0.069114625
234	0xbe64fec9	-0.22362818
235	0x3c30adec	0.010783654
236	0x3e14ff19	0.14550437
237	0xbdf757b0	-0.12077272
238	0x3e0d9321	0.13825656
239	0x3e023924	0.1271711
240	0x3e4db7a1	0.2008958
241	0x3d7dc4bd	0.061955202
242	0xbca9eaf3	-0.020741915
243	0xbd502b94	-0.05082281
244	0x3e9ebcb4	0.31003344
245	0xbd2d5841	-0.042320494
246	0xbde5e6dc	-0.112256736
247	0x3d0d5d80	0.034512997
248	0xbdf9d94c	-0.12199649
249	0x3d235d6e	0.039884023
250	0xbb89e1f1	-0.0042078425
251	0xbd933ced	-0.07189355
252	0xbdd3cfd6	-0.10342376
253	0x3d4c11f9	0.049821828
254	0xbe167b93	-0.14695577
255	0x3e3f0136	0.18652806

network_body._body_endoder.seq_layers.4.bias f4 [128]
0	0x3d7c628e	0.061617427
1	0x3cd202a7	0.02563603
2	0x3c503581	0.012708069
3	0xbdd51c54	-0.10405794
4	0x3d6a90c0	0.05726695
5	0xbce98db7	-0.028509958
6	0xbde19aaa	-0.11015828
7	0xbcaba10b	-0.020950815
8	0x3c70a0ca	0.014686773
9	0x3b7bf49a	0.0038445354
10	0xbd7b2bd7	-0.061321106
11	0xbbee3836	-0.0072698845
12	0xbc536e64	-0.012904737
13	0xbd6f3150	-0.058396637
14	0xbd5725f8	-0.052526444
15	0x3d0313f7	0.03200146
16	0xbd8f3f1d	-0.0699446
17	0xbd6e2402	-0.05813981
18	0xbd86a756	-0.065748855
19	0x3d544aae	0.051829033
20	0xbd58e68b	-0.052954238
21	0x3d8c3d3b	0.06847616
22	0x3d74bf50	0.059752762
23	0xbbfe0b59	-0.0077528176
24	0xbd8e27e0	-0.06941199
25	0xbd7662e0	-0.06015289
26	0xbc1fb5b6	-0.009747913
27	0xbe18021e	-0.14844558
28	0xbd7f22c5	-0.06228902
29	0xbc114a90	-0.008867875
30	0xbdac2243	-0.084049724
31	0xbdb7ad12	-0.089685574
32	0xbcbd0762	-0.02307481
33	0xbcaffc90	-0.021482736
34	0xbcea4260	-0.028596103
35	0xbd211ab9	-0.039332125
36	0xbd198c8a	-0.037487544
37	0x3cbe66d1	0.023242386
38	0xbdf5c593	-0.12000575
39	0x3d388819	0.045051668
40	0xbc7e2a7e	-0.015513061
41	0xba0070d4	-0.0004899625
42	0x3ce8369c	0.028346352
43	0xbd85cd09	-0.06533248
44	0x3cf1d9af	0.029522745
45	0x3c1ef85b	0.009702767
46	0xbd6ac4e6	-0.057316683
47	0xbc5177f4	-0.012784947
48	0x3d3cc7b6	0.046088897
49	0xbe0d6eaa	-0.13811746
50	0xbd0292e5	-0.03187837
51	0x3c84461c	0.016146712
52	0xbd125478	-0.035725087
53	0xbd46e1e9	-0.04855529
54	0xbda7ab9e	-0.0818703
55	0x3d50ed12	0.051007338
56	0xbd08e333	-0.0334198
57	0xbddc6940	-0.10762262
58	0xbc970b44	-0.018437989
59	0xbd82bd6d	-0.06383786
60	0xbd7d268d	-0.061804343
61	0xbdefa00b	-0.11700448
62	0xbc3c3f32	-0.011489676
63	0xbd9d78b5	-0.07689039
64	0xbd517750	-0.051139176
65	0x3c08268f	0.008309974
66	0x3cad0ad4	0.021123327
67	0xbd105cd8	-0.035244793
68	0xbd3b804a	-0.045776643
69	0x3cc11fa7	0.023574663
70	0xbd438e9c	-0.047743425
71	0xbcc38c54	-0.023870625
72	0xbcce2205	-0.025162706
73	0x3d6dda4a	0.058069505
74	0xbcabe1de	-0.020981725
75	0xbd97e505	-0.07416729
76	0xbc954422	-0.018220965
77	0xbce6c3bc	-0.028169505
78	0xbdc7cd13	-0.09755912
79	0xbdac3ccb	-0.08410033
80	0xbcdd9e7b	-0.027053108
81	0xbb37c903	-0.0028043396
82	0x3c3a723f	0.011379777
83	0xbd5fe804	-0.054664627
84	0xbd52d82c	-0.05147569
85	0x3d5dcb4c	0.054148957
86	0xbd04f16d	-0.032456804
87	0xbd34fd49	-0.044186864
88	0x3a6bb717	0.0008991821
89	0x3c8caf02	0.017173294
90	0x3c29b649	0.010358402
91	0xbd1210fc	-0.03566073
92	0xbde4bd03	-0.111688636
93	0x3d7f4d42	0.06232954
94	0x3d9e3c1e	0.0772631
95	0xbde19cb9	-0.110162206
96	0x3d505a06	0.050867103
97	0xbbfc5ef9	-0.0077017513
98	0x3d69297a	0.05692432
99	0xbcb8792e	-0.02251872
100	0x3c3c9bb3	0.011511731
101	0x3cbd1927	0.023083283
102	0xbda22947	-0.07918029
103	0xbc09c666	-0.008409118
104	0xbe194eb0	-0.14971423
105	0xbd25b659	-0.040457103
106	0x3d7e9e6b	0.062162798
107	0xbd90c3c7	-0.070685916
108	0xbb687d58	-0.0035475101
109	0x3bfd5b27	0.0077318135
110	0xbd09fe32	-0.033689685
111	0x3d2dfdac	0.04247825
112	0xbdb3d843	-0.08781483
113	0xbda564f3	-0.08075895
114	0xbd342f34	-0.04399033
115	0xbd22cace	-0.03974419
116	0xbda6339c	-0.081153125
117	0xbcbd4768	-0.023105338
118	0xbd7a8b1e	-0.06116783
119	0xbdd3bf85	-0.10339264
120	0xbcc8225c	-0.024430446
121	0xbd33ca55	-0.04389413
122	0x3d0e8a5c	0.03479992
123	0xbda04382	-0.07825376
124	0xbc9f6fd7	-0.01946251
125	0x3d04cde1	0.032422904
126	0xbd12b24f	-0.03581458
127	0x3d909493	0.07059588

action_model._discrete_distribution.branches.0.weight f4 [3, 128]
0	0x3d4e8f41	0.050429586
1	0xbd23f9f7	-0.040033307
2	0x3d037a63	0.03209914
3	0x3c87cc9f	0.016577063
4	0xbde6a653	-0.112621926
5	0x3d35abe1	0.04435337
6	0xbd8be67e	-0.06831072
7	0xbb32841c	-0.0027239388
8	0xbd82a872	-0.06379785
9	0x3d3ad36e	0.04561179
10	0x3dd83a6b	0.10558017
11	0xbb82af57	-0.0039881873
12	0x3d866cc7	0.065637164
13	0xbd88506f	-0.066559665
14	0x3e0ed810	0.13949609
15	0x3dc24f59	0.094877906
16	0x3df5ed0c	0.12008104
17	0x3dc61d72	0.09673585
18	0xbc1da6f8	-0.009622328
19	0xbccbce69	-0.024878697
20	0x3bcaf1fe	0.0061933985
21	0xbe01fa10	-0.12693048
22	0xbce99a25	-0.028515885
23	0xbcdeff10	-0.027221233
24	0x3d8404d1	0.06446231
25	0x3ccae2b9	0.024766313
26	0x3d92bfcf	0.07165491
27	0xbe0099b7	-0.12558638
28	0x3d2a5753	0.041587185
29	0xbc16a49c	-0.009194519
30	0xbd442e94	-0.047895983
31	0x3d7788a9	0.060433064
32	0x3d6213f1	0.0551948
33	0x3d5d81c1	0.05407882
34	0xbbf85a5f	-0.0075791324
35	0x3dc791a2	0.09744574
36	0x3c72db22	0.014822753
37	0x3d3522e9	0.044222746
38	0xbda81481	-0.08207036
39	0x3dcc6aee	0.09981333
40	0xbc112203	-0.008858207
41	0xbdffa5bd	-0.12482784
42	0x3d8b0c5c	0.06789467
43	0x3d61faff	0.05517101
44	0x3dd185c9	0.102305956
45	0x3d07e908	0.03318122
46	0x3ba8979a	0.0051450254
47	0x3d2b19f1	0.041772787
48	0x3d094088	0.033508807
49	0x3d20afcf	0.039230164
50	0xbde968ac	-0.11396918
51	0x3d49a661	0.049230937
52	0x3d08a089	0.033356223
53	0x3d6f5ff5	0.05844112
54	0x3c39b13f	0.011333763
55	0xbd128e14	-0.035780028
56	0xbc6b63a4	-0.014367018
57	0xbd0da3a0	-0.034579873
58	0x3d557c1c	0.052120313
59	0x3b9902e7	0.0046695354
60	0x3d0b4782	0.034003742
61	0x3d46a4c1	0.048496965
62	0xbd4a0f43	-0.04933096
63	0x3d0c1c52	0.034206696
64	0xbd5be77c	-0.053687558
65	0x3d06e268	0.03293076
66	0xbd87518d	-0.066073515
67	0x3d05f08c	0.032700107
68	0x3d14c028	0.036316067
69	0x3d3af2a4	0.045641556
70	0x3d909893	0.07060351
71	0xbce0106c	-0.02735158
72	0xbd6fbac9	-0.05852774
73	0x3dc90cd3	0.09816899
74	0x3d7b2973	0.061318826
75	0x3cd9f84d	0.026607657
76	0x3e05197d	0.12998004
77	0xba5e65b5	-0.00084837835
78	0xbb8b36f4	-0.0042484943
79	0x3d596977	0.053079095
80	0xbcd4ade0	-0.025961816
81	0x3d7348f9	0.059395764
82	0x3d723156	0.05912908
83	0xbaa608da	-0.0012667433
84	0x3d7bf016	0.06150826
85	0x3c544554	0.012955982
86	0xbdb97469	-0.090554066
87	0x3caa5f63	0.020797437
88	0xbdcebf34	-0.10095063
89	0x3dad4d41	0.08462001
90	0x3c95d4b3	0.0182899
91	0x3d77e50c	0.06052117
92	0x3dc955b3	0.09830799
93	0x3d62a0ee	0.055329256
94	0x3d2a4240	0.041567087
95	0xbe036e10	-0.12834954
96	0x3dca13fc	0.09867093
97	0x3c722817	0.014780066
98	0x3d4f38a8	0.05059114
99	0xbc7783a2	-0.015107067
100	0x3c19475a	0.00935539
101	0xbce0c3a2	-0.027437035
102	0x3e0d9511	0.13826396
103	0x3cc8c503	0.024508005
104	0x3c5c081a	0.013429666
105	0x3db6710f	0.08908283
106	0xbd86b262	-0.065769926
107	0xbd2b6018	-0.04183969
108	0xbcf7fdfa	-0.030272473
109	0x3cafb30a	0.021447677
110	0x3db81b6b	0.089896046
111	0xbd5e51c1	-0.054277185
112	0xbded5267	-0.115879826
113	0xbd8a6c5d	-0.0675895
114	0xbc98bebc	-0.018645637
115	0xbdc84c13	-0.09780135
116	0xbdb1824f	-0.086674325
117	0xbcd16c76	-0.025564414
118	0xbce46fd1	-0.02788535
119	0x3d4b5253	0.049639057
120	0xbd75db44	-0.06002356
121	0x3d86d5ac	0.065837234
122	0x3dad528a	0.08463009
123	0x3df6cde3	0.120509885
124	0xbddd5373	-0.10806932
125	0xbda40cc2	-0.08010246
126	0x3dbc858e	0.09205161
127	0xb937a9d6	-0.00017515509
128	0xbe481375	-0.19538672
129	0xba3d267e	-0.00072155136
130	0x3d7a318b	0.061082404
131	0xbcb103f7	-0.021608336
132	0xbdd1e6c1	-0.10249091
133	0xbdddd6a9	-0.10831959
134	0x39bc0c72	0.00035867427
135	0xbdae42a5	-0.08508805
136	0x3c0ab438	0.008465819
137	0xbd49bcfe	-0.049252503
138	0xbd773b31	-0.060359184
139	0xbd250402	-0.040287025
140	0xbe084fa8	-0.13311636
141	0x3d692d32	0.056927867
142	0xbe64cd80	-0.22344017
143	0xbbd62b81	-0.006535948
144	0xbdef9f12	-0.11700262
145	0xbdbd8a1d	-0.09254859
146	0x3dca13b6	0.09867041
147	0xbcc49bc5	-0.024000058
148	0x3d3d595e	0.046227805
149	0xbcaafdc4	-0.020872958
150	0x3dc2304f	0.094818704
151	0xbd3bd13d	-0.045853842
152	0xbd49a949	-0.04923371
153	0x3d3b52e1	0.045733336
154	0xbd798d48	-0.060925752
155	0xbc9390f8	-0.018013462
156	0xbdb29910	-0.087206006
157	0xbdd01e3e	-0.10162018
158	0x3d040220	0.03222859
159	0xbe0860ec	-0.13318223
160	0xbe0af9a9	-0.135718
161	0xbde5165b	-0.111859046
162	0x3dba7922	0.091051355
163	0x3cb528fd	0.022114271
164	0x3cb98aaf	0.022649137
165	0x3d93736a	0.07199748
166	0x3b902590	0.004399009
167	0x3dc0cb68	0.09413797
168	0xbdc8bc49	-0.098015375
169	0xbe138465	-0.14405973
170	0x3d810b83	0.06301024
171	0xbd85598b	-0.065112196
172	0xbe3e7583	-0.18599515
173	0x3d965a15	0.073414005
174	0x3cc671d9	0.024224209
175	0x3cf0f161	0.029411973
176	0xbe64b6bf	-0.22335337
177	0xbd9f4be9	-0.077781506
178	0x3d30940e	0.043109946
179	0x3dcf68c4	0.10127404
180	0xbd86c6f8	-0.06580919
181	0xbe70de30	-0.23522258
182	0xbdce7e65	-0.100827016
183	0x3d8b375f	0.067976706
184	0x3c350739	0.011049085
185	0x3ca701ef	0.020386664
186	0x3ca47e6a	0.02007981
187	0xbd4ed181	-0.050492767
188	0xbd1e60eb	-0.038666647
189	0xbc994621	-0.018710198
190	0xbd3fceac	-0.046827957
191	0xbdd4c4a3	-0.10389068
192	0x3ddedf70	0.10882461
193	0xbe085550	-0.13313794
194	0xbdeb1272	-0.114781275
195	0xbdfd0bf9	-0.12355799
196	0xbdfb2df2	-0.12264623
197	0xbd9ce528	-0.076608956
198	0xbde7ce89	-0.1131869
199	0xbcf8b058	-0.030357525
200	0x3dd4c65d	0.10389397
201	0xbd0543f5	-0.032535512
202	0x3c9fda55	0.019513289
203	0xbd6564f6	-0.056004487
204	0xbd590cc1	-0.05299068
205	0x3d2361e1	0.039888266
206	0xbd4d33d6	-0.050098263
207	0xbd5a7ec9	-0.053343568
208	0xbd89378c	-0.06700048
209	0x3adcddc8	0.0016850764
210	0x3caace44	0.020850308
211	0xbdc42391	-0.09577096
212	0xbda6ed6e	-0.08150755
213	0xbe1c49ae	-0.15262482
214	0x3dfbd0e9	0.12295706
215	0xbd935d03	-0.07195475
216	0x3d1be914	0.038064077
217	0x3de5303c	0.111908406
218	0xbd902da9	-0.07039959
219	0xbdb01b2b	-0.08598932
220	0xbd9c3b8a	-0.07628544
221	0x3cbbea68	0.022938922
222	0x3e00f405	0.12593086
223	0x3ddb2a33	0.10701408
224	0x3d5b84f1	0.05359358
225	0xbd10cd2b	-0.035351913
226	0x3d8920ac	0.06695685
227	0x3d184ca5	0.03718247
228	0xbe086481	-0.13319589
229	0xbd0edea2	-0.034880288
230	0xbe2e2721	-0.17007114
231	0x3d28d867	0.041222002
232	0xbd8c4da9	-0.0685075
233	0xbd3a9b10	-0.045558035
234	0x3e11da87	0.14243518
235	0xbc8e3616	-0.017359775
236	0x3ddf6382	0.109076515
237	0xbe1fa957	-0.15591942
238	0xbdf2c10e	-0.118532285
239	0x3d7f6315	0.06235035
240	0x3d69eb6d	0.057109285
241	0x3d38d198	0.04512176
242	0x3d31d44f	0.043415364
243	0xbd071dea	-0.032987513
244	0x3d89ef97	0.06735151
245	0x3db2b0c5	0.08725122
246	0x3dce3a25	0.10069684
247	0xbda37938	-0.07982105
248	0xbdb5268f	-0.08845245
249	0xbcaf361f	-0.021388112
250	0x3d79c6fd	0.060980786
251	0xbdc9b6f1	-0.098493464
252	0xba94ecde	-0.0011362096
253	0x3db62e26	0.08895521
254	0xbdf24d1f	-0.11831116
255	0xbd937ba5	-0.07201318

action_model._discrete_distribution.branches.0.bias f4 [3]
0	0x3bf6a277	0.0075266915
1	0x3cc67651	0.02422634
2	0xbd136536	-0.035985194

action_model._discrete_distribution.branches.1.weight f4 [2, 128]
0	0x3dcb86f8	0.099378526
1	0x3d420ec2	0.047377355
2	0x3c72be01	0.014815808
3	0xbd6377ed	-0.055534292
4	0xbdc85922	-0.09782626
5	0xbe00476f	-0.1252725
6	0x3dd01c65	0.10161666
7	0xbcc5a902	-0.02412844
8	0xbdb7ef29	-0.08981163
9	0xbd7bc1a6	-0.061463974
10	0x3dbfe686	0.09370141
11	0xbdc2a0b6	-0.095033094
12	0x3cb9a7df	0.022663055
13	0xbd629914	-0.055321768
14	0xbcd94fa9	-0.026527243
15	0xbc1540b8	-0.009109668
16	0xbd286043	-0.041107427
17	0xbda1cbec	-0.07900223
18	0x3cbdeecf	0.023185162
19	0xbbf8298f	-0.0075733135
20	0xbd757405	-0.059925098
21	0xbce4c6b0	-0.027926773
22	0x3d9e9169	0.077425785
23	0xbda53474	-0.08066645
24	0x3b80bbd1	0.0039286395
25	0x3dbe50af	0.09292733
26	0x3db2a234	0.08722344
27	0xbc0c579c	-0.00856581
28	0x3c04af44	0.008098427
29	0xbd4acd2a	-0.049512066
30	0xbd135396	-0.035968386
31	0xbd033af3	-0.03203864
32	0x3d31830d	0.04333787
33	0x3d65a209	0.056062732
34	0xbd655636	-0.05599042
35	0x3d91f428	0.07126647
36	0x3e272e9f	0.16326378
37	0xbcdc2039	-0.026870834
38	0x3c959143	0.018257743
39	0xbc97d935	-0.01853619
40	0x3ce8d503	0.028421884
41	0x3d82d578	0.06388372
42	0xbdc83f8f	-0.09777748
43	0xbbcec7e3	-0.0063104494
44	0xbd8236eb	-0.06358131
45	0xbcf96e64	-0.030448146
46	0x3c7f3b36	0.015578082
47	0x3db3f605	0.08787159
48	0xbe0b8723	-0.1362577
49	0x3c45c3f6	0.0120706465
50	0xbded39a3	-0.11583259
51	0x3d5706f8	0.05249688
52	0x3dd7aa95	0.10530583
53	0x3d8fa9bd	0.07014797
54	0xbdc61d00	-0.096735
55	0x3d195e7c	0.037443623
56	0x3d2336d5	0.039847214
57	0x3d9273b7	0.07150977
58	0x3db050ae	0.086091384
59	0x3c9f6bbc	0.019460551
60	0xbbea942b	-0.0071587763
61	0xbcd3c97e	-0.025852915
62	0x3d1dbf16	0.038512312
63	0x3dd276f6	0.10276596
64	0x3c875aae	0.016522732
65	0xbdd454cd	-0.10367737
66	0xbe563584	-0.20918852
67	0xbbf8b7be	-0.007590263
68	0x3bf8ac0e	0.00758887
69	0xbc55250a	-0.013009319
70	0x3db936dc	0.09043667
71	0x3ce9d626	0.028544497
72	0xbdee042f	-0.11621892
73	0xbcf05be5	-0.029340694
74	0xbd788b3c	-0.06067966
75	0x3d87fa71	0.06639565
76	0x3cd5522a	0.026040155
77	0xbd7ec39a	-0.06219826
78	0x3e1f2069	0.15539707
79	0xbd35a9ca	-0.044351377
80	0x3d24b93e	0.040215723
81	0x3d7e9c42	0.062160738
82	0xbdc97ddd	-0.0983846
83	0x3d0f2e68	0.034956366
84	0x3d9b8d12	0.075952664
85	0x3d0d1bd1	0.034450356
86	0xbc5c1a36	-0.013433984
87	0x3c3e0908	0.011598833
88	0x3b198e61	0.0023430812
89	0xbce441dd	-0.027863437
90	0x3db4a5e9	0.08820707
91	0x3c63bff5	0.013900747
92	0xbd2c5f17	-0.042082872
93	0x3dc17713	0.0944654
94	0x3d2b3bc2	0.041805036
95	0x3c8b5d60	0.017012298
96	0x3c3a6e1a	0.011378789
97	0x3db4cc6a	0.088280514
98	0xbd37c3d8	-0.044864506
99	0xbe36b38b	-0.17841928
100	0xbcb901ba	-0.022583831
101	0x3db5f14a	0.08883913
102	0x3dfda61a	0.12385197
103	0xbdc446bc	-0.09583804
104	0x3d1f1ea6	0.038847588
105	0x3c991eb0	0.01869139
106	0x3cf3f44e	0.02977958
107	0x3db33e1c	0.08752081
108	0x3c397a73	0.011320698
109	0xbd924371	-0.0714177
110	0x3d3b4902	0.045723923
111	0xbdfe24b1	-0.12409342
112	0x3d68e8af	0.05686253
113	0xbdae0d8e	-0.08498679
114	0x3d804127	0.06262427
115	0xbd033d78	-0.032041043
116	0xbae10110	-0.0017166454
117	0xbd3df209	-0.0463734
118	0x3cc59c2a	0.024122316
119	0x3d930f74	0.07180682
120	0xbb2d0d86	-0.0026405766
121	0xbcedb722	-0.029017989
122	0xbcd3d522	-0.025858466
123	0xbdbe9605	-0.09305958
124	0xbd4f851f	-0.050664064
125	0x3d003f47	0.031310346
126	0xbdc0d74c	-0.094160646
127	0x3c3cc9a0	0.0115226805
128	0xbde93c4c	-0.11388454
129	0xbd97f165	-0.07419089
130	0x3b802ae8	0.003911365
131	0x3d966512	0.073434964
132	0x3dceba46	0.100941226
133	0x3e1095da	0.14119664
134	0xbdeb9cd1	-0.1150452
135	0x3c81115c	0.015755348
136	0x3dbb19a9	0.09135754
137	0x3d642c11	0.055706087
138	0xbdbe1739	-0.09281773
139	0x3dc781ad	0.097415306
140	0xbc1e0ee7	-0.009647108
141	0x3d48fcb5	0.049069125
142	0x3c48fbb0	0.012267038
143	0x3b8b2ad0	0.004247047
144	0x3d06af8b	0.032882255
145	0x3d8ed320	0.06973863
146	0xbd5b1330	-0.053485096
147	0x3bd7322d	0.0065672607
148	0x3d9b7648	0.0759092
149	0x3d226741	0.03964925
150	0xbd885b34	-0.066580206
151	0x3d93f79d	0.07224963
152	0xbc75ffd8	-0.015014611
153	0xbdb5359d	-0.088481165
154	0xbdaaeaf4	-0.08345595
155	0x3c5c3484	0.013440255
156	0xbc053beb	-0.008131961
157	0x3d48f9b4	0.04906626
158	0x3cdee6c5	0.027209649
159	0x3d100b4b	0.03516702
160	0xbd522580	-0.051305294
161	0xbd1e58aa	-0.038658775
162	0x3d736110	0.059418738
163	0xbda1c340	-0.07898569
164	0xbe281052	-0.16412476
165	0x3d1a46ad	0.037665058
166	0xbcc13c8d	-0.023588443
167	0x3d073730	0.033011615
168	0xbce74cf3	-0.028234934
169	0xbd7b8822	-0.061409123
170	0x3dbad03c	0.09121749
171	0x3c1c4ac2	0.009539308
172	0x3d985761	0.07438541
173	0x3d1e61f8	0.03866765
174	0xbbc246b2	-0.0059288377
175	0xbdbae522	-0.09125735
176	0x3e0cf66f	0.13765882
177	0xb6cb9b0c	-6.0679213e-06
178	0x3df68aad	0.12038169
179	0xbd711138	-0.05885431
180	0xbdbaf854	-0.09129396
181	0xbd9bff60	-0.07617068
182	0x3de3975d	0.11112855
183	0xbc9db0a7	-0.019249273
184	0xbd8fe868	-0.0702675
185	0xbd7ee306	-0.062228225
186	0xbdaa4e46	-0.08315711
187	0xbb9997f1	-0.0046873023
188	0x3c5005a9	0.012696662
189	0x3c6062b4	0.013695408
190	0xbd47bae4	-0.048762217
191	0xbdc97db6	-0.098384306
192	0xbce08d6d	-0.027411187
193	0x3dcdd5d9	0.10050554
194	0x3e4e1a82	0.201273
195	0x3d12237d	0.035678376
196	0xbbee07a2	-0.0072640935
197	0x3c87565f	0.016520677
198	0xbda21873	-0.079148196
199	0xbd1e7dbb	-0.038694125
200	0x3df38cb8	0.11892074
201	0x3d3b572b	0.045737427
202	0x3d97ac49	0.07405908
203	0xbd62adde	-0.055341594
204	0xbcdbbe57	-0.02682416
205	0x3d604d13	0.054761004
206	0xbe1d97e9	-0.1538998
207	0x3ccaed4f	0.02477136
208	0xbd22144c	-0.039570138
209	0xbd8c935c	-0.06864044
210	0x3e059968	0.13046801
211	0xbd33d986	-0.04390862
212	0xbdb4a0cd	-0.08819733
213	0xbd41c4ba	-0.047306754
214	0x3ca353c9	0.019937413
215	0xbc8786f3	-0.016543841
216	0x3bb0cf30	0.0053957924
217	0x3cc1e054	0.023666538
218	0xbda915cc	-0.082561105
219	0xbc1ff671	-0.009763346
220	0x3d5e259a	0.05423508
221	0xbdb70482	-0.08936407
222	0xbd0cb88b	-0.03435568
223	0xbca0defb	-0.019637575
224	0xbcb46c81	-0.022024395
225	0xbdba58bb	-0.09098955
226	0x3d2bc56c	0.041936323
227	0x3e318cf6	0.17338929
228	0xbb4813a2	-0.003052928
229	0xbdc06258	-0.093937576
230	0xbe17d970	-0.1482904
231	0x3d9d8bfc	0.076927155
232	0xbd4699aa	-0.04848639
233	0xbd0837d1	-0.033256356
234	0xbc768c07	-0.015048034
235	0xbdc562a5	-0.096379556
236	0xbca08895	-0.019596377
237	0x3d4aa995	0.049478132
238	0xbd861de1	-0.06548668
239	0x3e0027f5	0.12515242
240	0xbd46f45f	-0.048572894
241	0x3dc6c924	0.09706333
242	0xbd8d22a9	-0.068913765
243	0x3d390b59	0.045176838
244	0x3c010149	0.007873842
245	0x3d7fe880	0.06247759
246	0xbccd578c	-0.02506616
247	0xbd8c4275	-0.06848613
248	0xbc5939d7	-0.013258419
249	0x3d289004	0.04115297
250	0x3d13c6cd	0.036078263
251	0x3dcd5e5d	0.10027764
252	0x3d09e015	0.033660967
253	0xbcb69fd6	-0.022293013
254	0x3dadfaf5	0.08495132
255	0xbc9321a9	-0.017960386

action_model._discrete_distribution.branches.1.bias f4 [2]
0	0xbd2a623e	-0.041597597
1	0x3d2a623f	0.0415976
