results/3/Player/Player-4499887.onnx (onnx, 155619 bytes, 17 tensors)

discrete_act_size_vector f4 [1, 5]
0	0x40000000	2.0
1	0x40000000	2.0
2	0x40400000	3.0
3	0x40400000	3.0
4	0x40400000	3.0

network_body._body_endoder.seq_layers.0.weight f4 [128, 1]
0	0xbbff7cb6	-0.007796849
1	0x3a873cd2	0.0010317808
2	0xbe898c18	-0.26864696
3	0xbbb5a1d2	-0.005542972
4	0xbb8e6c4d	-0.0043464066
5	0xbfd33c67	-1.6502808
6	0xbfe52b86	-1.7903907
7	0x3b21bafe	0.0024678106
8	0xbc1ebb01	-0.00968814
9	0xbc132b80	-0.008982539
10	0xbb48437f	-0.003055781
11	0xba8c59e9	-0.0010707948
12	0x3fb1c158	1.3887129
13	0xbae2adb6	-0.0017294202
14	0xbba887f6	-0.005143161
15	0x3ed52469	0.4162934
16	0xbc5c309a	-0.013439322
17	0xbd8a5ade	-0.06755613
18	0xbf822d5a	-1.017009
19	0x3c2aef4f	0.010433032
20	0xbe9388b3	-0.2881523
21	0xb95cf7f2	-0.00021073202
22	0xbbdca189	-0.0067331237
23	0xb68f41e8	-4.2694046e-06
24	0xbe2d2e08	-0.16912091
25	0x3bd3c381	0.006462515
26	0xb9f17116	-0.00046051358
27	0x3be8e26b	0.0071070693
28	0xbc090272	-0.008362399
29	0xba7717b7	-0.0009425836
30	0xbfc14e45	-1.5102011
31	0x3f35f549	0.710774
32	0x3da3b608	0.07993704
33	0xbfe0ab87	-1.7552346
34	0x3f991290	1.195879
35	0x3f6bd6c9	0.9212461
36	0x3b909777	0.0044125873
37	0xbcd1a59a	-0.02559166
38	0x40092253	2.14272
39	0xbb8ee521	-0.0043608104
40	0xbd2db381	-0.042407516
41	0x3bb1f21e	0.005430474
42	0x3f486c85	0.7829059
43	0xbc45c927	-0.012071884
44	0xbda3e89f	-0.08003353
45	0xbb56a916	-0.0032754592
46	0xbb048e9f	-0.002022661
47	0xbf828fe5	-1.0200163
48	0xbb541a23	-0.0032364212
49	0xbbac0765	-0.005249905
50	0xbab82691	-0.001404958
51	0xbc00fced	-0.007872802
52	0xbb70595d	-0.0036674358
53	0xbd2f8d7f	-0.04285955
54	0xbb9a61fe	-0.0047113886
55	0xbf9a3029	-1.2045947
56	0x3a8f0c10	0.0010913629
57	0xbb4cfe4f	-0.003127951
58	0x3a909688	0.001103119
59	0x3c7bc827	0.015367544
60	0xbeda3ea2	-0.4262591
61	0xc003859a	-2.0550294
62	0xbb15bd12	-0.002284829
63	0x3c9366d7	0.017993374
64	0x3b3f2d2c	0.0029171212
65	0x3b6b2785	0.003588171
66	0x3fb4f102	1.413605
67	0xbf2ba333	-0.670459
68	0xbd27ae51	-0.040937725
69	0xbd1e47b1	-0.03864259
70	0x3f7b711f	0.98219484
71	0x39e87da8	0.0004434411
72	0xb85cffcb	-5.2690313e-05
73	0xba4aecc1	-0.00077409676
74	0xbfd2caf6	-1.6468189
75	0x3a4bbbc6	0.0007771816
76	0x3b28b607	0.0025743262
77	0xbef89dc9	-0.4855788
78	0x40165e03	2.349488
79	0x3d117790	0.035514414
80	0x3c157564	0.009122226
81	0xbdf73104	-0.12069896
82	0xba49ed6b	-0.00077029195
83	0xbcbb67ef	-0.022876708
84	0xbb2e0c6f	-0.0026557704
85	0x3b2bc695	0.0026210893
86	0xbc07ec78	-0.008296125
87	0xbffca159	-1.9736739
88	0x398e3c81	0.0002712943
89	0xbb1af11c	-0.0023642248
90	0xbe6e4f91	-0.2327254
91	0xbc11b1c2	-0.008892478
92	0x4048303c	3.127944
93	0x3f83f166	1.0308044
94	0x3f0b1949	0.5433546
95	0x39eb40a7	0.00044870863
96	0xc0353d9d	-2.8318856
97	0xbc199d72	-0.009375917
98	0xbaa4b406	-0.0012565858
99	0xbbaf9568	-0.005358387
100	0xbb2b9232	-0.0026179668
101	0xbd0db23d	-0.03459381
102	0xba67567e	-0.0008824839
103	0xbfdb5be9	-1.7137424
104	0x3e8393e4	0.2569877
105	0xbbcc7c70	-0.00624042
106	0x3fffb27c	1.9976344
107	0xbfc58d39	-1.5433723
108	0xba929f18	-0.001118633
109	0xbbb8822c	-0.005630752
110	0x3bdfccc5	0.0068298304
111	0x39b838a2	0.0003513741
112	0xbc0bdb2a	-0.0085361395
113	0xbc7a0ff4	-0.015262593
114	0xbeec24c9	-0.46121815
115	0xbfd543a5	-1.6661268
116	0xbc408e22	-0.011752637
117	0x3d23ab50	0.0399583
118	0x3b02a1d9	0.0019932895
119	0xbd2201e0	-0.03955257
120	0xbbc063b3	-0.00587126
121	0x3bab3161	0.0052243923
122	0xbf84b6f1	-1.0368329
123	0x3c10587d	0.00881016
124	0xbd102d2d	-0.035199333
125	0x3e49f5c8	0.19722664
126	0xbc676c0e	-0.014124883
127	0xbc0f6fce	-0.008754684

network_body._body_endoder.seq_layers.0.bias f4 [128]
0	0x3c55f059	0.013057792
1	0xbaaab0f5	-0.0013022708
2	0xbe63ff6d	-0.22265406
3	0x3b86d79f	0.0041150595
4	0x3bddf190	0.0067731813
5	0xbf0b9dfc	-0.5453794
6	0xbeabdd50	-0.33567286
7	0x3b31b647	0.0027116702
8	0xbcb22e8b	-0.021750709
9	0xbbcfe1cc	-0.0063440558
10	0xbc4bbb86	-0.012434846
11	0xbc22ef9d	-0.009944824
12	0xbebe558c	-0.37174642
13	0xbb834aba	-0.004006711
14	0xbb7739fc	-0.003772377
15	0xbec350b1	-0.381475
16	0x3c358dd2	0.011081176
17	0x3ef9db8d	0.48800316
18	0xbf264278	-0.64945173
19	0xbb36b2e6	-0.0027877628
20	0xbe5c0b98	-0.21488798
21	0x3a3ea8d6	0.00072730833
22	0x3c108f0e	0.008823169
23	0xbb1687fa	-0.0022969232
24	0x3defbac7	0.11705547
25	0xbaa99891	-0.0012939145
26	0xbc43a00e	-0.0119400155
27	0xbc872481	-0.016496899
28	0x3b0c3b71	0.0021397735
29	0xbb3c241c	-0.0028708046
30	0xbef2aaf6	-0.47396058
31	0xbf2aea79	-0.66764027
32	0xbdeb87ae	-0.11500488
33	0xbf0dd964	-0.55409837
34	0xbed4c8a7	-0.41559336
35	0xbf182b9d	-0.5944155
36	0x3bd03fbf	0.0063552554
37	0x3ec093a7	0.3761265
38	0xbeb3893b	-0.35065636
39	0x3c4b2540	0.012399018
40	0x3e86dcd5	0.26340356
41	0x3a00e358	0.00049166894
42	0xbedf4761	-0.43609145
43	0x3ec45977	0.38349506
44	0x3eae0d14	0.33994353
45	0x3b3598af	0.0027709415
46	0x3bd4d9bc	0.0064956825
47	0xbf356051	-0.7085009
48	0x3c6a4d2b	0.014300625
49	0xbbbaef69	-0.0057048094
50	0xbb4a7128	-0.00308902
51	0x3ade8ea4	0.0016979766
52	0xbc835fcf	-0.016036896
53	0x3e5de13c	0.21667951
54	0x3bc8c746	0.006127271
55	0xbef3041b	-0.4746407
56	0x3af92941	0.0019009487
57	0x3c6acd66	0.014331197
58	0xbc394de7	-0.011310077
59	0xbc135d8d	-0.008994472
60	0xbe8dfc8b	-0.27731737
61	0xbeafb45b	-0.34317288
62	0xbbfaf99a	-0.0076591494
63	0xbe703a99	-0.23459853
64	0xbc0474e0	-0.008084506
65	0x3c02486d	0.007951838
66	0xbef41c73	-0.47677955
67	0xbea6d246	-0.325823
68	0x3ef32f5e	0.47497076
69	0x3ebcd1fb	0.36878952
70	0xbe96f0db	-0.29480633
71	0x3c317c70	0.010832891
72	0x3bda3792	0.0066594565
73	0x3c559b26	0.013037479
74	0xbe98ad17	-0.29819557
75	0x3c5d4520	0.01350525
76	0xba8e5a7d	-0.0010860708
77	0xbe777ecc	-0.24169463
78	0xbe455a28	-0.19272673
79	0xbeca51aa	-0.3951543
80	0xbc285a91	-0.010275499
81	0xbe03d796	-0.12875208
82	0xbbe1f437	-0.0068955678
83	0x3d44ff8f	0.048095282
84	0x3c2110d1	0.0098306695
85	0x3c1b2cf1	0.009471164
86	0x3b9f30ba	0.0048581036
87	0xbeb5b83c	-0.35492122
88	0x3c1b9109	0.009495028
89	0xbc2c8ad1	-0.010531143
90	0x3c60562e	0.013692422
91	0xbb1c79f2	-0.0023876396
92	0xbe347ad2	-0.17624977
93	0xbeb17add	-0.3466405
94	0xbefe1d8f	-0.49631926
95	0xbb10eed4	-0.002211501
96	0xbe531cb9	-0.20616426
97	0xbb1ba901	-0.0023751857
98	0xbbc111e2	-0.0058920244
99	0xbc87109c	-0.016487412
100	0xbc92cd84	-0.017920263
101	0x3e0340b2	0.12817648
102	0x3c547c36	0.012969067
103	0xbef10a61	-0.4707823
104	0xbe4e2c61	-0.20134117
105	0x3c3bff29	0.011474409
106	0xbe9f56e5	-0.31120983
107	0xbead5d65	-0.33860317
108	0xbb103f70	-0.0022010468
109	0x3bb833b0	0.005621396
110	0xbc459e6b	-0.012061696
111	0xbaab0d74	-0.0013050274
112	0x3b9c8c7d	0.0047774897
113	0x3bdd449f	0.006752565
114	0xbe82cd35	-0.25547186
115	0xbf151a7e	-0.5824355
116	0x3c57addf	0.013164013
117	0xbe9d9a53	-0.30781803
118	0x3c7993d6	0.015233001
119	0x3e9222ad	0.2854208
120	0x3b9b8c6d	0.0047469647
121	0x3b4315ee	0.002976771
122	0xbf3f6e97	-0.7477812
123	0x3aa872a8	0.0012851553
124	0x3d4b09ee	0.049570017
125	0xbe3be338	-0.18348396
126	0x3d0ec331	0.034854118
127	0x3c2a8990	0.010408774

network_body._body_endoder.seq_layers.2.weight f4 [128, 128]
0	0xbcb47413	-0.022028005
1	0x3d55aa6a	0.052164473
2	0x3e289e76	0.16466698
3	0xbcbee659	-0.023303198
4	0xbbce8faf	-0.0063037495
5	0x3e0b4eac	0.1360423
6	0x3d88de16	0.066829845
7	0x3d14949d	0.03627454
8	0x3b3a3f55	0.0028419096
9	0xbd3c535b	-0.04597793
10	0xbda72861	-0.081619985
11	0xbd3b99b2	-0.045800872
12	0x3e0dbf6d	0.13842554
13	0x3ddf5d0d	0.1090642
14	0x3e2e003f	0.16992281
15	0x3e127d77	0.14305674
16	0x3ded2356	0.115790054
17	0x3b4f5e1c	0.0031641787
18	0x3d9c5f9a	0.07635422
19	0xbd6ab3d8	-0.05730042
20	0xbe13da51	-0.1443875
21	0xbbb69fa2	-0.005573229
22	0xbcf478c3	-0.02984274
23	0x3dddb847	0.10826164
24	0xbde0f758	-0.10984677
25	0x3db6f636	0.0893368
26	0xbcfebf1d	-0.03109699
27	0x3c8f8830	0.017520994
28	0x3c2e94e3	0.010655615
29	0x3e12919d	0.1431336
30	0xbd335a69	-0.043787394
31	0x3d08f0c9	0.033432756
32	0xbc31756d	-0.010831219
33	0x3d60b174	0.054856732
34	0xbd716122	-0.058930524
35	0xbcc7eae7	-0.024404002
36	0x3e27aeca	0.1637527
37	0xbd93842e	-0.07202946
38	0xbd56e456	-0.052463852
39	0x3ce9054c	0.028444909
40	0xbd703cb1	-0.05865163
41	0x3d6d1ae4	0.057886973
42	0x3e02b1ed	0.12763186
43	0xbd254164	-0.040345564
44	0xbbba1337	-0.00567856
45	0x3e2acd58	0.16679895
46	0xbc6af217	-0.014339945
47	0x3ca2532b	0.019815048
48	0x3d22be4b	0.03973226
49	0x3d3ced81	0.04612494
50	0x3dff790c	0.1247426
51	0xbd2d3316	-0.042285047
52	0xbcdbd121	-0.026833119
53	0xbcfbbcb8	-0.030729637
54	0xbd3965b8	-0.045263022
55	0x3dd9a4d6	0.10627143
56	0x3ca70a25	0.02039058
57	0x3df990ea	0.12185843
58	0x3d889e77	0.0667085
59	0x3e0bbf18	0.13647115
60	0x3d295dae	0.041349106
61	0x3e116932	0.14200285
62	0xbda13b19	-0.078726
63	0x3d5dc9c6	0.054147504
64	0xbcda121f	-0.026619969
65	0x3d5cabe0	0.05387485
66	0xbbc50eb2	-0.0060137147
67	0xbc3edbae	-0.011649055
68	0xbe705efe	-0.23473737
69	0xbe2a65ef	-0.16640447
70	0x3e824df5	0.25450101
71	0xbddb14e6	-0.106973454
72	0xbc914339	-0.01773225
73	0x3d8572da	0.06516047
74	0xbbaf762d	-0.005354664
75	0xbdf6b027	-0.12045317
76	0xbdab3250	-0.08359206
77	0x3d570ce0	0.052502513
78	0x39da2484	0.00041607406
79	0x3d56cc65	0.05244102
80	0xbd6ebd50	-0.05828601
81	0xbd8634c4	-0.06553033
82	0xbdde9dc4	-0.10869935
83	0xbd68591a	-0.0567256
84	0xbca15e0d	-0.019698167
85	0x3e01da78	0.12680995
86	0x3dddcbd6	0.10829894
87	0x3c4840c2	0.012222471
88	0x3dca3d23	0.09874942
89	0x3d99bde1	0.0750692
90	0xbbea68ba	-0.0071535977
91	0x3d96bcd4	0.07360235
92	0x3c153af4	0.009108294
93	0x3e8e5e29	0.27806213
94	0x3dcf0590	0.10108483
95	0x3d8affe7	0.06787091
96	0x3a6cd609	0.0009034579
97	0xbc7854b0	-0.01515691
98	0x3d3b20eb	0.04568569
99	0xbdae57f2	-0.08512868
100	0xbdf2e2d0	-0.11859667
101	0x3cd5687a	0.026050795
102	0xbdf8b2c1	-0.121434696
103	0xbc35111f	-0.011051445
104	0x3deb0b3b	0.114767514
105	0x39faab7d	0.00047811485
106	0x3d51afe6	0.05119314
107	0x3e005d9c	0.12535709
108	0x3d07293e	0.032998316
109	0x3d8629d1	0.065509446
110	0x3d923d1a	0.071405604
111	0x3d9785e2	0.07398583
112	0x3e0d3b02	0.13792041
113	0xbd93c4d1	-0.07215274
114	0xbd98f75e	-0.074690565
115	0x3d274fa8	0.04084745
116	0x3d86cd14	0.06582084
117	0x3e30ca57	0.17264687
118	0xbb901f47	-0.00439826
119	0xbe39bec4	-0.18139178
120	0x3c021bcc	0.007941198
121	0x3d101ef3	0.035185765
122	0xbd277d65	-0.04089107
123	0xbd33f830	-0.043937862
124	0xbdd20005	-0.1025391
125	0x3df6f1f1	0.120578654
126	0xbdcb6911	-0.09932149
127	0xbd5dde0f	-0.05416685
128	0xbd94bed0	-0.07262957
129	0xbdb64764	-0.089003354
130	0xbdb46b98	-0.088095844
131	0x3daadf9d	0.08343432
132	0x3d0f220a	0.03494457
133	0x3c28e9dc	0.010309663
134	0xbdb7b159	-0.08969373
135	0x3d022c51	0.031780545
136	0x3c317d11	0.010833041
137	0xbcc1373d	-0.02358591
138	0x3d16f169	0.03685132
139	0xbdb6e1e6	-0.089298055
140	0x3d6ec592	0.058293886
141	0xbd86b1a3	-0.0657685
142	0x3da4ec61	0.08052898
143	0xbd1c803c	-0.03820823
144	0x3dbd6702	0.09248163
145	0xbdd297e3	-0.10282876
146	0x3d443336	0.0479004
147	0xbd029bfc	-0.03188704
148	0xbddcc865	-0.1078041
149	0x3d7a1428	0.06105438
150	0x3bbd3fb0	0.0057754144
151	0xbc173640	-0.009229243
152	0x3deea721	0.11652971
153	0xbde27b3e	-0.11058663
154	0xbdbc8062	-0.092041746
155	0xbdd94d39	-0.10610432
156	0xbddd096a	-0.10792811
157	0xbc7e79a9	-0.015531936
158	0x3ea76eba	0.32701665
159	0xbd4fb1de	-0.050706737
160	0xbd6cb2eb	-0.057787817
161	0x3d2942d0	0.041323483
162	0x3e3272b2	0.17426565
163	0xbe0d22c3	-0.13782792
164	0xbaf2dedc	-0.0018529552
165	0xbe38ffe3	-0.18066363
166	0x3dcd760d	0.10032282
167	0x3e070144	0.13184077
168	0xbe08b607	-0.13350688
169	0x3db1b7be	0.08677624
170	0xbd7f4fbb	-0.062331896
171	0xbe2d09ba	-0.16898242
172	0xbbf7aaf2	-0.00755822
173	0x3c8bd1af	0.017067758
174	0xbdbcad5f	-0.092127554
175	0xbe001800	-0.12509155
176	0x3d854f34	0.065092474
177	0x3d7ae945	0.06125762
178	0xbdf157b0	-0.11784303
179	0x3d9afae7	0.07567387
180	0xbe15797d	-0.14597125
181	0xbdaa848b	-0.08326062
182	0x3bb09317	0.005388628
183	0x3e28be01	0.1647873
184	0x3cf1d2a3	0.029519385
185	0x3cb7b1be	0.022423621
186	0x3d008aa7	0.03138223
187	0xbc51ddd4	-0.012809236
188	0xbdbc4e8b	-0.091946684
189	0x3c9261cd	0.0178689
190	0xbc84b6f0	-0.016200513
191	0x3e278190	0.16358018
192	0xbddbc795	-0.107314266
193	0xbd8116ed	-0.06303201
194	0xbd08e430	-0.03342074
195	0xbcef16fa	-0.02918576
196	0xbcd99b00	-0.026563168
197	0x3d807167	0.0627163
198	0x3d711579	0.05885837
199	0xbc9fb572	-0.0194957
200	0xbdbc6d26	-0.09200506
201	0x3e068fc9	0.13140787
202	0xbd9b57f2	-0.075851336
203	0xbd5aa4d7	-0.05337986
204	0xbe3a7237	-0.18207632
205	0xbe5c0b65	-0.21488722
206	0xbd6d0dba	-0.05787442
207	0x3d9a4968	0.075335324
208	0xbdc66ea5	-0.096890725
209	0xbda44ed6	-0.08022849
210	0x3d0e6853	0.03476746
211	0x3e214f23	0.15752845
212	0x3d5e9d3d	0.054349173
213	0xbc1263aa	-0.008934895
214	0x3e3263f7	0.17420946
215	0x3bf3525f	0.007425591
216	0x3dbf7573	0.093485735
217	0x3dd8b6d8	0.1058175
218	0xbe079414	-0.13240081
219	0x3d9f089f	0.07765316
220	0x3ce48248	0.027894154
221	0xbd7756b4	-0.06038542
222	0x3d275c5f	0.040859576
223	0xbda64d0c	-0.08120164
224	0xbd3bc0f7	-0.045838322
225	0x3d89075e	0.06690858
226	0xbd08d181	-0.033402923
227	0xbd32ca31	-0.043649856
228	0xbd66d3a7	-0.05635419
229	0xbdda6d78	-0.10665411
230	0x3d20225a	0.03909526
231	0x3e40bd19	0.18822135
232	0xbd42ddea	-0.047574915
233	0x3cc1e56e	0.02366897
234	0xbc9b43b6	-0.018953186
235	0x3e1e4a9d	0.1545815
236	0xbcb71b60	-0.02235192
237	0x3e26c605	0.16286476
238	0xbcd40382	-0.025880579
239	0x394885c2	0.00019123315
240	0xbd4927cf	-0.04911023
241	0x3db14db4	0.08657399
242	0xbca1ce42	-0.019751672
243	0x3da9275f	0.082594626
244	0x3cf19653	0.029490625
245	0x3db96581	0.090525635
246	0x3e371ead	0.17882796
247	0xbcc7fb0e	-0.024411704
248	0xbb5a8373	-0.003334251
249	0x3d2b0253	0.041750263
250	0xbc4d4740	-0.012529194
251	0xbe4dc3ca	-0.20094219
252	0x3e2ecafd	0.17069621
253	0x3a963000	0.0011458397
254	0x3e62a9f5	0.22135146
255	0x3e1d8ca8	0.15385687

network_body._body_endoder.seq_layers.2.bias f4 [128]
0	0xbdd52a62	-0.104084745
1	0xbdfd44c4	-0.123666316
2	0xbe4eb1a5	-0.20184954
3	0xbe26cf54	-0.16290027
4	0xbee6f511	-0.45108846
5	0xbe7b8f8d	-0.24566479
6	0xbde6175a	-0.11234923
7	0xbe468a12	-0.19388607
8	0xbe76c9a6	-0.2410036
9	0xbd8d78e3	-0.06907823
10	0x3d6a4915	0.057198603
11	0xbe8a6053	-0.27026615
12	0xbdbaf443	-0.091286205
13	0xbd3bc48e	-0.045841746
14	0xbe2c4a67	-0.16825257
15	0xbed714da	-0.42008096
16	0xbdae0417	-0.08496874
17	0xbd83d814	-0.06437698
18	0xbe29bf0a	-0.16576782
19	0xbe5b2d54	-0.2140401
20	0xbe44a00f	-0.19201683
21	0xbd8ce325	-0.06879262
22	0xbed9adda	-0.4251545
23	0xbe86a6ef	-0.26299235
24	0xbe18dc75	-0.14927848
25	0xbed864aa	-0.422643
26	0xbe67c202	-0.22632602
27	0xbc878c07	-0.016546262
28	0xbefe93b6	-0.4972207
29	0xbf1330c8	-0.5749631
30	0xbe3060da	-0.17224446
31	0xbea7dfa8	-0.32787824
32	0xbe4a8d1c	-0.19780391
33	0xbe0d397e	-0.13791463
34	0x3db450b0	0.088044524
35	0x3d9c0884	0.07618812
36	0xbe53334b	-0.20625035
37	0xbe9449db	-0.28962597
38	0xbe507bb1	-0.20359685
39	0xbe91f237	-0.28505108
40	0xbe6dfe0a	-0.2324144
41	0xbda3229a	-0.07965584
42	0xbd00c7bf	-0.031440493
43	0x3db23d30	0.08703077
44	0xbe160677	-0.14650904
45	0xbca34c94	-0.019933976
46	0xbe26c133	-0.16284637
47	0xbe2b3d13	-0.16722517
48	0xbda3e001	-0.0800171
49	0x3d310919	0.043221567
50	0xbe3685d7	-0.17824493
51	0xbe19a850	-0.15005612
52	0xbec8acb0	-0.3919425
53	0xbe899321	-0.26870063
54	0xbe91c86a	-0.28473216
55	0xbd10aae2	-0.035319217
56	0xbe2dce5f	-0.16973256
57	0xbe7083a2	-0.23487714
58	0xbd7edc86	-0.062222026
59	0xbdf1e490	-0.11811173
60	0xbee99362	-0.45620257
61	0x3d2b3207	0.041795757
62	0xbe62110a	-0.22076812
63	0xbee69e19	-0.45042494
64	0xbdbad2a8	-0.09122211
65	0xbf0795ef	-0.52963156
66	0xbe089df6	-0.13341507
67	0xbe8d29ad	-0.2757086
68	0xbe3742ca	-0.17896572
69	0xbdb13ba9	-0.086539574
70	0xbe0c3457	-0.13691841
71	0xbe5d4020	-0.21606493
72	0xbd02f242	-0.031969316
73	0xbdbcdadd	-0.09221432
74	0xbe63241f	-0.22181748
75	0xbe728538	-0.23683631
76	0x3dcf2633	0.10114708
77	0xbec13e70	-0.3774295
78	0xbe880719	-0.26567915
79	0xbe311ef0	-0.17296958
80	0xbe2f9bd0	-0.17149282
81	0xbd48f1e9	-0.04905883
82	0xbd3192be	-0.043352835
83	0xbe770a9e	-0.24125144
84	0xbe470387	-0.1943494
85	0xbf4735af	-0.7781629
86	0xbf0ae54b	-0.54256123
87	0xbe03b6b1	-0.1286266
88	0xbe032731	-0.12807919
89	0xbdb82f55	-0.08993403
90	0xbe78d325	-0.24299295
91	0xbe674f2a	-0.22588792
92	0xbe808e68	-0.25108647
93	0xbef94a67	-0.48689577
94	0xbe621fbe	-0.22082421
95	0xbd207d3d	-0.039181937
96	0xbf01a603	-0.5064394
97	0xbf09f90b	-0.53895634
98	0xbd82eddd	-0.06393025
99	0xbe658c9c	-0.2241692
100	0xbf09b863	-0.53796977
101	0xbe3d098a	-0.1846067
102	0xbdb3cea6	-0.087796494
103	0xbdf288d0	-0.11842501
104	0xbe032008	-0.12805188
105	0xbeccdcd9	-0.40012243
106	0xbefa1d53	-0.48850498
107	0xbdf281e2	-0.118411794
108	0xbd1b782f	-0.037956413
109	0xbe82dfc8	-0.25561357
110	0xbd8c5da3	-0.06853797
111	0xbf03d73e	-0.5150031
112	0xbd27a8e7	-0.040932562
113	0xbe3be89f	-0.18350457
114	0xbf01b45c	-0.5066583
115	0xbe4ab0c9	-0.19794
116	0xbe2a3d34	-0.1662491
117	0xbe5c1a61	-0.21494438
118	0xbe133066	-0.14373931
119	0xbe5b71dc	-0.21430153
120	0xbed864ac	-0.42264307
121	0xbe3f0d94	-0.18657523
122	0xbedec7c5	-0.43511787
123	0x3d8523e8	0.06500989
124	0xbe728065	-0.23681791
125	0xbe8ab553	-0.27091464
126	0xbe14e04e	-0.1453869
127	0xbe7392ea	-0.23786512

network_body._body_endoder.seq_layers.4.weight f4 [128, 128]
0	0x3e24251b	0.1602978
1	0xbd00ff79	-0.031493638
2	0x3d0d5c2b	0.034511726
3	0xbc9baef1	-0.019004317
4	0x3e5911f7	0.2119826
5	0x3c78eab9	0.015192681
6	0x3c9b4b1c	0.018956713
7	0xbd0eced8	-0.03486523
8	0x3e12cbc1	0.14335538
9	0xbce1baf9	-0.027554976
10	0xbc51b9f7	-0.012800685
11	0xbdd3a0e5	-0.103334226
12	0x3ce1ed5e	0.027579006
13	0xbd573923	-0.052544724
14	0x3d2f2771	0.042762224
15	0x3c7ff0c6	0.01562137
16	0xbcbdbc45	-0.023161063
17	0xbdc2e3c3	-0.09516098
18	0xbc15c087	-0.00914014
19	0x3d473cf9	0.048642132
20	0x3dc0b285	0.0940905
21	0xbd64d241	-0.055864576
22	0x3d62bcda	0.055355884
23	0x3e16b981	0.14719202
24	0x3d9e459a	0.07728119
25	0x3c13b97e	0.009016393
26	0xbd03746f	-0.03209346
27	0xbd0c02e6	-0.03418245
28	0xbc43e968	-0.011957504
29	0x3cf39c24	0.02973754
30	0xbb822c3a	-0.0039725574
31	0x3ca78ff6	0.020454388
32	0x3d6f8757	0.05847868
33	0x3b961418	0.004580032
34	0xbcb2841a	-0.021791507
35	0x3cc43815	0.023952523
36	0x3e19d969	0.15024342
37	0xbd37280a	-0.04471592
38	0x3d93edfa	0.07223125
39	0xbdcc8d57	-0.09987896
40	0xbe1de473	-0.15419178
41	0x3d9b4582	0.07581617
42	0x3da54138	0.0806908
43	0xbd863fd1	-0.06555141
44	0x3d580713	0.05274112
45	0x3c66c126	0.014084136
46	0xbc735c11	-0.014853493
47	0xbe13d1a9	-0.14435448
48	0xbb281592	-0.0025647623
49	0x3d6a0d19	0.057141397
50	0xbd873420	-0.06601739
51	0x3d07dd4f	0.03317004
52	0xbc234151	-0.009964303
53	0xbd27b320	-0.04094231
54	0x3c825875	0.01591132
55	0xbd80943f	-0.06278276
56	0x3c93ed3f	0.018057464
57	0xbe23ca27	-0.15995084
58	0x3d7fa946	0.06241729
59	0x3cf763ef	0.03019902
60	0x3dead762	0.11466862
61	0xbc3a7b6f	-0.011381968
62	0xbc8efc65	-0.017454335
63	0xbda03686	-0.078228995
64	0x3ccdf039	0.025138961
65	0x3d7f9624	0.062399045
66	0x3da5f124	0.081026345
67	0xbe0a2982	-0.13492396
68	0x3cd85b8b	0.026410839
69	0x3bc1048a	0.0058904337
70	0xba990ff8	-0.0011677733
71	0x3ce81190	0.028328687
72	0x3c3e4763	0.0116137
73	0x3cc4a117	0.024002595
74	0xbd1e24b7	-0.038609233
75	0xbd9eb269	-0.07748873
76	0x3d24bf9c	0.040221795
77	0xbc82d396	-0.015970033
78	0x3d452425	0.048130173
79	0x3d97c891	0.07411302
80	0xbdb5b634	-0.08872643
81	0x3cdf3b80	0.027250051
82	0x3cd6a02f	0.026199428
83	0xbde57459	-0.11203832
84	0x3e08e331	0.13367917
85	0xbce4f60f	-0.027949361
86	0x3cda844d	0.026674414
87	0x3d744305	0.059634227
88	0x3c8ee16c	0.017441474
89	0x3c22cfb7	0.009937218
90	0xbc6ba8bd	-0.014383492
91	0x3e130581	0.14357568
92	0xbd951e08	-0.07281119
93	0xbdcb4170	-0.099245906
94	0xbce96ffa	-0.028495777
95	0xbd708142	-0.05871702
96	0x3e4dc767	0.20095597
97	0xbc70a7fd	-0.014688489
98	0x3d8fe19e	0.07025455
99	0xbd0b1085	-0.0339513
100	0x3e31fab8	0.17380798
101	0x3dbe3551	0.09287513
102	0xbdd7f9e0	-0.10545707
103	0x3ca188cb	0.019718548
104	0xbb9d7044	-0.004804643
105	0xbaf44705	-0.0018636888
106	0x3cb695ca	0.022288222
107	0xbcd4253a	-0.025896657
108	0x3c864483	0.01639009
109	0xbc396438	-0.011315398
110	0xbcf800e1	-0.030273857
111	0x3ce27e1f	0.02764803
112	0xbbca2c48	-0.0061698295
113	0xbdf6dd98	-0.120539844
114	0xbe24dd62	-0.16100076
115	0x3d7dd62b	0.061971825
116	0x3d210707	0.039313342
117	0xbc2ae7f0	-0.010431275
118	0x3d0225e5	0.03177442
119	0xbcde315d	-0.027123148
120	0x3cf79917	0.030224366
121	0x3d986ffb	0.074432336
122	0xbd2fb6d2	-0.04289896
123	0xbd9f1077	-0.07766812
124	0x3abcfaeb	0.0014418041
125	0x3c9fdef4	0.019515492
126	0xbb6b9346	-0.0035945936
127	0x3e00c052	0.12573364
128	0xbc781f44	-0.015144173
129	0x3ca8f7d9	0.020625995
130	0x3d6d6c52	0.05796463
131	0x3ccfc1c8	0.025360957
132	0xbdcb415a	-0.09924574
133	0x3bde0e73	0.006776625
134	0x3c60bbe5	0.013716673
135	0xbd51c0c5	-0.05120923
136	0x3cd4b5c3	0.025965577
137	0xbda859ea	-0.08220275
138	0x3d57deb6	0.052702628
139	0x3d6d17e0	0.057884097
140	0xbd3a39cb	-0.045465272
141	0x3d90f43c	0.07077834
142	0x3cd69d07	0.026197923
143	0x3de28a82	0.110615745
144	0xbdc47fe4	-0.09594706
145	0xbd1b5879	-0.03792617
146	0xbdae4576	-0.08509342
147	0xbce2b349	-0.02767338
148	0xbd8768b7	-0.0661177
149	0x3bacda67	0.005275059
150	0xbd8d276b	-0.06892284
151	0xbd0b8a30	-0.034067333
152	0xbd0db1d5	-0.034593422
153	0xbda40627	-0.08008986
154	0x3de9ecf1	0.11422146
155	0x3cc04151	0.023468645
156	0xbd90b23d	-0.07065246
157	0xbe087828	-0.13327086
158	0x3d1b2459	0.03787646
159	0xbcb85006	-0.022499096
160	0x3ac9537f	0.0015359967
161	0xbd112f19	-0.035445306
162	0x3c857eb3	0.016295766
163	0x3d9b8c4c	0.07595119
164	0x3cdb16fa	0.026744355
165	0x3c596a4c	0.013269972
166	0xbd1fa37b	-0.038974266
167	0xbddfe373	-0.10932054
168	0x3dbd73df	0.09250616
169	0xbd6de071	-0.058075372
170	0xbd019883	-0.031639587
171	0x3db276d7	0.08714073
172	0xbb978607	-0.0046241316
173	0x3d141f72	0.0361628
174	0xbd2d4301	-0.042300228
175	0xbdeaba9f	-0.114613764
176	0xbcb34813	-0.021884954
177	0xbafba914	-0.001920017
178	0xbdb0a00d	-0.08624277
179	0xbce42816	-0.027851146
180	0x3dd53e66	0.10412292
181	0xbc78570b	-0.015157471
182	0xbcdc2fe8	-0.026878312
183	0xbd636946	-0.05552032
184	0xbd0b7daa	-0.03405539
185	0x3d821e11	0.06353391
186	0xbd165a42	-0.03670717
187	0x3ce0d63e	0.027445909
188	0x39721e6c	0.00023090251
189	0xbd79a003	-0.060943615
190	0x3e076081	0.13220407
191	0x3d305360	0.043048263
192	0xbdab603b	-0.08367964
193	0xbe1aa4e3	-0.15101962
194	0xbd0d3d88	-0.03448251
195	0x3df35185	0.11880783
196	0xbe0651eb	-0.13117187
197	0x3d7737f4	0.060356095
198	0xbc6d2bba	-0.014475757
199	0xbc958af1	-0.018254729
200	0x3e183631	0.14864422
201	0xbdb4ee0e	-0.08834468
202	0xbd6f9a4f	-0.05849677
203	0x3c204f9e	0.009784607
204	0xbd4a2e27	-0.04936042
205	0xbdaa1b03	-0.08305933
206	0xbbd5b769	-0.0065221083
207	0xbd5d2e5b	-0.053999286
208	0xbd3ba8c2	-0.045815237
209	0xbc106177	-0.0088123
210	0x3bdb1f00	0.006687045
211	0xbd9eeea3	-0.0776036
212	0xbc958974	-0.01825402
213	0xbca72fe2	-0.020408574
214	0xbe7b261f	-0.24526261
215	0x3d059538	0.03261301
216	0x3db0747f	0.0861597
217	0xbdc8efd3	-0.09811368
218	0xbcbb2238	-0.022843465
219	0x3d0d3196	0.034471117
220	0x3c2e1d3e	0.010627089
221	0x3cef9133	0.029244041
222	0xbd69dc60	-0.05709493
223	0x3d05e6fa	0.03269098
224	0xbde16d74	-0.11007205
225	0xbd06f2b9	-0.032946322
226	0xbd0cc208	-0.03436473
227	0x3e388cee	0.1802251
228	0xbe8a240d	-0.2698063
229	0xbd3d5a75	-0.046228845
230	0x3cc2be3a	0.023772348
231	0xbcdb24c9	-0.026750939
232	0xbd2c0286	-0.041994594
233	0xbdeabe70	-0.11462104
234	0x3ba73fcf	0.005104042
235	0xbc2003e9	-0.009766557
236	0xbdc3c0d4	-0.095582634
237	0x3d47cd39	0.0487797
238	0x3d5dad67	0.054120447
239	0xbbe7818a	-0.007065003
240	0x3ca417f1	0.020030947
241	0xbc3b2645	-0.011422698
242	0xbde04fd0	-0.10952723
243	0xbcd8f262	-0.026482765
244	0x3c3c2fc9	0.011486002
245	0x3c17bba1	0.009261043
246	0x3c2c5b06	0.010519749
247	0x396b1fc0	0.00022423174
248	0xbb846f1b	-0.004041565
249	0x3e155922	0.14584783
250	0x3d627a9a	0.055292703
251	0xbbd570cc	-0.0065136906
252	0xbd499d79	-0.049222443
253	0xbb9408f9	-0.004517671
254	0x3d476abc	0.048685774
255	0x3b5c10eb	0.003357942

network_body._body_endoder.seq_layers.4.bias f4 [128]
0	0xbd3102d0	-0.043215573
1	0xbcda08ac	-0.026615463
2	0xbe0006e4	-0.12502629
3	0xbd1c9670	-0.038229406
4	0xbc52a02b	-0.01285557
5	0xbd127a75	-0.035761315
6	0xbd5ca62d	-0.053869415
7	0x3c86299f	0.016377268
8	0x398f5852	0.0002734089
9	0xbf4173a6	-0.7556709
10	0xbf600dd4	-0.875211
11	0xbf868011	-1.0507833
12	0xbd149168	-0.036271483
13	0xbc0eb1f0	-0.008709416
14	0x3cada1a9	0.02119525
15	0xbd2a616b	-0.04159681
16	0xbd151abc	-0.03640245
17	0xbcba2ec1	-0.022727372
18	0xbce71920	-0.028210223
19	0xbb194a3a	-0.002339019
20	0x3cd821a2	0.026383225
21	0x3c3fc978	0.011705749
22	0x3d143638	0.03618452
23	0x3c5e1751	0.013555364
24	0xbe0fd297	-0.14045177
25	0xbd027853	-0.03185303
26	0xbd7ebb58	-0.062190384
27	0xbe272fd8	-0.16326845
28	0xbf3b6a2f	-0.732089
29	0x3c647951	0.01394494
30	0x3c5c6b12	0.013453262
31	0x3cc1914f	0.023628859
32	0xbcf1811d	-0.029480511
33	0x3c1984a2	0.009370001
34	0x3bd69b30	0.0065492615
35	0xbc42cb96	-0.011889359
36	0xbd19c50b	-0.03754143
37	0x3bc7bc1a	0.0060954215
38	0xbbef8307	-0.007309321
39	0xbb602e9e	-0.0034207474
40	0xbf4bac03	-0.79559344
41	0xbc684721	-0.014177115
42	0x3d05eb47	0.03269508
43	0x3b16357d	0.0022920065
44	0xbb8cbf9a	-0.0042953016
45	0xbcc302ed	-0.023805106
46	0xbcbe32a5	-0.023217509
47	0xbf61f0fc	-0.8825834
48	0xbf84143c	-1.0318675
49	0xbd1d556e	-0.03841155
50	0xbbceb54b	-0.006308233
51	0xbc9b8729	-0.018985348
52	0x3ba778ad	0.005110821
53	0xbcd863d2	-0.026414786
54	0xbbc83b66	-0.0061105965
55	0xbcb6b607	-0.022303594
56	0x3d07c50e	0.03314691
57	0x3d001d0c	0.0312777
58	0x3d22c03c	0.03973411
59	0xbcbd03a5	-0.023073027
60	0x3bd36472	0.006451183
61	0x3c2d6c74	0.010584939
62	0xbd385f3f	-0.04501271
63	0xbbebc71d	-0.007195367
64	0xbf18dab7	-0.5970873
65	0xbd167ca3	-0.036739957
66	0xbb6a3354	-0.003573616
67	0xbd77d954	-0.060509995
68	0xbd5cc1ce	-0.053895764
69	0xbec0847d	-0.3760108
70	0xbf386b76	-0.7203897
71	0xbba4bd52	-0.0050274516
72	0xbd371c8d	-0.044704963
73	0x3c695f48	0.014243908
74	0xbf8c8001	-1.0976564
75	0xbd0853fb	-0.033283215
76	0x3caaf332	0.020867918
77	0xbb8e92c0	-0.00435099
78	0xbc957b98	-0.01824741
79	0xbd1f6736	-0.03891679
80	0x3c7eb02e	0.015544934
81	0x3c6b64f3	0.01436733
82	0xbd026a15	-0.03183945
83	0xbcfa285f	-0.030536829
84	0xbcf7d360	-0.030252159
85	0x3d0ca07e	0.034332745
86	0xbb854233	-0.0040667295
87	0xbd24d34c	-0.04024057
88	0x3b59b305	0.0033218276
89	0x3d3b3dfa	0.045713402
90	0xbf96ea7d	-1.179031
91	0xbc403bf5	-0.011733045
92	0xbc0fa043	-0.008766237
93	0x3d1dc483	0.038517486
94	0xbd4a621b	-0.049409967
95	0xbb55a850	-0.0032601543
96	0x3d1fafbe	0.03898596
97	0xbd0edd2a	-0.034878887
98	0x3ca27cf6	0.019834977
99	0xbcd2605b	-0.025680711
100	0xbd0b073b	-0.033942442
101	0xbcee5f1d	-0.029098088
102	0xbf604aec	-0.8761432
103	0xbcac6b7b	-0.021047344
104	0xbc8090c5	-0.015694031
105	0xbf99a9a3	-1.2004894
106	0xbdc2b4b1	-0.095071204
107	0xbd3b5d83	-0.045743477
108	0xbab99146	-0.0014157675
109	0xbd297f30	-0.04138106
110	0xbce06a5a	-0.027394462
111	0xbd6ebcfd	-0.058285702
112	0xbd698397	-0.05701026
113	0xbd17bb08	-0.0370436
114	0xbc2159d5	-0.009848078
115	0x3d105b2a	0.03524319
116	0xbd46a69d	-0.04849874
117	0xbd77202c	-0.060333416
118	0x3b6ffe0c	0.003661993
119	0xbd152a99	-0.036417577
120	0xbbee378f	-0.0072698067
121	0xbc9909b4	-0.018681385
122	0xbc90dd30	-0.017683595
123	0xbc874b58	-0.016515419
124	0xb9c1191d	-0.0003683054
125	0xbc7538dd	-0.014967171
126	0xbd13cee1	-0.036085967
127	0xbd004c13	-0.03132255

action_model._discrete_distribution.branches.0.weight f4 [2, 128]
0	0xbc552be9	-0.013010957
1	0xbcb07dc9	-0.021544354
2	0x3e012731	0.12612607
3	0x3d20bcdb	0.039242607
4	0xbd270621	-0.04077733
5	0x3d595b77	0.053065743
6	0x3b8dfeb0	0.0043333396
7	0x3d2d16e3	0.042258155
8	0xbc0465f5	-0.008080949
9	0xbc355dd1	-0.011069731
10	0xba5511b4	-0.0008127943
11	0xbc9007a1	-0.017581763
12	0x3d153099	0.0364233
13	0xbcddd272	-0.027077887
14	0x3d2b0d0a	0.041760482
15	0xbd026aa8	-0.031839997
16	0xbd25e602	-0.040502556
17	0x3c8a8dc7	0.016913308
18	0x3d0e4ddc	0.03474222
19	0x3d32ed6d	0.043683458
20	0x3c01ee80	0.007930398
21	0x3bb9d294	0.005670855
22	0x3d0d19a0	0.034448266
23	0xbb903c41	-0.004401714
24	0x3e1b84b1	0.15187337
25	0xbc2ab582	-0.010419251
26	0x3b894ae6	0.004189837
27	0x3cb8403d	0.022491569
28	0x3d085ec4	0.0332935
29	0xbb5d9280	-0.0033809245
30	0x3d2388c8	0.039925367
31	0x3c7ebf0d	0.01554848
32	0x3c93ef21	0.018058361
33	0x3ca68d0b	0.020330926
34	0x3b37d097	0.0028047913
35	0x3c402788	0.011728175
36	0xbd6445e7	-0.055730727
37	0xbc9e3ba4	-0.019315548
38	0x3b4d9e4a	0.0031374865
39	0xbc540fc7	-0.012943215
40	0x3d27642e	0.040867023
41	0xbc6045e5	-0.013688539
42	0xbc9fb8d1	-0.019497307
43	0x3cf97e3b	0.0304557
44	0xbbd62eb5	-0.0065363296
45	0xbc8f44cb	-0.017488858
46	0x3c86fa41	0.016476752
47	0xbcbc07f4	-0.022953011
48	0xbd442d94	-0.04789503
49	0xbc4ae627	-0.012383974
50	0xbcaafb5b	-0.020871809
51	0x3b55f365	0.0032646295
52	0x3cdd99e2	0.027050916
53	0x3d437002	0.04771424
54	0xbd371311	-0.044695918
55	0xbd696a29	-0.056986008
56	0x3d6cc8b4	0.057808593
57	0x3d28f019	0.0412446
58	0xbc2e261d	-0.010629204
59	0xbd5bb8f6	-0.05364319
60	0x3cc93060	0.0245592
61	0xbc8c5db9	-0.017134534
62	0xbb9c4856	-0.0047693653
63	0xbcbdbd09	-0.023161428
64	0x3d8dedc9	0.069301195
65	0xbc91c5bc	-0.017794482
66	0xbc969f66	-0.018386554
67	0xbd1e9366	-0.03871479
68	0xbbe63aab	-0.0070260367
69	0x3dc9c756	0.098524734
70	0x3c984719	0.01858859
71	0x3c1cf910	0.0095808655
72	0x3b68eeb7	0.0035542676
73	0xbcfef3a6	-0.03112204
74	0xbccb289c	-0.024799637
75	0xbd209834	-0.039207652
76	0x3c4a18c8	0.01233501
77	0xbd3e1e0f	-0.046415385
78	0x3beecf6d	0.0072879107
79	0xbd4122ec	-0.047152445
80	0xbc2e41da	-0.010635817
81	0xbb929839	-0.0044737128
82	0xbcb69f2c	-0.022292696
83	0x3c3f2c2c	0.011668246
84	0x3bfc3682	0.0076969275
85	0x3c3db146	0.01157791
86	0xbd6f40c6	-0.058411382
87	0x3c6acf7a	0.014331693
88	0x3ba5549d	0.005045487
89	0x3d01b52c	0.03166692
90	0xbd15e360	-0.036593795
91	0xbc293340	-0.01032716
92	0x39c8415c	0.0003819567
93	0x3bf2c64b	0.0074088923
94	0xbcb3bfa5	-0.02194197
95	0xbc643ebd	-0.013930974
96	0x3bb5d295	0.005548785
97	0x3d40c45e	0.04706227
98	0xbc326443	-0.010888162
99	0x3bd443d4	0.0064778123
100	0x3baec75e	0.005333825
101	0x3d0a8533	0.033818435
102	0xbca91e1e	-0.020644244
103	0xbd632478	-0.0554547
104	0xbcd56da0	-0.02605325
105	0xbd3a3ae6	-0.045466326
106	0xbd60ddd6	-0.05489906
107	0xbcd206f3	-0.02563808
108	0x3b9bfa01	0.0047600274
109	0x3d4af629	0.049551163
110	0x3c8096ef	0.01569697
111	0x3c963889	0.018337505
112	0x3d5e5a9d	0.054285634
113	0xbcfe5b2f	-0.03104934
114	0x3c479334	0.012181092
115	0x3d2196c1	0.03945041
116	0xbd1951af	-0.037431415
117	0xbd087cca	-0.033322133
118	0xbd339d97	-0.04385146
119	0xbd0cb3ab	-0.034351032
120	0xbd10c1be	-0.035341017
121	0x3d66864c	0.05628042
122	0xbc416eee	-0.011806233
123	0x3d26ad08	0.04069236
124	0xbceb572b	-0.028728088
125	0xbd2b80e7	-0.041870978
126	0xbd315531	-0.043294135
127	0xbd2d6f9b	-0.042342763
128	0x3cc4c8f1	0.024021598
129	0x3d1a0eb6	0.037611686
130	0xbe04a2d6	-0.12952742
131	0xbcea2dfd	-0.028586382
132	0x3d2b3172	0.0417952
133	0xbd0e5d8e	-0.03475719
134	0x3ba46e3a	0.005018023
135	0xbd500c4f	-0.05079299
136	0xbb936d72	-0.004499131
137	0xbc2e6104	-0.0106432475
138	0x3bcf6f26	0.0063303886
139	0x3c33c976	0.010973325
140	0xbd1ea9b3	-0.038736057
141	0x3ceb0d6f	0.02869293
142	0xbd36018c	-0.04443507
143	0x3cc8c0c4	0.02450598
144	0x3d4e3849	0.050346646
145	0xbd0f748d	-0.03502326
146	0xbcc8e6cf	-0.02452412
147	0xbcabd5db	-0.020975998
148	0xb9d942ce	-0.0004143924
149	0x3c920b98	0.017827794
150	0xbd037e50	-0.032102883
151	0x3c92ef19	0.017936276
152	0xbe206530	-0.156636
153	0xbc3c7620	-0.011502773
154	0x3bb7bfb3	0.005607569
155	0xbc1a53f5	-0.009419431
156	0xbd3ea30f	-0.046542224
157	0xbc5d9f3a	-0.013526732
158	0xbd0bb702	-0.034110077
159	0xbc5633c8	-0.013073869
160	0xbc79cad8	-0.015246116
161	0xbd058fef	-0.03260797
162	0x3c08e146	0.008354491
163	0xbc517f4a	-0.012786696
164	0x3d48f3fa	0.0490608
165	0x3ce6f5b4	0.028193332
166	0xbb8913ce	-0.004183269
167	0x3c08d4d0	0.00835152
168	0xbd0df4e7	-0.034657385
169	0x3cc69581	0.02424121
170	0x3c9cbf48	0.019134179
171	0xbabf812e	-0.0014610642
172	0xbb89ff63	-0.0042113527
173	0x3c108754	0.008821327
174	0xbc2d40a4	-0.010574494
175	0x3cdab8b8	0.026699409
176	0x3cd58cc1	0.026068093
177	0xb7d19c18	-2.4987428e-05
178	0x3c2dfc97	0.010619304
179	0xbca7d7e0	-0.02048868
180	0xbc15f6ff	-0.009153127
181	0xbd3590a1	-0.044327382
182	0x3d0f2c67	0.034954455
183	0x3cf1ea18	0.02953057
184	0xbd4cac2f	-0.049968895
185	0xbd7fedbc	-0.06248258
186	0x3a8b90de	0.0010648032
187	0x3d272739	0.04080889
188	0x3ac96638	0.0015365547
189	0x3ca753a8	0.020425633
190	0xbc2b0174	-0.010437358
191	0x3cb43fcb	0.022003075
192	0xbd6774f3	-0.056508016
193	0x3c82237e	0.015886065
194	0x3d017bb0	0.0316121
195	0x3cda1cf2	0.02662513
196	0xbb8ea291	-0.0043528755
197	0xbdbda010	-0.09259045
198	0xbd166ea2	-0.0367266
199	0xbc1cf9c3	-0.009581032
200	0x3b95521b	0.004556907
201	0x3bf8bf69	0.0075911772
202	0x3d32f47f	0.0436902
203	0x3d4b9cb3	0.049709987
204	0x3c0de0e0	0.008659571
205	0x3d86db79	0.0658483
206	0xbd4aede2	-0.04954327
207	0x3d3bd706	0.04585936
208	0x3cd09bf8	0.025464997
209	0x39cbfee5	0.00038909088
210	0x3c6cf771	0.0144632915
211	0xbcf502f3	-0.029908633
212	0x3b278334	0.002556038
213	0xbc9fe4c3	-0.019518262
214	0x3d2cda96	0.042200647
215	0xbbe04c9a	-0.006845069
216	0x3a28c1c6	0.0006437566
217	0xbd44b1dc	-0.048021182
218	0x3cc4e404	0.024034508
219	0x3d052ffd	0.03251647
220	0xbc9d38e6	-0.01919217
221	0xbc1b1b17	-0.009466908
222	0x3d0b9463	0.03407706
223	0x3c9bf30b	0.01903679
224	0xbc3956d1	-0.011312203
225	0xbc8536fb	-0.016261568
226	0x3bf29b03	0.0074037327
227	0x3a75a2b6	0.0009370254
228	0x3c2e0315	0.010620852
229	0xbcc727bc	-0.024310939
230	0x3c8eafbf	0.017417787
231	0x3d735c29	0.059414063
232	0x3d1a31ea	0.037645258
233	0x3d7f337e	0.062304966
234	0x3d44bd0f	0.048031863
235	0x3d1e1a07	0.03859904
236	0x3b9af31c	0.004728688
237	0xbce69134	-0.02814541
238	0xbc930149	-0.017944949
239	0xbc35aab0	-0.011088058
240	0xbd6c1328	-0.057635456
241	0x3d308027	0.043090966
242	0xbb467180	-0.0030280054
243	0xbc96ebcf	-0.01842299
244	0x3d06c2c9	0.032900605
245	0x3bbfaa8a	0.0058491873
246	0x3d16a805	0.03678133
247	0x3d248204	0.040163055
248	0x3d129852	0.035789795
249	0xbd21c9d9	-0.039499138
250	0x3c397831	0.01132016
251	0xbd65d62c	-0.056112453
252	0x3d0a01bd	0.033693064
253	0x3cd07b99	0.025449561
254	0x3d5b9978	0.053613156
255	0x3d6edcf2	0.05831618

action_model._discrete_distribution.branches.0.bias f4 [2]
0	0xbe55d451	-0.20881774
1	0x3e55d457	0.20881782

action_model._discrete_distribution.branches.1.weight f4 [2, 128]
0	0x3cacefb3	0.021110391
1	0x3ce94faa	0.02848037
2	0x3e0261f3	0.12732677
3	0xbd59605e	-0.05307042
4	0x3c7d0ce9	0.015444973
5	0x3d7e1104	0.062027946
6	0xbd5ee78e	-0.054420047
7	0xbd8407a4	-0.0644677
8	0x3a69a417	0.0008912696
9	0x3d193e72	0.037413068
10	0x3d87db21	0.066335924
11	0x3d12379f	0.035697576
12	0xbda33ecb	-0.07970961
13	0x3beb382f	0.0071783285
14	0xbd432a69	-0.047647867
15	0xbbda6b38	-0.0066656135
16	0x3d4de214	0.050264433
17	0xbcd2b08e	-0.025718953
18	0xbc3e2daa	-0.011607567
19	0xbd49ca43	-0.049265157
20	0x3c0a3792	0.008436101
21	0x3ce1300c	0.02748873
22	0xbd6cc655	-0.05780633
23	0xbb77d489	-0.003781589
24	0x3e3e37de	0.18575999
25	0x3bdf3bbb	0.0068125403
26	0x3bfb5b0a	0.007670765
27	0x3e10ebb1	0.14152409
28	0x3dc4c4fd	0.09607885
29	0xbd137f16	-0.03600987
30	0x3b902f52	0.0044001723
31	0x3c7e1964	0.015508983
32	0xbd0f64a3	-0.035008084
33	0xbcafa4b4	-0.021440841
34	0xbb447c00	-0.0029981136
35	0xbcdf6c0d	-0.027273202
36	0x3d604dec	0.054761812
37	0x3bc2a652	0.005940237
38	0xbc1b082c	-0.009462398
39	0x3c1698f0	0.009191737
40	0x3da4647c	0.080269784
41	0x3d7e1562	0.06203211
42	0x3adbe54c	0.001677671
43	0xbcb52e4e	-0.022116806
44	0xbcf2e4e0	-0.029650152
45	0x3bf491f3	0.0074636876
46	0xbba511da	-0.0050375285
47	0x3d01dabe	0.03170275
48	0x3d0c0083	0.034180176
49	0x3c17a9be	0.009256778
50	0x3d6c81da	0.057741024
51	0x3c925d59	0.017866777
52	0xbda00ace	-0.07814561
53	0xbd06badc	-0.032893047
54	0xbd0cec72	-0.03440518
55	0x3d664446	0.056217454
56	0xbd81cc98	-0.06337851
57	0xbd744e4b	-0.05964498
58	0x3c577945	0.0131514715
59	0x3d877173	0.066134356
60	0xbc9bb908	-0.019009128
61	0x3c97395d	0.01845997
62	0x3d6eae51	0.05827171
63	0xbd24a918	-0.040200323
64	0x3de3f158	0.11130017
65	0x3d0a3482	0.03374148
66	0x3d8148fe	0.0631275
67	0x3d7f9fe2	0.062408336
68	0xbc17b121	-0.009258539
69	0x3e1269b0	0.14298129
70	0x3dba5789	0.09098727
71	0xbd5ac5fd	-0.053411473
72	0xbd922de7	-0.071376614
73	0x3d2ef48d	0.04271369
74	0x3d0a5a88	0.033777744
75	0x3da318c3	0.07963707
76	0xbbd49364	-0.006487297
77	0x3d997b0a	0.07494171
78	0xbd7034e9	-0.05864421
79	0x3d9742d0	0.0738579
80	0x3cdf84cc	0.027285002
81	0xbbf95f6e	-0.007610253
82	0x3d05bfdc	0.032653674
83	0x391f78da	0.00015208442
84	0xbd033b60	-0.032039046
85	0xbb8364b5	-0.004009808
86	0x3c42d94a	0.011892626
87	0xbbb52071	-0.005527549
88	0xbbffe53d	-0.0078093098
89	0xbd5a065b	-0.053228717
90	0x3cbe5468	0.023233607
91	0xbc3df0e5	-0.011593078
92	0xbcd6308b	-0.026146194
93	0xbce41160	-0.027840316
94	0x3b98ff22	0.004669086
95	0x3ce9e17f	0.028549908
96	0x3bf613c2	0.0075096795
97	0x3d25d167	0.040482905
98	0x3bd10575	0.0063788244
99	0xbb8c431e	-0.004280462
100	0x3c36cf7c	0.011157867
101	0x3baeec0c	0.0053381976
102	0x3d440dc9	0.04786471
103	0x3da8b502	0.082376495
104	0xb988b5af	-0.00026075306
105	0x3c822515	0.015886823
106	0x3d8190e3	0.06326463
107	0x3d35352e	0.04424017
108	0x3c4498d0	0.011999324
109	0xbce6ef2b	-0.028190216
110	0x3c4547c2	0.012041034
111	0xbce92a3e	-0.028462525
112	0xbd6f6847	-0.058449056
113	0x3d8de4f6	0.069284365
114	0xbd4f513b	-0.050614577
115	0xbcac2a86	-0.02101637
116	0x3d0c13ba	0.0341985
117	0x3d832837	0.06404155
118	0x3cc44aeb	0.023961505
119	0x3d2b2e1f	0.04179203
120	0x3d6bfc60	0.05761373
121	0xbd21ff6f	-0.03955024
122	0x3cd7d93b	0.0263487
123	0xbd40be56	-0.04705652
124	0x3d0e7f9b	0.034789663
125	0x3c540aaf	0.012942
126	0x3d281bac	0.041042015
127	0x3d8b06aa	0.067883804
128	0xbc7ce3a7	-0.015435136
129	0xbc9b6ae6	-0.018971872
130	0xbe12965d	-0.14315172
131	0x3d158441	0.03650308
132	0xbc83c04a	-0.016082902
133	0xbd504738	-0.05084917
134	0x3d6653e6	0.056232356
135	0x3d46e5ae	0.048558883
136	0xbc6cb73d	-0.014447984
137	0xbd432157	-0.047639217
138	0xbd996234	-0.07489434
139	0xbcfc73c8	-0.030816928
140	0x3d9ae914	0.075639874
141	0xbcd76ce7	-0.026297046
142	0x3d641bb7	0.055690493
143	0x3c5fd235	0.013660957
144	0xbd39a56a	-0.045323767
145	0x3cf6c62c	0.030123793
146	0x3c9d3ae3	0.019193118
147	0x3d882569	0.066477604
148	0x3b7dfee8	0.0038756672
149	0xbc942fd8	-0.01808922
150	0x3d14c0af	0.03631657
151	0x3bd38771	0.006455355
152	0xbe40fe6a	-0.18847051
153	0x3bd448fb	0.0064784265
154	0xbaa7b647	-0.0012795412
155	0xbdf66a42	-0.12031986
156	0xbdc51383	-0.09622862
157	0x3cb34c91	0.021887096
158	0xbc1d3fc7	-0.009597725
159	0xbc40b287	-0.011761314
160	0x3d186254	0.037203148
161	0x3ce5e9b9	0.02806555
162	0x3c1d0261	0.009583087
163	0x3cadb1ce	0.021202948
164	0xbd422593	-0.047399115
165	0xbbaff292	-0.005369493
166	0xbbad49ef	-0.0052883546
167	0xbbb7d94b	-0.00561062
168	0xbdb4ff5b	-0.08837768
169	0xbd823ad4	-0.06358877
170	0x3c7bc0f6	0.01536583
171	0x3cc2460e	0.023715045
172	0x3cf30586	0.02966572
173	0xbc6dcd89	-0.014514335
174	0x3c0be608	0.00853873
175	0xbd0bc8a0	-0.034126878
176	0xbce64700	-0.028110027
177	0xbb93fe05	-0.0045163655
178	0xbd9ced58	-0.07662457
179	0xbb8b54b2	-0.00425204
180	0x3db93032	0.09042396
181	0x3d38247a	0.04495666
182	0x3cf981e9	0.030457454
183	0xbda40c3c	-0.08010146
184	0x3d81fb17	0.0634672
185	0x3d26475a	0.04059539
186	0xbc11c5b5	-0.008897235
187	0xbd35e483	-0.04440738
188	0x3c96df06	0.018416893
189	0xbc38098e	-0.011232747
190	0xbd6cffc6	-0.057861112
191	0x3d15ea99	0.036600683
192	0xbde63113	-0.11239829
193	0xbd0f5f44	-0.03500296
194	0xbd5f3aac	-0.054499313
195	0xbda10aff	-0.078634255
196	0x3d05a154	0.032624558
197	0xbe147648	-0.14498246
198	0xbdbdefba	-0.0927424
199	0x3d41cd6c	0.047315046
200	0x3d5bed62	0.053693183
201	0xbd429f58	-0.047515243
202	0xbcd650e8	-0.026161626
203	0xbdaeafaf	-0.08529603
204	0x3b7d66d0	0.0038666017
205	0xbdac02c2	-0.083989635
206	0x3d5a829e	0.053347223
207	0xbd7c6d54	-0.0616277
208	0xbcd7ef0f	-0.02635911
209	0x3c229219	0.009922528
210	0xbd52564b	-0.051351827
211	0xbbf8b02d	-0.007589361
212	0x3d013d4a	0.03155259
213	0xbbc0366a	-0.0058658617
214	0xbcc4bd73	-0.024016118
215	0x3c543ef5	0.012954463
216	0x3cd86b99	0.026418494
217	0x3d7e94b8	0.062153548
218	0xbd20e4f6	-0.039280854
219	0x3c5fa8bc	0.013651069
220	0x3cf98272	0.030457709
221	0x3bbed19b	0.0058233268
222	0xbaca5bdf	-0.0015438757
223	0xbd2cc8eb	-0.042183798
224	0xbc93ad5c	-0.018027
225	0xbca371de	-0.019951757
226	0x3c16a698	0.0091949925
227	0x3c1a27c7	0.009408898
228	0x3c1d24f3	0.009591329
229	0xbbdd913a	-0.006761697
230	0xbd49b731	-0.04924697
231	0xbdaadef0	-0.08343303
232	0xbc15d65f	-0.009145348
233	0xbce00f55	-0.02735106
234	0xbd27a054	-0.040924385
235	0xbd3e4c92	-0.046459742
236	0xbd3431c1	-0.04399276
237	0x3c55914a	0.013035128
238	0xbd0e173b	-0.034690123
239	0x3d183a8d	0.037165213
240	0x3d4866a1	0.048926
241	0xbda361eb	-0.07977661
242	0x3d73e229	0.059541855
243	0x3cd71f15	0.026259938
244	0xbd31b521	-0.04338563
245	0xbd72c862	-0.05927313
246	0xbcffa8e8	-0.03120847
247	0xbcca4910	-0.024693042
248	0xbd0b6646	-0.034033082
249	0x3d3d2c63	0.04618491
250	0xbc80608d	-0.015671039
251	0x3d6a24ed	0.05716412
252	0xbcca9084	-0.024727114
253	0xbc5479c2	-0.012968482
254	0xbd50b3f3	-0.050952863
255	0xbd3ac136	-0.045594417

action_model._discrete_distribution.branches.1.bias f4 [2]
0	0xbe57bdc1	-0.21068479
1	0x3e57bdcc	0.21068496

action_model._discrete_distribution.branches.2.weight f4 [3, 128]
0	0x3c65da38	0.014029078
1	0x3d4beda9	0.049787197
2	0xbceab1ad	-0.028649176
3	0xba9e5517	-0.0012079802
4	0xbccdd85b	-0.02512758
5	0x3b2dfd5a	0.0026548714
6	0x3db97979	0.09056372
7	0xbca83933	-0.020535087
8	0xbd6e9f4e	-0.058257394
9	0xbd3585f1	-0.04431719
10	0xbc13ca1d	-0.0090203555
11	0xbbaa656a	-0.005200078
12	0xbd8c7cd7	-0.06859749
13	0x3d833b47	0.06407791
14	0xba94ff0d	-0.0011367515
15	0xbd67f103	-0.05662633
16	0xbca334f2	-0.019922707
17	0xbd37aafb	-0.044840794
18	0xbaf168ac	-0.0018418035
19	0xbd92430e	-0.07141696
20	0x3b9b0918	0.0047313087
21	0x3cce8137	0.025208099
22	0xbd5f856e	-0.054570608
23	0x3cc03753	0.02346388
24	0xbd0b9068	-0.034073263
25	0xbd882f2e	-0.06649624
26	0xbd5c48da	-0.053780414
27	0xbd92eb5f	-0.071738
28	0x3aa0ab65	0.0012258111
29	0x3d83d3e0	0.06436896
30	0x3d21ec72	0.039532132
31	0xbb63a700	-0.003473699
32	0x3d5c4643	0.053777944
33	0xbd64fec3	-0.055907022
34	0xbd83b888	-0.06431681
35	0xbca4525c	-0.020058803
36	0xbca29f55	-0.019851366
37	0x3d03193e	0.032006495
38	0x3d132090	0.035919726
39	0x3c5b7c96	0.013396403
40	0xbc8a0e1b	-0.01685243
41	0xbd1ccb50	-0.03827983
42	0x3c22ac26	0.009928739
43	0x3bd597d8	0.0065183453
44	0xbc857ef8	-0.016295895
45	0xbb8564fc	-0.004070876
46	0x3c8e2216	0.017350238
47	0xbd6b8d34	-0.05750771
48	0xbd07049e	-0.032963388
49	0xbad4dce9	-0.0016240153
50	0xbc69b31c	-0.014263894
51	0xbc35fd4c	-0.011107754
52	0x3d3b722d	0.045763183
53	0xbc54e33a	-0.012993628
54	0x3cf3a418	0.029741332
55	0x3c995cd6	0.018721025
56	0x3d034245	0.03204562
57	0xbc311969	-0.010809281
58	0xbc99fc00	-0.01879692
59	0x3c8d8840	0.017276883
60	0xbd91b6a9	-0.07114918
61	0xbd167c2b	-0.03673951
62	0xbda2525c	-0.07925865
63	0x3d713647	0.058889654
64	0xbcca3ce4	-0.024687238
65	0xbcb60a83	-0.02222181
66	0x3d18fee1	0.037352446
67	0x3bff4931	0.0077907075
68	0xbd6c2a0d	-0.05765729
69	0xbcf78fca	-0.030219931
70	0xbcd059ca	-0.02543344
71	0x3c85ee3c	0.01634895
72	0xbd8bab7b	-0.06819817
73	0x3d62a2ce	0.055331044
74	0x39d9385b	0.00041431453
75	0x3c9b116e	0.01892921
76	0x3dac7740	0.08421183
77	0x3d22669e	0.039648645
78	0xbbfa20fa	-0.0076333256
79	0xbca531c8	-0.02016534
80	0x3d4e5eab	0.05038325
81	0xbccb3f2c	-0.024810396
82	0x3dac115d	0.08401749
83	0xbcc37250	-0.02385822
84	0xbb31ce36	-0.0027130968
85	0xbb02882e	-0.0019917595
86	0x3b8607ce	0.004090286
87	0x3d19c22e	0.0375387
88	0x3bb407f8	0.005494114
89	0x3ca824ee	0.020525422
90	0xbc5b8b29	-0.013399878
91	0xbd255025	-0.040359635
92	0x3d6790fd	0.056534756
93	0xbd1eb84b	-0.038749974
94	0x3d565bb1	0.052333537
95	0x3d9f8723	0.07789447
96	0x3d25ea57	0.040506687
97	0xbc8718c8	-0.016491309
98	0x3ada16b2	0.0016638844
99	0x3c48a631	0.012246654
100	0xbd97ea4f	-0.07417738
101	0x3d0d720a	0.034532584
102	0xbd58e8ef	-0.052956518
103	0x3c8b67b1	0.017017217
104	0xbcbb6959	-0.022877382
105	0xbc6bf884	-0.014402512
106	0x3c10a90b	0.0088293655
107	0x3b349f6c	0.0027560843
108	0x3d42ed69	0.047589693
109	0xbc8c9732	-0.01716194
110	0x3d558e4e	0.052137665
111	0xbda9e0d0	-0.08294833
112	0xbd5a1de1	-0.05325115
113	0x3d400080	0.046875477
114	0xbc16dbcb	-0.009207676
115	0xbd8f607a	-0.07000823
116	0x3cfa6b4e	0.030568745
117	0xbd19cca1	-0.037548665
118	0x3d28ecd7	0.041241493
119	0xbcbfb6be	-0.023402568
120	0xbc563417	-0.013073943
121	0xbcd44733	-0.025912857
122	0x3d3eb46d	0.046558786
123	0xbd0bf9bc	-0.034173712
124	0xbd0f4184	-0.03497459
125	0x3b80ba70	0.003928475
126	0x3d0ee4ad	0.03488605
127	0x3d7eca55	0.062204678
128	0x3d05d2c4	0.032671705
129	0xbcf3a031	-0.029739471
130	0xbc56ec35	-0.01311784
131	0xbc5f2a07	-0.01362086
132	0x3c4df0b1	0.012569592
133	0xbd1b2bfb	-0.03788374
134	0xbd720f1b	-0.059096437
135	0x3d2936d2	0.041312046
136	0x3c84ed38	0.016226396
137	0xbcabd7ad	-0.020976866
138	0xbc8bc322	-0.01706082
139	0x3a95a6e0	0.001141753
140	0x3d9cfdf9	0.07665629
141	0xbd7bce82	-0.061476238
142	0x3cc9a1f6	0.024613362
143	0x3d9bcb00	0.076070786
144	0x3c2e4e30	0.010638759
145	0x3d79d4ff	0.060994145
146	0x3c93847e	0.018007513
147	0x3d8f744e	0.07004605
148	0x3c568a6a	0.013094524
149	0xbd1b6181	-0.037934784
150	0x3d2e353e	0.042531244
151	0xbd8b9b93	-0.06816783
152	0xbcab3dcf	-0.020903496
153	0x3db0b4ee	0.086282596
154	0x3c578708	0.013154753
155	0xbcc02cc7	-0.023458852
156	0xbc49b2d5	-0.012310703
157	0xbd686394	-0.05673559
158	0xbcb8f6a5	-0.022578547
159	0xbcf67c0b	-0.030088445
160	0xbc27d996	-0.010244748
161	0x3d85dbf1	0.06536091
162	0x3cc54270	0.024079531
163	0xbb9dcbf5	-0.0048155733
164	0xbb469812	-0.0030303043
165	0xbd526792	-0.051368304
166	0xbcdf174c	-0.027232789
167	0xbc0916e6	-0.008367276
168	0xbd331dd5	-0.043729622
169	0x3d07b230	0.033128917
170	0xbd01569e	-0.031576745
171	0xbb1612e2	-0.0022899439
172	0x3c862455	0.016374746
173	0x3c74323d	0.014904556
174	0xbcdc534e	-0.026895192
175	0xbb0e90ef	-0.0021753868
176	0xbbcaacd6	-0.0061851544
177	0x3cb0e2c2	0.021592502
178	0xbca666f6	-0.020312767
179	0x3c4b7fae	0.012420578
180	0xbd2e850e	-0.04260736
181	0x3cde9e9e	0.027175244
182	0xbcbdc390	-0.02316454
183	0xbd07a8cc	-0.03311996
184	0xbc9a3e3a	-0.0188285
185	0x3cff3abe	0.03115594
186	0xbc9e3c97	-0.019316
187	0x3c8fa47a	0.017534483
188	0x3c0c44ec	0.008561354
189	0x3cf26b20	0.029592097
190	0x3d99762e	0.07493244
191	0xbd58ca29	-0.05292717
192	0xbcd5810d	-0.026062513
193	0x3d37426d	0.044741083
194	0xbbc01ea8	-0.0058630295
195	0xbcc9cbcc	-0.02463331
196	0x3c0bc19e	0.008530049
197	0xbce1a25e	-0.027543243
198	0xbc2eae16	-0.0106616225
199	0xbcda69c7	-0.026661767
200	0x3cc23ba4	0.02371008
201	0xbd477020	-0.048690915
202	0x3bd38b90	0.006455846
203	0xbd33aac4	-0.043864027
204	0xbd8871dd	-0.06662343
205	0x3c64bed3	0.013961512
206	0xbd3b8ae6	-0.04578676
207	0xbc025af9	-0.00795626
208	0xbd4eb107	-0.050461795
209	0x3b26f52c	0.0025475724
210	0xbdc11aca	-0.09428938
211	0x3ce9e54b	0.028551718
212	0xbd032372	-0.032016225
213	0x3b5e27da	0.0033898265
214	0xbabc336b	-0.0014358585
215	0xbcbb926e	-0.022896972
216	0x3c631506	0.013859993
217	0xbc334843	-0.0109425215
218	0xbbb42c6c	-0.0054984596
219	0x3c0bf400	0.008542061
220	0xbc8a30ea	-0.016869027
221	0x3c0cf959	0.008604371
222	0xbd57dc19	-0.052700136
223	0xbd7098b0	-0.058739364
224	0xbcea3ec8	-0.02859439
225	0xbcfa3b46	-0.030545842
226	0x3c9a6877	0.01884864
227	0xbbeafab2	-0.0071709985
228	0x3bf5571f	0.0074871923
229	0xbce324df	-0.027727542
230	0x3ca2d590	0.019877225
231	0xbc50b531	-0.012738512
232	0xbb915e77	-0.00443631
233	0x3b982c80	0.0046439767
234	0x3d09d0cc	0.03364639
235	0x3c7da874	0.015482057
236	0xbcf85d0e	-0.03031781
237	0xbb1447b6	-0.002262575
238	0xbd9e0138	-0.07715076
239	0x3d65f09f	0.056137677
240	0x3ca591cc	0.020211123
241	0xbd4aaf26	-0.04948344
242	0x3c64aefb	0.013957734
243	0x3d2ce1e5	0.042207617
244	0xbd5fe660	-0.054663062
245	0x3c44dc96	0.012015482
246	0x3b9bbec3	0.004752965
247	0x3d07eb90	0.033183634
248	0x391a491c	0.0001471382
249	0x3d3f4363	0.046695124
250	0xbd4e4039	-0.050354216
251	0x3d639036	0.055557452
252	0xbc2c9242	-0.010532917
253	0xbd3b2b4b	-0.045695584
254	0x3d081579	0.033223603
255	0xbce59b98	-0.028028294

action_model._discrete_distribution.branches.2.bias f4 [3]
0	0x3d48ab7f	0.048991676
1	0xbc9aa387	-0.018876804
2	0x3d715732	0.058921047
