results/9/Player/Player-1195603.pt (torch, 890439 bytes, 72 tensors)

discrete_act_size_vector f4 [1, 4]
0	0x40400000	3.0
1	0x40000000	2.0
2	0x40400000	3.0
3	0x40400000	3.0

network_body.observation_encoder.processors.0.normalizer.running_mean f4 [14]
0	0x3d69a570	0.05704254
1	0xc0de503f	-6.9472957
2	0x40599c93	3.4001815
3	0x416aa037	14.664115
4	0x40b82a78	5.755184
5	0x40b4deb9	5.652188
6	0xbf7f22e1	-0.99662596
7	0xc0ae1ee7	-5.4412723
8	0x4045940f	3.0871618
9	0xbeba9a77	-0.36445972
10	0xbe04473c	-0.12917799
11	0xbdacb614	-0.08433166
12	0xbd047b88	-0.03234437
13	0x3b685a9a	0.0035454393

network_body.observation_encoder.processors.0.normalizer.running_variance f4 [14]
0	0x4d1c33a3	1.6378936e+08
1	0x44ebf40f	1887.6268
2	0x4af5aa9d	8.0499985e+06
3	0x4cfda334	1.329791e+08
4	0x4a2dd23c	2.847887e+06
5	0x4a3881c7	3.0229618e+06
6	0x4c7074b0	6.303405e+07
7	0x4aa88777	5.5223635e+06
8	0x4b71b34f	1.5840079e+07
9	0x4d695759	2.4467598e+08
10	0x4b19a954	1.0070356e+07
11	0x4b37b6d4	1.2039892e+07
12	0x492de708	712304.5
13	0x45552620	3410.3828

network_body.processors.0.normalizer.running_mean f4 [14]
0	0x3d69a570	0.05704254
1	0xc0de503f	-6.9472957
2	0x40599c93	3.4001815
3	0x416aa037	14.664115
4	0x40b82a78	5.755184
5	0x40b4deb9	5.652188
6	0xbf7f22e1	-0.99662596
7	0xc0ae1ee7	-5.4412723
8	0x4045940f	3.0871618
9	0xbeba9a77	-0.36445972
10	0xbe04473c	-0.12917799
11	0xbdacb614	-0.08433166
12	0xbd047b88	-0.03234437
13	0x3b685a9a	0.0035454393

network_body.processors.0.normalizer.running_variance f4 [14]
0	0x4d1c33a3	1.6378936e+08
1	0x44ebf40f	1887.6268
2	0x4af5aa9d	8.0499985e+06
3	0x4cfda334	1.329791e+08
4	0x4a2dd23c	2.847887e+06
5	0x4a3881c7	3.0229618e+06
6	0x4c7074b0	6.303405e+07
7	0x4aa88777	5.5223635e+06
8	0x4b71b34f	1.5840079e+07
9	0x4d695759	2.4467598e+08
10	0x4b19a954	1.0070356e+07
11	0x4b37b6d4	1.2039892e+07
12	0x492de708	712304.5
13	0x45552620	3410.3828

network_body._body_endoder.seq_layers.0.weight f4 [128, 14]
0	0x3d64315a	0.055711128
1	0x3e9a3232	0.3011642
2	0x3e221736	0.15829167
3	0xbf20007a	-0.6250073
4	0xbecdb684	-0.4017831
5	0x3e5618e5	0.20907934
6	0xbf29d9b0	-0.6634779
7	0x3dc8612e	0.097841606
8	0x3dc1882e	0.09449802
9	0x3ea6ba0a	0.32563812
10	0x3e36f387	0.17866336
11	0xbe82781d	-0.25482264
12	0xbc1b33e1	-0.009472818
13	0x3d9d6286	0.076848075
14	0x3d6f76ca	0.058462895
15	0xbe147749	-0.14498629
16	0x3f0e6136	0.5561708
17	0xbe96b5f1	-0.29435685
18	0xbe7f5c08	-0.24937451
19	0x3e5469cc	0.20743483
20	0x3f43162a	0.76205695
21	0x3db5d792	0.088790074
22	0x3e576571	0.2103479
23	0x3ed3fd1c	0.41404045
24	0x3eb7a3bf	0.35867116
25	0xbef37b4c	-0.47555006
26	0xbe0cb537	-0.13741003
27	0x3eb47ea3	0.35252866
28	0xbcd1ac83	-0.025594955
29	0x3e0ab78c	0.1354658
30	0x3dd33a0d	0.10313807
31	0xbeee2da0	-0.46519184
32	0xbe3c7e19	-0.18407477
33	0x3e74e4e8	0.23915446
34	0xbe94dfb4	-0.29076922
35	0xbe8bc122	-0.27295786
36	0x3f46c405	0.7764285
37	0xbe989a8a	-0.29805404
38	0xbefe73a4	-0.49697602
39	0x3e190184	0.14941984
40	0x3e1dadec	0.15398377
41	0x3e14adb6	0.1451939
42	0x3ea2b8f3	0.3178173
43	0xbee4f608	-0.44718957
44	0xbe2f3132	-0.1710861
45	0xbdc6fd23	-0.09716251
46	0xbf325b6c	-0.6967075
47	0x3edaa333	0.42702636
48	0xbeb24286	-0.34816378
49	0x3e67a6cc	0.22622222
50	0xbd6b8e21	-0.05750859
51	0xbd04fc51	-0.03246719
52	0x3e81773d	0.25286284
53	0x3e507fbf	0.20361231
54	0xbc2c7f1d	-0.010528353
55	0xbf262a1c	-0.64908004
56	0xbe92d442	-0.28677565
57	0x3ead071a	0.3379448
58	0x3efcd3f2	0.4938045
59	0xbf02754e	-0.5096024
60	0x3d893c68	0.06700975
61	0xbe80b1d8	-0.25135684
62	0xbeda0055	-0.42578378
63	0x3dcb5549	0.09928376
64	0x3f0b6b4b	0.5446059
65	0x3ef856a3	0.485036
66	0x3f1a78b6	0.6034044
67	0xbe47af7d	-0.19500537
68	0xbdf25926	-0.1183341
69	0x3e217a91	0.15769412
70	0x3d1f0e02	0.03883172
71	0xbdfcae42	-0.123379245
72	0x3eaadc2a	0.33371097
73	0xbeecf5cc	-0.46281278
74	0x3d6d92da	0.058001377
75	0xbe4a1f65	-0.19738539
76	0x3e868d9f	0.26279923
77	0x3e378fa4	0.17925888
78	0x3ddf3eb9	0.10900635
79	0xbe765645	-0.24056347
80	0xbed50980	-0.4160881
81	0xbd9a642d	-0.07538638
82	0xbd837228	-0.06418258
83	0x3cc8753d	0.024469966
84	0xbf080187	-0.5312733
85	0x3ed64ffc	0.41857898
86	0xbecf3286	-0.40468234
87	0x3eb550a1	0.35413077
88	0x3e2bfdc5	0.16796024
89	0xbe6ceba2	-0.23136762
90	0xbd568ff9	-0.052383397
91	0xbdc09d54	-0.09405008
92	0x3efba5f3	0.49150047
93	0xbea9ee91	-0.33189824
94	0x3e5aed8e	0.21379682
95	0xbf14d6d8	-0.58140326
96	0xbe6375f6	-0.22212967
97	0xbe791087	-0.24322711
98	0x3d52d5c9	0.051473413
99	0xbee78a48	-0.45222688
100	0x3f100cf5	0.5626977
101	0x3ec8d426	0.39224356
102	0x3d8203a2	0.06348349
103	0xbea9fafc	-0.33199298
104	0xbe85fecc	-0.26170957
105	0xbe2cc5e5	-0.16872366
106	0x3e0e9d05	0.13927086
107	0x3e0ab98a	0.1354734
108	0xbf5df7f0	-0.8670645
109	0xbd9726ff	-0.07380485
110	0xbea2ed7c	-0.3182181
111	0x3e430e11	0.19048335
112	0xbde337d1	-0.110946305
113	0xbec83294	-0.39101088
114	0xbec734fc	-0.3890761
115	0xbf1c7590	-0.61116886
116	0xbe9fb8d7	-0.3119571
117	0xbe59be06	-0.21263894
118	0xbdc86525	-0.09784917
119	0xbe2d8312	-0.1694453
120	0xbc27587b	-0.0102139665
121	0xbe272431	-0.163224
122	0x3eaa5e72	0.3327518
123	0x3e4218dd	0.18954797
124	0x3e95bf84	0.29247677
125	0x3c621aba	0.013800317
126	0xbeec20e1	-0.46118835
127	0x3f7ac09a	0.97950137
128	0x3e049df3	0.12950878
129	0xbe3340f8	-0.17505252
130	0x3e88f762	0.26751238
131	0xbf0057ce	-0.5013398
132	0xbe04fcda	-0.1298708
133	0x3e5934d1	0.21211554
134	0x3e96a5a9	0.29423264
135	0xbeb265d5	-0.34843317
136	0xbdacf773	-0.08445635
137	0x3e9840d0	0.29736948
138	0xbe82ceca	-0.25548393
139	0xbdfc5062	-0.12320019
140	0x3e392ea9	0.18084206
141	0x3ef01e19	0.46897963
142	0xbde957f8	-0.11393732
143	0xbed3873d	-0.41314116
144	0xbef5920e	-0.47962993
145	0x3f2cd9ea	0.6752001
146	0x3ee61dcc	0.44944608
147	0x3e925a14	0.2858435
148	0xbd7bf612	-0.061513968
149	0xbd5f5016	-0.054519735
150	0xbdb727f7	-0.089431696
151	0xbe647ef5	-0.22314055
152	0x3e37a7b0	0.17935061
153	0x3eb88f8d	0.3604702
154	0xbd876f46	-0.066130206
155	0xbe8cf387	-0.27529547
156	0x3eb363a3	0.35036954
157	0x3c9c5e05	0.0190878
158	0xbe31e02e	-0.17370674
159	0x3e7449de	0.23856303
160	0xbb0e55e6	-0.002171868
161	0xbd6868a2	-0.05674041
162	0xbe4c9cc3	-0.19981675
163	0xbde41aa9	-0.111378975
164	0x3f048ee5	0.5178054
165	0xbed3e614	-0.41386473
166	0xbe89cf4a	-0.26915962
167	0xbbc139c4	-0.005896779
168	0x3d6fdd97	0.058560934
169	0x3da20039	0.07910199
170	0x3dc5382f	0.09629857
171	0x3f640b60	0.89079857
172	0xbef5d4cb	-0.4801391
173	0x3c4f3bd7	0.012648544
174	0x3daa0f24	0.08303669
175	0x3d59c692	0.053167887
176	0x3dcc272d	0.0996841
177	0x3e97d436	0.29654092
178	0x3f2f8772	0.6856605
179	0xbee22a9f	-0.44173142
180	0x3d9f66bc	0.07783267
181	0xbeb62a81	-0.35579303
182	0x3ebc7250	0.36805964
183	0xbde1278c	-0.10993871
184	0x3eb7c4c0	0.35892296
185	0x3f1b71ce	0.6072053
186	0x3ea726a0	0.32646656
187	0x3dd88a0a	0.10573204
188	0x3f7f5541	0.9973946
189	0x3d4e3bc1	0.050349955
190	0x3e8ac38b	0.27102312
191	0x3e39cfd3	0.18145685
192	0xbe3fe8c3	-0.18741135
193	0xbe413268	-0.18866885
194	0x3de380fd	0.11108587
195	0xbe3868a9	-0.18008675
196	0xbdce733c	-0.10080573
197	0x3e0b2575	0.13588507
198	0x3e4ba9e5	0.19889028
199	0x3e3e8d88	0.18608677
200	0x3df6c1aa	0.12048657
201	0xbdb2f503	-0.087381385
202	0xbe8e4ae2	-0.27791506
203	0xbee9cfdf	-0.45666406
204	0xbf8e2aa5	-1.1106764
205	0xbd99018a	-0.07470997
206	0xbf374b6d	-0.71599466
207	0x3d75da52	0.06002266
208	0x3c657f9a	0.014007473
209	0xbe88dae4	-0.267295
210	0x3ef2b4d0	0.47403574
211	0xbd6cd51a	-0.057820417
212	0xbe9fef55	-0.31237283
213	0xbf13f3d1	-0.5779391
214	0x3d32af75	0.04362436
215	0x3e8d5b09	0.27608517
216	0x3e6c1d3e	0.2305803
217	0xbf4da8c2	-0.8033563
218	0xbe8433c0	-0.25820732
219	0x3e52acb8	0.205737
220	0x3f095b09	0.53654534
221	0x3d879f28	0.066221535
222	0x3e7f0834	0.24905473
223	0xbf0b75c8	-0.54476595
224	0xbe69d496	-0.22835001
225	0x3dad254c	0.084543794
226	0xbe85a5d2	-0.26103073
227	0x3e4a623d	0.19764037
228	0xbe1cac05	-0.15299995
229	0xbe2878bd	-0.16452308
230	0xbe85580e	-0.26043743
231	0x3e088190	0.13330674
232	0xbe97802a	-0.2958997
233	0xbdea40be	-0.1143813
234	0x3dbb7c9c	0.09154627
235	0xbdd552f1	-0.104162104
236	0xbd1f1c9a	-0.038845636
237	0xbdd98b50	-0.10622275
238	0x3ae6118e	0.0017552839
239	0x3e2c8e24	0.16851097
240	0x3e1e7c9b	0.1547722
241	0x3d76c640	0.06024766
242	0x3e09d603	0.13460545
243	0xbe81f17b	-0.25379547
244	0xbe7b7329	-0.24555649
245	0xbf558909	-0.83412224
246	0xbe86516b	-0.26233992
247	0x3e51e3c8	0.20497048
248	0xbe8b42ef	-0.27199504
249	0xbec66cce	-0.38754886
250	0xbbcc6948	-0.0062381364
251	0xbcbd1c0d	-0.023084665
252	0xbea8fe0e	-0.33006328
253	0x3eaa37ff	0.33245847
254	0xbeb0c485	-0.34524933
255	0x3ebf95a3	0.3741885

network_body._body_endoder.seq_layers.0.bias f4 [128]
0	0x3e11744d	0.14204521
1	0x3e32a0b0	0.1744411
2	0x3d93e3b3	0.072211646
3	0xbda1efe1	-0.079070814
4	0x3d887b46	0.066641375
5	0x3c6d0e9a	0.014468813
6	0x3e0f6f8a	0.14007393
7	0xbde1be7d	-0.11022661
8	0x3d707c92	0.05871255
9	0xbd2edb00	-0.042689323
10	0x3dd332fe	0.1031246
11	0x3db85a42	0.0900159
12	0x3d3d7a2d	0.046259094
13	0x3d1a1ad3	0.037623238
14	0xbd6dca0b	-0.05805401
15	0x3dfb7735	0.12278596
16	0xbdde00df	-0.1084001
17	0xbd0ec077	-0.034851518
18	0x3d2015c5	0.03908326
19	0xbce4b7f4	-0.027919747
20	0x3d94289b	0.072343074
21	0x3bad4d77	0.0052887755
22	0x3dd2dc1b	0.10295888
23	0xbce187c1	-0.027530553
24	0xbc8bb41d	-0.017053658
25	0x3cb60538	0.022219285
26	0x3da32edf	0.07967924
27	0x3e53718c	0.20648783
28	0xbd975bd4	-0.07390562
29	0x3c3f2a33	0.011667776
30	0x3d62bfb2	0.055358596
31	0x3c712202	0.014717581
32	0x3d80a34d	0.06281147
33	0x3d0d04f4	0.03442855
34	0x3d1e98f1	0.038720075
35	0x3c8541ff	0.016266821
36	0x3dda62a7	0.10663348
37	0x3d67f488	0.056629688
38	0x3d63b7fa	0.055595376
39	0x3d76af95	0.06022604
40	0x3d5ac0e4	0.05340661
41	0x3a7fce00	0.00097581744
42	0x3cb1a043	0.021682864
43	0x3cafcb76	0.021459322
44	0x3dbcb669	0.092144795
45	0xbc134584	-0.008988742
46	0xbd6d4b1c	-0.057932958
47	0x3a939ca3	0.0011261891
48	0x3da9b373	0.0828618
49	0xbc3b185b	-0.011419381
50	0xbd58ab14	-0.052897528
51	0xbce31798	-0.027721211
52	0x3d2a673b	0.041602354
53	0xbb9b02e4	-0.004730569
54	0xbd69e94a	-0.057107247
55	0x3e42e1fb	0.19031517
56	0x3e0259f5	0.12729628
57	0x3e37b189	0.17938818
58	0x3d9dbfeb	0.07702621
59	0x3d7204d5	0.05908664
60	0x3dc069b6	0.09395163
61	0xbc4b86ea	-0.012422303
62	0x3dd206ec	0.102552265
63	0x3b61b4ae	0.003443997
64	0x3d53a4e0	0.05167091
65	0xbd898fd1	-0.06716884
66	0x3dd27270	0.102757335
67	0xbd0a3d68	-0.033749968
68	0xb93bd173	-0.00017911736
69	0xbda65ea5	-0.08123521
70	0xbcb9d8c5	-0.022686372
71	0x3d132143	0.035920393
72	0x3db824c3	0.08991387
73	0xbc90a5a4	-0.017657109
74	0x3e0703cd	0.13185044
75	0x3d97c519	0.0741064
76	0x3d791f81	0.06082106
77	0xbdc1daaa	-0.09465535
78	0x3e0adcb2	0.13560751
79	0xbd1bff4f	-0.038085278
80	0x3e08c99e	0.13358161
81	0x3da836c8	0.08213574
82	0x3c38e806	0.011285787
83	0x3e3650be	0.17804238
84	0xbcfbec58	-0.030752346
85	0xbc4c18b3	-0.012457061
86	0x3d43a4d4	0.047764614
87	0xbd6a296c	-0.05716841
88	0x3e424283	0.18970685
89	0x3e0c25e9	0.13686337
90	0x3ce6c8c1	0.028171899
91	0xbc90fef3	-0.017699694
92	0x3d214153	0.03936894
93	0xbc53e847	-0.012933797
94	0x3dda7362	0.10666539
95	0x3c208388	0.0097969845
96	0xbcb0b5e7	-0.021571113
97	0xbb113449	-0.0022156409
98	0x3da84d90	0.08217919
99	0x3a94e98a	0.0011361104
100	0x3dc68012	0.09692396
101	0x3d6e096e	0.05811446
102	0x3c0d814e	0.008636786
103	0x3db2c41d	0.08728812
104	0x3b39d428	0.0028355215
105	0xbbcf4d58	-0.0063263588
106	0xbd8aa92c	-0.06770548
107	0x3d656caa	0.056011833
108	0x3cbfa11c	0.023392253
109	0x3c645116	0.013935348
110	0xbc199b6a	-0.0093754325
111	0xbcba99f8	-0.022778496
112	0x3cbb6dc4	0.022879489
113	0x3ca90e1f	0.020636616
114	0xbd20f9b0	-0.03930062
115	0xbd817d56	-0.06322734
116	0x3dad9b75	0.08476917
117	0x3de18931	0.11012495
118	0xbdba35ef	-0.09092318
119	0xba9f07a1	-0.0012133011
120	0x3d8a5d1f	0.06756043
121	0x3bff9b47	0.007800493
122	0x3ca19ad8	0.019727156
123	0x3de04aa8	0.109517395
124	0x3c069d2f	0.008216186
125	0xbba301ec	-0.0049745943
126	0x3d44f23c	0.048082575
127	0xbddd162d	-0.10795245

network_body._body_endoder.seq_layers.2.weight f4 [128, 128]
0	0x3eb89613	0.36051998
1	0x3e2e3c29	0.17015137
2	0x3d65caae	0.056101494
3	0x3df53d06	0.1197453
4	0x3ec46b42	0.3836308
5	0xbdb49742	-0.08817913
6	0x3e7dae84	0.24773604
7	0x3cedc2f7	0.02902363
8	0xbdac5e6a	-0.084164456
9	0x3e7519ac	0.23935574
10	0x3e7d0176	0.24707589
11	0x3e373065	0.17889555
12	0xbe865a4b	-0.26240763
13	0xbd255d5e	-0.040372245
14	0xba5b2b72	-0.0008360661
15	0xbd3535b3	-0.044240665
16	0x3e44c27b	0.19214813
17	0x3d3c901f	0.046035882
18	0x3e4e024a	0.2011806
19	0x3dd54354	0.104132324
20	0x3d30728e	0.043077998
21	0x3e55f730	0.20895076
22	0x3d58ff10	0.05297762
23	0x3d845f3a	0.064634755
24	0x3c8ab381	0.016931297
25	0x3e18202c	0.14856023
26	0xbe83e2e1	-0.25759032
27	0x3d0063b2	0.031345077
28	0xbdee64aa	-0.11640294
29	0x3b698235	0.0035630588
30	0xbe0df71a	-0.13863793
31	0x3e3b7613	0.1830676
32	0xbe3e8ec5	-0.1860915
33	0xbd1819f2	-0.03713412
34	0x396a4dd5	0.00022344974
35	0x3b8ad0fb	0.004236338
36	0xbe023132	-0.12714079
37	0x3e46ceb2	0.19414786
38	0xbdedb632	-0.116070166
39	0xbdab407f	-0.08361911
40	0x3c63f17c	0.013912555
41	0x3d3b13ac	0.045673057
42	0x3e860b2e	0.26180404
43	0x3d4f7fd2	0.05065901
44	0xbd855d13	-0.06511893
45	0xbe4f2ffa	-0.20233145
46	0x3d7183ea	0.058963694
47	0xbde50859	-0.11183233
48	0x3e3711f3	0.17877941
49	0x3d541080	0.051773548
50	0x3c8ca75b	0.017169645
51	0x3e1405e8	0.14455378
52	0x3cf8a82f	0.030353634
53	0x3e00636e	0.1253793
54	0x3d61d370	0.055133283
55	0x3ece9289	0.40346172
56	0xbde6b799	-0.11265487
57	0xbe4dc916	-0.2009624
58	0xbd7c32fa	-0.061572053
59	0x3dbfa2ad	0.093572
60	0x3e2da3c3	0.16957001
61	0x3d130538	0.03589365
62	0xbe3bc322	-0.18336156
63	0x3e158186	0.1460019
64	0xbdb63e31	-0.08898581
65	0xbcc436a2	-0.023951832
66	0x3d3ac400	0.045597076
67	0xbd7c1140	-0.06153989
68	0x3dabc13d	0.08386467
69	0x3d860238	0.06543392
70	0x3d817d0b	0.06322678
71	0x3ea4f507	0.3221819
72	0x3d04fa3b	0.0324652
73	0xbdafe7b4	-0.08589116
74	0x3dc1add5	0.09456984
75	0xbe225c5b	-0.15855543
76	0xbc3c57ff	-0.011495589
77	0xb9679089	-0.0002208372
78	0x3ec50ae7	0.3848488
79	0x3ce65ddd	0.02812093
80	0x3e7441bf	0.23853205
81	0xbc91016a	-0.01770087
82	0x3d60e75c	0.05490814
83	0x3d419c82	0.047268398
84	0xbdcfaf76	-0.101408884
85	0x3ed0d806	0.40789813
86	0x3e2e9c9d	0.1705193
87	0x3e35cd5f	0.17754124
88	0xbd278a17	-0.040903177
89	0xbd32966d	-0.04360049
90	0xbe2c203c	-0.16809171
91	0x3e3a895f	0.18216465
92	0xbe0cff1b	-0.1376919
93	0x3df3b696	0.1190006
94	0x3e13b085	0.14422806
95	0x3e236e05	0.15959938
96	0xbde1acd2	-0.11019291
97	0xbd97124a	-0.07376535
98	0xbcd2dbba	-0.02573954
99	0xbd81a230	-0.06329763
100	0x3d8eb164	0.06967428
101	0x3e8706e5	0.26372448
102	0x3e34724f	0.1762173
103	0xbd8d479a	-0.068984225
104	0x3d5f2233	0.054475974
105	0x3e4181bf	0.1889715
106	0x3d649deb	0.055814665
107	0xbe72af18	-0.23699605
108	0x3e1dd978	0.15414989
109	0x3d7d7a85	0.06188442
110	0xbd7a8af2	-0.061167665
111	0x3dccb72d	0.099958755
112	0x3dc1e2c1	0.09467078
113	0x3e3429c1	0.17594053
114	0xbdd21626	-0.10258131
115	0x3c071555	0.008244832
116	0x3a0d6299	0.00053934153
117	0x3e2a1cbf	0.16612528
118	0x3d7d23bf	0.06180167
119	0x3e1cd841	0.1531687
120	0x3c65561a	0.013997579
121	0x3e3c0dff	0.18364714
122	0xbd10b7e6	-0.03533163
123	0x3e4c6a4b	0.19962423
124	0xbd80017c	-0.06250283
125	0x3d625dcf	0.055265244
126	0x3d57a9db	0.05265222
127	0x3e2c58a1	0.16830684
128	0xbcfb6d21	-0.030691685
129	0xbe2d4d61	-0.16924049
130	0xbdf6c6e1	-0.12049652
131	0x3d88432e	0.066534385
132	0x3dbd3207	0.092380576
133	0x3dbf5130	0.09341657
134	0xbd6ad238	-0.057329386
135	0x3d1bbb86	0.038020633
136	0x3d28d3ae	0.0412175
137	0x3e0e1439	0.13874902
138	0x3d5d4784	0.05402328
139	0xbcc3b048	-0.023887768
140	0x3e3983b2	0.18116644
141	0x3cd73853	0.026271975
142	0x3dc9a065	0.09845046
143	0x3dedd893	0.11613574
144	0x3cf00026	0.029296946
145	0xbabe97a2	-0.001454104
146	0x3e1b6da2	0.1517854
147	0x3dba7f81	0.09106351
148	0xbe12dda6	-0.14342365
149	0x3d7c4d9e	0.06159746
150	0x3dc260e0	0.09491134
151	0x3c67825c	0.014130201
152	0x3e138ad2	0.14408424
153	0xbe2c0f6f	-0.16802762
154	0x3e522147	0.20520507
155	0x3d6e4448	0.058170587
156	0xbdfc52ea	-0.12320502
157	0xbe844cdc	-0.2583989
158	0x3cd20c12	0.025640521
159	0x3d96f642	0.07371189
160	0x3dadc73b	0.08485266
161	0x3dfc69b3	0.12324848
162	0x3e0aca69	0.13553776
163	0x3dfd0a51	0.12355483
164	0x3e1ea958	0.15494287
165	0x3c80dc2c	0.015729986
166	0x3dea629b	0.11444589
167	0x3ccb7bf2	0.024839375
168	0x3d34d0e9	0.044144545
169	0x3cd9284b	0.026508471
170	0x3e2fb26b	0.17157905
171	0xbe36ee2c	-0.17864293
172	0x3e01494d	0.12625618
173	0xbc8fc4e0	-0.017549932
174	0xbc36ed5a	-0.011164987
175	0x3d9061bd	0.07049892
176	0xbd58389d	-0.052788366
177	0x3dcd08be	0.10011433
178	0xbd3e0862	-0.046394713
179	0xbdae0696	-0.0849735
180	0x3dd96ecf	0.10616838
181	0xbcb3b339	-0.021936046
182	0x3d4858c7	0.04891279
183	0xbba0803b	-0.0048980988
184	0xbd78e350	-0.060763657
185	0x3d231bc5	0.039821405
186	0xbe0101ed	-0.12598391
187	0x3cf3dce1	0.02976841
188	0x3c004516	0.007828971
189	0xbdcb2f48	-0.099211276
190	0xbe373a68	-0.17893374
191	0x3ddf65fd	0.109081246
192	0xbd8e0311	-0.069341786
193	0x3e6e5946	0.23276243
194	0xbddb8ab8	-0.10719818
195	0xbd294bfa	-0.041332223
196	0x3ddbcfa5	0.107329644
197	0xbd7ea427	-0.062168267
198	0xbd10ea1a	-0.035379507
199	0x3e1e5acf	0.15464328
200	0x3e476418	0.19471776
201	0xbe21a79a	-0.15786591
202	0x3d03dd11	0.032193247
203	0xbd94c565	-0.072642125
204	0xbc08b55b	-0.00834402
205	0x3b47f131	0.0030508752
206	0x3e2b4e58	0.16729105
207	0x3dabb494	0.08384052
208	0xbe655094	-0.2239402
209	0x3d4c15e6	0.04982557
210	0xbd9478f5	-0.07249633
211	0x3e4227da	0.18960515
212	0x3dd17b5f	0.10228609
213	0x3db84a78	0.08998579
214	0x3ca670c7	0.020317448
215	0x3dda5ed0	0.10662615
216	0x3eb6c303	0.35695657
217	0x3de2f742	0.11082317
218	0xbdb707f7	-0.08937066
219	0x3ca7f399	0.020501899
220	0x3d06610a	0.032807387
221	0xbe151255	-0.14557774
222	0xbe1b88b5	-0.15188868
223	0x3d5ce9c4	0.053933874
224	0x3e445847	0.191743
225	0x3d0d912a	0.034562267
226	0x3e8c3e80	0.27391434
227	0xbdfcbb9b	-0.123404704
228	0xbceb4dd0	-0.028723627
229	0xbdf36a2d	-0.11885486
230	0x3d802915	0.06257836
231	0xbde98571	-0.11402405
232	0x3d9e4783	0.077284835
233	0x3d87bd4d	0.06627903
234	0x3cc83dc4	0.024443515
235	0x3e4b4134	0.19849092
236	0x3bd7b8c6	0.006583306
237	0xbd7f7352	-0.062365837
238	0xbe1986fc	-0.14992899
239	0xbd18b96a	-0.0372862
240	0x3b8126c5	0.0039413893
241	0x3dc2f693	0.095196865
242	0x3ddadff6	0.106872484
243	0xbdec60b2	-0.11541881
244	0xbcd6e1c0	-0.026230693
245	0x3dba899f	0.091082804
246	0xbd888332	-0.066656485
247	0x3df3e6f9	0.11909289
248	0xbe8435c6	-0.25822276
249	0xbe08fb40	-0.13377094
250	0x3c522dff	0.012828349
251	0x3d23d3c3	0.039996874
252	0xbdc6d488	-0.09708506
253	0xbd58cc24	-0.05292906
254	0xbdbd6b7b	-0.09249016
255	0x3e101d98	0.14073789

network_body._body_endoder.seq_layers.2.bias f4 [128]
0	0xbd2c2cc1	-0.04203487
1	0xbca05b1d	-0.019574696
2	0x3d452a98	0.048136324
3	0xbd82d5d4	-0.06388441
4	0x3dfd0e2b	0.12356218
5	0xbd1b3d73	-0.0379004
6	0x3cbfbe0f	0.023406057
7	0x3c79d6e0	0.015248984
8	0xbd5f7eb9	-0.05456421
9	0xbd23dcc2	-0.040005453
10	0xbdd5e2e4	-0.104436666
11	0x3aacdd0f	0.0013188439
12	0x3d477348	0.048693925
13	0xbad5f120	-0.0016322471
14	0x3d850d3c	0.06496665
15	0xbcd6af4e	-0.026206639
16	0x3dd03ca2	0.10167815
17	0xbc08a1e6	-0.008339381
18	0xbd80185d	-0.06254647
19	0xbce16f6b	-0.027518949
20	0x3dc39189	0.09549243
21	0xbd1a1f38	-0.03762743
22	0xbd9a7244	-0.07541326
23	0xbd863ea7	-0.06554919
24	0x3d6ea424	0.058262005
25	0x3d1c69f3	0.03818698
26	0x3d6b1a86	0.05739834
27	0x3cfb4651	0.030673178
28	0x3e02a487	0.12758075
29	0x3ce221d6	0.027604025
30	0x3d6f7fcf	0.058471497
31	0x3d26b30a	0.04069809
32	0x3dd9e14e	0.106386766
33	0x3dc47c67	0.0959404
34	0xbd557662	-0.05211485
35	0xbd8703af	-0.065924995
36	0x3c896bee	0.016775098
37	0x3b0798f7	0.002069054
38	0x3c959bb5	0.018262723
39	0x3cc9ff0e	0.024657752
40	0x3d0ba207	0.03409007
41	0xbd8b92d0	-0.06815112
42	0x3d6ccd11	0.057812754
43	0xbd103f9d	-0.035216916
44	0x3a7c75fe	0.00096306193
45	0xbc77698a	-0.015100846
46	0xbaf2b1fc	-0.0018516178
47	0x3d02ccc3	0.031933557
48	0x3bca3ccc	0.0061717983
49	0x3cfdb70c	0.030971073
50	0x3de32d67	0.11092644
51	0xbbda3118	-0.0066586845
52	0x3cae1a4a	0.02125277
53	0x3d120a5b	0.035654407
54	0x3d90ecc1	0.07076407
55	0xbdec2339	-0.11530156
56	0x3de2ae62	0.11068417
57	0x3c12c32d	0.008957666
58	0x3d15950f	0.036519106
59	0x3d969946	0.07353453
60	0x3d219f4b	0.039458554
61	0xbc822c17	-0.015890164
62	0xbc57d0f7	-0.01317238
63	0xbd704045	-0.058655042
64	0xbce4ab66	-0.02791376
65	0x38712700	5.74952e-05
66	0x3b5b786d	0.0033488527
67	0xbd91d553	-0.071207665
68	0x3dc84982	0.097796455
69	0x3c175888	0.009237416
70	0xbd15913a	-0.036515452
71	0xbd48d396	-0.04902991
72	0xbd1306ff	-0.035895344
73	0xbd868915	-0.06569115
74	0xbc84d14b	-0.01621308
75	0xbcff18bf	-0.03113973
76	0xbd1e8be7	-0.03870764
77	0xbd9f2657	-0.077709846
78	0x3d15a5e0	0.036535144
79	0x3ccf2995	0.025288383
80	0x3d5db0a1	0.054123525
81	0x3cbd7959	0.023129152
82	0x3d1a917f	0.037736412
83	0xbcbb8493	-0.022890365
84	0x3d99d5fe	0.07511519
85	0xbd5f3f56	-0.05450376
86	0xbd156625	-0.036474366
87	0x3d7684cf	0.06018525
88	0x3dab99e6	0.08378963
89	0x3bb89cb0	0.005633913
90	0x3d0f9976	0.03505846
91	0x3a927e03	0.001117647
92	0x3d311e62	0.043241866
93	0x3e16be14	0.14720947
94	0x3db79d40	0.0896554
95	0x3d88bb45	0.06676344
96	0x3d24d60f	0.040243205
97	0xbd96de02	-0.073665634
98	0xbcbbd3fb	-0.022928229
99	0x3da1cb5b	0.07900115
100	0x3dbcbe9b	0.092160426
101	0xbd5f274e	-0.054480843
102	0xbbf91f30	-0.007602595
103	0x3cf458be	0.029827472
104	0x3cc32584	0.0238216
105	0xbd9475e2	-0.07249047
106	0xbb979611	-0.0046260436
107	0xbd9860b4	-0.0744032
108	0x3d2b1a31	0.041773025
109	0x3cbf7fb5	0.023376325
110	0xbc2c3e4f	-0.010512902
111	0x3d2a79eb	0.041620176
112	0x3d2adb07	0.041712787
113	0xbbe2c77c	-0.006920753
114	0x3d6e54da	0.05818639
115	0x3d7a7395	0.061145384
116	0xbd014867	-0.03156319
117	0xbdd4da86	-0.103932425
118	0x3de4bcb8	0.11168808
119	0x3c467ed3	0.012115198
120	0x3b750506	0.0037387027
121	0xbd8bdb52	-0.068289414
122	0xbd5df251	-0.05418617
123	0x3e0ba808	0.13638318
124	0xbcb7f1f0	-0.022454232
125	0x3db38de0	0.08767295
126	0x3d4ebd5a	0.05047355
127	0x3cf479c4	0.029843219

network_body._body_endoder.seq_layers.4.weight f4 [128, 128]
0	0xbcb2035d	-0.02173012
1	0x3d5c499b	0.053781133
2	0xbdab0237	-0.08350032
3	0xbe3acd45	-0.18242367
4	0x3e28ff87	0.16503726
5	0xbde741e2	-0.11291863
6	0xbcb5cdfd	-0.02219295
7	0x3dd5e6b4	0.10444394
8	0xbcedb071	-0.029014798
9	0x3cfbe21b	0.030747464
10	0xbdd8faf1	-0.10594738
11	0x3cf96544	0.030443795
12	0xbd1a8a94	-0.037729815
13	0xbe90ff7b	-0.28319916
14	0xbe1c4d80	-0.15263939
15	0xbe4142c2	-0.18873122
16	0xbec63572	-0.3871265
17	0x3cab5f04	0.02091933
18	0xbc7dcaec	-0.015490275
19	0x3e16d7a7	0.14730702
20	0x3ce12f10	0.027488261
21	0x3db06399	0.08612747
22	0x3db83850	0.08995116
23	0x3e701d95	0.23448785
24	0x3dd147d6	0.1021878
25	0xbe91243c	-0.28347957
26	0x3e1c3e8d	0.15258236
27	0xbd1642aa	-0.03668467
28	0xbdbe1bbe	-0.09282635
29	0xbcf01d95	-0.02931098
30	0xbe59c19f	-0.21265267
31	0x3db0861d	0.0861933
32	0xbd142ba3	-0.036174428
33	0xbd3964fc	-0.04526232
34	0x3d713a1a	0.0588933
35	0x3e4f158b	0.20223062
36	0xbe1bd24e	-0.15216944
37	0xbe761121	-0.24029972
38	0xbe23edd8	-0.16008699
39	0x3df0af52	0.1175219
40	0xbb6059ff	-0.003423333
41	0xbd433bae	-0.047664337
42	0x3ca082a1	0.019593539
43	0x3e210530	0.15724635
44	0xbdeddbe7	-0.11614209
45	0x3c2ed68e	0.010671271
46	0xbe3ef542	-0.18648246
47	0x3df0d522	0.11759402
48	0xbe401ccd	-0.18760987
49	0xbbf40be7	-0.007447708
50	0xbe5b0a9a	-0.21390763
51	0xbe065f5f	-0.13122319
52	0xbdc8eb0e	-0.09810458
53	0x3b806af5	0.0039190003
54	0xbd81596f	-0.06315886
55	0x3e18e0f5	0.14929564
56	0xbabfccbc	-0.0014633159
57	0xbdc8de86	-0.09808068
58	0x3e0b4d11	0.13603617
59	0xbd2c8cd1	-0.04212648
60	0x3ce744e6	0.028231096
61	0xbddec0b1	-0.10876597
62	0xbe07ed69	-0.13274159
63	0xbdf23196	-0.11825864
64	0x3dcadb4c	0.09905109
65	0x3df4bd09	0.11950118
66	0x3d59f966	0.05321636
67	0x3dbdc9ae	0.09266983
68	0x3dd11f56	0.10211055
69	0xbd46f5af	-0.048574146
70	0xbd456275	-0.0481896
71	0x3e10ae5e	0.14129016
72	0x3dbc4d0f	0.09194385
73	0xbdf276f5	-0.118390955
74	0xbd42f92a	-0.047600903
75	0x3dfa6c6f	0.12227713
76	0xbd6d5662	-0.05794371
77	0x3b07757d	0.0020669394
78	0xbd9a7df8	-0.07543558
79	0x3e022990	0.12711167
80	0xbeaab27d	-0.333393
81	0x3e23b2f1	0.1598623
82	0x3d6168e6	0.05503168
83	0xbc4462df	-0.011986463
84	0xbde78b1a	-0.113058284
85	0xbe133092	-0.14373997
86	0xbd864b22	-0.06557299
87	0xbefc3dd0	-0.4926591
88	0xbd020681	-0.031744484
89	0xbdd17443	-0.10227253
90	0xbd1005fe	-0.035161965
91	0xbcc1442f	-0.023592083
92	0xbe35c777	-0.17751871
93	0xbd9fe30b	-0.07806977
94	0x3d013480	0.03154421
95	0xbd896b58	-0.06709927
96	0xbdb45fde	-0.08807348
97	0x3deda786	0.11604218
98	0x3de5118e	0.11184989
99	0x3da225d7	0.079173736
100	0xbe86ba87	-0.26314184
101	0x3d45b2ed	0.04826634
102	0x3dee90c7	0.11648708
103	0xbd60a360	-0.054843307
104	0xba8ed7b9	-0.0010898031
105	0xbeefe6ce	-0.46855778
106	0xbe5de4bb	-0.21669285
107	0x3d2aeb0f	0.041728076
108	0x3db05573	0.08610048
109	0xbe6bbb7a	-0.23020735
110	0x3e9493f5	0.29019132
111	0xbd2468f9	-0.040139172
112	0xbdb49138	-0.08816761
113	0x3d335ac1	0.04378772
114	0x3e26297b	0.16226761
115	0xbe2d580d	-0.1692812
116	0x3d82e836	0.06391947
117	0x3dcad4e7	0.09903889
118	0x3df70690	0.120617986
119	0xbe4039d6	-0.18772063
120	0xbeceb305	-0.40370956
121	0x3dc7c980	0.0975523
122	0x3d37cc0f	0.04487234
123	0x3db3613a	0.08758779
124	0x3dec45f3	0.11536779
125	0xbe074114	-0.13208419
126	0xbe00db1f	-0.12583588
127	0xbe4667af	-0.1937549
128	0x3c899802	0.016796116
129	0xbe4af5b8	-0.19820297
130	0x3da9625a	0.08270712
131	0xbe8d2297	-0.27565452
132	0x3d03f158	0.032212585
133	0x3e06df59	0.13171138
134	0xbda4e790	-0.080519795
135	0x3e1514a2	0.14558652
136	0xbd275cdd	-0.040860046
137	0xbe227b63	-0.15867381
138	0x3e4da7b5	0.20083506
139	0xbd3aae1e	-0.045576207
140	0x3b9f26f0	0.0048569366
141	0xbe51ae6d	-0.20476694
142	0xbde7a74e	-0.11311208
143	0x3e0af0ca	0.13568416
144	0x3b850493	0.004059383
145	0xbd782e96	-0.060591303
146	0xbd3087e8	-0.04309836
147	0xbdc3e8af	-0.09565865
148	0xbdd311a9	-0.10306103
149	0xbe540dbc	-0.20708364
150	0x3e4bc5c4	0.1989966
151	0xbe4dd444	-0.20100504
152	0xbdab3c5e	-0.083611235
153	0xbe34263d	-0.17592712
154	0x3e9027c7	0.28155348
155	0xbe668a11	-0.22513606
156	0xbdb0c4c7	-0.08631282
157	0x3d3089ae	0.04310005
158	0xbe17d182	-0.14826015
159	0x3df2b56d	0.118510105
160	0x3c173aa8	0.009230293
161	0x3dba007b	0.09082123
162	0xbe190787	-0.14944278
163	0x3c98ac94	0.01863698
164	0xbbe34142	-0.0069352696
165	0xbe4ff627	-0.20308743
166	0x3d50a032	0.050934024
167	0x3e0cb1d0	0.13739705
168	0x3d336a39	0.043802474
169	0xbe72e834	-0.23721391
170	0xbd3a4361	-0.045474414
171	0xbd0e3b26	-0.034724377
172	0x3e0efe79	0.13964261
173	0xbc97580e	-0.018474605
174	0x3d382069	0.044952784
175	0x3db11ea5	0.08648423
176	0x3c50dc3a	0.012747819
177	0xbdb05360	-0.086096525
178	0xbac18f68	-0.001476747
179	0x3cad89b3	0.021183824
180	0x3dd3734c	0.103247255
181	0xbe834a15	-0.25642458
182	0x3da0c74a	0.07850511
183	0x3daf3f3b	0.08556982
184	0xbd058d1f	-0.032605287
185	0xbe228bc0	-0.15873623
186	0xbe48f193	-0.19623403
187	0xbe21ac45	-0.15788372
188	0xbdd42a32	-0.103596106
189	0xbe7f54dc	-0.24934715
190	0x3d1c0b2c	0.03809659
191	0x3e0b3e3a	0.13597956
192	0xbe892134	-0.26783144
193	0xbe5e1465	-0.21687467
194	0xbd9315c4	-0.07181886
195	0x3c191afa	0.009344811
196	0x3da99d4c	0.08281955
197	0x3e0584ca	0.13038936
198	0xbce9ec9e	-0.02855521
199	0xbe8c28cf	-0.27374884
200	0x3e3f6181	0.18689539
201	0xbda23196	-0.07919614
202	0xbe2a0eea	-0.16607252
203	0x3c66a851	0.014078216
204	0x3cf47854	0.029842533
205	0xbde4692d	-0.11152873
206	0xbd1e5807	-0.03865817
207	0xbbdf591a	-0.0068160417
208	0x3be6a8ec	0.00703918
209	0xbd8b90ed	-0.06814752
210	0xbe16104d	-0.14654656
211	0xbd43621e	-0.047700994
212	0x3d113a04	0.03545572
213	0x3e66c9ef	0.22537969
214	0x3d03ad25	0.032147545
215	0x3d403d71	0.046933595
216	0xbe14566e	-0.14486095
217	0xbd6b8a1a	-0.05750475
218	0x3e10a03e	0.14123628
219	0x3e870f4e	0.26378864
220	0x3e436756	0.19082388
221	0xbe144981	-0.14481165
222	0xbc0b5936	-0.008505156
223	0xbea9348f	-0.33047912
224	0xbcfaeb70	-0.030629843
225	0xbd9a5390	-0.075354695
226	0x3d72615e	0.059174888
227	0xbe078988	-0.13236058
228	0x3e2e0cb7	0.16997038
229	0xbdfbecd8	-0.12301034
230	0x3e4aebd3	0.19816522
231	0xbd8e2118	-0.06939906
232	0x3da664c6	0.0812469
233	0xbe48698d	-0.19571514
234	0x3d297229	0.041368637
235	0xbce2c1ab	-0.027680239
236	0x3c5fc060	0.013656706
237	0xbe627ce4	-0.22117954
238	0xbc7bc50e	-0.015366806
239	0x3c63551f	0.013875275
240	0x3d514db6	0.0510995
241	0x3d9824f3	0.074289225
242	0xbdb6d7b6	-0.08927862
243	0xbdde8b88	-0.10866457
244	0xbb91fc38	-0.0044551156
245	0xbe745912	-0.23862103
246	0xbdd875db	-0.10569354
247	0xbe15c3f4	-0.14625531
248	0xbd966e6a	-0.073452786
249	0xbe417f32	-0.18896177
250	0xbe3196dd	-0.17342706
251	0xbd36d165	-0.044633288
252	0xbde14901	-0.110002525
253	0xbe4ecb60	-0.20194769
254	0xbe2f7d76	-0.17137703
255	0xbc877910	-0.01653722

network_body._body_endoder.seq_layers.4.bias f4 [128]
0	0xbc3206e9	-0.010865905
1	0xbca59553	-0.020212805
2	0xbd00bb99	-0.031428907
3	0xbddb54e2	-0.107095495
4	0xbcb36f2f	-0.021903602
5	0xbbc2b5a7	-0.005942065
6	0xbd5e73c7	-0.054309633
7	0xbd0181db	-0.03161798
8	0x3dd1b5c5	0.10239748
9	0xbc3390b2	-0.010959791
10	0xbdee4c12	-0.11635603
11	0x3d17f168	0.037095457
12	0x3e0a2a37	0.13492666
13	0x39bcb3ad	0.00035992023
14	0x3d7d8d54	0.06190236
15	0xbc054744	-0.008134667
16	0xbce82b03	-0.028340822
17	0x3d4e5619	0.050375078
18	0xbdab92f4	-0.083776385
19	0xbd818ebf	-0.06326055
20	0xbdb41b97	-0.08794325
21	0x3dbbd210	0.091709256
22	0xbd9f349c	-0.07773706
23	0xbd1eda7b	-0.038782578
24	0x3b7b7006	0.0038366332
25	0xbdd8e43b	-0.105904065
26	0xbda53bc8	-0.08068043
27	0xbda5e3d7	-0.081000976
28	0xbd544037	-0.051819053
29	0xbcdd3f74	-0.027007796
30	0xbc3a209b	-0.011360313
31	0xbd1b80a0	-0.037964463
32	0xbd9471f5	-0.07248298
33	0xbde49c7c	-0.111626595
34	0x3d8b42e0	0.06799865
35	0xbd9e1f6c	-0.07720837
36	0x3cb68650	0.022280842
37	0xbc8b49a5	-0.01700289
38	0x3d9284da	0.07154246
39	0x3d36c928	0.04462543
40	0x3c5448a0	0.012956768
41	0xbd8a2ac4	-0.06746438
42	0xbdb69f7d	-0.08917139
43	0x3d851179	0.06497473
44	0x3cae29a2	0.021260086
45	0xbdb47d0f	-0.088129155
46	0xbd4b313e	-0.049607508
47	0xbd71f3f9	-0.05907056
48	0x3d18af4b	0.037276547
49	0xbdcc173b	-0.09965368
50	0xbb55cdcc	-0.0032623885
51	0xbcdbd46c	-0.02683469
52	0xbc0216c8	-0.007940002
53	0x3d8194a8	0.06327182
54	0xbc62dbab	-0.013846318
55	0xbdf96932	-0.121782675
56	0xbe125593	-0.14290456
57	0xbcf7adff	-0.030234335
58	0xbd40b60c	-0.047048613
59	0xbd38cc21	-0.045116547
60	0xba94a856	-0.0011341672
61	0x3d4511ce	0.048112683
62	0xbca165ad	-0.019701803
63	0xbd4a6abe	-0.049418204
64	0xbdb84878	-0.08998197
65	0xbd0c4b9d	-0.034251798
66	0xbd436f28	-0.04771343
67	0x3c8b4bd5	0.017003933
68	0x3d2e079c	0.042487726
69	0xbd52d228	-0.051469952
70	0x3d105e8f	0.035246428
71	0xbd982ede	-0.07430814
72	0xbd84cd03	-0.064844154
73	0x3a35e0ad	0.00069380814
74	0xbe463e2e	-0.19359657
75	0xbc7680bc	-0.015045341
76	0x3b6c52a5	0.0036060002
77	0xbd2be269	-0.04196397
78	0xbc768248	-0.01504571
79	0x3cd7f656	0.02636258
80	0xbb7f5e0c	-0.0038965968
81	0xbdb2d9b2	-0.08732928
82	0x3c10d45e	0.008839695
83	0x3c51146d	0.012761218
84	0xbcfdac9d	-0.030966097
85	0x3c1abdfb	0.009444709
86	0xbdc9bdec	-0.09850678
87	0x3dc23e40	0.094845295
88	0xbaae06bc	-0.0013277153
89	0xbd0060fa	-0.031342484
90	0xbd10211f	-0.035187837
91	0x3d3ebc64	0.046566382
92	0xbda76ef9	-0.08175463
93	0xbd61f07e	-0.05516099
94	0xbdea4c00	-0.11440277
95	0xbd792f06	-0.06083586
96	0xbd7535ed	-0.05986588
97	0xbd7de7e8	-0.06198874
98	0xbe005735	-0.12533267
99	0x3c0ffab8	0.008787803
100	0xbdb930f4	-0.0904254
101	0xbd921bb4	-0.0713419
102	0x3ce26b5b	0.027639082
103	0xbd2b4da1	-0.04182208
104	0xbd20ba2b	-0.039240044
105	0xbe2bc143	-0.16772942
106	0xbdfbdae8	-0.122976124
107	0xbd78908a	-0.06068472
108	0x3d3171c9	0.043321405
109	0xbc29478e	-0.010332001
110	0xbdadd67f	-0.084881775
111	0xbde19bdd	-0.11016057
112	0xbdf3314a	-0.118746355
113	0xbdca9878	-0.09892362
114	0x3d0d09ce	0.03443318
115	0xbe091498	-0.13386762
116	0xbd48a5ef	-0.04898637
117	0xbdc9c1aa	-0.098513916
118	0xbc160e1c	-0.009158637
119	0xbd80fbfb	-0.062980615
120	0x3da46825	0.080276765
121	0x3d7b0f65	0.06129398
122	0xbca9e669	-0.020739751
123	0x3d5059ee	0.050867014
124	0xbd92ec21	-0.07173944
125	0xbdeb2af3	-0.11482801
126	0x3de34069	0.1109627
127	0x3c81fd48	0.015867844

action_model._discrete_distribution.branches.0.weight f4 [3, 128]
0	0x3da36bf4	0.07979575
1	0xbce9fda5	-0.02856333
2	0x3b161959	0.0022903292
3	0x3e76bb0b	0.24094789
4	0xbc9ae3bf	-0.018907426
5	0xbe4a35b7	-0.19747053
6	0x3ddea206	0.10870747
7	0x3d97d63d	0.074139096
8	0xbce28918	-0.027653262
9	0xbcb2db23	-0.021833008
10	0x3b206873	0.002447632
11	0xbd658b47	-0.05604103
12	0xbd88ff5d	-0.06689332
13	0xbd3937b5	-0.045219142
14	0xbdfea381	-0.1243353
15	0x3bfa8a22	0.0076458612
16	0xbd7cf141	-0.061753515
17	0xbd2aad39	-0.041669104
18	0xbcea773e	-0.028621312
19	0x3d56afd3	0.052413773
20	0xbc1bc29c	-0.009506848
21	0xbe18a43c	-0.149064
22	0xbd833490	-0.0640651
23	0x3def9ff8	0.117004335
24	0x3c98e4c2	0.018663768
25	0x3da7bc3b	0.08190199
26	0xbc7ca8af	-0.015421077
27	0x3a6a0e57	0.00089285284
28	0xbd5b79f7	-0.05358311
29	0x3d30b7e4	0.04314412
30	0x3db3ba0e	0.087757215
31	0xbdc02450	-0.09381926
32	0x3c909ffa	0.017654408
33	0xbb859681	-0.0040767794
34	0xbdae95d0	-0.08524668
35	0xbd5692fe	-0.052386276
36	0x3b96d671	0.0046032
37	0xbcb91ca8	-0.022596672
38	0x3d41cb11	0.0473128
39	0xbe23e4ef	-0.160053
40	0x3d411784	0.047141567
41	0x3d6e3049	0.058151517
42	0xbdd9eaa9	-0.10640461
43	0xbdf1cfd4	-0.11807218
44	0x3dcd415b	0.10022231
45	0x3e18b468	0.1491257
46	0x3da6b969	0.08140833
47	0x3cab21dc	0.020890169
48	0x3b854272	0.004066759
49	0x3e25dcc0	0.1619749
50	0x3d214a1b	0.039377313
51	0xbdb41e6b	-0.08794864
52	0x3e128490	0.14308381
53	0xbca88e8f	-0.02057579
54	0xbd921789	-0.07133395
55	0x3d2cf994	0.042230204
56	0x3dd7a567	0.10529595
57	0x3b826541	0.0039793556
58	0x3e7484d6	0.23878798
59	0x3d8bbdc9	0.06823308
60	0x3dbac3bb	0.09119364
61	0x3c156a18	0.009119533
62	0xbd6c92b3	-0.05775709
63	0xbddb202d	-0.106994964
64	0xbce5be1e	-0.028044757
65	0x3db197d6	0.086715385
66	0x3e02e8a0	0.12784052
67	0x3cd8f3e1	0.026483478
68	0xbdbfb98e	-0.093615636
69	0x3e4a0670	0.19729018
70	0xbdbbf330	-0.09177244
71	0x3e7f2338	0.24915779
72	0x3d73895c	0.059457168
73	0xb90ce1e0	-0.00013435585
74	0xbd0cf170	-0.03440994
75	0x3d907f4e	0.070555314
76	0xbe0bb459	-0.13643016
77	0x3d8dde97	0.06927221
78	0x3e7b2108	0.24524319
79	0xbce1a4e1	-0.02754444
80	0x3d721e72	0.059111066
81	0x3dbcbccf	0.092157
82	0x3d8a1542	0.06742336
83	0xbd90d56d	-0.07071958
84	0xbd39ba65	-0.045343775
85	0xbca66dd4	-0.020316042
86	0x3ca5e608	0.020251289
87	0x3d202381	0.03909636
88	0x3d9b2f55	0.07577387
89	0xbd75201f	-0.059845086
90	0x3d93d65f	0.072186224
91	0x3e1d02f5	0.1533316
92	0x3cb76b59	0.022390055
93	0x3e0cf9cb	0.13767163
94	0x3e493766	0.19650039
95	0x3d13ae4e	0.0360549
96	0xbd54a5b7	-0.05191585
97	0x3e15e74e	0.14639017
98	0x3d891339	0.066931196
99	0x3d980d82	0.074244514
100	0x3dcf5bd9	0.101249404
101	0x3cf41248	0.029793873
102	0xbc90bd32	-0.01766834
103	0x3c7e7ade	0.0155322235
104	0x3d9f8755	0.077894844
105	0x3e44e899	0.19229354
106	0xbd830695	-0.0639774
107	0x3ba1cd91	0.0049378355
108	0xbe2b4527	-0.16725598
109	0x3d9419fc	0.072315186
110	0x3d1513ce	0.03639584
111	0x3d08913d	0.033341635
112	0x3c8baa26	0.017048907
113	0x3e181145	0.14850338
114	0x3d6a1d5f	0.057156917
115	0xbd95e11e	-0.07318328
116	0x3dbe2846	0.09285025
117	0x3a7e9f6e	0.0009713088
118	0x3c5dec75	0.013545145
119	0x3c63f29d	0.013912824
120	0xbdfc01ab	-0.12305006
121	0xbd969b7f	-0.07353877
122	0x3e4dea93	0.20109014
123	0xbd6fca50	-0.05854255
124	0x3d770eb6	0.060316764
125	0x3df902d4	0.121587425
126	0xbd6b5ffa	-0.057464577
127	0xbd910516	-0.07081048
128	0xbd5ec94c	-0.05439119
129	0x3e0f0b35	0.13969119
130	0x3d10dc89	0.03536657
131	0xbdb860b7	-0.09002822
132	0x3e09728b	0.13422601
133	0x3d65eb6c	0.05613272
134	0x3e01d314	0.12678176
135	0x3c907aaf	0.017636625
136	0xbe24226f	-0.1602876
137	0xbbe614f5	-0.0070215412
138	0x3da44905	0.0802174
139	0x3dad9d81	0.08477307
140	0x3cc39b0c	0.023877643
141	0x3da8dd83	0.08245375
142	0x3d7031f5	0.058641393
143	0xbcf8faaa	-0.030392963
144	0xbdbe07dd	-0.092788436
145	0x3d209c1e	0.039211385
146	0xbcdc1d08	-0.026869312
147	0x3e506d65	0.2035423
148	0xbda66c82	-0.08126165
149	0xbd8bc040	-0.06823778
150	0x3dcd5442	0.100258365
151	0xbc618ac6	-0.013765996
152	0xbb52cdf7	-0.0032166222
153	0xbd6e4a3c	-0.058176264
154	0x39ecf8c8	0.00045198784
155	0x3d3daa22	0.04630483
156	0x3d93e5a1	0.072215326
157	0x3d8c6e05	0.06856922
158	0x3c658b48	0.014010258
159	0x3deb7185	0.114962615
160	0x3d6a3056	0.057175003
161	0x3c536027	0.0129013425
162	0x3cdfa5b2	0.02730069
163	0x3e04659d	0.12929387
164	0x3c3f715b	0.011684741
165	0x3dcb73e4	0.09934214
166	0xbce56bea	-0.028005559
167	0x3d8bdcd2	0.068292275
168	0x3d9d8233	0.07690849
169	0x3da3b818	0.079940975
170	0x3e45c3a6	0.19312915
171	0x3e046a32	0.12931135
172	0xbe4e820d	-0.20166798
173	0xbca3d182	-0.019997362
174	0x3e048e1b	0.12944834
175	0xbd7090e7	-0.05873194
176	0xbc2a9e61	-0.010413737
177	0xbc289daa	-0.010291496
178	0xbe02d2ae	-0.1277568
179	0x3e11d864	0.14242703
180	0xbe5ebd2b	-0.2175185
181	0xbdc0f92e	-0.09422527
182	0xbc4ad99d	-0.012380985
183	0x3cd4d348	0.025979653
184	0xbd983c98	-0.07433432
185	0x3e3caa4b	0.18424337
186	0xbdee76b2	-0.11643733
187	0xbdbedc63	-0.09319379
188	0xbdd42f43	-0.10360577
189	0xbe013d2b	-0.1262099
190	0xbe204bb2	-0.15653875
191	0x3d4b2dc4	0.049604192
192	0x3e215bbd	0.15757652
193	0xbc27284c	-0.010202479
194	0xbd379ab0	-0.044825256
195	0xbd4c0907	-0.049813297
196	0x3c8da9ec	0.01729294
197	0xbcf1040b	-0.029420873
198	0xbd0df1c3	-0.03465439
199	0xbdf8e7a5	-0.12153558
200	0x3bf6c578	0.0075308643
201	0xbd872898	-0.065995395
202	0x3dd1cf16	0.10244577
203	0x3cd5f246	0.026116502
204	0x3d922e6c	0.071377605
205	0xbcf1bfe5	-0.029510448
206	0xbd1602f0	-0.036623895
207	0xbc8735cb	-0.016505143
208	0x3ca5ae49	0.020224707
209	0xbe12b690	-0.14327455
210	0xbda0cca5	-0.07851533
211	0x3d3fdca0	0.046841264
212	0x3c28d91a	0.010305667
213	0x3ad520f9	0.0016260437
214	0xbd280f7f	-0.041030403
215	0xbdf0f94d	-0.117663
216	0x3d759539	0.059956763
217	0x3d6683d5	0.05627807
218	0xbdeb18c8	-0.11479336
219	0x3dc79d92	0.09746851
220	0x3dd6dce5	0.10491351
221	0xbdee1e1c	-0.11626837
222	0xbb0043eb	-0.0019571732
223	0x3d1c1b0a	0.038111724
224	0x3d9087c9	0.07057149
225	0x3d90d32a	0.07071526
226	0x3df44d13	0.11928763
227	0xbd8bac4e	-0.06819974
228	0x3d2a150d	0.04152398
229	0x3d449a72	0.047998853
230	0xbd4d7327	-0.050158646
231	0xbe560db2	-0.20903662
232	0x3d9bbc89	0.076043196
233	0x3da6ebb4	0.081504256
234	0xbd66c6b1	-0.05634183
235	0x3dfa15b4	0.12211171
236	0xbd5b2347	-0.05350044
237	0x3d0f7e8f	0.035032805
238	0xbcdd1c6c	-0.026991092
239	0x3e138a3b	0.144082
240	0x3d941793	0.07231059
241	0x3d9762ec	0.07391915
242	0x3e487fba	0.19579974
243	0x3dc859a6	0.09782724
244	0xbdbe38bd	-0.09288166
245	0x3d1765ca	0.036962308
246	0x3d54826e	0.0518822
247	0xbda777d1	-0.0817715
248	0x3d975483	0.07389166
249	0x3c8acafa	0.01694249
250	0xbd8f87aa	-0.07008298
251	0x3d0fe013	0.035125803
252	0x3d953fe4	0.07287577
253	0xbdb3c4b9	-0.08777756
254	0x3d0c4777	0.03424784
255	0x3dff78dc	0.12474224

action_model._discrete_distribution.branches.0.bias f4 [3]
0	0xbe9aa1a1	-0.30201438
1	0x3da33535	0.07969133
2	0x3e3b9a1c	0.18320507

action_model._discrete_distribution.branches.1.weight f4 [2, 128]
0	0xbd03e91e	-0.03220474
1	0xbc72408f	-0.0147859
2	0xbdf2c585	-0.1185408
3	0xbd54e669	-0.05197755
4	0xbc2e67c3	-0.010644856
5	0xbd403526	-0.046925686
6	0x3b954940	0.004555851
7	0x3ba371b3	0.0049879192
8	0x3c35ed7a	0.011103982
9	0xbd1b9059	-0.037979458
10	0x3c92fe28	0.017943457
11	0x3d65fbcb	0.05614833
12	0x3d137b1e	0.036006086
13	0x3dbc34e5	0.09189776
14	0x3c815c0a	0.015790958
15	0xbe563dad	-0.20921965
16	0xbd3066eb	-0.0430669
17	0x3d146366	0.036227606
18	0x3cd866c2	0.026416186
19	0xbde4f2c7	-0.111791186
20	0xbd3ec9f8	-0.04657933
21	0xbd80d091	-0.06289781
22	0x3dde7da6	0.10863809
23	0x3a6cd7cc	0.0009034842
24	0xbd9ff93d	-0.0781121
25	0xbbdd4832	-0.006752991
26	0x3dd75b82	0.105155006
27	0xbcca4496	-0.024690907
28	0x3dc1dac1	0.09465552
29	0x3deae655	0.114697136
30	0x3e0b3dad	0.13597746
31	0xbd15cb49	-0.03657082
32	0x3decd1c4	0.11563447
33	0x3d85fa6d	0.065419056
34	0xbabd0203	-0.0014420155
35	0xbc7f581e	-0.015584974
36	0xbc7d8296	-0.015473029
37	0x3d4feb99	0.050761793
38	0xbcbcb91a	-0.023037482
39	0xbdbeb40f	-0.09311687
40	0xbd8f2bcb	-0.06990775
41	0xbd23dad6	-0.04000362
42	0xbd969ee7	-0.07354527
43	0x3e0c2be3	0.13688616
44	0x3d42063c	0.047369227
45	0xbe0b8872	-0.13626269
46	0x3c9e07ad	0.01929077
47	0xbda5a1a9	-0.08087475
48	0xbdb19678	-0.08671278
49	0xbd63f6c8	-0.05565527
50	0x3e096212	0.13416317
51	0xbd750113	-0.059815478
52	0xbceb9a18	-0.028760001
53	0xbd38fa5b	-0.045160633
54	0xbcee1bfa	-0.029066075
55	0x3df4fedc	0.11962673
56	0xbd6343b7	-0.0554845
57	0xbe140318	-0.14454305
58	0x3d3835ed	0.044973303
59	0xbda0690e	-0.078325376
60	0x3d218d90	0.039441645
61	0xbccb8a29	-0.024846153
62	0xbe262500	-0.16225052
63	0xbd683695	-0.05669268
64	0x3cded8e7	0.027203036
65	0xbc4ed4e8	-0.012624003
66	0x3dc9efc2	0.09860183
67	0x3d08c523	0.03339113
68	0x3c83c240	0.016083837
69	0xbda5da76	-0.08098309
70	0x3e09b30b	0.13447206
71	0xbd87b5f3	-0.06626501
72	0x3a8a05e6	0.0010530322
73	0xbdafcc98	-0.08583945
74	0x3ce56ae6	0.028005075
75	0xbb94b174	-0.0045377556
76	0xbbb98dd7	-0.0056626606
77	0xbe251560	-0.16121435
78	0x3d3531ad	0.044236828
79	0xbdfb928a	-0.122838095
80	0x3d688bda	0.056773998
81	0x3df3ca5f	0.119038336
82	0x3daa1f5b	0.08306762
83	0x3bc844f7	0.006111737
84	0x3cb78b53	0.022405302
85	0xbdaf88cc	-0.08571014
86	0xbde0ac16	-0.10970323
87	0xb9efb636	-0.0004572139
88	0xbdde7cce	-0.10863648
89	0x3dbeb3bb	0.093116246
90	0x3df80635	0.12110559
91	0xbda2f283	-0.07956412
92	0xbbd0d3d6	-0.006372909
93	0xbd4441ae	-0.0479142
94	0x3dedb2f5	0.11606399
95	0x3a98fca3	0.0011671971
96	0xbe483ffa	-0.19555655
97	0x3cac049f	0.020998297
98	0xbcb6c9f2	-0.022313092
99	0xbdc9dbbc	-0.09856364
100	0x3dd49a72	0.103810206
101	0xbc92c35d	-0.017915422
102	0x3c9c3221	0.019066872
103	0x3d17b2b1	0.037035648
104	0xbce70465	-0.028200338
105	0xbc4f444d	-0.0126505615
106	0xbcb321a3	-0.021866625
107	0xbd934793	-0.07191386
108	0x3e0eae82	0.13933757
109	0x3de0d2e9	0.10977728
110	0xbde18e01	-0.11013413
111	0x3d84ea6a	0.064900234
112	0xbd686c6e	-0.05674403
113	0xbd6c2f2a	-0.057662167
114	0xbb9a1cb5	-0.004703129
115	0xbd83ecba	-0.064416364
116	0xbe0a3730	-0.13497615
117	0xbd8ea548	-0.06965119
118	0x3d767924	0.060174122
119	0x3cf5cead	0.030005777
120	0x3d2467b6	0.04013797
121	0xbdd1f0db	-0.10251018
122	0x3d34d44d	0.04414778
123	0xbdac6431	-0.084175475
124	0xbd3db708	-0.04631713
125	0xbe163364	-0.14668041
126	0xbd0642aa	-0.03277842
127	0xbde52df3	-0.11190405
128	0x3d453204	0.0481434
129	0x3c2228f4	0.009897459
130	0x3dcda8bb	0.100419484
131	0x3d2e8022	0.042602666
132	0x3ccbf438	0.024896726
133	0x3d3481e1	0.044069175
134	0x3c306040	0.010765135
135	0xbc0f6d2e	-0.008754058
136	0xbbf7cc68	-0.007562209
137	0x3d2e7362	0.042590506
138	0xbca5a052	-0.020218048
139	0xbd3e91de	-0.04652583
140	0xbd2b1e3e	-0.041776888
141	0xbdea6d0b	-0.114465795
142	0xbcd3f63c	-0.02587425
143	0x3e6186cf	0.22024082
144	0x3cf8c2c4	0.030366309
145	0xbcdf19b8	-0.027233943
146	0xbd00c266	-0.031435393
147	0x3ddc2ade	0.10750364
148	0x3d489961	0.0489744
149	0x3d9e5d9f	0.077327006
150	0xbda51249	-0.08060128
151	0x3c5c305e	0.013439266
152	0x3d8ec793	0.069716595
153	0x3c4e58d7	0.012594423
154	0xbdc9afef	-0.0984801
155	0x3cc716d8	0.024302885
156	0xbd90be7a	-0.070675805
157	0xbded4d32	-0.115869895
158	0xbdfc2a5f	-0.12312769
159	0x3d0ebbe1	0.034847144
160	0xbe05e98e	-0.13077375
161	0xbdb2b701	-0.087263115
162	0x3baaa7d0	0.005207993
163	0x3c8b66f2	0.017016862
164	0x3abbd754	0.001433114
165	0xbd712cf9	-0.05888078
166	0x3c6cf7c3	0.014463368
167	0x3dd92a2e	0.10603748
168	0x3d995f73	0.074889086
169	0x3d0266c8	0.0318363
170	0x3d5c0950	0.05371982
171	0xbe1d4e15	-0.15361817
172	0xbd29b529	-0.041432533
173	0x3e1df5af	0.15425752
174	0xbd47e723	-0.048804414
175	0x3dbcd542	0.09220363
176	0x3dc1deb0	0.094663024
177	0x3d8fd621	0.07023264
178	0xbe07f0f0	-0.13275504
179	0x3d4552e8	0.04817477
180	0x3cac3ebb	0.021026006
181	0x3d127e64	0.035765067
182	0x3d26703a	0.04063437
183	0xbe05fa2a	-0.13083711
184	0x3d36f87a	0.04467056
185	0x3e152966	0.14566574
186	0xbca5bc55	-0.020231405
187	0x3daeaa46	0.08528571
188	0xbcbe354d	-0.023218775
189	0x3cbbdae8	0.022931531
190	0x3e2d9931	0.16952969
191	0x3d7f797f	0.062371727
192	0xbc37f9ed	-0.011229021
193	0xbbc6f6ca	-0.0060719
194	0xbdd5301a	-0.10409565
195	0xbca3bb0b	-0.01998665
196	0xbc8349f4	-0.016026475
197	0x3d97acfc	0.07406041
198	0xbdfb89dc	-0.12282154
199	0x3db16a8f	0.086629026
200	0x3b4c4cdd	0.0031173744
201	0x3da8a379	0.08234305
202	0xbcb73878	-0.022365794
203	0xbbf0c947	-0.007348213
204	0xbc66021a	-0.014038587
205	0x3e06c68a	0.13161674
206	0xbcc1a8a3	-0.023639983
207	0x3e00cbd1	0.1257775
208	0xbd9b60de	-0.07586835
209	0xbde55f3f	-0.111998074
210	0xbdd0d315	-0.10196511
211	0xba8f706b	-0.0010943537
212	0xbc96f77a	-0.018428553
213	0x3d2da505	0.042393703
214	0x3dcfa9e0	0.10139823
215	0x3bc4031a	0.005981815
216	0x3dd1b13e	0.102388844
217	0xbdc6ebde	-0.09712957
218	0xbe04ea2d	-0.12979956
219	0x3d8d31eb	0.06894287
220	0x3c14ca57	0.009081445
221	0x3d3a79fd	0.045526493
222	0xbdd2cfaf	-0.10293519
223	0x3ba3089b	0.004975391
224	0x3e3f386f	0.18673871
225	0xbc638411	-0.013886468
226	0xbad7b9e7	-0.0016458601
227	0x3dc7d12c	0.09756693
228	0xbdaebbf5	-0.08531944
229	0x3cb9affb	0.022666922
230	0xbc84118b	-0.016121646
231	0xbd2b92b7	-0.041887965
232	0x3ccbcfba	0.024879325
233	0x3ced097d	0.028935188
234	0x3cbd2e25	0.023093292
235	0x3d6d11a2	0.057878144
236	0xbe1188c0	-0.14212322
237	0xbddd3389	-0.10800845
238	0x3dcc67b6	0.09980719
239	0xbd822f1d	-0.063566424
240	0x3d354ad3	0.04426081
241	0x3d7c3fe9	0.061584387
242	0xbbf9fed2	-0.007629254
243	0x3d402359	0.04690871
244	0x3e0c76e2	0.13717225
245	0x3db77539	0.08957905
246	0xbd29af5f	-0.041427013
247	0xbd02dbbc	-0.031947836
248	0xbd215580	-0.03938818
249	0x3def3db4	0.11681691
250	0xbd4bd623	-0.049764764
251	0x3dba1cac	0.090875
252	0x3d355e32	0.044279285
253	0x3e076bfb	0.13224785
254	0x3c9faf47	0.019492758
255	0x3db24d10	0.08706105

action_model._discrete_distribution.branches.1.bias f4 [2]
0	0xbd1e1a88	-0.03859952
1	0x3d1e1a8d	0.03859954
