results/Medium/Player/Player-212377.onnx (onnx, 159076 bytes, 17 tensors)

discrete_act_size_vector f4 [1, 4]
000000 00 00 40 40 00 00 00 40 00 00 40 40 00 00 40 40
       3.0 2.0 3.0 3.0

network_body.observation_encoder.processors.0.normalizer.running_mean f4 [14]
000000 f9 bc e3 3f 35 46 de c0 83 32 4f 40 19 1c 58 41
       1.7792045 -6.94607 3.237458 13.50686
000010 da 21 91 40 71 74 ac 40 da 79 bf 40 b3 10 95 bf
       4.5353823 5.389214 5.9836245 -1.1645721
000020 70 1b a5 c0 9d 19 ec 3f c9 57 30 3f 07 3a e2 be
       -5.1595993 1.8445317 0.6888395 -0.44184896
000030 83 c6 4e be 52 45 50 3b
       -0.20192914 0.00317796

network_body._body_endoder.seq_layers.0.weight f4 [128, 14]
000000 85 41 92 3e c8 e9 e9 be dc f5 51 3e 93 49 1b 3e
       0.28565612 -0.45686173 0.20503944 0.15164785
000010 5f 65 17 bf f9 00 4b be a0 30 a2 3d 31 ea 80 be
       -0.59139055 -0.1982459 0.07919431 -0.25178674
000020 a1 9d 53 bb e3 85 a1 3e 55 2f db bd 44 e7 00 bd
       -0.003229 0.3154746 -0.10702387 -0.031470552
000030 73 12 b1 be 0a a4 9b 3e 21 e2 30 bf 7b 50 fd bd
       -0.34584388 0.3039859 -0.69095045 -0.12368866
000040 82 ab d5 bc e5 7d 03 bd 07 9a 59 3d 43 60 79 be
       -0.026082758 -0.032102484 0.053125408 -0.24353127
000050 1d e1 57 be d0 5d 13 bf d0 1d 87 be bd ff 18 3c
       -0.21081968 -0.5756502 -0.26389933 0.0093383165
000060 41 90 e9 3d 65 98 01 3e f7 aa 13 3e 36 fc e1 be
       0.114044674 0.1265579 0.14420687 -0.44137734
000070 d1 c0 e7 3d f4 3f 44 3e 01 a7 b8 be 43 6a 4b 3f
       0.11316074 0.19165021 -0.36064914 0.7945902
000080 e3 5f a4 3d 3a 69 62 3e 72 7d 3e 3e 6c d6 10 3e
       0.080261014 0.22110453 0.18602541 0.14144295
000090 91 97 b2 3d 6c dd c4 be d5 3a 1b be f7 68 87 3d
       0.08720315 -0.3845018 -0.15159161 0.06611817
0000a0 ce 78 27 be ef 23 a0 3e dc 46 28 bf fe b6 51 bd
       -0.16354677 0.31277415 -0.6573312 -0.051199906
0000b0 32 6a 1e 3e c6 cc d4 bd 63 51 3f bf 96 f0 15 3e
       0.15470198 -0.1039062 -0.7473356 0.14642558
0000c0 5d ba 07 3f 21 8e 18 3e d9 bb 90 bd 62 c4 d8 be
       0.5301874 0.14897968 -0.07067079 -0.42337328
0000d0 75 d3 12 3e 73 2f be 3d 3b 55 e8 3d 79 28 0a 3b
       0.14338477 0.09286394 0.113443814 0.0021081252
0000e0 aa 88 44 be de f8 4a 3e f0 6d fe 3e 75 28 19 bd
       -0.19192758 0.19821498 0.4969325 -0.0373921
0000f0 a1 74 62 bd de e2 c5 3e 53 29 dd be 21 b0 3e 3d
       -0.055287007 0.38649648 -0.4319559 0.04655469
000100 ec 97 8d 3e 30 70 ce be 1b 01 24 bf 2d df d6 3d
       0.2765497 -0.40319967 -0.64064187 0.10491786
000110 d8 bb f0 be 54 0c c9 be 71 34 cf 3d 8d 8d a1 3d
       -0.47018313 -0.39267218 0.10117424 0.07888327
000120 7f 53 70 3d bc d0 88 3e bf 05 85 3e b6 57 1e 3d
       0.058673378 0.26721752 0.25980946 0.038657866
000130 77 d3 67 3e a3 80 2d 3e 4b e3 c7 3c 08 dd e2 3e
       0.22639261 0.16943602 0.024400374 0.44309258
000140 f6 3b ff 3e c1 d2 8a 3e 1b 6b 9c 3e b4 d1 01 bf
       0.49850434 0.27113917 0.30550465 -0.50710607
000150 fb c6 fa 3d 39 26 9f bd 5f fc 2c be 61 60 7a 3e
       0.12244984 -0.07770962 -0.16893147 0.24450828
000160 38 9c 03 3c 2a dc 43 3d 85 15 4f be 15 c3 b6 3e
       0.008032851 0.047817387 -0.20223053 0.3569571
000170 50 86 21 3d fa 6a cd be 1d cd ad bd 1d ed 6e be
       0.03943473 -0.4012068 -0.08486388 -0.23332639
000180 7c fd 3f 3e e9 99 43 3e 82 01 0d 3e 5e 5f aa 3e
       0.1874904 0.19101681 0.13770106 0.33275884
000190 12 f8 6d be c7 9f e7 be 9b a2 b2 3e 9b 62 d1 bd
       -0.23239163 -0.45239088 0.34889683 -0.102238856
0001a0 0d f3 ba 3e ed 44 74 3e 49 3a ca 3d e6 ad b7 bd
       0.36513558 0.23854418 0.09874398 -0.08968715
0001b0 f8 81 88 bc a7 8f c2 3e b9 99 b9 bd 89 ce 8b 3e
       -0.016663536 0.38000223 -0.090625234 0.2730601
0001c0 01 5f ee bd 1f c5 47 bd 9b 88 84 bd c4 a4 0a bf
       -0.11639214 -0.048771974 -0.06471368 -0.5415766
0001d0 fa b3 bb 3e 68 49 47 be 90 bc b6 3e de 86 14 3f
       0.3666075 -0.19461596 0.35690737 0.5801829
0001e0 aa f5 32 be a6 f0 93 be 8e f1 3b be 8d 6e 87 3e
       -0.17476526 -0.28894538 -0.18353865 0.2645153
0001f0 bb e5 0b be 2c 16 21 be 2d d5 db be 7a 44 c0 bd
       -0.13661854 -0.15731114 -0.42936078 -0.09388061
000200 b1 9f 9e be 47 1e e6 be b9 49 5f 3e 53 79 66 3d
       -0.3098121 -0.44944975 0.21805467 0.056268048
000210 ef bc f9 3b 28 9f 06 3d fc 65 02 bf 6b b9 89 3d
       0.0076213996 0.032866627 -0.50936866 0.06724819
000220 2d 1f e1 be 32 fb 46 be a2 f8 2a be 54 f1 33 be
       -0.43969098 -0.19431761 -0.16696408 -0.17572528
000230 1f 0d e4 3e 8c b7 37 3e 72 35 13 bf 4e bf cf 3d
       0.4454126 0.17941111 -0.57503426 0.1014391
000240 32 71 97 be 39 2b 15 3e 37 01 b8 bd 90 b4 23 be
       -0.2957855 0.1456727 -0.08984607 -0.15986848
000250 d3 fb bd be 72 82 30 3e d5 d3 cd 3c 68 29 95 be
       -0.3710619 0.17237261 0.025125423 -0.29133153
000260 af 16 e8 3d a6 69 c1 3e b2 a5 af bd 58 69 61 3e
       0.113324516 0.37775916 -0.08576526 0.22012842
000270 75 53 8c 3b 36 9e 2d be 05 73 4b 3e aa 3f c3 be
       0.00428241 -0.16954884 0.19868095 -0.3813451
000280 0c 2c 49 bd 4d 59 f8 be 38 bd da bd 34 bf a2 be
       -0.049114272 -0.4850563 -0.10680622 -0.317865
000290 1c e0 a8 be 57 44 04 be e3 19 8f be 0e 60 2a 3e
       -0.32983482 -0.12916695 -0.27949437 0.16638204
0002a0 dc 92 07 bf c0 12 37 be a7 5a 78 3e 70 f1 b3 be
       -0.52958465 -0.17878246 0.24253331 -0.3514514
0002b0 2c 4e ca be 14 52 0c be 71 76 cd be 6d 21 00 be
       -0.39512765 -0.13703185 -0.40129426 -0.12512751
0002c0 d3 9a 19 3e be 34 96 bd f3 e9 16 be c2 cb 9f 3c
       0.15000467 -0.073342785 -0.14737682 0.019506339
0002d0 13 78 e6 3e 6d 73 b2 3d b5 48 b6 3e 07 ff 0f be
       0.45013484 0.08713422 0.35602346 -0.14062129
0002e0 76 83 ad be ba 94 03 3f 49 c8 08 3f 4d 07 32 3e
       -0.3388936 0.51398814 0.5343061 0.17385598
0002f0 3d 7f f0 3e 2e ef 84 be b4 a8 07 3e bf 15 bb be
       0.46972075 -0.2596373 0.13247949 -0.36540028
000300 14 ec 99 3b d6 5f d5 be 20 75 8b 3e 8c 27 f7 bd
       0.004697332 -0.4167468 0.27237797 -0.1206809
000310 41 0e ea 3d 7e 60 cb 3c 5d 17 85 be d4 2c 2e be
       0.114285 0.024826284 -0.25994387 -0.17009288
000320 f0 8e 22 be d6 d8 92 bd da 34 8e bd 2d 5c 85 be
       -0.15874839 -0.071702644 -0.069436744 -0.26046887
000330 04 10 5a be f6 d3 35 3e 94 49 1b be 11 7b 26 be
       -0.21295172 0.17756638 -0.15164787 -0.16257884
000340 fe d5 0d be 04 09 8e 3d 5f 02 bf 3d df 2a 45 3f
       -0.13851163 0.06935313 0.09326624 0.7701854
000350 2e 29 d7 3d 4f 34 75 3e af be ef 3e cd 9c b8 3e
       0.10505901 0.23945735 0.46825168 0.3605713
000360 2d b8 e7 3d ea d2 d8 3d 44 5f df bd a8 01 21 3e
       0.113144256 0.10587104 -0.10906842 0.15723288
000370 9c a5 89 3d a7 c7 e5 be 02 88 f6 3d 7a e0 54 be
       0.067210406 -0.44878885 0.1203766 -0.20788756
000380 2b df 8c bc 94 d4 03 3e 3b d6 07 bf 12 a3 2c 3e
       -0.017196259 0.12874061 -0.53061265 0.16859081
000390 d0 b7 1e 3f 3c 6a 8f be 13 d9 89 be 40 d4 61 be
       0.61999226 -0.28010738 -0.26923427 -0.22053623
0003a0 f6 04 53 3d 85 61 eb bd c7 6a 1d be c7 97 2b bc
       0.051518403 -0.1149321 -0.15372764 -0.010473198
0003b0 e3 f2 af 3d 63 bf bd be 24 68 1c 3c ae 6e 85 be
       0.08591249 -0.3706008 0.009546313 -0.26061004
0003c0 d6 1d dc bd 70 1e 67 be 07 8c 52 3e f9 ca 60 be
       -0.10747878 -0.22570205 0.20561229 -0.21952428
0003d0 37 b1 10 3f 7d e2 a6 3e e2 df 27 3e 87 d7 d0 be
       0.5652041 0.32594672 0.16393998 -0.40789434
0003e0 2c 62 a1 bd e9 fa d6 be 79 7c 54 be 6e 70 3e 3e
       -0.07880053 -0.41988304 -0.20750608 0.18597576
0003f0 f5 88 89 3e 59 db b8 bc 0a 92 32 3e b9 ba 16 3f
       0.26862302 -0.02256553 0.17438522 0.58878666

network_body._body_endoder.seq_layers.0.bias f4 [128]
000000 8f 23 c8 3c 2e dc 4f 3c 6f d0 b3 3c 69 05 8a 3c
       0.024431018 0.012686772 0.021949975 0.016848283
000010 b9 bb 35 3d a0 48 0f 3d d0 92 13 3c fd fb bd 3b
       0.04436848 0.03498137 0.009007171 0.0057978616
000020 d3 21 8c 3d 28 92 00 b8 2c f7 cf 3c 13 9b 13 bc
       0.06842389 -3.0653697e-05 0.025386415 -0.009009141
000030 a4 cd 4b 3d 23 61 f4 bb 99 0d eb bc 4a 61 81 3d
       0.04975666 -0.0074578687 -0.028693007 0.063173845
000040 bf c6 c4 3c 80 2e af 3b a2 7a c5 3c 66 03 8a 3d
       0.02402055 0.0053461194 0.024106327 0.067389295
000050 81 a0 99 3c 83 8d 2a 3d 70 ee 82 bb 8e 85 14 3d
       0.018753292 0.041638862 -0.003995709 0.03626018
000060 22 59 66 3d 44 68 5e bb 98 bd 8d 3c 16 df ea bb
       0.056237347 -0.003393666 0.01730232 -0.007167707
000070 7e 73 1b 3d 19 ce fe bc 6a 96 67 3d 5d b7 69 bc
       0.03795194 -0.031104134 0.05653993 -0.014264909
000080 69 44 be 3b 5d c9 28 3c aa 46 2c 3d c1 05 eb 3d
       0.005806495 0.010301915 0.042059578 0.11475707
000090 a2 4f 0b 3d f0 98 c8 3c d6 fe 45 3d 5a e8 08 3d
       0.03401149 0.024486989 0.048338734 0.033424713
0000a0 42 75 30 3d c7 70 79 3d 7b 9a 5d bc 7a 0e bf 3d
       0.043080576 0.06089857 -0.013525601 0.09328933
0000b0 40 35 a8 3c 06 97 c8 3c 89 ad 42 3d 16 b6 59 3d
       0.020533204 0.024486076 0.047528777 0.053152166
0000c0 23 d9 3e 3c 32 f5 d0 bb b8 92 6d 3d 9b 31 66 3d
       0.011648449 -0.006376886 0.05800125 0.05619965
0000d0 19 64 32 3c 02 60 15 3c c5 a1 ba 3c cd 58 a5 3c
       0.010888123 0.009117128 0.022782216 0.020183945
0000e0 f0 4d e5 ba c6 65 30 bc 8b 12 c1 bb 0e c3 02 3e
       -0.0017494541 -0.010766452 -0.005892103 0.1276972
0000f0 7b 54 87 3d a5 19 b0 3d f3 8a 06 bb 19 15 0d 3d
       0.0660791 0.08598641 -0.0020529598 0.03444395
000100 b9 9c 4d 3c 4b 0d 32 bc 61 13 d8 3d 57 fa 79 bc
       0.012549573 -0.010867427 0.10550571 -0.01525744
000110 0e 86 a8 3c e0 5a 25 3d c9 ff bc bb fb 9a 0a bb
       0.020571735 0.04036987 -0.0057677967 -0.0021149504
000120 b4 aa a0 3c 99 4b 34 3d 89 1c e2 3b ef 13 05 3d
       0.019612648 0.044017408 0.0069003743 0.032489713
000130 28 11 16 3d 35 77 7e 3b d7 60 37 3d cb c2 1a 3d
       0.036637455 0.0038828377 0.044770088 0.037783425
000140 ea fc 03 3b 12 39 f7 3d c3 64 07 3d 6c 6b d1 3d
       0.0020139762 0.12071432 0.03305508 0.10225567
000150 49 be 1c 3d 9c ae 07 3d 5a c5 86 3d 0b 56 b4 3c
       0.038267408 0.033125505 0.065806106 0.022013685
000160 a8 ce ce 3d 71 56 c3 bb 03 13 65 3d 9d 16 eb bc
       0.1009801 -0.0059612324 0.055926334 -0.028697306
000170 a9 27 80 bc d5 68 15 3d f0 52 49 bd 59 9e ba 3c
       -0.015643911 0.03647693 -0.04915136 0.022780584
000180 85 a7 71 bc 18 5f 44 3d 60 b8 21 bb 27 5f 08 3d
       -0.014749412 0.04794225 -0.0024676546 0.03329387
000190 36 05 a9 3c f7 85 8b 3c 7e f7 a5 ba 2a f4 c9 3c
       0.020632368 0.017031653 -0.0012662259 0.02465256
0001a0 ed c8 00 bb 8a 7d d0 3c 2f 91 00 3c d7 37 ed 3c
       -0.001965101 0.025450487 0.0078471145 0.02895729
0001b0 37 84 a4 3d af 02 eb 3c 12 09 58 3d 23 9d 3f 3d
       0.080330305 0.028687803 0.052743025 0.046780717
0001c0 de 7d ac 3d 13 26 36 bd d3 c4 bd bc 5b e0 14 3d
       0.08422445 -0.044469904 -0.023165142 0.036346775
0001d0 cf 8e 7b 3c fb d2 b8 3c f6 47 97 3d a1 1b 54 3d
       0.015353872 0.02256154 0.07386772 0.05178416
0001e0 2e a8 51 3c b7 99 01 bc 10 b1 08 3d 0d a8 a1 3c
       0.012796445 -0.007910184 0.033371985 0.019733453
0001f0 73 13 21 3d 1e 47 39 3d 9a 9c 99 3d 78 28 19 3c
       0.03932519 0.04523384 0.075005725 0.009348027

network_body._body_endoder.seq_layers.2.weight f4 [128, 128]
000000 99 19 b4 3d d1 93 90 bc 50 fa 2b bc 32 db 88 3d
       0.08793945 -0.01764861 -0.010496691 0.06682433
000010 6d e1 3d be 6f 5d b4 bd 91 e0 d0 3c 3d 26 b5 3d
       -0.18543024 -0.088068835 0.025497707 0.08845184
000020 57 9b 81 3e de 3f 01 3d 86 f1 74 bd 11 f2 99 3d
       0.25313827 0.03155505 -0.059800647 0.07516874
000030 a4 09 92 bb 97 7a 6b 3d 51 4a ef bc 6a 7b cb bc
       -0.0044567157 0.057489958 -0.029210242 -0.024839122
000040 5f 4d a2 bd 21 35 16 3e 74 e5 a3 3d 0f be 2c 3d
       -0.079249136 0.14668705 0.08002749 0.04217344
000050 10 8a 81 bd a7 7a 86 3c cc d6 a9 bd 95 99 95 3c
       -0.063251615 0.016415907 -0.082929224 0.01826171
000060 5a 9f fb 3d 79 48 61 3e fb 21 04 3d c8 09 4c 3e
       0.12286253 0.22000302 0.03225897 0.19925606
000070 2c 89 6c 3d a2 70 eb bd c6 02 d2 bb a5 6e 95 be
       0.057748005 -0.114960924 -0.006409022 -0.29185978
000080 04 b7 e6 bd e2 e9 b5 3c c1 06 4e be a6 90 0d bd
       -0.11265376 0.02220625 -0.20119764 -0.034561776
000090 e4 53 42 3e 7f f6 0a be d9 e9 d2 3d ca f8 79 3d
       0.18977314 -0.13570593 0.10298509 0.06102828
0000a0 d4 99 9d 3c c3 9b db 3c e0 50 57 be d6 d5 ef bd
       0.01923839 0.026807671 -0.21026945 -0.11710708
0000b0 ed 28 0a 3e 50 04 87 3d 36 df 44 3e 16 63 6a 3d
       0.13492174 0.065926194 0.19225773 0.057223402
0000c0 74 ff 07 bd a8 f3 95 39 d1 8e 4e 3e ff eb ef bb
       -0.033202603 0.00028601033 0.20171668 -0.007321834
0000d0 4f fe cc 3d 25 c5 65 bc 44 73 27 bd ea 1f fb bd
       0.10009443 -0.014024054 -0.04088141 -0.122619465
0000e0 f5 12 18 3d c2 4d 5a 3b bc 77 fb 3b f3 59 d4 3d
       0.037127454 0.0033310507 0.0076741856 0.10368719
0000f0 7b ce 9c be a4 0e fc 3a 30 ad e1 3d 7f 85 b2 3d
       -0.30626282 0.0019230437 0.11019361 0.087168686
000100 13 dd bf bc e5 85 7d bd bb 52 b8 3d 92 c2 1a 3e
       -0.023420846 -0.06189527 0.090001546 0.15113285
000110 5e 17 f6 bd 86 9b 77 3c 63 32 0b 3d 37 68 da 3c
       -0.12016176 0.015112763 0.0339836 0.026661022
000120 f0 fe de bd 77 b7 02 3d 0f 46 66 3d ac 1b 86 3e
       -0.10888469 0.031913247 0.056219157 0.26192987
000130 61 7b 00 3e bf 49 f2 3d 82 cd 31 3e bc 82 4b 3e
       0.12547065 0.11830472 0.17363551 0.1987409
000140 d8 72 09 bc d8 0a 6a 3d 61 9b ed bc 7e 1b 70 bd
       -0.008389197 0.057139248 -0.029004754 -0.05861997
000150 6c 00 43 3e ba 11 d8 bd 78 b0 82 3c 55 4e 98 3d
       0.1904313 -0.10550256 0.015953287 0.07436816
000160 7f 32 87 bd ff 3c 3d bd ba e8 49 3d 6c 27 6f bd
       -0.06601428 -0.04620075 0.04929421 -0.058387205
000170 80 d4 6a 3e 77 59 77 bd 67 25 41 bd 21 f9 fb bd
       0.22932625 -0.060388055 -0.04715481 -0.12303377
000180 66 fd 02 3d b5 e2 61 3e 8f 88 2b 3d 5d a0 76 bd
       0.03197994 0.22059138 0.04187828 -0.060211528
000190 f8 b3 87 3d 93 da 7a 3d e9 c5 17 3e 0a e8 f1 3d
       0.06626123 0.061243605 0.1482159 0.11811836
0001a0 a5 b2 a0 3d 87 81 d1 bd 71 66 a8 bd fd ea ba bd
       0.07846574 -0.102297835 -0.08222664 -0.09126852
0001b0 d8 0a 0f 3e 0d 20 81 bc 4c 63 33 3c d5 56 cb bd
       0.1396898 -0.015762353 0.010948967 -0.09928671
0001c0 31 d2 10 3b be 84 5e bb 59 af 0a be 5a c7 c8 bd
       0.002209794 -0.0033953632 -0.13543452 -0.09803648
0001d0 dd 26 48 3d 49 a3 e4 3d 4d f0 d7 bc 59 db 33 be
       0.048865188 0.11163957 -0.026359702 -0.17564143
0001e0 9b c7 bd bd de a7 c7 3c a5 44 96 3d 9d 59 59 bc
       -0.09266587 0.024372038 0.07337312 -0.013265994
0001f0 62 9a 8f 3d 7f be 9c bb ab 7f 87 bd 1d c6 42 3d
       0.07011868 -0.004783451 -0.066161476 0.047552217
000200 fb a0 d9 3d 23 0e 65 be 9b f1 9b 3d 04 10 c0 3d
       0.10626408 -0.22368674 0.07614442 0.09378055
000210 d4 0f 23 bc 11 8f 13 3e fc c6 2d 3d a8 aa d2 bd
       -0.009952504 0.14410044 0.042426094 -0.10286456
000220 7f 8d d1 bd 36 89 7e bc 8f c8 9f 3d 16 b8 c7 bd
       -0.10232066 -0.015535643 0.078019254 -0.097519085
000230 14 b4 2f be e2 7d 98 3c f4 84 9e 3d e5 62 0f 3e
       -0.17158538 0.018614713 0.077402025 0.14002569
000240 d5 c4 19 be c7 f3 a3 3d 63 3e a0 3d 78 05 26 be
       -0.15016492 0.08005481 0.07824399 -0.16213024
000250 57 8f 9e 3c 28 fd 38 3e 70 d6 7d bb 09 0c e7 3d
       0.01935546 0.18065321 -0.003873255 0.112815924
000260 32 67 07 3e 68 21 c8 bd 97 d8 18 3e 7e 3a 89 bd
       0.1322296 -0.09771997 0.14926372 -0.067006096
000270 6b 6b 01 3e a0 cd 10 3e 80 6b 53 3c b6 81 dd bc
       0.12638633 0.1414094 0.012904048 -0.02703939
000280 9a b5 61 3d b6 f0 00 3c c8 09 80 3e 3e aa 35 bc
       0.05510483 0.00786989 0.25007463 -0.011087952
000290 5e b2 a5 bd 52 1d bf 3d 9e e5 a8 bd ed 53 89 3d
       -0.080906615 0.09331764 -0.08246921 0.06705461
0002a0 2b 5e 78 3c 7d 88 4a bd 8b 5f 6a 3d e0 c0 21 be
       0.01515917 -0.04944657 0.057220023 -0.15796232
0002b0 82 64 e6 3c 89 c6 ff 3c 37 56 d8 3c 9e c2 ef bd
       0.028124098 0.031222599 0.026408298 -0.11707042
0002c0 df 87 da bd ed c7 c7 3b a7 d5 c8 3d e3 19 0b bd
       -0.106704466 0.006096831 0.09806376 -0.033960234
0002d0 95 93 89 3c 7f 4d a4 bc da e9 3a 3d b5 9d 84 bd
       0.016794005 -0.020056484 0.045633174 -0.06475393
0002e0 4e f8 46 3e f2 51 aa bd 91 7d 9c bd 58 61 bd 3d
       0.19430658 -0.08316411 -0.076411374 0.092470825
0002f0 24 29 25 3d e5 41 01 3d 03 96 61 be 8e c7 05 be
       0.040322438 0.031556983 -0.22029881 -0.13064405
000300 a8 39 7d bc 8b 8e e6 3c cc 7d a8 3d b9 aa 10 3d
       -0.015455641 0.028144142 0.08227119 0.035319064
000310 b2 cb 19 3e e1 a0 52 bc 8e 2e 72 b9 65 78 40 be
       0.1501911 -0.012855739 -0.00023096261 -0.18795927
000320 e6 d4 25 bd b5 36 41 be ef b9 42 3d a6 5c da 3b
       -0.04048624 -0.18868525 0.0475406 0.0066638766
000330 aa d4 dd bd e3 b4 6b bd 96 18 eb 3c 57 25 46 3d
       -0.10831578 -0.057545554 0.028698247 0.048375454
000340 5e 34 27 be e5 a4 0d 3d 34 5f e1 bb 14 0c de 3c
       -0.1632857 0.034581084 -0.006877804 0.027105369
000350 2a 1a 49 bd fd c6 bd 3c 78 95 9c 3d e5 9d ff 3d
       -0.049097218 0.023166174 0.076456964 0.12481288
000360 64 1a 83 3d 92 c9 44 bd 14 c1 55 3e e3 eb 08 be
       0.06401518 -0.048043795 0.20874435 -0.13371234
000370 5b 58 0c 3e be 5c f6 3d 08 de 27 bd 3e e2 12 be
       0.1370558 0.12029408 -0.04098323 -0.14344117
000380 4e fc 0d bd f2 3c 08 be 4f bd 2c bd da cd 00 be
       -0.034664445 -0.13304499 -0.042172726 -0.12578526
000390 e3 55 27 bc e9 8c 1d be be db 70 bc 7e 8a 51 3c
       -0.010213348 -0.15385784 -0.014700828 0.012789367
0003a0 49 1d 44 3d 05 89 0a bd b0 32 14 3b e3 e1 f3 bd
       0.04787949 -0.03382208 0.002261322 -0.11908319
0003b0 9a 91 22 3d ab 8f 25 bd 03 60 73 3d b6 d8 56 bd
       0.039689638 -0.040420216 0.059417736 -0.052452765
0003c0 74 d1 b4 3b f1 78 d8 bd ef de 4f 3d f1 cc cd 3d
       0.005518133 -0.10569943 0.050749715 0.10048855
0003d0 3e 0b 31 bc 35 7b 85 3a 4d 7e 27 3e fb 08 8e 3d
       -0.010805903 0.0010183813 0.16356774 0.06935307
0003e0 1d 84 c4 bd 8f 6b b3 3d ce 22 d4 3d 4c 7c 06 3e
       -0.09595511 0.087607495 0.10358201 0.13133353
0003f0 5c 8f 12 3d 01 a7 01 be 82 56 06 3e db 6c 81 bd
       0.03578125 -0.12661363 0.13118938 -0.06319591

network_body._body_endoder.seq_layers.2.bias f4 [128]
000000 cf bd a9 3c 61 ba 54 3c 87 42 48 3d 49 99 4e bc
       0.02072039 0.012983889 0.04889157 -0.012609788
000010 45 73 da bc 15 cf 8b 3c 6a 5a 8a bc 97 1e 01 bd
       -0.026666293 0.017066518 -0.016888816 -0.031523313
000020 d4 00 29 3d dd d0 59 3d 99 52 1c 3d 21 1d f7 bc
       0.041260555 0.053177703 0.03816471 -0.030165257
000030 0c 2e ab 3b 67 ce 41 3b 15 07 86 3c c0 1e 12 3c
       0.005223995 0.0029572488 0.016360799 0.008918464
000040 44 f8 7c bc 31 b9 b0 3c b6 57 88 bc 87 c1 66 3b
       -0.0154400505 0.021572681 -0.016643386 0.0035210566
000050 86 41 0a 3d d2 03 9b bc c1 c8 d0 bc f1 88 4f 3c
       0.033753894 -0.01892272 -0.025486352 0.012666927
000060 66 42 81 3d 3a 52 4a 3b 25 bb fa 3c 0d 5f ec 3c
       0.063114926 0.0030871765 0.030606816 0.028853917
000070 f0 e0 4f ba 69 59 17 3d f3 88 a2 3c d4 1a 50 3d
       -0.00079299416 0.036950503 0.019840693 0.050806835
000080 11 c0 82 3d 6f 17 95 3c ce fc de 3c 94 6b cc 3c
       0.0638429 0.01819965 0.027220156 0.024953641
000090 9e 72 1c bc 40 82 e6 3c bd 8e e7 3b d1 cd a8 bb
       -0.009548811 0.02813828 0.0070665763 -0.0051514884
0000a0 1d 21 ab 3b 23 3b e6 3c d1 ef ce bc 55 a6 df 3c
       0.0052224533 0.02810437 -0.025260838 0.027300993
0000b0 60 7d 25 3c 23 d8 1c 3d 37 95 c3 bc 2a 00 8b 3c
       0.0101006925 0.03829206 -0.023874862 0.016967852
0000c0 c5 c4 0a bc f1 a9 22 bb 47 5f e2 3b de 66 e7 3b
       -0.008469765 -0.0024820531 0.0069083306 0.0070618233
0000d0 76 f9 81 3c d5 f5 4c ba 80 05 28 3d 93 f6 26 3d
       0.015866023 -0.0007818614 0.04102087 0.040762495
0000e0 a9 ea e9 bb e7 f3 5f bc e4 ed 42 3c 9a fa cc ba
       -0.0071385694 -0.013668991 0.011897538 -0.001563865
0000f0 23 5d a0 bc b8 7c e6 ba 68 39 7c bc a3 c3 93 3c
       -0.019575661 -0.0017584777 -0.015394546 0.018037623
000100 b6 31 0c ba 15 2c b5 bc 04 00 37 3d c6 9e 1e bd
       -0.00053479837 -0.022115747 0.04467775 -0.038725637
000110 ce 13 f6 3b 23 cd 9a 3b 38 54 26 3c f5 e1 f8 3b
       0.007509685 0.0047241612 0.010151915 0.0075952956
000120 05 43 8a 3c aa a9 b8 3b 01 9a ab 3c 72 7b 91 3c
       0.01687766 0.00563546 0.020947458 0.017759059
000130 16 ff d3 ba 76 e0 c0 3c b5 93 a8 bb 28 2e 8d bc
       -0.0016174044 0.023544531 -0.005144561 -0.017233923
000140 37 af 16 bd 12 b8 3a bc cb 05 7c 3d 8d d2 16 3c
       -0.03678819 -0.011396425 0.061528962 0.009205473
000150 01 15 c3 bc 80 da 82 bb 4a 44 3d 3c c1 62 7d 3b
       -0.023813726 -0.0039933324 0.011551926 0.0038663598
000160 39 0a b5 3b 7b 30 e6 3c 5f 85 42 3d df 80 a9 bc
       0.0055249003 0.02809929 0.047490474 -0.020691333
000170 4c 28 fb 3c b5 42 01 3d 6c fd ca bc 51 d0 07 bd
       0.030658863 0.031557757 -0.024779044 -0.03315765
000180 e8 58 31 bc 93 e6 2f 3c 0e 69 0d 3d b8 78 64 3d
       -0.01082442 0.0107361255 0.034524016 0.05577919
000190 6c 8e a0 3c 00 1e a5 3c df 3e 88 bc 95 50 39 3d
       0.019599162 0.020155907 -0.016631542 0.045242865
0001a0 db d7 08 bb 6a 7d d1 3c 68 78 ed 3b 67 2f 82 3d
       -0.0020880613 0.025572497 0.0072470196 0.063566975
0001b0 3d 61 ad bb b4 43 17 3c f7 90 60 ba bb 6d 31 3d
       -0.0052911327 0.00923245 -0.00085665233 0.043317538
0001c0 d8 40 40 3c 90 9a 49 bc 47 3a 5c 3b d3 6e 58 3c
       0.01173421 -0.012304917 0.0033604072 0.013210016
0001d0 a5 cd 75 3b d8 d6 cf 3b fe 7d b0 bc 94 08 9f 3c
       0.0037506607 0.00634275 -0.021544453 0.01941327
0001e0 7e c0 d0 bb 5f 4e 7a bc db af 20 3b 39 1b c5 3b
       -0.006370603 -0.015277474 0.002451888 0.006015208
0001f0 d8 c1 6b 3c 78 88 e0 bc 34 f5 ed 3c 65 3b e3 bb
       0.014389478 -0.027408823 0.029047586 -0.0069345706

network_body._body_endoder.seq_layers.4.weight f4 [128, 128]
000000 1f bf 24 bc 36 15 06 be 05 86 f8 3d b5 77 ce bd
       -0.010055332 -0.13094029 0.12134937 -0.10081426
000010 f8 7d c7 bd 4f 84 9d bd 9d ee a7 3d fc 19 9c bc
       -0.097408235 -0.076912515 0.08199809 -0.019055359
000020 be d8 26 bd d7 25 88 3c 54 da a0 3d ef 05 89 bd
       -0.040734045 0.016619606 0.07854143 -0.06690585
000030 ae 42 d8 bd 4e 7d 7b bd 41 64 96 3d f2 fb 00 3e
       -0.10559593 -0.061398797 0.07343341 0.1259611
000040 86 d9 99 be 78 0f 02 3c cf b8 22 bd b5 20 c5 bd
       -0.3004877 0.007938258 -0.03972703 -0.09625379
000050 9d 8c 85 bd ec 84 c7 bd 35 8c 11 be e6 e0 99 bc
       -0.065209605 -0.0974215 -0.14213641 -0.018783998
000060 4f 74 39 be 3c 76 ab bc cc 46 26 3d 08 94 ed bd
       -0.18110774 -0.020930402 0.04059486 -0.116005
000070 b4 3c af 3c 2c 33 4f 3d 39 2b 00 3e 48 fd c5 bb
       0.02139125 0.05058591 0.12516488 -0.0060421564
000080 53 69 9a bd 37 b2 27 be 96 3d 5b 3c fd 20 b9 3d
       -0.0753962 -0.16376577 0.013381382 0.09039495
000090 cc 7f c8 bd 36 8a ee 3c a5 93 50 be 32 96 48 3d
       -0.0979 0.029118638 -0.20368822 0.048971362
0000a0 5f 8a 45 bd 80 f6 16 bb fb bb ed 3d dd 59 12 be
       -0.048227664 -0.002303511 0.1160812 -0.14292093
0000b0 53 e6 18 bd 00 03 46 3c d3 3a 84 3d 10 9d 96 3d
       -0.03732903 0.012085676 0.06456532 0.07354176
0000c0 40 6e c4 3d b0 f9 c6 3d 57 6b 29 3e 33 a0 de 3d
       0.09591341 0.09715593 0.16544853 0.10870399
0000d0 93 5a bc 3d 83 d6 d3 bc 8e 99 ab 3d 08 fe 8a bb
       0.09196963 -0.025859123 0.083788976 -0.0042417087
0000e0 21 71 7d bd aa ef bf bd 27 c8 32 3d 65 72 99 3d
       -0.061875466 -0.09371884 0.04364791 0.07492522
0000f0 b4 a4 06 bd 28 74 78 bd 2c ac 14 3c 29 23 54 bc
       -0.032871917 -0.06065765 0.009074252 -0.012947836
000100 a4 d1 fc bb 64 cf 70 3b d7 ed 88 bd 44 7d a4 3d
       -0.007715421 0.0036744708 -0.06685989 0.08031705
000110 28 72 cc 3d b9 cd ca bd 87 c8 a8 3d 97 b7 0f be
       0.09982711 -0.0990252 0.082413726 -0.14034878
000120 53 47 56 bc 13 f7 59 bd a0 a9 f6 bc 4d 3b 14 bc
       -0.013078528 -0.053214144 -0.03011018 -0.0090473415
000130 91 4e 73 3d d7 da d9 3b 47 fe bf bd c6 84 ff bb
       0.0594011 0.006648402 -0.093746714 -0.0077978102
000140 c0 48 2a be 0c 76 28 bd c0 66 34 be b0 a2 4a bc
       -0.16629314 -0.041128203 -0.17617321 -0.012367889
000150 ed 67 25 3d 58 00 e1 bc e5 7e 78 bd 90 77 db bb
       0.040382314 -0.027465984 -0.06066789 -0.0066976026
000160 a3 99 f3 bc ea d7 dd bd b8 13 e3 3b d7 82 ed 3c
       -0.029736346 -0.10832198 0.006929841 0.028993053
000170 02 42 6c 3d 65 b1 22 bd a9 71 ca 3d d3 c3 b6 ba
       0.057680137 -0.039719958 0.0988496 -0.0013943858
000180 b8 7e fb bd cc c0 09 3e 7c c0 f2 bd 00 27 66 3d
       -0.12280029 0.13452452 -0.1185312 0.056189537
000190 c8 52 22 3d 52 14 98 bc c4 a2 74 be 18 35 78 3d
       0.039629728 -0.018564377 -0.23890215 0.06059751
0001a0 4c a7 48 3d 5d bf cc 3d 75 da fa 3d fa 43 9a 3d
       0.04898767 0.09997437 0.122486986 0.07532497
0001b0 a2 4c 2a bc 05 47 9b bb 96 91 3a be d2 9e 8b bd
       -0.010394247 -0.004738691 -0.18219599 -0.06817402
0001c0 f5 70 05 3e 45 9f 8f 3d a8 21 7b bd 4f 09 8c bc
       0.13031371 0.070128 -0.061311394 -0.017094282
0001d0 e6 78 07 be b4 1e cc bd 07 c0 6e bc 99 49 88 3d
       -0.13229713 -0.09966794 -0.01457215 0.06654663
0001e0 b2 96 ae bc 5d e9 e6 3c ee a9 db 3d 5f 19 99 bc
       -0.021312091 0.028187448 0.10725771 -0.018688856
0001f0 e5 fd e7 bd 86 7e 03 bd a1 cd 58 3c c2 5c 12 3e
       -0.113277234 -0.032103084 0.0132326195 0.14293197
000200 d5 40 81 3c bd 07 e9 bd 1b b5 aa bc f8 a8 d7 3d
       0.015777985 -0.11378429 -0.020838311 0.10530275
000210 20 39 34 3c 01 ea fc bd b7 eb 07 3e 27 9a 54 3d
       0.010999948 -0.1234932 0.13273512 0.051904824
000220 c6 69 99 3c bf 5f d1 ba 45 c1 59 3e a7 ba c6 bd
       0.018727195 -0.0015973969 0.21265133 -0.0970357
000230 c5 bf 34 be 13 93 34 3c 96 c3 80 3c 74 8a 3f be
       -0.1765128 0.011021393 0.015718263 -0.1870516
000240 d9 70 45 3d 4a db d9 bc ec 9e 09 3e e9 e6 9f bd
       0.048203323 -0.026593823 0.1343953 -0.078077145
000250 50 20 0f 3a 3f 99 62 3e de e1 8b bd a2 18 3b 3c
       0.0005459832 0.22128771 -0.0683019 0.011419447
000260 39 61 12 bd a7 81 82 3e 40 f6 c3 3d 37 86 a8 3d
       -0.03573725 0.25489542 0.09568453 0.082287244
000270 a1 93 85 3d 04 13 24 3e 2d 5e 4b 3b f2 ab 15 3b
       0.065222986 0.16022879 0.0031031475 0.0022838083
000280 11 11 92 bd a3 5b e2 bc 82 64 cc 39 d0 c8 4d bd
       -0.071321614 -0.027631586 0.00038984796 -0.050240338
000290 94 76 7d 3d 26 90 40 bd 87 9b c5 3d f0 b8 04 3e
       0.061880663 -0.04701247 0.09648805 0.12961173
0002a0 0a 56 2d be 18 e1 12 be 50 15 9a 3d ef bf d0 3d
       -0.16927353 -0.14343679 0.07523596 0.101928584
0002b0 f8 1f 22 bd 3a f3 88 bd 52 a3 fe bb fd e9 e6 3d
       -0.03958127 -0.06687017 -0.007770934 0.112750985
0002c0 ed 8d ed 3d 32 88 d1 bc ce 27 9c bc c3 6e 55 bd
       0.11599336 -0.025577638 -0.01906195 -0.052107584
0002d0 46 bc c9 3c 0d be 10 3e 8d 30 87 bd 76 2e 0f be
       0.024625909 0.14134999 -0.06601057 -0.13982567
0002e0 28 23 a8 bd 9d 9d 58 bd b1 8a 12 3c 5c 70 a2 bd
       -0.082098305 -0.052884687 0.008944199 -0.07931587
0002f0 8f c5 da bc 44 b2 5a 3e 2e ec 01 3d fc 05 04 bd
       -0.026705531 0.21357065 0.03171938 -0.03223227
000300 24 85 b6 3c 93 96 53 3d 03 93 2c bd e6 1c b7 3d
       0.022280283 0.05165727 -0.04213239 0.08941059
000310 15 90 cf bd b6 bf e9 3c 67 4d e2 3d 0b 4d fc 3d
       -0.10134903 0.028533798 0.110499196 0.12319382
000320 5b 33 24 be c9 59 3e 3e 61 a2 cf bd 5a df 25 3e
       -0.16035216 0.18588938 -0.10138393 0.16198483
000330 b6 bd e6 3d 0b 05 cd 3d 82 23 78 bc 74 13 f1 bd
       0.11266653 0.100107275 -0.0151451845 -0.117712885
000340 fe a0 3b 3d 31 a1 ca 3d d8 68 b4 3c 8c ce b9 bd
       0.04580783 0.09894026 0.02202265 -0.09072599
000350 9a e1 b9 bd b7 aa 9c bd 8c 1a ee bc 6b a5 e1 3c
       -0.09076233 -0.07649749 -0.029065393 0.027544698
000360 25 f1 d6 bd 9c 45 74 3b 30 e9 d2 bc cc f6 c0 3d
       -0.104952134 0.0037272936 -0.025745958 0.09422073
000370 6a ea 6d bd f2 f5 0c 3e 0c 50 3b bd 5d f1 5f 3c
       -0.058084883 0.13765696 -0.045730636 0.013668385
000380 5c 7a 4a 3e 8c b0 42 3d 94 b1 07 3d ac 6c c9 bd
       0.19773239 0.04753165 0.033128336 -0.09835181
000390 fb e5 8d 3d 98 5b 76 3d d7 b0 0a be 92 3c 2e 3e
       0.06928631 0.060145944 -0.13544022 0.17015293
0003a0 82 54 20 bc 40 8a 2c bd 69 b2 3f bd ad 52 cd bd
       -0.009785773 -0.042124033 -0.046801005 -0.10025535
0003b0 64 61 ca bd 5a b0 89 3c d7 d7 b2 bc fa ec a4 bd
       -0.09881857 0.016807724 -0.021831436 -0.08053012
0003c0 ed 37 8a 3d 29 3f 9b 3d 64 57 47 3c 8c fb 0f 3b
       0.06748948 0.07580406 0.012166832 0.0021970002
0003d0 14 0e e6 bd 29 b3 93 bd b0 48 26 be 4c b2 0d 3e
       -0.11233154 -0.072119065 -0.16238666 0.13837546
0003e0 75 7e 2a bd b2 2c 60 bd c8 e0 d5 3d e7 b1 e3 bd
       -0.041624505 -0.054730125 0.10443264 -0.111179166
0003f0 76 07 f4 3c 39 54 05 bc 4e c7 28 3e bb e5 80 3d
       0.029788714 -0.008137756 0.16482279 0.062938176

network_body._body_endoder.seq_layers.4.bias f4 [128]
000000 61 de 3a 3c ca d0 0b bd 29 e7 03 3d 8a 14 9b bc
       0.011405558 -0.034134664 0.032202873 -0.018930692
000010 34 0e 72 bd fe 56 35 bd dc 48 5b bd 45 e7 67 bb
       -0.059095576 -0.044272415 -0.05353628 -0.003538565
000020 2b d2 8d 3b 11 79 4c bd a8 62 a1 3c e1 f3 5b bb
       0.0043280325 -0.049920145 0.019700363 -0.0033562111
000030 b3 e5 b4 bc f1 71 24 bc 05 6a 2c bc 31 46 1e bb
       -0.022082185 -0.010036931 -0.010523324 -0.0024150724
000040 72 cc 9b 3c 50 06 c4 bb 89 c0 37 3c 29 c3 b6 bb
       0.019018386 -0.005982198 0.011215338 -0.005577464
000050 ad 56 8b bc 22 e0 bb 3c eb 95 b8 3b 01 5f 62 3c
       -0.017009104 0.022934023 0.005633106 0.013816596
000060 38 17 47 3b 29 7e 14 3c 08 c0 73 bc da ab 53 bd
       0.003037883 0.009063282 -0.014877327 -0.051677562
000070 d2 7b 82 bc 8d e8 14 bd b8 96 39 bd 1d 61 98 bc
       -0.015928183 -0.03635459 -0.045309752 -0.018600995
000080 63 77 02 bd a3 96 09 bd 1a 99 c2 ba d1 8b 62 bc
       -0.031852137 -0.033590924 -0.0014846653 -0.01382728
000090 3e 46 0f 3c c5 4e 64 bc af 75 c1 bc 2a 81 0d 3b
       0.008744774 -0.013934796 -0.023615686 0.002159188
0000a0 ad 7c b0 bc d9 ac f5 bc 99 d4 8e 3b 68 30 b2 3c
       -0.021543825 -0.029989647 0.0043588397 0.021751598
0000b0 37 97 c7 3c e5 a9 c5 3c 64 af 55 bd a0 bd 49 b9
       0.024364097 0.024128864 -0.05216922 -0.00019239495
0000c0 27 c3 2c 3b 75 41 8e bd ee 93 46 3d fc eb 11 bd
       0.0026361437 -0.06946079 0.04848092 -0.035625443
0000d0 d1 56 34 3c 8b f6 60 3c fd 11 d7 3b 0f 65 46 bd
       0.011007027 0.013730655 0.0065634237 -0.04843622
0000e0 09 45 54 3d 25 f3 22 bd ac 00 89 3b ca e6 2d bd
       0.05182365 -0.039782662 0.0041809883 -0.042456426
0000f0 7b bd d2 bc 7d ff 97 bc 61 04 94 bc ca de 93 bc
       -0.025725117 -0.018554443 -0.018068494 -0.01805057
000100 0f de 94 3b 1f 1b 83 3b 8e e4 c5 bc f8 90 6a bc
       0.004543073 0.004001036 -0.024156835 -0.01431679
000110 43 d9 dd bc 32 2e 65 bc 60 0e 2e bd 53 9f c7 3c
       -0.027081138 -0.013988065 -0.042494178 0.024367964
000120 f5 78 cf bc 96 3c a7 3c ac dc f4 3c ea 07 0c bd
       -0.025326231 0.020414632 0.02989038 -0.034187235
000130 10 28 c3 bc af d2 83 3d 9b 5b f7 3c f9 15 cc 3c
       -0.023822814 0.06436669 0.030195048 0.024912821
000140 e4 05 49 3c 96 f1 b6 3b 4d 56 1b 3d eb 9d 2e 3b
       0.012269471 0.0055829985 0.0379241 0.002664442
000150 f5 64 0e bd dc b8 0f bd de e4 6c bd 94 56 ac bb
       -0.03476425 -0.035088405 -0.057835452 -0.0052593444
000160 b5 ff ea bc ae 15 bb ba a4 f4 3b bd 72 d4 69 bd
       -0.028686384 -0.0014273429 -0.045887604 -0.05708737
000170 c6 68 88 bc 64 c8 4a bd 86 fc 07 bc e0 99 dc bc
       -0.016651522 -0.049507514 -0.008299952 -0.026928842
000180 c2 28 05 bd 1e a4 4b bc 21 0d 9e 3c 6f 14 a9 3c
       -0.032509573 -0.012429265 0.01929337 0.020639626
000190 9e cc 73 bc dc 39 ae 3b 5c 78 87 3c a4 44 d6 3b
       -0.0148803275 0.005316956 0.016536884 0.0065389443
0001a0 03 b6 a8 3b 9d a9 63 3c 88 d9 22 3c bc b6 e4 3c
       0.0051486506 0.013895419 0.009939559 0.027919166
0001b0 f1 58 2b bd 29 ea a1 bd b0 44 7e 3c 3c 5d 94 3c
       -0.041832868 -0.07905991 0.015519306 0.018110864
0001c0 e0 4d 84 3c 48 ca 4e bd 82 19 66 3b 68 56 0d bd
       0.016150415 -0.05048588 0.0035110419 -0.03450623
0001d0 c2 7e 5a bd e2 0d db bc de ce aa 3a 7f 59 30 bc
       -0.053343542 -0.026740018 0.0013031622 -0.010763525
0001e0 5f 9e 03 3b 4e 6e d1 ba ce 6d ba 3c c2 4c 00 bd
       0.002008341 -0.0015978308 0.022757437 -0.031323202
0001f0 9d 03 64 bb cd 1b f8 3c c5 1f dc bc a3 9f 0f bd
       -0.0034792193 0.030286694 -0.026870618 -0.03506435

action_model._discrete_distribution.branches.0.weight f4 [3, 128]
000000 c6 86 23 3d cc fd 4d bd e2 e9 33 3d db f0 1b bc
       0.03992345 -0.050290868 0.04392422 -0.009517874
000010 a5 a5 8e bd d3 6d 89 3c 71 b0 84 bd 11 c4 9d bd
       -0.06965188 0.016776001 -0.06478966 -0.07703412
000020 fa d9 93 bd 35 20 f8 bc 4b b9 89 bd 89 80 fd bc
       -0.0721931 -0.030288795 -0.06724795 -0.03094508
000030 95 2a 55 bb 3b ed 6f bd e3 6a 79 3d 86 aa 70 bc
       -0.0032526602 -0.05857585 0.06089295 -0.014689093
000040 c7 e0 75 bd d6 b8 38 bd 1e 6b 70 bd b1 a0 d6 3c
       -0.060028818 -0.04509815 -0.058695905 0.02619967
000050 bc fc 05 3d 9d 53 61 bd dd 8d 0f bd d8 a6 0b bd
       0.03271173 -0.05501138 -0.0350474 -0.03409466
000060 5b 06 1a bd 06 e0 c1 3b bc 23 cb 3b b4 87 bd bc
       -0.037603717 0.0059165983 0.006199328 -0.023135997
000070 2c ab 17 bd 68 0c f8 bc 53 8e eb bc 5d ed 1e bd
       -0.037028477 -0.030279353 -0.028754389 -0.038800586
000080 34 ea b7 bc 70 94 86 bd 39 1a f7 bc 98 4a 86 bd
       -0.022450544 -0.06571281 -0.030163871 -0.065571964
000090 aa a2 0a bc e0 d1 b4 ba 7a 02 3e 3d ce c2 23 3b
       -0.008461634 -0.0013795458 0.04638908 0.0024987939
0000a0 f5 79 b7 bb d4 e4 1c bd 83 fe 14 3d b8 d7 02 3d
       -0.005599255 -0.038304165 0.036375534 0.031944007
0000b0 05 6e 59 3c 10 52 51 3d 8c b8 e8 bc b7 bd 84 bd
       0.01327086 0.05110365 -0.028408311 -0.06481498
0000c0 7f 05 a5 bd 11 21 6a bc 07 8c b4 3c 81 a6 90 3b
       -0.08057689 -0.01429011 0.022039426 0.00441438
0000d0 de 35 af 3c 65 0d d6 3c 2a 06 c1 b8 00 b2 48 bd
       0.02138799 0.026129434 -9.204105e-05 -0.04899788
0000e0 ad fe 9f bb 70 a4 02 bc 62 1d 14 bd 56 be 25 bd
       -0.0048826546 -0.007973775 -0.036160834 -0.04046472
0000f0 d8 0d b9 bc ba 78 3e bd 74 e2 e3 3b d9 9d a2 bc
       -0.022589609 -0.046501853 0.0069544856 -0.019850658
000100 f4 59 49 bc 53 52 e5 3c a8 12 65 bd 27 64 9f 3b
       -0.012289513 0.027993357 -0.055925995 0.004864234
000110 ae 43 9b 3c 74 6a 2f ba ff fe 6a bd 1f 94 19 3d
       0.01895317 -0.0006691583 -0.05737209 0.037494775
000120 29 8b 04 bd d3 b5 e0 bc f3 9d 5c 3d a4 75 83 3c
       -0.032359276 -0.02743045 0.05386157 0.016047306
000130 e2 01 2d bd 49 c2 69 3b c1 6c a7 bd 33 c7 05 3c
       -0.042238124 0.0035668781 -0.0817504 0.008165169
000140 fd 65 2a bd 0d 8a 6e 3c 93 64 26 bd ec 16 38 bc
       -0.04160117 0.014559281 -0.04062326 -0.011235934
000150 36 4e 88 bd 5e d6 ff bc fc d2 70 bd 92 0c be bc
       -0.066555426 -0.031230148 -0.05879496 -0.023199353
000160 a4 e1 46 bd 8c 0b 7e bc 51 17 96 bb 55 06 18 bd
       -0.04855503 -0.015505683 -0.0045804163 -0.037115414
000170 3a ad 2f 3d e4 33 06 bc ba 03 04 bd 6d 88 a2 ba
       0.04288981 -0.008191083 -0.032230116 -0.0012400277
000180 74 ae 4f bd 44 08 b9 bb 93 01 5f bc f9 5f ec bc
       -0.05070348 -0.0056467373 -0.013611215 -0.028854357
000190 77 4f 5f 3c ec 4f 6c bb 16 b3 e0 bc 05 5c 7d bc
       0.013629786 -0.003605838 -0.027429145 -0.015463834
0001a0 2d 6a 19 bc 26 1c e6 bc 3b 0c 3d 3b 47 9b 85 3b
       -0.009363693 -0.028089594 0.0028846401 0.0040773484
0001b0 d8 22 23 bd 19 27 a8 bd b5 61 a6 3c b5 d9 92 3d
       -0.03982815 -0.08210582 0.020310262 0.071704306
0001c0 82 d5 12 3b c7 73 8e bd 51 8c 64 3c 21 97 d9 3c
       0.0022405093 -0.069556765 0.01394947 0.026561322
0001d0 11 41 f2 bc 02 69 98 bc cd 6d b1 bc bc a5 ee bb
       -0.029572042 -0.01860476 -0.021658802 -0.0072829407
0001e0 16 fb 4b bd 36 43 fb 3c ec 1b bc bc 84 6f 6b 3d
       -0.0498 0.030671697 -0.022962533 0.057479396
0001f0 3c fc 14 bc 59 da 0d 3d 0d db ba 3c ff f8 a2 3c
       -0.0090933405 0.03463206 0.02280953 0.019894121
000200 78 18 0c bd cd df 19 3d e9 f6 47 bd 38 1a 24 bd
       -0.034203023 0.03756695 -0.048819456 -0.040064067
000210 ca 2f 6c 3d a3 55 68 bc 47 b4 9f bc d3 00 81 bd
       0.057662763 -0.014180574 -0.019495143 -0.06298985
000220 ae b0 86 3d 29 1d a6 3d 4d 84 04 bd 60 71 b0 3d
       0.06576668 0.081110306 -0.032352734 0.086153746
000230 1d c0 86 bd f6 a6 97 bc 6d 28 34 bd b9 b0 17 3d
       -0.065796115 -0.01851223 -0.043983866 0.03703377
000240 b9 dc b9 3d bc 33 6b bd c0 fa 87 bc 04 7f 6a bd
       0.09075303 -0.057422385 -0.01659906 -0.057250038
000250 c8 e8 28 3b 3b 9d 27 3c 67 3b e9 bb 82 71 d8 3b
       0.0025773514 0.010230358 -0.007117677 0.006605328
000260 92 99 26 bd 94 8c c9 3c 45 2e 86 bc c2 7e 95 3d
       -0.0406738 0.024603166 -0.016379485 0.07299568
000270 35 c8 45 3c df 3b 84 3c a4 05 56 bd 63 70 fd 3c
       0.012071659 0.01614183 -0.052251473 0.03093738
000280 8e a4 3b ba 88 1e d2 3c ec b4 ae 3b d6 0f d7 bc
       -0.00071580044 0.025649324 0.005331626 -0.026252668
000290 0f 68 ab bc 1b e8 08 bc af 05 0c bd 93 2f 36 3d
       -0.020923642 -0.0083561195 -0.034185108 0.044478964
0002a0 0b 0c 08 3c 44 c6 59 3d ca b9 3f bb 5b ad b0 3b
       0.0083036525 0.053167596 -0.0029255026 0.0053917593
0002b0 31 e2 a8 bc 87 d7 b6 bd b3 e3 0f bc 6c 20 da bd
       -0.020615669 -0.08927827 -0.008782315 -0.10650715
0002c0 a4 b4 41 bd 97 db 49 bc 1a 41 a1 bd 7e ff 2b 3d
       -0.047291413 -0.012320421 -0.07873745 0.041991703
0002d0 41 04 03 3d 94 02 e7 bc d2 d4 c2 3c 2c cb 74 3d
       0.03198648 -0.028199472 0.023783121 0.059764072
0002e0 ff 16 79 bd 62 cf 28 3d 15 02 b9 3c 4f 95 46 3c
       -0.060812946 0.0412134 0.022584 0.012120559
0002f0 14 e3 91 3a ad 9b 2b 3a 17 95 37 3c 60 e0 88 bc
       0.0011130297 0.000654633 0.011204979 -0.016708553
000300 92 d3 50 bc 95 d8 19 bd 23 bb 45 3d 1b 88 92 bb
       -0.012745755 -0.037560064 0.04827417 -0.0044717914
000310 ec e1 9c bc af 75 31 bd 94 09 fb 3c 3c 6e 9c bd
       -0.019150697 -0.043325122 0.030644216 -0.07638213
000320 da c9 b9 3d 8f 9d 48 3c 4d 0e f6 bc 74 b2 69 3c
       0.09071703 0.012244596 -0.030036116 0.014263738
000330 06 32 cf 3b 45 dd 99 3c 46 05 9d 3d 0a 0a b2 bd
       0.006323102 0.018782267 0.076670215 -0.08693321
000340 ec dd 81 3d 99 55 a0 3c 6f 6e 5b 3d 68 28 9d 3d
       0.06341156 0.019572066 0.053572115 0.076737225
000350 8a d3 d9 3d e0 3b 7a 3b 05 cc 3a bc 19 8e 8a bd
       0.10636051 0.003818266 -0.011401181 -0.06765384
000360 b4 3d e3 3b e8 b1 34 3d 53 67 87 3c 7e 81 e3 3c
       0.006934846 0.044114977 0.016528761 0.027771708
000370 9d 62 a2 bb fe 44 16 3b 64 86 03 3d dd 0c 4f bd
       -0.0049556033 0.0022929306 0.032110587 -0.050549377
000380 52 62 1d 3d e5 c0 8e 3d 63 9a a0 ba 33 f3 0d 3e
       0.038423844 0.069703855 -0.0012253042 0.13862304
000390 7d 61 36 bc e3 6d 72 3c 47 79 98 3d 4c 1f 73 bd
       -0.011131641 0.014796707 0.07445007 -0.05935602
0003a0 78 de 1e bc 90 68 1a bc a9 fb 20 3d 18 4e 90 3c
       -0.009696595 -0.009424344 0.0393025 0.017615363
0003b0 77 f2 17 bd 19 a9 b9 3d 7e 33 cd bc eb 25 00 bc
       -0.037096467 0.09065456 -0.025048967 -0.00782154
0003c0 d1 b3 1f 39 a1 6b 45 3d f7 cf 85 bd 66 17 66 bd
       0.00015230408 0.048198346 -0.06533807 -0.05617466
0003d0 14 28 28 3d b0 45 2e bb c6 52 79 3a 7b 3a 9c bd
       0.041053846 -0.002659183 0.00095109304 -0.07628342
0003e0 ab 3e 18 3b 43 bc a7 3c ae b7 f6 3b f2 92 4f bd
       0.0023230712 0.020475512 0.0075292205 -0.050677247
0003f0 84 38 c7 bc b1 7b 9d bb 3a 1b 96 3c bd b0 b6 bd
       -0.024318941 -0.004806005 0.01832353 -0.08920429

action_model._discrete_distribution.branches.0.bias f4 [3]
000000 21 02 c1 3c fd 85 cf bb 6e 03 7a bc
       0.023560585 -0.0063331113 -0.015259607

action_model._discrete_distribution.branches.1.weight f4 [2, 128]
000000 12 04 d9 bc 39 cf 63 3c 46 cc 7a bc 63 31 a0 bc
       -0.026491199 0.013904386 -0.015307492 -0.0195548
000010 b3 d2 27 3a 95 88 c9 3c 3d 05 c8 3c 1a 6b 3e bd
       0.0006401941 0.02460126 0.02441656 -0.04648886
000020 6b c9 bb 3b 5c 14 d8 3c d9 bf e9 bb f3 6c 52 bd
       0.005730798 0.026376896 -0.0071334657 -0.051373433
000030 05 5b 71 3d 9e 5e 7a bc f4 c2 8b 3c 90 05 d6 3b
       0.058924694 -0.015281348 0.017060734 0.006531425
000040 6b b4 18 bc 31 f2 6e bd 30 11 86 bc c7 e3 9d 3d
       -0.009320359 -0.05833644 -0.016365618 0.07709461
000050 d0 09 e3 bc 56 e8 ae 3b 60 27 b9 3a 13 a7 29 bb
       -0.02771464 0.005337755 0.0014126115 -0.0025886938
000060 69 3c 85 3d 97 fe 44 3c 38 d5 7e bd 8c dc f3 bb
       0.06505663 0.01202359 -0.06221506 -0.0074420627
000070 60 08 d2 3d 3e 59 65 bb 66 a3 02 bc 06 ed 8b bc
       0.10255504 -0.003499582 -0.007973528 -0.017080795
000080 71 8a 30 bd 99 8b af 3b b7 af 26 bd 7f 3a 16 bb
       -0.043100778 0.0053572175 -0.04069492 -0.002292305
000090 79 1a ab bc 15 6d bb bc dc 1b a3 bc c3 04 05 3d
       -0.020886647 -0.022879163 -0.019910745 0.032475244
0000a0 8d 82 10 bc 43 a2 de bc c5 4e 37 bc e4 bd 03 bd
       -0.008820188 -0.027176982 -0.011188214 -0.032163516
0000b0 1b 43 06 bd cb f2 bf bc eb 91 bb 3c fb 30 42 bd
       -0.03277884 -0.023431202 0.022896728 -0.047409993
0000c0 54 2f b5 bc 90 19 ca 3c cc 90 3b bd a6 ba f6 bc
       -0.022117294 0.024670392 -0.045792386 -0.030118298
0000d0 20 37 f1 bc 63 01 17 bc 29 5d 96 bc 8b 8a 1b 3d
       -0.029445231 -0.009216639 -0.01835497 0.03797392
0000e0 8e c7 be 3d ad 27 82 bd ea 8e 4f bd 79 d1 89 bc
       0.09315406 -0.06355224 -0.050673403 -0.016823517
0000f0 ac 5d 42 bd cb 2f 0a bd ae d1 8e bd c9 00 40 bb
       -0.047452614 -0.033736985 -0.06973587 -0.0029297343
000100 e2 d2 a9 bb 2c 34 e4 3c e5 d2 ea 3c eb 30 ce bb
       -0.00518261 0.027856909 0.028665015 -0.0062924526
000110 cf a2 ca 3c 20 11 76 3c ce 6d 21 3d b4 bf a4 bd
       0.024735836 0.015018731 0.03941136 -0.08044377
000120 4c dd 03 3d 09 ee 6f 3d 08 4f 0e bd 90 e6 bc bc
       0.032193467 0.058576617 -0.03474334 -0.02305916
000130 ff 4c 98 3d 03 99 14 bd a2 c7 c5 bc 7a 80 98 3c
       0.07436561 -0.036278736 -0.024143044 0.01861595
000140 bd 94 ea 3c bf ae a5 bd ee 42 ce bc 10 25 c6 bc
       0.028635377 -0.08089971 -0.025178399 -0.024187595
000150 f6 ff 75 3c 1c c6 84 bc 41 8a 9c 3c a1 6f 8d 3d
       0.015014639 -0.016207747 0.019108893 0.06906057
000160 6a 00 9f bc b4 e5 5c bd a2 a6 80 3c f3 bd 75 3d
       -0.019409377 -0.05393 0.015704457 0.059995603
000170 f7 b9 e1 bc 0b c3 94 bc bd 22 06 3d 94 13 83 bd
       -0.027554495 -0.01815941 0.032747973 -0.064002186
000180 3e 22 c8 3c be 09 57 bd 14 91 70 3c 62 bb 86 bd
       0.02443039 -0.052499525 0.014683027 -0.06578709
000190 03 9c b8 bb 6f a7 65 3b 28 3c 95 bc 54 0d 77 3d
       -0.0056338324 0.0035042425 -0.018217161 0.060315445
0001a0 22 3b 8e 3c 9b f4 d9 3c 95 48 8f 3c 85 dc 28 bd
       0.017362181 0.026605895 0.017490664 -0.04122593
0001b0 f9 c1 14 3d c4 7a 43 3d 32 7c b4 bc ad 77 ed bc
       0.0363178 0.0477245 -0.022031877 -0.02898773
0001c0 ca 77 a4 bc 16 f2 8c 3d 51 cb c2 3c 10 32 40 3b
       -0.020076651 0.06882112 0.02377859 0.0029326715
0001d0 74 09 6c 3c 1a 7a 55 3c 57 44 87 bd f1 c5 0d bd
       0.014406551 0.0130296 -0.06604832 -0.0346126
0001e0 6d 81 bf bd a2 57 2c 3d ee 55 76 bb 34 a2 d0 3c
       -0.09350858 0.04207576 -0.003758784 0.02546797
0001f0 92 32 c0 bc e6 68 88 bd eb 9d be bc d5 6c 89 3c
       -0.023461614 -0.06660633 -0.02326866 0.016775528
000200 f4 67 21 3d f8 44 e1 bb 20 d6 d4 3b f5 4c 03 3d
       0.039405778 -0.006874677 0.0064952523 0.032055814
000210 d3 4c cf 3c e2 b3 dd bc c1 69 49 bc f3 c8 53 3d
       0.025305187 -0.027063314 -0.01229328 0.051705312
000220 23 be 88 bc b3 6b 2b bd 57 31 81 bb b9 86 75 3d
       -0.016692227 -0.041850757 -0.0039426493 0.059942935
000230 05 5f 80 bd 63 6c 0f bb 44 18 d3 bb 9d c5 3a bc
       -0.062681235 -0.0021884672 -0.0064421017 -0.011399654
000240 4e 1e d2 3c 83 64 48 3d 13 81 96 3c 49 c8 a6 bd
       0.025649216 0.04892398 0.018372094 -0.0814367
000250 77 a4 5f 3c 8c 5d 93 bc 54 49 74 bb 34 90 42 3c
       0.013650051 -0.017988943 -0.0037275152 0.011875201
000260 ba e5 20 bd 7c ec 4d ba 10 8b 15 3d 0e 36 dc ba
       -0.039281584 -0.00078553683 0.036509573 -0.0016800778
000270 5d c6 c5 bd fe f4 1d 3c a5 e3 6b bc ff 74 e6 bb
       -0.096569754 0.00964093 -0.014397536 -0.00703299
000280 ba 91 6e 3d 79 e8 98 3c 92 fe 1b 3d 94 0f 63 bc
       0.058244444 0.01866554 0.038084574 -0.013858695
000290 4f 87 23 ba 4a 75 ef 38 8d e7 99 3c 12 b1 3f bd
       -0.0006238119 0.00011418255 0.01878717 -0.046799727
0002a0 06 57 a9 3c 60 13 d6 3c f8 f9 91 3b 98 40 0d 3d
       0.020671379 0.026132286 0.0044548474 0.03448543
0002b0 ae 99 24 3d 65 af 6d 3c 23 07 cc bc 38 30 0f 3d
       0.040185623 0.014507149 -0.024905747 0.034958094
0002c0 5b 00 93 3c a9 26 5a bc 46 f0 ee 3c f9 fc 9f 3c
       0.017944505 -0.013314881 0.029167306 0.019529806
0002d0 6b 84 22 3d 07 eb 4a 3d fc e6 a8 3c bd 08 46 bd
       0.039677065 0.049540546 0.020617954 -0.048348177
0002e0 a6 b0 9d bd dc 92 a0 3d 5a 6e 24 3d 56 d1 47 3b
       -0.07699709 0.07840511 0.040144302 0.0030489764
0002f0 36 5b 8a 3d b8 73 c9 3c dc c9 89 3d f2 1a c2 3c
       0.06755678 0.024591312 0.06727955 0.02369449
000300 f3 44 a1 3b e1 bd 16 bd a2 b9 47 bc 58 48 60 3b
       0.0049215495 -0.036802176 -0.012190254 0.0034222808
000310 26 22 81 bc 02 8b a1 bb 23 2e 27 bd 9b 7c a4 3d
       -0.015763354 -0.004929901 -0.040815484 0.08031579
000320 0d fc 8f bc 1b 83 89 bd ea b1 4f 3d 74 19 ab 3c
       -0.017576242 -0.067144595 0.05070678 0.02088616
000330 9e 6a a6 bd 85 87 3c 3d d0 74 0f 3d 13 09 c2 bc
       -0.08125804 0.04602768 0.03502351 -0.023685968
000340 33 7c 64 bd 4d 68 99 3d be f4 b7 3c 53 db 0a 3d
       -0.055782508 0.07490597 0.02245557 0.03390057
000350 e5 42 e1 bc 2b a9 91 3c 2d 36 ab bc 9f 4b 7c bd
       -0.027497718 0.01778086 -0.020899856 -0.061595555
000360 4b 2e 2f 3c e2 65 95 3d 7b 21 14 bd f5 77 85 bd
       0.010692189 0.07294823 -0.036164742 -0.065170206
000370 7b b6 16 3d c6 84 d2 39 28 5c 0d bd de 76 6c 3d
       0.03679512 0.00040153245 -0.034511715 0.057730548
000380 49 48 60 bd fb 3e 5a 3d 78 4d 70 bc 16 a0 60 3d
       -0.054756436 0.05328272 -0.0146669075 0.05484017
000390 80 ba 35 bc ad 9e f3 3b 0e 61 87 3c 36 1c 39 bd
       -0.011091828 0.007434687 0.016525771 -0.04519292
0003a0 66 1b 17 3c 08 75 ad bb 45 54 01 bd 4b 20 62 3d
       0.009222841 -0.005293492 -0.031574506 0.05520658
0003b0 75 9e 6c bd a0 89 5b bd 2c 73 a5 3c 2d 58 c9 3c
       -0.057768304 -0.053598046 0.02019652 0.024578178
0003c0 68 e4 dd 3c 23 f7 7d bd c7 1c ec bc 52 9e b2 3a
       0.027086452 -0.062003266 -0.028822316 0.0013627505
0003d0 2a ed f4 bb 66 fc c2 bb 2a 5a 82 3d 97 38 bd 3c
       -0.007474561 -0.0059504984 0.06364854 0.023098273
0003e0 9e 65 e2 3d ed f8 f4 bc 04 00 9e 3c a2 4c d5 bb
       0.11054538 -0.029903853 0.019287117 -0.0065093795
0003f0 71 fa e5 3c 08 9c 5b 3d b2 38 17 3d bb e4 8e bc
       0.028073521 0.0536156 0.036919303 -0.017443052

action_model._discrete_distribution.branches.1.bias f4 [2]
000000 54 25 b6 bc 48 25 b6 3c
       -0.022234596 0.022234574
