results/Medium/Player/Player-347741.onnx (onnx, 159076 bytes, 17 tensors)

discrete_act_size_vector f4 [1, 4]
3.0 2.0 3.0 3.0
00000000: 0000 4040 0000 0040 0000 4040 0000 4040

network_body.observation_encoder.processors.0.normalizer.running_mean f4 [14]
0.037775464 -6.950819 1.0940721 23.102587 9.276219 4.4675865 6.9506917 -4.1439276
-6.308004 -3.0835109 -1.130882 -0.13430555 -0.032704495 0.026748061
00000000: 72ba 1a3d 1c6d dec0 8e0a 8c3f 19d2 b841
00000010: 656b 1441 78f6 8e40 116c de40 0e9b 84c0
00000020: 2bdb c9c0 3e58 45c0 bec0 90bf 6587 09be
00000030: 26f5 05bd c01e db3c

network_body._body_endoder.seq_layers.0.weight f4 [128, 14]
-0.07370979 -0.44263855 0.25836167 -0.28743523 -0.058121398 -0.08318534 -0.30621803 0.2696102
0.2667876 0.2607315 -0.063317694 0.29150587 -0.5351546 0.12660007 -0.26135916 -0.20393762
-0.56611395 -0.27277502 0.23765479 0.08272277 -0.3818942 -0.1678622 0.15002228 -0.13677645
-0.4170495 -0.1294597 0.259451 -0.3292647 -0.1614681 -0.051067762 -0.68573976 -0.19313297
0.1335432 0.50227284 0.17029576 -0.19277366 -0.8315254 -0.5813186 0.024273777 0.24211863
0.4047669 -0.17268525 0.44524574 0.42058265 -0.010362685 0.2739981 0.42251888 -0.25939104
0.45236677 -0.029499125 0.0077366945 0.07149246 -0.32918245 0.21124123 -0.2898742 -0.010513595
0.452242 -0.4351458 -0.08048635 0.31548002 0.041939832 -0.17638671 0.67964584 0.020964546
0.34763283 -0.26521325 -0.10700895 0.13167259 0.17761676 0.15568192 -0.14075822 0.25670174
-0.24140307 0.11416429 -0.1016369 -0.28394106 -0.11300413 -0.21808787 -0.31489098 -0.4272431
-0.4012543 -0.06532221 0.15860912 -0.24280384 -0.1655876 -0.14799795 -0.22278422 -0.5496041
0.012169116 0.22325033 0.001902527 -0.03095472 0.27430445 -0.6280537 0.35049528 -0.12785847
-0.09422196 -0.26855874 0.16872975 0.17303422 0.39305657 -0.3320473 -0.07504265 -0.2755112
0.27323723 -0.081723176 0.7647619 -0.20981148 -0.12571841 0.45312566 -0.028128624 0.25413343
-0.06246013 0.51722103 0.33098742 -0.29092255 -0.079728425 0.10883258 -0.09243893 -0.16495988
0.54362136 0.055660773 0.5043906 0.11855414 -0.07708213 -0.41717485 -0.36234212 -0.19879091
-0.04977704 -0.06563396 -0.11158707 -0.23387423 -0.18291365 -0.43027684 -0.03581821 0.29932654
-0.2165883 0.010832679 -0.04642849 -0.062086154 0.45630845 0.28342742 -0.15481399 0.113497816
-0.68620145 -0.060582437 0.015516817 -0.53679055 0.22363111 0.1774173 -0.112524725 0.30868983
0.80847234 0.30304343 -0.642795 -0.4351908 -0.29558846 0.086347 -0.3677167 0.17848293
-0.1175134 -0.08681853 -0.09190718 0.38551593 0.007497303 0.3962775 0.3338763 -0.11627938
-0.51422644 0.064433694 -0.1747833 0.3595037 0.18947266 0.46861154 0.020691162 -0.089331865
0.26105192 -0.2034764 0.21957946 0.18937826 -0.019928599 0.39661762 0.026799584 0.22084998
-0.16901545 -0.15233737 -0.4528049 0.014725663 -0.57223433 0.21427701 0.09644798 -0.46858022
-0.43490833 -0.3721636 -0.13261004 0.16926649 0.15431109 -0.31302837 0.0062518055 -0.32215396
0.30083898 0.5824262 0.00049967354 0.5420913 -0.13964358 0.4376424 0.078272685 0.07382753
-0.5246706 0.23714176 0.07178884 0.078300744 -0.47900057 0.18049932 -0.6651431 0.058551397
-0.3388581 -0.26131588 0.11255779 -0.09976036 -0.108657934 0.13477996 0.011530768 -0.12672614
0.16921702 -0.12533179 0.0027344287 -0.03391798 0.22687952 -0.11838954 0.007343387 -0.57848096
0.34734988 -0.05736065 0.43367386 -0.27646667 -0.21987264 0.3084107 0.3375642 0.44384184
0.19160405 -0.3855766 0.43305358 0.13810062 0.08857026 0.4376097 -0.26690283 0.29973984
-0.32711044 0.12730293 0.011098322 0.22347999 0.049148038 -0.18306005 0.7375028 -0.037551127
00000000: 29f5 96bd 85a1 e2be fb47 843e b62a 93be
00000010: b410 6ebd 135d aabd 9cc8 9cbe 590a 8a3e
00000020: 6298 883e 997e 853e b5ac 81bd 4240 953e
00000030: e4ff 08bf 73a3 013e ded0 85be 06d5 50be
00000040: d8ec 10bf 2ba9 8bbe c75b 733e 8e6a a93d
00000050: a387 c3be 12e4 2bbe 719f 193e 200f 0cbe
00000060: 8387 d5be 1591 04be c3d6 843e 6295 a8be
00000070: e557 25be 6e2c 51bd a48c 2fbf a6c4 45be
00000080: 8cbf 083e f494 003f 0362 2e3e 7566 45be
00000090: d9de 54bf 4cd1 14bf cdd9 c63c f2ed 773e
000000a0: 9b3d cf3e 67d4 30be 40f7 e33e 9c56 d73e
000000b0: 40c8 29bc 7b49 8c3e 6554 d83e e7ce 84be
000000c0: 9e9c e73e 26a8 f1bc 1984 fd3b a46a 923d
000000d0: 9a8a a8be 9f4f 583e 646a 94be 3741 2cbc
000000e0: 438c e73e 6ecb debe 07d6 a4bd 9986 a13e
000000f0: 1ac9 2b3d b89e 34be 45fd 2d3f d7bd ab3c
00000100: eefc b13e 08ca 87be 8227 dbbd 2ed5 063e
00000110: 2be1 353e 156b 1f3e ec22 10be 696e 833e
00000120: 5e32 77be f8ce e93d 0227 d0bd b960 91be
00000130: b66e e7bd 6d52 5fbe 6439 a1be 9cbf dabe
00000140: 3471 cdbe a7c7 85bd 6e6a 223e 92a1 78be
00000150: cc8f 29be c68c 17be 8c21 64be dbb2 0cbf
00000160: f960 473c bc9b 643e 365e f93a c194 fdbc
00000170: a271 8c3e 21c8 20bf 1e74 b33e 55ed 02be
00000180: 71f7 c0bd 8880 89be 7ec7 2c3e e22f 313e
00000190: b63e c93e 1b02 aabe f6af 99bd ce0f 8dbe
000001a0: c0e5 8b3e 7b5e a7bd 70c7 433f d2d8 56be
000001b0: 54bc 00be 1600 e83e 006e e6bc c71d 823e
000001c0: 31d6 7fbd 9968 043f 2f77 a93e cdf3 94be
000001d0: a848 a3bd 9ee3 de3d 9f50 bdbd 3eeb 28be
000001e0: c52a 0b3f 8dfc 633d be1f 013f 83cc f23d
000001f0: 3cdd 9dbd f197 d5be e884 b9be d88f 4bbe
00000200: 02e3 4bbd 196b 86bd c387 e4bd ba7c 6fbe
00000210: b74d 3bbe 3f4d dcbe 1eb6 12bd 5441 993e
00000220: 53c9 5dbe 8d7b 313c cd2b 3ebd 0d4e 7ebd
00000230: 43a1 e93e 661d 913e 8f87 1ebe 8b71 e83d
00000240: e6aa 2fbf 4a25 78bd 3f3a 7e3c 1b6b 09bf
00000250: 8eff 643e e1ac 353e 5d73 e6bd 980c 9e3e
00000260: 0bf8 4e3f 8228 9b3e 378e 24bf 54d1 debe
00000270: 5f57 97be b2d6 b03d 5d45 bcbe 3bc4 363e
00000280: deaa f0bd eacd b1bd d539 bcbd 5862 c53e
00000290: f0ab f53b e2e4 ca3e d6f1 aa3e e223 eebd
000002a0: 58a4 03bf d0f5 833d 65fa 32be de10 b83e
000002b0: 1f05 423e daed ef3e 8380 a93c a0f3 b6bd
000002c0: 99a8 853e 1e5c 50be 70d9 603e 60ec 413e
000002d0: 4d41 a3bc 7711 cb3e cd8a db3c 7f26 623e
000002e0: 6312 2dbe 54fe 1bbe 0bd6 e7be e843 713c
000002f0: f37d 12bf 6f6b 5b3e 8586 c53d bfe9 efbe
00000300: 4eac debe 3a8c bebe edca 07be 3254 2d3e
00000310: ba03 1e3e 4145 a0be f2db cc3b 5df1 a4be
00000320: 9107 9a3e e219 153f 86fc 023a 7fc6 0a3f
00000330: bafe 0ebe aa12 e03e 6e4d a03d e332 973d
00000340: d050 06bf 4ad5 723e 0706 933d 245c a03d
00000350: 903f f5be d0d4 383e d146 2abf 97d3 6f3d
00000360: cf7e adbe 32cb 85be b384 e63d 294f ccbd
00000370: 0d88 debd c203 0a3e 8ceb 3c3c 7fc4 01be
00000380: 3a47 2d3e fa56 00be 1a34 333b 94ed 0abd
00000390: 1b53 683e 3776 f2bd cca0 f03b 5417 14bf
000003a0: d8d7 b13e 00f3 6abd 800a de3e 0a8d 8dbe
000003b0: 4b26 61be 02e8 9d3e 37d5 ac3e 3d3f e33e
000003c0: da33 443e 4c6a c5be 33b9 dd3e 406a 0d3e
000003d0: 5364 b53d 610e e03e 7da7 88be 8077 993e
000003e0: 057b a7be b35b 023e bdd5 353c f0d7 643e
000003f0: 744f 493d 1874 3bbe fccc 3c3f 36cf 19bd

network_body._body_endoder.seq_layers.0.bias f4 [128]
0.023403563 0.0099434415 0.026432775 0.028565137 -0.029866401 0.019403376 0.064609446 0.0346569
0.036589663 0.015415855 0.043930802 0.028842757 0.03327318 -0.023466792 0.046520997 6.263552e-05
0.07435124 0.020203536 0.04132592 0.004370457 0.0191791 -0.0020162154 0.04424118 0.030393526
0.06247439 -0.009633147 -0.04669559 0.044623736 0.0161997 0.041181467 0.017370943 0.026777636
-0.05115595 -0.017937709 -0.04277367 0.012633759 -0.027332189 0.0057262015 0.025971867 0.06601253
-0.004187354 -0.014322975 -0.03067126 0.035445467 0.11191963 0.028848253 0.030462326 0.040419832
-0.017214296 -0.024184037 -0.0012592553 -0.021692695 0.0134037 0.014519185 0.005667059 0.06937216
0.10035848 0.05471662 0.007757963 0.018532023 0.04453633 0.07491644 0.012860122 0.0059241513
0.061201274 -0.04974522 0.06533956 0.014864422 0.007686018 0.01956878 0.09132538 0.041756846
0.04454845 0.010513258 0.0018312874 0.030548701 0.0017377051 0.016114589 0.034016803 0.046523567
0.056141242 0.07101247 -0.02046957 -0.029017124 0.05868753 0.03267087 -0.025007606 -0.0010389107
0.051309727 0.02249035 0.027760804 0.013555266 0.012730074 -0.039485976 0.0067724674 -0.059523042
0.0024287612 0.018139614 0.07821577 -0.044384878 -0.033499707 0.03696731 0.066803634 0.04303116
0.07939171 -0.04250521 -0.0019384664 0.02799517 0.08664028 -0.0038244827 -0.001954988 0.05659712
0.052977365 -0.007231371 0.01734913 0.0037145365 0.050777994 0.008986691 0.02747868 0.012068637
0.07878099 0.026951222 0.047033895 0.04515918 0.020007648 0.026576566 0.03852816 0.034107197
00000000: d4b8 bf3c d1e9 223c 8c89 d83c 6f01 ea3c
00000010: 62aa f4bc d4f3 9e3c f551 843d 65f4 0d3d
00000020: 0bdf 153d c892 7c3c c9f0 333d a547 ec3c
00000030: 7549 083d 6e3d c0bc cd8c 3e3d 305b 8338
00000040: 7745 983d e381 a53c 5e45 293d 0d36 8f3b
00000050: 7d1d 9d3c 7b22 04bb 3d36 353d d8fb f83c
00000060: 25e5 7f3d 59d4 1dbc e043 3fbd 61c7 363d
00000070: 3cb5 843c e6ad 283d 824d 8e3c c65c db3c
00000080: e788 51bd 1af2 92bc 7233 2fbd d3fd 4e3c
00000090: c1e7 dfbc dca2 bb3b f4c2 d43c 9431 873d
000000a0: 1236 89bb e9aa 6abc 4b42 fbbc 442f 113d
000000b0: 1e36 e53d 2c53 ec3c 218c f93c 448f 253d
000000c0: ff04 8dbc 9a1d c6bc 990d a5ba e1b4 b1bc
000000d0: 319b 5b3c e0e1 6d3c bdb2 b93b fe12 8e3d
000000e0: bf88 cd3d 891e 603d 8336 fe3b 78d0 973c
000000f0: ba6b 363d ca6d 993d 43b3 523c 621f c23b
00000100: 30ae 7a3d a5c1 4bbd bfd0 853d e889 733c
00000110: feda fb3b b54e a03c cd08 bb3d 3a09 2b3d
00000120: 6f78 363d cd3f 2c3c cf07 f03a 4541 fa3c
00000130: b5c3 e33a be02 843c 3455 0b3d 7f8f 3e3d
00000140: 5cf4 653d fc6e 913d cdaf a7bc 52b5 edbc
00000150: 5662 703d e4d1 053d c0dc ccbc 0f2c 88ba
00000160: 262a 523d af3d b83c a06a e33c e816 5e3c
00000170: cd91 503c 0cbc 21bd 93eb dd3b 6fce 73bd
00000180: da2b 1f3b 8799 943c 972f a03d ebcc 35bd
00000190: fd36 09bd 096b 173d 58d0 883d 7141 303d
000001a0: 1f98 a23d f119 2ebd 2414 feba 2056 e53c
000001b0: 7670 b13d 2ca4 7abb 421f 00bb 62d2 673d
000001c0: cbfe 583d 23f5 ecbb c31f 8e3c 956f 733b
000001d0: 96fc 4f3d ea3c 133c f81a e13c 88bb 453c
000001e0: ed57 a13d cfc8 dc3c 9da6 403d d5f8 383d
000001f0: 14e7 a33c 19b7 d93c b4cf 1d3d fdb3 0b3d

network_body._body_endoder.seq_layers.2.weight f4 [128, 128]
0.01376518 -0.10092065 -0.29823717 -0.074560516 -0.09223442 0.026708411 0.011930297 -0.1012225
-0.12572815 0.09441782 -0.10320406 0.07179059 -0.22972606 0.069444835 0.032332946 -0.0845925
-0.20872658 0.052961297 0.069357336 -0.04877207 0.02430003 -0.039269544 -0.17447296 0.09729165
0.10682436 0.050799914 -0.09503075 0.0014176578 0.0751111 0.24535048 0.07230148 0.033839196
0.15166181 -0.10966713 -0.051171087 -0.1922295 0.14797476 0.061269984 0.10313365 0.0044478592
0.12626445 0.15980297 -0.08651027 -0.0037586247 0.11390784 0.19810474 0.094107084 0.023182502
0.02857829 0.053009115 0.19189303 -0.12714411 0.09386182 0.051477768 -0.008931143 0.17185056
-0.03830002 0.17654197 -0.18232326 0.103177756 -0.14253667 0.08447345 0.058927335 -0.11093931
0.12883465 0.016256759 0.00060572627 -0.10288769 0.04400292 0.20127459 -0.037155606 -0.0039605987
0.22635525 -0.19051355 -0.035474617 0.09286551 0.110598445 -0.075746424 0.028698877 -0.042429976
0.03310044 0.20861924 0.0067514894 0.0715528 -0.17411359 0.06936138 0.047253292 0.06433539
-0.045964003 0.18360342 -0.079066135 0.07053557 0.09317986 -0.14177471 -0.0060278787 0.08107664
0.08384565 0.08936606 0.049549032 0.027228573 0.08575215 0.008874103 0.07205137 0.012649204
-0.141125 0.24023318 -0.0053859754 -0.16489144 0.02352027 0.009564644 0.062981464 0.055148207
-0.0046738177 -0.008205916 0.033891134 0.23825191 0.047562364 0.06680934 0.07434084 0.06996057
-0.0039600283 -0.21475136 0.07189641 -0.070981175 0.15927514 -0.10200894 -0.17394838 0.10108568
0.112437926 -0.18698044 -0.0003003049 0.14967608 0.038361866 0.02177449 0.060027737 -0.098617986
0.1805485 0.08099974 0.007015051 0.04584571 0.07075431 0.049195856 0.11143116 -0.21920228
0.014898569 -0.050981566 0.17179915 0.0034967777 0.028907713 -0.04173938 0.0689746 -0.0061278134
-0.09864143 0.11637887 0.0931044 -0.032266315 -0.0023037146 -0.1398945 0.082854174 -0.059308827
0.13734739 -0.11320432 0.005789862 0.19988106 -0.115969606 0.00999695 0.12180571 -0.079981565
0.05286184 -0.0553675 0.10020067 0.11440336 -0.16457824 -0.20262346 -0.020545648 0.06373898
0.12459611 -0.1650431 0.06779112 -0.019617049 0.16181956 -0.019992387 0.12196225 -0.04238944
-0.13769414 0.0697597 -0.0039928774 0.1429967 0.18243024 -0.2375029 0.014701425 0.045249525
-0.07484767 -0.11059879 -0.047578156 -0.008989329 0.020112576 0.10098678 -0.074325964 -0.07426155
0.074422285 0.03263905 0.07936679 0.01478855 -0.002140105 0.018691247 -0.063436024 0.061916634
0.08653853 -0.031488523 -0.19379449 -0.1125754 -0.0133866845 0.12223859 0.06516001 -0.06057517
0.08920146 0.15641111 -0.024051521 -0.21982422 -0.08519499 0.033973373 0.017201152 -0.06496058
0.007941564 0.046921946 0.0675421 -0.17835878 0.06575785 0.036972538 0.044873204 -0.022292696
0.2528564 -0.011003183 -0.11511856 -0.08496886 0.12756585 -0.041625787 -0.13278143 0.07783016
0.013983986 0.010610096 -0.039398007 -0.21666452 -0.14151712 0.024856525 -0.1718183 0.08920017
0.13443144 0.09765172 -0.08506769 0.05470137 -0.0074592023 -0.061526686 0.18876943 0.108592436
00000000: 5987 613c 7caf cebd 8bb2 98be 2fb3 98bd
00000010: 66e5 bcbd 99cb da3c 4b77 433c be4d cfbd
00000020: e1be 00be 215e c13d a65c d3bd f206 933d
00000030: 4f3d 6bbe 1839 8e3d 8d6f 043d d53e adbd
00000040: 6cbc 55be f2ed 583d 380b 8e3d 39c5 47bd
00000050: db10 c73c 1ad9 20bd 0aa9 32be d840 c73d
00000060: bbc6 da3d 9213 503d 7b9f c2bd b4d0 b93a
00000070: d9d3 993d 283d 7b3e cc12 943d f89a 0a3d
00000080: 3c4d 1b3e 2999 e0bd c698 51bd cfd7 44be
00000090: b286 173e 3cf6 7a3d bc37 d33d 59bf 913b
000000a0: 784b 013e 64a3 233e 4c2c b1bd 4253 76bb
000000b0: 8348 e93d f8db 4a3e 37bb c03d 3be9 bd3c
000000c0: 051d ea3c 1620 593d 9b7f 443e 1132 02be
000000d0: a03a c03d 5ada 523d ee53 12bc 98f9 2f3e
000000e0: 7be0 1cbd 6bc7 343e f3b2 3abe dc4e d33d
000000f0: 22f5 11be 6b00 ad3d ca5d 713d 2634 e3bd
00000100: 3bed 033e e52c 853c 9ac9 1e3a c8b6 d2bd
00000110: 683c 343d ed1a 4e3e 7a30 18bd e9c7 81bb
00000120: acc9 673e fc15 43be d54d 11bd 4630 be3d
00000130: 7081 e23d f120 9bbd e819 eb3c 0ecb 2dbd
00000140: 5494 073d 48a0 553e 993b dd3b 468a 923d
00000150: d54a 32be 570d 8e3d ab8c 413d 46c2 833d
00000160: c044 3cbd 8902 3c3e 6ded a1bd f474 903d
00000170: 15d5 be3d 642d 11be 8385 c5bb 820b a63d
00000180: 45b7 ab3d 8e05 b73d edf3 4a3d 750e df3c
00000190: d39e af3d b064 113c ab8f 933d 9b3e 4f3c
000001a0: 1283 10be b0ff 753e d67c b0bb 4dd9 28be
000001b0: 95ad c03c 06b5 1c3c 6dfc 803d 16e3 613d
000001c0: d326 99bb 1b72 06bc 6ed1 0a3d 4ff8 733e
000001d0: c1d0 423d 56d3 883d 0340 983d 7d47 8f3d
000001e0: 20c3 81bb c8e7 5bbe 6d3e 933d 945e 91bd
000001f0: 0619 233e 10ea d0bd 861f 32be 0206 cf3d
00000200: db45 e63d cd77 3fbe 3e72 9db9 b044 193e
00000210: 5521 1d3d 6a60 b23c a5df 753d 3af8 c9bd
00000220: b5e1 383e 31e3 a53d 83de e53b b6c8 3b3d
00000230: a3e7 903d 9881 493d 0536 e43d 9076 60be
00000240: 2119 743c 0cd2 50bd 1eec 2f3e 322a 653b
00000250: decf ec3c eaf6 2abd 8e42 8d3d d3cb c8bb
00000260: 8504 cabd 0c58 ee3d 85ad be3d af29 04bd
00000270: ebf9 16bb 8140 0fbe 73af a93d d0ed 72bd
00000280: cba4 0c3e abd7 e7bd e2b8 bd3b 9fad 4c3e
00000290: 7981 edbd 3fca 233c 4675 f93d 60cd a3bd
000002a0: a885 583d 08c9 62bd 0236 cd3d 4f4c ea3d
000002b0: 3387 28be 867c 4fbe 594f a8bc 9589 823d
000002c0: 3f2c ff3d 0f01 29be 12d6 8a3d efb3 a0bc
000002d0: 07b4 253e 13c7 a3bc 58c7 f93d 8da0 2dbd
000002e0: b1ff 0cbe 2cde 8e3d afd6 82bb ba6d 123e
000002f0: fece 3a3e f633 73be 3fde 703c 9157 393d
00000300: bc49 99bd 9e81 e2bd 50e1 42bd fb47 13bc
00000310: 21c3 a43c 28d2 ce3d 3638 98bd 7116 98bd
00000320: b66a 983d 86b0 053d 0e8b a23d ad4b 723c
00000330: 0141 0cbb 631e 993c bfea 81bd 4c9c 7d3d
00000340: 1d3b b13d 1cfa 00bd 1072 46be ee8d e6bd
00000350: d353 5bbc 3a58 fa3d 9c72 853d ab1d 78bd
00000360: 41af b63d 3c2a 203e b207 c5bc 9a19 61be
00000370: b67a aebd aa27 0b3d 6ee9 8c3c 0d0a 85bd
00000380: 551d 023c 3a31 403d 8353 8a3d afa3 36be
00000390: 0dac 863d 8470 173d f7cc 373d 2c9f b6bc
000003a0: 6576 813e b246 34bc 48c3 ebbd 2704 aebd
000003b0: 9fa0 023e cd7f 2abd dbf7 07be 6b65 9f3d
000003c0: 171d 653c f8d5 2d3c ce5f 21bd 4edd 5dbe
000003d0: dde9 10be e99f cb3c 23f1 2fbe 94ae b63d
000003e0: 65a8 093e a0fd c73d f837 aebd 8b0e 603d
000003f0: 536c f4bb 6803 7cbd c64c 413e b665 de3d

network_body._body_endoder.seq_layers.2.bias f4 [128]
0.032828044 -0.026093861 -0.0130441645 -0.023769848 0.032548703 0.050391156 0.016428482 0.018322106
0.021541897 0.013074167 -0.009667968 -0.013555702 -0.042630058 -0.0012677951 0.01251417 0.044059023
0.010770314 0.058179837 0.011356159 -0.014096024 -0.036688164 -0.009137145 0.043175906 0.063583925
0.014817043 -0.008149363 -0.00692086 0.008451043 0.00032794717 0.0020220724 0.020879924 -0.036364608
0.0014685073 -0.0006192462 0.017667385 -0.00067532394 -0.075734705 -0.0018529327 0.03292901 -0.04506118
0.005675694 0.0064702597 0.0052446285 -0.01460508 0.03377725 0.072291315 0.025648084 0.053167406
0.025859587 0.018698607 0.028161826 -0.014644968 -0.012169892 0.039890602 -0.01782494 0.011782562
0.005770564 -0.027542364 -0.02683909 -0.04000655 -0.057624254 0.008643474 0.008786931 -0.03738152
0.0093714325 0.01715824 0.048051696 0.0067520174 0.010890903 -0.020252835 0.0016954967 -0.04178515
0.017524645 -0.045045383 -0.0030867816 0.0069680414 -0.014296493 -0.0134975035 -0.010351068 0.017279064
-0.026507962 -0.012062209 0.023917055 0.026415683 -0.016453123 0.010853526 0.011812703 -0.0029976869
0.036895737 -0.045279942 0.0054922537 -0.008273316 -0.042631827 0.015990162 -0.0056719854 -0.06803834
-0.029387558 -0.0047062864 0.053885844 -0.049277987 -0.011212511 -0.03700955 -0.0066538807 0.025194747
0.041960474 0.0068678497 0.020597145 0.024239082 -0.03070593 0.04469145 -0.030606529 -0.0006436824
0.044713076 -0.0021464997 0.029994959 -0.044995856 -0.02721647 -0.03200282 -0.106186815 -0.03714206
-0.014052625 0.03209066 -0.023337882 -0.03458672 0.011359739 0.032542456 0.014848741 0.04329666
00000000: b376 063d cbc2 d5bc 31b7 55bc fcb8 c2bc
00000010: ca51 053d f566 4e3d 0695 863c 3e18 963c
00000020: a278 b03c 0835 563c 6666 1ebc bc18 5ebc
00000030: db9c 2ebd 252c a6ba 3c08 4d3c 3c77 343d
00000040: f975 303c fb4d 6e3d 2f0f 3a3c 03f3 66bc
00000050: 5446 16bd f7b3 15bc 38d9 303d 4a38 823d
00000060: 2fc3 723c e884 05bc 62c8 e2bb 3e76 0a3c
00000070: 53f0 ab39 bf84 043b 600c ab3c 0ef3 14bd
00000080: ee7a c03a e954 22ba 31bb 903c 3908 31ba
00000090: cc1a 9bbd 1bde f2ba 92e0 063d 1292 38bd
000000a0: 2cfb b93b 7904 d43b 22db ab3b 254a 6fbc
000000b0: 045a 0a3d 780d 943d ee1b d23c 11c6 593d
000000c0: 7cd7 d33c d22d 993c a1b3 e63c 73f1 6fbc
000000d0: 3a64 47bc 5464 233d 9c05 92bc a60b 413c
000000e0: 0017 bd3b 86a0 e1bc a7dd dbbc e8dd 23bd
000000f0: 6907 6cbd 5c9d 0d3c 0ff7 0f3c 5d1d 19bd
00000100: a38a 193c 708f 8c3c dbd1 443d 0740 dd3b
00000110: c26f 323c 46e9 a5bc 6e3b de3a e826 2bbd
00000120: d88f 8f3c 8281 38bd 9a4b 4abb 2b54 e43b
00000130: d63b 6abc a224 5dbc 8797 29bc d38c 8d3c
00000140: 3a27 d9bc 92a0 45bc b3ed c33c b465 d83c
00000150: b3c8 86bc fdd2 313c 118a 413c d774 44bb
00000160: fc1f 173d 7677 39bd 5df8 b33b cd8c 07bc
00000170: b69e 2ebd cdfd 823c 10dc b9bb af57 8bbd
00000180: 2dbe f0bc 3137 9abb 67b7 5c3d b7d7 49bd
00000190: aeb4 37bc 5397 17bd cc08 dabb 3765 ce3c
000001a0: bfde 2b3d b30b e13b 58bb a83c 0a91 c63c
000001b0: 018b fbbc 620e 373d 8bba fabc cbbc 28ba
000001c0: 0f25 373d 4aac 0cbb fdb7 f53c 934d 38bd
000001d0: 13f5 debc 6415 03bd 7978 d9bd 4622 18bd
000001e0: fb3c 66bc 7f71 033d 162f bfbc ceaa 0dbd
000001f0: 331e 3a3c 3d4b 053d 2248 733c d757 313d

network_body._body_endoder.seq_layers.4.weight f4 [128, 128]
0.025169387 0.2009272 0.007537708 0.12702239 -0.04320028 -0.26494232 0.01505184 0.010674068
-0.044597827 0.07895866 0.019783214 -0.12991169 -0.073096514 0.003942029 0.121263206 -0.35606134
0.16903083 -0.11218804 -0.008724821 -0.042854555 0.12238899 0.053501915 -0.03738072 0.005424772
0.05528849 0.3301524 -0.11670883 0.009087603 -0.12867421 -0.019675367 -0.01260578 -0.042282138
0.016883628 -0.038647547 -0.017782798 -0.1050745 -0.012531469 -0.13079931 0.0978823 0.07643624
-0.09821503 -0.16908257 0.05475958 -0.032943483 -0.12227816 0.098743394 -0.063192636 -0.0060880804
-0.089817636 -0.14258203 -0.07422742 0.15381193 -0.038576953 -0.009939957 -0.07882902 -0.06095814
0.046784822 -0.13333863 -0.054593407 -0.00513399 -0.09079451 -0.073324084 0.004048178 0.02874154
-0.048921406 -0.32683957 -0.022510882 0.115768306 -0.05970256 -0.36283654 0.024521288 -0.061007656
-0.20001929 0.1807438 -0.08023808 -0.17052534 0.008076139 -0.08024754 0.08910059 0.17528372
-0.14582466 -0.13283096 0.13411884 0.076509714 -0.084386475 0.0007491577 -0.16981404 0.008305457
0.17136027 -0.040507387 -0.04790697 -0.14801764 -0.12430499 -0.047915045 -0.17200114 0.0994892
0.054479957 -0.09402383 -0.26280683 0.019575851 -0.1342861 -0.05509269 -0.19326481 0.05896499
-0.1784948 -0.10903394 -0.10874287 0.016901532 -0.32339406 -0.07707877 0.11632496 -0.1210442
0.013614743 -0.08965623 0.12894572 0.2340057 -0.062416956 0.05444927 -0.023142092 0.088603824
-0.053146705 0.09211759 -0.03913143 0.00027883082 -0.060314074 -0.14500853 -0.090028904 -0.18196487
-0.02108829 0.09884195 -0.10761889 -0.0013150492 0.058141056 0.032786686 0.070338614 0.047891326
-0.17873517 0.0010991371 0.0004300548 -0.039720207 -0.008454719 0.12857178 -0.12989368 -0.17739521
-0.25360638 -0.11004151 0.030255137 -0.050942156 -0.089828834 -0.15857793 0.08068548 -0.055229772
-0.18949361 -0.028481932 -0.044967927 -0.08342976 0.069513075 -0.1115087 0.18878634 0.015352683
0.068998545 -0.006899108 -0.24387024 -0.09074361 0.13226512 -0.1612365 0.08734426 -0.17939918
0.17990464 -0.0043906276 0.012142406 -0.11891982 -0.11232251 0.030329041 -0.043444354 0.025712214
-0.21847658 0.024814611 -0.05739007 0.019094605 -0.03353764 -0.24675232 0.087939054 0.06681773
0.0961208 -0.104317285 -0.03116243 0.008833052 0.12455687 0.31950334 0.0024728477 0.15410465
0.10566664 -0.0015065792 -0.12589015 0.21148717 0.044813525 -0.09437114 -0.0769531 -0.023676192
-0.02521982 -0.080924705 -0.11077352 -0.036396734 -0.2971968 -0.012983028 -0.116555445 -0.10203778
0.007796961 0.11645355 0.04117994 -0.037846662 -0.12716547 0.17783853 0.14922631 0.14041565
0.032677304 -0.048684027 0.15559287 -0.006361843 0.17412284 -0.00016201922 -0.20894712 0.19924203
-0.0068809795 0.012958757 -0.03208341 0.106249586 -0.07554657 0.12870708 0.043012433 -0.09999419
-0.046218757 0.07834228 -0.16916317 0.15243103 0.111733034 0.061134405 -0.09460336 -0.036535513
0.20617867 -0.09812797 -0.06539366 -0.060021896 0.019521361 -0.14414634 -0.121705115 0.018489534
-0.037164364 0.20774141 -0.05798548 0.04326965 -0.17962669 -0.1711536 -0.112299316 0.08220667
00000000: 0830 ce3c dcbf 4d3e e1fe f63b 2812 023e
00000010: c7f2 30bd 85a6 87be fe9b 763c 49e2 2e3c
00000020: 36ac 36bd 14b5 a13d 6810 a23c 9207 05be
00000030: a0b3 95bd 232c 813b d858 f83d ac4d b6be
00000040: 6b16 2d3e d8c2 e5bd 8df2 0ebc 4288 2fbd
00000050: 14a7 fa3d d324 5b3d 871c 19bd 49c2 b13b
00000060: 2f76 623d bc09 a93e 0a05 efbd 2be4 143c
00000070: 2cc3 03be 3c2e a1bc 7988 4ebc 0930 2dbd
00000080: 894f 8a3c e44c 1ebd 3bad 91bc 4d31 d7bd
00000090: ca50 4dbc 41f0 05be 8476 c83d 9a8a 9c3d
000000a0: f624 c9bd fb23 2dbe 954b 603d bfef 06bd
000000b0: f96c fabd fa39 ca3d 246b 81bd 857e c7bb
000000c0: 4ff2 b7bd 0601 12be 8c04 98bd e080 1d3e
000000d0: de02 1ebd 34db 22bc 1c71 a1bd 3eaf 79bd
000000e0: 71a1 3f3d ec89 08be 569d 5fbd 083b a8bb
000000f0: 79f2 b9bd f02a 96bd 94a6 843b 6173 eb3c
00000100: d061 48bd 8457 a7be be68 b8bc ef17 ed3d
00000110: ac8a 74bd b6c5 b9be dee0 c83c 2ae3 79bd
00000120: dbd1 4cbe e714 393e dd53 a4bd 329e 2ebe
00000130: c851 043c d258 a4bd 5f7a b63d 937d 333e
00000140: 0f53 15be d704 08be 7356 093e 20b1 9c3d
00000150: d1d2 acbd 1f63 443a bbe3 2dbe 9d13 083c
00000160: 1179 2f3e 13eb 25bd 193a 44bd f091 17be
00000170: 9d93 febd 9142 44bd 1121 30be fec0 cb3d
00000180: 6026 5f3d 918f c0bd 9e8e 86be 895d a03c
00000190: 4c82 09be dfa8 61bd 36e7 45be 4685 713d
000001a0: 57c7 36be 304d dfbd 95b4 debd 1575 8a3c
000001b0: e893 a5be 79db 9dbd c83b ee3d 06e6 f7bd
000001c0: 5f10 5f3c af9d b7bd 590a 043e 319f 6f3e
000001d0: eca8 7fbd 3306 5f3d 7c94 bdbc ec75 b53d
000001e0: 5cb0 59bd 26a8 bc3d 4748 20bd 0a30 9239
000001f0: e40b 77bd 1e7d 14be 1361 b8bd 0055 3abe
00000200: 59c1 acbc a66d ca3d 4b67 dcbd bb5d acba
00000210: 5125 6e3d 554b 063d b10d 903d b229 443d
00000220: 5a06 37be ec10 903a fa78 e139 a8b1 22bd
00000230: a985 0abc 52a8 033e d902 05be 17a7 35be
00000240: b2d8 81be 715d e1bd 9fd9 f73c b9a8 50bd
00000250: 2ef8 b7bd 4162 22be 6e3e a53d 9d38 62bd
00000260: 9d0a 42be f152 e9bc 4a30 38bd 39dd aabd
00000270: df5c 8e3d ac5e e4bd 3551 413e d289 7b3c
00000280: 1c4f 8d3d ea11 e2bb 1fb9 79be c9d7 b9bd
00000290: 8270 073e 2e1b 25be 8ce1 b23d 6bb4 37be
000002a0: ec38 383e 41df 8fbb f1f0 463c 3c8c f3bd
000002b0: 5809 e6bd 9c74 f83c b5f2 31bd 6ca2 d23c
000002c0: 53b8 5fbe 0348 cb3c da11 6bbd 4a6c 9c3c
000002d0: c45e 09bd a4ac 7cbe 6419 b43d bcd7 883d
000002e0: fbda c43d 4da4 d5bd 5a48 ffbc 81b8 103c
000002f0: ac17 ff3d f195 a33e 800f 223b 9ccd 1d3e
00000300: c067 d83d 6978 c5ba 59e9 00be 1890 583e
00000310: 638e 373d a845 c1bd 9699 9dbd 93f4 c1bc
00000320: cc99 cebc dabb a5bd 3add e2bd be14 15bd
00000330: 2e2a 98be c4b6 54bc 9fb4 eebd 2ff9 d0bd
00000340: a67d ff3b 337f ee3d 4cac 283d 1a05 1bbd
00000350: aa37 02be 4e1b 363e c8ce 183e 1fc9 0f3e
00000360: a3d8 053d e768 47bd bd53 1f3e 0277 d0bb
00000370: 424d 323e b4e3 29b9 3cf6 55be 1a06 4c3e
00000380: d779 e1bb f750 543c e569 03bd 6299 d93d
00000390: 29b8 9abd cacb 033e ce2d 303d c1c9 ccbd
000003a0: e14f 3dbd eb71 a03d 1c39 2dbe e116 1c3e
000003b0: 4ad4 e43d 1268 7a3d 68bf c1bd 43a6 15bd
000003c0: 8020 533e 51f7 c8bd 1ced 85bd 85d9 75bd
000003d0: 43eb 9f3c 199b 13be 8840 f9bd 5d77 973c
000003e0: a939 18bd 2aba 543e 2f82 6dbd 843b 313d
000003f0: 0ff0 37be e442 2fbe 2ffd e5bd f85b a83d

network_body._body_endoder.seq_layers.4.bias f4 [128]
-0.0018010053 -0.02635063 -0.021146894 -0.029277463 -0.035304528 0.012275298 -0.012362957 -0.022685954
-0.021026915 -0.011231202 0.01765154 -0.040755063 -0.052240737 -0.01326038 0.013632891 -0.015922183
-0.023742288 -0.0029705896 0.025963455 -0.058012817 0.01233952 0.010429788 -0.016529012 -0.028731436
0.0072075804 -0.02270239 -0.000404532 0.026416274 -0.09527799 -0.022255244 0.028730057 0.009018345
-0.043704618 -0.041101426 -0.035537373 -0.064243004 -0.049442653 0.027202168 0.030639717 0.02301774
0.010507225 -0.023975775 -0.0018771492 -0.05635423 0.028269015 -0.03865341 -0.055531774 -0.023085685
-0.055859935 -0.027118117 -0.03289066 -0.043847114 -0.025398921 -0.01209304 -0.062014733 0.026807204
0.03750827 -0.013318419 -0.011426921 -0.020165248 0.03755179 -0.039314784 0.0014050122 -0.053433355
-0.05321583 -0.057510298 0.032853834 -0.065154456 -0.065881416 0.0135480305 -0.047752395 0.048647445
-0.07150698 0.01450399 0.011491005 -0.032980163 -0.008270376 -0.03455404 0.035268035 0.022025496
-0.003913391 0.031533178 -0.026071593 0.003940956 0.00099111 -0.010086707 -0.03177981 -0.04215858
-0.066440016 -0.045299612 -0.042651605 0.035390723 -0.07199501 -0.07398785 0.018458614 0.0028371373
0.04821935 -0.01995051 -0.012415685 -0.071988076 -0.020934459 -0.026931792 -0.036438406 -0.02819144
0.057197522 -0.0032855896 -0.000727442 -0.041247886 -0.0589917 -0.06650947 -0.023400944 -0.04993293
-0.019159323 -0.008113615 0.03971993 -0.08393819 0.009751223 -0.07013035 -0.08031066 0.030590134
-0.007722291 -0.04488031 0.061736237 -0.009615292 -0.075079985 -0.062050194 -0.07135654 -0.023609318
00000000: b60f ecba 47dd d7bc 403c adbc 4ad7 efbc
00000010: 7b9b 10bd 551e 493c 008e 4abc e5d7 b9bc
00000020: a340 acbc 1303 38bc f699 903c c8ee 26bd
00000030: 62fa 55bd 1142 59bc 7d5c 5f3c 3d6f 82bc
00000040: 307f c2bc 39ae 42bb 50b1 d43c d99e 6dbd
00000050: b32b 4a3c b4e1 2a3c da67 87bc 305e ebbc
00000060: 912d ec3b 5dfa b9bc 5e17 d4b9 f166 d83c
00000070: 1b21 c3bd a150 b6bc 4c5b eb3c aec1 133c
00000080: 9d03 33bd f859 28bd a38f 11bd d691 83bd
00000090: 6184 4abd 15d7 de3c 2500 fb3c b38f bc3c
000000a0: 7f26 2c3c d868 c4bc ad0a f6ba b1d3 66bd
000000b0: 6c94 e73c 0a53 1ebd 4975 63bd 311e bdbc
000000c0: 63cd 64bd d026 debc 5bb8 06bd 0899 33bd
000000d0: 6611 d0bc e321 46bc 2903 7ebd c89a db3c
000000e0: 46a2 193d 8035 5abc fb37 3bbc 9731 a5bc
000000f0: e8cf 193d 8a08 21bd 6328 b83a efdc 5abd
00000100: d8f8 59bd eb8f 6bbd be91 063d b36f 85bd
00000110: d6ec 86bd 8ff8 5d3c 0498 43bd 8b42 473d
00000120: 4072 92bd 25a2 6d3c c544 3c3c 3516 07bd
00000130: 7980 07bc 8988 0dbd 3775 103d d06e b43c
00000140: e73b 80bb ef28 013d 1894 d5bc 2323 813b
00000150: 22e8 813a b742 25bc 8c2b 02bd 7aae 2cbd
00000160: b411 88bd 168c 39bd 73b3 2ebd ddf5 103d
00000170: 1f72 93bd f186 97bd 8536 973c 44ef 393b
00000180: a781 453d 406f a3bc 286b 4bbc 7c6e 93bd
00000190: be7e abbc 10a0 dcbc 7040 15bd bcf1 e6bc
000001a0: f347 6a3d 0c53 57bb ceb1 3eba 8bf3 28bd
000001b0: 48a1 71bd 1e36 88bd 56b3 bfbc 7986 4cbd
000001c0: 03f4 9cbc f8ee 04bc 5eb1 223d c9e7 abbd
000001d0: 98c3 1f3c 80a0 8fbd ea79 a4bd 2998 fa3c
000001e0: 460b fdbb 6ad4 37bd 23df 7c3d 7589 1dbc
000001f0: 89c3 99bd 5828 7ebd 6123 92bd 5468 c1bc

action_model._discrete_distribution.branches.0.weight f4 [3, 128]
0.04034142 0.07423788 0.0012012413 -0.01304192 -0.036056872 0.00806015 0.03973894 -5.6251207e-05
0.0036092903 -0.03886824 0.05015072 0.015152919 -0.021059826 0.041116472 -0.012390563 0.053023037
-0.020436011 -0.0027254617 -0.11041809 0.0389643 -0.030609185 -0.027695239 -0.00469608 0.005670032
-0.09980081 -0.0109348465 -0.016217114 0.0045454516 0.06283946 -0.039290376 0.008191832 0.04577818
-0.0111535555 -0.025819644 -0.00576208 0.002085219 -0.043260396 0.006489104 0.08827654 -0.03935491
-0.005430948 0.014780748 0.067283824 0.010954126 0.034885526 0.0055189915 -0.01649158 0.011612138
-0.0065518008 0.0039385553 -0.08564751 0.022583686 -0.01846238 -0.021880621 -0.011924077 0.0018556508
0.056879934 0.007471027 0.02717245 -0.022881161 0.04257373 -0.03817527 -0.015456061 0.01933738
-0.0037219212 -0.025480561 -0.09202052 0.07959262 0.0249162 -0.022880824 0.028784648 0.0083587
0.040192354 -0.06647591 -0.0058468347 0.03515699 -0.05354029 0.016058858 -0.010799878 -0.011758069
0.0099424105 0.017747099 -0.001780166 -0.050780702 0.05469137 0.020024966 0.027953671 -0.018386677
-0.023184044 0.045293882 0.0059883883 -0.11091934 -0.00051995507 -0.00914301 -0.053329475 0.032651242
-0.17833656 -0.013577805 -0.0018099436 0.020630553 -0.011728475 -0.0063922526 0.013822529 -0.010176556
-0.14473 0.031642187 -0.015035362 0.01801105 0.009580942 -0.006912524 -0.0077108694 0.012807459
0.00924624 -0.024633124 0.021332474 0.03132284 0.015555739 0.06168071 0.040355276 0.013375226
0.0012177195 -0.022997748 -0.0523751 0.014984192 0.038805153 0.033539053 0.021362599 -0.0011133441
0.044446368 0.045103453 0.0043803393 0.013995541 0.054480966 -0.0891506 0.018257482 -0.07411803
0.02506938 0.018011956 0.03491507 0.029062564 -0.0034345752 0.03827438 0.0026296298 -0.042901147
0.0283357 0.039706938 -0.056309354 0.012138269 -0.07000581 0.036772054 0.043485478 -0.0039553787
0.13896282 -0.00408322 0.10225577 -0.038024534 -0.04016048 0.0138562145 0.05026871 0.020202056
0.023043994 0.022839854 0.0077836346 -0.0584326 -0.01055093 -0.064996354 -0.039180044 0.08489154
-0.005761589 0.038571373 0.0041760183 -0.016308457 0.0046126307 0.022909835 0.0109266 -0.0002954334
0.079542495 -0.034805216 0.014671285 0.012682507 0.046317436 0.039218325 -0.04553012 -0.017137986
0.06275275 0.022372177 0.0115369 0.056113824 0.04248152 0.03242261 0.030569337 -0.054196157
-0.025128748 0.048873894 0.03094667 -0.017888092 0.0058649266 -9.972564e-05 -0.008234908 -0.018817684
-0.008860864 0.05021724 -0.06630872 -0.026371485 0.08299923 -0.06682049 0.02240545 0.05395225
-0.052234545 0.018392973 0.03221699 0.06408988 0.031062124 0.029023252 -0.06123515 0.029316295
0.058017887 -0.01663672 -0.003142782 0.083299085 0.035770565 -0.0050616907 -0.027116755 0.0012886275
0.047106076 -0.016244913 0.077394724 0.005285901 0.038977835 -0.019272292 -0.011449399 0.03281439
0.046391673 -0.06410362 -0.010832629 -0.03119719 -0.03854544 -0.0068422887 0.07782406 -0.03380431
-0.020899395 -0.01865528 0.08271246 -0.019768422 -0.04035694 -0.05328899 -0.0026129715 -0.017580744
0.05408429 0.032124285 0.11699347 -0.0036589783 -0.09324277 -0.052838054 -0.012703789 0.050289977
00000000: 0b3d 253d 080a 983d f872 9d3a c7ad 55bc
00000010: 5fb0 13bd b80e 043c 4cc5 223d 46ef 6bb8
00000020: d889 6c3b 4e34 1fbd d76a 4d3d f343 783c
00000030: a885 acbc bf69 283d ca01 4bbc af2e 593d
00000040: 6c69 a7bc a99d 32bb e122 e2bd 0899 1f3d
00000050: 1dc0 fabc 20e1 e2bc 93e1 99bb adcb b93b
00000060: 5e64 ccbd 1228 33bc c1d9 84bc 03f2 943b
00000070: fab1 803d f2ee 20bd 0937 063c e781 3b3d
00000080: 67bd 36bc b883 d3bc d5cf bcbb 2ba8 083b
00000090: d031 31bd 8da2 d43b 55ca b43d 9d32 21bd
000000a0: 18f6 b1bb f32a 723c 1acc 893d ef78 333c
000000b0: 20e4 0e3d a8d8 b43b 5a19 87bc d640 3e3c
000000c0: 7db0 d6bb ff0e 813b f667 afbd 6c01 b93c
000000d0: 6b3e 97bc fd3e b3bc 345d 43bc 4f39 f33a
000000e0: effa 683d 84cf f43b c298 de3c 4671 bbbc
000000f0: cb61 2e3d ac5d 1cbd 6b3b 7dbc 6d69 9e3c
00000100: 7aeb 73bb 9cbc d0bc 4175 bcbd 7501 a33d
00000110: 0f1d cc3c 9170 bbbc c8cd eb3c eef2 083c
00000120: bda0 243d 8624 88bd ce96 bfbb c700 103d
00000130: 104d 5bbd de8d 833c f9f1 30bc eaa4 40bc
00000140: 7ee5 223c 5d62 913c 7654 e9ba 6dff 4fbd
00000150: 0f04 603d 660b a43c 19ff e43c a89f 96bc
00000160: 77ec bdbc 1486 393d 3e3a c43b ae29 e3bd
00000170: 984d 08ba 90cc 15bc 0270 5abd 4fbd 053d
00000180: dc9d 36be 7175 5ebc a13b edba 6801 a93c
00000190: ca28 40bc 1a76 d1bb e477 623c 92bb 26bc
000001a0: 1a34 14be 3d9b 013d e156 76bc e98b 933c
000001b0: 62f9 1c3c 7482 e2bb 76ab fcbb 60d6 513c
000001c0: 8b7d 173c 68cb c9bc 71c1 ae3c 614c 003d
000001d0: 80dd 7e3c eaa4 7c3d 934b 253d c423 5b3c
000001e0: e39b 9f3a c665 bcbc 4687 56bd 4280 753c
000001f0: 27f2 1e3d 3f60 093d 9e00 af3c a1ed 91ba
00000200: 650d 363d 66be 383d f388 8f3b 8e4d 653c
00000210: 6f27 5f3d 9794 b6bd b790 953c 32cb 97bd
00000220: 4d5e cd3c cf8d 933c 1b03 0f3d 9d14 ee3c
00000230: 9c16 61bb 99c5 1c3d de55 2c3b 1db9 2fbd
00000240: 4520 e83c bea3 223d a3a4 66bd 97df 463c
00000250: 355f 8fbd 4b9e 163d d41d 323d 1f9c 81bb
00000260: 454c 0e3e 88cc 85bb 796b d13d 9dbf 1bbd
00000270: 517f 24bd 2d05 633c 90e6 4d3d c87e a53c
00000280: c2c6 bc3c a51a bb3c dc0d ff3b 0657 6fbd
00000290: cfdd 2cbc cf1c 85bd 417b 20bd 9edb ad3d
000002a0: b6cb bcbb 04fd 1d3d fbd6 883b 5099 85bc
000002b0: 8d25 973b 68ad bb3c 7b05 333c 66e4 9ab9
000002c0: 2de7 a23d ea8f 0ebd d45f 703c 4aca 4f3c
000002d0: 5ab7 3d3d 65a3 203d cb7d 3abd f664 8cbc
000002e0: 8484 803d db45 b73c 4405 3d3c 9cd7 653d
000002f0: 1a01 2e3d 92cd 043d 8c6c fa3c cafc 5dbd
00000300: ceda cdbc fe2f 483d df83 fd3c 0c8a 92bc
00000310: 922e c03b cc23 d1b8 b5eb 06bc 8b27 9abc
00000320: 282d 11bc 98b0 4d3d decc 87bd 0309 d8bc
00000330: 80fb a93d 2ed9 88bd a28b b73c 09fd 5c3d
00000340: e4f3 55bd dcac 963c f6f5 033d 8e41 833d
00000350: ff75 fe3c 2cc2 ed3c b5d1 7abd ba28 f03c
00000360: 2aa4 6d3d bb49 88bc 22f7 4dbb b698 aa3d
00000370: 2884 123d 8adc a5bb f523 debc 2ae7 a83a
00000380: 4df2 403d 0d14 85bc 2081 9e3d 5a35 ad3b
00000390: 39a7 1f3d ede0 9dbc 4396 3bbc 6268 063d
000003a0: 3205 3e3d c248 83bd 577b 31bc 4091 ffbc
000003b0: d3e1 1dbd 4735 e0bb 3962 9f3d 6376 0abd
000003c0: 3535 abbc f5d2 98bc 2665 a93d 63f1 a1bc
000003d0: 524d 25bd 8e45 5abd 633e 2bbb 7e05 90bc
000003e0: 7d87 5d3d c194 033d 469a ef3d 78cb 6fbb
000003f0: 11f6 bebd b76c 58bd 8e23 50bc ddfc 4d3d

action_model._discrete_distribution.branches.0.bias f4 [3]
-0.008986756 0.0011275214 0.011119363
00000000: 303d 13bc 57c9 933a fd2d 363c

action_model._discrete_distribution.branches.1.weight f4 [2, 128]
0.0152205955 0.03918859 -0.03711634 0.06567621 0.037560705 0.02988506 0.018781472 -0.003651838
-0.0052028676 0.0052143615 -0.08873021 -0.019392572 0.049645957 0.0636872 0.034262456 -0.055404358
0.07791493 0.011993248 0.07885817 0.011949276 -0.06993524 -0.05047644 0.07128676 0.028363839
0.0071863094 -0.071664184 -0.033159234 -0.09532143 -0.003610167 0.01150856 -0.17799507 -0.1272305
0.025308754 0.05338698 0.050702013 0.04096925 0.030043812 -0.096038 0.015777448 0.032450758
-0.14372353 -0.073177375 0.06094037 0.03209862 -0.18621667 0.005738249 0.024026103 -0.020327393
-0.005610611 -0.047045212 0.06624528 0.03255912 0.021957338 0.061122943 0.083404064 -0.0012500965
-0.05056226 0.010365665 0.019258006 0.09354218 -0.05711942 0.017458567 0.13917197 0.05731303
0.0053770496 0.11012329 0.04394749 -0.0026816316 0.006197291 0.041942213 0.06580127 0.07982915
0.04357071 0.043610357 -0.117842495 -0.019913921 0.05914337 -0.06752481 -0.12956348 0.061103523
-0.0676871 -0.14880079 0.093249194 0.01709792 -0.02089274 -0.10716619 -0.008726923 0.021316752
0.013056309 0.04885233 0.08992426 0.07650182 0.045124453 0.068457395 -0.00015774794 -0.014644115
0.033722006 0.058813613 0.055629376 -0.0016070826 -0.035049576 0.098032534 0.047491062 0.08255938
0.019465262 0.061189987 -0.07480531 -0.008754626 0.043478377 0.03571301 0.021559328 0.0102810785
-0.05500349 -0.056996945 -0.19039491 0.012516399 -0.14129744 0.020125981 0.034674548 -0.16262142
0.06722103 -0.002170252 0.012614065 -0.019173881 0.028921088 -0.007088404 0.026520777 0.019440478
-0.015913704 -0.0534439 0.028263561 -0.055927884 -0.033661634 -0.041787617 -0.018546822 0.009580665
-0.018837996 0.0014258374 0.075825855 0.010010907 -0.031593762 -0.06162696 -0.02265916 0.06591559
-0.0643708 -0.010920272 -0.074385285 0.00018031895 0.11759921 0.048277974 -0.08165096 -0.04845099
0.0022119319 0.078813 0.015076943 0.1244999 -0.010928345 -0.016913582 0.16701166 0.12663372
-0.0038514792 -0.061369605 -0.043090172 -0.06329959 -0.021622753 0.098495446 -0.008909022 -0.037147753
0.15508403 0.067365274 -0.07482231 -0.019497007 0.19980028 0.0075154128 -0.0067163175 0.026935032
-0.0027798316 0.056368142 -0.07889412 -0.009769059 -0.03819089 -0.05080234 -0.072028704 0.0033579108
0.05494948 -0.006089907 -0.00087532925 -0.0775685 0.074633814 -0.0025432752 -0.11012395 -0.06654153
-0.004494539 -0.115800135 -0.042153656 0.014821856 0.018340286 -0.03994616 -0.07139734 -0.08148455
-0.05832056 -0.045722272 0.11552338 0.0303612 -0.09015405 0.083273746 0.1286466 -0.052631214
0.07456414 0.15963803 -0.11126957 -0.0092236 -0.0036810245 0.11078233 0.017860837 -0.018946147
-0.021941168 -0.06354571 -0.080202915 -0.055690777 -0.033702347 -0.087292425 0.005830334 0.012785399
-0.038145125 -0.05188263 -0.05517175 0.01374796 0.036067195 -0.09717129 -0.035237998 -0.10302389
-0.024494518 -0.048022628 0.06890661 0.012259033 -0.047684412 -0.063120656 -0.0040461817 0.0061954623
0.053615447 0.052631382 0.19493589 -0.022291368 0.12764363 -0.020174481 -0.022981739 0.18197119
-0.07684647 0.011116586 -0.015765617 0.026600447 -0.04041843 0.0044966144 -0.008670133 -0.017648257
00000000: ce5f 793c 3784 203d 4e07 18bd 4081 863d
00000010: 41d9 193d 83d1 f43c 9adb 993c ad53 6fbb
00000020: d17c aabb 3cdd aa3b 2fb8 b5bd 2cdd 9ebc
00000030: 8f59 4b3d 6f6e 823d ca56 0c3d aeef 62bd
00000040: dd91 9f3d 547f 443c 6480 a13d e5c6 433c
00000050: 353a 8fbd 62c0 4ebd cbfe 913d 485b e83c
00000060: 227b eb3b acc4 92bd fad1 07bd e237 c3bd
00000070: 8d98 6cbb 668e 3c3c 5744 36be b648 02be
00000080: 4e54 cf3c 4eac 5a3d eaac 4f3d 5fcf 273d
00000090: 711e f63c 92af c4bd b53f 813c 16eb 043d
000000a0: 432c 13be 05de 95bd 9c9c 793d d879 033d
000000b0: 95af 3ebe ec07 bc3b 64d2 c43c a285 a6bc
000000c0: 37d9 b7bb 7bb2 40bd 9bab 873d b65c 053d
000000d0: e0df b33c 0d5c 7a3d c0cf aa3d 47da a3ba
000000e0: 5f1a 4fbd c0d4 293c f7c2 9d3c 0b93 bf3d
000000f0: 0ef6 69bd 4505 8f3c 1983 0e3e 11c1 6a3d
00000100: f631 b03b 5288 e13d 4902 343d 50be 2fbb
00000110: a512 cb3b 99cb 2b3d d1c2 863d 777d a33d
00000120: 3377 323d c6a0 323d 6857 f1bd 8522 a3bc
00000130: 5140 723d 734a 8abd 4aac 04be b047 7a3d
00000140: 899f 8abd 3c5f 18be 6ff9 be3d f010 8c3c
00000150: 4027 abbc f379 dbbd 5efb 0ebc 78a0 ae3c
00000160: 21ea 553c 6119 483d 362a b83d fcac 9c3d
00000170: 6bd4 383d 6433 8c3d 2469 25b9 dfed 6fbc
00000180: 1620 0a3d 8be6 703d a1db 633d bea4 d2ba
00000190: 2590 0fbd 48c5 c83d fd85 423d e414 a93d
000001a0: 9d75 9f3c 5aa2 7a3d 8733 99bd 906f 0fbc
000001b0: 6216 323d ce47 123d 309d b03c f871 283c
000001c0: 574b 61bd a175 69bd e2f6 42be 9511 4d3c
000001d0: 47b0 10be 3edf a43c e606 0e3d 3b86 26be
000001e0: 2eab 893d c93a 0ebb 39ab 4e3c 8b12 9dbc
000001f0: ebeb ec3c d845 e8bb 1a42 d93c a341 9f3c
00000200: 755d 82bc fee7 5abd fc88 e73c a314 65bd
00000210: c8e0 09bd 7e29 2bbd 81ef 97bc 39f8 1c3c
00000220: 2452 9abc 2ae3 ba3a 964a 9b3d ca04 243c
00000230: 7668 01bd 8d6c 7cbd b49f b9bc c1fe 863d
00000240: d7d4 83bd f1ea 32bc 5057 98bd 0014 3d39
00000250: dbd7 f03d 20bf 453d 9e38 a7bd 8c74 46bd
00000260: 0ff6 103b b668 a13d 4805 773c cef9 fe3d
00000270: cd0c 33bc 5a8e 8abc 1b05 2b3e 45ac 013e
00000280: 1969 7cbb b25e 7bbd 527f 30bd 37a3 81bd
00000290: 3322 b1bc fbb7 c93d 26f7 11bc 3e28 18bd
000002a0: 59ce 1e3e cef6 893d 703c 99bd 30b8 9fbc
000002b0: 7298 4c3e da43 f63b 8e14 dcbb dba6 dc3c
000002c0: d62d 36bb 48e2 663d 3e93 a1bd 670e 20bc
000002d0: 0d6e 1cbd 1d16 50bd c983 93bd 6510 5c3b
000002e0: b512 613d d88d c7bb 5a76 65ba 3cdc 9ebd
000002f0: 9dd9 983d 14ad 26bb aa88 e1bd ed46 88bd
00000300: ed46 93bb 9f28 edbd 50a9 2cbd 5fd7 723c
00000310: 5e3e 963c 969e 23bd c538 92bd 5fe1 a6bd
00000320: 8ae1 6ebd 4747 3bbd 8697 ec3d 0db8 f83c
00000330: b0a2 b8bd 6d8b aa3d efbb 033e d493 57bd
00000340: 15b5 983d 2778 233e 4de1 e3bd 951e 17bc
00000350: 583d 71bb d9e1 e23d e450 923c f334 9bbc
00000360: f7bd b3bc 4124 82bd 6d41 a4bd 031c 64bd
00000370: 790b 0abd 5fc6 b2bd 630c bf3b da79 513c
00000380: 103e 1cbd e182 54bd c6fb 61bd 203f 613c
00000390: 32bb 133d be01 c7bd b855 10bd 30fe d2bd
000003a0: baa8 c8bc 60b3 44bd e91e 8d3d 1cda 483c
000003b0: bb50 43bd 6745 81bd d595 84bb 4e03 cb3b
000003c0: df9b 5b3d 0194 573d 469d 473e 639c b6bc
000003d0: 03b5 023e f444 a5bc 3344 bcbc a856 3a3e
000003e0: af61 9dbd 5722 363c e526 81bc 2ee9 d93c
000003f0: cc8d 25bd 5658 933b 2c0d 0ebc 1493 90bc

action_model._discrete_distribution.branches.1.bias f4 [2]
-0.058507524 0.058507524
00000000: 96a5 6fbd 96a5 6f3d

action_model._discrete_distribution.branches.2.weight f4 [3, 128]
0.04666645 0.053593237 0.016898533 -0.034643505 -0.047535595 -0.018953267 0.10096635 -0.02160005
-0.059215467 -0.061187755 0.041406225 -0.024997057 -0.003393126 0.031284083 -0.04319915 0.034380145
0.04738552 0.04985782 -0.03995122 0.031367827 0.04015399 0.016862337 0.032902442 0.021984179
-0.023714634 0.014209068 0.080939665 -0.042030767 -0.0073663113 -0.060184322 0.010318277 -0.024934389
0.049861256 0.0053269044 -0.023055345 -0.057714283 0.02663422 -0.052591853 0.030655546 -0.03998101
0.024215471 0.0223853 0.08310576 -0.017127337 0.0008076839 0.039235823 -0.0069054333 0.013843275
-0.035070818 0.0039729658 -0.015469016 0.053324193 0.02701011 -0.00035306625 -0.029127354 -0.13701233
-0.036249697 0.07895113 0.09957705 -0.028582858 0.014924842 0.0043588923 -0.07938354 -0.030217608
-0.00860757 -0.0015925763 -0.049957275 -0.0047109593 0.024122898 -0.0019088619 -0.014325454 -0.04798249
0.07685168 0.07093053 -0.035425443 0.012843546 0.008578915 -0.010626372 -0.03559582 -0.08189776
0.0102689285 -0.035857003 0.017181687 -0.0803592 0.03283607 0.028433312 -0.009574494 -0.06772949
0.08526128 -0.031909063 -0.013768166 -0.10287438 -0.0015269591 0.039000645 0.019264586 -0.00096688344
-0.05939906 0.069989346 -0.001019412 0.008911476 -0.0030363924 -0.0381033 -0.0028759826 -0.065658756
0.07390364 0.05000417 -0.03215274 -0.022956725 -0.018778933 0.070077606 0.07738976 0.043850563
0.006243889 0.0009821935 0.0069445036 -0.0073193097 0.0051591187 0.026084112 0.01126234 0.0010719326
0.0665787 -0.02973002 -0.05638083 0.050904833 -0.028407207 0.013249598 0.023123281 0.009046473
-0.12510575 -0.07046722 0.017676981 0.04256031 0.034414314 0.04055304 -0.036325313 0.10534938
-0.030110272 0.05597309 -0.0032513172 -0.04343036 -0.028488914 -0.053749073 0.07850685 0.016244104
0.010160102 -0.032767404 0.08962519 0.003429392 0.020330282 -0.020985806 -0.055345688 -0.033771135
0.023663064 0.019638944 -0.028497215 0.029314233 -0.010743319 0.011747477 -0.01276721 -0.00020294824
-0.062373403 0.04788639 -0.0014501914 -0.0102803055 -0.09406508 -0.0055339835 -0.011071609 0.02964758
-0.00935311 -0.010631904 -0.10541996 -0.020789932 -0.01115447 -0.053130474 -0.014697353 -0.029393107
-0.0042118873 -0.09386583 0.033644572 -0.05499827 -0.037470356 -0.01914391 -0.03282078 0.10614348
0.14183983 -0.03612524 -0.02599781 0.039194662 0.008710238 -0.07457425 0.01564916 0.029403588
0.039513692 0.024539834 0.021868637 -0.013406948 -0.00020275362 0.09099411 0.004931156 0.04752106
-0.05567915 -1.7784092e-05 -0.012684108 0.020801976 -0.031646945 -0.015202759 0.032101434 0.042656668
-0.09437849 0.0040675667 0.0006011533 0.032587208 -0.036577035 -0.020371605 -0.0017861712 0.065402456
-0.03872298 0.024398003 -0.0109964255 0.049434476 0.03560791 0.0008176986 -0.040205434 -0.009575817
0.035268888 -0.03807137 0.017498633 -0.05706401 -0.0008822558 -0.0066253566 -0.046128985 0.020000273
-0.12821878 -0.040595584 -0.041703485 0.026789453 0.009375025 -0.08510322 -0.064919226 -0.044301763
-0.008745463 0.06119828 0.021347314 -0.024423938 -0.020971205 0.06802501 -0.010433108 0.05178197
-0.06773657 -0.012286606 0.103069395 -0.0061587384 0.034637462 0.0028964109 -0.08045079 0.06702825
00000000: 5225 3f3d 9584 5b3d cb6e 8a3c 59e6 0dbd
00000010: afb4 42bd e243 9bbc 72c7 ce3d 97f2 b0bc
00000020: eb8b 72bd 03a0 7abd 9399 293d a1c6 ccbc
00000030: 355f 5ebb bd23 003d 98f1 30bd 32d2 0c3d
00000040: 5217 423d b737 4c3d e4a3 23bd 8d7b 003d
00000050: 8378 243d e222 8a3c b6c4 063d 2a18 b43c
00000060: 3145 c2bc 27cd 683c b2c3 a53d 7428 2cbd
00000070: 1961 f1bb d683 76bd fe0d 293c 3443 ccbc
00000080: 513b 4c3d 508d ae3b 90de bcbc d065 6cbd
00000090: 0230 da3c 8e6a 57bd 5721 fb3c 21c3 23bd
000000a0: 865f c63c 6061 b73c 5a33 aa3d a14e 8cbc
000000b0: c0ba 533a beb5 203d f946 e2bb e7ce 623c
000000c0: 6ba6 0fbd a72f 823b c171 7dbc 786a 5a3d
000000d0: 4e44 dd3c c01b b9b9 7d9c eebc f64c 0cbe
000000e0: 907a 14bd 21b1 a13d 0def cb3d 9926 eabc
000000f0: 5387 743c 0ad5 8e3b d693 a2bd eb8a f7bc
00000100: c406 0dbc febd d0ba 00a0 4cbd 645e 9abb
00000110: 629d c53c c732 faba 4fb5 6abc 4a89 44bd
00000120: 6a64 9d3d 0744 913d 451a 11bd bd6d 523c
00000130: 948e 0c3c 3c1a 2ebc eccc 11bd 03ba a7bd
00000140: 023f 283c cbde 12bd 9cc0 8c3c 5d93 a4bd
00000150: 1d7f 063d faec e83c 57de 1cbc c2b5 8abd
00000160: 779d ae3d 14b3 02bd e093 61bc ceaf d2bd
00000170: 3f24 c8ba 24bf 1f3d c4d0 9d3c 7376 7dba
00000180: 6e4c 73bd 9356 8f3d ca9d 85ba 7001 123c
00000190: 36fe 46bb 3512 1cbd fb7a 3cbb 1978 86bd
000001a0: cb5a 973d 2cd1 4c3d 97b2 03bd be0f bcbc
000001b0: 47d6 99bc d984 8f3d 867e 9e3d a69c 333d
000001c0: 8a99 cc3b f2bc 803a b88e e33b d2d6 efbb
000001d0: d30d a93b 59ae d53c ad85 383c 1780 8c3a
000001e0: 6a5a 883d 5f8c f3bc 96ef 66bd 9681 503d
000001f0: 3bb6 e8bc d814 593c 096d bd3c a837 143c
00000200: b91b 00be 1e51 90bd 51cf 903c b853 2e3d
00000210: 06f6 0c3d f21a 263d dac9 14bd 6ac1 d73d
00000220: d1a9 f6bc 0a44 653d 0d14 55bb 08e4 31bd
00000230: 9561 e9bc fd27 5cbd 33c8 a03d 5b12 853c
00000240: 8e76 263c 1d37 06bd 698d b73d a6bf 603b
00000250: b18b a63c 6dea abbc 29b2 62bd 9a53 0abd
00000260: 0bd9 c13c dae1 a03c fe72 e9bc 6724 f03c
00000270: bf04 30bc 7d78 403c 8f2d 51bc 81ce 54b9
00000280: 417b 7fbd 8524 443d 5914 beba ba6e 28bc
00000290: 31a5 c0bd 6b56 b5bb b265 35bc 7bdf f23c
000002a0: c93d 19bc 7031 2ebc 6ce6 d7bd a64f aabc
000002b0: 3dc1 36bc 579f 59bd 2bcd 70bc d0c9 f0bc
000002c0: df03 8abb ba3c c0bd e4ce 093d de45 61bd
000002d0: 847a 19bd b0d3 9cbc 156f 06bd c161 d93d
000002e0: 763e 113e 0ff8 13bd 5cf9 d4bc 958a 203d
000002f0: 63b5 0e3c 62ba 98bd ab32 803c cbdf f03c
00000300: 1cd9 213d c307 c93c db25 b33c d1a8 5bbc
00000310: 439a 54b9 1f5b ba3d 8995 a13b 71a5 423d
00000320: d20f 64bd 0c2f 95b7 01d1 4fbc e868 aa3c
00000330: 3aa0 01bd fe14 79bc cb7c 033d c2b8 2e3d
00000340: 8249 c1bd 3949 853b b796 1d3a 2a7a 053d
00000350: cdd1 15bd 5ae2 a6bc f61d eaba b9f1 853d
00000360: fd9b 1ebd 52de c73c 5a2a 34bc ce7b 4a3d
00000370: 9ad9 113d d35a 563a 74ae 24bd e3e3 1cbc
00000380: 1c76 103d baf0 1bbd 4b59 8f3c f4bb 69bd
00000390: 2f47 67ba 8519 d9bb bff1 3cbd 9dd7 a33c
000003a0: c94b 03be 8e47 26bd 46d1 2abd 8e75 db3c
000003b0: b499 193c 994a aebd 5ff4 84bd c475 35bd
000003c0: 2149 0fbc 0cab 7a3d 90e0 ae3c b614 c8bc
000003d0: cecb abbc b250 8b3d a0ef 2abc 5519 543d
000003e0: 79b9 8abd c34d 49bc 0c16 d33d 3ecf c9bb
000003f0: 03e0 0d3d b6d1 3d3b 62c3 a4bd 1b46 893d

action_model._discrete_distribution.branches.2.bias f4 [3]
0.019476347 0.009100642 -0.022206051
00000000: dc8c 9f3c dc1a 153c 77e9 b5bc
