results/Hard_2/Player/Player-604109.pt (torch, 893662 bytes, 72 tensors)

discrete_act_size_vector f4 [1, 4]
0	0x40400000	3.0
1	0x40000000	2.0
2	0x40400000	3.0
3	0x40400000	3.0

network_body.observation_encoder.processors.0.normalizer.running_mean f4 [15]
0	0xbed52ae9	-0.416343
1	0xc0de3d7b	-6.945005
2	0x4031bb8d	2.7770722
3	0x416f42a5	14.953771
4	0x40b76925	5.731585
5	0x4142c179	12.172235
6	0x409ff265	4.998339
7	0x40cda058	6.425823
8	0xbf38fb6a	-0.7225863
9	0xc0afcb88	-5.493595
10	0x3fe7cc96	1.810931
11	0x3eabc421	0.33548072
12	0xbeb4fbb6	-0.3534829
13	0xbda27169	-0.079317875
14	0x3b61450b	0.0034373428

network_body.observation_encoder.processors.0.normalizer.running_variance f4 [15]
0	0x4d09ab45	1.4435643e+08
1	0x450e396f	2275.5896
2	0x4b2fcc18	1.1521048e+07
3	0x4cd49082	1.1144501e+08
4	0x4b9600d3	1.9661222e+07
5	0x4c88b03a	7.166408e+07
6	0x4a491d2c	3.295051e+06
7	0x4a48e38c	3.291363e+06
8	0x4c5c18c2	5.769703e+07
9	0x4b80155b	1.678815e+07
10	0x4b66063a	1.5074874e+07
11	0x4d453948	2.068041e+08
12	0x4acb1e2d	6.6557665e+06
13	0x4b4de135	1.3492533e+07
14	0x455a5769	3493.4631

network_body.processors.0.normalizer.running_mean f4 [15]
0	0xbed52ae9	-0.416343
1	0xc0de3d7b	-6.945005
2	0x4031bb8d	2.7770722
3	0x416f42a5	14.953771
4	0x40b76925	5.731585
5	0x4142c179	12.172235
6	0x409ff265	4.998339
7	0x40cda058	6.425823
8	0xbf38fb6a	-0.7225863
9	0xc0afcb88	-5.493595
10	0x3fe7cc96	1.810931
11	0x3eabc421	0.33548072
12	0xbeb4fbb6	-0.3534829
13	0xbda27169	-0.079317875
14	0x3b61450b	0.0034373428

network_body.processors.0.normalizer.running_variance f4 [15]
0	0x4d09ab45	1.4435643e+08
1	0x450e396f	2275.5896
2	0x4b2fcc18	1.1521048e+07
3	0x4cd49082	1.1144501e+08
4	0x4b9600d3	1.9661222e+07
5	0x4c88b03a	7.166408e+07
6	0x4a491d2c	3.295051e+06
7	0x4a48e38c	3.291363e+06
8	0x4c5c18c2	5.769703e+07
9	0x4b80155b	1.678815e+07
10	0x4b66063a	1.5074874e+07
11	0x4d453948	2.068041e+08
12	0x4acb1e2d	6.6557665e+06
13	0x4b4de135	1.3492533e+07
14	0x455a5769	3493.4631

network_body._body_endoder.seq_layers.0.weight f4 [128, 15]
0	0x3e94464b	0.2895988
1	0xbf14fb0d	-0.58195573
2	0xbed49e70	-0.41527128
3	0xbce980b2	-0.02850375
4	0x3ea17916	0.31537694
5	0xbccbd565	-0.024882028
6	0xbea3602b	-0.31909308
7	0x3edfe26c	0.43727434
8	0x3e88a27f	0.26686475
9	0x3cdecb1e	0.027196463
10	0xbedfa310	-0.43679094
11	0x3dbe484a	0.09291132
12	0x3d802948	0.06257874
13	0xbd15dc49	-0.036587033
14	0xbe48c735	-0.19607241
15	0xbecd1d41	-0.4006138
16	0xbd5d4c1a	-0.054027654
17	0xbe449ff3	-0.19201641
18	0x3dbd196a	0.09233363
19	0x3eb1191d	0.34589472
20	0x3ce7a0cf	0.028274922
21	0x3df7fedd	0.12109158
22	0x3e52ce62	0.20586541
23	0x3d3dbbed	0.046321798
24	0xbe7cc765	-0.24685438
25	0xbe2313d7	-0.15925537
26	0x3dd24744	0.10267499
27	0xbe9c7f6b	-0.30565962
28	0xbeb10937	-0.34577343
29	0x3efc1bf2	0.4924007
30	0xbf0f94c2	-0.5608636
31	0xbe6a088f	-0.22854827
32	0x3e25c187	0.16187106
33	0x3ea79be7	0.32736132
34	0x3dd4697c	0.10371682
35	0x3e4344b7	0.19069181
36	0x3eba6a15	0.3640906
37	0xbe913656	-0.28361768
38	0x3e204d64	0.15654522
39	0xbeb92605	-0.3616182
40	0x3f001656	0.5003408
41	0xbcb7620a	-0.022385616
42	0xbead7a74	-0.33882487
43	0xbebb20e8	-0.36548543
44	0xbde10029	-0.10986359
45	0xbe6ffc95	-0.23436196
46	0x3df8b210	0.12143338
47	0x3e8f099a	0.27937013
48	0xbf1553e3	-0.58331126
49	0x3cc773c5	0.024347195
50	0x3e491d2e	0.19640037
51	0x3edb93a4	0.42886078
52	0xbe81dcda	-0.2536381
53	0x3e6ff552	0.23433426
54	0xbe6b1e1c	-0.22960705
55	0x3e7fce46	0.24981031
56	0x3ea71389	0.32632092
57	0xbd0f3dbc	-0.034970984
58	0xbe8a0350	-0.26955652
59	0xbe54072d	-0.20705862
60	0xbe7d6659	-0.24746074
61	0x3e818bb8	0.2530191
62	0x3e92306b	0.28552565
63	0x3f043480	0.5164261
64	0x3e45548f	0.19270538
65	0xbc7c5383	-0.01540077
66	0xbdef875f	-0.11695742
67	0xbe0e8565	-0.13918073
68	0xbe8ed052	-0.2789331
69	0xbf0064e5	-0.5015395
70	0xbefc4e95	-0.49278703
71	0xbe78156f	-0.24226926
72	0xbbb917e6	-0.005648601
73	0x3c5eb1a7	0.01359216
74	0xbe950b5d	-0.29110232
75	0x3e29a880	0.16568184
76	0x3ee09ab6	0.43868035
77	0xbe005bdb	-0.1253504
78	0xbe8690ae	-0.26282257
79	0xbe16779f	-0.1469407
80	0x3e171ca9	0.14757027
81	0xbe10016c	-0.14063042
82	0x3e698c4a	0.22807422
83	0xbe55bb3f	-0.2087221
84	0xbbe64719	-0.0070275185
85	0x3e58c8b5	0.21170314
86	0xbe4cb0b7	-0.19989286
87	0xbea6e8b1	-0.32599404
88	0x3f0f2b51	0.5592547
89	0xbe95cb7e	-0.29256815
90	0x3ebfe67c	0.37480533
91	0x3ebbd6b6	0.3668725
92	0x3e7beb9f	0.24601601
93	0xbf074b82	-0.5284959
94	0xbcdee983	-0.027210956
95	0xbe3fbf34	-0.18725282
96	0x3e947bd5	0.29000726
97	0x3e8f9b80	0.28048325
98	0xbf0b02f1	-0.54301363
99	0x3e4d766c	0.20064706
100	0x3eea8119	0.4580162
101	0x3ef0cdca	0.47032005
102	0xbd830f7b	-0.06399437
103	0xbc15ab1a	-0.009135032
104	0xbef6fa68	-0.4823792
105	0xbd267a7a	-0.040644147
106	0x3f1eeaf0	0.62077236
107	0xbe8bf8a8	-0.27338147
108	0x3f24d378	0.64385176
109	0xbdf07661	-0.11741329
110	0x3e235f82	0.15954402
111	0x3e0c012f	0.13672327
112	0x3e8d950c	0.27652776
113	0xbc13ffc0	-0.0090331435
114	0x3e08f58b	0.13374917
115	0x3d2ae69c	0.041723832
116	0x3e1f199b	0.15537111
117	0x3f2fb35e	0.6863307
118	0x3e6cc34d	0.23121376
119	0x3e8fbbdb	0.2807301
120	0xbdf84ae1	-0.12123657
121	0x3d968533	0.073496245
122	0xbf15ae72	-0.5846931
123	0xbe2ec4c1	-0.17067243
124	0xbdf749ca	-0.12074621
125	0x3d13de9d	0.036100972
126	0xbf1d956f	-0.6155614
127	0x3f088c43	0.5333902
128	0x3f067b88	0.52532244
129	0x3e5bc2e6	0.21461067
130	0xbe31d69e	-0.17367026
131	0xbe2df863	-0.16989283
132	0xbe543fc8	-0.20727456
133	0x3e152a21	0.14566852
134	0xbe0b74ac	-0.13618726
135	0xbdef11b9	-0.11673302
136	0xbd6e0aa7	-0.058115628
137	0x3ee3af28	0.4446957
138	0x3e301319	0.17194785
139	0x3e4c270e	0.19936773
140	0x3e03c61f	0.12868546
141	0xbe6c89d8	-0.23099458
142	0x3e93ca0a	0.2886508
143	0x3ec0e3ba	0.37673742
144	0xbeddcaac	-0.4331869
145	0xbe855217	-0.26039192
146	0x3e83c32d	0.25734845
147	0xbcd8bde8	-0.026457742
148	0xbe0674d0	-0.13130498
149	0xbeb91880	-0.36151505
150	0xbe21a99a	-0.15787354
151	0x3d0c7c02	0.03429795
152	0x3eddb67d	0.4330329
153	0x3f01b126	0.5066093
154	0x3f0d2140	0.5512886
155	0x3e8e054d	0.2773842
156	0xbeefe835	-0.46856847
157	0x3e365bfd	0.17808528
158	0xbbebaf9f	-0.0071925665
159	0x3e71e738	0.23623359
160	0x3e053e08	0.13011944
161	0xbdf0953e	-0.11747216
162	0xbe9e2e70	-0.30894804
163	0xbe02ab26	-0.127606
164	0x3d89e957	0.06733959
165	0xbee31135	-0.44349065
166	0x3dc18c1a	0.094505504
167	0xbe9c4349	-0.30520085
168	0xbf5d9aa8	-0.8656411
169	0x3dc77f46	0.09741072
170	0xbe922bf8	-0.2854917
171	0xbd4a05bf	-0.049321886
172	0xbe6fe2f5	-0.23426421
173	0x3e029d2b	0.12755267
174	0x3eb047cb	0.34429774
175	0xbe5ebe10	-0.2175219
176	0x3f070359	0.52739483
177	0xbe2a4e9f	-0.16631554
178	0x3e3f2b12	0.18668774
179	0xbde521e5	-0.111881055
180	0x3ef50191	0.47852758
181	0xbdb1f5c1	-0.08689452
182	0xbee2afa3	-0.44274625
183	0xbe18cf96	-0.14922938
184	0x3c8f8260	0.017518222
185	0x3d84a377	0.06476491
186	0x3d9af5e4	0.07566431
187	0x3c860fa0	0.016364872
188	0xbeb86363	-0.36013326
189	0xbe545c11	-0.20738246
190	0x3f50519e	0.8137454
191	0x3e337ed0	0.17528844
192	0xbf0a92e7	-0.54130405
193	0x3ec45526	0.38346213
194	0x3e58e6a5	0.21181734
195	0x3ec83cac	0.3910879
196	0x3c9a5316	0.018838447
197	0xbeecc320	-0.4624262
198	0x3bd53ae3	0.006507264
199	0xbf296ce3	-0.6618177
200	0x3daac64e	0.08338605
201	0xbdc61a80	-0.09673023
202	0xbe5e4439	-0.21705712
203	0x3d83760b	0.06418999
204	0xbd92bf72	-0.071654215
205	0x3f0c0ede	0.54710186
206	0xbc130b20	-0.00897482
207	0x3e4a0d88	0.19731724
208	0xbf294a5a	-0.66129076
209	0xbddf6394	-0.10907665
210	0xbf0889ff	-0.53335565
211	0xbebe9899	-0.37225798
212	0xbea58c3b	-0.3233355
213	0xbed2de8d	-0.41185418
214	0xbd00b08c	-0.03141837
215	0xbea11fc4	-0.31469548
216	0x3e8ad83e	0.27118105
217	0xbe09806a	-0.13427892
218	0xbebe210c	-0.37134588
219	0xbe8d0196	-0.27540272
220	0x3e545e08	0.20738995
221	0x3e553f8a	0.2082502
222	0x3b99ce94	0.0046938155
223	0xbe74639e	-0.23866126
224	0xbe2c3765	-0.16818006
225	0x3c2ceefb	0.010555024
226	0x3f329a4c	0.6976669
227	0x3e13e31c	0.14442104
228	0xbf3119e0	-0.6918011
229	0x3e72ee6c	0.23723763
230	0x3e2c1bbd	0.16807456
231	0x3eb2cac1	0.34920314
232	0xbe899a88	-0.2687571
233	0xbea3f28a	-0.3202098
234	0xbe5e0837	-0.21682821
235	0xbe9bb3c6	-0.30410594
236	0xbe36856e	-0.17824337
237	0x3f0ccfff	0.55004877
238	0x3da188f2	0.07887448
239	0xbd5ede51	-0.054411236
240	0x3e5b9320	0.21442842
241	0x3da5cca2	0.08095671
242	0xbe9709ff	-0.29499814
243	0xbd7e37ea	-0.062065043
244	0x3f1fb3ea	0.623839
245	0x3eca192d	0.39472333
246	0x3d253cec	0.040341303
247	0x3eb454bf	0.35220906
248	0xbefb0d56	-0.49033612
249	0xbe822c88	-0.254246
250	0x3f15593a	0.58339274
251	0x3e0322cf	0.12806247
252	0x3e05c948	0.13065064
253	0xbe5710fb	-0.21002571
254	0x3dc2701c	0.094940394
255	0x3d4f978e	0.050681643

network_body._body_endoder.seq_layers.0.bias f4 [128]
0	0xbd01a424	-0.031650677
1	0xbda8e57d	-0.082468964
2	0xbddab9f3	-0.10679998
3	0xbd5306f0	-0.051520288
4	0xbd5d0ad6	-0.053965412
5	0x3d5d7294	0.05406435
6	0x3df89039	0.12136883
7	0x3d378eae	0.044813804
8	0x3d0df456	0.034656845
9	0x3cfa4c91	0.030554088
10	0x3e0d1ffa	0.1378173
11	0xbc403148	-0.0117305
12	0x3cf86b9f	0.030324755
13	0x3dacfcd2	0.08446659
14	0xbb8a9937	-0.0042296904
15	0x3deb67a3	0.114943765
16	0x3dbceb83	0.09224608
17	0xbcc70628	-0.024294928
18	0x3d91ee82	0.0712557
19	0xbd6649d3	-0.056222748
20	0x3d2eaa57	0.042642917
21	0x3deecd6e	0.11660276
22	0xbc36bc0e	-0.011153234
23	0x3ca9fdfc	0.020750992
24	0x3c4d9828	0.012548484
25	0xbd7b3edf	-0.061339255
26	0x3dc88a6d	0.097920276
27	0x3dcf1784	0.10111907
28	0x3d311896	0.043236338
29	0xbc3e1f3a	-0.011604125
30	0xbdec12a1	-0.11526991
31	0x3e10b19d	0.14130254
32	0x3dd033de	0.10166143
33	0xbc6d0904	-0.0144674815
34	0xbd919878	-0.07109159
35	0x3e12724c	0.14301413
36	0xbd264547	-0.04059341
37	0x3d712ac7	0.058878686
38	0xbc3c62f9	-0.011498206
39	0x3e0baa7b	0.13639252
40	0xbc77c96e	-0.015123708
41	0xbc0f8886	-0.008760577
42	0xbc8d0816	-0.01721577
43	0x3d081c88	0.033230335
44	0x3d1023d5	0.035190422
45	0x3cbd31d5	0.02309505
46	0x3d8e27c1	0.06941176
47	0x3dafaecf	0.08578264
48	0xbc966dfc	-0.018362992
49	0x39ef01ca	0.00045586965
50	0xbcf47c02	-0.029844288
51	0x3d22a26e	0.039705686
52	0x3d936b6e	0.07198225
53	0x3c4c69f5	0.012476434
54	0x3e1ce7d8	0.15322816
55	0x3dfeb699	0.124371715
56	0xbda56df7	-0.08077615
57	0x3df85c94	0.12127033
58	0x3bee1d06	0.0072666435
59	0x3c3cc7b6	0.011522224
60	0x3dc2fecb	0.09521254
61	0xbd0e96cf	-0.03481179
62	0x3d994d55	0.07485453
63	0x3d0fa9ad	0.035073925
64	0x3d80c858	0.062882125
65	0x3dc85143	0.097811244
66	0x3dc72428	0.09723693
67	0x3d36b1fc	0.044603333
68	0x3926deb3	0.00015913956
69	0x3e1f37ad	0.15548582
70	0x3e1b5bfb	0.15171807
71	0x3e205531	0.15657498
72	0x3d399592	0.045308657
73	0x3be15701	0.0068768268
74	0xbdcee210	-0.10101712
75	0x3d43944a	0.04774884
76	0xbd790fee	-0.060806207
77	0xbd00d82b	-0.031456154
78	0xbc8a4d36	-0.01688252
79	0xbc552ef5	-0.013011684
80	0x3cb4c0c9	0.022064583
81	0x3d924827	0.07142668
82	0x3ca4752a	0.0200754
83	0xbd652378	-0.05594203
84	0xbc2f5c1f	-0.010703116
85	0xba24618e	-0.00062706403
86	0x3c456a6a	0.012049297
87	0x3dd33be8	0.103141606
88	0xbb00a806	-0.00196314
89	0x3c90a39f	0.017656146
90	0x3d4d31e5	0.05009641
91	0x3dea09bb	0.11427637
92	0x3d723cf9	0.05914018
93	0xbd66a475	-0.056309182
94	0x3d8a8934	0.06764451
95	0x3da8d512	0.08243765
96	0x3d01db3c	0.03170322
97	0x3de2c8f9	0.11073489
98	0x3dd41d6c	0.10357174
99	0x3d6fd7ab	0.058555286
100	0x3b82368d	0.003973788
101	0x3dd22447	0.102608256
102	0xbd5bce80	-0.05366373
103	0x3b5ca889	0.003366979
104	0x3d97fd2c	0.074213356
105	0x3d87a34a	0.06622942
106	0x3d921421	0.071327455
107	0x3e4fd72e	0.20296928
108	0x3de59db1	0.11211718
109	0x3df2d385	0.118567504
110	0xbbc2ee06	-0.0059487848
111	0x3dd69ce8	0.10479146
112	0x3da669f8	0.08125681
113	0x3c57e4a7	0.013177074
114	0xbc61539e	-0.013752846
115	0x3d77ad35	0.060467917
116	0x3ccaa5b8	0.024737224
117	0x3c910d02	0.017706398
118	0x3da0ec8d	0.078576185
119	0xbd62c63d	-0.055364836
120	0x3ddeb65b	0.10874625
121	0xbc1d1522	-0.009587558
122	0x3e0a5103	0.13507466
123	0x3c9a68a5	0.018848727
124	0xbd629d01	-0.05532551
125	0x3db44457	0.08802097
126	0xbdd1aa02	-0.102375045
127	0x3d3df5df	0.04637706

network_body._body_endoder.seq_layers.2.weight f4 [128, 128]
0	0x3d95e376	0.07318775
1	0x3e0d1b12	0.13779858
2	0xbd998bee	-0.074973926
3	0xbdac70e0	-0.08419967
4	0xbc739ad3	-0.014868456
5	0x3e4933f4	0.19648725
6	0x3d864955	0.06556956
7	0xbd52b050	-0.051437676
8	0x3db31928	0.087450325
9	0x3dc5459b	0.09632417
10	0x3db82d87	0.08993059
11	0xbcf27306	-0.029595863
12	0x3e78e312	0.2430537
13	0xbd527edc	-0.051390514
14	0x3d58bd02	0.052914627
15	0xbe3f8378	-0.18702495
16	0xbd872067	-0.06597977
17	0xbd3377ec	-0.04381554
18	0x3d423add	0.047419418
19	0x3e7a7fdc	0.24462837
20	0xbc037177	-0.008022658
21	0xbc63a5c3	-0.013894501
22	0x3e8831c1	0.2660046
23	0x3c3c1920	0.0114806
24	0x3d4c8a66	0.049936675
25	0x3e1d0505	0.15333946
26	0x3e1599c4	0.14609438
27	0x3c625e20	0.013816386
28	0x3e0cd59c	0.1375336
29	0x3e2765cf	0.1634743
30	0xbd7ba797	-0.061439123
31	0xbd97c7c3	-0.074111484
32	0x3ca8b989	0.020596283
33	0xbdefa7d6	-0.11701934
34	0x3cd5c9b5	0.026097158
35	0xbea246be	-0.31694597
36	0xbd040263	-0.03222884
37	0x3e7058b8	0.23471344
38	0x3e057181	0.1303158
39	0x3c6320ea	0.013862828
40	0x3d7259ec	0.059167787
41	0x3e6c5c9d	0.23082204
42	0xbd065267	-0.03279343
43	0x3d9b4a7e	0.07582568
44	0xbda78aab	-0.08180746
45	0xbe3479f3	-0.17624645
46	0x3d52337e	0.051318638
47	0x3dbfe792	0.093703404
48	0xbd912783	-0.070876144
49	0x3dc1106b	0.094269596
50	0x3d5c1a87	0.053736236
51	0x3d860c55	0.06545321
52	0x3cbff91a	0.02343421
53	0x3d0aadc9	0.03385714
54	0xbe482f5b	-0.19549315
55	0x3e195e6e	0.14977428
56	0xbd718f41	-0.05897451
57	0xbe2dabca	-0.16960064
58	0x3dd8b639	0.10581631
59	0xbe0fd5be	-0.1404638
60	0x3d0f0156	0.034913383
61	0xbdc53ac8	-0.09630352
62	0x3d4ae271	0.049532358
63	0x3d7c4832	0.06159229
64	0x3d43a8ac	0.04776828
65	0x3c82fb59	0.015988993
66	0x3d31ad82	0.04337836
67	0x3dbc9f5d	0.09210084
68	0x3dea18d5	0.114305176
69	0xbe4ca825	-0.19986017
70	0xbdb294e7	-0.08719807
71	0x3e842d87	0.25815985
72	0xbe21426b	-0.15747993
73	0x3e4d48a2	0.20047238
74	0x3cc6eb49	0.024282115
75	0x3cfa4987	0.030552639
76	0x3de97f42	0.114012256
77	0x3bb968e1	0.0056582545
78	0xbd632150	-0.05545169
79	0xbcd2c4fe	-0.025728699
80	0x3d24c36e	0.04022544
81	0xbb423ee0	-0.0029639527
82	0x3cdadb4a	0.026715893
83	0xbe1ab2b6	-0.15107235
84	0x3d16e028	0.036834866
85	0xbe1d6348	-0.15369904
86	0xbe133052	-0.14373901
87	0xbcf8d67d	-0.030375713
88	0x3e7077ed	0.23483248
89	0xbdcb4623	-0.09925487
90	0xbddd2493	-0.107979916
91	0xbdfd7de3	-0.123775266
92	0xbca309d4	-0.019902147
93	0xbdeeabf2	-0.1165389
94	0xbd95a3c4	-0.073066264
95	0x3d846870	0.06465232
96	0x3db2ecb0	0.08736551
97	0xbda3768c	-0.079815954
98	0x3d448a1b	0.04798327
99	0x3dddb7a9	0.10826046
100	0xbdcf83c8	-0.10132557
101	0x3d653938	0.05596277
102	0x3cf716c6	0.030162226
103	0x3d82181f	0.06352257
104	0x3eb1865f	0.3467283
105	0xbdbb3b10	-0.09142125
106	0xbdcd2313	-0.100164555
107	0x3d9e1bc1	0.077201374
108	0xbd8af1cc	-0.067844
109	0xbe1354ad	-0.1438777
110	0xbc59a589	-0.013284096
111	0xbe5ba7a9	-0.21450676
112	0x3d96625c	0.07342979
113	0x3d591131	0.05299491
114	0xbc1089e4	-0.008821938
115	0x3c82b29c	0.015954308
116	0x3d4b9ffb	0.049713116
117	0xbe639685	-0.22225387
118	0x3dbb5420	0.09146905
119	0x3debf736	0.11521761
120	0x3ddb4b8f	0.10707771
121	0xbdf23e91	-0.1182834
122	0x3c13a2c1	0.0090109715
123	0x3db84734	0.08997956
124	0x3e4f1aca	0.20225063
125	0x3e078e68	0.13237917
126	0xbb835621	-0.00400807
127	0x3d9be14b	0.076113306
128	0xba8c776c	-0.0010716743
129	0xbb716291	-0.0036832432
130	0xbd2add05	-0.041714687
131	0xbe56063e	-0.20900819
132	0x3c7e3586	0.015515691
133	0xbde3cbf8	-0.11122888
134	0x3ddacffb	0.106842004
135	0x3da6e751	0.08149589
136	0x3d2b9f18	0.04189977
137	0x3c0eab1c	0.008707788
138	0x3e5e80ca	0.21728817
139	0xbde692ca	-0.112584665
140	0x3e494e19	0.19658698
141	0xbdbf4ac8	-0.09340435
142	0x3cdf9961	0.027294816
143	0xbd5cc769	-0.05390111
144	0x3e37c8ba	0.17947665
145	0x3ca6f16d	0.020378793
146	0xbdd07c32	-0.101799384
147	0xbe079e56	-0.13243994
148	0x3b30c431	0.0026972408
149	0x3dd96167	0.10614281
150	0x3dca8539	0.098886915
151	0x3cc47417	0.023981137
152	0xbdc0ca63	-0.09413602
153	0xbe7ac22e	-0.24488136
154	0x3e63bdad	0.22240324
155	0x3e10bf26	0.14135417
156	0x3d57361a	0.05254183
157	0xbd14133e	-0.036151163
158	0xbe00e7f9	-0.1258849
159	0xbe183602	-0.14864352
160	0xbc9634a6	-0.018335652
161	0xbcff377b	-0.031154385
162	0xbd457aac	-0.048212692
163	0xbcf183b4	-0.029481746
164	0x3ced4f90	0.028968602
165	0x3e51e54d	0.20497628
166	0x3bf33c9d	0.007422997
167	0xbdb90b69	-0.090353794
168	0x3e2efee8	0.17089427
169	0xbd9b075c	-0.07569763
170	0x3e2ee19f	0.17078255
171	0x3e1c48e9	0.15262188
172	0xbd02555e	-0.031819694
173	0x3d519542	0.051167734
174	0xbe082701	-0.13296129
175	0x3e12963f	0.14315127
176	0x3d0262da	0.031832553
177	0x3e0ad8dc	0.13559288
178	0x3e4a92a1	0.19782497
179	0x3e32b7a9	0.17452873
180	0x3e55d5a1	0.20882274
181	0x3c3db582	0.011578919
182	0xbccbccd3	-0.024877941
183	0x3df69f61	0.12042118
184	0xbdc664fa	-0.096872285
185	0x3d829898	0.06376761
186	0x3e35d97b	0.17758743
187	0xbd6ea1e7	-0.05825987
188	0x3e2b8d49	0.16753115
189	0x39274149	0.00015950682
190	0x3d5a1806	0.053245567
191	0x3e226177	0.15857492
192	0x3e3c0b47	0.18363677
193	0x3e02d82d	0.12777777
194	0x3e58fba0	0.21189737
195	0xbccc0e35	-0.024909118
196	0xbe07f955	-0.13278706
197	0x3dac9eb0	0.08428705
198	0xbd6f2fa3	-0.05839504
199	0x3e03f4fb	0.12886421
200	0xbe258fed	-0.16168185
201	0x3d8ef0f3	0.06979551
202	0x3e0182af	0.12647508
203	0x3e01e5f3	0.12685375
204	0xbd3f8c7b	-0.046764832
205	0x3ea4613b	0.3210543
206	0x3e20c168	0.15698779
207	0x3db96f9d	0.09054492
208	0xbd51223b	-0.051058035
209	0xbe459652	-0.19295624
210	0xbd75e982	-0.060037144
211	0xbd372bd4	-0.044719532
212	0xbcc9b06b	-0.024620255
213	0xbdba0dfc	-0.090846986
214	0xbe1c1823	-0.15243582
215	0x3e1f9de9	0.15587582
216	0x3cb08082	0.021545652
217	0x3c3abf18	0.011398099
218	0xbdaad1a9	-0.08340771
219	0x3e3774e2	0.17915681
220	0x3d6cd43a	0.057819583
221	0x3e22072f	0.15823053
222	0xbe0db7d8	-0.13839662
223	0x3d3eeb84	0.046611324
224	0x3ce9f696	0.028559964
225	0xbe965a75	-0.29365888
226	0xbe96da7e	-0.2946357
227	0x3b01d781	0.0019812288
228	0xbcc1efe1	-0.023673953
229	0xbcb4ac43	-0.022054797
230	0xbddc733f	-0.10764169
231	0x3da8e411	0.08246625
232	0x3db6a59f	0.089183085
233	0xbd049dc8	-0.032377034
234	0xbdd0bb37	-0.101919584
235	0x3e12eee0	0.14348936
236	0xbe137b3f	-0.14402483
237	0xbe1157b0	-0.14193606
238	0x3df41fb9	0.11920113
239	0xbdb1623a	-0.08661313
240	0xbd341d34	-0.043973163
241	0xbe652225	-0.22376306
242	0xbdfaa3cd	-0.12238274
243	0x3cc433b7	0.02395044
244	0x3dc56eed	0.09640298
245	0x3ed09136	0.40735787
246	0xbcdc6590	-0.026903898
247	0x3d869aef	0.0657252
248	0x3decf805	0.115707435
249	0x3db33f30	0.087522864
250	0xbe36698d	-0.17813702
251	0x3bb700d3	0.005584815
252	0xbd967bc2	-0.07347824
253	0xbd5d2c50	-0.053997338
254	0x3da39881	0.07988072
255	0xbc32cabc	-0.010912593

network_body._body_endoder.seq_layers.2.bias f4 [128]
0	0xbca60c67	-0.020269586
1	0xbd3bb15e	-0.045823447
2	0xbd2e14e4	-0.04250039
3	0x3e09d352	0.13459519
4	0xbd88419c	-0.06653139
5	0x3d86f113	0.0658895
6	0x3cd7a187	0.02632214
7	0xbd3ff67c	-0.046865925
8	0xbd6c98d0	-0.05776292
9	0x3b8f310c	0.0043698605
10	0xbb919e31	-0.0044439067
11	0xbd6acdd6	-0.057325207
12	0x3e0c517a	0.13702956
13	0x3d9255e6	0.0714529
14	0xbcf7b08d	-0.030235553
15	0x3ccd45dd	0.025057727
16	0x3d231f8f	0.03982502
17	0x3c082b06	0.008311039
18	0xbcfba36d	-0.030717576
19	0xbd44f72c	-0.048087284
20	0x3d24a50e	0.04019647
21	0x3d793522	0.060841687
22	0xbd010eaf	-0.031508144
23	0x3b1bc982	0.002377123
24	0x3dd7e08a	0.10540874
25	0x3d318a0a	0.043344535
26	0xbd81772c	-0.06321558
27	0xbd484523	-0.04889406
28	0x3d39f43b	0.045398932
29	0x3c26f10d	0.010189307
30	0x3cc6a1da	0.024247099
31	0xbd80b12d	-0.062837936
32	0xbd3c0025	-0.045898575
33	0x3d4b13a4	0.049579278
34	0xbda8c42d	-0.082405426
35	0xbddafdb3	-0.106929205
36	0xbcb2f4b2	-0.021845195
37	0xbcb8773d	-0.022517795
38	0xbc5aeba6	-0.013361847
39	0xbc99b9f8	-0.018765435
40	0x3d1fc2f5	0.039004285
41	0xbd333020	-0.043747067
42	0xbd39ab64	-0.045329466
43	0xbd956dfb	-0.07296368
44	0xbbae0761	-0.005310938
45	0x3ddb38a3	0.10704162
46	0x3d3cd5f2	0.04610247
47	0x3cca12f7	0.024667246
48	0x3d8d22bc	0.06891391
49	0xbc359122	-0.011081966
50	0xbc36ced5	-0.011157711
51	0xbd9e0b5a	-0.07717009
52	0x3d8685bb	0.06568476
53	0x3d482449	0.04886273
54	0xbd4229cf	-0.047403153
55	0x3c81c2a4	0.015839882
56	0x3d22a358	0.039706558
57	0xbce433a1	-0.02785665
58	0x3bb0b80c	0.005393034
59	0x3d1f002e	0.03881853
60	0x3da33c70	0.07970512
61	0x3e0426ac	0.12905377
62	0x3e20ddb3	0.15709572
63	0xbba9c7c0	-0.0051812828
64	0x3dd64e1a	0.104641154
65	0x3d75b2ea	0.05998508
66	0xbda7a0d3	-0.08184972
67	0xbe0ae263	-0.13562922
68	0x3c33f7c1	0.010984362
69	0xbce9622d	-0.028489197
70	0xbb753a4d	-0.0037418783
71	0xbd6130f3	-0.054978322
72	0x3e0ffeac	0.14061993
73	0x3d0c5fa2	0.03427089
74	0x3d43d9e1	0.047815207
75	0xbd905db7	-0.07049125
76	0x3ce7725d	0.028252775
77	0x3c85d470	0.01633665
78	0xbd3bbf61	-0.04583681
79	0x3d88a130	0.06671369
80	0x3ce23261	0.027611913
81	0xbd3546b3	-0.044256877
82	0xbd15262a	-0.03641335
83	0xbcd5c493	-0.02609471
84	0xbce8afb0	-0.028404087
85	0xbdd5f807	-0.10447698
86	0x3c528672	0.012849437
87	0x3c3d383f	0.011549055
88	0x3d538784	0.05164291
89	0x3d2a437e	0.04156827
90	0xbcc0896c	-0.023503028
91	0x3d6c6fe5	0.0577239
92	0xbda6efeb	-0.081512295
93	0x3acec66a	0.0015775685
94	0x3d4f9214	0.05067642
95	0xbcd49bf4	-0.02595327
96	0x3c579fc2	0.013160648
97	0x3dcb9313	0.099401616
98	0xbd4e5aeb	-0.050379675
99	0x3b60a101	0.0034275653
100	0x3d318c2c	0.04334657
101	0x3d3f3b86	0.046687625
102	0x3c8b978f	0.017040042
103	0xbd777349	-0.06041268
104	0x3c6d92b0	0.014500305
105	0xbd39ff1b	-0.045409303
106	0x3c5cc82a	0.013475457
107	0x3cbac06b	0.02279683
108	0xbd505427	-0.050861504
109	0xbb3045f1	-0.0026897157
110	0xbd1478ea	-0.036248125
111	0xbd2820e9	-0.04104701
112	0x3cd69d4d	0.026198054
113	0x3cbe84b0	0.02325663
114	0xbd4f34a6	-0.05058732
115	0x3d73b430	0.059498012
116	0xbd9067c2	-0.0705104
117	0xbbe9ffdc	-0.0071410965
118	0x3d4c291b	0.04984389
119	0xbcbb1f7d	-0.022842163
120	0xbd502d42	-0.05082441
121	0xbd37fd2d	-0.04491918
122	0xbd56a588	-0.052403957
123	0xbdaee55f	-0.08539843
124	0xbca19438	-0.019723997
125	0x3d051d14	0.032498434
126	0xbdb296d6	-0.08720176
127	0xbbea0357	-0.0071415114

network_body._body_endoder.seq_layers.4.weight f4 [128, 128]
0	0x3d5d64de	0.054051273
1	0x3e0ce563	0.13759379
2	0x3ce73402	0.028223041
3	0x3d829283	0.06375601
4	0xbdfd9ff2	-0.12384023
5	0xbe0ba238	-0.136361
6	0xbe05fba9	-0.13084282
7	0x3d09d98e	0.033654742
8	0x3dd33b3b	0.10314032
9	0x3dd96093	0.10614123
10	0xbdae8c02	-0.08522798
11	0x3c58b405	0.013226514
12	0xbe4619dd	-0.19345804
13	0xbda44db2	-0.08022632
14	0x3c8c291c	0.017109446
15	0x3d191ca5	0.037380833
16	0xbd9f1517	-0.077676944
17	0x3da1ac3d	0.0789418
18	0xbe2f3e33	-0.17113571
19	0xbe1f41d2	-0.15552452
20	0x3d1f0945	0.0388272
21	0x3e03ac20	0.12858629
22	0x3e040fbd	0.12896629
23	0x3d27c484	0.040958896
24	0x3a261e62	0.0006336925
25	0x3c88bf4a	0.016692776
26	0x3ac0a5c4	0.001469784
27	0x3d510943	0.051034223
28	0xbcf80724	-0.030276842
29	0xbe7ff0b9	-0.24994172
30	0x3c33d1bc	0.010975298
31	0xbe000175	-0.12500556
32	0x3ea08554	0.3135172
33	0xbd7040eb	-0.05865566
34	0xbde3d078	-0.11123747
35	0x3d6abc9d	0.057308782
36	0x3d6ff71f	0.058585282
37	0xbc1a2769	-0.00940881
38	0xbd155e86	-0.036467098
39	0xbdfff9af	-0.12498795
40	0x3df36bcd	0.11885796
41	0x3de7cb8f	0.113181226
42	0x3e7c385e	0.24630877
43	0x3e11e8f8	0.14249027
44	0xbc7eca9a	-0.015551234
45	0xbe20e61d	-0.15712781
46	0xbe4f3cf2	-0.20238093
47	0xba5742c4	-0.0008211548
48	0x3d25d410	0.04048544
49	0x3e81935c	0.2530774
50	0xbe67c867	-0.22635041
51	0x3d215d41	0.039395574
52	0xbd26cdfd	-0.04072379
53	0x3cc23231	0.023705574
54	0xbd6a272d	-0.057166267
55	0xbc242e48	-0.0100208
56	0x3cb21b8f	0.021741657
57	0x3afed52a	0.001944219
58	0xbd1033de	-0.035205714
59	0x3e813ccc	0.25241697
60	0xbe3c146f	-0.1836717
61	0x3cc2c22b	0.023774227
62	0xbe376a23	-0.17911582
63	0x3cc042a6	0.02346928
64	0x3c6d5537	0.014485649
65	0x3e038a99	0.1284584
66	0xbd07f398	-0.033191293
67	0x3e3690f0	0.17828727
68	0xbde57e55	-0.112057365
69	0x3d014f0e	0.031569533
70	0xbd9c2b78	-0.076254785
71	0x3d957d6e	0.072993144
72	0xbce5e497	-0.028063102
73	0xbd5a8dae	-0.053357773
74	0xbe041758	-0.1289953
75	0x3e2c242d	0.16810675
76	0xbec1babb	-0.37837777
77	0x3dbd23dc	0.09235355
78	0xbd48e5d1	-0.049047295
79	0xbd5e02a6	-0.054201744
80	0xbd5f55c1	-0.05452514
81	0xbda85fe4	-0.08221415
82	0xbdc64303	-0.0968075
83	0x3d7f7c28	0.062374264
84	0xbdb4c587	-0.08826738
85	0x3e41823a	0.18897334
86	0xbd8a722f	-0.0676006
87	0xbd07b3a4	-0.033130303
88	0x3def5813	0.11686721
89	0x3d83dea1	0.064389475
90	0xbeb3f72c	-0.35149515
91	0x3e8d080d	0.27545205
92	0xbd8c3334	-0.06845704
93	0x3df85bc1	0.12126876
94	0xbdf0ad22	-0.117517725
95	0xbe9d3695	-0.30705705
96	0x3d97fc9d	0.07421229
97	0xbe44877b	-0.19192307
98	0x3bf4cfbf	0.0074710543
99	0xbdfdcfca	-0.12393148
100	0xbe343821	-0.17599536
101	0x3d861643	0.06547215
102	0xbc73869f	-0.014863639
103	0x3d478811	0.048713747
104	0xbd307f49	-0.04309014
105	0xbe85674b	-0.2605537
106	0xbd37a21f	-0.044832345
107	0x3c809c12	0.01569942
108	0x3e5e6eb4	0.21721917
109	0x3d8a1bac	0.06743559
110	0x3d207409	0.03917316
111	0x3cb66e01	0.02226925
112	0x3dda2f1e	0.10653518
113	0x3ca9122f	0.020638553
114	0xbdb77c7e	-0.08959292
115	0xbd8628e0	-0.06550765
116	0x3e03751a	0.1283764
117	0x3e35f05d	0.17767473
118	0x3a528dc7	0.0008031991
119	0xbd94f731	-0.072737105
120	0x3d68d8e3	0.056847464
121	0x3c3efea1	0.011657388
122	0x3db4e307	0.088323645
123	0x3c94064c	0.018069409
124	0xbdf6592a	-0.120287254
125	0xbe8d7f61	-0.27636245
126	0xbe8e86ed	-0.27837315
127	0x3c3da471	0.01157485
128	0xbe452375	-0.19251807
129	0x3e0d5232	0.13800886
130	0x3e1e7173	0.15472965
131	0x3d5cfc1b	0.053951364
132	0xbe13a6df	-0.14419125
133	0x3cb06cd6	0.021536272
134	0xbdbefd57	-0.093256645
135	0x3dd133db	0.10214969
136	0x3d997f42	0.074949756
137	0x3e345600	0.17610931
138	0x3c1f753b	0.00973254
139	0x3e34bf87	0.17651187
140	0xbd64ea33	-0.055887412
141	0xbe140ed2	-0.14458779
142	0x3d9de9ab	0.07710584
143	0x3d8bba74	0.068226725
144	0x3e3f3e6c	0.18676156
145	0x3ab155db	0.0013529615
146	0x3e6431d1	0.22284628
147	0x3cf92541	0.030413272
148	0xbdb65200	-0.08902359
149	0xbe20fafc	-0.15720743
150	0xbe9bf553	-0.30460605
151	0xbe029644	-0.12752634
152	0xbe234996	-0.1594604
153	0xbd403dc6	-0.04693391
154	0xbd88bd8b	-0.066767775
155	0x3d9b742f	0.0759052
156	0x3e15fc7d	0.14647098
157	0x3e0f91b7	0.1402043
158	0x3da6c212	0.08142485
159	0xbdd61ea5	-0.10455064
160	0x3ddbe3ff	0.10736846
161	0xbd9ca1bc	-0.07648036
162	0x3db8c9d3	0.0902287
163	0x3d031a57	0.03200754
164	0xbdda0a36	-0.10646479
165	0x3e0a131f	0.13483857
166	0x3d033419	0.032032106
167	0xbd8dbc8d	-0.06920729
168	0xbd8ab99e	-0.06773685
169	0x3c5f44d9	0.013627254
170	0x3d01d324	0.0316955
171	0x3df6ad8c	0.1204482
172	0xbd85e3e3	-0.065376066
173	0xbd59628c	-0.053072497
174	0x3a01f7a8	0.0004957863
175	0xbd4bce53	-0.049757313
176	0xbdc693a1	-0.09696127
177	0x3e0bddc7	0.1365882
178	0x3e27655c	0.1634726
179	0x3e7696e4	0.24080998
180	0x3e0d4a19	0.13797797
181	0xbd3d96f1	-0.046286527
182	0x3c538bfc	0.012911793
183	0x3e89e356	0.26931256
184	0x3e239905	0.15976341
185	0x3c9610d0	0.018318564
186	0x3c86672c	0.016406618
187	0xbe2c8dbe	-0.16850945
188	0xbcb21180	-0.02173686
189	0x3c960f74	0.018317915
190	0xbdefc4f8	-0.11707491
191	0xbd1e0331	-0.038577262
192	0x3d230d42	0.039807566
193	0xbdf497f8	-0.11943048
194	0xbe00450a	-0.12526336
195	0x3dbd1405	0.09232334
196	0x3c42ec4f	0.011897161
197	0x3e264a68	0.16239321
198	0xbda85587	-0.08219438
199	0x3d1a980a	0.037742652
200	0xbe67f678	-0.22652614
201	0x3dde93a9	0.10868008
202	0x3de8dc2e	0.11370121
203	0x3de6d78a	0.112715796
204	0x3d4aad01	0.049481396
205	0xbd157a68	-0.03649369
206	0x3e4807e9	0.19534267
207	0xbd5938fd	-0.053032864
208	0xbc952b9a	-0.018209267
209	0x3db96f14	0.090543896
210	0xbd8a91c7	-0.06766086
211	0x3c99f59e	0.018793877
212	0x3d315cc3	0.043301355
213	0x3e6d12b9	0.23151673
214	0x3e15140f	0.14558433
215	0xbd92b312	-0.07163061
216	0xbe30a136	-0.17248997
217	0xbdfdc61e	-0.123913035
218	0x3c606cc8	0.0136978105
219	0x3ef5fa66	0.480426
220	0x3def6ae6	0.11690311
221	0x3e53cdfb	0.20684044
222	0xbdbcb06f	-0.092133395
223	0x3e7956bc	0.24349493
224	0xbdc2c4bf	-0.095101826
225	0xbd541b44	-0.051783815
226	0xbd73b0f1	-0.059494916
227	0xbe42b47d	-0.19014163
228	0x3d7d2cfb	0.061810475
229	0xbde9ff9c	-0.11425707
230	0x3d441a1e	0.04787647
231	0xbc049156	-0.008091291
232	0xbdfc8a36	-0.12331049
233	0x3d40c171	0.04705948
234	0x3da6ec5a	0.08150549
235	0xbdfd1ff7	-0.123596124
236	0xbe468a48	-0.19388688
237	0xbd05d0c4	-0.032669798
238	0xbdcdcd1f	-0.10048889
239	0xbe814aa7	-0.25252268
240	0xbdf76640	-0.120800495
241	0x3d90b61b	0.07065984
242	0xbb1d11c6	-0.0023966893
243	0xbd64603b	-0.055755835
244	0xba7b1f13	-0.00095795206
245	0x3deefd22	0.11669375
246	0xbe0856c0	-0.13314342
247	0x3e0740c3	0.13208298
248	0xbc03e8f8	-0.00805115
249	0xbcd5b38e	-0.026086595
250	0x3bfd24c1	0.0077253287
251	0xbc73da4c	-0.014883589
252	0x3d56a146	0.052399896
253	0x3e04172a	0.12899461
254	0xbd835d41	-0.06414271
255	0xbe793dba	-0.24339953

network_body._body_endoder.seq_layers.4.bias f4 [128]
0	0xbd47029b	-0.04858647
1	0xbd1f9786	-0.038962863
2	0x3c81fb09	0.015866773
3	0x3bfc59e3	0.007701145
4	0x3d165a21	0.036707047
5	0xbc8b7f93	-0.017028606
6	0xbd714367	-0.05890217
7	0x3bf4c884	0.0074701924
8	0x3cf1fc9c	0.029539399
9	0x3c796c18	0.015223525
10	0xbdef2d72	-0.1167859
11	0xbd4d3d97	-0.050107565
12	0x3d92cb71	0.071677096
13	0xbd3e3fd1	-0.04644758
14	0xbe0f4701	-0.1399193
15	0xbdcdcbb9	-0.10048623
16	0xbd6c444e	-0.057682328
17	0xbd12056d	-0.035649706
18	0x3cfb4618	0.030673072
19	0x3d1b4ab7	0.03791305
20	0xbd7ac6ae	-0.061224632
21	0xbb05cf41	-0.0020417722
22	0xbdbefbf0	-0.09325397
23	0xbd9e48f2	-0.07728757
24	0x3a9e4085	0.0012073672
25	0xbd1704e4	-0.0368699
26	0x3d991612	0.07474913
27	0xbd7363de	-0.059421413
28	0xbda59ee8	-0.080869496
29	0x3c3c0049	0.011474677
30	0x3ba96c26	0.005170363
31	0xbe07f118	-0.13275564
32	0x3d9e12e9	0.077184506
33	0x3cab474e	0.020908024
34	0x3cdf5350	0.027261406
35	0xbd4b4952	-0.04963047
36	0xbd7bb54e	-0.061452202
37	0xbc61c85a	-0.013780678
38	0xbd7b2acc	-0.06132011
39	0xbca74378	-0.020417914
40	0xbc8c5a1f	-0.017132817
41	0x3c446676	0.011987319
42	0xbcffaaf3	-0.031209445
43	0xbdf680e8	-0.12036306
44	0xbdae4da3	-0.08510902
45	0x3cfb88cf	0.030704884
46	0xbd2c9c7f	-0.042141434
47	0x3cd2a9b7	0.025715692
48	0xbc997f82	-0.018737558
49	0xbdbc27b4	-0.0918726
50	0xbcb7dc1a	-0.02244382
51	0xbdb9a150	-0.09063971
52	0x3d71fb85	0.05907776
53	0xbd1498c8	-0.036278516
54	0xbb8cb2a2	-0.0042937556
55	0xbc9ac1d8	-0.01889126
56	0xbdd62d31	-0.10457838
57	0xbbe21d5e	-0.0069004735
58	0x3d076c6e	0.03306239
59	0xbc86faee	-0.016477074
60	0x3d8e7af0	0.06957042
61	0x39a93a34	0.00032277557
62	0xbd92c80c	-0.07167062
63	0x3d58304d	0.05278044
64	0xbccbf052	-0.024894867
65	0x3d891d58	0.0669505
66	0x3dc37c6f	0.09545218
67	0x3d369e8c	0.044584796
68	0x3c1fe8d3	0.009760099
69	0xbdb10272	-0.086430445
70	0xbc8cc639	-0.017184364
71	0xbd891111	-0.06692708
72	0x3c61e54d	0.01378758
73	0xbdb749e5	-0.08949641
74	0x3d2489cd	0.04017048
75	0xbd2c0029	-0.04199234
76	0x3c33cb7b	0.0109738065
77	0xbd86da4b	-0.06584605
78	0xbdb518e6	-0.088426396
79	0xbdb2b5a4	-0.087260514
80	0xbbe6b01e	-0.007040038
81	0xbbfddd99	-0.0077473638
82	0xbbf81d12	-0.007571825
83	0xbd5e9776	-0.054343663
84	0x3b6f24ad	0.0036490366
85	0xbb2552d7	-0.0025226378
86	0xbca12275	-0.01966975
87	0xbbc31ad5	-0.0059541264
88	0xbd7b3af6	-0.061335526
89	0xbd800601	-0.06251145
90	0x3d4fe68f	0.050756987
91	0xbd81093a	-0.06300588
92	0xbdc513e3	-0.09622934
93	0xbc2a0ade	-0.0103785675
94	0x3de7e6ec	0.11323342
95	0xbd096ca6	-0.03355088
96	0xbc9c722c	-0.01909741
97	0x3c8ee23c	0.017441861
98	0xbd87f5d6	-0.06638686
99	0xbdad18c5	-0.0845199
100	0xbdc81670	-0.097699046
101	0xbd6794ec	-0.056538507
102	0x3cb05cf0	0.021528691
103	0xbc762576	-0.01502358
104	0xbcdbc540	-0.026827455
105	0x3d0f60e1	0.0350045
106	0xbb3001fc	-0.0026856652
107	0x3c54a341	0.012978376
108	0xbdcc4795	-0.09974591
109	0xbcbc064b	-0.02295222
110	0x3d2d5365	0.04231586
111	0xba939b41	-0.0011261479
112	0xbcd06f62	-0.025443736
113	0xbcd92877	-0.026508553
114	0x3c63f235	0.013912727
115	0x3ca5e258	0.02024953
116	0xbbd01b17	-0.0063508856
117	0xbd28b659	-0.041189525
118	0x3bc8dbc4	0.0061297137
119	0xbd50cdee	-0.05097764
120	0x3ca9b7b8	0.020717487
121	0xba862fc3	-0.0010237623
122	0x3d3fdef7	0.046843495
123	0xbd8d707b	-0.069062196
124	0x3ca52d1d	0.020163113
125	0x3d60b647	0.054861333
126	0xbd37a519	-0.044835184
127	0xbc2f589d	-0.010702279

action_model._discrete_distribution.branches.0.weight f4 [3, 128]
0	0x3cb5f36e	0.022210803
1	0x3cf90711	0.030398877
2	0xbbd21699	-0.0064113853
3	0x3e004d8f	0.12529586
4	0x3da7529a	0.08170052
5	0xbc42044d	-0.011841846
6	0x3c75c1f7	0.014999858
7	0x3d31e706	0.04343321
8	0x3da0a443	0.078438304
9	0x3ce3088c	0.027714036
10	0x3e4e9e04	0.20177466
11	0xba1bd8ae	-0.00059450686
12	0x3d0c9cd9	0.03432927
13	0x3dd7ea8b	0.105427824
14	0xbe22ec03	-0.15910344
15	0xbd54df1f	-0.051970597
16	0x3e17f1ba	0.14838305
17	0xbd0f51ff	-0.034990307
18	0xbdf60359	-0.12012357
19	0xbe209740	-0.15682697
20	0xbd0858b7	-0.03328773
21	0xbd84a805	-0.0647736
22	0xbdb3df59	-0.087828346
23	0xbdf82c6a	-0.12117846
24	0xbe09ef23	-0.1347013
25	0xbd548593	-0.0518852
26	0x3dab4ac1	0.083638676
27	0x3d70debc	0.058806166
28	0xbd8da439	-0.069160886
29	0xbde482a6	-0.11157732
30	0xbdefd17c	-0.11709878
31	0x3d923b98	0.07140273
32	0x3e5d0a64	0.21585995
33	0xbc8105c0	-0.015749812
34	0x3ca22cee	0.019796815
35	0xbd113bd9	-0.035457466
36	0xbcb023ae	-0.021501388
37	0xbd838c2a	-0.064232185
38	0x3c16313e	0.009167014
39	0xbdbff250	-0.09372389
40	0xbe285aeb	-0.16440932
41	0x3cd3f074	0.025871493
42	0x3dabe572	0.083933726
43	0xbe110431	-0.14161755
44	0xbc8f2e3c	-0.017478101
45	0xbde7dd09	-0.11321456
46	0x3c8d46a6	0.017245602
47	0x3d092cf0	0.03349012
48	0xbdeca10a	-0.11554153
49	0x3da09926	0.07841711
50	0xbcfad23f	-0.030617831
51	0xbd34f056	-0.044174515
52	0xbd4e0539	-0.05029795
53	0x3d09a2a4	0.03360237
54	0x3dc00919	0.09376735
55	0xbdb7f18e	-0.0898162
56	0xbc8e5fe3	-0.017379707
57	0xbce18d0b	-0.027533075
58	0x3d3e47b0	0.046455085
59	0x3e167182	0.14691737
60	0x3e41ecdf	0.18938015
61	0x3de947a0	0.113906145
62	0xbd342370	-0.04397911
63	0x3c945695	0.018107692
64	0x3d020247	0.031740453
65	0xbc24ebd3	-0.0100659905
66	0xbe2709c3	-0.16312318
67	0xbd589af7	-0.05288216
68	0x3c10912c	0.008823674
69	0xbcdf1045	-0.027229438
70	0x3e2a3202	0.16620639
71	0x3e4e6ec5	0.20159443
72	0x3e158fc5	0.14605625
73	0xbdf34892	-0.11879076
74	0x3e024685	0.12722214
75	0x3c3bbdd3	0.011458832
76	0xbe1c2aeb	-0.15250747
77	0x3cdb81e0	0.026795328
78	0x3d927343	0.07150891
79	0x3c9d350a	0.01919033
80	0x3c941874	0.018078066
81	0x3d779af1	0.060450498
82	0x3dcbd3e7	0.099525265
83	0x3dd8adca	0.10580023
84	0x3d68b85c	0.056816444
85	0x3dbe2f32	0.092863455
86	0x3e114361	0.1418586
87	0xbcdd00f9	-0.026978003
88	0xbcea7d72	-0.02862427
89	0xbdfdd7fd	-0.12394712
90	0x3d5425ac	0.05179374
91	0x3c838720	0.016055644
92	0xbdc41da3	-0.09575965
93	0xbdbbce59	-0.09170217
94	0x3d86ec5f	0.06588053
95	0xbd4e253e	-0.050328486
96	0x3d531ea1	0.051542882
97	0xbda7c8d2	-0.081926
98	0x3a4fb294	0.00079230336
99	0x3d684305	0.05670454
100	0x3bee9562	0.0072809914
101	0x3d57fc84	0.052731052
102	0x3d96e5c7	0.07368045
103	0xbdc46fbf	-0.095916264
104	0xbcbbf9b2	-0.022946212
105	0x3e488dc3	0.19585328
106	0x3d9bb0e8	0.076021016
107	0xbc09d9cc	-0.008413743
108	0x3d709d90	0.058744013
109	0x3cfe4fb9	0.031043874
110	0xbc4e5310	-0.012593046
111	0x3dbce999	0.09224243
112	0x3e0145d2	0.1262429
113	0xbd0a8b25	-0.033824105
114	0x3e8d1f10	0.2756276
115	0xbe856629	-0.26054505
116	0x3a89f2a8	0.0010524588
117	0x3c62ef45	0.013850992
118	0x3e22f100	0.15912247
119	0x3d0fff6b	0.035155695
120	0xbe0e02f0	-0.13868308
121	0x3dfa3acb	0.12218245
122	0xbc29a2ff	-0.010353803
123	0x3e1f8b0c	0.15580386
124	0x3d81c0a6	0.06335573
125	0x3bf035f8	0.0073306523
126	0xbc0fb44a	-0.008771012
127	0x3d0ea92e	0.03482931
128	0xbc91163f	-0.017710803
129	0x3d24fc42	0.040279634
130	0x3c6bcf9b	0.014392759
131	0xbe678717	-0.22610126
132	0xbe94fed9	-0.29100683
133	0x3df0cfc5	0.11758379
134	0x3cbd72bf	0.023126004
135	0xbc926971	-0.017872544
136	0xbcd1c98f	-0.025608806
137	0x3da6d1a8	0.081454575
138	0xbe21fe9d	-0.15819784
139	0x3d81a35d	0.06329987
140	0x3ddedbd0	0.1088177
141	0x3d99fb7e	0.075186715
142	0x3d623cf7	0.05523392
143	0x3da18a3e	0.07887696
144	0xbcaaed91	-0.020865234
145	0x3e12ef21	0.14349033
146	0x3c815de5	0.015791843
147	0x3dd254eb	0.10270103
148	0x3e0432e4	0.12910038
149	0x3e08a990	0.13345933
150	0x3d833357	0.06406277
151	0x3dc3ae93	0.09554782
152	0x3dcecac8	0.10097271
153	0xbd70fee3	-0.05883683
154	0xbd40602b	-0.046966713
155	0x3dc429c5	0.095782794
156	0x3da55ca5	0.08074311
157	0x3def0615	0.11671082
158	0x3cc88aa2	0.024480168
159	0xbcadd00d	-0.02121737
160	0xbe7518d3	-0.23935251
161	0x3d80cf2d	0.06289516
162	0xbe1c488f	-0.15262054
163	0xbc3f84d3	-0.011689383
164	0x3d592f00	0.05302334
165	0x3d81e9ff	0.06343459
166	0x3d277536	0.040883265
167	0x3df76040	0.12078905
168	0x3d734fd3	0.0594023
169	0xbdd200de	-0.10254072
170	0xbcc54097	-0.02407865
171	0x3e24ae4d	0.16082115
172	0xbe349e56	-0.17638525
173	0x3db7004a	0.08935602
174	0xbd76d24a	-0.06025914
175	0xbe496d21	-0.19670536
176	0x3e4518f6	0.19247803
177	0x3e13bf1b	0.1442837
178	0xbd2b4aaa	-0.041819252
179	0xbb85308c	-0.004064625
180	0x3d39b5b1	0.04533929
181	0x3e340ddb	0.1758341
182	0x3da67771	0.081282504
183	0x3e1b4d69	0.15166248
184	0x3da597b1	0.080855735
185	0x3e214e88	0.15752614
186	0xbea0380f	-0.3129277
187	0x3b783005	0.0037870419
188	0xbd1277c4	-0.03575875
189	0xbe5c5641	-0.21517278
190	0x3e1e7ecd	0.15478058
191	0x3de1b98a	0.11021717
192	0xbd8cfe7a	-0.06884475
193	0xbb3d43a8	-0.0028879438
194	0x3d81c419	0.06336231
195	0x3c3d79e5	0.011564706
196	0x3dc4864b	0.09595927
197	0x3de98246	0.11401801
198	0xbdc5cd48	-0.09658295
199	0xbdcde69c	-0.10053751
200	0xbe108fc3	-0.1411734
201	0x3e4c952d	0.19978781
202	0x3dd72dec	0.10506806
203	0xbb8c0667	-0.004273224
204	0x3d25be0b	0.040464442
205	0x3d9f6d2c	0.07784495
206	0xbd57eda7	-0.052716877
207	0xbd7a2029	-0.061065827
208	0x3d5c98d5	0.05385669
209	0xbde23fa6	-0.11047296
210	0xbdf158c3	-0.11784508
211	0xbd2f0174	-0.042725995
212	0xbdfae058	-0.122498214
213	0xbe3d7005	-0.18499763
214	0x3d42b93e	0.047539942
215	0xbe24a3b3	-0.16078071
216	0x3df7f397	0.12107008
217	0xbd1303ee	-0.03589242
218	0xbd3315f9	-0.043722127
219	0x3dc85c4b	0.097832285
220	0x3e66a96b	0.22525565
221	0x3e0fb873	0.14035206
222	0xbe587c93	-0.21141271
223	0xbdce93cd	-0.100867845
224	0xbceed468	-0.029154018
225	0xbe3f6166	-0.18689498
226	0x3db48e81	0.08816243
227	0x3d81252c	0.06305918
228	0x3ba4589c	0.005015446
229	0xbd849c22	-0.064750925
230	0xbd209cab	-0.03921191
231	0xbda34f3d	-0.07974098
232	0xbcc7478e	-0.024326112
233	0xbdd5172e	-0.10404812
234	0x3de86363	0.113470815
235	0xbdbb993c	-0.091600865
236	0xbe00c47e	-0.12574956
237	0xbbef4695	-0.007302115
238	0x3d67a69d	0.05655538
239	0xbd021ddd	-0.03176676
240	0xbdd060c8	-0.101747096
241	0xbd39cb1b	-0.045359712
242	0xbe0490fd	-0.12945934
243	0x3db52981	0.08845807
244	0xbcaa1fd8	-0.020767137
245	0x3e073a76	0.13205895
246	0xbe04a9ae	-0.12955353
247	0xbe2ce6b4	-0.16884881
248	0x3c24e970	0.010065421
249	0x3d241053	0.04005463
250	0x3dafb59b	0.0857956
251	0xbdd54d84	-0.104151756
252	0x3d2dc237	0.042421546
253	0xbe5afc95	-0.21385415
254	0xbe87b9c3	-0.26508912
255	0xbcf8c3f7	-0.03036688

action_model._discrete_distribution.branches.0.bias f4 [3]
0	0xbd8604ff	-0.06543922
1	0x3a23d1af	0.0006249202
2	0x3d839fed	0.06426988

action_model._discrete_distribution.branches.1.weight f4 [2, 128]
0	0xbc90bac8	-0.01766719
1	0xbb9e2c8c	-0.0048270877
2	0x3d111e6c	0.035429403
3	0xbde81484	-0.11332038
4	0xbd0cf144	-0.034409776
5	0x3dd5ce09	0.10439689
6	0x3e11370b	0.14181153
7	0xbdb1f157	-0.0868861
8	0x3d7ddaa4	0.06197609
9	0x3de28f26	0.1106246
10	0x3e2f7eb6	0.1713818
11	0x3dd04d56	0.10171001
12	0xbc8a631d	-0.016892964
13	0xbc91fad3	-0.017819798
14	0x3d20acb6	0.03922721
15	0xbe5e6641	-0.21718694
16	0xbe08f333	-0.13374023
17	0xbd1ad511	-0.037800852
18	0xbd2103f8	-0.039310426
19	0x3e04cdd4	0.12969142
20	0xbbb8eab2	-0.0056432122
21	0xbd3d009d	-0.046143163
22	0x3d24f2ca	0.040270604
23	0xbd41cffd	-0.047317494
24	0xbd7b2aa3	-0.06131996
25	0xbd87b222	-0.06625773
26	0x3c7c9f26	0.015418803
27	0x3e56c15d	0.209722
28	0x3d1adc3f	0.0378077
29	0x3e122630	0.1427238
30	0xbe079988	-0.13242161
31	0x3c6cbb69	0.014448979
32	0x3cae279e	0.021259125
33	0xbd578b94	-0.052623346
34	0xbd291056	-0.041275345
35	0xbc1d6634	-0.009606887
36	0xbe616d8b	-0.22014444
37	0x3cf8e12b	0.030380806
38	0x3d8d24cc	0.06891784
39	0xbccd1af5	-0.025037268
40	0xbd88f31c	-0.066869944
41	0x3ce9d38f	0.028543262
42	0xbe9792e5	-0.2960426
43	0xbcc3ff57	-0.023925466
44	0x3dab7eb2	0.083737746
45	0xbdfaf9a0	-0.122546434
46	0xbdd1815a	-0.1022975
47	0x3b67e3f7	0.003538368
48	0xbdd9df1f	-0.1063826
49	0xbd7ee1e8	-0.06222716
50	0x3b564857	0.0032696927
51	0xbd174fb4	-0.036941245
52	0x3d19c562	0.037541755
53	0xbe056ef4	-0.13030607
54	0x3d49fbb8	0.049312323
55	0xbd361c6c	-0.0444607
56	0x3dab6ab6	0.08369963
57	0xbdb60c3c	-0.08889052
58	0xbd230c21	-0.03980649
59	0xbe0503c6	-0.1298972
60	0xbda27364	-0.07932165
61	0xbd7e0ce0	-0.062023997
62	0x3d1a40df	0.037659522
63	0x3dd42b9c	0.1035988
64	0x3dfa8bc9	0.12233693
65	0x3b5fa1fc	0.003412365
66	0xbd9a1cee	-0.07525049
67	0xbe2f4c44	-0.17118937
68	0x3d5c3fc5	0.053771753
69	0xbcc0c20a	-0.023530025
70	0xbd2b01c7	-0.041749742
71	0x3dc2227e	0.09479235
72	0xbd1c914e	-0.03822451
73	0xbc41fd5e	-0.011840193
74	0xbd599b71	-0.053126756
75	0x3da8240f	0.08210003
76	0x3d0cfefc	0.03442286
77	0x3e27a5d9	0.1637186
78	0x3cc0f8df	0.023556171
79	0xbd1a53f9	-0.03767774
80	0x3d425a6f	0.047449525
81	0xbd1862dc	-0.037203655
82	0xbe3b0ba0	-0.18266153
83	0x3d9da3ca	0.07697256
84	0xbe84309a	-0.2581833
85	0x3aee9065	0.0018200992
86	0x3da787b9	0.08180184
87	0xbdcaa26d	-0.098942615
88	0x3e1d14d4	0.15339977
89	0x3dff2a2b	0.12459215
90	0xbdd049ed	-0.1017035
91	0x3c2c5504	0.010518316
92	0xbe192de3	-0.1495891
93	0x3c84b548	0.016199723
94	0x3d9e6e41	0.07735873
95	0xbd99d504	-0.07511333
96	0x3cc6fa2e	0.024289217
97	0xbe4a3dc9	-0.19750132
98	0x3db3a8d2	0.08772434
99	0x3c29f5ed	0.010373575
100	0xbd43e4c0	-0.047825575
101	0x3da08177	0.078371935
102	0x3db8449c	0.08997461
103	0xbd9c96a0	-0.07645917
104	0x3d1c5a84	0.03817226
105	0x3d00afb5	0.031417567
106	0x3dedc03b	0.11608931
107	0xbb07cb41	-0.0020720514
108	0xbe0e5cfb	-0.13902657
109	0xbd5c203a	-0.05374167
110	0xbd20db49	-0.039271627
111	0xbdc2926b	-0.09500583
112	0x3e103c32	0.14085463
113	0x3d9f54be	0.07779835
114	0xbb4c1e9c	-0.0031146174
115	0x3d24e77e	0.04025983
116	0x3d38ac05	0.045085926
117	0xbdbec5d8	-0.093150795
118	0xbd84ccb0	-0.064843535
119	0xbe60eae0	-0.21964598
120	0x3cc15870	0.02360174
121	0x3e012846	0.1261302
122	0x3dd54e1b	0.10415288
123	0x3da00631	0.07813681
124	0x3db28079	0.087159105
125	0xbdd2a11f	-0.10284638
126	0x3d8b645f	0.06806254
127	0xbdc75eb2	-0.097348586
128	0x3caf3f60	0.021392524
129	0xbb618f12	-0.0034417552
130	0xbd63af3c	-0.05558704
131	0x3ddd3846	0.10801749
132	0x3ce3c9ee	0.027806249
133	0xbddab492	-0.10678972
134	0xbe0a5971	-0.13510682
135	0x3d880bca	0.066428736
136	0xbd74c24a	-0.0597556
137	0xbdf743a6	-0.1207345
138	0xbe2991c0	-0.16559505
139	0xbe06cb57	-0.13163505
140	0x3c2918fe	0.0103209
141	0x3b136ab7	0.0022494027
142	0xbce81912	-0.028332267
143	0x3e53db11	0.20689036
144	0x3e0fc057	0.14038216
145	0x3d5019f3	0.050805997
146	0x3d70fb7a	0.058833577
147	0xbdfc92a5	-0.12332658
148	0xbb08970c	-0.0020841984
149	0x3d6f6124	0.05844225
150	0xbd232330	-0.03982848
151	0x3d7da5f2	0.061925836
152	0x3d78592a	0.06063191
153	0x3d87a8c9	0.0662399
154	0xbc27d833	-0.010244417
155	0xbe42b8ec	-0.19015855
156	0xbd1a2062	-0.03762854
157	0xbe0dcc34	-0.13847429
158	0x3e05dec9	0.13073267
159	0xbc4a73fe	-0.012356756
160	0xbcbfe9b9	-0.023426877
161	0x3d7559b0	0.059899986
162	0x3d38b601	0.045095447
163	0x3c41c366	0.011826372
164	0x3e64ccd4	0.2234376
165	0xbd03ecd5	-0.032208283
166	0xbd8c85b6	-0.06861441
167	0x3c559b01	0.013037444
168	0x3d854afe	0.06508444
169	0xbd06732d	-0.032824684
170	0x3e9001c7	0.28126356
171	0x3ca0eb36	0.019643407
172	0xbd6290c1	-0.05531383
173	0x3de92060	0.11383128
174	0x3e02fd5f	0.12791966
175	0x3c45a1d2	0.012062507
176	0x3dba97d5	0.09110991
177	0x3d6c9f0a	0.05776886
178	0x3c253d70	0.010085449
179	0x3caac3fa	0.020845402
180	0xbd12f551	-0.035878483
181	0x3e201615	0.15633424
182	0xbc9fd67a	-0.01951145
183	0x3d3e4bdc	0.046459064
184	0xbd9968b5	-0.074906744
185	0x3dbe6ed3	0.09298482
186	0x3d0f0d08	0.034924537
187	0x3e1b947b	0.1519336
188	0x3da3dd81	0.08001233
189	0x3d834fce	0.06411706
190	0xbd051d0c	-0.032498404
191	0xbdfa9816	-0.12236039
192	0xbdf02c67	-0.11727219
193	0xbbc6792b	-0.006056925
194	0x3dadd82c	0.08488497
195	0x3e2e2560	0.17006445
196	0xbd8802cb	-0.06641158
197	0x3d0773b4	0.033069327
198	0x3d84b204	0.06479266
199	0xbdb6383c	-0.088974446
200	0x3d1d207e	0.038361065
201	0x3b985f71	0.0046500494
202	0x3d524d65	0.05134334
203	0xbd734e25	-0.059400696
204	0xbcee5c9a	-0.02909689
205	0xbe34670c	-0.17617434
206	0xbca99aae	-0.02070364
207	0x3cbb6947	0.022877349
208	0xbd55b92c	-0.052178547
209	0x3d07e61f	0.033178445
210	0x3e3b6e72	0.1830385
211	0xbd339ddc	-0.04385172
212	0x3e687bdd	0.227035
213	0x3a33a27a	0.0006852519
214	0xbdc4fffa	-0.09619136
215	0x3de4d895	0.11174122
216	0xbe3165b2	-0.1732395
217	0xbdfaaaa9	-0.12239582
218	0x3db64a5c	0.08900902
219	0xbc19384f	-0.009351804
220	0x3e31d057	0.17364632
221	0xbcb88b34	-0.022527315
222	0xbdc342ef	-0.09534251
223	0x3db13e42	0.08654453
224	0xbd2bdbc8	-0.041957647
225	0x3e534b66	0.20634231
226	0xbd88dae9	-0.06682379
227	0xbcc0e04a	-0.02354445
228	0x3d986c81	0.074425705
229	0xbd656319	-0.05600271
230	0xbda3625f	-0.07977747
231	0x3db64884	0.0890055
232	0xbd507701	-0.05089474
233	0xbcb52d93	-0.022116458
234	0xbdde073b	-0.10841223
235	0x3c916752	0.017749462
236	0x3e1cd029	0.15313782
237	0x3c812c1c	0.015768103
238	0x3d25cfda	0.040481426
239	0x3dd1900e	0.102325544
240	0xbe110964	-0.14163738
241	0xbd833941	-0.06407405
242	0x3c1df95a	0.00964197
243	0xbc81b346	-0.015832555
244	0xbd238f66	-0.039931677
245	0x3da30909	0.07960708
246	0x3da615d1	0.0810963
247	0x3e66f3c5	0.22553928
248	0xbcea6e06	-0.028616916
249	0xbe04df47	-0.12975799
250	0xbdcb46ea	-0.09925635
251	0xbd944719	-0.07240123
252	0xbd9a7dd9	-0.07543535
253	0x3de02864	0.10945204
254	0xbd5cfc41	-0.053951506
255	0x3de90719	0.11378307

action_model._discrete_distribution.branches.1.bias f4 [2]
0	0xbd0821b6	-0.033235274
1	0x3d0821ba	0.03323529
