results/Hard_6/Player/checkpoint.pt (torch, 893027 bytes, 72 tensors)

discrete_act_size_vector f4 [1, 4]
000000 00 00 40 40 00 00 00 40 00 00 40 40 00 00 40 40
       3.0 2.0 3.0 3.0

network_body.observation_encoder.processors.0.normalizer.running_mean f4 [15]
000000 ba 8e 74 bf f4 3f de c0 36 7e 32 40 09 5e 6a 41
       -0.95530283 -6.945307 2.7889533 14.647958
000010 5f a4 b5 40 93 59 44 41 b3 7c a5 40 ca 7a c8 40
       5.676315 12.271869 5.171472 6.264989
000020 f3 7a 51 bf cf 1e b4 c0 63 8c 00 40 6b a2 28 3e
       -0.8182823 -5.628761 2.0085685 0.16468208
000030 08 86 c5 be 31 1d ac bc 11 64 94 3b
       -0.3857882 -0.021010013 0.0045285304

network_body.observation_encoder.processors.0.normalizer.running_variance f4 [15]
000000 9d 1c d0 4c e1 6d c3 44 84 d7 ec 4a 00 31 94 4c
       1.09110504e+08 1563.4337 7.760834e+06 7.769498e+07
000010 fa 1f 55 4b d8 35 4a 4c 63 00 08 4a 20 3e 0c 4a
       1.3967354e+07 5.3008224e+07 2.2282488e+06 2.297736e+06
000020 e0 0e 25 4c b1 11 29 4b ef e7 29 4b 9d f0 13 4d
       4.326899e+07 1.1080113e+07 1.1134959e+07 1.5512622e+08
000030 eb 33 9a 4a d9 be 0c 4b 29 42 21 45
       5.0529175e+06 9.223897e+06 2580.135

network_body.processors.0.normalizer.running_mean f4 [15]
000000 ba 8e 74 bf f4 3f de c0 36 7e 32 40 09 5e 6a 41
       -0.95530283 -6.945307 2.7889533 14.647958
000010 5f a4 b5 40 93 59 44 41 b3 7c a5 40 ca 7a c8 40
       5.676315 12.271869 5.171472 6.264989
000020 f3 7a 51 bf cf 1e b4 c0 63 8c 00 40 6b a2 28 3e
       -0.8182823 -5.628761 2.0085685 0.16468208
000030 08 86 c5 be 31 1d ac bc 11 64 94 3b
       -0.3857882 -0.021010013 0.0045285304

network_body.processors.0.normalizer.running_variance f4 [15]
000000 9d 1c d0 4c e1 6d c3 44 84 d7 ec 4a 00 31 94 4c
       1.09110504e+08 1563.4337 7.760834e+06 7.769498e+07
000010 fa 1f 55 4b d8 35 4a 4c 63 00 08 4a 20 3e 0c 4a
       1.3967354e+07 5.3008224e+07 2.2282488e+06 2.297736e+06
000020 e0 0e 25 4c b1 11 29 4b ef e7 29 4b 9d f0 13 4d
       4.326899e+07 1.1080113e+07 1.1134959e+07 1.5512622e+08
000030 eb 33 9a 4a d9 be 0c 4b 29 42 21 45
       5.0529175e+06 9.223897e+06 2580.135

network_body._body_endoder.seq_layers.0.weight f4 [128, 15]
000000 1e d1 98 3e f4 be 2f bf 92 3a d6 be 92 45 0f bd
       0.29847044 -0.68650746 -0.4184156 -0.034978457
000010 c3 12 76 3e a6 a3 b1 3d 6c a4 95 be 4a 56 cf 3e
       0.24030595 0.086737916 -0.29227006 0.4049552
000020 a5 d6 2c 3e b4 6e 0e 3c 34 2f c5 be 04 51 02 3e
       0.16878755 0.008693386 -0.38512576 0.12726218
000030 f0 f3 b0 3c f0 a7 de bc 83 1e 9d be 07 b8 de be
       0.021600693 -0.027179688 -0.3068734 -0.43499777
000040 b4 83 c7 bd 10 be 81 be 19 af 4a 3e 2d 84 8c 3e
       -0.09741917 -0.2534032 0.19793357 0.27444592
000050 19 ff b5 3c c9 4b 3d 3e 7a 6c 15 3e ba 56 4a 3c
       0.022216367 0.18485941 0.14592162 0.012349779
000060 62 36 7c be 5b f2 83 bc 41 e7 4c 3e c0 80 a7 be
       -0.2463012 -0.016106775 0.20010091 -0.32715416
000070 ed 20 97 be ae 82 d8 3e 1d f3 05 bf 30 6c 8c be
       -0.29517308 0.422872 -0.52324086 -0.2742629
000080 77 9d 5a 3e 44 79 ad 3e ae 71 c9 bc 5d d0 60 3e
       0.2134913 0.3388158 -0.02459034 0.21954484
000090 03 3f bd 3e 43 39 92 be 1c e8 5c 3e 04 87 87 be
       0.36962137 -0.28559312 0.21572918 -0.26470196
0000a0 19 b4 02 3f 7b eb ac bb 54 b5 9b be 7a 35 a3 be
       0.5105606 -0.005277095 -0.3041178 -0.31876737
0000b0 a8 14 f4 bd f5 43 2e be f7 bd a2 3d 8d 69 8f 3e
       -0.11918002 -0.17018111 0.07946389 0.28010216
0000c0 9f 7a 13 bf 08 34 0e 3d bc 23 40 3e 86 a5 e5 3e
       -0.5760898 0.03471759 0.18763632 0.44852847
0000d0 21 c3 89 be 00 ef 76 3e 3a ae 8e be 9e 6b a7 3e
       -0.26906684 0.24114609 -0.278673 0.32699293
0000e0 6c 89 7a 3e bf bf 94 bd 72 5a a8 be 76 9b e0 bc
       0.24466485 -0.07263135 -0.32881504 -0.02741788
0000f0 e6 d1 95 be dd 00 88 3e 57 3d 49 3e 16 4d 09 3f
       -0.29261702 0.2656316 0.19652306 0.5363325
000100 7b 1a 8b 3e 73 93 fd bb b8 50 dc bd 22 b1 0e be
       0.2716864 -0.0077385246 -0.107575834 -0.13934758
000110 a6 86 b2 be 44 be df be 49 7e a0 be c2 b7 66 be
       -0.34868354 -0.4369985 -0.31346348 -0.22531036
000120 a2 4e 58 3d fd 3c 8d 3d b7 a6 68 be 1c 14 fc 3d
       0.052809365 0.06896398 -0.22719847 0.12308523
000130 04 ea e9 3e c3 b7 0d be 0d 50 52 be 74 5f cc bc
       0.45686352 -0.13839631 -0.2053835 -0.02494786
000140 aa 27 01 3e a3 43 04 be 2b f2 66 3e 18 55 53 be
       0.12612787 -0.12916426 0.22553317 -0.2063793
000150 4c 40 96 3c cb ca 25 3e 90 91 76 be 0e d4 95 be
       0.018341206 0.1619064 -0.24078965 -0.29263347
000160 f6 94 f4 3e a5 30 90 be 59 fa c0 3e cc 07 d0 3e
       0.47769898 -0.28162113 0.37691 0.4063095
000170 79 0c 8c 3e 24 7e f8 be 9c 65 b4 bc 33 42 98 be
       0.27353266 -0.48533738 -0.022021107 -0.29738006
000180 78 09 8e 3e ca 27 96 3e 6f 9a fd be cb c1 d1 3d
       0.277416 0.29327232 -0.49531886 0.10242041
000190 58 a3 ec 3e e7 84 86 3e 4c de c8 3c c4 95 e3 bd
       0.4621837 0.2627327 0.024520062 -0.1111255
0001a0 42 ca a8 be 6b ec bb bd 3f 5d 1d 3f 3d 77 47 be
       -0.3296681 -0.091759525 0.6147041 -0.1947908
0001b0 9f b5 2b 3f 69 b9 3a 3d 60 18 68 3d 6a 78 a4 3d
       0.67074007 0.045586977 0.05666387 0.0803078
0001c0 7e e9 b1 3e c7 5e cb bd 07 6e fd 3d 61 39 93 3c
       0.34748453 -0.09930187 0.12374502 0.017971696
0001d0 9d b0 64 3e b3 a6 28 3f 94 4e 4e 3e c2 e4 46 3e
       0.22332998 0.6587936 0.20147163 0.19423202
0001e0 d2 ee db bd a2 1d 44 bb 1f ae 14 bf 7f ad 83 be
       -0.10738911 -0.002992489 -0.5807819 -0.25718305
0001f0 b1 46 8c bd 20 63 16 3d 16 76 10 bf 16 d8 f4 3e
       -0.06849421 0.036715627 -0.56430185 0.4782111
000200 e3 8e f0 3e 05 2e 57 3e a6 3e 4c be 37 af 46 be
       0.46984014 0.21013649 -0.19945773 -0.19402777
000210 76 f7 7d be 45 aa 78 3d e9 0e 72 be 4b fd ff bd
       -0.2480143 0.060709257 -0.236385 -0.12499484
000220 51 20 97 be 1b ff f5 3e 31 d5 d4 3d 7c 17 20 3e
       -0.29516843 0.48046193 0.103922255 0.15633959
000230 3c 2f 0a 3e 27 fe 31 be 35 75 6e 3e 7a e9 cf 3e
       0.13494581 -0.17382108 0.23286898 0.40607816
000240 f5 7c 9f be a3 e4 37 be e8 03 97 3e bf b4 c9 bd
       -0.31150022 -0.17958312 0.29495168 -0.09848928
000250 34 04 16 be 1e 8a b0 be ba af 52 be 0c fa 0c 3d
       -0.14650041 -0.34480375 -0.20574847 0.03441815
000260 dd 69 bc 3e 95 0d e8 3e 3e b3 04 3f a9 8a a8 3e
       0.36799517 0.45322862 0.51836 0.3291829
000270 d2 c1 e1 be b4 b0 29 3e e0 ed d7 bd 28 c3 8a 3e
       -0.44093186 0.16571313 -0.10543418 0.27102017
000280 d6 be 09 3e 90 6a 20 bd 58 05 97 be cf 96 15 be
       0.13451704 -0.039164126 -0.29496264 -0.1460831
000290 28 53 ad 3c 41 31 c4 be 23 25 11 3e c6 ae 9d be
       0.021157816 -0.38318828 0.14174323 -0.30797404
0002a0 dd ce 45 bf 12 b2 6c 3e d6 6a b1 be 9e 68 7c bd
       -0.77268773 0.23114803 -0.34651822 -0.06162321
0002b0 b2 fb 6c be e0 26 05 3e e7 d5 9c 3e 08 fa a1 be
       -0.23142889 0.13003111 0.30631945 -0.3163607
0002c0 60 41 d2 3e 64 cc d5 3b e1 80 d1 3d f2 5a 01 be
       0.41065502 0.0065246094 0.1022966 -0.12632349
0002d0 44 b9 e4 3e 51 fc 16 3c 57 b6 df be 97 67 aa bd
       0.44672596 0.00921543 -0.43693802 -0.083205394
0002e0 24 f8 95 3c ab 37 90 bb 57 7a 99 3d 7b f1 c5 3c
       0.0183068 -0.0044011674 0.074940376 0.024162998
0002f0 61 43 d9 be 1c 97 3a be 55 a9 39 3f 25 dc 18 3e
       -0.4243422 -0.18221706 0.72524005 0.14927728
000300 94 49 dc be a1 34 cf 3e 26 1d 67 3e d2 12 c6 3e
       -0.43024886 0.4046984 0.22569713 0.38686234
000310 1a 92 92 bd 73 c3 e4 be e4 43 ab 3d 3f 12 29 bf
       -0.07156773 -0.44680366 0.083625585 -0.66043466
000320 bd e1 c2 3d 2a 63 65 be e7 f3 c4 bd f8 0e 45 3e
       0.095157124 -0.2240111 -0.09616833 0.19243991
000330 63 79 26 3e 46 08 f1 3e e8 fd 54 3d 39 4a 44 3e
       0.16257243 0.47076625 0.051999956 0.19168939
000340 f0 51 24 bf 45 95 e2 3c 65 81 17 bf 7e 72 96 be
       -0.64187527 0.027659068 -0.59181815 -0.29384226
000350 ba 9a a7 be 72 2e 92 be f8 7c 0e 3c 69 af ad be
       -0.32735234 -0.2855106 0.008696787 -0.3392289
000360 c8 fa 74 3e 70 13 c4 bd 47 ae e4 be 8f eb 99 be
       0.2392379 -0.0957402 -0.44664213 -0.3006253
000370 07 91 97 3d 3b 83 22 3e 5b 7e 0b 3d 15 3d 98 be
       0.07400709 0.15870373 0.03405605 -0.29734102
000380 09 b7 4c bd 36 78 db 3d cf 32 13 3f 93 d6 20 3e
       -0.049979243 0.10716288 0.574994 0.15706854
000390 5f fc 25 bf d1 4e 74 3e cf d7 90 3e 2c 71 a5 3e
       -0.6483821 0.23858191 0.2828965 0.32312906
0003a0 35 0f 80 be a3 a1 c6 be 0c 75 0e be 9a 56 92 be
       -0.25011602 -0.38795194 -0.13911837 -0.28581697
0003b0 b8 a4 85 be 1c ba 1a 3f b6 ec 29 3d 00 0f 1b bd
       -0.26102233 0.6044023 0.04148551 -0.037856102
0003c0 ba aa 82 3e 5d 2b 37 3d d5 a2 84 be c0 1d 8f bd
       0.2552088 0.04471909 -0.2590548 -0.06988096
0003d0 a2 73 2a 3f c3 4a b0 3e 08 1c ae 3d 99 7e 9c 3e
       0.6658269 0.3443204 0.0850144 0.30565336
0003e0 b7 3c 0e bf 8f 4a 88 be 7d ae 14 3f 3e 0f 8b 3d
       -0.55561393 -0.26619384 0.5807875 0.067900166
0003f0 0f e5 e1 3d 54 d8 81 be 28 4f 76 3e 30 f5 80 3c
       0.110300176 -0.25360358 0.24053633 0.015741915

network_body._body_endoder.seq_layers.0.bias f4 [128]
000000 49 e6 8a 3c 37 0f 8c bd 78 0f 6e bd 14 64 90 3b
       0.016955512 -0.068388395 -0.05812022 0.0044064615
000010 96 bd 2a 3c 03 97 06 bc c4 90 00 3d bd 33 71 bb
       0.010421177 -0.008214715 0.03138806 -0.003680452
000020 51 37 3e 3c 12 57 00 3d cc 0b e4 3d 2c 7d af bc
       0.011609868 0.031333037 0.111350626 -0.021421991
000030 6c 66 60 bc 40 63 a6 3d d8 c1 53 bd 28 b4 ef 3d
       -0.013696294 0.08124399 -0.051698536 0.11704284
000040 6f 3f a6 3d c3 96 9a bd 2e 4d af bc 0c e6 25 3d
       0.08117568 -0.07548287 -0.021399107 0.040502593
000050 67 39 fa 3b 89 f6 fd 3c ac dc 57 bb 6e 0f 06 3d
       0.0076362374 0.031001346 -0.0032937927 0.03272956
000060 b1 95 e7 3c 30 28 b8 bd df 91 46 3d a8 08 cb 3d
       0.02826962 -0.0899204 0.048478957 0.099137604
000070 d1 cd f8 3c 8e 2f 84 3c 52 ca 4d bd e9 56 93 3d
       0.030371578 0.016135957 -0.050241776 0.07194311
000080 7b b0 04 3e 96 11 18 bd 74 ed de bd 67 e7 07 3e
       0.12957947 -0.037126146 -0.10885134 0.13271867
000090 f9 bd a0 bc 78 ab 9e 3c 3b 1b 20 bd 6a 25 d3 3d
       -0.019621836 0.019368872 -0.03908847 0.103098705
0000a0 d6 59 c8 bc ae 2f 05 3d 40 3f 82 3c 55 a6 c1 3c
       -0.0244569 0.032516174 0.0158993 0.023638884
0000b0 9e 70 28 bb 3f 82 8f 3d ad 6e b2 3d be 6c 6b 3d
       -0.002570189 0.07007264 0.08712516 0.05747675
0000c0 dd d5 40 3d 66 2b 8f bc 18 26 5a bc 93 f6 ed 3d
       0.047078956 -0.017476749 -0.013314746 0.11619296
0000d0 f8 7d c9 3d ee f6 d5 3b 45 01 cb 3d 61 15 00 3e
       0.0983848 0.0065296805 0.099123515 0.12508155
0000e0 1c 11 7a bd e7 02 fa 3d 25 f9 5c 3d ea b1 ca bc
       -0.061051473 0.12207585 0.05394854 -0.02474304
0000f0 3e ea 58 3d bf 9c 26 bd 40 7f 62 3d e5 30 1f 3d
       0.052957766 -0.04067683 0.055297136 0.03886499
000100 31 b5 9d 3d 48 78 2b 3e 5d ea 91 3d e1 83 1a 3d
       0.07700575 0.16745102 0.071247794 0.037723426
000110 d9 6e 8b bb 48 b5 e0 3d 1d 39 00 3e 78 4f 1b 3e
       -0.0042551574 0.10972077 0.12521787 0.15167034
000120 0d 4a 71 3d e7 83 bc bc 09 ce 92 bd fe 0b 02 3d
       0.05890851 -0.023012115 -0.07168204 0.031749718
000130 ba 8f 8d bd 96 cc 8d 3c ad c3 47 bd a0 a3 0b bd
       -0.06912179 0.017309468 -0.048770595 -0.03409159
000140 0a 55 43 3d 02 32 7b 3d d4 e6 b3 bc d6 5c f7 bc
       0.04768852 0.061326988 -0.021960653 -0.030195635
000150 2a 2a 20 bd 48 3c 40 bc ea 92 d2 3d d4 a7 da 3d
       -0.03910271 -0.011733122 0.10281928 0.10676542
000160 1d ed e6 3a e1 b8 b9 3d 50 db f4 3d be e8 7a 3d
       0.0017618273 0.09068466 0.11955893 0.061257116
000170 be ed 21 3d 28 64 fd bb ad db 14 bc 43 5d c4 3d
       0.03953337 -0.007732887 -0.009085578 0.09588101
000180 ed d0 dc 3c 6d 97 c8 3d 3e 67 14 3e 3a 94 fb 3c
       0.026955092 0.09794507 0.14492509 0.030710328
000190 25 9c 59 bd f0 61 43 3c 80 8b 4d bd c1 7d 22 bd
       -0.053127427 0.011925206 -0.050181866 -0.03967071
0001a0 0f 59 c2 3d 01 63 d5 3d c2 4e f9 3c a1 3b 18 3e
       0.09489643 0.10419274 0.030433062 0.14866497
0001b0 a9 2f 4b 3d 78 81 98 3d 51 65 14 3d 93 a1 98 3d
       0.049606 0.07446569 0.036229435 0.07452693
0001c0 c0 0b 19 3d fd da a6 bc d5 a5 d4 bd 41 29 38 3c
       0.03736472 -0.020368094 -0.103831924 0.011240304
0001d0 db 4d 8d 3d 42 22 b5 bc e2 7b d3 3d 68 8e 7f bb
       0.068996154 -0.022111062 0.10326363 -0.0038994793
0001e0 57 45 1b 3e 2a 18 29 3d 9a 6b b0 3d cb c0 0c bd
       0.1516317 0.04128281 0.08614273 -0.03436355
0001f0 c6 60 0e 3d f8 84 ff 3d 67 dd 35 bd 6d 9d 27 3d
       0.03476026 0.12476534 -0.0444006 0.040921617

network_body._body_endoder.seq_layers.2.weight f4 [128, 128]
000000 5e 9b 7d 3d 86 8f 22 3e b1 e3 47 bd 68 5c a3 bd
       0.061915748 0.15875062 -0.048801128 -0.079766095
000010 c3 89 42 bd 60 ed ba 3d 7c e3 2f 3d ef b7 e4 bd
       -0.04749466 0.09127307 0.042941555 -0.11167895
000020 d2 87 18 3e 05 88 60 3d c0 99 af 3d 09 5e 8a bc
       0.14895561 0.05481722 0.08574247 -0.016890543
000030 51 02 2f 3e 90 a9 28 bd 31 1d 76 3d f1 ed 04 be
       0.17090727 -0.041177332 0.060086433 -0.12981392
000040 69 c2 b0 bd d8 a0 bc bd 7b 89 cb 3d 5c c0 41 3e
       -0.08630831 -0.09210366 0.09938332 0.18921036
000050 98 81 29 bc 6f 2c 0b bd 6f 55 52 3e d3 65 46 3d
       -0.010345839 -0.033977922 0.20540403 0.04843695
000060 86 f2 84 39 d4 bc d5 3d 1e 8a b6 3d 2e 25 87 3d
       0.00025357696 0.10436407 0.089130625 0.06598888
000070 dd ac 01 3e 67 e5 58 3e 1f fb 2a bd c0 16 68 bc
       0.12663598 0.2118126 -0.041743394 -0.01416558
000080 c5 69 5a 3d cc d7 f8 bd ce 52 36 ba d5 bc ae be
       0.053323526 -0.12150535 -0.0006955088 -0.34128442
000090 24 c9 2f bc 54 3e 45 3e c6 c3 94 3d 05 aa 2a 3d
       -0.010729108 0.19262058 0.07263903 0.04166605
0000a0 5c 1b 83 3c 4b 47 4e 3e 38 a3 61 3d d8 bc bd 3d
       0.016004257 0.20144384 0.0550873 0.09264535
0000b0 05 7e 8d 3c 75 4b 05 be f7 b2 f3 3d 6c 8e 13 3d
       0.017272005 -0.13017066 0.11899369 0.036024496
0000c0 29 0e b7 bd 55 ef c1 3d 7b 97 a5 3d ce 1c 6b 3d
       -0.08938248 0.09469477 0.08085533 0.057400517
0000d0 03 3d e7 bc 9b a4 6f 3d 1a 66 35 be 07 c0 ff 3d
       -0.028227335 0.05850659 -0.1771473 0.12487798
0000e0 4f 07 22 bd 81 97 12 be bf 31 99 3c c1 e8 0c be
       -0.03955775 -0.14315607 0.018700479 -0.13760664
0000f0 a1 0c d1 3b 81 2c d5 bd f8 fb cb 3d cd 15 f5 3d
       0.0063796793 -0.10408879 0.099601686 0.11967049
000100 1d 12 98 3c 4d 55 f6 3b 8d 83 10 3d eb da d1 3d
       0.018563325 0.007517493 0.035281707 0.102468334
000110 62 e1 f7 3d 7b 99 9b bd ef 12 19 bd f4 09 74 3e
       0.12103535 -0.075976335 -0.037371572 0.23831922
000120 4d d3 68 bd cb ec 13 3e f5 ad 9e 3d 89 8b 19 3e
       -0.056842137 0.14445798 0.077480234 0.14994635
000130 97 70 06 3d 30 67 28 bd 0b 59 33 bd 9f 7c c8 3c
       0.032822218 -0.041114032 -0.04378609 0.024473486
000140 25 d6 ba 3d c1 f0 a9 bd b4 43 c0 3c 26 1c 57 be
       0.09122876 -0.08297873 0.023469783 -0.21006832
000150 7b 83 37 bd 0f 93 2c be df d0 1a be 20 d5 03 3c
       -0.044803124 -0.16852973 -0.1511874 0.008046418
000160 63 45 d8 3d 18 c4 94 bd ac c0 10 be 93 9d 28 be
       0.105601095 -0.072639644 -0.14135998 -0.1646636
000170 77 3f d2 bd 76 a9 f2 bc f5 e7 a0 bd fa 9d 0f 3e
       -0.10266011 -0.02962182 -0.07856742 0.14025107
000180 06 70 91 3d ad 22 fc bb d8 62 0c 3e 78 7c fb 3d
       0.07101445 -0.0076945634 0.13709581 0.122796
000190 18 40 c4 bd 12 71 4d 3d ac 7b b4 bc f3 53 73 3d
       -0.095825374 0.05015666 -0.022031628 0.059406232
0001a0 c8 0c b0 3e 4e 0c 15 bd 0d 93 4f bd f4 d0 50 3c
       0.3438475 -0.036388688 -0.050677348 0.012745131
0001b0 7b 6d e4 bd 87 97 53 bd bb a5 2b bd b1 9e 27 be
       -0.11153694 -0.05165818 -0.0419061 -0.1636913
0001c0 4e 1c a6 3d 2d e5 20 bd 17 8e 8c bc 85 8c 13 3d
       0.081108674 -0.03928106 -0.017157597 0.03602268
0001d0 2f 1a b2 bd f2 5a 8c be 3c 7e e1 3d 98 6f 72 3c
       -0.086964004 -0.27413136 0.110104054 0.014797114
0001e0 d9 6e 03 3e 0c 6f f5 bb 3b cf d0 3d 39 71 cd 3d
       0.12835254 -0.0074900445 0.10195776 0.10031361
0001f0 24 12 ad 3d e0 14 00 3e 02 d3 97 3c 9c e1 53 3d
       0.08450726 0.12507963 0.018533234 0.05172883
000200 d8 17 21 bd b4 31 84 3d 49 2d 0e 3d 52 ca 68 be
       -0.03932938 0.064547926 0.034711156 -0.22733429
000210 28 d7 dc 3c a8 49 bf bb f8 4d 1f 3e 69 a5 10 3e
       0.026958063 -0.005837638 0.15557086 0.14125599
000220 b9 1a 44 3c 6d a1 e2 bd 97 2b 6c 3e 2b 5c 07 be
       0.011969262 -0.11065946 0.23063503 -0.13218753
000230 21 c9 31 3e 0c c1 80 be 89 ca 09 3e 93 35 29 bc
       0.17361881 -0.25147283 0.13456167 -0.0103277145
000240 f1 52 64 3e a7 73 b3 bd 43 ab d6 bd 99 8d 38 be
       0.22297265 -0.08762293 -0.10481884 -0.18022765
000250 bb b0 83 bd dc d0 24 bd 07 a2 99 3d da a0 17 3c
       -0.06430193 -0.040238246 0.075016074 0.009254659
000260 25 80 7f bd d2 96 1f be 16 6d aa 3e 6d 8b 80 3d
       -0.062378068 -0.15584877 0.3328635 0.06276593
000270 31 a4 03 3d 46 85 c9 bb 76 03 2c be d8 b6 b8 bd
       0.032139007 -0.0061499206 -0.16798195 -0.0901925
000280 f5 57 0a be 60 75 10 bd b6 96 e9 3c be 00 d1 bd
       -0.13510115 -0.035268188 0.028514247 -0.1020522
000290 41 3c 1d 3e ed 53 3e 3e bb 57 8d 3d 7f 58 d5 bd
       0.15355016 0.18586703 0.06901499 -0.1041727
0002a0 35 56 75 3e 22 f7 cd bc 23 11 18 3e 17 4b e7 3d
       0.23958667 -0.025142256 0.14850287 0.11293619
0002b0 b9 36 3c bd 64 07 5c 3d ca ee 44 be 01 cf c9 3d
       -0.045950625 0.053717986 -0.19231716 0.09853936
0002c0 90 3c 82 3b b3 40 0b 3e e1 8c 45 3e 7c 1b 52 3d
       0.003974505 0.135989 0.19292022 0.051295742
0002d0 24 e7 5d 3e 18 46 b9 bd 93 84 1d be b5 b6 f2 3d
       0.21670204 -0.090465724 -0.15382604 0.11851255
0002e0 8b 97 a9 bd fc 97 a5 bd 56 87 42 3e f4 03 a9 bd
       -0.08280858 -0.08085629 0.18996939 -0.08252707
0002f0 2b 1f 47 3e 17 78 69 3d bd cc 1b 3d cd 7b 82 3d
       0.19445483 0.056999292 0.03803705 0.063712694
000300 30 6b 03 3e e7 dc 70 3d b5 f1 93 3e 6d 9f 15 bd
       0.12833858 0.05880442 0.28895345 -0.036528993
000310 9b c0 17 be ae d6 77 3d 66 00 fe bc 29 e5 d8 3d
       -0.14819567 0.06050747 -0.03100605 0.10590584
000320 51 af 5e be 49 f9 a0 3d 4b b4 0b 3e 2b 33 f6 3d
       -0.21746565 0.07860047 0.13642995 0.12021478
000330 a5 d5 0a 3b 66 01 b0 3e e0 d8 4c 3e 5e 7f d7 3d
       0.002118447 0.34376067 0.20004606 0.1052234
000340 e5 ef 8e bd bc a9 0a be b0 da 13 be 33 39 b8 bd
       -0.0697935 -0.13541311 -0.14438891 -0.08995285
000350 12 18 e5 3d f5 87 73 bd fe 60 a7 be 0d 08 8a 3c
       0.11186232 -0.05945583 -0.32691187 0.016849542
000360 e9 d1 c4 bc f7 e8 db bd 81 dc 53 be d3 15 6c 3e
       -0.024025874 -0.10737794 -0.20689584 0.230552
000370 30 20 8d 3d 14 35 27 3e 84 be 33 be ce 52 8b bd
       0.06890905 0.16328841 -0.17553145 -0.06802903
000380 7c 0c 76 3d cf e0 69 be 40 ad 93 be 86 32 21 bd
       0.0600705 -0.22839664 -0.28843117 -0.039354824
000390 6f b9 01 bd 0b b7 ed bb b9 7e f9 bd 44 c5 54 bc
       -0.031670984 -0.0072544864 -0.121823736 -0.012986485
0003a0 aa aa ba 3d 0f 95 2d be 73 77 a2 bd b8 8b fc 3d
       0.09114583 -0.16951393 -0.079329394 0.12331337
0003b0 65 29 df bd 27 b2 3e bd 34 40 13 3d 45 46 c0 bd
       -0.10896567 -0.046556618 0.0359499 -0.09388403
0003c0 fd 49 6b bd ea c7 06 be d7 bf 2e bd 85 0b 9f 3c
       -0.057443608 -0.13162199 -0.04266342 0.019414673
0003d0 45 96 13 3e 26 68 b0 3e 81 8e f8 bd 09 ff 4d 3e
       0.14412792 0.3445446 -0.121365555 0.2011682
0003e0 0e 9d bd 3d 1c 9f e4 3d 1d ac 2a be 7a 0d 38 3d
       0.092584714 0.1116316 -0.16667219 0.044934727
0003f0 b0 91 2c bd 2e 16 0e 3d a0 de 03 3e de 1d 87 bd
       -0.042131126 0.03468912 0.12877893 -0.065974936

network_body._body_endoder.seq_layers.2.bias f4 [128]
000000 44 12 62 bc c7 d6 03 bd da df 66 3b cd c8 a9 3c
       -0.0137983 -0.03218725 0.003522864 0.020725632
000010 26 c5 db bc 28 27 97 3d e3 a9 75 3a 27 0b 3e 3c
       -0.026827406 0.07380515 0.00093713234 0.011599339
000020 4d 9d 96 bd 37 1f 09 bc aa c4 d5 bb 6b 4a de bc
       -0.073542215 -0.008369259 -0.0065236883 -0.027135095
000030 0b 05 ce 3d d5 79 00 3d 19 26 09 3d 2b 86 9e 3c
       0.100595556 0.031366188 0.0334836 0.019351086
000040 e8 f9 ab bc fd 18 4f 3d 75 48 02 bd 2a f7 b4 3c
       -0.020993188 0.05056094 -0.03180738 0.022090513
000050 83 ba b1 3c 19 6f 9c 3d 9a 8c e8 bc 9c 87 e7 bc
       0.021695381 0.07638378 -0.028387357 -0.028262906
000060 84 ef 41 3d df 7b e5 3b 8b cf 78 bc e4 e1 c2 3c
       0.04734756 0.007003292 -0.015186201 0.023789354
000070 eb af b6 bc 82 fc b7 3c a9 9f 86 3b 20 ab 0a bd
       -0.022300681 0.022459272 0.0041083884 -0.033854604
000080 46 86 cf 3c a6 aa 8a 3d ea 2a d6 bc 19 1e 51 bd
       0.025332581 0.0677083 -0.02614351 -0.051054094
000090 3b 7e 1f 3d 55 ea a6 bd 0a 49 0c 3b 6d c1 3b 3d
       0.038938742 -0.08150164 0.002140584 0.045838762
0000a0 dd 0c 1e 3d 6b e7 21 bd 9c 17 1f 3b e9 b8 45 bd
       0.038586486 -0.039527338 0.0024275547 -0.048272047
0000b0 c7 f4 17 bd c6 3c bb 3d bc b5 27 3d ad 33 cf 3a
       -0.037098672 0.09142451 0.0409448 0.0015808247
0000c0 26 f7 11 bd 75 56 31 bc 58 d1 98 bc cd b4 8b bd
       -0.03563609 -0.010823836 -0.01865451 -0.068215944
0000d0 92 0d 83 3d b0 a5 cc 3b db 26 12 bd af 39 32 3c
       0.06399073 0.0062453374 -0.035681587 0.010878011
0000e0 e9 c5 7d bc 2d b0 a1 bc 20 d3 54 3d fd e9 8e bc
       -0.01548908 -0.019737327 0.051959157 -0.017445559
0000f0 3e cf e7 bc 06 16 30 3e 26 ae 13 3e a7 b9 95 3d
       -0.028297063 0.17195901 0.14421901 0.07310801
000100 07 87 bf 3d 86 01 5b 3d dc 14 67 bd e0 af dc bd
       0.09351926 0.05346825 -0.056416377 -0.10775733
000110 2f f6 6a 3d c8 2e 01 bd 81 6b af 3c 0a 8b 11 bd
       0.057363685 -0.031538755 0.021413567 -0.03553299
000120 7e 7f f0 3d 5d e6 f8 bb df b9 55 3d ab d0 97 3b
       0.11743067 -0.007595821 0.052179214 0.0046330295
000130 d8 5b c1 3c 6a 41 b9 3b 40 d9 67 bd 1c fb dc 3c
       0.023603365 0.00565355 -0.05660367 0.026975207
000140 c3 9b b9 3c 03 8b d5 bb a9 10 9b bd 7c 95 3d bd
       0.02265728 -0.0065168156 -0.07571537 -0.046285138
000150 51 f6 9e 3c ca cc 0c bd 69 f9 85 bc 4d 14 a5 3c
       0.019404562 -0.03437499 -0.01635428 0.020151282
000160 c9 8a 8b 3d 98 28 f3 bb 96 31 33 bc da 6b 66 3c
       0.068135805 -0.0074206106 -0.010937115 0.0140638
000170 84 02 5a bd 2a b4 d9 3c 08 0a 6b bc ca ce 1b ba
       -0.053225055 0.026575167 -0.014345653 -0.0005943595
000180 c2 04 44 bd e8 ab 7a 3a b8 c5 9f bd 4b dd cb 3a
       -0.0478561 0.0009562359 -0.07801384 0.0015553621
000190 4c 62 90 bc 5f a3 31 bd fa 88 79 bb 21 2f f4 3b
       -0.017624997 -0.043368693 -0.003807603 0.0074519073
0001a0 1a fe 1d 3d 01 35 45 3c 05 f8 aa b9 f6 ec e4 3d
       0.03857241 0.012036563 -0.00032609716 0.11178009
0001b0 ce 59 9b bd c9 cb 6f bc 8b e0 5e 3c 71 02 b0 bd
       -0.07585488 -0.0146359885 0.01360334 -0.08594216
0001c0 61 36 a7 3c b6 ea 6f bb 1a 36 af 3a c7 de f0 3b
       0.020411672 -0.0036608404 0.0013367564 0.007350776
0001d0 91 12 12 bd cc 60 3e 3d 4b 46 9c 3d 9d 98 9f 3c
       -0.035662238 0.04647903 0.07630595 0.019481951
0001e0 b9 00 15 bd c7 2a 97 bd ae 86 63 3c d9 42 dd bc
       -0.036377642 -0.07381206 0.013887091 -0.027009415
0001f0 69 67 99 bc f8 92 b5 bc 77 27 ae bd 7b 4c 1a 3d
       -0.018726068 -0.022164807 -0.08503621 0.037670594

network_body._body_endoder.seq_layers.4.weight f4 [128, 128]
000000 ff f4 7d 3d 20 df dc 3d a0 e4 c8 3d b3 37 69 3a
       0.062001225 0.10784745 0.09809232 0.00088965445
000010 71 bd 55 be 7e b6 ca bd fd dc 86 be a8 e7 86 bd
       -0.20873047 -0.09898089 -0.26340476 -0.06587154
000020 6b 1c 3e 3d ce 40 0a 3d cf 56 4e 3b ed 5e 1f bd
       0.04641382 0.03375321 0.0031484847 -0.038908888
000030 5a 99 0a be eb 46 42 be 20 73 d9 3d 8a ea 56 3c
       -0.13535061 -0.18972366 0.106176615 0.013117442
000040 df 73 c6 bd 6a f7 a0 3d 22 47 69 be 74 83 5f be
       -0.096900694 0.078596905 -0.22781041 -0.21827489
000050 6c ac d8 3d 04 01 30 3e 53 fa 1d 3d b9 64 86 bd
       0.10579762 0.17187887 0.038568806 -0.0656218
000060 26 3f bb bc 92 6d ce 3c 3b a1 b4 3a 98 ce ba 3c
       -0.02285726 0.025198732 0.001378096 0.02280359
000070 7f 3d 8f 3d d9 3d 02 be 3f de 0d bc ff 12 0a be
       0.06994151 -0.12718906 -0.008658945 -0.13483809
000080 67 19 5b 3e 1b 82 11 be 91 19 12 3d 96 51 15 3e
       0.21396409 -0.14209788 0.035668913 0.14581904
000090 1a b9 ab 3d 48 eb b1 3c cb d1 f7 bd 32 8a b7 bd
       0.08384915 0.021718636 -0.12100562 -0.089619055
0000a0 f8 0a 4b 3e d4 60 d3 3d 74 cf 3b 3e 4b 39 2d 3e
       0.19828403 0.10321203 0.18340856 0.16916387
0000b0 20 b9 e2 bd 93 4e 37 be 6e d7 5e be 4d 6d f7 3b
       -0.11070466 -0.17901067 -0.21761867 0.0075508715
0000c0 c0 70 7f 3d 82 78 79 3e e4 5a 29 be 00 5f 2e be
       0.062363386 0.24362376 -0.16538578 -0.17028427
0000d0 26 59 08 be 15 4c 3d bd 7d e2 2f be a2 67 2d 3d
       -0.13315257 -0.046215136 -0.17176242 0.04233516
0000e0 9a c1 74 3d 70 a6 3f 3d 11 a3 fa 3c b5 43 3d 3e
       0.059754945 0.046789587 0.030595334 0.1848286
0000f0 a9 42 c2 bc 6e 8f 8a 3d 67 d5 40 be 91 57 e6 bd
       -0.023713427 0.06765638 -0.18831407 -0.11247171
000100 63 53 1f 3d d8 37 f9 bc 24 f9 d9 bd 23 b1 e8 3d
       0.038897883 -0.030422136 -0.10643223 0.11361911
000110 dd 88 97 bc 25 83 1b ba 54 9f e3 bd 2f 25 ea 3c
       -0.018497879 -0.0005932323 -0.11114374 0.028582184
000120 2f a7 13 be 9e 3e d6 bd 52 32 31 be ff a9 5f 3e
       -0.14419244 -0.10461162 -0.17304352 0.21842192
000130 35 d5 91 be 0b 79 04 3d 2f 2f 26 be 1d 3e b1 bd
       -0.28482977 0.032341998 -0.16228937 -0.08654425
000140 48 1f 6d 3c 87 53 1d be f2 19 ee bd 1c 32 33 3d
       0.01447279 -0.15363894 -0.116260424 0.04374896
000150 d9 38 ad bd 18 fd 1c 3e 46 bf 32 bd e4 91 60 bc
       -0.084581085 0.15330923 -0.043639444 -0.013706658
000160 42 10 39 3d f8 6f a7 3d 9c 3f 90 be 3d 7e 33 3e
       0.04518152 0.08175653 -0.2817353 0.17528625
000170 a9 d9 de bc 6b 0e 09 3d 0e ed 96 bd ba d9 6d be
       -0.027203398 0.033461016 -0.07369433 -0.23227587
000180 84 3f ab 3d f2 ff 1f be cd fb 88 3c c2 2f 03 be
       0.08361724 -0.15624979 0.01672163 -0.12811187
000190 20 05 06 be 49 cd 1f 3d f8 4e b8 3c 3c 04 3d bd
       -0.13087893 0.039014135 0.022498593 -0.046146616
0001a0 e4 19 98 bc 92 3f 69 be 09 92 44 bd fc 6b 20 be
       -0.018567033 -0.22778156 -0.047990832 -0.15666193
0001b0 e4 c5 f3 3d 94 8b c8 ba 34 26 25 3e 44 93 89 bd
       0.11902979 -0.0015300387 0.16127855 -0.06717542
0001c0 12 fb 2b 3d 9f 47 85 3c 56 b7 22 be 68 ad f6 bc
       0.041987486 0.016269503 -0.1589025 -0.030111983
0001d0 45 46 1d 3e 14 94 6c 3e 85 ee b8 bc 82 7c ab bd
       0.15358837 0.23103362 -0.022574672 -0.08373357
0001e0 9a ff 09 3c 51 1f 70 ba a9 5c 33 3e c1 c5 5c 3c
       0.008422757 -0.000915994 0.17515816 0.013474883
0001f0 73 ac 20 be 4b 4d 98 be 6d 02 da bd eb 78 76 bc
       -0.15690784 -0.2974647 -0.10644994 -0.0150434775
000200 f7 b6 2f be 3d f3 24 bc 59 02 09 3e ea 65 fc 3d
       -0.1715964 -0.010067758 0.13379802 0.12324126
000210 e7 29 12 be 7b 2a a3 3c f2 8d 0f be 4f d7 20 bd
       -0.14273797 0.019917717 -0.14018992 -0.039267834
000220 e5 d2 25 3e 49 c0 e6 3d d9 f4 2e 3d df 1b 49 3e
       0.16193731 0.11267144 0.042713974 0.19639538
000230 fc c5 bb bb be 95 ef bd 33 8f 26 3d ad 41 7a bd
       -0.0057303887 -0.11698483 0.04066391 -0.06109779
000240 ba 85 60 3e 4e 7f 60 bd 81 70 a9 3d 36 9c 6a bd
       0.21926013 -0.054808907 0.082734115 -0.05727788
000250 d1 0f 81 3d 7d 3a f6 bd 6a 18 bc be 69 fe 81 bd
       0.06301845 -0.120228745 -0.36737376 -0.06347353
000260 85 5d 0d be c8 cb b9 bd de 21 16 bc 61 13 30 3c
       -0.13805206 -0.09072071 -0.009163348 0.010746808
000270 b6 f3 07 3e f2 d1 ba 3d 79 76 10 3e cf 0d 6e bd
       0.13276562 0.09122075 0.14107694 -0.058118638
000280 7f dd b7 3d ec f2 ec bd be 82 18 3d 99 9b cf 3c
       0.08977794 -0.11569771 0.03723406 0.02534275
000290 12 35 a2 3c 64 4e 2e 3e c9 19 de bd 80 f5 d3 bd
       0.019800697 0.17022091 -0.10844762 -0.1034956
0002a0 73 07 0c be f8 76 cd 3c 7b a9 ad bc 34 97 66 3e
       -0.13674717 0.025081143 -0.021198979 0.22518617
0002b0 5d 4b 48 be 6d f8 fa bd a7 c1 4f 3c b1 4a 87 3a
       -0.19559999 -0.12254415 0.012680448 0.0010321942
0002c0 5c 12 16 be 77 07 19 3b 9c 19 bc 3d 0c 26 6b 3e
       -0.14655441 0.0023350397 0.09184572 0.22963732
0002d0 9d 18 e9 3d e6 0b ae bd 28 f4 66 3c ae 5c 9b 3e
       0.11381648 -0.08498363 0.014096297 0.30344146
0002e0 96 3d 99 bd 12 40 db 3d 34 c0 2f 3d 5a 64 33 be
       -0.0748245 0.1070558 0.04290791 -0.1751875
0002f0 f2 3a 9a 3d 92 c6 34 bc 5a 38 1d bd 57 51 da bd
       0.07530774 -0.011033671 -0.03838382 -0.106600456
000300 4e f3 06 3c 1c 04 28 be 6a f6 fb bd ec e7 e6 3d
       0.008236719 -0.16407818 -0.12302859 0.11274704
000310 08 4b de 3d 5a b6 d1 3d 58 e9 43 3e a7 49 87 3d
       0.10854155 0.10239859 0.19131982 0.06605845
000320 73 c1 52 be ee e7 cc bb db 7c 2b 3d d3 ee b0 3d
       -0.20581608 -0.006253234 0.04186712 0.08639302
000330 9f aa c4 3d 39 b9 5c bd 28 71 00 3d 08 eb c5 bd
       0.09602856 -0.05388758 0.031357914 -0.09663969
000340 52 5a 73 3c 32 ca 83 3d 03 c9 2d be 28 d3 39 3d
       0.014853077 0.0643505 -0.16971211 0.04536739
000350 90 e0 09 bd b3 dd 49 3e a7 96 c1 3d 1b 32 8f bd
       -0.033661425 0.19713478 0.09452563 -0.06991979
000360 f6 b8 67 be f5 d6 9a bd 1e 24 ce 3d 93 be d8 3e
       -0.22629151 -0.07560531 0.100654826 0.42332897
000370 1b 7c f3 3d ca 33 e8 3d df df b8 3c cf 21 63 3e
       0.118889056 0.11338003 0.022567688 0.22180866
000380 df 36 16 be 3b 76 a0 bc c0 4e 15 be 72 e0 6f 3c
       -0.14669369 -0.019587627 -0.14580822 0.014640914
000390 c4 10 33 3a 6d 82 c6 bc 0d 02 92 3d c5 23 88 3d
       0.00068308064 -0.024232114 0.071292974 0.066474475
0003a0 8f 2a 94 bc e8 89 58 3d 15 f7 57 3d 77 51 eb bd
       -0.0180867 0.052865893 0.05272587 -0.114901476
0003b0 24 b2 80 be 03 b6 87 bd 07 6d 8d bd 21 57 02 be
       -0.2513591 -0.06626513 -0.06905561 -0.1272855
0003c0 15 8a 22 be 4d cd 81 bc 6f b0 1e 3c 9d e7 cd bd
       -0.15872987 -0.015844965 0.00968562 -0.10053942
0003d0 03 c0 37 3d 03 69 ac 3d 64 73 72 be 14 ac 90 3d
       0.04486085 0.08418467 -0.2367683 0.07064071
0003e0 e6 d5 57 3d b9 ef 16 bd ad 9a 1e 3b 77 82 5c bd
       0.052694224 -0.03684971 0.002420108 -0.05383536
0003f0 df ec d5 3c db d0 0f 3d 50 49 75 bb 52 d7 97 be
       0.026113926 0.03511129 -0.003742773 -0.29656464

network_body._body_endoder.seq_layers.4.bias f4 [128]
000000 94 76 a3 bc 57 d1 6c bd ce 1e 2a 3d 51 7f 82 3d
       -0.019954003 -0.05781683 0.041533284 0.0637194
000010 3b 22 4b 3d 73 dd e5 3c a0 ff fc bc 24 d4 80 bd
       0.04959319 0.028059697 -0.03088361 -0.062904626
000020 83 f2 0f 3d 19 50 bb bc 5f 76 80 bd de c1 02 bd
       0.035143387 -0.022865342 -0.062725775 -0.031923167
000030 99 cb 76 3d 11 ed 0e bd 35 01 0e be e5 f6 0d be
       0.06025276 -0.034894053 -0.13867648 -0.13863714
000040 3a 82 e7 bd 7d 5b 2c 3c e9 75 20 3d ca 97 fe 3c
       -0.113041356 0.010519859 0.039174948 0.031078238
000050 56 d7 0e bd 78 e5 79 bc 9a ac aa bd 84 df ac bd
       -0.03487333 -0.0152524635 -0.083337024 -0.0844107
000060 12 e3 ab 3b 70 3c 8c bc 66 a7 fc bb 14 9c 5c 3b
       0.0052455748 -0.017118663 -0.007710385 0.0033662366
000070 75 2f a0 bd 5c d0 09 bc 76 b1 26 bd 7e 25 8c bd
       -0.07821552 -0.008411493 -0.040696584 -0.068430886
000080 5e 96 56 3b fd c4 80 3c 25 9c 03 3d 3f ff 1f bd
       0.0032743434 0.015718931 0.032131333 -0.03906178
000090 b3 09 57 bd e4 8b 98 3b 84 84 a3 bd 24 19 90 bc
       -0.052499484 0.004655348 -0.0798426 -0.017590113
0000a0 97 6c 30 3d f2 9c b8 3c af 9b e9 bc 64 de d6 bd
       0.04307231 0.022535775 -0.028516619 -0.104916364
0000b0 6b 00 57 bd ff aa fd bc cb a0 a4 bd 99 89 e8 3d
       -0.052490633 -0.030965326 -0.08038481 0.1135437
0000c0 1f 05 5c bd 76 cc b6 bd ed 96 b4 bb 52 cf 77 bd
       -0.05371582 -0.089257166 -0.005511156 -0.06050045
0000d0 1d 8e da 3c 11 57 5f bd 85 f5 b2 3c 8c 38 fe bc
       0.026679093 -0.054526392 0.021845588 -0.031032823
0000e0 aa c0 92 bd 76 81 78 3d e1 93 08 3d 5f 06 33 3d
       -0.07165654 0.06067034 0.033344153 0.043707248
0000f0 70 ac ab 3d ed 56 d1 3c cd cc 1f bd 96 86 b6 ba
       0.08382499 0.025554145 -0.039013673 -0.0013925608
000100 fe fb 1f 3b 80 43 eb 3d 03 7f 36 3d 3d 51 d2 3c
       0.0024411674 0.11487484 0.04455472 0.025673503
000110 c7 b9 2e 3c 66 45 97 bd da 86 c1 3c e5 8b 88 bc
       0.01066441 -0.073862836 0.023623873 -0.01666827
000120 93 40 28 bc 1a c9 32 bd 9e 17 31 3d fb f4 cb 3c
       -0.010269302 -0.043648817 0.043235414 0.02489709
000130 be 01 02 be 15 25 40 bd 74 81 cd bd ce 45 ba bd
       -0.12695977 -0.046910364 -0.10034457 -0.090953454
000140 0f 30 0b 3a dd f3 2c 3c 29 6a 2a 3d 75 c6 1f bc
       0.00053095905 0.010556188 0.04160515 -0.009751906
000150 73 b5 69 bc 97 6e 8c 3c fe 02 41 3d 1e ec 35 3d
       -0.014264452 0.017142577 0.047121994 0.044414632
000160 a4 8d d3 3a f7 df 7c bd 01 c2 c1 bb 73 94 af bd
       0.0016140235 -0.061737027 -0.0059130196 -0.08573236
000170 52 54 c8 bd 7d 01 07 3d 47 c7 97 3d 30 59 96 bc
       -0.09781708 0.032960404 0.07411056 -0.018353075
000180 bf ee c8 bd 86 d4 dd 3c 23 50 1d bd b2 bc 61 3c
       -0.09811162 0.027078878 -0.038406502 0.013777899
000190 f0 11 d2 bd d5 85 1d bd 5e 84 87 3d bb da 38 3d
       -0.102573276 -0.03845771 0.06617044 0.045130473
0001a0 00 8b 53 bd cf 1f 0b bd 6b cc a3 bc 5d 28 5a 3b
       -0.051646233 -0.033965882 -0.019994935 0.0033288219
0001b0 5a 5b dc bd 5b a4 b9 bb bd 7b 24 bc af a5 0b 3d
       -0.107596114 -0.0056653447 -0.010039267 0.034093555
0001c0 9a 1e 3b bd 9b 1f 12 bd ad b5 64 bd 2d 22 cc bc
       -0.04568348 -0.035674673 -0.055837322 -0.02491864
0001d0 7a 72 ae bc c7 0a 44 bd 4c 12 3b 3d 7e 5f 8c 3a
       -0.021294821 -0.04786184 0.045671746 0.0010709611
0001e0 07 e9 98 bd 74 ca 4b bd 55 6b 18 3d 53 1a 36 be
       -0.074663214 -0.04975362 0.037211735 -0.1778348
0001f0 2a 89 9b bc ea 23 35 ba 2a 75 13 bd 7f 5f 0a bd
       -0.018986303 -0.00069099537 -0.03600041 -0.03378248

action_model._discrete_distribution.branches.0.weight f4 [3, 128]
000000 94 2c 9a bd 38 03 6f 3d 98 4a d8 bc cb a1 2d bd
       -0.07528034 0.05835268 -0.026402757 -0.042390626
000010 76 b3 d5 3c bf 96 44 be 7c ad 03 3e a3 c7 4d bd
       0.02608655 -0.1919813 0.12859148 -0.050239217
000020 f3 9d c3 bd da 57 97 bd 9e 09 3b 3e 37 ff 1f be
       -0.09551611 -0.07389803 0.18265387 -0.156247
000030 51 14 91 bd c7 d0 54 bc fe cf fc bd 2d 75 10 be
       -0.07083953 -0.0129892295 -0.12344359 -0.14107199
000040 61 89 4d 3d 00 5a 2e bd a2 70 6a bd f5 33 0a be
       0.050179843 -0.0425663 -0.05723632 -0.13496383
000050 bd 36 dd bc 3b 4a 94 bd c6 36 e4 3d d9 d5 c1 3d
       -0.02700364 -0.07240721 0.1114326 0.09464616
000060 c7 c7 08 be b2 39 56 3b e1 80 d8 3a 2b bf c8 bd
       -0.13357459 0.0032688198 0.0016517901 -0.098020874
000070 5d cd e2 bb 59 69 0b bd 7b a6 cc 3c 5c a7 11 3e
       -0.006921454 -0.034036014 0.024981728 0.14223999
000080 61 52 da 3d 83 70 d2 bb 42 00 8c bc 87 ad ea bd
       0.10660244 -0.006422104 -0.017089967 -0.11458879
000090 fc 02 8c 3d bf 28 05 bd d2 2b dc bc 3d 84 ad bd
       0.06836507 -0.03250956 -0.026876364 -0.08472488
0000a0 26 d3 c6 bd 89 9f 2a bd 50 ee ae 3c c2 45 a4 bd
       -0.09708242 -0.04165605 0.02135387 -0.08021118
0000b0 b3 36 14 bd 61 66 cc 3a b1 52 60 bd 6d 56 02 3d
       -0.036184978 0.0015594476 -0.05476636 0.031820703
0000c0 b2 07 5c bb 75 17 e8 bb 03 07 3d be 2f 26 65 bd
       -0.0033573923 -0.0070828744 -0.18459706 -0.055944618
0000d0 9c 12 b3 ba ae dc cb 3c 5e 95 08 3d e5 bd a1 3c
       -0.0013662162 0.024885502 0.033345573 0.01974387
0000e0 69 94 c9 bd 46 58 2a 3d 6c e5 06 3e f8 fd 3e 3e
       -0.0984276 0.04158809 0.13173455 0.18651569
0000f0 5c 12 be 3c ec 4f 18 bd 75 78 9f bb 23 31 0c be
       0.023202114 -0.037185594 -0.0048666545 -0.13690619
000100 d3 6a 47 bd 78 9d 80 ba e5 5e ef bd 2a 8d 09 3e
       -0.04868586 -0.0009812554 -0.116880216 0.13432756
000110 fb 50 3b bd 85 a1 8d 3c fe b1 0a 3e 61 ad d1 3d
       -0.045731526 0.017288933 0.13544461 0.102381475
000120 df 5e 6d bd c8 fa 44 be 1b 87 79 3d 31 cd 6b bd
       -0.057951804 -0.1923629 0.060919862 -0.057568733
000130 ba de 55 3c a4 78 c4 3b 59 66 dd bd 50 41 e4 bc
       0.01305359 0.005995827 -0.10810537 -0.027863175
000140 98 77 53 3d 99 bc 0a bd 79 4b 18 bd bd ea 58 3c
       0.051627725 -0.033871267 -0.03718135 0.01323956
000150 59 0b a0 3d 76 25 2b 3d 5b 30 af 3d 8b 1b f5 bb
       0.078146644 0.041783772 0.08554145 -0.00748009
000160 2d ad 0f bd 74 05 f7 bc 63 df 5b 3d 69 a4 bd bd
       -0.035077263 -0.030153967 0.053679835 -0.092598744
000170 36 38 49 bd c8 76 88 bd 28 64 6d 3d ef df 18 3d
       -0.049125873 -0.06663281 0.057956845 0.037322935
000180 74 16 8e 3d ba c1 bb bd 61 75 6d 3d 2f cf d4 3d
       0.06937876 -0.0916781 0.05797327 0.1039108
000190 56 1f 9f 38 8f fd ad 3c de e9 af bb 58 30 90 3c
       7.5875476e-05 0.02123907 -0.0053684553 0.017601177
0001a0 f1 55 d0 3b 08 07 a1 bd c8 36 f3 bd 99 9c c1 bc
       0.0063579013 -0.07862669 -0.11875683 -0.023634242
0001b0 52 90 02 3e 76 f6 9e bd 7c 5d 0d bd 55 1b d0 3d
       0.12750366 -0.077618524 -0.03451298 0.10161463
0001c0 89 24 3c 3d 82 9b b5 bc e8 f9 5d 3e 8d 25 eb bc
       0.04593328 -0.022168878 0.21677363 -0.028704429
0001d0 87 4b d7 bc 0a 56 38 3e 4d a1 6e 3d 0e 78 dc bc
       -0.026281131 0.18001571 0.058259297 -0.026912715
0001e0 64 c8 04 3a b2 0a 9b 3d dd 1f 5a be 3f 90 fe 3c
       0.0005065261 0.07570399 -0.21301217 0.031074641
0001f0 fa 86 d4 bd 71 6f 73 3d 8a 2e c7 3c fb 9a b5 bc
       -0.10377307 0.05943245 0.024314184 -0.022168627
000200 80 c1 90 ba 1c 31 81 3a f7 2d 79 3c 32 c3 60 3d
       -0.0011043996 0.0009856555 0.015208713 0.054873653
000210 9b 14 25 be 83 11 e8 3d 12 53 c4 bc 28 20 ba bc
       -0.16121142 0.11331465 -0.023965392 -0.022720411
000220 65 5b 13 3d d0 8b 33 3e 07 70 74 be a4 fb 5b 3d
       0.035975832 0.17533803 -0.2387086 0.05370678
000230 5f 37 29 3e f9 9f b2 3d df 02 8b 3d d0 09 4d 3d
       0.16525029 0.087219186 0.06787657 0.050058186
000240 b3 53 5b bd b2 aa d8 3d f0 51 f8 3d 1b c0 33 3e
       -0.05354662 0.105794325 0.12125003 0.17553751
000250 3c ea e5 3d 3a 40 ee 3d 47 c7 25 3b 54 77 34 bd
       0.11226317 0.11633344 0.002529578 -0.044059113
000260 07 3a b7 3d d8 1e 43 3d 20 de 08 be 22 72 0d 3e
       0.08946615 0.047636837 -0.13365984 0.1381307
000270 21 22 ba 3d 6c ed e4 bb b3 08 fb bd 6a 71 9d bd
       0.09088541 -0.0069863107 -0.122575186 -0.07687648
000280 df 8e ef bd 97 96 f6 3d 2b bc 0a be 97 0d 22 3e
       -0.116971724 0.120404415 -0.13548343 0.15825497
000290 59 96 ab 3c f2 77 4c 3d 77 f8 ed 3d 1f 2e f9 3d
       0.020945715 0.049919076 0.116196565 0.12167
0002a0 94 8a 25 bd 01 3b 94 bd fd 9d 3f 3d 29 90 cd 3d
       -0.04041536 -0.072378166 0.04678153 0.10037262
0002b0 6c 91 a7 bc fd 94 e5 3d 15 42 2e bd 6d 7e 7c be
       -0.020455085 0.11210058 -0.04254349 -0.24657603
0002c0 9e 09 35 3e d6 9d cc 3d c4 6a 2d 3d 94 c5 c6 3d
       0.1767945 0.09991042 0.042338148 0.09705654
0002d0 7a 30 21 3d 8c d0 20 3e 93 0b 31 3c 35 74 ac 3c
       0.03935287 0.15704554 0.010805982 0.021051506
0002e0 2f c6 c1 3d 90 d4 22 3d b3 9c 2a be 66 6d df 3c
       0.09461629 0.039753497 -0.16661339 0.027273845
0002f0 86 fe 92 bd 54 01 46 be 4b 07 fb 3d 78 8f 49 3d
       -0.07177453 -0.19336444 0.122572504 0.049209088
000300 85 0a 58 bd 08 5e a6 3d fd f5 26 3e 06 09 be bd
       -0.052744407 0.08123404 0.16304775 -0.09279065
000310 99 c3 15 3e b1 fb b8 3c ab 70 b1 bc 27 e7 45 3c
       0.14625396 0.022580953 -0.02166017 0.012079037
000320 ef 66 05 3d 0e 4e 77 3d 30 7e 03 3e 8a 36 93 3c
       0.03256887 0.060377173 0.12841105 0.017970342
000330 47 88 2a bc 8c cd b2 bc 2e f7 89 3d b2 e6 40 bc
       -0.010408468 -0.021826528 0.06736599 -0.011773752
000340 5d 45 07 3e 92 f9 81 bc 78 29 a6 bd 01 f9 55 bd
       0.13210054 -0.015866075 -0.08113378 -0.05223942
000350 0b 9b 59 3c dc 68 1f be 5f be 1b 3d 3d 0d 2a be
       0.013281594 -0.15567344 0.03802335 -0.16606613
000360 45 50 b9 3d 57 28 ee bd 99 77 c6 3c 5c f7 8e 3d
       0.09048513 -0.11628788 0.02422695 0.06980774
000370 6e 87 e7 3d a6 3b e8 3d 19 59 8c be 3b bd 23 be
       0.11305128 0.11339502 -0.27411726 -0.15990154
000380 3f 6b 2d bd 5e bf 05 be 2c 39 a9 3d 13 2d 36 bd
       -0.042338606 -0.13061282 0.08262858 -0.04447658
000390 e2 0c ae 3c 73 30 3d bd 39 ea 5f bd 89 b7 4e be
       0.021246377 -0.046188783 -0.05466673 -0.201872
0003a0 75 e0 14 3d e2 52 e8 bc 84 e7 30 3e ec d9 c8 3b
       0.03634687 -0.028359834 0.17275816 0.006129494
0003b0 c8 1e 4e be be 7d 32 3c f9 90 e5 3c 86 1f 3d bd
       -0.2012893 0.010894237 0.02802323 -0.04617264
0003c0 2b b6 02 be 66 76 c0 bd eb 1f dd bc 3a 30 7b 3d
       -0.12764804 -0.09397583 -0.026992759 0.06132529
0003d0 1b aa 3c bd bb bf 9f bd c0 75 a1 bd 26 16 ea bd
       -0.046060663 -0.078002416 -0.07883787 -0.11430006
0003e0 1a c2 9e bd e4 90 30 3c 5a 7b ef 3d 7c d1 c2 bd
       -0.07751866 0.010776732 0.11693449 -0.09512612
0003f0 77 d1 56 3c 8f 52 41 be df 02 f2 bd 4c d7 6b 3d
       0.013111464 -0.1887915 -0.11816954 0.05757837

action_model._discrete_distribution.branches.0.bias f4 [3]
000000 45 ae e8 3b 7b 53 66 3b ea f6 6b bc
       0.0071008527 0.0035144973 -0.014402131

action_model._discrete_distribution.branches.1.weight f4 [2, 128]
000000 ba 76 91 bc 73 2f a9 3d 1b 6f 42 3c 29 8a 96 bd
       -0.017756809 0.08261003 0.01186731 -0.07350571
000010 c5 7b e1 bd 8f 82 1b 3d e1 d3 02 3e 16 c4 48 bd
       -0.11009935 0.037966307 0.12776138 -0.049015127
000020 dd 3f ea 3d 28 7d d3 3b 8d 8a 50 bd ca c8 91 bd
       0.11437962 0.006454129 -0.050913382 -0.071183756
000030 8f ba 90 bd 6e 46 89 bc 83 e6 24 3d 32 60 7d be
       -0.07066833 -0.016757216 0.040258896 -0.24743727
000040 a6 f0 a7 bd 7d e7 b4 bb 4c 97 a1 bd 24 05 f6 bc
       -0.08200197 -0.0055207596 -0.07890186 -0.030031748
000050 dd 9f ae 3d a8 05 1e bd 12 6f 20 3d 92 80 39 3c
       0.08526585 -0.038579613 0.039168425 0.011322157
000060 65 3a da bd 10 52 a8 3b 8b 9e de 3d 6e 7b b5 3c
       -0.10655669 0.0051367357 0.108700834 0.022153582
000070 53 ff 38 bd b5 a4 8e 3d 54 41 08 be 33 da ac 3d
       -0.04516537 0.06965009 -0.1330617 0.08440056
000080 02 d4 44 3c 06 65 03 bd f2 5b 87 3c df 01 1a bd
       0.012013437 -0.032078765 0.016523335 -0.03759944
000090 6c a7 f5 bd c2 28 0a 3d e2 d2 53 3d da c8 88 3c
       -0.11994824 0.033730276 0.051714785 0.016697336
0000a0 a6 3a 0d bc 19 b0 cd 3c 10 f0 63 bd 34 aa bd bd
       -0.00861994 0.025108384 -0.055648863 -0.09260979
0000b0 41 0d fb 3d db 85 cf bd 80 d8 8d bd b3 2e b2 bb
       0.12258387 -0.10132953 -0.0692606 -0.005437696
0000c0 d9 ae 4f bd f6 1d 3c bd fa f3 e5 3c 95 32 26 bc
       -0.050703857 -0.04592701 0.028070439 -0.010143896
0000d0 8f 1d 05 bd 2f 36 0b be e1 b1 b5 3d 86 f5 2e be
       -0.032498892 -0.13594888 0.08871818 -0.17085847
0000e0 f8 98 81 bd 90 cd f3 bd c8 a7 86 bd 62 25 11 3b
       -0.063280046 -0.11904442 -0.065749705 0.0022147526
0000f0 a4 17 03 be 11 46 97 bd b7 f8 0e 3c 32 aa 2e 3c
       -0.12801987 -0.07386411 0.00872629 0.010660695
000100 51 f7 9a 3d 33 a5 05 bd f0 16 1f 3c 4d 8c 23 be
       0.07566703 -0.03262825 0.009710059 -0.15971489
000110 fa f6 91 3d ae e4 4c bd 8c 05 9f 3c 25 9c 04 3d
       0.07127185 -0.050022773 0.019411825 0.032375474
000120 4e 95 5a be 6a a1 83 3c e2 a2 03 bd f1 86 05 3c
       -0.21346018 0.01606818 -0.03213776 0.008149848
000130 1c 59 81 3c 8b 67 c7 3c 24 65 77 bd b3 ec 94 bd
       0.015789561 0.024341365 -0.06039919 -0.07271709
000140 1d 4e f5 3b b9 bf 3f bd 3c 8f 4a 3d 8c cb 13 bd
       0.0074861185 -0.0468137 0.049453005 -0.03608279
000150 cd b6 96 be fd bc 0e 3d a8 4f f2 3d 19 7d 5b bd
       -0.2943634 0.034848202 0.118315995 -0.0535861
000160 54 28 42 3d a9 cb e5 3d 58 47 17 be 01 c8 31 bd
       0.04740174 0.11220486 -0.14773309 -0.04340363
000170 b2 2c 97 3c ab 09 2d be fe af f6 3c eb ec 8e bc
       0.01845393 -0.1689822 0.030113216 -0.017446956
000180 c6 aa c5 3c d0 e7 3f be e0 a7 88 3d 8d 8b de 3c
       0.024129283 -0.18740773 0.066726446 0.027166152
000190 5a 7f 13 3c 6c 7d f2 3d 0c 19 91 ba e8 c3 46 bc
       0.009002531 0.118403286 -0.0011070087 -0.012131669
0001a0 a0 64 60 3a 10 2f ac 3d 14 2b 90 bd d0 ec 1f 3d
       0.0008559916 0.08407414 -0.070394665 0.0390442
0001b0 47 6e 90 3c 1c 73 0b bd 94 80 b5 bd 20 26 5f bc
       0.01763071 -0.034045324 -0.08862415 -0.01361993
0001c0 79 70 03 3d fa c1 9e 3c a1 48 3f 3d 2d 4b a7 bc
       0.032089684 0.019379605 0.046700124 -0.020421589
0001d0 c7 28 a4 3b 0e 2d 9c bd 4e f6 43 bd 0b 38 8b be
       0.005009744 -0.07625781 -0.047842316 -0.27191195
0001e0 f8 14 91 3d 85 d3 57 3d 0d c5 1c be 8c 6e 35 bc
       0.070840776 0.052691955 -0.15309544 -0.01107372
0001f0 62 e5 8c 3d 1c 85 3c bc 85 2c 81 3d c2 13 0e 3a
       0.06879689 -0.011506345 0.063073196 0.0005419814
000200 36 fb af 3c c9 1e ba bd 6a 2c 03 bd cc ad 8b 3d
       0.021482091 -0.09087903 -0.03202478 0.068202585
000210 b4 f5 d3 3d bc 4f 25 bd 82 ec f7 bd 46 f3 e9 3c
       0.103495985 -0.040359244 -0.12105657 0.028558385
000220 c1 b3 e5 bd 17 b1 87 bc 49 3e 68 3d 33 ff 28 3d
       -0.11215926 -0.016563935 0.056700025 0.041259002
000230 ea 44 83 3d 0a 9e 9b 3a 79 8c f0 bc 0b d5 72 3e
       0.06409629 0.0011872661 -0.029363858 0.23714082
000240 ec 8a b5 3d 8d c2 97 3c 47 93 c9 3d 87 14 15 3d
       0.08864388 0.018525386 0.09842544 0.03639653
000250 3d 73 be bd 9e 66 50 3d 99 9f 1e bd 2a 5d 57 3b
       -0.09299324 0.050879113 -0.038726423 0.0032861927
000260 9e d1 d8 3d 92 e7 a8 bb 63 05 d4 bd 38 d5 29 bb
       0.10586856 -0.0051545585 -0.1035259 -0.0025914442
000270 2a bb 39 3d ad f0 85 bd 92 86 06 3e 4b 91 a8 bd
       0.04534451 -0.06540046 0.13137272 -0.082308374
000280 c8 57 68 bc 85 32 21 3d 33 21 50 bc 27 19 23 3d
       -0.014181085 0.03935482 -0.012703228 0.03981891
000290 ac 65 fc 3d 14 a5 11 bd af 94 52 bd ff 15 eb bc
       0.1232408 -0.03555782 -0.051411327 -0.028697012
0002a0 dd f4 df 3b 74 c3 f0 bc 51 67 27 3d 37 e5 b4 3d
       0.00683461 -0.029390074 0.040870015 0.08832782
0002b0 a2 d6 c0 bd d9 ac bd 3d f1 51 c2 3d 42 59 ac 3c
       -0.09415938 0.09261484 0.09488285 0.021038655
0002c0 9a 20 11 3d 4a db 29 3d 2d 19 71 bc 49 09 c3 bb
       0.035431482 0.041468896 -0.014715475 -0.0059520346
0002d0 a3 ed 0b 3d 63 dd 25 3e a6 53 71 bd 68 01 31 3e
       0.034162175 0.16197734 -0.058917664 0.17285693
0002e0 e0 9a 93 3d 14 30 fc 3d 8d 50 79 3d 6e 62 a2 3c
       0.072072744 0.12313858 0.060867835 0.019822326
0002f0 be cc 03 3e 95 8f 9b 3d af a6 69 bb 33 04 f1 bc
       0.12871072 0.075957455 -0.003565233 -0.029420948
000300 f7 97 90 bd 66 a0 f5 3c 6e 01 9f b8 6a 65 22 3e
       -0.07060235 0.02998371 -7.581977e-05 0.15858999
000310 ef d9 ab bd 3d f7 73 3d db fe 6d 3b 43 8e d9 bc
       -0.08391177 0.059561957 0.0036315236 -0.026557093
000320 29 b9 5a 3e ed 87 be bc a3 a9 f8 3c 95 5d 6e 3c
       0.21359695 -0.023258174 0.030354327 0.014548679
000330 00 6f 2b bc ec b8 16 bd 1f 8a 81 3d 62 3a 6d 3d
       -0.010463476 -0.03679745 0.06325173 0.057917006
000340 f5 21 48 bc fd 42 2f 3d 1e 04 49 bd bb ba 8d 3d
       -0.012215127 0.042788494 -0.049076192 0.06920382
000350 eb c3 86 3e ef 79 04 bd 09 e4 07 be 90 f4 87 3d
       0.2632135 -0.032342847 -0.13270582 0.066384435
000360 df b5 89 bd 1e 4c e1 bd b8 47 0a 3e 4a 8f 36 3d
       -0.06724142 -0.11000846 0.13503921 0.044570245
000370 09 9d b7 3b eb 8e 26 3e 15 01 45 bd 02 92 ec 3c
       0.005603437 0.16265456 -0.048096735 0.028878216
000380 0b 34 2b bd 3f f5 48 3e 23 b4 3b bd 6f 38 25 bd
       -0.04179768 0.19624804 -0.04582609 -0.040337022
000390 02 2a 90 3c e2 ad c4 bd 07 35 39 3c 8f 28 ca 3c
       0.017598156 -0.09603478 0.011304147 0.024677543
0003a0 dc 77 5e bc 9a 22 99 bd 0a e4 9f 3d 63 6b bf bc
       -0.013578381 -0.07477303 0.07807167 -0.023366636
0003b0 cd 9f 66 bb 32 b9 80 bb e6 fa b7 3d 8e 88 ab 3c
       -0.0035190464 -0.003928327 0.08983402 0.020939138
0003c0 6d a5 06 bd 41 4f b9 bb 38 8c 24 bd 36 b3 37 3d
       -0.032872606 -0.0056551998 -0.040172786 0.044848643
0003d0 d1 21 17 39 80 70 80 3d 67 44 83 3d 79 3c 8e 3e
       0.0001441308 0.06271458 0.06409531 0.27780512
0003e0 5c 5a 9b bd 3b b0 66 bd 9e c8 21 3e 20 b3 89 3c
       -0.07585594 -0.05632041 0.15799186 0.016809046
0003f0 e0 c5 69 bd 29 5f 94 3c 67 8c 48 bd de 31 82 3c
       -0.057073474 0.018111782 -0.048962023 0.01589292

action_model._discrete_distribution.branches.1.bias f4 [2]
000000 c6 9e 57 bd c6 9e 57 3d
       -0.052641653 0.052641653
