results/Final_Train_3_0/Player/Player-2999962.onnx (onnx, 159076 bytes, 17 tensors)

discrete_act_size_vector f4 [1, 4]
000000 00 00 40 40 00 00 00 40 00 00 40 40 00 00 40 40
       3.0 2.0 3.0 3.0

network_body.observation_encoder.processors.0.normalizer.running_mean f4 [14]
000000 d8 01 88 bf 6f 4f de c0 78 c0 45 40 f7 57 44 41
       -1.0625563 -6.9471965 3.0898724 12.271476
000010 c9 f3 aa 40 0c cb c2 40 2a 9e ac bf c7 1a b5 c0
       5.342259 6.087286 -1.3485768 -5.6595187
000020 2b 5e 1c 40 86 ac c0 3d 6d 50 37 be ec bc a2 bd
       2.4432476 0.09407906 -0.17901774 -0.0794619
000030 6e c0 64 3b 00 00 00 00
       0.0034904736 0.0

network_body._body_endoder.seq_layers.0.weight f4 [128, 14]
000000 38 19 1f 3d eb b1 91 3c 2a 5f 88 3d 0b 04 63 be
       0.03884241 0.017785033 0.06658776 -0.22169511
000010 88 0f c4 3e e1 6b 38 3e 11 fa ae 3d 84 e0 c1 bd
       0.382931 0.18009903 0.0854379 -0.09466651
000020 1d 70 48 bf ca af 95 3e 7a 10 8a be f2 bb 22 bf
       -0.7829607 0.2923568 -0.26965696 -0.6356803
000030 23 d7 3b be ca 07 fd bc 75 f2 6b be 3e 95 c0 3c
       -0.18343787 -0.030887503 -0.23041709 0.023508664
000040 fd 85 a0 bd e9 24 de 3e 19 76 8b 3e 8d 7f d9 bd
       -0.07838056 0.43387535 0.2723854 -0.106200315
000050 2f 94 17 3e aa 8e c4 3c 6a 51 15 3f 9f 4a 4e be
       0.14802621 0.023993809 0.58327353 -0.20145653
000060 5b ba 07 3f a0 da ef be 64 4b 61 3d b1 2e f3 be
       0.5301873 -0.46846485 0.05500354 -0.4749656
000070 1a 0c e5 3d 20 d8 95 bd 0c 50 bc 3d dc 9b 99 be
       0.11183949 -0.07316613 0.09194955 -0.30001724
000080 9a 4d af 3e 89 03 fd 3d 43 7a 18 bf ec b2 f1 3e
       0.34238893 0.1235419 -0.59561557 0.4720682
000090 82 de 89 bf 52 34 4b be 2a ee a7 3e 26 66 a2 be
       -1.0771029 -0.19844177 0.32798892 -0.31718558
0000a0 f1 de 01 bf 45 be 44 3e 93 5d c9 3e 38 f5 ca 3d
       -0.50730807 0.19213207 0.39329204 0.09910053
0000b0 a8 33 90 bb 38 60 2f 3c 42 9b 4e 3e 01 7b c3 be
       -0.004400689 0.010704093 0.20176414 -0.38179782
0000c0 af bf 05 3f 62 b0 34 bd d9 e1 20 bf f9 56 13 3e
       0.5224561 -0.044113524 -0.62844616 0.14388646
0000d0 90 8a 0c bf d2 13 43 3d 5f 37 f6 3d ad 1d bf be
       -0.5489893 0.047626324 0.1202228 -0.37327328
0000e0 9b 24 02 be d8 7d 14 3e cc 90 2d bd 43 8e 86 3e
       -0.12709276 0.1450113 -0.042374417 0.26280412
0000f0 cc 38 05 3f 52 b8 1e be 15 c8 ad 3d 95 29 3a 3e
       0.5203979 -0.155 0.08485428 0.18179925
000100 b6 4c d7 3e 95 e7 a5 be 01 ec eb bc 3d 01 0e bd
       0.42050713 -0.32403246 -0.028799059 -0.03466915
000110 87 d9 4c bc 52 18 4b bd 0d 7d c3 3e f9 07 42 3c
       -0.012503034 -0.04958374 0.38181344 0.011842721
000120 79 f7 d4 3d 37 7a 9c 3d 32 62 09 bf f0 22 f2 bc
       0.10398764 0.07640498 -0.5366546 -0.029557675
000130 9f c7 ac 3d 12 98 57 3e 55 1d 19 3f 6d 0c 96 be
       0.08436512 0.21054104 0.5981038 -0.29306355
000140 f5 7d de bd 7c d3 e2 3d 86 4e 57 be 55 68 b1 3c
       -0.10863868 0.11075494 -0.21026048 0.021656195
000150 4d 02 f7 3d 35 73 b8 3d b0 0e b5 bd 1f 02 bb bd
       0.12060986 0.09006349 -0.08840692 -0.09131264
000160 54 80 b8 bc 1c 42 a5 be 01 65 9e 3e e2 d3 25 bf
       -0.02252213 -0.32277 0.30936435 -0.6477643
000170 91 55 9e bf d1 35 a7 3e fe cf e0 3e 51 d1 99 bc
       -1.2369863 0.32658246 0.43908685 -0.018776568
000180 70 42 b0 3d 56 72 2c be 09 5c a7 3e be 50 bf 3e
       0.08606422 -0.1684049 0.32687405 0.3736629
000190 c8 b0 32 3f 43 07 1b 3e 78 df 16 3f 29 cd 03 bf
       0.69800997 0.15139489 0.58934736 -0.51484925
0001a0 21 fa a1 be 0d 16 87 bd 31 a6 19 be da 92 9f 3e
       -0.31636146 -0.06596003 -0.15004803 0.31166726
0001b0 b4 26 48 3f c0 ad a0 be ce d8 16 bd 82 60 49 3d
       0.78184056 -0.3138256 -0.036827855 0.049164303
0001c0 58 c8 f8 be cb 73 f7 3e 9d bc 0d 3f c4 12 9a 3d
       -0.4859035 0.4833053 0.55365926 0.075231105
0001d0 64 ec f9 bd f6 a2 ba 3d 9b 18 cb be 74 bc 52 bf
       -0.12203291 0.091131136 -0.3966721 -0.82318807
0001e0 99 00 61 bf 15 10 b9 be 1e 2f 95 3d fa 6d 8d 3e
       -0.87891537 -0.36145082 0.072843775 0.27622968
0001f0 2b d8 9b 3e 4a cf 26 bd b6 66 3b 3e 8b 84 f8 3d
       0.3043836 -0.04072503 0.183009 0.121346556
000200 19 6a d7 be 3c 68 8d bd 63 35 dd be 13 75 a3 3e
       -0.42073134 -0.06904647 -0.43204793 0.31925258
000210 59 01 a9 3d ad 54 65 3e 09 23 87 3e 77 02 66 be
       0.0825221 0.22395582 0.26393917 -0.22461878
000220 05 13 d6 3d c5 49 84 be da 2f ed 3e f3 34 2f 3d
       0.104528464 -0.25837532 0.4632557 0.042775106
000230 60 93 6c be 25 cd da bd 81 90 7b 3d b3 fe ba 3e
       -0.23103094 -0.106836595 0.061417107 0.36522445
000240 44 c6 af be 58 0a c0 be 42 0c d9 be 04 ae 03 3e
       -0.34330952 -0.37507892 -0.42392164 0.1285935
000250 3c 4b a6 3f 62 07 e6 be 03 f6 e8 3c 00 7a f2 3d
       1.299171 -0.44927508 0.02843762 0.11839676
000260 da 76 36 3d 02 84 d6 3e b1 71 bf bc e2 11 32 3e
       0.04454694 0.4189759 -0.023369642 0.17389634
000270 3c 35 9b 3e 3c 53 0d 3f ce 26 5f bd c6 9f eb bb
       0.30314052 0.5520513 -0.054480366 -0.0071906773
000280 b4 8d 54 be fe db f8 3e 86 44 f9 3e 9e a1 90 3e
       -0.2075718 0.4860534 0.48685092 0.28248304
000290 92 83 a4 3e f1 03 17 3f 87 61 89 be ae a3 1d be
       0.3213163 0.5899039 -0.2683222 -0.1539447
0002a0 7e b4 a8 bd 32 79 5f be 9c b3 a2 3e 39 7f bc 3e
       -0.08237551 -0.21823576 0.31777656 0.36815813
0002b0 ae 22 2c be 75 72 dc bd 80 88 05 3e 74 85 be be
       -0.16810104 -0.107640184 0.13040352 -0.37211192
0002c0 a6 b8 59 bf d1 bd c2 bd a0 bc 2c bf dd 1e bf be
       -0.85047376 -0.09508861 -0.6747532 -0.37328234
0002d0 e4 85 51 3e 8b 21 1e 3e 96 2a d9 3d 93 62 7b be
       0.20461231 0.15442483 0.10603826 -0.24549322
0002e0 7a a3 0a 3d 87 6e d4 be 1a 6a 52 bc ba ff d2 bd
       0.03384731 -0.41490576 -0.012842679 -0.10302682
0002f0 76 31 24 be 39 15 a1 be 91 40 14 bf 6f a8 dd 3e
       -0.16034493 -0.31461504 -0.5791102 0.43292567
000300 3f d2 d9 be a4 ab 08 bf 5f 73 a0 be 46 17 09 3e
       -0.42543218 -0.533869 -0.3133802 0.13387784
000310 a9 f5 9e be d2 5f a1 3e ba 71 0a 3f 28 db de be
       -0.310468 0.31518418 0.5407978 -0.43526578
000320 48 e3 4a be c4 b7 a8 3e a1 9a 92 be 73 74 5f 3e
       -0.19813263 0.32952702 -0.28633597 0.21821766
000330 54 f1 39 bf 7b 8d 43 3d 4b c6 c8 bd 3f 1b 1c 3e
       -0.7263386 0.04774235 -0.098034464 0.15244769
000340 ea 68 b0 bc 16 bd e2 3d c8 51 55 3c 16 9b 9e bd
       -0.021534402 0.110712215 0.013019986 -0.07744424
000350 fd fd 93 3e 9d c0 66 be 5c 34 cd be a9 8a bc bd
       0.28904715 -0.22534414 -0.4007901 -0.09206135
000360 fe cf 18 bb b5 69 15 bd 49 c2 9d bf 9f 43 bf 3e
       -0.0023317332 -0.036477763 -1.2324916 0.37356278
000370 75 8a ff bd e4 71 3a bd 3b 4e 09 3f 2e 2f fe 3d
       -0.124775805 -0.04551877 0.53634995 0.124113426
000380 ac fd ad 3e 9f 76 36 3e 0a 37 64 be 8c 4c c1 be
       0.339826 0.17818688 -0.2228662 -0.37753713
000390 72 62 e1 be f2 21 db 3e 00 12 f7 bc a0 1c 7a 3e
       -0.4402042 0.42799336 -0.03015995 0.24424982
0003a0 79 15 0c 3e f2 ed ef 3e 11 6e 62 3e e5 df 91 be
       0.13680066 0.46861225 0.221123 -0.2849113
0003b0 70 3c 17 bd 29 c2 4e bd d7 a6 72 3d 0b a2 bc be
       -0.036922872 -0.050478134 0.059241142 -0.3684238
0003c0 61 0f 18 bf 67 e0 85 be 50 2f fe be 33 30 cf 3d
       -0.59398466 -0.26147768 -0.49645472 0.10116615
0003d0 bf 5a a5 3d 7f bb b2 be 03 00 c7 3f 89 cc 4f be
       0.08073949 -0.34908673 1.5546879 -0.20292868
0003e0 ea 3d 78 be 0b 00 28 3f 1b 6b 10 be 29 d3 8c 3d
       -0.24242368 0.65625066 -0.14103357 0.06876213
0003f0 09 4d 07 3f 15 e0 36 be 7a ce 0f be 55 8d 54 3e
       0.5285192 -0.17858918 -0.14043608 0.20757039

network_body._body_endoder.seq_layers.0.bias f4 [128]
000000 e8 60 eb 3c 54 2e dd 3c 58 02 01 bd 2b 23 0e 3c
       0.028732732 0.02699963 -0.031496376 0.008675377
000010 ae 99 0a be 7b a2 83 3d ac b6 19 3e 4a 5f 82 bd
       -0.13535187 0.06427475 0.1501109 -0.06365831
000020 2a 7c c0 3c ca 88 ad 3d 2a e6 6c bd 5c 3e 5c 3d
       0.023496706 0.08473356 -0.05783669 0.053770408
000030 27 e5 c1 bc 50 cc 27 3d 51 5e 82 3d 05 73 44 3e
       -0.023668839 0.040966332 0.06365646 0.19184501
000040 dc 38 25 3e d6 6e 77 3d 64 7a d7 3d 48 2d d0 3d
       0.16134971 0.060408436 0.10521391 0.10164887
000050 58 0f 2d bc 0f 6f 14 3e a9 42 a7 3c 3f 3c 9a bc
       -0.01056274 0.1449549 0.020417528 -0.018827556
000060 7c 25 32 3e 20 10 50 bd 73 3b 8c 3c d7 a4 86 3d
       0.17397112 -0.050796628 0.017118191 0.065744095
000070 51 e6 00 3d 7a 68 99 3d f4 a1 86 3d 2b 70 d2 3c
       0.031469647 0.074906304 0.06573859 0.025688251
000080 cd 32 00 3e 94 0a 45 3e 89 c7 83 3d bb c8 be 3d
       0.12519379 0.19242316 0.06434543 0.0931563
000090 39 7c 5a bb 74 51 2f 3e 16 8d 2f ba 19 03 ac 3c
       -0.0033338203 0.17120916 -0.00066967437 0.02099757
0000a0 65 e4 7e bd 3f 1d 5c 3d 1c 2b 15 3d c7 cc 5d 3d
       -0.062229533 0.05373883 0.036418065 0.05415037
0000b0 a4 24 62 3d 46 7e 4a 3d e7 06 ed bb 10 36 11 bc
       0.055210724 0.04943683 -0.007233489 -0.008862987
0000c0 96 db c5 3b 19 44 c7 3c d9 18 88 3d d4 a1 b8 3d
       0.0060381396 0.024324464 0.06645364 0.09015241
0000d0 84 e5 97 bd 1f 7a 34 3e a9 79 22 3e 05 d2 21 bd
       -0.074168235 0.1762471 0.15866722 -0.03950693
0000e0 cb 2a 17 3d aa fe bd bd a7 0f 88 bd db fe 14 3e
       0.036906045 -0.09277089 -0.066436104 0.14550345
0000f0 43 a2 1e 3c 53 0a 34 3d f1 58 c0 3c bd bb 94 3c
       0.009682241 0.04395516 0.02347991 0.018155927
000100 3d a4 b6 3d 6f 9e 91 bc db 46 2c 3e d9 01 bc 3d
       0.08918045 -0.017775742 0.16823904 0.0918004
000110 ce 3f 1b bd b7 a3 33 bd d6 4b 2c 3e 5b 50 23 3e
       -0.037902646 -0.043857303 0.16825804 0.15948622
000120 8c a2 68 bd 18 d3 80 3d ac e2 14 3e ca 30 56 bd
       -0.05679564 0.06290263 0.14539593 -0.052292623
000130 58 54 7c bd 50 db a0 3d 9a f1 11 bd c5 04 3c bd
       -0.061603874 0.078543305 -0.0356308 -0.045902986
000140 25 40 f6 3b a2 44 87 3d 41 1b 09 bd 33 1d 1d 3c
       0.007514971 0.066048875 -0.033473257 0.009589481
000150 36 5a 40 3d 40 38 d0 3d 7c f0 87 3d 11 b9 38 3d
       0.04696103 0.10166979 0.06637666 0.045098368
000160 7e a9 b3 3c da a1 b0 3d fd 0a d6 3c d7 45 77 3e
       0.021931406 0.08624621 0.026128286 0.24147736
000170 a6 98 b0 3d d6 42 b2 3d dc e6 c9 3d fa 4d 7b 3d
       0.086228654 0.08704154 0.09858486 0.06135366
000180 c7 61 c2 3d bc bd 17 3d 23 3a 3b 3d db 97 e9 3d
       0.09491306 0.03704618 0.04570974 0.11405917
000190 71 06 9c 3d be 6b 98 3d 32 a4 d3 3d fa a4 c5 3d
       0.07618416 0.07442425 0.10334052 0.096506074
0001a0 9b 3b 16 be b3 be d0 bd 63 06 8b 3c 84 f9 78 3d
       -0.14671175 -0.10192623 0.016970819 0.06078483
0001b0 b2 1f 30 3e e7 e5 e2 3c 61 d3 ed bd 9c 5e b0 3d
       0.17199591 0.027697517 -0.11612583 0.08611795
0001c0 9d bc a2 3d 8e 8b 5b 3b ed c8 16 3d 4a 28 c5 bc
       0.079461314 0.003349993 0.03681271 -0.024067063
0001d0 62 34 e7 3c 13 51 e4 bc 11 49 c7 3d f3 cf 0e bd
       0.02822322 -0.02787069 0.09730733 -0.034866285
0001e0 63 51 86 bd 35 d3 03 3d ff cb 8a 3d 81 2f ed 3d
       -0.06558492 0.032183845 0.067771904 0.11581326
0001f0 bd b6 e9 3c 32 c8 76 bd 94 fd 2d 3e 71 6a 4b 3d
       0.02852952 -0.060249515 0.16991264 0.049662057

network_body._body_endoder.seq_layers.2.weight f4 [128, 128]
000000 cb e2 22 3e 5c 3c c4 be 3f cf 01 3c b2 c1 d3 bd
       0.15906827 -0.383273 0.0079229465 -0.10339679
000010 86 f2 5e be 69 d8 a1 bd 04 8d f2 3d c5 a9 b0 bd
       -0.21772203 -0.07902605 0.11843303 -0.08626131
000020 31 aa a5 bd 81 58 0e be fb 78 74 be 90 48 9a 3d
       -0.08089102 -0.13900949 -0.23874275 0.075333714
000030 23 58 90 3c f9 94 c6 bd 58 c0 43 3d 28 07 6a 3e
       0.017620152 -0.09696383 0.047790855 0.22854292
000040 3a 28 d1 3d fc c3 02 bd e9 df 86 3d 63 2d 45 be
       0.10212751 -0.031925187 0.06585676 -0.19255595
000050 6d 79 f6 3c 0b 4f 3e be 1c 96 d4 3c 4e b2 2c be
       0.030087197 -0.1858484 0.025950484 -0.16864893
000060 4a cd a5 be d4 e3 ce 3b 08 a5 d2 bd cb 54 63 be
       -0.32383186 0.0063137803 -0.102853835 -0.22200315
000070 b9 ad fa bd 44 07 16 3e 14 a1 a5 bd 01 0a 84 be
       -0.12240166 0.14651209 -0.08087364 -0.25788882
000080 1f ad 81 3e eb 87 4b 3e 04 4a 8f bd 3b c9 38 bd
       0.25327393 0.19876067 -0.06996539 -0.045113783
000090 ac 40 a8 3d 34 1a 8f 3e 23 59 ff 3d 0e dc b6 be
       0.0821546 0.2794968 0.12468173 -0.35714763
0000a0 0a 54 9e bc 15 98 9b be a8 21 b3 3d f9 94 1e 3e
       -0.019327182 -0.30389467 0.08746654 0.15486516
0000b0 82 9c 3c 3e 8e ee 13 be 58 c1 1a bd 41 27 6e be
       0.18419078 -0.1444647 -0.037782043 -0.23257162
0000c0 8d 8c 0c 3d 2f c4 35 be 0b 41 19 3e 32 33 f8 3c
       0.034313727 -0.1775062 0.14966218 0.03029785
0000d0 0b f2 47 be 34 01 a1 3c f8 47 b7 bb 97 c7 35 be
       -0.19525926 0.019653894 -0.005593296 -0.17751919
0000e0 f9 cc 87 3e 93 15 42 3e 68 fa 40 be 21 76 62 be
       0.2652357 0.18953542 -0.18845522 -0.22115375
0000f0 c8 f3 7c be e4 41 fe bd d8 13 74 3d dc fd c8 3d
       -0.2470237 -0.124149114 0.059589237 0.09814045
000100 70 de 2e bd 76 59 31 bc 0d 0a f6 3d 1f 53 31 be
       -0.0426926 -0.010824552 0.12013636 -0.17316864
000110 21 de 02 3d cf 05 83 3d 7f 5d 84 3b 4a 70 2f be
       0.03195012 0.06397592 0.004039466 -0.17132679
000120 b6 6f b3 bc 9c 0c 85 bc d5 3d fd be 53 a7 81 be
       -0.021903854 -0.016241364 -0.49461237 -0.2532297
000130 27 ce 9f be ec 46 b0 3d f5 3a 7f 3d db 65 fd 3d
       -0.3121197 0.08607277 0.062312085 0.12372943
000140 bc c1 00 3e 3a 45 f8 3d 47 2e bb bd 62 3c bd be
       0.12573904 0.12122579 -0.09139686 -0.3696013
000150 4a 98 1a be be d6 9d be 36 67 85 be 0b 29 9f 3d
       -0.15097156 -0.30827898 -0.26055306 0.077715
000160 ff fd a1 be 2f 49 dc bc 28 9d c1 3d 63 82 71 3e
       -0.31639096 -0.026890365 0.09453803 0.23584895
000170 76 07 1a 3e 1f 16 fb bc 80 4b 38 bc 24 c5 d9 3d
       0.15041909 -0.030650197 -0.011248469 0.10633305
000180 80 d7 57 3d bc 2d 52 3d 40 a5 40 3e b8 5d 99 bc
       0.05269575 0.051313147 0.18813038 -0.018721446
000190 36 d1 10 be 78 37 64 be 2f b3 1c 3d 2c 44 36 3e
       -0.14142308 -0.22286785 0.03825682 0.17799443
0001a0 c8 11 2b be 3e 5a 6b 3d 7d 4d f4 3d 9a 2c 5e be
       -0.16706002 0.05745911 0.11928842 -0.21696702
0001b0 b6 f8 27 3e ff 66 b7 3d 96 fc df 3b b3 85 53 bd
       0.1640347 0.08955192 0.0068355305 -0.051641177
0001c0 a0 23 07 3d 4c 5f 27 3a 8c f4 81 be 2e 28 08 be
       0.03299296 0.0006384745 -0.25381887 -0.13296577
0001d0 e5 7f ae 3a 88 19 67 be 87 0f 3c be 0e d0 2c 3d
       0.0013313262 -0.22568333 -0.18365298 0.042190604
0001e0 26 6a 2b 3e 81 d9 0b 3e f0 f1 26 3e f3 70 d9 3d
       0.16739711 0.1365719 0.1630323 0.106172465
0001f0 da 6b c1 3c b5 b8 a0 be 93 62 1f 3e 47 4c 8b be
       0.023610998 -0.3139092 0.15564947 -0.27206632
000200 40 ad eb bd 6c a5 2a 3d f6 71 fc ba 13 4f d7 3d
       -0.11507654 0.041661665 -0.0019260037 0.10513129
000210 b4 70 32 be 84 79 f7 bd eb 78 f4 3d 3f 25 9a be
       -0.17425805 -0.12083724 0.11937126 -0.30106542
000220 85 f1 70 3e b1 e8 16 ba cb 65 87 be 38 81 b7 be
       0.23529632 -0.00057567196 -0.2644485 -0.35840774
000230 ce e5 2e 3e f4 a8 06 3c 18 c3 28 3c 65 17 f5 3d
       0.17079851 0.0082189925 0.01030042 0.11967353
000240 7a 88 6c be 18 48 13 be 06 94 1f be d4 7f 8e bc
       -0.23098937 -0.1438297 -0.1558381 -0.017394938
000250 2b f3 08 bd 1f a4 fa 3d fa 86 88 3d f8 32 55 3d
       -0.033435028 0.12238335 0.0666637 0.05205056
000260 66 cf e8 3d 2a 41 9e be 22 e8 bc 3e ee 97 88 be
       0.11367683 -0.3090909 0.36895853 -0.26678413
000270 8d 20 9e 3d 09 0f 07 bf 7d 6d 68 bb bf 4a fc bd
       0.07721052 -0.52757317 -0.003546565 -0.12318944
000280 cf 34 42 bd 8c 95 a8 be df 7d da 3d 6a c5 94 be
       -0.047413643 -0.32926595 0.10668539 -0.29056865
000290 df 4a 61 be ec 24 ce be c1 fd db 3b 00 5a e0 bd
       -0.22001217 -0.40262544 0.0067135994 -0.10954666
0002a0 44 11 ee 3d 6a b7 12 3d 4b 83 b7 3e ba ed 30 3e
       0.11624387 0.03581945 0.35842356 0.17278185
0002b0 ad 53 2d 3d a6 4e 0d bb 03 c5 be bd 77 1d 6c bd
       0.042316128 -0.002156177 -0.09314921 -0.057645287
0002c0 e7 42 27 bd 63 0d 1f be 2e 44 34 3e f1 25 59 be
       -0.040835287 -0.1553245 0.17604133 -0.2120588
0002d0 08 59 14 3e 3e fa 14 3e c9 fa 7e bd 62 30 0b 3d
       0.14487088 0.14548585 -0.062250886 0.03398169
0002e0 f4 d0 f0 bd 72 7f f4 3b 30 d3 88 3d eb e7 21 3c
       -0.11758605 0.0074614817 0.06680906 0.009881954
0002f0 5e d3 ec 3d fb 5f 42 be 41 d5 a8 bd 61 af 0f be
       0.115637526 -0.18981926 -0.082438 -0.14031745
000300 5d de ed 3d d2 10 8a bd 71 14 06 be 88 9a 79 3d
       0.11614678 -0.067414895 -0.13093735 0.060938388
000310 b8 79 ec bb ef 29 0d be 6f 1c 3e 3d e3 61 e5 bd
       -0.0072166584 -0.13785528 0.046413835 -0.11200311
000320 d6 da 03 bd 0f cc 92 be c9 9b c7 3d ad d9 03 3d
       -0.03219112 -0.2867131 0.097465105 0.032190014
000330 10 b4 23 3e e2 16 5f bd 11 25 61 be 69 c5 8e be
       0.15986657 -0.054465182 -0.21986796 -0.27884987
000340 15 58 e4 bd 98 d8 b2 be 4a dc 25 bd 1a df 42 3d
       -0.11149613 -0.34930873 -0.040493287 0.047576047
000350 73 56 42 3e 08 02 fc 3d b4 01 53 be 31 ce 04 bf
       0.1897829 0.12305075 -0.20606118 -0.51877123
000360 9a c8 b3 bc a5 e9 d8 bd 34 dc 5a 3e ad 40 62 be
       -0.02194624 -0.10591439 0.21373063 -0.22094984
000370 18 64 d0 bc 37 1b bb be 41 50 0d 3e 5f d1 da bd
       -0.025438353 -0.365442 0.13800146 -0.106844656
000380 2e 95 7c bd c0 88 da bd a6 d8 be bd 96 c5 82 be
       -0.061665706 -0.10670614 -0.09318666 -0.2554137
000390 7e b3 4e be 3b e8 8e 3e 26 ec 82 bc 75 e1 a3 be
       -0.20185658 0.27911553 -0.015981745 -0.32007948
0003a0 05 ec 15 be c3 de 18 be c2 7c d2 bd fd df 7c bc
       -0.14640816 -0.14928727 -0.10277702 -0.015434262
0003b0 bb 52 44 bc 11 d1 e0 bc 2c e1 58 3d 1e bd 30 3e
       -0.011982615 -0.02744344 0.052949116 0.17259642
0003c0 ed e4 10 be c7 86 1b 3e 9c 22 1b 3d 08 76 0d 3d
       -0.14149828 0.15188132 0.037874803 0.03453639
0003d0 96 52 c1 bb 83 47 ef bd 98 49 42 3d 9d 20 f2 bd
       -0.0058997376 -0.11683562 0.047433466 -0.11822627
0003e0 a4 30 4e bd 18 ae 56 be 33 dd be bd 7c ca 64 3d
       -0.050339356 -0.20964849 -0.09319534 0.055857167
0003f0 8f 96 c2 3d 44 7b 1c be 9b c7 93 be 6c 74 8a bd
       0.09501373 -0.15281397 -0.28863224 -0.06760487

network_body._body_endoder.seq_layers.2.bias f4 [128]
000000 82 0b a6 bb b4 f2 63 3d 14 a0 8c bd 1a 34 0c 3d
       -0.00506729 0.05565138 -0.0686647 0.034229375
000010 fa 9d 83 3c f2 cb 63 bd 68 11 99 3c 80 58 b5 3d
       0.01606654 -0.05561442 0.018685058 0.08854771
000020 83 74 08 3e 35 d1 3a 3d 6d 62 03 bd e6 79 de bc
       0.13325696 0.04560967 -0.032076288 -0.027157735
000030 13 1e 9d 3d 2c 7e c7 3d 8b 6a c6 3d 3e cf 82 bd
       0.07671752 0.09740862 0.0968829 -0.063871846
000040 a6 da 21 be 2d af fa bb 19 79 a5 bb 3a cc 7e bd
       -0.15806064 -0.007650277 -0.0050498364 -0.062206484
000050 78 61 0e bd eb 00 e4 3d 76 01 af bc 7b 77 17 bd
       -0.034760922 0.111329876 -0.021363001 -0.03697918
000060 98 47 4c 3d 1d 49 06 3d 11 5c 13 3d ad d0 91 3d
       0.049872965 0.03278457 0.035976473 0.0711988
000070 eb 02 35 bd 6a 38 6f bd ea 58 b1 bd 31 03 85 3d
       -0.044192236 -0.05840341 -0.08659537 0.06494749
000080 2f 12 f0 bc d2 b2 59 bd f2 86 64 3c 82 98 65 3d
       -0.029305546 -0.053149052 0.013948189 0.056053646
000090 5d db 20 bd 09 23 9e 3d 8a f9 aa bc 3e 58 7e bc
       -0.0392717 0.07721526 -0.020870943 -0.015523968
0000a0 fc 5e 5e bc 6a f2 10 bc d0 b4 14 3d 6b 70 b8 3d
       -0.013572451 -0.0088468585 0.03630525 0.09005817
0000b0 fa 43 0f bd 6f de ee bc f5 19 9b 3c 07 2c 0d 3e
       -0.034976937 -0.029158799 0.018933276 0.13786326
0000c0 4f bc 64 3c 8d 59 3d 3d 08 12 57 3d 60 40 f1 3d
       0.013960912 0.04622798 0.05250743 0.11779857
0000d0 16 3f f5 bb 40 d8 dd 3d cb 27 c0 bc e2 f0 7a bd
       -0.007484327 0.10832262 -0.023456475 -0.06126488
0000e0 56 57 81 bc 6c 1a 90 3c 83 d7 cc bc 42 1c 7a 3d
       -0.015788715 0.017590724 -0.025005108 0.061062105
0000f0 6b b3 e7 3d b5 58 34 3c 07 9e c3 3d ad bc a5 3d
       0.11313518 0.0110074775 0.09551626 0.08092628
000100 c2 22 3d 3d 7f ed f1 bc db ba 83 3c fa a2 9c bd
       0.046175726 -0.029532192 0.01608031 -0.07648273
000110 bd d5 5d 3b d5 bf f3 bb f6 a1 38 3d da d7 a7 bd
       0.0033849322 -0.0074386396 0.045076333 -0.08195467
000120 c7 8f 42 bc 99 3e 01 3d c7 7e 82 3d f6 57 80 bc
       -0.0118750995 0.03155384 0.06371837 -0.015666943
000130 e2 1c 93 ba e7 b8 4c be d8 5e 1e 3d 10 16 3b bd
       -0.0011223818 -0.1999241 0.03866467 -0.045675337
000140 d2 5b ab bd 0e fa 6e bd 0a 73 9b bd 20 4f 17 3c
       -0.08367123 -0.05834394 -0.07590301 0.009235173
000150 e0 0c ff 3d 30 ac e3 3d 31 7c d4 3d 8a 80 1f 3d
       0.124536276 0.111168265 0.1037525 0.038940944
000160 86 99 a7 bd f6 2b 55 3c 7a da b4 ba 83 24 b2 3d
       -0.08183579 0.013010969 -0.0013798021 0.0869837
000170 2b 07 21 bd 88 dd b0 3c f1 be ab 3b 97 43 02 bb
       -0.039313477 0.02159001 0.005241268 -0.0019876712
000180 f5 5b 3f bc a6 1c e5 3b 60 8b 77 bd ed 15 a5 3d
       -0.011679639 0.0069919406 -0.060435653 0.08060823
000190 8c b4 63 bb a9 d1 53 3c 8b 3b a7 bd a2 d7 4e 3b
       -0.0034745065 0.012928405 -0.08165654 0.0031561633
0001a0 dc 54 6d bc 50 97 99 3d 2c 61 33 3d 42 c6 75 3b
       -0.014485564 0.07499564 0.043793842 0.0037502204
0001b0 ce b7 3f 3d fa 8c d3 bc 10 7c 6c bc 89 58 8e bd
       0.04680615 -0.025824059 -0.014433876 -0.069504805
0001c0 f6 88 1f bd 06 19 a8 bc 29 8e d8 bd 5a 90 fc 3c
       -0.038948976 -0.020519745 -0.1057399 0.030830551
0001d0 2c ad 4c bd 8d 53 a1 bd ba e0 9d 3d 64 3d cb 3d
       -0.049969837 -0.07877264 0.07708879 0.09923819
0001e0 1b 79 72 bd 51 52 87 bd a4 fd 7f bd 93 f9 86 3d
       -0.059197526 -0.066074975 -0.06249775 0.06590571
0001f0 ef 08 81 ba a6 51 17 bd a6 23 0f bd 13 ea f5 3c
       -0.0009844581 -0.0369431 -0.034946106 0.030018842

network_body._body_endoder.seq_layers.4.weight f4 [128, 128]
000000 6e 99 40 be a0 5e ba 3d 51 09 c0 bd a9 77 d9 be
       -0.18808529 0.091000795 -0.09376777 -0.42474106
000010 bf 45 b5 bd 1a 53 4b bd e3 5f 22 be 08 39 c2 bb
       -0.08851194 -0.0496398 -0.1585689 -0.005927209
000020 bb 87 12 3d b6 2e c7 bc da 30 b6 bc fa 71 0a bd
       0.035773974 -0.024314266 -0.022240091 -0.033800103
000030 5e 64 e1 3d 0a 68 06 be b2 d7 78 3d 30 e3 7f be
       0.11005472 -0.13125625 0.060752578 -0.24989009
000040 14 c5 bc bd 38 57 bd 3d 1f 4b aa bc f0 49 9c 3d
       -0.09217277 0.09245151 -0.020787774 0.0763129
000050 48 ad 87 3c 5b d5 4e be 0b 29 07 3c 1d 0b 71 3c
       0.01656212 -0.20198576 0.0082495315 0.014712122
000060 fe 8d 8f 3e 6b 58 87 be e3 3d 63 3e fc 20 bc bd
       0.2803802 -0.26434645 0.22191577 -0.09185979
000070 9b 04 ae 3d 2c 77 8b 3e cf 91 8a 3c 85 18 cb 3d
       0.08496972 0.27239358 0.01691523 0.09916786
000080 3f 3b 22 3e 02 c8 64 be b3 e3 f5 bb 6d c1 e0 3c
       0.15842913 -0.22341922 -0.0075039505 0.027435983
000090 6a 5c ca bd 68 1e 69 be f7 bf 9a be 1c d6 9e 3c
       -0.09880908 -0.22765505 -0.30224583 0.019389205
0000a0 20 73 fc bd a8 dc f9 bd 5f 81 1a be 4a 84 53 3e
       -0.12326646 -0.1220029 -0.15088414 0.20655933
0000b0 b3 75 ba be 2e 06 3e be 17 d4 99 be 50 3a dd 3c
       -0.36417922 -0.18557045 -0.30044624 0.027005345
0000c0 99 61 cb 3c 1e 13 c6 3c fa 2f af 3c ed b3 7b bd
       0.024826812 0.024179038 0.021385182 -0.061450887
0000d0 b2 ca d9 bd b6 0f ec 3d 6b 68 27 3d 6a 7e 8e bd
       -0.10634364 0.11526434 0.040871065 -0.06957705
0000e0 52 9a 27 bc 11 1a e4 bd 27 3e 8b 3e 7e 54 94 bd
       -0.010229664 -0.11137784 0.27195856 -0.07242678
0000f0 0e 33 6d bd ad 7d 7d be de 99 ca 3d 95 f1 af bd
       -0.057910018 -0.24754973 0.09892629 -0.08591
000100 19 33 82 bc 81 33 be 3d 24 8a 44 be 42 37 27 bd
       -0.015893506 0.09287167 -0.19193321 -0.040824182
000110 1a d8 9a 3e 46 34 34 bd 3c 02 84 be 50 c2 00 be
       0.30242997 -0.043995164 -0.25782955 -0.12574124
000120 52 26 d1 bc eb ac f1 3d 73 e1 01 3e 7d 30 9f be
       -0.025530968 0.118005596 0.12683658 -0.3109168
000130 8e d6 30 bc a0 e1 bc bc 8a dc 32 3e 15 61 d1 3d
       -0.010793341 -0.023056805 0.17466941 0.10223595
000140 7f e8 48 be 02 0b 20 3e d9 03 26 be d5 14 1d 3e
       -0.1961994 0.15629199 -0.16212405 0.15339978
000150 41 b1 a8 bd bf c0 22 bd c8 ae d5 be 19 d1 7d 3d
       -0.082369335 -0.0397346 -0.4173491 0.06196699
000160 9e e6 fb bd b5 39 35 3e 7a 4f 81 be 18 aa 2d be
       -0.12299846 0.17697795 -0.25255948 -0.16959417
000170 66 12 0c bc ff 70 6c be 69 f3 96 bd e0 5d 15 be
       -0.008549308 -0.2308998 -0.073706456 -0.14586592
000180 06 05 af 3c 34 e4 b1 bd 3d 23 17 be a7 ad 3c 3d
       0.0213647 -0.086861044 -0.14759536 0.046064045
000190 de 3f d5 bd cc 5e 16 bc 21 58 0b be 44 59 71 3d
       -0.10412572 -0.009177875 -0.13607837 0.05892302
0001a0 0c 8f f6 be 46 da 09 be 77 63 c6 bd 68 f2 89 bd
       -0.4815601 -0.13462171 -0.0968694 -0.067356884
0001b0 da 16 78 bd b5 8b 7a be 7d 84 67 3d f2 8e 8d 3d
       -0.060568668 -0.24467357 0.056522835 0.0691203
0001c0 b6 a7 c4 3c 9b 85 64 3b eb 75 42 bd b4 03 07 bd
       0.024005752 0.0034869674 -0.047475737 -0.032962516
0001d0 6d ca cd bd fe e4 03 bc 6c 62 ac be 35 5e 01 bd
       -0.10048375 -0.008050201 -0.3366884 -0.031583983
0001e0 44 e4 e5 bd cf 5d 8b 3c 56 5b bc 3c ef 63 4b bd
       -0.11225179 0.017012505 0.022992771 -0.04965585
0001f0 3a ad f5 be 6a f0 1d 3d a3 3c 59 3d 18 29 b5 bd
       -0.47983724 0.038559355 0.053036343 -0.08845729
000200 90 7d 16 3e d8 db 39 3e 3b 4e 8d 3c 0c f5 45 3e
       0.14696336 0.1815027 0.017249217 0.19331759
000210 67 b4 1f 3d bc 71 57 be 03 46 78 bc 2f 1b 3a be
       0.038990404 -0.2103948 -0.015153411 -0.18174432
000220 30 c2 b2 3d 80 31 8e be 53 3b 2c 3e 9b dd e8 bd
       0.087284446 -0.2777214 0.16819505 -0.11370393
000230 0b 1f 07 be c7 7e 15 be 5b ec fb bc c5 60 ba 3d
       -0.13195436 -0.14599143 -0.030752352 0.091004886
000240 ea ad 25 3c e5 b7 16 3c be 21 a1 3d 21 a5 5d bc
       0.010112265 0.009199117 0.07867764 -0.013528139
000250 32 08 3d be 0f 22 0c be c4 c1 d6 bd 23 f1 0b be
       -0.18460158 -0.13684867 -0.104861766 -0.13666205
000260 90 14 49 bb 99 fd 5e 3e 2b 75 44 3e 34 5f 34 bd
       -0.0030682422 0.21776427 0.19185321 -0.044036105
000270 47 ae ed 3d fd 30 43 3e a3 30 42 3d 69 72 a6 bc
       0.116055064 0.19061656 0.047409665 -0.020318227
000280 63 28 60 bd 47 16 3d bd df 6d 09 be b3 3b 17 be
       -0.054726016 -0.046163823 -0.13420819 -0.14768867
000290 d6 15 37 3e 08 9e b8 bd 30 5d 88 bd fe 63 af be
       0.17879423 -0.09014517 -0.06658399 -0.34255975
0002a0 6f 2c 9c 3d f0 51 6b bd 2c 0d de 3d 32 0e f5 bd
       0.076256625 -0.05745119 0.10842356 -0.11965598
0002b0 de 36 9d bd 9a 84 b6 be 9b 5f 69 be af af 65 3c
       -0.07676481 -0.35648042 -0.22790377 0.014018937
0002c0 7e 2e b1 be 6b a0 9e bd 17 e2 a7 be ee 8d 9f bd
       -0.34605783 -0.07745441 -0.3278968 -0.07790743
0002d0 f8 32 35 be 72 e1 37 bc f2 13 09 be c8 93 a9 be
       -0.17695224 -0.011223184 -0.13386515 -0.3312056
0002e0 4b 61 22 be c3 f0 58 3e e4 f4 1a be 78 68 82 be
       -0.15857427 0.21185593 -0.15132481 -0.25470328
0002f0 ba 9b 2f bd 20 8b 9e be b0 46 59 3d 83 4a b6 3d
       -0.04287312 -0.3096552 0.05304593 0.08900931
000300 a1 81 31 be 17 c3 15 3d a3 8f ca 3c 3b f8 c3 be
       -0.17334606 0.036563005 0.024726694 -0.38275322
000310 09 22 31 be 9c 43 50 be cc e7 62 be d2 96 85 be
       -0.1729814 -0.20338291 -0.22158736 -0.2609163
000320 9b 65 ab 3c 3d 96 fa bd e4 31 07 bd 87 75 09 be
       0.020922473 -0.12235687 -0.033006564 -0.1342374
000330 30 47 66 bd ae 35 59 be c5 3b 37 be e3 c8 a8 3c
       -0.056220233 -0.21211883 -0.17893894 0.020603603
000340 bf ff 43 bd 42 65 06 bc 4f 5c a6 bd c1 de 17 3e
       -0.04785132 -0.008202853 -0.08123075 0.14831068
000350 46 36 22 bd d5 58 51 be a5 7e 01 3e c2 63 00 bd
       -0.03960254 -0.20444043 0.12645967 -0.031345136
000360 38 5f d5 bd 38 c1 22 3d 54 fc 17 3d 15 0e 4e be
       -0.10418552 0.03973505 0.037105873 -0.2012256
000370 5c 06 68 bd 4f b2 51 3d c0 a0 f1 bd a1 8c 16 be
       -0.05664669 0.05119544 -0.11798239 -0.14702083
000380 4b 05 ec bd 9e 44 2d be a3 2c 07 3e bf 25 f8 3d
       -0.11524447 -0.16920707 0.13200621 0.121165745
000390 1f 69 de 3d 2d b1 21 be 22 b7 00 3c 57 69 a9 bd
       0.10859894 -0.15790243 0.007856162 -0.08272045
0003a0 79 74 af 3e a3 f0 ff bd ff 0c 74 be bf 2b 67 3d
       0.3426855 -0.1249707 -0.23833083 0.056438204
0003b0 e1 56 8d be 2d d1 8f bd 81 71 3b bd a9 0d 39 be
       -0.27605346 -0.07022319 -0.045762543 -0.18071617
0003c0 d4 8e 9c be 55 20 0c 3e cd e1 2d be 71 9c 5f 3e
       -0.3057772 0.13684209 -0.16980667 0.21837021
0003d0 3f 6f d2 bd 45 73 f2 3d 16 47 f2 3d 22 6e 88 bd
       -0.10275125 0.11838392 0.11829965 -0.06661631
0003e0 48 f5 00 bd bf 55 58 3e 9f 48 e0 bd 1f d3 86 3d
       -0.03148392 0.2112646 -0.109513514 0.06583237
0003f0 16 a6 13 3c d0 24 8e 3d 96 f3 4e bd 59 b4 a2 3d
       0.009011766 0.06940615 -0.05052527 0.07944555

network_body._body_endoder.seq_layers.4.bias f4 [128]
000000 ce 28 b4 bd eb 79 a0 bd 35 c5 92 bc a8 b2 e3 bd
       -0.087968454 -0.07835754 -0.017916301 -0.1111806
000010 4e d3 ab bd 6a a7 ff 3b 73 20 d0 3a 2d 68 cf bd
       -0.083899125 0.0078019397 0.0015878811 -0.10127292
000020 03 55 b0 bc 73 67 f2 bd ed 2c ac bd 61 31 bd bb
       -0.021524912 -0.118361376 -0.084070064 -0.0057737087
000030 fd 65 05 be 89 e3 84 3b d0 ba 00 bd e7 65 e5 3c
       -0.13027187 0.0040554446 -0.03142816 0.028002692
000040 26 27 7f bd 72 62 2c bd b8 f6 a7 bd 66 a9 15 be
       -0.062293194 -0.042086072 -0.08201355 -0.14615402
000050 c5 d8 91 3c e8 80 61 bd 43 4a 16 bd 07 37 06 3c
       0.01780356 -0.055054575 -0.036691915 0.0081918305
000060 32 0d c2 bd e4 35 2b bd 2c 36 be 3c d9 5e 08 bd
       -0.09475173 -0.04179944 0.02321919 -0.03329358
000070 d0 8c 1e bc 46 98 68 be 53 25 89 bd bd 77 59 be
       -0.009677127 -0.22714338 -0.06696572 -0.21237083
000080 19 f3 a3 bd f2 13 f3 bc 74 c7 39 bd 6b 32 e8 3d
       -0.080053516 -0.029672597 -0.04535623 0.113377415
000090 17 89 95 bc b2 de cd bc 0c f6 33 bc 78 50 1f 3b
       -0.018253846 -0.025130603 -0.010983955 0.0024309438
0000a0 3c bd 0f bd ae 8a c4 bd 03 cb ec 3c 45 82 e5 bd
       -0.035092577 -0.095967636 0.028905397 -0.112064876
0000b0 0f 5f 08 3d 9e 3b bc bd 70 16 32 3d 77 3e 84 bd
       0.03329378 -0.091910586 0.04347843 -0.06457227
0000c0 41 39 ec bd 7a e0 e9 bd 1e 0b 33 bd 3d d9 22 3d
       -0.11534358 -0.11419769 -0.043711774 0.039757956
0000d0 f9 42 a7 bd fb 46 0b bc 21 a0 91 bd 4f b7 25 3d
       -0.08167071 -0.00850081 -0.0711062 0.04045802
0000e0 39 a4 b2 bc cb 24 02 be d3 05 89 bd f1 e1 5c bd
       -0.021806823 -0.12709348 -0.06690564 -0.053926412
0000f0 56 45 58 be 52 57 a2 bd ea 9a 16 be 35 3a 56 bd
       -0.211202 -0.07926811 -0.14707533 -0.052301604
000100 d4 38 62 3b a6 cb 98 3c 36 97 77 3d 20 b7 0c 3d
       0.0034518735 0.018651795 0.06044694 0.03435433
000110 cf b3 81 bd 2e 2f cb bd be f0 33 bd f4 4b 4e bd
       -0.06333124 -0.09921108 -0.04393076 -0.050365403
000120 d4 70 05 3d a8 fb 38 bd 17 11 fe bc bb 1b d4 3b
       0.032578304 -0.045161873 -0.031014008 0.0064730323
000130 98 22 87 3c c3 37 d2 bd f7 53 03 3d a9 64 e7 bc
       0.016495988 -0.10264542 0.032062497 -0.02824624
000140 94 82 e9 bd 74 03 78 bd 64 34 1a 3d 84 44 e9 3c
       -0.11401859 -0.06055017 0.03764762 0.028475054
000150 fd ea bf bc 38 53 f5 bd 2a cf bc 3d ec 7f c6 bd
       -0.02342748 -0.11978763 0.09219201 -0.09692368
000160 d3 32 61 bd 67 42 a6 bd 4d 26 03 bd 20 27 04 bd
       -0.05498011 -0.08118134 -0.03201895 -0.032263875
000170 84 60 f2 bc b0 23 e3 bd e1 de 82 bd 1e 34 42 bd
       -0.029587038 -0.11090791 -0.06390167 -0.047412984
000180 c3 66 94 bd 04 f9 11 bd f5 5d 38 3d b3 58 a0 bd
       -0.07246163 -0.03563787 0.04501148 -0.07829418
000190 c4 54 00 be 09 53 d3 3b 50 ea 34 bd f1 79 b8 bd
       -0.12532336 0.0064491075 -0.04416877 -0.090076335
0001a0 69 0e 87 bd e2 fe 2c be f4 ab 0c bd 9f c9 90 3c
       -0.065945454 -0.16894105 -0.034343675 0.017674265
0001b0 42 2c 59 bd 16 af ca bd 5e 25 1e bc 06 47 07 be
       -0.053020723 -0.09896676 -0.009652464 -0.13210687
0001c0 ab 03 24 3a 87 16 9f 3c 65 e3 a7 3d 80 c0 20 bd
       0.000625665 0.019419922 0.08197669 -0.039246082
0001d0 70 0b 15 bd 84 79 03 bd fc f6 88 3d f6 d9 2f 3c
       -0.03638786 -0.03209831 0.066877335 0.010733118
0001e0 7f 09 8f bd 56 22 4f 3d a9 fd b4 3a cb 36 09 bd
       -0.06984233 0.050569855 0.0013808507 -0.03349952
0001f0 2a f9 bf bd 6e c3 65 bc 6c 2b e0 bd 6b 4f 59 3d
       -0.09373696 -0.014023645 -0.10945782 0.053054255

action_model._discrete_distribution.branches.0.weight f4 [3, 128]
000000 82 11 8f 3d d9 a9 4d bc 54 60 3d bd ff e4 cf 3c
       0.06985761 -0.012552702 -0.046234444 0.025377749
000010 31 c0 b6 3c d6 6c 22 3d 00 38 a3 bc ff f1 11 be
       0.02230844 0.039654575 -0.019924164 -0.1425247
000020 e2 fc 55 3d 74 20 92 bc 0c c7 99 3d fa 71 41 bc
       0.05224312 -0.01783774 0.07508668 -0.011806959
000030 a4 bd 09 3d e7 7c 23 bc f7 98 31 3d 0d 61 dd 3d
       0.03362812 -0.0099785095 0.04335877 0.108095266
000040 37 39 4f bd 61 33 b6 3d a9 25 79 bb 0b 13 a5 bb
       -0.050591674 0.088965185 -0.0038016832 -0.0050376705
000050 d3 62 51 be ee 93 bb 3d d2 0c 2a be 17 d3 09 be
       -0.20447855 0.09159075 -0.16606453 -0.1345943
000060 e4 50 58 3c 51 77 60 bc 85 61 d3 3c b4 86 f8 3c
       0.01320288 -0.013700322 0.025803337 0.030337669
000070 81 62 ee bc ff 0e b6 3c 63 72 08 3e 73 e3 4a 3e
       -0.029099705 0.022223948 0.13324885 0.19813327
000080 db dd 45 be 56 03 02 3e c5 99 03 3e 00 50 3e be
       -0.19322912 0.12696585 0.12851627 -0.18585205
000090 c9 9d e9 bc 1c d3 0f 3e 61 a4 41 3d 7d e9 1c bc
       -0.02851762 0.14045376 0.047275905 -0.009577152
0000a0 0e 6d b9 3d e9 1f 13 be 57 d1 70 be bb 11 b7 3d
       0.09054004 -0.14367642 -0.23517357 0.08938929
0000b0 cc 67 fc bc 50 bd 3d 3d 49 5c af bd ed 09 c7 bd
       -0.030811213 0.04632312 -0.08562524 -0.0971869
0000c0 67 3f 02 3d f5 3f 90 bd 11 47 8d bd 1a 68 72 bd
       0.031798746 -0.07043449 -0.068983205 -0.05918131
0000d0 de b4 30 3e fc 80 e7 3d c5 e0 1d 3d 17 d7 1d bd
       0.17256495 0.11303899 0.038544435 -0.038535204
0000e0 91 d1 96 3d 5c e0 4f bd 1f 13 9c 3d f8 b8 20 bd
       0.0736419 -0.050751075 0.076208346 -0.0392389
0000f0 3f 19 1b 3d 07 4d 11 bd 21 34 5f bc fd a5 13 be
       0.037865873 -0.03547385 -0.013623268 -0.14418788
000100 34 af 84 3d a7 d0 15 3e 73 00 cd bd dd c3 46 3d
       0.0647873 0.14630376 -0.10009851 0.048526634
000110 7c 00 8a 3d 71 84 ab 3d 71 b7 cd 3c 3f d8 26 be
       0.06738374 0.083748706 0.025111886 -0.16293429
000120 f0 16 45 be 89 84 de bc 77 a8 18 3e 8d bf 2e 3d
       -0.19247031 -0.027162807 0.14908014 0.042663146
000130 21 80 0b 3e 5b a7 df 3d c0 e5 9c 3d 5c 8c 32 ba
       0.13623096 0.109205924 0.07661009 -0.00068110763
000140 2d 6d 6b bd b6 27 f1 3d 28 1a 91 3d 9d 42 39 3d
       -0.057477165 0.117751524 0.07085067 0.045229543
000150 53 64 2a bd 0a 70 ff 3b 8d b7 0d be fb 58 b5 3d
       -0.041599583 0.0077953385 -0.1383955 0.08854862
000160 23 ec 19 3d ac 47 6c bd b1 44 db 3d 7d 91 3a be
       0.037578713 -0.05768554 0.10706461 -0.18219562
000170 91 35 d7 3c 8e ee 00 3d 32 fc 86 3d 3a b3 b6 3d
       0.02627066 0.031477503 0.06591071 0.089209035
000180 9c 33 5f be 33 8e 66 3d a6 65 15 3e 05 5f 72 3d
       -0.21797031 0.056287955 0.14589557 0.05917265
000190 8f 2c bb bc c1 ae 0f 3e 30 5f ae 3d f7 be 83 bd
       -0.022848396 0.14031507 0.08514249 -0.06432908
0001a0 81 7c b9 3c f9 28 a3 3d 6f 19 67 3d 5f 58 ab bc
       0.022642376 0.07966799 0.05642074 -0.020916162
0001b0 27 e1 8b bd 66 74 42 3e 49 f2 98 3d 62 ba 9f bb
       -0.06830054 0.18989715 0.07468087 -0.0048745135
0001c0 c0 a7 9a bc 99 26 b8 3d f1 0a c1 3d 1d 6b 65 3e
       -0.018878818 0.08991737 0.09425915 0.22404142
0001d0 b3 c0 8a bc 5e 71 64 bd b9 b0 53 be 8d 69 6f 3d
       -0.01693759 -0.055772178 -0.20672883 0.05845027
0001e0 f0 c2 59 3e d7 f2 12 be c5 bc a0 3c 2d ef 93 bc
       0.21265769 -0.14350449 0.019621262 -0.018058384
0001f0 ec f1 9f 3d 14 e3 8a 3d d3 a0 d1 3c 94 b2 d1 bd
       0.07809815 0.06781593 0.025589382 -0.10239139
000200 f7 fe b3 bc 06 4d a2 3d fa b4 0f bd af d1 4c bd
       -0.021972163 0.07924847 -0.035084702 -0.050004657
000210 7f bc 44 3e ac 16 27 3c 1f 42 6c bd 1b 9c 41 3e
       0.1921253 0.0101982765 -0.057680245 0.18907206
000220 04 a9 b1 bc 7c 40 90 bd 10 ea 7c 3d de 16 2e 3e
       -0.021687038 -0.070435494 0.061746657 0.1700091
000230 33 f2 71 3d c1 5a ec 3c 77 8f d6 39 bb 72 93 be
       0.05906887 0.028851869 0.0004092415 -0.2879847
000240 3b ea 5d 3e 02 a7 10 bd 36 86 bd 3d 0b 53 39 3d
       0.21671383 -0.03531552 0.09254114 0.04524521
000250 ad 2d 63 3e 45 73 90 bd 46 2f 2e 3e ba b8 5c 3d
       0.22185393 -0.07053236 0.17010221 0.053887106
000260 28 04 2a 3e 63 7b c4 3d c8 27 0f be 93 fd 70 bd
       0.16603148 0.09593847 -0.13980019 -0.058835577
000270 a4 bb 65 3d 75 bf 24 bc db b1 f8 3d 04 e3 3d bc
       0.05608715 -0.010055413 0.12143298 -0.011589769
000280 f4 7e 6c 3d fb 7f a3 3d f5 bd 82 bd a0 14 98 3d
       0.05773826 0.07983395 -0.06383888 0.07425809
000290 3e 69 a3 3d 13 85 a5 bd 22 28 78 3c 43 82 fb bd
       0.07979058 -0.080820225 0.015146287 -0.12280705
0002a0 e3 62 37 bd fd 36 57 3d 83 ba 3c 3e e3 0b 53 bd
       -0.04477204 0.052542675 0.18430524 -0.051525008
0002b0 11 80 2b be 67 5e f4 3c ca a4 07 be 37 0b 11 bc
       -0.16748072 0.02983017 -0.13246456 -0.0088527715
0002c0 72 3b 38 3c e6 aa b4 3d 8c 71 98 3c 42 58 d3 bd
       0.011244642 0.08821659 0.01860883 -0.10319568
0002d0 db 54 9a bd 96 91 80 be d1 66 27 bd b9 78 f9 3c
       -0.07535716 -0.25111073 -0.040869538 0.030453073
0002e0 d4 93 91 3d 2a 10 c5 3d 43 d2 10 3e 86 3b 90 3c
       0.07108274 0.09622224 0.14142708 0.017606508
0002f0 ef f3 8a 3d 41 a8 76 3e 95 11 82 3d 20 32 e1 3d
       0.06784808 0.24087621 0.0635101 0.10995889
000300 17 95 f4 3d fe 64 75 be 0d fd 33 bd f1 13 0a 3e
       0.11942499 -0.23964307 -0.0439425 0.1348417
000310 60 7b 29 3d 7c a4 1f bd f4 ee 87 bc cd 53 95 3e
       0.041377425 -0.038975224 -0.016593434 0.29165497
000320 9e e3 19 3e 33 e4 ad 3e 5a 61 23 be 76 a1 d0 3d
       0.15028235 0.33963165 -0.15955105 0.10187046
000330 ef cf 8b bc a1 82 b0 bd a2 2a 83 3d b8 ef 55 3e
       -0.017066924 -0.086186655 0.06404616 0.20892227
000340 b7 d1 22 bd 73 2f 99 3a 00 59 b7 bd 41 fe aa bd
       -0.03975078 0.0011687115 -0.08952522 -0.08349276
000350 c0 66 90 3d 14 95 de bc aa c0 f0 3d a0 97 11 be
       0.07050848 -0.027170695 0.11755498 -0.14217997
000360 6e e1 07 be 3a 96 b2 3d 9b 74 8d bc 1d de 50 3e
       -0.13269588 0.0872006 -0.017267516 0.2039723
000370 d7 11 46 ba 61 55 c2 3d a8 5d 40 be 22 d9 26 3a
       -0.0007555759 0.09488941 -0.18785727 0.0006364753
000380 e4 38 af 3c 54 6b ee bd 18 e6 fc bd 83 61 df 3d
       0.021389432 -0.11641565 -0.123485744 0.10907271
000390 3e b6 98 3d ce 2f 15 be c2 85 e3 3d 9d 52 5d bb
       0.07456635 -0.14569017 0.11109497 -0.0033771165
0003a0 59 10 15 be 08 4a 59 3d ed a0 f7 3d d8 e4 0a be
       -0.14557017 0.053049117 0.12091241 -0.1356386
0003b0 a2 35 0d 3e c1 f6 24 be dc 5e ca 3d a3 a4 42 3d
       0.1378999 -0.16109754 0.09881374 0.04752029
0003c0 28 03 cc 3d ee 49 39 be de 43 ff 3c b6 11 35 bd
       0.099615395 -0.18094608 0.031160291 -0.044206344
0003d0 54 fa 78 bc 81 2d 43 3d 7a ff a8 3c 31 f2 7d 3e
       -0.015196402 0.047650818 0.020629633 0.2479942
0003e0 1b a6 18 be 04 64 4a 3d 85 54 a2 bd bc 72 bf 3d
       -0.14907114 0.04941179 -0.07926277 0.09348056
0003f0 71 62 ad 3d 57 5d c1 bd 7a 55 99 3d ba 8d b1 3d
       0.08466042 -0.09441631 0.074870065 0.0866961

action_model._discrete_distribution.branches.0.bias f4 [3]
000000 01 3d bd 3c d5 46 a1 bd 8d eb 67 3d
       0.023100378 -0.07874838 0.056621123

action_model._discrete_distribution.branches.1.weight f4 [2, 128]
000000 7f 06 5c bc 1c ef 27 be 2a 81 ac 3d b2 fb bf 3c
       -0.013429283 -0.16399807 0.084230736 0.023435447
000010 7b 1e 49 3c 34 d2 92 bd 27 8f 94 bd 51 01 31 bd
       0.0122753335 -0.07168999 -0.07253867 -0.043214146
000020 06 4f b5 bd a5 04 4b be 0c 85 ba 3c 92 d9 85 bc
       -0.08852963 -0.1982599 0.02276852 -0.016339097
000030 61 7c 88 3d 5f d9 4a 3d da 7d 53 3d 52 b9 55 3d
       0.066643484 0.049523707 0.051633693 0.05217869
000040 1c b2 12 3d df fd 6c bc d1 f5 64 3c ea cc 9d bb
       0.03581439 -0.014464824 0.013974623 -0.0048156874
000050 83 d1 28 3d 4d 5b 79 bc bd 1e 9e bd 08 5b 3b be
       0.04121543 -0.015219522 -0.077207066 -0.18296444
000060 7c 5b f6 bc 05 bb fb bd 09 dc 0c 3a f2 a7 3b 3e
       -0.03007292 -0.122915305 0.0005373364 0.18325785
000070 94 e6 2d be 8b 29 37 3d 8b a8 45 bd 29 c0 fa 3b
       -0.1698249 0.044717353 -0.04825644 0.007652302
000080 02 be 94 3c e0 18 c8 3d 56 c0 fa 3d 3c 2f b7 b9
       0.018157009 0.097703695 0.122437164 -0.00034939672
000090 41 03 8b 3d 02 71 2b bd cd 10 a7 bd 24 d1 9a bd
       0.0678773 -0.04185582 -0.08157501 -0.07559422
0000a0 51 56 f9 3c b9 38 f3 3c 93 c2 b2 bd cb 5b b2 bc
       0.030436667 0.029690133 -0.08728518 -0.021772286
0000b0 85 4b 37 bd ea 8f d4 bd 89 01 c5 bd 1e 4c 27 3d
       -0.044749755 -0.10379012 -0.096194334 0.040844075
0000c0 2f 66 3e bd 4b 5a b1 bc 32 c4 de bc 9e aa 32 be
       -0.04648417 -0.0216495 -0.027193163 -0.17447898
0000d0 68 76 59 bd 24 db 8a bd 94 bb 2b bc 6d a8 82 ba
       -0.053091437 -0.06780079 -0.010481734 -0.0009968408
0000e0 e8 60 e6 bc 1f ff b2 3d 32 46 97 bd 6f c4 9e 3d
       -0.02812238 0.08740067 -0.073864356 0.077523105
0000f0 b2 a2 9b bd e8 11 13 3d bf 12 29 3d 1d 74 cd bd
       -0.07599391 0.03590575 0.041277643 -0.100319125
000100 66 33 cf be 45 2b 66 be 06 be 9d bc 94 11 48 be
       -0.404689 -0.22477444 -0.01925565 -0.19537956
000110 99 c5 fd 3c 16 6e 54 bc 77 8b 16 3d 78 d3 00 be
       0.030978011 -0.0129657 0.036754098 -0.12580669
000120 6e 94 25 bc 7c 67 89 3d 25 4b 5b bd 38 e9 4c be
       -0.010106189 0.06709191 -0.05353846 -0.20010841
000130 8e f5 26 3d 19 0b 77 be 5a 6d 60 3e e5 d4 aa bd
       0.040761523 -0.24125327 0.21916714 -0.08341388
000140 4b ba e4 3d d1 4d 04 3e 70 04 3e bc 4c 8e 19 3d
       0.11168345 0.1292031 -0.011597738 0.03748922
000150 15 eb cd bc 04 02 52 bd 36 67 04 3e 86 10 a7 bd
       -0.02513651 -0.051271453 0.12929997 -0.081574485
000160 b5 90 b4 bd 9a 43 97 bd ed ff b5 3c d2 0b 22 bd
       -0.08816663 -0.07385941 0.022216761 -0.039562054
000170 d5 41 3a bd 0a 3f 66 3d 71 8c 10 3e cf fd 4e 3d
       -0.04547294 0.056212462 0.14116074 0.05053502
000180 5d 1c 6e bd 06 6c 4e be ae ed 2b be cf d2 13 3e
       -0.058132518 -0.20158395 -0.16789886 0.14435886
000190 bb 10 5d bd 67 7d 1e be 23 e5 eb bc 0c 12 8c bd
       -0.053971034 -0.15477525 -0.028795784 -0.0683938
0001a0 25 33 0d 3e ce 3b c2 3d 54 f8 b1 3d c5 8c dd 3c
       0.13789041 0.09484063 0.08689943 0.027044663
0001b0 24 32 e3 bd 82 d5 6a 3c 7c 15 21 3e f1 ce cd bd
       -0.11093548 0.014333131 0.15730852 -0.100492366
0001c0 54 8a 6b bc 43 82 41 bd c4 39 b8 bc 33 da 12 be
       -0.014376242 -0.047243368 -0.022488482 -0.14341049
0001d0 0b d0 d4 3d 8f 96 d4 3d a1 b2 70 bd ae 02 ae 3c
       0.103912435 0.10380279 -0.058764104 0.021241512
0001e0 c5 42 0c 3c 30 79 09 3c db 4d 88 bd c5 34 cc bd
       0.008560841 0.00839071 -0.06655475 -0.099710025
0001f0 c2 3c 30 3e c8 69 c0 3d 19 17 b9 bc a0 52 84 3d
       0.17210677 0.09395176 -0.022594022 0.06461072
000200 b9 21 00 3c 4d 51 32 3e 06 af c4 bd 6b a1 9c bc
       0.00782054 0.17413826 -0.096036956 -0.019119939
000210 b8 c5 a4 bc 44 f8 a9 3d 09 8a c5 3d e1 f0 5a 3d
       -0.02011381 0.08299306 0.09645469 0.053452376
000220 fc bc a7 3d d2 f8 4c 3e 65 d7 f1 bc 91 b8 99 3c
       0.08190343 0.20016792 -0.029521653 0.018764766
000230 a8 8c 9e bd be 08 06 bd fb 1a 32 bd d8 b1 3f bd
       -0.07741672 -0.03272318 -0.04348276 -0.046800464
000240 91 57 27 bd e3 30 be 3c c8 cb d9 bc 79 43 9e 3b
       -0.040854994 0.02321667 -0.026586428 0.0048298207
000250 9d 8e 4d bd 39 34 f8 3b 1a f8 9c 3d e6 2f 41 3e
       -0.050184835 0.007574585 0.07664509 0.18865928
000260 a5 9d 0f 3d 7c fa 0a 3e 1a 5d 49 3b 8d 6c 3a be
       0.03506245 0.13572115 0.003072566 -0.18205471
000270 42 a9 26 3e fa be 39 bd fd b9 6c 3d 20 68 1f bd
       0.16275504 -0.045348145 0.05779456 -0.03891766
000280 39 37 a0 bc e2 f0 99 bd f3 db fb bd 19 21 c4 39
       -0.019557582 -0.07516648 -0.12297811 0.00037408693
000290 70 6a 8a bd 5c bb 45 3d 38 67 96 3d 55 b7 b3 3d
       -0.067585826 0.048274383 0.07343906 0.08775202
0002a0 1d ae 80 bd 59 e6 19 bd cd 38 93 3d 06 d0 4a 3c
       -0.062832095 -0.037573192 0.07188568 0.012378698
0002b0 2e 4f 63 3d 9b 36 b7 3d ad 34 fa 3d c0 c3 2f bd
       0.055495434 0.08945962 0.12217078 -0.04291129
0002c0 fa 11 81 3d 6b c6 a3 3c 42 64 07 3d 17 f8 33 3e
       0.06302257 0.019992074 0.033054598 0.17575108
0002d0 61 76 f1 3c 83 ad 80 3d 63 07 d5 3c 64 de 82 3c
       0.029475393 0.06283095 0.026004499 0.015975185
0002e0 cb a4 d0 3c 14 ac ac bd cb 73 a4 3d e1 ac 97 bd
       0.025469204 -0.08431259 0.08029898 -0.07406021
0002f0 e5 f2 61 3d 03 62 f5 bc f5 20 51 bd c2 c0 c6 3d
       0.055163283 -0.029953962 -0.05105682 0.097047344
000300 c2 d6 ce 3e f2 28 5f 3e 86 de b5 3c f6 70 3d 3e
       0.40398222 0.21792963 0.022200834 0.18500122
000310 96 fd 44 bd c1 88 d7 3b 51 7f 81 bc 16 18 0e 3e
       -0.0480934 0.0065775816 -0.01580778 0.13876376
000320 dc 2c e1 bb 05 a5 5f bd 67 6a 83 3d 51 3d 48 3e
       -0.0068718027 -0.054600734 0.06416779 0.1955464
000330 39 76 34 bd 9b 4b 84 3e 50 8c 41 be e2 af dc 3d
       -0.04405806 0.25838932 -0.18901181 0.107757345
000340 f7 69 e8 bd 6e ba 07 be bc d4 a8 3a e2 76 fa bc
       -0.11348336 -0.13254711 0.0012880783 -0.030574266
000350 1e 6b 2d 3d de 71 49 3d 89 ef 00 be 70 79 ba 3d
       0.042338483 0.049180858 -0.12591375 0.091051936
000360 6d d7 ac 3d cc 88 22 3d 6f 53 60 bc 55 d3 32 3d
       0.08439527 0.03968124 -0.013691767 0.043658573
000370 89 37 0e 3d 94 96 1c bd c1 93 0a be f6 62 33 bd
       0.03472093 -0.03822954 -0.13532926 -0.04379555
000380 92 d5 36 3d c1 82 4e 3e 08 7a 23 3e 8d 47 1f be
       0.04463727 0.20167066 0.1596452 -0.15554638
000390 3e 4e 93 3d f0 fb 09 3e 4e 7e cf 3c 1c fc 81 3d
       0.07192658 0.13475013 0.025328781 0.06346914
0003a0 df 63 13 be cb e5 9b bd 9d 13 d5 bd ea 08 08 bd
       -0.14393567 -0.07612189 -0.104041316 -0.033211626
0003b0 15 08 da 3d 98 24 db ba fd 36 1e be 40 f3 d3 3d
       0.10646073 -0.001671928 -0.15450664 0.10349131
0003c0 19 8f fa 3b 7d 98 1a 3d db 98 a5 3c 31 bf 08 3e
       0.007646453 0.03774308 0.020214489 0.13354184
0003d0 8a 8c ba bd 57 7d e3 bd 7b db 75 3d 05 5d 28 bd
       -0.09108837 -0.11107891 0.060023766 -0.041104335
0003e0 10 04 2a bc 13 3b 7b 3b 5f af 94 3d fb 2b cf 3d
       -0.010376945 0.0038334772 0.07260012 0.101158105
0003f0 79 86 13 be f5 e3 bd bd 60 44 f4 3c fa 8e 70 bd
       -0.14406766 -0.09271995 0.02981776 -0.058730103

action_model._discrete_distribution.branches.1.bias f4 [2]
000000 31 8b 42 3d 0c 8b 42 bd
       0.047496025 -0.047495887
