results/5/Player/Player-30755.pt (torch, 850229 bytes, 64 tensors)

discrete_act_size_vector f4 [1, 4]
0	0x40400000	3.0
1	0x40000000	2.0
2	0x40400000	3.0
3	0x40400000	3.0

network_body._body_endoder.seq_layers.0.weight f4 [128, 1]
0	0xbec60b68	-0.38680577
1	0xbebcfe81	-0.3691292
2	0x3fc01727	1.5007066
3	0xc00d0d46	-2.2039351
4	0x3d00603a	0.03134177
5	0x3f8d78fd	1.1052548
6	0x3d968130	0.07348859
7	0xbe9c4679	-0.30522516
8	0xbdebb896	-0.11509816
9	0xbf160558	-0.58601904
10	0x3cd8a64c	0.026446484
11	0x3f05cc76	0.5226511
12	0xbe9fc733	-0.31206664
13	0xbf8ab635	-1.0836855
14	0xbe27d0b5	-0.16388209
15	0x3ebf2034	0.37329257
16	0x3ee6a5d6	0.45048398
17	0x3f9f73d4	1.2457223
18	0x3fa0d0cb	1.2563719
19	0x3fd4cf71	1.6625806
20	0xbf072ed0	-0.52805805
21	0xbf579045	-0.8420451
22	0x3e458d9d	0.19292302
23	0x3f0689c0	0.5255394
24	0xc0174a87	-2.3639238
25	0xbcd2210c	-0.025650524
26	0xbf2d1f60	-0.67626
27	0x3f5145c0	0.81747055
28	0xbec7e88b	-0.39044604
29	0x3fbc2c94	1.4701104
30	0x3f8ca32d	1.0987297
31	0xbf191630	-0.5979948
32	0x3f0cc18f	0.54982847
33	0x3e17d274	0.14826375
34	0x3f87699c	1.0579104
35	0xbf530523	-0.82429713
36	0xbea22082	-0.31665426
37	0x3ee3504f	0.44397208
38	0xbf2faaec	-0.6862018
39	0x3faed73f	1.3659438
40	0xbef1c919	-0.47223738
41	0xbd5f3ec0	-0.054503202
42	0x3e83879e	0.25689405
43	0xbe9ed801	-0.31024173
44	0x401860dc	2.3809118
45	0x3fffcb05	1.9983832
46	0x3f826977	1.0188435
47	0x3f45fc4d	0.77338105
48	0x3fb0eb1d	1.3821751
49	0x3f164a26	0.5870689
50	0xbf6517f9	-0.89489704
51	0xbeec5ddb	-0.46165356
52	0xbe168844	-0.14700419
53	0x3fb969fc	1.4485469
54	0x3f2ccd86	0.67501104
55	0xbc4534aa	-0.012036482
56	0x3ef3658e	0.47538418
57	0xbf108e1b	-0.56466836
58	0xbeb54118	-0.35401225
59	0x3f995286	1.1978309
60	0xbf2f403b	-0.6845738
61	0xbf7734ce	-0.9656495
62	0xbfd080ab	-1.6289266
63	0xc00ea855	-2.2290242
64	0x401cda43	2.4508216
65	0x3ea56f75	0.32311597
66	0x3d372987	0.044717338
67	0xbf732f03	-0.9499361
68	0x3fc148e3	1.5100368
69	0xbfa0ca76	-1.2561786
70	0x3f859cdd	1.0438496
71	0x3fe49f31	1.7861081
72	0x3ec11591	0.37711766
73	0xbface99d	-1.3508793
74	0x3fa25e8c	1.2685103
75	0x3fa1a9e5	1.2629973
76	0xbe052685	-0.13002975
77	0x3f5157ba	0.81774485
78	0x3ebd16fa	0.36931592
79	0x3f3add0e	0.7299355
80	0x3facf0c0	1.3510971
81	0xbfcb10b0	-1.5864468
82	0x3ffc256e	1.9698923
83	0x3ecec639	0.40385607
84	0xbf15a0d8	-0.58448553
85	0xbf917f3f	-1.1366957
86	0x3edeab3a	0.4349001
87	0x3ebec87a	0.37262326
88	0x3f376f07	0.7165379
89	0x3f1ea457	0.6196951
90	0xbe9970e3	-0.29968938
91	0x3ea94224	0.33058274
92	0xbf95dca9	-1.1707965
93	0x3ee98dce	0.45616
94	0x3fd2debe	1.6474226
95	0x3e2fb702	0.17159656
96	0xbebed4d8	-0.37271762
97	0x3f4dc546	0.8037914
98	0xbe488852	-0.19583252
99	0x3f14fcd7	0.58198303
100	0x3eaf15c7	0.34196302
101	0xbf904462	-1.1270869
102	0x3cc2f935	0.023800472
103	0xbe137463	-0.14399867
104	0xbe0d7e06	-0.13817605
105	0x3f4c0872	0.79700387
106	0x3a829c67	0.0009964824
107	0xbf438426	-0.7637352
108	0x3fb16e55	1.3861796
109	0x403379e5	2.8043149
110	0x3f38fb2c	0.7225826
111	0x3fd379e7	1.6521577
112	0x3f518425	0.8184226
113	0xbf26276e	-0.64903915
114	0x3e4175cd	0.18892594
115	0x3e27f6c1	0.16402723
116	0xbfd486d7	-1.660365
117	0x3ce8cf5f	0.028419195
118	0x3fa523c1	1.2901536
119	0xbf498cd5	-0.7873052
120	0xbf2f63b2	-0.685115
121	0x3e714ffc	0.23565668
122	0xbf711cdd	-0.94184667
123	0x3da72de5	0.081630506
124	0x3f8a3941	1.0798723
125	0x3f622954	0.8834431
126	0xbe999fef	-0.30004832
127	0x4019eded	2.4051468

network_body._body_endoder.seq_layers.0.bias f4 [128]
0	0x3d8701aa	0.06592114
1	0xbc3af867	-0.011411763
2	0x3ca36ad0	0.019948393
3	0x3da6a26e	0.0813645
4	0x3d3f3cd3	0.046688866
5	0x3d2dfa09	0.04247478
6	0x3d362467	0.04446831
7	0x3d128f74	0.03578134
8	0x3d482fde	0.048873775
9	0x3d29420e	0.04132276
10	0xbd89ab32	-0.06722106
11	0xbd8ab1cb	-0.067721926
12	0x3b884f6e	0.0041598594
13	0x3d8b2232	0.067936316
14	0xbbe76af4	-0.0070623104
15	0xbd284334	-0.041079715
16	0x3d3e549e	0.046467416
17	0x3c20499a	0.009783173
18	0xbd659e43	-0.056059133
19	0x3d63bab8	0.05559799
20	0x3dbb0866	0.09132461
21	0x3d58c2c0	0.052920103
22	0x3caddd8b	0.021223804
23	0xbcad1da1	-0.021132292
24	0x3ddd8692	0.10816683
25	0x3ddaaee5	0.1067789
26	0x3d9a9ce1	0.075494535
27	0xbcbf2245	-0.02333177
28	0xbccc27e1	-0.02492136
29	0x3c8e0bdc	0.01733964
30	0x3d5ee179	0.054414246
31	0x3cc54916	0.024082702
32	0x3c3ba2d0	0.011452392
33	0x3d27517c	0.040849194
34	0x3aa38e90	0.00124784
35	0x3d28b8e0	0.041191936
36	0x3d10cee3	0.035353553
37	0xbd559781	-0.05214644
38	0x3cc8d2fa	0.024514664
39	0x3d56c38e	0.05243259
40	0xbd036a62	-0.032083876
41	0x3c9bbe15	0.019011537
42	0xbda41840	-0.08012438
43	0x3d8f4824	0.069961816
44	0x3d561ecc	0.052275464
45	0x3d22ce95	0.039747793
46	0x3bc7c9c2	0.0060970495
47	0xbc7d4199	-0.015457534
48	0x3d132bc4	0.03593041
49	0xbc1b9c5e	-0.00949773
50	0x3cfb99d4	0.030713
51	0x3da9f273	0.08298197
52	0x3d4cb000	0.049972534
53	0x3cf15bd9	0.029462742
54	0x3c999356	0.018747013
55	0x3d9c00e7	0.076173596
56	0x3cbb5a22	0.022870127
57	0x3dda3e62	0.1065643
58	0xbca80547	-0.020510329
59	0x3c7212a8	0.014774956
60	0x3df7f386	0.12106995
61	0x3cee82f9	0.029115187
62	0x3d015ab4	0.031580642
63	0x3db43456	0.08799045
64	0x3cdaf5de	0.026728567
65	0xbc9a18c8	-0.018810645
66	0x3da3cbb4	0.07997838
67	0x3dcdd9af	0.100512855
68	0xbc7dd84b	-0.015493463
69	0x3d512c3b	0.051067572
70	0xbcda6fe2	-0.026664678
71	0x3cc6e090	0.024277002
72	0xbd06bc83	-0.032894623
73	0x3cbaead4	0.022817053
74	0x3d932f84	0.07186797
75	0xbd70961a	-0.058736898
76	0x3bb33dcd	0.0054700137
77	0xbb8d1f18	-0.004306685
78	0x3b9bae37	0.0047509926
79	0xbd4932b1	-0.04912061
80	0x3acad516	0.0015474882
81	0x3d0ef108	0.034897834
82	0x3d7b88c8	0.06140974
83	0xbc693794	-0.014234442
84	0x3d737403	0.05943681
85	0x3d8d5ed0	0.0690285
86	0xbc72b305	-0.014813189
87	0x3ccd450a	0.025057334
88	0x3cdb8a3d	0.026799316
89	0xbd3f9eba	-0.046782233
90	0x3d1f2506	0.038853668
91	0xbc9ddb1f	-0.019269524
92	0x3cc8c77a	0.02450918
93	0xbb3540a9	-0.0027656949
94	0x3b4e1f7a	0.0031451867
95	0x3d24c851	0.0402301
96	0xbce91770	-0.028453559
97	0x3ceb579d	0.0287283
98	0xbd628efc	-0.05531214
99	0xbcfe450d	-0.031038785
100	0xbcafcab0	-0.021458954
101	0x3d1e8d49	0.03870896
102	0xbdc4e8e1	-0.096147306
103	0x3dda8e26	0.10671644
104	0xbd01ad9f	-0.03165972
105	0x3d5260d4	0.051361874
106	0x3de23656	0.1104552
107	0x3d6f6c32	0.058452792
108	0x3cc4975b	0.023997953
109	0x3d28d6cb	0.041220468
110	0xbc808249	-0.015687125
111	0x3d09d2c3	0.033648264
112	0x3d137f4b	0.036010068
113	0x3cb796a6	0.022410702
114	0x3da97bb9	0.08275551
115	0xbdbda2c7	-0.09259563
116	0x3d9caea6	0.07650499
117	0xbdb1b22c	-0.08676562
118	0x3c90acb8	0.017660484
119	0x3db175ce	0.086650476
120	0x3c97ef97	0.018546863
121	0xbd4f13a8	-0.050555855
122	0x3d03b018	0.032150358
123	0xbd4763d5	-0.04867919
124	0x3cdb82ec	0.026795827
125	0xbcbd6b75	-0.023122529
126	0x3c827046	0.015922677
127	0x3d2637b9	0.040580485

network_body._body_endoder.seq_layers.2.weight f4 [128, 128]
0	0xbcce486c	-0.025181018
1	0xbd9dedfd	-0.07711408
2	0xbd9c2b4c	-0.07625446
3	0xbe83541b	-0.25650105
4	0xbd9999ed	-0.07500062
5	0x3e10c894	0.14139014
6	0x3c77355f	0.015088408
7	0x3ce48350	0.027894646
8	0xbd76df23	-0.060271394
9	0x3e0a97e9	0.13534512
10	0x3b34331c	0.0027496284
11	0x3d2e0d33	0.042493057
12	0xbda77e04	-0.081783324
13	0xbd7df357	-0.061999645
14	0xbda13822	-0.078720346
15	0x3c43a92d	0.01194219
16	0xbdd44315	-0.103643574
17	0x3d7aea97	0.06125888
18	0x3d856c04	0.06514743
19	0xbd9ff296	-0.078099415
20	0xbdacfbfc	-0.084465
21	0xbe1af78b	-0.15133493
22	0x3d91dc7d	0.07122133
23	0xbde6bbe8	-0.11266309
24	0xbe54bfb6	-0.20776257
25	0x3d1c57e3	0.038169753
26	0xbe04b43d	-0.1295938
27	0x3d7c6c24	0.06162657
28	0xbd47512d	-0.0486614
29	0x3d5d41ad	0.05401771
30	0xbd79014d	-0.060792256
31	0xbd8b84b1	-0.06812418
32	0x3ce4ec18	0.02794461
33	0xbdbdd7af	-0.09269654
34	0xbc32b98f	-0.010908498
35	0xbc962607	-0.01832868
36	0x3d887442	0.066627994
37	0x3e324976	0.17410836
38	0xbde3dddc	-0.11126301
39	0x3d04e6e3	0.032446753
40	0x3d9154f5	0.070962824
41	0xbe5743c5	-0.21021946
42	0xbd69e198	-0.05709991
43	0xbdae2be9	-0.08504469
44	0x3b53fcda	0.0032346756
45	0xbdd3771f	-0.10325455
46	0x39a2bd18	0.00031039934
47	0xbd83d0d4	-0.06436315
48	0xbcdd4178	-0.027008757
49	0xbde18519	-0.110117145
50	0xbe3d2d2f	-0.18474267
51	0xbd9e9e4f	-0.07745039
52	0xbdc1107f	-0.094269745
53	0xbd7603de	-0.06006228
54	0x3c428c54	0.011874277
55	0xbe4ee9b4	-0.20206338
56	0xbaac45b8	-0.0013143336
57	0xbe1bf191	-0.15228869
58	0xbce9144b	-0.02845206
59	0xbd6bb38d	-0.05754428
60	0xbe0eee46	-0.13958082
61	0xbcdf6016	-0.027267497
62	0xbd5e23c3	-0.054233324
63	0xbe14241f	-0.14466904
64	0x3c0d9a26	0.008642709
65	0x3d084981	0.033273224
66	0x3d2a5ee0	0.041594386
67	0xbdfecef5	-0.12441818
68	0xbd1fd7f2	-0.0390243
69	0xbe9f1f7f	-0.31078717
70	0x3aa1c87c	0.0012343074
71	0xbc92c308	-0.017915264
72	0x3abef0d7	0.0014567625
73	0xbd0a4815	-0.03376015
74	0xbd2fba85	-0.04290249
75	0x3db2b790	0.08726418
76	0x3d1c8dd5	0.0382212
77	0x3d21e046	0.039520524
78	0xbd9d75a9	-0.076884575
79	0x3e0e648a	0.1390554
80	0x3c7d8b51	0.01547511
81	0xbe35e15a	-0.17761746
82	0x3d06a49f	0.03287184
83	0xbae360d6	-0.0017347585
84	0x3d6653a0	0.056232095
85	0xbe026698	-0.12734449
86	0xbd874edd	-0.06606839
87	0x3e16232d	0.14661856
88	0x3dbbcc35	0.09169809
89	0xbc4d4894	-0.012529511
90	0x3cd79890	0.026317865
91	0x3e12a42b	0.14320438
92	0x3c989558	0.0186259
93	0x3d4fb278	0.05070731
94	0xbd965fa2	-0.07342459
95	0x3d1f1f11	0.038847987
96	0x3da91450	0.082558274
97	0x3daec7cd	0.08534203
98	0xbbadbc58	-0.0053019933
99	0x3da71a5a	0.08159323
100	0xbb392643	-0.0028251566
101	0xbdb3e0f0	-0.08783138
102	0x3dfcdd8e	0.12346946
103	0xbe3bd70d	-0.18343754
104	0xbe0187d7	-0.12649475
105	0xbd99ab7f	-0.075034134
106	0xbd47d2b1	-0.048784915
107	0xbdbe24db	-0.092843734
108	0x3d3d0b0d	0.046153117
109	0xbdcb846b	-0.09937366
110	0x3cc02866	0.023456763
111	0xba472731	-0.00075970875
112	0x3bbb8285	0.0057223462
113	0xbcaf66c4	-0.021411307
114	0x3ddbdfc7	0.107360415
115	0x3e325bd5	0.17417844
116	0xbe06f80f	-0.13180564
117	0x3d90e8b6	0.07075636
118	0x3cd410a8	0.025886849
119	0xbd271fb1	-0.040801708
120	0x3e1a14a0	0.1504693
121	0x3e3b5110	0.18292642
122	0x3ca2a52e	0.019854154
123	0x3e691491	0.22761752
124	0x3d596411	0.053073946
125	0xbda91be1	-0.082572706
126	0xbd4925de	-0.04910838
127	0xbc9bc61d	-0.019015366
128	0x3d7a45b1	0.06110162
129	0x3d7c5604	0.06160547
130	0x3e0977de	0.13424632
131	0xbe151642	-0.14559272
132	0x3cc3f2c9	0.02391948
133	0x3d22fc43	0.039791357
134	0xbdf69848	-0.12040764
135	0x3cddb517	0.02706389
136	0x3d77e79c	0.060523614
137	0x3e48ae69	0.19597782
138	0x3d254d1f	0.04035675
139	0x3e39ebc5	0.18156345
140	0x3db716b1	0.08939875
141	0x3d5934ac	0.053028747
142	0xbbc651f6	-0.006052251
143	0x3d464616	0.048406683
144	0x3ab18c52	0.0013545847
145	0xbca362c3	-0.019944554
146	0x3d1c0674	0.03809209
147	0x3d7c8160	0.06164682
148	0x3cd6fd68	0.02624388
149	0x3d9e17ce	0.07719384
150	0x3cb15d82	0.021651033
151	0xbdd522cf	-0.1040703
152	0x3da5d7c2	0.08097793
153	0xbc4ce6c5	-0.012506192
154	0x3cbbfb7f	0.022947071
155	0xbd8823d2	-0.06647457
156	0xbc574e17	-0.013141177
157	0xbe047dee	-0.12938663
158	0x3e5142cf	0.20435642
159	0xbcc766d4	-0.024341024
160	0x3d60f944	0.05492522
161	0x3d8289d6	0.06373946
162	0x3deeab38	0.11653751
163	0xbcf99576	-0.030466776
164	0xbcf52571	-0.02992508
165	0xbd0a6d6f	-0.03379577
166	0x3d98c553	0.074595116
167	0x3d8873da	0.06662722
168	0x3d616d31	0.055035774
169	0x3cd78474	0.026308276
170	0x3cfa35b5	0.030543188
171	0x3e127a04	0.14304358
172	0xbbe4eaca	-0.006985997
173	0xbdfc56a8	-0.12321216
174	0x3d5ecc28	0.054393917
175	0x3d641a1f	0.055688974
176	0x3dbd982e	0.092575416
177	0xbd5fc9cc	-0.054635808
178	0x3db9a266	0.09064178
179	0x3d8fc79c	0.07020494
180	0xbdce0003	-0.10058596
181	0x3d70a181	0.058747772
182	0x3d3d6389	0.046237502
183	0xbd1474b8	-0.036244124
184	0xbe136506	-0.14394006
185	0x3df837a4	0.121199876
186	0xbd810bdd	-0.06301091
187	0x3cfd7011	0.030937226
188	0x3d17f943	0.03710295
189	0x3d7e01b5	0.062013347
190	0x3c9375ee	0.01800057
191	0x3dfed362	0.12442662
192	0x3db7764f	0.089581124
193	0x3de375ea	0.11106475
194	0xbb92f649	-0.004484926
195	0x3dab6969	0.08369715
196	0xbd597f9f	-0.053100225
197	0xbda9f06c	-0.0829781
198	0x3d1fe2f6	0.039034806
199	0x3cd403b5	0.025880674
200	0xbcc53e66	-0.024077605
201	0xbd921da7	-0.07134562
202	0x3c445b5e	0.011984674
203	0x3d007d17	0.031369295
204	0x3dc038c9	0.09385831
205	0xbc32d822	-0.010915788
206	0xbd814989	-0.06312854
207	0xbde371df	-0.111057036
208	0x3d6fbcd9	0.05852971
209	0x3da544a3	0.08069732
210	0xbda25e33	-0.07928123
211	0xba2c2206	-0.0006566349
212	0x3d0e49d4	0.034738377
213	0xbdf02f57	-0.11727779
214	0x3d8dd0f6	0.06924622
215	0xbb2244f8	-0.0024760347
216	0x3d960d30	0.07326734
217	0x3dbc88d5	0.09205786
218	0x3e0b7e99	0.13622512
219	0x3d9e7614	0.07737365
220	0x3c15b2fd	0.009136912
221	0x3d9e9cf6	0.07744782
222	0xbdef41f5	-0.11682502
223	0x3d2d2566	0.042271994
224	0xbc9c4baa	-0.019079048
225	0x3d1e0741	0.038581137
226	0x3cfe2793	0.03102473
227	0x3e0fe668	0.14052737
228	0xbbf5e805	-0.0075044655
229	0xbda88747	-0.08228927
230	0xbddd09a6	-0.10792856
231	0x3dbfb101	0.09359933
232	0xbd83b2bd	-0.06430576
233	0x3c3addf9	0.0114054615
234	0xbcdc8c38	-0.02692233
235	0x3cdd89b0	0.027043194
236	0x3e12b69c	0.14327472
237	0x3de3b27b	0.11118027
238	0x3c5a9833	0.013341951
239	0xbccae8f7	-0.02476929
240	0x3d1a288b	0.03763632
241	0x3d85aac5	0.06526712
242	0x3bea4984	0.007149877
243	0x3d97e74a	0.07417162
244	0x3d19d5f8	0.037557572
245	0xbd8b2cfa	-0.06795688
246	0xbe039b19	-0.12852134
247	0x3d9f9b75	0.07793323
248	0x3e047e24	0.12938744
249	0x3d22e976	0.039773427
250	0x3d0ffeca	0.035155095
251	0xbc63a476	-0.013894191
252	0x3df7d3f8	0.12100977
253	0x3d69cab5	0.057078082
254	0x3dca98cf	0.09892427
255	0xbd988920	-0.074480295

network_body._body_endoder.seq_layers.2.bias f4 [128]
0	0xbd4fd199	-0.050736997
1	0x3c8899b7	0.01667486
2	0x3daf26b3	0.08552303
3	0xbc0e9bca	-0.008704135
4	0xbd3ddb9f	-0.046352025
5	0xbc5de844	-0.013544146
6	0xbacf3ef7	-0.0015811612
7	0xbc29cf7e	-0.010364411
8	0x3d0dc934	0.03461571
9	0x3d190b27	0.03736415
10	0xbd84a575	-0.06476871
11	0x3b809fe0	0.0039253086
12	0x3aa755d7	0.0012766671
13	0x3c9d70c7	0.019218815
14	0x3b97771d	0.0046223537
15	0x3d42c388	0.047549754
16	0xbd9e8ad5	-0.07741324
17	0x3d26808c	0.040649936
18	0xbd4c0bc6	-0.049815916
19	0xbd5d84e1	-0.0540818
20	0xbc0a0b06	-0.00842548
21	0x3ca3ae23	0.019980496
22	0x3c608f59	0.013706052
23	0x3c1290e4	0.008945677
24	0xbccf792e	-0.025326338
25	0xbc930ff5	-0.017951945
26	0x3d47dfd0	0.04879743
27	0xbd924459	-0.071419425
28	0xbadd62f8	-0.0016890457
29	0x3bb093a5	0.0053886943
30	0x3cb0d536	0.021586042
31	0xbcdd2a62	-0.026997749
32	0x3cdb2d2c	0.026754938
33	0xba0ce44d	-0.00053745956
34	0x3d3e344b	0.04643659
35	0xba838bbb	-0.001003615
36	0x3cda67b0	0.02666077
37	0x3b8d9a41	0.004321367
38	0x3cc2f189	0.023796814
39	0xbd9c7bdd	-0.076408125
40	0xbd834e77	-0.0641145
41	0xbdd26f62	-0.10275151
42	0xbd88bbbb	-0.06676432
43	0x3cb8497d	0.02249598
44	0xbd97021b	-0.073734485
45	0xbd2c644b	-0.042087834
46	0xbdb5afd0	-0.08871424
47	0xbd906d86	-0.0705214
48	0x3d7d6995	0.06186827
49	0x3da50c7e	0.08059023
50	0x3d1ca409	0.038242374
51	0x3d1ddd58	0.038541168
52	0x3d260968	0.040536314
53	0xbd905fcc	-0.07049522
54	0x3d2cd37f	0.042193886
55	0x3d2e09f4	0.04248996
56	0xbccaf018	-0.024772689
57	0xbc40484a	-0.011735985
58	0x3ce9cca1	0.028539957
59	0x3d141536	0.03615304
60	0x3d2f7bf5	0.042842824
61	0xbd429cbe	-0.047512762
62	0x3c9aadd3	0.018881714
63	0x3d80b3d8	0.062843025
64	0xbd00d945	-0.031457204
65	0xbcaa9954	-0.020825066
66	0x3cf7dff4	0.030258156
67	0xbbb875e3	-0.0056292876
68	0xbd812803	-0.0630646
69	0x3d39ebea	0.045391
70	0xbda2a572	-0.079417124
71	0x3cd1e6cb	0.025622746
72	0x3d943131	0.07235945
73	0xbb97a684	-0.0046280045
74	0x3da992b5	0.08279935
75	0xbdacae02	-0.08431627
76	0xbafd61fe	-0.0019331572
77	0xbdd1a40d	-0.10236368
78	0x3cd90e37	0.026496036
79	0x3da19152	0.07889046
80	0x3b87c026	0.004142779
81	0x3da9f7fd	0.08299253
82	0x3d25a7d0	0.04044324
83	0xbd512802	-0.051063545
84	0x3d92a228	0.07159835
85	0x3d1bd214	0.038042143
86	0xbc9f868a	-0.019473333
87	0x3d11ecaf	0.03562611
88	0x3dbfe78a	0.093703344
89	0xbd57d896	-0.052696787
90	0xbd34032b	-0.043948334
91	0xbd6f8dae	-0.058484726
92	0xbda57102	-0.08078195
93	0x3ceca359	0.028886484
94	0xbccadd91	-0.024763854
95	0xbd9e482b	-0.07728609
96	0x3d6bbfb3	0.057555865
97	0x3ceb144f	0.028696207
98	0x3d3a92f1	0.04555029
99	0x3d8cb65c	0.0687072
100	0xbac42410	-0.0014964361
101	0xbd010cf1	-0.031506483
102	0xbd15dc9d	-0.036587346
103	0xbdb8e0a7	-0.09027224
104	0x3bf96ed8	0.0076120906
105	0xbd63e190	-0.055635035
106	0x3be38a15	0.006943951
107	0x3c85ac7b	0.016317597
108	0x3d4a5b66	0.04940357
109	0x3caec1a7	0.021332575
110	0xbd828c10	-0.06374371
111	0xbc502dec	-0.012706261
112	0x3d245a92	0.040125437
113	0x3cd95478	0.026529536
114	0xbce47868	-0.027889445
115	0xbcf0dd61	-0.029402437
116	0xbd96063a	-0.073254064
117	0x3ced0ccd	0.028936768
118	0x3d88d3a3	0.066809915
119	0x3d75a6b2	0.059973426
120	0xbd78e56d	-0.060765672
121	0xbe039a4a	-0.12851825
122	0x3d959e21	0.07305551
123	0x3d7b6d0f	0.061383303
124	0x3ce3eff2	0.027824376
125	0xbc812f2a	-0.01576956
126	0xbcd9fc51	-0.026609572
127	0x3c1d2dc0	0.009593427

network_body._body_endoder.seq_layers.4.weight f4 [128, 128]
0	0xbd67d501	-0.05659962
1	0x3d60c54e	0.054875664
2	0x3c825c54	0.015913166
3	0xbd41a31a	-0.047274686
4	0xbd9e9d74	-0.077448756
5	0xbe0c877a	-0.13723555
6	0x3e4bd869	0.19906773
7	0xbd69f082	-0.05711413
8	0x3da2ecf8	0.079553545
9	0x3dccefc3	0.100066684
10	0x3dd309cb	0.10304602
11	0x3c8918a4	0.016735382
12	0xbc9b95c1	-0.018992307
13	0xbcdb2122	-0.026749197
14	0xbc4ceec6	-0.0125081
15	0x3d0a8220	0.033815503
16	0xbda7d40a	-0.0819474
17	0xbdb74d48	-0.08950287
18	0xbe05f40e	-0.1308138
19	0xbe46ae31	-0.19402386
20	0x3c4e7cdc	0.012603011
21	0xbd5895af	-0.052877124
22	0xbc59b3fe	-0.013287542
23	0xbe063bc1	-0.13108732
24	0x3e350117	0.17676197
25	0xbd9799d8	-0.0740239
26	0xbd0af875	-0.033928353
27	0x3cc7df28	0.024398401
28	0x3c615b7d	0.013754723
29	0xbda99d02	-0.082819
30	0xbdf0fd76	-0.11767094
31	0xbe458f7b	-0.19293015
32	0xbdf397bb	-0.11894175
33	0xbc95d7fd	-0.018291468
34	0xbe1898dc	-0.14902061
35	0x3d2fa21a	0.0428792
36	0xbd82c40a	-0.06385048
37	0xbd11b967	-0.035577204
38	0x3dc1882d	0.094498016
39	0x3d8aa204	0.06769183
40	0x3dc4944e	0.095985994
41	0x3c34d581	0.011037231
42	0x3befb37a	0.0073150964
43	0xbd717ce3	-0.058956992
44	0xbdf5b508	-0.119974196
45	0xbc5ce028	-0.013481177
46	0x3d299711	0.041403834
47	0x3cf8854e	0.030337002
48	0x3df6d827	0.120529465
49	0xbdd08870	-0.101822734
50	0xbdbb3e1d	-0.091427065
51	0xbcbb7c18	-0.022886321
52	0xbdb0e52d	-0.08637462
53	0xbe27bbeb	-0.16380279
54	0xbe5dcc1c	-0.21659893
55	0x3d01303f	0.03154015
56	0xbd493859	-0.049126003
57	0x3e389ca1	0.18028499
58	0x3da95c03	0.08269503
59	0xbd2bc20e	-0.04193311
60	0x3d34a4d0	0.04410249
61	0x3d559349	0.052142415
62	0xbe1c8b3f	-0.15287493
63	0x3ba85a73	0.0051377355
64	0x3d52d7c0	0.051475286
65	0x3e1e1925	0.1543928
66	0xbd731389	-0.059344802
67	0x3e09f7e2	0.13473466
68	0xbe065462	-0.13118127
69	0x3d19f33b	0.03758548
70	0xbd0acbc7	-0.033885743
71	0x3cf29108	0.029610172
72	0x3da6002a	0.081055
73	0x3e07b23b	0.13251583
74	0xbd1a4032	-0.037658878
75	0xbe2038ca	-0.15646663
76	0xbdd024bc	-0.101632565
77	0xbd1f37c0	-0.038871527
78	0xbe00cd9e	-0.12578437
79	0xbe3620ac	-0.17785901
80	0xbd6fd21a	-0.058549978
81	0x3ccaa1fb	0.024735441
82	0x3dbf1c58	0.09331578
83	0x3dd50c19	0.10402698
84	0xbdd92c09	-0.10604102
85	0x3de55b9a	0.11199112
86	0x3e53e869	0.20694126
87	0xbc85e65d	-0.016345197
88	0x3dbc6aa7	0.0920003
89	0xbe0eeb04	-0.13956839
90	0x3ce77df4	0.028258301
91	0x3da8e08a	0.082459524
92	0xbe15a579	-0.14613904
93	0xbdb7083d	-0.08937118
94	0x3e12167a	0.14266387
95	0xbde15b77	-0.11003774
96	0xbd3f96e7	-0.04677477
97	0xbdb97c7b	-0.09056946
98	0x3e2de7d2	0.16982964
99	0xbcd974bc	-0.026544921
100	0x3d557c9a	0.052120782
101	0x3d8e1a23	0.06938579
102	0x3db63839	0.08897442
103	0xbc5e9de3	-0.013587448
104	0x3d02e414	0.031955793
105	0x3d01930f	0.031634387
106	0xbdca531a	-0.098791316
107	0xbc0d5aa8	-0.008627571
108	0xbde0bd06	-0.10973553
109	0x3d281cc5	0.04104306
110	0x3c360219	0.011108899
111	0x3e109e05	0.1412278
112	0x3cab9a8b	0.020947715
113	0x3e746e13	0.23870115
114	0xbe0779f3	-0.13230114
115	0xbd6ef404	-0.05833818
116	0x3bfa19f7	0.00763249
117	0x3e006138	0.12537086
118	0x3df78724	0.12086323
119	0xbdad3c54	-0.08458772
120	0xbdd40464	-0.103524
121	0xbe233091	-0.15936495
122	0x3d01e2e2	0.031710513
123	0xbbf45760	-0.007456705
124	0xbccfe686	-0.025378477
125	0x3dd1dd5e	0.102473006
126	0x3e78c7ab	0.24294917
127	0xbd41c933	-0.04731102
128	0xbd65b582	-0.056081302
129	0xbe862288	-0.2619822
130	0x3d85f2ea	0.06540473
131	0x3dfd14c9	0.1235748
132	0xbe2a37a5	-0.16622789
133	0x3d4ac865	0.049507517
134	0xbe209ae4	-0.15684086
135	0x3e390275	0.18067344
136	0xbb921eb9	-0.004459229
137	0xbd4ed90e	-0.05049997
138	0x3d3327f9	0.043739293
139	0xbd09fce5	-0.033688445
140	0xbe31d013	-0.1736453
141	0x3ce81f70	0.028335303
142	0x3cdfca1a	0.02731805
143	0x3cf090e4	0.029365964
144	0x3e0fbd60	0.14037085
145	0x3d3c5942	0.04598356
146	0x3d5c446f	0.0537762
147	0xbdceff0b	-0.10107239
148	0xbb52a8d8	-0.0032144096
149	0x3c574ede	0.013141362
150	0xbc619211	-0.013767735
151	0xbe0dad54	-0.1383565
152	0x3bf3dc53	0.007442036
153	0xbc3b73e0	-0.011441201
154	0xbbfb8014	-0.00767518
155	0x3d22986c	0.039696142
156	0x3c03c534	0.008042622
157	0x3b092c58	0.0020930972
158	0xbe14de83	-0.14538006
159	0x3cba379d	0.022731597
160	0x3d8184d2	0.063241616
161	0x398c45a9	0.00026754782
162	0xbd7b02cf	-0.061281975
163	0x3d8a503f	0.06753587
164	0x3e279c7a	0.16368285
165	0x3d8b0151	0.067873605
166	0x3cb33626	0.021876406
167	0xbd209faf	-0.039214786
168	0xbe16eac6	-0.14737996
169	0x3e37a417	0.17933689
170	0xbd0a5645	-0.03377368
171	0xbcd13c3a	-0.025541414
172	0xbdca440d	-0.09876261
173	0x3dfd270d	0.12360964
174	0xbe0a8131	-0.13525845
175	0x3cf6deff	0.03013563
176	0x3dee7a2e	0.11644398
177	0x3e257c6a	0.16160741
178	0xbcf0bdeb	-0.029387435
179	0xbc27dbdd	-0.010245291
180	0xbdba5c97	-0.09099691
181	0x3dc3b19e	0.09555362
182	0x3d311ad5	0.04323848
183	0xbe511b6d	-0.20420618
184	0xbdd64b4e	-0.10463582
185	0xbd8a7f99	-0.067626186
186	0xbde0b064	-0.10971144
187	0xbe64d5ee	-0.22347233
188	0xbc83da2b	-0.016095242
189	0x3cd7618a	0.026291627
190	0xbdffa851	-0.12483276
191	0x3d2d20ff	0.042267796
192	0xbe612c6e	-0.21989605
193	0xbe1a9650	-0.15096402
194	0x3d95bb17	0.07311075
195	0xbd696148	-0.05697754
196	0xbdb51415	-0.08841721
197	0x3dad009e	0.08447383
198	0xbc3c6c1d	-0.011500386
199	0x3d28aee1	0.041182403
200	0x3d74844f	0.05969649
201	0x3c091a5a	0.008368099
202	0xbdae555d	-0.085123755
203	0x3dcfe173	0.10150423
204	0xbc9edb20	-0.019391596
205	0xbdfe06cc	-0.1240364
206	0x3c4a9420	0.012364417
207	0xbe1300dc	-0.14355797
208	0xbdd70a69	-0.105000325
209	0xbe08c047	-0.13354598
210	0x3e0aa5e6	0.13539848
211	0x3d332a6e	0.043741636
212	0xbd7e4f0f	-0.062087115
213	0x3d758aa0	0.059946656
214	0x3c56e805	0.013116841
215	0xbd2f90fd	-0.04286288
216	0xbe6ca4d7	-0.23109756
217	0xbb9fc2bc	-0.004875509
218	0xbd075656	-0.03304132
219	0xbdb04112	-0.08606161
220	0x3d527453	0.051380467
221	0xbdc41b18	-0.0957548
222	0x3da9a9d8	0.08284348
223	0x3d8cc916	0.068742916
224	0xbce5231d	-0.027970845
225	0xbcabd5ed	-0.020976031
226	0x3c4e187f	0.0125790825
227	0xbd2be346	-0.04196479
228	0x3d4c6848	0.049904138
229	0x3d2cb824	0.042167798
230	0x3dfa9ba0	0.12236714
231	0xbd0396b1	-0.032126132
232	0x3c8085d9	0.015688824
233	0xbe1cb273	-0.15302448
234	0xbcf2619e	-0.029587563
235	0x3c9a5484	0.018839128
236	0x3d9024c2	0.07038261
237	0x3d8523cb	0.065009676
238	0x3c313b1b	0.0108173145
239	0xbcfe60fe	-0.031052109
240	0x3cc184a3	0.023622816
241	0x3e34eed8	0.17669237
242	0x3dce988f	0.10087692
243	0xbc0d69c9	-0.008631178
244	0xbdd640d5	-0.104615845
245	0x3bf19637	0.0073726433
246	0x3cd14497	0.025545401
247	0xbd357183	-0.044297706
248	0xbc76ae84	-0.015056256
249	0x3dc83f3a	0.097776845
250	0x3d5c771d	0.053824533
251	0xbdbece98	-0.093167484
252	0xbd97a3c6	-0.07404284
253	0x3c53baf4	0.012922991
254	0x3d7e194d	0.062035847
255	0xbe080346	-0.13282499

network_body._body_endoder.seq_layers.4.bias f4 [128]
0	0xbc0068e2	-0.007837506
1	0x3cc031c5	0.023461232
2	0xbb6d8b8d	-0.0036246509
3	0xbd2b8d91	-0.041883055
4	0xbbba63a5	-0.005688148
5	0x3c559230	0.013035342
6	0xbdc3b629	-0.09556229
7	0xbb111652	-0.0022138548
8	0xbc4b9f60	-0.012428135
9	0xbc9fa652	-0.019488487
10	0xbcfc7906	-0.030819427
11	0xbc027216	-0.0079617705
12	0xbdad8a7f	-0.08473682
13	0xbd0b9f0b	-0.034087222
14	0xbd0715f6	-0.032979928
15	0x3c292c83	0.010325554
16	0xbc935e1c	-0.01798921
17	0xbd3ec4ab	-0.046574276
18	0x3b9372a0	0.0044997483
19	0xbd0223ba	-0.031772353
20	0x3c6b7f9e	0.014373688
21	0xbcc9e3cf	-0.02464476
22	0x3b031ba9	0.00200055
23	0x3d2e588a	0.042564906
24	0x3c24f3e6	0.010067916
25	0xbc497a27	-0.01229719
26	0x3c451050	0.012027815
27	0xbc426fcc	-0.011867475
28	0xbc7c7885	-0.0154095935
29	0xbc3b77f2	-0.011442171
30	0xbd313a00	-0.043268204
31	0x3c76c5ba	0.01506179
32	0x3c382083	0.01123822
33	0xbcedbc60	-0.029020488
34	0x3c2f32a0	0.010693222
35	0xbd2a902d	-0.041641403
36	0xbd3a0407	-0.045413997
37	0xbd93c71c	-0.072157115
38	0x3c936f50	0.017997414
39	0xbd19e8ab	-0.037575405
40	0xbd4643ce	-0.048404507
41	0x39bd9a5e	0.00036163902
42	0xbceaef8a	-0.028678674
43	0xbcb40c26	-0.02197845
44	0xbd7ef593	-0.062245917
45	0xbd69e6f6	-0.057105027
46	0x3c0e0ea7	0.008670486
47	0xbc150734	-0.009095956
48	0xbd44ef58	-0.04807982
49	0xbc57d3c5	-0.013173048
50	0xbcb2a923	-0.021809166
51	0xbbf2d7b9	-0.00741097
52	0x3c34bc1e	0.011031179
53	0xbd0c3b9a	-0.034236528
54	0xbb39b846	-0.0028338595
55	0xbd7bbe22	-0.06146062
56	0xbcffd4e9	-0.031229453
57	0xbd6650eb	-0.056229513
58	0xbca8e81c	-0.02061849
59	0xbb3cc49e	-0.0028803716
60	0xbd15b4b1	-0.036549274
61	0xbb92f163	-0.004484342
62	0x3a9a514f	0.00117735
63	0xbd057e88	-0.032591373
64	0x3cde9548	0.027170792
65	0xbc3e8aca	-0.01162977
66	0xbcf0a939	-0.029377567
67	0xbbf32172	-0.0074197585
68	0x3d525ccf	0.05135804
69	0xbd655227	-0.05598655
70	0xbafc05e9	-0.0019227836
71	0xbac8faf8	-0.0015333584
72	0x3c1603ec	0.0091562085
73	0xbd5af699	-0.05345783
74	0x3cb46b2f	0.022023765
75	0xbcfe4755	-0.031039873
76	0xbc1f7758	-0.009733044
77	0x3c3999cf	0.011328175
78	0xbcf6ea30	-0.030140966
79	0xbd24804d	-0.04016142
80	0xbd33024c	-0.043703362
81	0xbb99c873	-0.004693085
82	0xbcd5e008	-0.026107803
83	0x3d5eb394	0.054370478
84	0x3cf0a839	0.02937709
85	0x3cb844cd	0.022493744
86	0x3a7353a1	0.0009282176
87	0xbc849180	-0.016182661
88	0xbc52dd1d	-0.0128701
89	0xbc9405b0	-0.018069118
90	0xbcf907c7	-0.030399216
91	0xbbf08e31	-0.0073411693
92	0xbba7b8c5	-0.005118462
93	0xbd5820d8	-0.052765697
94	0xbc820023	-0.015869206
95	0x3cb11d42	0.021620397
96	0xbc4645fe	-0.012101648
97	0xbb38851f	-0.0028155518
98	0x3d02a8f1	0.031899396
99	0x3c346f4a	0.0110128615
100	0xbdae5262	-0.08511807
101	0xbd775f64	-0.060393706
102	0x3d02bc14	0.031917647
103	0xbc360f82	-0.011112096
104	0x3c273f2b	0.0102079315
105	0xbd0c380a	-0.03423313
106	0xbce4390f	-0.027859239
107	0xbc68d0ea	-0.014209965
108	0xbae85fcc	-0.0017728745
109	0x386cf144	5.649148e-05
110	0xbc86f7f6	-0.016475659
111	0x3d0e67af	0.03476685
112	0xbd2a2588	-0.0415397
113	0xbc8f3680	-0.017482042
114	0x3ca1dd70	0.01975891
115	0x3c90d34e	0.017678883
116	0xbcddefa5	-0.02709181
117	0xbc46689f	-0.012109905
118	0x3c41f386	0.011837846
119	0xbba72773	-0.0051011383
120	0xbcdd7a48	-0.027035847
121	0x3ce890a4	0.028389283
122	0xbb01b6ca	-0.0019792789
123	0xbd59e628	-0.05319801
124	0x3ba832fc	0.005133031
125	0xbcbb2a23	-0.02284724
126	0x3d3e9f21	0.046538476
127	0x3b17e77c	0.0023178747

action_model._discrete_distribution.branches.0.weight f4 [3, 128]
0	0x3c036aa3	0.00802103
1	0x3bc161af	0.0059015374
2	0xbc22068b	-0.009889255
3	0x3b36bc4f	0.0027883237
4	0x3b1c1a6d	0.0023819462
5	0xbb0b5607	-0.0021260993
6	0xbc10f73c	-0.008848008
7	0xbc3872c9	-0.011257836
8	0xbc584f45	-0.013202493
9	0xbc3f976e	-0.0116938185
10	0x3b0e2dac	0.0021694703
11	0x3b279751	0.002557237
12	0xbc923063	-0.017845338
13	0xbc83b0ed	-0.016075576
14	0x3b0dc996	0.0021635047
15	0xbbb802f8	-0.0056155883
16	0x3c471f35	0.012153436
17	0xbaf209e6	-0.0018466085
18	0xbafd88b5	-0.001934311
19	0xb9a3bc1e	-0.0003122994
20	0xbc7dc852	-0.015489655
21	0xb565fc80	-8.5676584e-07
22	0xbc563e99	-0.013076448
23	0xbb46e210	-0.0030347146
24	0xba4fcea3	-0.00079272146
25	0xbbe6ba7e	-0.0070412746
26	0xbc196638	-0.00936275
27	0x3c41319d	0.011791614
28	0x3a3e5fb4	0.00072621857
29	0x3ab114cc	0.0013510226
30	0xbc55813c	-0.0130313
31	0x3b1b69ec	0.0023714257
32	0x3bbe187b	0.005801258
33	0xbc7f7fb2	-0.01559441
34	0x3c0e71d4	0.008694131
35	0xbc184851	-0.009294585
36	0x3b924c09	0.0044646305
37	0xbb357732	-0.0027689454
38	0xbb8c860e	-0.0042884415
39	0xbc69c354	-0.014267761
40	0xbbae3de6	-0.0053174375
41	0x3b2e8b04	0.0026633153
42	0x3becc517	0.0072256434
43	0xbcc618e2	-0.024181787
44	0xbba99fbb	-0.005176512
45	0xbbbbc803	-0.0057306304
46	0x3b8fe587	0.0043913755
47	0x3aae3807	0.0013291844
48	0xbbe27c44	-0.0069117863
49	0x3c7ab1ea	0.015301207
50	0xbbc43434	-0.0059876684
51	0x3b863627	0.004095811
52	0xbc448ae8	-0.011996008
53	0xbc18f194	-0.00933494
54	0xbc744993	-0.01491012
55	0xbbc812a4	-0.0061057378
56	0x3c04b5d1	0.008099989
57	0xbc28c424	-0.01030067
58	0x3c306009	0.010765084
59	0x3c1a3194	0.009411234
60	0x3c259056	0.010105213
61	0xbc40fe84	-0.011779431
62	0x3c75d726	0.015004909
63	0xbc63c6f2	-0.013902413
64	0xbb0dd9de	-0.0021644752
65	0xbc6745df	-0.01411578
66	0xbae1f4e0	-0.0017239116
67	0xbbed1393	-0.0072349994
68	0x3c85ebd4	0.016347803
69	0xbcd96155	-0.02653567
70	0x3c55fdcb	0.013060997
71	0xbc05b993	-0.00816192
72	0xba917353	-0.0011096991
73	0xbb7ace0d	-0.0038269788
74	0xbb0cb49e	-0.002146996
75	0xbb7efee8	-0.003890926
76	0xbb718984	-0.0036855647
77	0x3b3d4fd3	0.002888669
78	0xbbcbaf78	-0.006215986
79	0xbc82fda3	-0.015990084
80	0xb995c947	-0.00028569458
81	0xbc9fc4fd	-0.019503111
82	0xbbbb8d00	-0.0057235956
83	0x3c739581	0.0148671875
84	0xbc15c372	-0.009140836
85	0x3b89756a	0.004194905
86	0xbb97dec3	-0.0046347096
87	0xb9693618	-0.00022240763
88	0xbb49acc4	-0.0030773142
89	0xbbcb044e	-0.0061955815
90	0x3be3e80f	0.006955154
91	0xbab9e6e2	-0.0014183188
92	0x3ba5fb83	0.005065383
93	0xbc66fe6e	-0.014098747
94	0xba2a8398	-0.00065045943
95	0x3c3534bf	0.011059939
96	0xbc35a78b	-0.011087309
97	0xbb96cd30	-0.004602097
98	0xbc39b081	-0.011333586
99	0xba22c4df	-0.00062091456
100	0xbc70f5f2	-0.014707075
101	0xbc8cecf9	-0.017202841
102	0x3c310121	0.010803492
103	0x3b6d4251	0.0036202858
104	0xbb897849	-0.0041952473
105	0xbc2973c7	-0.010342545
106	0xbcc2aee2	-0.023765031
107	0x3b7e2256	0.003877779
108	0x39b71551	0.00034920362
109	0xbc930490	-0.017946512
110	0x3c279ec7	0.010230727
111	0xbbe2aa61	-0.0069172834
112	0xbab9e529	-0.0014182675
113	0x3b35fb78	0.0027768295
114	0x3b7664ad	0.0037596629
115	0xbc3a646b	-0.011376481
116	0xbc1d899c	-0.009615328
117	0xbbb525bd	-0.0055281804
118	0x3b32d8bb	0.0027289826
119	0xba72545d	-0.00092441385
120	0xbb9b8720	-0.0047463328
121	0x3b8be33f	0.004269033
122	0xbc734624	-0.014848266
123	0x3b9d5ff0	0.0048026964
124	0xbb13fc0d	-0.0022580654
125	0x3a283997	0.0006417273
126	0x3bf3dd8d	0.0074421824
127	0x3c27e30e	0.010247005
128	0xba3f803f	-0.0007305182
129	0xbc79ddaf	-0.015250607
130	0x3c22fe1e	0.009948282
131	0x39969a56	0.0002872522
132	0x3c0264a0	0.007958561
133	0xbc4e7680	-0.012601495
134	0x3c1ab60e	0.009442819
135	0xbb064014	-0.002048497
136	0x3bd0a9bc	0.00636789
137	0xbc45c68c	-0.012071263
138	0xbc1eed91	-0.009700195
139	0x3aae8c0d	0.0013316885
140	0xbc768f66	-0.015048837
141	0x3c81e05d	0.015854055
142	0xbc8c4c21	-0.017126145
143	0xbc13fc96	-0.009032389
144	0xb8e43d82	-0.00010883344
145	0x3906c0a4	0.00012851
146	0x3b41df2a	0.002958248
147	0x3d100467	0.03516045
148	0x3b3daaae	0.0028940844
149	0xbc2543f8	-0.010087006
150	0x3c5b129c	0.013371136
151	0x3cdf7df5	0.02728174
152	0x3c3ed431	0.01164727
153	0x3c868c53	0.016424334
154	0x3bf4bb56	0.0074686212
155	0x3bdb424c	0.006691253
156	0xb858dd65	-5.1704603e-05
157	0xbbfc2391	-0.0076946695
158	0x3cba526e	0.022744384
159	0xbc3fa34f	-0.011696651
160	0x3c7dea96	0.015497824
161	0xbc3d5bf1	-0.011557565
162	0x3c619c89	0.013770231
163	0xbc319558	-0.010838829
164	0xbc54d44b	-0.012990068
165	0x3b8c94a6	0.004290181
166	0x3c8de4d9	0.017321037
167	0xbcef95f3	-0.029246306
168	0x3c8840a2	0.016632382
169	0xba9dbd6e	-0.0012034604
170	0xbc198319	-0.009369635
171	0x3baf5047	0.005350146
172	0xbb296f3d	-0.0025853657
173	0xbc5249ae	-0.012834949
174	0x3c2b8e59	0.01047095
175	0xba464ac8	-0.0007564244
176	0x3bff6984	0.007794561
177	0xbc8c91f8	-0.017159447
178	0x3b68d103	0.0035524971
179	0xbb976736	-0.004620458
180	0x3c254236	0.010086587
181	0x3c3e15d6	0.011601886
182	0x3b617f7c	0.0034408262
183	0xbc982fe9	-0.018577533
184	0x3a2deed7	0.0006635016
185	0x3b60d577	0.0034306922
186	0xbc6cfde7	-0.014464832
187	0xbbec49fd	-0.0072109685
188	0xbc76e7f6	-0.015069952
189	0x3be53c87	0.006995741
190	0x3c1ff6ac	0.009763401
191	0x3c434bec	0.011919957
192	0xba9f0b26	-0.001213406
193	0x3c192501	0.009347201
194	0xbc24c668	-0.010057069
195	0x3c83e8cc	0.016102217
196	0x3c90ced5	0.01767675
197	0xbc65bb83	-0.014021757
198	0x3c08cabd	0.008349118
199	0x3af1f030	0.0018458422
200	0x3c18e684	0.009332303
201	0x3c22719a	0.00991478
202	0x3aafb810	0.0013406295
203	0x3b4d0ab8	0.0031286906
204	0x3b2d2c0e	0.0026423964
205	0xbb4e4c9c	-0.0031478768
206	0xbc8bdc40	-0.017072797
207	0x3bc0ac76	0.005879934
208	0x3b74dba4	0.0037362361
209	0x3c3d060c	0.011537086
210	0xbbe6cd0a	-0.0070434855
211	0x3ad2d9f0	0.0016086679
212	0x3c36500d	0.011127484
213	0x3bbf979d	0.005846931
214	0x3acaf868	0.0015485408
215	0xbc4ef6c6	-0.012632078
216	0xbc428247	-0.011871881
217	0x3ad45baf	0.001620164
218	0x3c91e341	0.017808558
219	0xbaf845f5	-0.0018941747
220	0x3bb3ebda	0.005490762
221	0x3ca023ba	0.019548286
222	0x3cb9cf98	0.022681996
223	0x3be7d402	0.007074834
224	0x3c0cc000	0.008590698
225	0x3bf507cf	0.0074777375
226	0x3cd0f4ed	0.025507415
227	0x3c45666b	0.012048344
228	0xbc41032c	-0.011780541
229	0xbc6e6bd7	-0.014552078
230	0x3cb32c14	0.021871604
231	0xba849ab1	-0.0010116902
232	0x3c963c73	0.018339371
233	0x3c025f86	0.007957345
234	0xbc87abf3	-0.016561484
235	0x3b996938	0.0046817325
236	0xbc1848f5	-0.009294738
237	0xbbac057c	-0.005249677
238	0xbc3285d0	-0.010896161
239	0x3c89f9fa	0.01684283
240	0x3b3875b7	0.0028146335
241	0x39b614f8	0.00034729368
242	0x3ca971f2	0.020684216
243	0xbab42bec	-0.0013746
244	0x3b8b34e8	0.0042482503
245	0x3cb709ab	0.022343477
246	0x3bd24ce1	0.006417856
247	0xbbc91dc2	-0.0061375806
248	0x3b345366	0.002751553
249	0x3c522557	0.012826285
250	0xbc2381f3	-0.009979713
251	0x3b83cc77	0.004022177
252	0x3c57451c	0.013139036
253	0x3b2253bc	0.0024769148
254	0x3cdd7458	0.027033016
255	0xbc31319c	-0.01081505

action_model._discrete_distribution.branches.0.bias f4 [3]
0	0x3ceac045	0.028656134
1	0x3c6870f0	0.014187083
2	0xbcfc0757	-0.030765219

action_model._discrete_distribution.branches.1.weight f4 [2, 128]
0	0xba1ff6fc	-0.0006102172
1	0xbcb7b130	-0.022423357
2	0x3c0841c3	0.00831646
3	0xb9883bc0	-0.0002598446
4	0xbb8af02b	-0.004240056
5	0xbac4e318	-0.0015021292
6	0x3ca727ca	0.020404715
7	0xbc88edcc	-0.016714953
8	0xbc373800	-0.011182785
9	0x3c34ace6	0.01102755
10	0x3ba0ed41	0.0049110954
11	0xbb92cab0	-0.0044797286
12	0x3c92a82c	0.017902456
13	0x3bf4eb5b	0.0074743456
14	0x3c15459c	0.009110834
15	0xbbc8afc9	-0.006124471
16	0x3b97b05d	0.0046291784
17	0x3c9137a1	0.017726721
18	0xbc7327af	-0.014841004
19	0x3c57339b	0.013134862
20	0xbd097612	-0.033559866
21	0xbbdb9951	-0.0067016263
22	0xbc829939	-0.015942203
23	0x3abd82e8	0.0014458569
24	0x3aaa6fc6	0.0013003282
25	0xbc80e976	-0.015736323
26	0xbc9f71ae	-0.019463386
27	0x3bd8a408	0.006611351
28	0xbb8f9a05	-0.004382374
29	0x3bf20dde	0.007386907
30	0xbbd68e0d	-0.0065476955
31	0xbcbd17a8	-0.02308257
32	0xbc2efdc1	-0.010680617
33	0x3be66e7c	0.0070322137
34	0x3b028ca0	0.0019920245
35	0xbc50ec6e	-0.012751682
36	0xbc44aaa3	-0.012003574
37	0x3c85a5c4	0.016314395
38	0xbc6f91bf	-0.014622151
39	0xbb3d9477	-0.0028927603
40	0x3c27564b	0.010213445
41	0x3a161a5e	0.0005725975
42	0xbc72566b	-0.014791111
43	0xba273f05	-0.0006379935
44	0x3c652a42	0.013987126
45	0x3ae26243	0.0017271716
46	0xbc931faf	-0.017959444
47	0x3b782654	0.0037864642
48	0x3af829f6	0.0018933404
49	0xbc6cfeb0	-0.014465019
50	0x3bd16ffb	0.006391523
51	0x3b55fcad	0.0032651827
52	0x3c71d62e	0.014760537
53	0x3c44400d	0.0119781615
54	0xbbf38f81	-0.0074328785
55	0x3b57c617	0.0032924467
56	0x3c02bdda	0.007979834
57	0x3c232540	0.009957612
58	0x3b4b99ea	0.0031067082
59	0x3b38c819	0.002819544
60	0xbc98c373	-0.018647885
61	0xbbf0a868	-0.0073442943
62	0xbb5e3d09	-0.0033910892
63	0xbbe16eb8	-0.006879654
64	0xbc7eeec6	-0.015559858
65	0xbc03e55c	-0.008050289
66	0x3c44be77	0.012008301
67	0xba8d77f7	-0.0010793199
68	0xbc97b1bd	-0.01851737
69	0x3cfaf22b	0.030633053
70	0xbc4325c3	-0.011910859
71	0x3aeb39d4	0.0017946311
72	0x3c44062f	0.011964365
73	0x3ae4a51a	0.0017444224
74	0xbaa78eee	-0.0012783685
75	0x3bac92c2	0.0052665183
76	0xbd0108aa	-0.031502403
77	0xbc88160b	-0.016612073
78	0xbc2b368e	-0.010450019
79	0x3c3954a8	0.0113116875
80	0xbb9de305	-0.0048183226
81	0xbbafb718	-0.0053624026
82	0xbc075db1	-0.008262084
83	0xbccaf415	-0.02477459
84	0x3b6c94d9	0.0036099462
85	0xb7aa1048	-2.027316e-05
86	0x3a54cf6e	0.00081180676
87	0x3b82f065	0.0039959424
88	0x3ad7af74	0.0016455487
89	0xbc5b2136	-0.013374617
90	0xbab66e54	-0.0013918378
91	0xbbba730c	-0.005689984
92	0x3a8bf549	0.0010677959
93	0x3bb084e5	0.005386936
94	0xbc07bbca	-0.0082845185
95	0xbb869e46	-0.004108223
96	0xbbaad538	-0.005213406
97	0x3c790c1c	0.015200641
98	0xbc6ead0b	-0.014567624
99	0xbafb5bb3	-0.0019177109
100	0x3c780110	0.015136972
101	0x3c1531f4	0.009106148
102	0xbc89d4aa	-0.016825039
103	0xbcae942a	-0.021310885
104	0xbc3ed4a6	-0.011647379
105	0x3c83449e	0.01602393
106	0x3afcb425	0.0019279761
107	0x3a3a48ef	0.0007106205
108	0x3b88ec11	0.004178532
109	0xbca5fc51	-0.020261915
110	0xbba01030	-0.004884742
111	0xbcbb5d1f	-0.022871552
112	0x3c22230c	0.009896051
113	0xba998b60	-0.0011714511
114	0xbabaf833	-0.0014264643
115	0xbba3ea0b	-0.0050022653
116	0x3bcbfcc2	0.0062251994
117	0x3bb7ad07	0.0056053433
118	0xbb21553a	-0.002461745
119	0x3b046612	0.002020244
120	0x3c06a22e	0.008217378
121	0xbbe9ee23	-0.007138984
122	0xb9d08191	-0.00039769386
123	0xbb105e00	-0.0022028685
124	0xbcadb0c5	-0.021202454
125	0xbbfddf52	-0.007747569
126	0xbc163b08	-0.009169348
127	0xba5d2ec5	-0.000843745
128	0x3b821c35	0.0039706477
129	0x3c022f13	0.007945794
130	0x3c8eb5d5	0.017420689
131	0xba9a98b0	-0.0011794772
132	0x3b518f2e	0.003197621
133	0xba303477	-0.0006721685
134	0xbc9bf9d0	-0.019040018
135	0xbb0718bc	-0.0020614108
136	0x3c08e7b1	0.008356021
137	0x3baf45b1	0.005348884
138	0xbc01ffe4	-0.007934544
139	0x3a9e5237	0.0012078945
140	0xbcef3a07	-0.029202474
141	0xbbae65a2	-0.005322174
142	0xbb1460c3	-0.0022640682
143	0x3c8a1b56	0.016858738
144	0x3b004e4d	0.001957792
145	0xbbe4c39f	-0.0069813277
146	0x3cc16100	0.023605824
147	0xbc35979f	-0.011083513
148	0x3cafd2ac	0.02146276
149	0xbc602c13	-0.013682383
150	0xbbc26a62	-0.005933092
151	0x3b8bf260	0.0042708367
152	0xbc1e9a37	-0.009680322
153	0xbc3cf52e	-0.011533065
154	0x3c10f38a	0.008847127
155	0x3ac644b3	0.0015126675
156	0x3ba6861b	0.0050819046
157	0x3bf98029	0.007614155
158	0xbb5d2410	-0.0033743419
159	0x3c3beae2	0.011469575
160	0x3be28632	0.00691297
161	0x3cfd82fa	0.030946244
162	0x3b864031	0.0040970077
163	0xbc024606	-0.007951265
164	0x3b396df1	0.002829429
165	0xbc32026f	-0.010864838
166	0x3c3a2c51	0.011363105
167	0xbc0aa0a8	-0.008461155
168	0xbc323b3b	-0.010878379
169	0x3bd2d516	0.006434093
170	0x397ee3d9	0.00024308208
171	0x3b13cc76	0.0022552288
172	0x3c743a00	0.014906406
173	0x3c05c33b	0.008164222
174	0x3c0db631	0.008649395
175	0xbc95593c	-0.018231027
176	0x3a164805	0.00057327776
177	0x3bc11dc0	0.005893439
178	0xbc3f5075	-0.011676897
179	0x3b2ec2cf	0.0026666408
180	0x3bc95dc7	0.0061452123
181	0xbc19157c	-0.009343501
182	0xbb92d435	-0.0044808635
183	0x3bc66e66	0.006055641
184	0x3b8c1e49	0.004276071
185	0xbca30ebf	-0.019904492
186	0xbb1753ef	-0.00230908
187	0x3c22fbfe	0.009947775
188	0xbb9d1e46	-0.0047948686
189	0xbc83dbe2	-0.01609606
190	0x3c80083f	0.015628932
191	0x3b27bd55	0.0025595028
192	0x3be65fb5	0.007030452
193	0x3c5ca53c	0.013467129
194	0x3c076e90	0.008266106
195	0x3b20846f	0.0024493
196	0x3ca8cd0d	0.020605588
197	0xbbc73a9f	-0.006079986
198	0xbc31a691	-0.010842935
199	0x3c8c8359	0.017152475
200	0xba1eaa64	-0.0006052612
201	0xbc7f210a	-0.015571842
202	0x3c6c6449	0.014428207
203	0x3ab55cc3	0.0013836849
204	0x3c48e309	0.012261161
205	0x3c552c79	0.013011091
206	0xb9a1c8b2	-0.00030857843
207	0xbc565fdb	-0.013084377
208	0x3c138f4e	0.0090063345
209	0xbc535909	-0.012899646
210	0xbc5e0154	-0.013550121
211	0x3d251d77	0.040311303
212	0xbad00b54	-0.0015872517
213	0x3cb04c8c	0.021520875
214	0x3cb2a4c7	0.021807088
215	0xbb97e608	-0.004635576
216	0xbad3bdf0	-0.0016154628
217	0xbcb5944d	-0.022165442
218	0x3b75ba33	0.0037495017
219	0xbc47cbeb	-0.012194614
220	0xb994c90c	-0.0002837855
221	0xbc3f0004	-0.011657719
222	0x3c8a2b02	0.01686621
223	0x3c5c9038	0.013462119
224	0x3a0fbce2	0.0005483163
225	0x3c4b346b	0.012402634
226	0x3c37af20	0.011211187
227	0x3c9151de	0.017739233
228	0xbca73125	-0.020409176
229	0xbc5b35a2	-0.013379486
230	0x3c5b3886	0.013380175
231	0xbbe56ca4	-0.0070014764
232	0x3be271cb	0.006910538
233	0xbc0c5ecd	-0.008567524
234	0xbb0341f6	-0.002002833
235	0xbbd9b09a	-0.006643367
236	0xbb0b2ebb	-0.002123757
237	0x3bc5a12c	0.006031176
238	0x3b813b5d	0.003943844
239	0xbbc4d27b	-0.0060065365
240	0xbc69dc7c	-0.014273759
241	0xbc950c4a	-0.018194336
242	0x3c18679f	0.009302049
243	0x3c0c42f7	0.008560888
244	0xbb247212	-0.0025092405
245	0xb94a72d2	-0.00019306995
246	0x3abfd1b5	0.0014634641
247	0xbb6c5a60	-0.003606461
248	0x3b98442d	0.004646799
249	0xbade04c2	-0.0016938674
250	0xbb424ae4	-0.002964669
251	0xba627af7	-0.0008639539
252	0x3a3fb190	0.00073125307
253	0x3b8eefa1	0.004362062
254	0x3cb6eb5f	0.02232903
255	0x3c9005aa	0.017580826

action_model._discrete_distribution.branches.1.bias f4 [2]
0	0xbc6ec675	-0.014573683
1	0x3c6ec673	0.014573681

action_model._discrete_distribution.branches.2.weight f4 [3, 128]
0	0xbc2216c8	-0.009893127
1	0x3cd9b0e6	0.02657361
2	0x3b8b996d	0.004260233
3	0x3cd64d8a	0.02616002
4	0xbc40df30	-0.011771962
5	0x3c071b50	0.008246258
6	0x3bfcb21b	0.0077116615
7	0xbc916051	-0.017746123
8	0xbb9607b1	-0.0045785536
9	0xbc94fa6e	-0.01818582
10	0x3cbe0b51	0.023198755
11	0xbd06ee75	-0.032942254
12	0x3c0e1323	0.008671555
13	0x3ba6c6b4	0.005089605
14	0x3c513156	0.01276811
15	0x3c88d05c	0.016700916
16	0xbb4eb5dd	-0.0031541504
17	0x3c9be226	0.019028734
18	0x3cb58544	0.022158273
19	0x3c869a8e	0.01643112
20	0xbbc31656	-0.0059535904
21	0x3c228f9d	0.009921935
22	0xbcadc6c1	-0.021212937
23	0x3c26f658	0.010190569
24	0x3af94a64	0.0019019363
25	0xbb4470b7	-0.002997441
26	0xbcac976b	-0.021068295
27	0x3ccc6e6b	0.024954995
28	0x3b94e443	0.0045438125
29	0x3c3be367	0.011467791
30	0xbbe51986	-0.006991568
31	0x3a5308bc	0.0008050313
32	0xbc3621c7	-0.011116452
33	0x3cbc59cf	0.022992043
34	0x3b0a7896	0.0021129004
35	0xbb81e605	-0.003964188
36	0x3bec5547	0.0072123143
37	0x3c9dad82	0.019247774
38	0xbb149e1a	-0.0022677244
39	0xbb6e80bc	-0.003639265
40	0x3c8f75ae	0.017512169
41	0x3c851fcd	0.016250515
42	0xbb510c1b	-0.0031898085
43	0xbc334384	-0.01094139
44	0x3cbeb70f	0.023280649
45	0x3c8ba75e	0.01704758
46	0x3be3c625	0.006951111
47	0x3b2a5f32	0.0025996682
48	0x3c5d6080	0.013511777
49	0x3d016505	0.03159048
50	0xbb4e7354	-0.0031501846
51	0x3c896a4b	0.016774317
52	0x3beb2d14	0.0071770046
53	0xbbfbbc15	-0.0076823332
54	0xbc5d2d5f	-0.013499587
55	0x3be869d3	0.0070926934
56	0x3be6be12	0.007041701
57	0x3c514af1	0.012774215
58	0xbc1cfe32	-0.009582089
59	0x3c57fb4a	0.013182471
60	0x3c26a69a	0.010171557
61	0xbd050484	-0.03247501
62	0xb999b536	-0.00029317447
63	0x3b97a912	0.004628309
64	0x3cb44474	0.022005297
65	0xbce7de49	-0.028304236
66	0x3c7a92c8	0.015293784
67	0xbbf56860	-0.007489249
68	0x3bfe3761	0.0077580665
69	0x3c7643f3	0.015030849
70	0x3b3ac704	0.002849997
71	0xbcc6ac19	-0.024251984
72	0x3b89a8e3	0.004201041
73	0x3b0dc38e	0.0021631452
74	0xbca611e6	-0.020272207
75	0x3c41b7ba	0.011823589
76	0xbba0bc5d	-0.004905267
77	0x3cacdfd2	0.02110282
78	0x3b993504	0.0046755094
79	0xbaeac2b0	-0.0017910805
80	0x3cc437eb	0.023952445
81	0x3ba7f273	0.0051253377
82	0xbcbaef63	-0.022819227
83	0x3c61f6fd	0.013791797
84	0x3c1678d3	0.00918408
85	0xbc33938a	-0.010960469
86	0xbcdf995d	-0.027294809
87	0x3caf47bd	0.021396512
88	0x3ca552cb	0.02018108
89	0xbb1912a1	-0.002335705
90	0x3c633c1a	0.01386931
91	0x3c908082	0.017639402
92	0x3c78187e	0.015142558
93	0x3c5f535f	0.013630717
94	0xbb38e4d5	-0.0028212566
95	0x3ad1a808	0.0015995512
96	0x3b661dbe	0.0035112943
97	0xbbf721c0	-0.007541865
98	0xbc8d5d3d	-0.017256374
99	0xbc65f716	-0.014035961
100	0x3c5bde61	0.0134197185
101	0x3cb2bae6	0.021817636
102	0x3c081674	0.0083061345
103	0xbc5be8c8	-0.013422199
104	0xbcb3ddc9	-0.021956341
105	0x3b37b0e0	0.002802901
106	0x3caa42bc	0.020783775
107	0x3b84a54d	0.0040480257
108	0x3c840746	0.01611675
109	0xbbf6f4f9	-0.0075365272
110	0x3caaaac2	0.020833377
111	0x3c79fbe3	0.015257808
112	0x3c7bfffc	0.015380856
113	0xbbb7725b	-0.005598349
114	0xbc17dd4e	-0.009269072
115	0xbba97ddb	-0.005172474
116	0x3bc6caab	0.0060666404
117	0x3a59168e	0.0008281254
118	0xbb85dbfe	-0.004085063
119	0x3a947504	0.0011326377
120	0x3ca3a8f9	0.019978033
121	0xbb475ca6	-0.0030420213
122	0x3a228420	0.0006199498
123	0x3d0f92be	0.035052054
124	0xbbb4a909	-0.0055133146
125	0xbc3bfc0d	-0.011473668
126	0xbbd0c4c7	-0.006371114
127	0x3cd4b1d3	0.0259637
128	0xbc335d22	-0.010947498
129	0x3cdc4c3b	0.026891818
130	0xbbc2d674	-0.005945975
131	0xbc0940a1	-0.008377225
132	0xbc669f18	-0.014076017
133	0x3ce1b38c	0.027551435
134	0xbcb133b7	-0.021631105
135	0xbb62f8bb	-0.0034633118
136	0x3b7b7a1d	0.0038372346
137	0x3b83199d	0.004000856
138	0xbb527d76	-0.0032118238
139	0xbcd7e17a	-0.026352633
140	0xbb5540da	-0.0032539875
141	0x38f492ba	0.000116621566
142	0x3c194aec	0.009356242
143	0x3cbfe702	0.023425583
144	0x3bc301a5	0.005951124
145	0x3bf3b36f	0.0074371616
146	0xbb6c8976	-0.0036092675
147	0xbbc136ec	-0.00589644
148	0x3c9b99af	0.01899418
149	0x3c257128	0.010097779
150	0xbc3a7b0c	-0.011381876
151	0xba80916f	-0.0009808968
152	0xbc1569cb	-0.009119461
153	0x3c0da285	0.008644705
154	0x3af6a503	0.0018817488
155	0xbc8ba1d0	-0.017044932
156	0xbbdff186	-0.0068342118
157	0xbc274378	-0.010208957
158	0x3c006335	0.007836153
159	0xbc92a0e8	-0.017898992
160	0xb8cccfe2	-9.766199e-05
161	0xba351e48	-0.00069091143
162	0x3c1fef12	0.009761589
163	0xbb3d3522	-0.002887078
164	0xbbd9c38d	-0.006645626
165	0xbc46b2c0	-0.012127578
166	0xbaa69acf	-0.0012710931
167	0x3c129bb2	0.0089482535
168	0xbc16b424	-0.009198222
169	0xbb3713d6	-0.0027935407
170	0xbb930cd2	-0.0044876123
171	0x3b40b33b	0.0029403705
172	0xbb5ffde4	-0.003417843
173	0x3c765b1e	0.0150363725
174	0x3c4869c8	0.012232251
175	0xbc7c9861	-0.015417189
176	0xbb1db956	-0.0024066768
177	0xbb31f97e	-0.0027156766
178	0xbae4da7b	-0.0017460132
179	0xbba9c375	-0.005180771
180	0x3c947dd0	0.018126398
181	0xbbfef5eb	-0.0077807806
182	0xbc0c69de	-0.008570163
183	0x3b38d11d	0.0028200813
184	0xbc4baa7d	-0.012430784
185	0xbc14e7b8	-0.009088449
186	0xbbf57626	-0.007490891
187	0xbc7d4359	-0.015457951
188	0x3bac7a55	0.0052636066
189	0x3c096087	0.00838483
190	0xbb4404ba	-0.0029910044
191	0x3abae23d	0.0014258098
192	0x3c8f3628	0.017481878
193	0xb942c628	-0.000185751
194	0xbc01cec6	-0.007922834
195	0xbc34451e	-0.011002807
196	0x3cc234e7	0.023706866
197	0xb9718cf8	-0.00023036066
198	0xbaf3261d	-0.0018550787
199	0x3baef4df	0.0053392495
200	0x3bf8fa91	0.007598229
201	0xbc134158	-0.008987747
202	0x3ba3184a	0.0049772607
203	0xbc02b0ab	-0.007976691
204	0xbba96690	-0.005169697
205	0x3c36058f	0.011109724
206	0xbbfa862a	-0.007645388
207	0xbb1c2805	-0.0023827564
208	0xba2ad9de	-0.000651745
209	0xbbd5bbff	-0.006522655
210	0xbc1f1da9	-0.009711661
211	0x3cf62f29	0.030051785
212	0x3c031a5a	0.008001888
213	0xbaed5e25	-0.0018109722
214	0x3ae8f849	0.001777419
215	0xbc08fe65	-0.008361434
216	0xbc1ed641	-0.009694637
217	0xbacf0bfd	-0.001579642
218	0xbbc15273	-0.0058997213
219	0xbbb7de54	-0.0056112204
220	0x3c1e20e6	0.009651398
221	0xbc0e97ed	-0.008703214
222	0xbad90b92	-0.0016559234
223	0xbbe79989	-0.0070678634
224	0x3cc8deaa	0.024520237
225	0x3c6faa81	0.014628054
226	0x3c98b406	0.01864053
227	0xbc16293d	-0.009165105
228	0xbba011da	-0.0048849406
229	0xbc82bbd0	-0.015958697
230	0x3c8dfc36	0.017332178
231	0xbb5e52e8	-0.0033923928
232	0xbc44fe75	-0.012023558
233	0x3b7c87b9	0.0038533045
234	0xbc389868	-0.011266805
235	0xbc93e373	-0.018052792
236	0x3a2d65b0	0.0006614579
237	0xbcf6e4e2	-0.030138437
238	0xb98ec4e8	-0.00027231057
239	0x3c15640f	0.009118094
240	0x3c2ed87d	0.010671732
241	0x3c18c3a2	0.009323986
242	0x3b2cbc22	0.0026357253
243	0x3c15635c	0.009117927
244	0xbbac4e9f	-0.005258396
245	0x3c8abcd5	0.016935745
246	0xbaff4439	-0.0019475288
247	0xbbb136dd	-0.0054081515
248	0xbcbdaedd	-0.02315467
249	0xbc1beedb	-0.009517397
250	0xbc3ea44e	-0.011635853
251	0xb9b07ecb	-0.00033663804
252	0x3c91e929	0.017811375
253	0x3b9f4961	0.0048610424
254	0x3c9bc439	0.019014465
255	0xbb04e94e	-0.0020280662

action_model._discrete_distribution.branches.2.bias f4 [3]
0	0xbc301778	-0.010747783
1	0x3c3c36d4	0.011487681
2	0x39df73a9	0.00042620048
