results/Hard_5/Player.onnx (onnx, 159596 bytes, 17 tensors)

discrete_act_size_vector f4 [1, 4]
00000000: 0000 4040 0000 0040 0000 4040 0000 4040
3.0 2.0 3.0 3.0

network_body.observation_encoder.processors.0.normalizer.running_mean f4 [15]
00000000: 15ea 28bf 7047 dec0 7625 3140 dfa6 6a41
00000010: d5fa b040 cd6c 4341 cf04 a140 4eb1 cc40
00000020: 24a6 79bf 63f5 b2c0 7d39 0040 e396 29bf
00000030: ef23 bcbe a327 67be 7a05 7a3b
-0.6598218 -6.9462204 2.7679114 14.66574 5.530619 12.214063 5.031837 6.3966436
-0.97519135 -5.5924544 2.0035088 -0.6624586 -0.36746165 -0.22573714 0.0038150237

network_body._body_endoder.seq_layers.0.weight f4 [128, 15]
00000000: 7cfe 993e f952 23bf 6122 babe 7f19 afbd
00000010: 1b69 ab3e b6e3 ed3c 4cc7 9bbe 7e0b d83e
00000020: 36e0 fa3d 2635 92bc e3a4 bbbe cf48 583d
00000030: 8ffc cc3d 3f0a d3bd f5ff 76be 996d c0be
00000040: 6760 e6bd ca8b 69be 967c 653e 6fe1 863e
00000050: b844 283d 6406 1f3e 9cac 2a3e b46f 783d
00000060: bcdf 5cbe 198d eebc 431b 3f3e 7bcb 62be
00000070: 296c 8abe 531a 013f fb59 08bf 19a2 c0be
00000080: e976 003e cf49 c83e 5c57 1ebe 6c37 fb3d
00000090: 79a1 973e 1f52 60be 1eb1 3d3e a50d 98be
000000a0: 98bf 223f 0fdf efbc f5db aebe 4ce5 7dbe
000000b0: c493 94bd e7ae 90be 1de9 433d 2347 563e
000000c0: a37c 0fbf 3fd7 2c3d e014 1e3e 81c1 083f
000000d0: 65cf a8be 6046 463e ea05 81be bc6e b03e
000000e0: ad90 8a3e 3036 66bd c6e0 93be d6d6 c7bd
000000f0: 23d3 20be bc8a 3e3e e64b 5e3e 4a24 0c3f
00000100: 0d45 923e c7dd 223d 5f0a 29be aec1 d9bd
00000110: dcc8 aebe d817 01bf bfa8 03bf 64ac 4fbe
00000120: c4e9 e0bd 2dfe 1a3d 7498 63be a7a4 473e
00000130: 1428 cf3e 8f9a 1ebe aead 38be c923 133c
00000140: 66ca 6b3d 6a54 fbbd 55c3 523e cc9b 8fbe
00000150: ccef 81bd 6728 863e 2660 91be a45f a2be
00000160: 6b94 0b3f d262 b9be 24be bd3e 1912 f23e
00000170: 2ad9 353e 8859 f5be b1dc 9a3c 13c3 9abe
00000180: 298c 3a3e f3fe c63e a55b 1fbf 65a2 e83d
00000190: cdc2 d53e 2fb6 bc3e adea 3dbd f115 2cbd
000001a0: b11c eebe 0613 91bd e9f3 2e3f c49a 3ebe
000001b0: a757 0a3f 60cc d8bb 6c3b b93d f147 893d
000001c0: f42e b53e f05f 04bd 7d7b 443e ebb0 78bd
000001d0: d580 953e e80e 0d3f 1a5e 513e cebc 663e
000001e0: a5b7 8dbc d6b2 2c3d 2338 ebbe d402 a0be
000001f0: c217 813d f949 653d e5df 06bf 5c4e e03e
00000200: 5798 da3e af48 393e 504d f9bd 8d23 3cbe
00000210: a341 7bbe e33e 403d 740a b2bd 8cfb d1bd
00000220: ab92 5cbe aa35 0c3f 408e 823d 4233 953e
00000230: 9972 d63d 70fa 51be 3cde 853e 8f8d af3e
00000240: b8f9 d6be 8419 6ebe 7f36 943e 259c 1bbe
00000250: 80b2 7abe 9ce2 7abe 9550 2abe 3b6f 403d
00000260: 97a7 aa3e 8257 ca3e c64e 0c3f ce89 a93e
00000270: 541d e6be 9a79 263e eea2 77bd b69f 923e
00000280: 0a0e d23d 0a8f 71bd 49ab 85be 948b 42be
00000290: 8cbf 243e 39a4 c9be 0860 0d3e 2abc a1be
000002a0: e1e5 35bf 1c53 803e 4f22 d9be 70e5 e2bd
000002b0: c17f 36be 9db7 b03d c555 a43e 7258 c6be
000002c0: a762 cb3e 0059 b6bd 0a4c 283e 964f 32be
000002d0: 5636 ec3e 4eca eeb9 bc2c cbbe 3abb fabc
000002e0: 5f01 bc3c 59c3 473b 86ce ed3d 066e 6bbc
000002f0: ea15 d7be 1667 a8be d9d7 583f 2422 093e
00000300: 1bae edbe 8100 f63e 5841 053e b2be ea3e
00000310: d8fc cd3c 93d1 c5be 9c22 6cbc 5318 28bf
00000320: 1d03 013e 5ba4 36be e618 21be 8d13 563e
00000330: 561d 843d 5631 1f3f 2209 af3d cf96 543e
00000340: 6aa6 29bf 193d 833d 1daf 22bf 0331 b8be
00000350: be3c d4be d9c8 a9be 8d42 a3bd be2e afbe
00000360: 4e65 7e3e 47f2 b7bd f60a b8be e9bd 26be
00000370: 0ec0 0f3e e9d5 1f3e f1e5 723d 8d1f 83be
00000380: bb28 8abd 0f8c be3d 4b68 123f 2310 853e
00000390: 1c87 28bf 33d0 903e 2ec0 153e 42b7 883e
000003a0: c281 44be 422d c0be a9dc 2bbe 2683 b0be
000003b0: b6c5 8fbe 3942 3a3f a093 eebc ff43 97bb
000003c0: 7624 603e 863e 75bd b508 c8be 1547 83bd
000003d0: 1e13 183f 8c07 903e 236c 433d ca79 b33e
000003e0: 38bd ffbe 1007 21be 60bf 133f 4d93 9b3d
000003f0: d6c0 513e 50c8 63be af75 293e c5e2 3f3d
0.3007697 -0.6379848 -0.36354354 -0.08549785 0.33478627 0.029039245 -0.3042549 0.42196268
0.12249796 -0.017847609 -0.36649236 0.05280381 0.10009109 -0.10304689 -0.24121077 -0.37583616
-0.11248856 -0.22807232 0.22410807 0.26343867 0.04108116 0.15529782 0.16667408 0.060653403
-0.21569723 -0.029120015 0.18662743 -0.22147934 -0.27035645 0.5043079 -0.532623 -0.3762367
0.1254536 0.3911881 -0.15463012 0.1226643 0.2961538 -0.21906327 0.18524596 -0.2969791
0.635736 -0.029281167 -0.3415219 -0.24794501 -0.072547466 -0.2825844 0.047829736 0.20925574
-0.56049556 0.042197462 0.1543765 0.53420264 -0.3297073 0.19362783 -0.25199825 0.34459484
0.27063504 -0.05620402 -0.28882426 -0.097577736 -0.15705542 0.1860761 0.2170864 0.5474287
0.28568307 0.039762285 -0.16507863 -0.106326446 -0.3413762 -0.5042701 -0.5142936 -0.20280606
-0.10982087 0.037840057 -0.22226125 0.19496404 0.40460265 -0.15488647 -0.18035004 0.0089807
0.05756607 -0.1227196 0.20582326 -0.2804855 -0.06344566 0.262027 -0.28393668 -0.31713593
0.5452334 -0.36208206 0.37059128 0.47279432 0.17758623 -0.4791987 0.018904062 -0.30226955
0.1821753 0.38866386 -0.62249213 0.11359099 0.41750184 0.36857745 -0.046366382 -0.042013112
-0.46506265 -0.070837066 0.6834093 -0.18613726 0.54039997 -0.0066161603 0.09044537 0.06703175
0.35387385 -0.032318056 0.19187732 -0.060715597 0.29199854 0.5510087 0.20446053 0.22532961
-0.017299483 0.04216274 -0.45941266 -0.31252158 0.063033596 0.05597875 -0.52685386 0.43809783
0.4269435 0.18094133 -0.12172949 -0.18372937 -0.24536757 0.046934973 -0.086934 -0.10253057
-0.21540324 0.54769385 0.06374788 0.2914067 0.104710765 -0.2050569 0.26146114 0.34287688
-0.41987395 -0.23251921 0.28947827 -0.15196283 -0.24482155 -0.24500507 -0.16632302 0.046981078
0.33330986 0.39519888 0.548077 0.3311295 -0.4494425 0.16257325 -0.060458116 0.28637475
0.10256584 -0.058974303 -0.26107243 -0.18998557 0.16088694 -0.39383104 0.13806164 -0.3158887
-0.7105389 0.25063407 -0.42408988 -0.11078918 -0.17822172 0.086287715 0.32096687 -0.38739353
0.39723703 -0.08903694 0.16435257 -0.17413172 0.46135205 -0.00045545626 -0.39682567 -0.030606855
0.022949873 0.0030481427 0.11611657 -0.014369493 -0.42008907 -0.32891148 0.8470436 0.1339193
-0.46421894 0.4804726 0.13013208 0.45848614 0.02514498 -0.38636455 -0.014412548 -0.65662116
0.12598844 -0.17836134 -0.15732154 0.20905896 0.06450908 0.62184656 0.08546664 0.20760654
-0.6626955 0.06408138 -0.6354845 -0.35974893 -0.41452593 -0.33161047 -0.07971678 -0.3421535
0.24843332 -0.089817576 -0.35945863 -0.16283382 0.14038107 0.15608944 0.05930132 -0.2561001
-0.0674605 0.09304058 0.5719039 0.25988874 -0.6583116 0.28283843 0.14624092 0.26702315
-0.19190124 -0.3753453 -0.16783394 -0.34475058 -0.2808053 0.727573 -0.029123127 -0.00461626
0.21888909 -0.05987408 -0.39069143 -0.06410042 0.5940417 0.28130758 0.04771055 0.35053855
-0.4994905 -0.1572535 0.5771389 0.07596455 0.20483717 -0.22244382 0.16548799 0.046847124

network_body._body_endoder.seq_layers.0.bias f4 [128]
00000000: d768 8abc ad57 dbbd 1d1c b0bd 6bd8 f03c
00000010: b9bc 15bd 239f bc3d d94e d03d 4563 b1bd
00000020: 55aa 8bbd fb61 fb3c 859f 403d 7fb7 b33d
00000030: 0057 ce3d cc26 e73d b8ab 24bd 06ce 083e
00000040: 6799 183d 78d3 8cba 28be 253d 62fd 463d
00000050: f9d5 9bbc 8dad a83d 1c93 e6b9 fae0 d43c
00000060: e447 fd3c 97f2 64bd 575a 253e c921 edbb
00000070: 7aef 983c 37b4 a4bc 8072 4ebd 99d5 c43d
00000080: 442a fa3d 9d0e 47bc 64b3 b0bd 029d 1a3e
00000090: 26ed 09bd 9c4d 8b3d 9a5b c0bc 00bb e03d
000000a0: e127 bc3c 02f1 dd3c dfed f53b 65c8 f4bb
000000b0: a1f7 9f3c 4a92 8c3c 618d b53d abe5 2f3e
000000c0: de98 063c a3f3 35bc dac3 1bbd 7d90 b13d
000000d0: 153f 423d d9ef 363d 3ac1 d13d 7f14 993d
000000e0: bca8 8cbd 552c 273e 1809 a53c 1aeb 0a3b
000000f0: 6e52 053e f6d6 a23b 78cf 143c c085 593d
00000100: 1f54 963d bd97 6c3d 3f41 443d 7352 01bd
00000110: 3535 003d 22bc 8e3d 1e38 f93d 4758 3a3e
00000120: 3195 993d 68cd 983c 9115 9dbd 54de 823b
00000130: 9b47 14bd 69ac ec3c 3d79 d9bc a781 36bd
00000140: a8ce 843d 8be6 ba3d 596c b33d 81c7 e4bc
00000150: 6a64 c03c 350d 023d e142 fe3d efb1 2d3d
00000160: 4a4e 913d c66c d33b 8ead 223d 2a2b f13b
00000170: 2bf8 973d 36b2 ccbd 6753 0e3c 74fc d13d
00000180: 80b2 f73d 8cb4 0a3e 8234 ff3d f65d 193d
00000190: 9a10 9a3d 59de 1e3d b711 e3bb 5ae3 19bc
000001a0: b7dc bf3d 071c 21bc 31f8 8f3d 5a66 383e
000001b0: 1687 813d 6b9b f23d 5988 803c 1f9a c93d
000001c0: 46ec 363d 34c5 b43d abb6 c0bd fda4 b73d
000001d0: 3e1c 673d 89e7 3abd 76e2 0a3d 3b9d 133b
000001e0: 793c 293e 59e8 2bbd 7a94 c83d 27db 4f3d
000001f0: 2154 2fbc 188c d33d a541 d2bd 1fe1 8f3d
-0.016895695 -0.10710082 -0.08599112 0.029400071 -0.036556933 0.092100404 0.10171289 -0.08661512
-0.06819598 0.03068637 0.04702713 0.087752335 0.10075188 0.11286697 -0.040202826 0.13359842
0.03725567 -0.0010744175 0.04046455 0.04858149 -0.019022929 0.08236227 -0.00043978624 0.025986183
0.03091807 -0.055895414 0.16147743 -0.0072366935 0.018668879 -0.020105464 -0.050402164 0.09611053
0.12215093 -0.01214948 -0.08627966 0.15098956 -0.033673428 0.06801912 -0.023481179 0.109731674
0.022968234 0.02709246 0.007505163 -0.007470178 0.019527258 0.0171596 0.088648565 0.17177455
0.008215157 -0.011105451 -0.038028575 0.08670137 0.04742344 0.04466233 0.10241933 0.074746124
-0.06868121 0.16325505 0.020145938 0.002119726 0.13019726 0.004969473 0.0090826675 0.05310607
0.073402636 0.057761896 0.047913786 -0.03157277 0.031300742 0.06969477 0.12168907 0.18197738
0.07499159 0.018652633 -0.07670129 0.0039937887 -0.0362011 0.028890805 -0.026547069 -0.04455724
0.06484729 0.09126004 0.087609 -0.027927162 0.023485381 0.031750876 0.124151 0.04240602
0.070950106 0.006452176 0.039716296 0.007359882 0.07420381 -0.099949285 0.008686877 0.1025323
0.12094593 0.13545436 0.12461187 0.037443124 0.07522698 0.038786266 -0.006929602 -0.009392584
0.0936827 -0.009833342 0.07029761 0.18007794 0.06324594 0.1184605 0.015690016 0.098438494
0.04465892 0.08826676 -0.09409841 0.08967016 0.05642342 -0.045630965 0.033907376 0.0022524137
0.16526975 -0.04196963 0.09793945 0.05074611 -0.01070121 0.10329455 -0.10266427 0.0702536

network_body._body_endoder.seq_layers.2.weight f4 [128, 128]
00000000: 6f71 8e3c ef3a 903d 03a7 40be 2ca5 acbd
00000010: f20b 0ebe 7194 903e 707c 573e f076 0d3b
00000020: d01f 4e3e ae70 f1bc e8b1 a23c 49c2 a2bb
00000030: c733 803e de55 423d f804 103d 2ee2 e8bd
00000040: 01a8 68bd 5de4 0ebe 6284 0b3e 1931 3c3e
00000050: 1da1 87bd 071a 93bd aa23 583e 5a85 e23d
00000060: a772 debc 9ba6 1b3d 0354 1d3e 1617 79bd
00000070: 31bd 423e 216d 563e 2df1 1e3d 204f 08bd
00000080: cfef bb3d 7063 4dbe 387d 8a3d 33eb bbbe
00000090: 5842 8dbd f1a8 3d3e 52b9 743e d3a3 943d
000000a0: 047d 693d ee9f a33d f661 563d a3ef b63d
000000b0: ddb8 4bbd 88f8 23be 9879 0a3e 4132 073b
000000c0: 4227 99bd cd06 e13c 51dc 183e 5890 553d
000000d0: 88c7 c1bd b86c 0b3e 64b7 63be e71d 2d3e
000000e0: 6d15 febd 7d11 e3bd 806e 42bc 7de8 26be
000000f0: 9fdf c03d 511a 1fbe b1dc 803d 96c6 fa3d
00000100: 9f53 153b e29f dbbc be3a 083e d470 7d3d
00000110: 0a65 213e 99ea 3fbe 6cd3 72bd dc13 6d3e
00000120: 25b5 adbd 9685 293e 1a13 363d 06e0 103e
00000130: 93c2 d53d 8b3e a5bc f1b5 94bd 577b ee3c
00000140: bd80 d63d f824 bebd 56b0 953d 46bc acbe
00000150: 43f3 23bd 95cf 71bd fc2c 4fbe 1013 a13c
00000160: aa27 523e cb21 47bc 63c0 04be a54d 37bc
00000170: d721 8b3d a434 88be 7288 1bbe bd73 183e
00000180: 369d 013e 7a23 42bd c4ef 0b3e fcd4 013e
00000190: b3ac bebd f7cd 173e 63e6 043c 6678 00bd
000001a0: 5638 b03e 137e 0fbe 6e4f ccbd d615 f73d
000001b0: 9e9c 85bd 27da 9d3b 73e6 93bd 2ebc cdbd
000001c0: db13 c93c 4768 eb3d 627c 183d 337e d43d
000001d0: 3675 983d 44b2 86be 463e 633d 7d69 c33c
000001e0: c750 673d 7d8d 39be a1cf ec3c fcce b83d
000001f0: 0652 1a3e 08ae b03d d3e4 11be cc71 bf3d
00000200: a3f4 46bd 91ff 183d 644f 933c 3a26 1ebe
00000210: d5eb 36bc 5b16 6b3b 246e 0c3e ea6a fb3d
00000220: f283 353d ac35 d2bd f8e3 443e 71d5 28bd
00000230: bf33 2a3e 98b3 4bbe 424d f03d 0ce7 a0ba
00000240: 0ebd 053e 77ba 4e3d d2f9 f9bd fa62 0cbd
00000250: 048f 003d c539 50bd fe9a 243e 362e ed3b
00000260: d284 02be 21b8 2ebe 0147 543e 8a47 b73c
00000270: 7e9a 153d 04d2 cdbd 920c 82bd 6e55 2fbd
00000280: e2ae ebbd 0732 e83b 9ee8 b53c cfe2 6abc
00000290: 1749 183e 11e6 2b3e 139e 0e3e 25e6 edbd
000002a0: eb99 3f3e 3255 36bd c726 183e 59a9 393e
000002b0: 0138 943d 1e91 903d 1a58 47be 42a8 d33d
000002c0: cff8 233d 71f7 933d 503f 7d3e 9509 d93d
000002d0: b5dd 473e 60df 053d 3d71 acbd ebfd 513d
000002e0: 7afa 0abd 2dad 123d d031 3f3e ab64 0a3c
000002f0: 086c 3a3e bcb2 3b3d 05fe ba3b 642e 123e
00000300: 3de8 c23d 1fa7 e2bc 3bbc 7b3e 5a55 67bb
00000310: 868a c0bd 6a64 b33d e166 8dbd 9e23 b13d
00000320: 81db fcbd 315d 2d3d 364c 833e 4c5c 3e3e
00000330: f50e b43d dc6d db3e a458 4e3e fd67 dc3c
00000340: 71f9 ebbc c33b 3bbe 9c07 e6bd 5e4f 6abc
00000350: 6153 9f3b 0464 73bc b570 eebd c199 b33d
00000360: bd56 3e3d cc73 d3bd 37d8 02be 45cd 323e
00000370: 109a 183e 0c06 233e b97c dabd 49a0 9e3c
00000380: ee2e e13d bc59 bebe ecdf a0be 14d1 1bbe
00000390: 54cf 47bd d43f 8b3d 3098 00be afc3 803c
000003a0: bc49 bb3d 4d4c 39be 56d8 7bbd 3df1 bc3d
000003b0: de10 80be 009e 66bd 8068 6fbd e009 7dbd
000003c0: aa3a f4bc e7e6 fcbd b214 95bc 9529 d0bd
000003d0: 424b 783e 5914 c33e 6d68 f0bd 64c8 c53d
000003e0: ee98 ef3c fa00 943d 5707 17be 338e f93d
000003f0: 4693 8e3d 323b 06bd c50d 083e 3cee 283c
0.017388074 0.07042491 -0.1881371 -0.084299415 -0.13871744 0.28238252 0.21043563 0.0021585785
0.20129323 -0.029472675 0.019860223 -0.0049670083 0.25039503 0.04744517 0.03516099 -0.11371265
-0.056800846 -0.13954301 0.13624719 0.18378104 -0.06622527 -0.07182699 0.21107355 0.11060591
-0.02715428 0.038000684 0.15364079 -0.060813032 0.19017483 0.20940067 0.038804222 -0.033278584
0.09176599 -0.20057464 0.06762165 -0.3670288 -0.0689742 0.18521477 0.23898819 0.072578095
0.05700399 0.079894885 0.052339517 0.08932426 -0.049736846 -0.16012776 0.13522947 0.002062932
-0.07478191 0.027469063 0.14927794 0.05213961 -0.09461886 0.13615692 -0.22237927 0.16905938
-0.124064304 -0.1108732 -0.011867166 -0.16299625 0.09417652 -0.15537383 0.062920935 0.122449085
0.0022785438 -0.026809637 0.13303658 0.06187518 0.157612 -0.18741836 -0.05928366 0.23152107
-0.08481816 0.16554865 0.04445181 0.14147958 0.10437503 -0.020171424 -0.07261265 0.029111547
0.10473774 -0.09284395 0.07309024 -0.3373739 -0.040026914 -0.059035856 -0.20232004 0.01966241
0.20522943 -0.012154053 -0.12964015 -0.0111879455 0.06793564 -0.26602662 -0.15188769 0.148879
0.12657627 -0.047397114 0.13665682 0.12678903 -0.093102835 0.14824663 0.008111569 -0.03136482
0.3441798 -0.14012937 -0.099760875 0.12064712 -0.06524013 0.0048172656 -0.07221689 -0.10045658
0.0245456 0.11494499 0.037227996 0.10375633 0.07444231 -0.2630788 0.05547931 0.023854012
0.05647352 -0.1812038 0.028907599 0.09023854 0.15070352 0.08626944 -0.14247446 0.09347877
-0.048573148 0.037353102 0.017982192 -0.1544427 -0.011164625 0.003587148 0.1371389 0.122762516
0.044315286 -0.10264143 0.19227588 -0.04121918 0.16621302 -0.19892728 0.11733486 -0.0012275889
0.130604 0.050470795 -0.122058526 -0.03427408 0.03138639 -0.050836343 0.1607475 0.007238175
-0.1274598 -0.17062427 0.20730211 0.02237298 0.03652429 -0.10049823 -0.06350054 -0.04280608
-0.115079656 0.007086042 0.022205647 -0.014336302 0.14871632 0.16786982 0.13927488 -0.11616162
0.18711059 -0.044514842 0.14858542 0.18131007 0.072372444 0.07058929 -0.19467202 0.10334827
0.040032204 0.0722493 0.24731183 0.10597531 0.19518168 0.03268373 -0.08420036 0.051267546
-0.03393028 0.035809685 0.18671346 0.008446853 0.18205273 0.04582475 0.005706551 0.14275509
0.09516952 -0.02766758 0.24583523 -0.0035298676 -0.09401421 0.08759387 -0.06904388 0.086493716
-0.123465545 0.042325202 0.25644082 0.18589896 0.08791915 0.42857254 0.20151001 0.026905054
-0.028805466 -0.18284516 -0.1123192 -0.014301149 0.0048622345 -0.014855389 -0.11642591 0.087695606
0.04646944 -0.10324821 -0.12777792 0.17461117 0.1490252 0.15920275 -0.1066832 0.01936354
0.10995279 -0.37177837 -0.3142084 -0.15216476 -0.048781708 0.067992836 -0.12558055 0.01571831
0.09144923 -0.18095513 -0.06148561 0.092257 -0.2501287 -0.056303024 -0.05844927 -0.061776996
-0.02981313 -0.123487286 -0.018198345 -0.10164181 0.24247459 0.38101462 -0.11738668 0.09657362
0.029247727 0.07226749 -0.14748894 0.121853255 0.06961684 -0.032771297 0.13286503 0.010310706

network_body._body_endoder.seq_layers.2.bias f4 [128]
00000000: cac4 ae3c c28c 75bd a18b 7bbd b106 943c
00000010: 20bb 98bd 0634 0f3d 034d 1c3d c756 99bd
00000020: 29a0 ddbc bf9b 1ebd 9100 463c b1ff 8abd
00000030: b697 2f3d 27c3 b43c 9eb9 0abd 16a5 3cbd
00000040: e5ef f53b ddb0 e93c 26ff 9ebd 8eca 073d
00000050: 519b ba3d 65a3 853d 176e e8bc 9f52 e03b
00000060: 1329 563d 520d 73bc 62ac 1bbd d759 3cbc
00000070: 6cf1 50bd 2970 42bd ec5b e63d 61ee 11bd
00000080: 566e 9a3d b454 b53c b0e1 73bd 55ed 48bd
00000090: d236 8f3d b3ef 83bd 3b83 1bbd dd91 753c
000000a0: 1756 363c 5ccf a9bd 9858 05bb 35f5 66bd
000000b0: 0fe1 8ebc 6d6b d23d ae5b b13d 3735 8438
000000c0: 3348 b53c fd7e 373c 656d a4bd 3215 8ebd
000000d0: 0bd1 bc3d f04c 41bc 8d42 49bd 8ff4 833d
000000e0: 3744 1c3c faff b1bc 46dc 003d ef99 78bc
000000f0: 8722 58bc f49f 9f3d 54f2 243e e707 093c
00000100: d64d a33c 9638 be3d db87 3ebd 86a8 c9bd
00000110: dd37 733d c0e6 24bc 3c5a 3a3d 4216 30bd
00000120: ed60 803d a2a2 ffbb 1748 b93d 5f9b e7bc
00000130: 24b3 3b3d e50a af3c cf0a 68bc c734 c23d
00000140: d87b a8bc 682e afbb 78ab c8bd da18 b7bc
00000150: 8085 f0bd f8d2 c9bc 4b15 25bc e9d0 ad3c
00000160: 645a 493d 0abe 163d 7f53 f53c 8928 07bd
00000170: f05a 7ebd 5118 85bd aaeb e13c b2be 873d
00000180: 9aaa 7fbd 4bdb ea3d e29c b9bd 22ec 023d
00000190: dbaa 103d 5a1a 96bd 3ab9 8dbc 167e e9bc
000001a0: 8367 5b3d 711d 5fbd f11b c4bd 0e05 c63d
000001b0: ccbc b9bd cd28 8abc 1bdf b5bc ce3a a53c
000001c0: e2ea 8a3d 34d9 283d 07bd baba 19c7 e33c
000001d0: 3a91 72bd 2161 863c ac5d 453a a724 c43b
000001e0: c0b1 b0bd 3e41 71bd be29 eebc ea54 cdbc
000001f0: e3a7 e7bd 0cad a7bd 5e27 76bd 52cb 873d
0.02133407 -0.05994869 -0.061412457 0.018069597 -0.07457566 0.034961723 0.03815938 -0.074872546
-0.02705391 -0.03872275 0.012085096 -0.067870505 0.042869292 0.022065712 -0.033868425 -0.046055876
0.0075054043 0.028526718 -0.077635095 0.033152156 0.091116555 0.06525306 -0.028372807 0.0068457867
0.052285265 -0.014834719 -0.038006194 -0.011496029 -0.051011488 -0.047470246 0.112480015 -0.035627726
0.07540576 0.022135116 -0.059541404 -0.049054462 0.06992878 -0.064422034 -0.037966948 0.01498839
0.011128924 -0.08291504 -0.0020346995 -0.05638619 -0.0174413 0.10274396 0.08660065 6.3041625e-05
0.022129154 0.01119971 -0.08028678 -0.069376364 0.09219559 -0.0117981285 -0.049135733 0.0644313
0.009537748 -0.021728504 0.03146007 -0.015173419 -0.013191826 0.077941805 0.16108066 0.0083637005
0.019934576 0.09288137 -0.04651628 -0.098465964 0.059379447 -0.010064781 0.04549621 -0.042989977
0.06268487 -0.0078013698 0.09046953 -0.028272329 0.04582514 0.0213675 -0.014162733 0.09482723
-0.020566866 -0.005346108 -0.0979833 -0.022350717 -0.11744213 -0.02463673 -0.010075877 0.02121778
0.04915847 0.03680233 0.02994704 -0.03299764 -0.062098444 -0.064987786 0.027578194 0.06628169
-0.062418558 0.11467608 -0.09063126 0.031963475 0.03531919 -0.07329245 -0.017300237 -0.028502505
0.053565513 -0.054471437 -0.09575642 0.09668933 -0.09069213 -0.016865158 -0.022201112 0.020169642
0.067830816 0.041222766 -0.0014247008 0.027804898 -0.05922053 0.016403737 0.0007528912 0.0059858146
-0.08627653 -0.05890011 -0.029072639 -0.025064904 -0.11311319 -0.08187303 -0.060096137 0.06630577

network_body._body_endoder.seq_layers.4.weight f4 [128, 128]
00000000: a433 023d 7572 e03d bcad 9dba 9d16 8abd
00000010: 3a8d 28be 691a 37be 4d48 50be 7250 36be
00000020: 3c3d 293e ea08 41bc 6cbe 8ebd 2c98 e4bd
00000030: 3bb3 a9bd fb77 8bbe dd82 99bb 961d 20bd
00000040: 7154 47be 3129 8c3d a055 22be 48be 9dbd
00000050: 8eb8 3e3d e543 b13d 5ee9 923d db61 be3d
00000060: cdae 733c 5d9d d3bc 4167 c7bd 7226 18bd
00000070: 275f 0cbe 5216 f2bd 3c82 f1bd 24d8 27be
00000080: 9334 313e 6b83 0cbe 8cb6 213c a4ef fa3c
00000090: 0309 ab3d 5dd9 cf3c cb80 92bd e5f8 22be
000000a0: 6837 223e ee47 643d 1214 893e 54d5 13ba
000000b0: c905 2ebd cfb7 c2bd 656e 58be e948 0fbe
000000c0: 345f dabc 2be2 723e 588c a5bd 610d 14be
000000d0: 4d57 4fbe 1ecc f1bb 6a60 e2bd 5562 e2bd
000000e0: a51a 073d 47e7 1d3e 41e0 a6bd 5c7a 783e
000000f0: e32d 37be 7b09 fe3c d052 90be 3462 19bd
00000100: 43c9 5e3d cf00 173d b2de a2bd 4f9b ea3d
00000110: c218 97bd 8373 e9bb 81f1 57be 86eb 20bc
00000120: 0515 c7bd 2934 88bd 30cb 95be 96df 273e
00000130: 2e7c a0be e6f0 b7bc 17da 37be c315 0bbe
00000140: 2710 803d 7df7 97be 2ba6 01be 54fd 4f3d
00000150: 36c0 56be 7c54 d23d 32e1 c3bd 160c a5bd
00000160: 821a 0d3c bfc3 06bd 3e08 c2be 1a97 063e
00000170: 8453 59bc abbf 0b3e 7c2c 3fbe 7f8d 8abe
00000180: be98 e73d 8c5a 00be 0d8b 1bbe 955d 00be
00000190: 5f01 16be 9be8 273e 2857 16be 096c 3bbc
000001a0: 5ca1 0dbe b80d 36be cc30 23bd bc1a 23bd
000001b0: 0bab 833e 803c 1b3d 0eb7 c03d 5e72 cabd
000001c0: 9728 473c bed4 a4bd f170 f6bd fe21 90bb
000001d0: 13c0 adba 29b7 a53c e725 76bb 6367 43be
000001e0: d711 ae3c a795 4cbd c980 293e 2ed5 4bbd
000001f0: 998a 29be 3a61 b4be b50a 6ebe d689 30bd
00000200: aa54 85be 142e 853d aad8 323e a92d 1f3e
00000210: e9fd 66be 5513 54bd a267 acbd 6261 4d3d
00000220: ebb2 0a3e 3bff 3d3e c345 19be 91f7 193e
00000230: 42d3 8fbc d9dc 5ebe 09dd fc3c 4666 90bd
00000240: b033 663d 9fab 1a3d d262 9dbc e48f 8cbe
00000250: c868 34bd 8b00 2abe efc3 97be a23f 21be
00000260: 11a0 99be 34f1 e93c 1356 f0bd 6a9b b93d
00000270: 0f41 983c b72b ef3d 13cd 3f3d 2894 00be
00000280: ee35 7f3d 7dc7 6fbe 9263 a6bc b335 9b3d
00000290: b2d0 9fbc b60f e43d 4ef1 1cbe 5c42 27be
000002a0: ac68 1abe 7a75 4f3d 87d1 fe3b a011 893e
000002b0: 5ce9 97be cdfe 50be ab59 213d ee86 84bd
000002c0: 7a61 afbe 5e77 80bb 90f8 9f3b 0ef8 543e
000002d0: 633b a3bd 1d69 85be 8976 e3bd bdfd 8b3e
000002e0: 5f6a 3f3e 7d42 a03d 31b4 41bc 0936 31be
000002f0: b8b9 4ebc c9ab 20bd 6c03 b0bc 2130 46be
00000300: 146a 2a3c 8461 95be b2f4 94be 4e62 7d3d
00000310: 1fd1 fb3b 22d0 223e aaa7 89bc 2d40 b33d
00000320: d13b 22be 9fb1 ca3c 532e 99bc 97da 293d
00000330: 0c21 2bbd 253f 54be 3fed 9c3d c623 0ebe
00000340: 2bc7 68bd e266 76bd 2005 33be 09d0 d7bd
00000350: f5da b6bd 8d8f 613e fa5d f83d ad01 eebc
00000360: 63b2 cbbe acf5 25be 4d53 343c 4b2b a53e
00000370: 0ddc 683d 730e 883d 3916 813c b6ba 543e
00000380: c5b8 7dbe f23d fdbd 535f e0bd 53f2 41bd
00000390: 7929 113d 3bd8 093d 585f 05be 8099 d2bc
000003a0: f9e9 0a3a 7055 cc3d c3e2 183d 99d0 67be
000003b0: 66d7 33be 0154 82bd c2ec a4bc cc0c cabe
000003c0: 807e 43be a693 5d3d 8d62 c13c f96d afbe
000003d0: 90ca e5bd 4fed 323d b3ac 61be 5e96 073c
000003e0: 1f88 143c 91e9 f0bd 35ba 8b3d f09e dabd
000003f0: fe2b cabd 1b72 9abd 2351 40bd cca8 84be
0.03178753 0.10959331 -0.0012029926 -0.067425944 -0.16460124 -0.17881168 -0.2034008 -0.17804125
0.16527265 -0.01178191 -0.06969914 -0.11161837 -0.082861386 -0.27239975 -0.0046847896 -0.039090715
-0.19465806 0.06843794 -0.15852976 -0.07702309 0.046562724 0.08655528 0.071734175 0.09296008
0.014873219 -0.025831873 -0.09736491 -0.03714604 -0.13708173 -0.118206635 -0.11792418 -0.16391045
0.17305212 -0.13722007 0.009870183 0.030631848 0.08351328 0.025372202 -0.071534716 -0.15915258
0.15841448 0.05573266 0.26773125 -0.00056393933 -0.042485986 -0.09507715 -0.21135862 -0.13992657
-0.026656725 0.23719089 -0.08083409 -0.14458229 -0.20248146 -0.007379069 -0.11053546 -0.110539116
0.032984395 0.15420257 -0.08148242 0.24265426 -0.17888598 0.03101038 -0.2818818 -0.03744717
0.054391157 0.036866006 -0.07952632 0.11455404 -0.07377769 -0.007124366 -0.2108822 -0.009821778
-0.09720806 -0.06650574 -0.29256582 0.16393885 -0.31344742 -0.022453737 -0.17954288 -0.1358252
0.06253081 -0.29681006 -0.12661044 0.050778702 -0.2097176 0.1027002 -0.09564437 -0.08058946
0.008612277 -0.03290152 -0.37896913 0.13143578 -0.013264541 0.13647334 -0.18669313 -0.27061078
0.1130843 -0.12534541 -0.15189762 -0.12535699 -0.1464896 0.16397326 -0.14681685 -0.011439332
-0.13831085 -0.17778671 -0.03984146 -0.039820418 0.25716433 0.037899494 0.09409915 -0.09885095
0.0121556735 -0.0804839 -0.120332606 -0.0043985834 -0.0013256095 0.02022894 -0.0037559213 -0.19082408
0.021248741 -0.049947407 0.16553034 -0.04976385 -0.16556777 -0.35230428 -0.23246272 -0.0431002
-0.26041156 0.06502929 0.17465463 0.15544762 -0.22557797 -0.05177625 -0.08418204 0.0501417
0.13544814 0.18554394 -0.14968018 0.15035845 -0.01755679 -0.21763934 0.030867117 -0.07050757
0.056201637 0.037761327 -0.01921216 -0.2745353 -0.04404524 -0.1660177 -0.29641673 -0.1574693
-0.30004933 0.028557397 -0.11735167 0.09062846 0.01858571 0.1167826 0.046826433 -0.12556517
0.06230729 -0.23415942 -0.02031115 0.07578602 -0.019508693 0.11135809 -0.15326425 -0.16333908
-0.15078992 0.050649144 0.0077764424 0.2677126 -0.29670227 -0.20409699 0.039392155 -0.06471048
-0.34254056 -0.0039204797 0.004881926 0.2079775 -0.079703115 -0.26056758 -0.11106593 0.27342024
0.18692921 0.07825182 -0.011822746 -0.17305769 -0.012617521 -0.039226327 -0.021486007 -0.19354297
0.010401268 -0.2917596 -0.29092938 0.06186133 0.0076848413 0.15899709 -0.016803581 0.08752475
-0.1584313 0.0247429 -0.018698847 0.04146823 -0.041779563 -0.20727213 0.076624386 -0.13880834
-0.056830566 -0.06015671 -0.17482424 -0.105377264 -0.089284815 0.22027417 0.121272996 -0.029053533
-0.39784536 -0.16206998 0.011006189 0.32259592 0.05685048 0.06643381 0.015757667 0.2077435
-0.24777515 -0.12365331 -0.10955682 -0.04735024 0.035439942 0.03365348 -0.13024652 -0.02570796
0.0005299147 0.099772334 0.03732563 -0.22638167 -0.17562637 -0.06363679 -0.020132426 -0.39462888
-0.19091225 0.054095887 0.023606563 -0.3426359 -0.11220276 0.043683346 -0.22038536 0.008275596
0.009065657 -0.11763299 0.068226255 -0.10674846 -0.09871672 -0.07541295 -0.046952378 -0.25910032

network_body._body_endoder.seq_layers.4.bias f4 [128]
00000000: 9e86 0cbd 1b40 06bd d28c 953c 4531 2f39
00000010: 9793 d6bc 9ce9 843c c013 9abd 3767 f53c
00000020: 1906 223d 2505 2abd bfbd adbd fc64 0bbd
00000030: 0ae6 993d bd39 d9bd 223f 1dbe 2e51 e4bd
00000040: 18ab 1fbd c09b 58bc 5739 dc3c 4b41 503d
00000050: 4162 00bd f7dd 0e3d 3a83 e4bd 81b8 19be
00000060: 4538 49bc b2d3 4cbd 0493 103d 2bc8 113d
00000070: 959e 45bd e21c a9bd 8940 45bd 2bea e2bd
00000080: a2c8 953d 80cd 9abb 8ec9 a93d b6a8 afbd
00000090: 6c56 a2bd 0f44 84bd e998 6cbd b9b6 0b3d
000000a0: 92aa 89bd 0e5f 083d 6c78 68bc a7d5 06be
000000b0: f3c3 87bd 6bc0 4a3c fcf3 c6bd 911d 843d
000000c0: 5840 43bc b9f7 6dbd 7bb0 093a 46b4 81bd
000000d0: de93 e93c d7b2 b1bd 03a1 883d 0866 dd3c
000000e0: f075 a6bd 8167 963c 8b0a 8b3c 336d b33d
000000f0: b4c4 853c 7d86 14bc 9f13 1dbd 25ae 0e3c
00000100: 1958 8f3c cbc3 963d c468 ad3b 7041 ddbb
00000110: fa4c dab9 4769 1cbe af84 42bd 45d0 87bd
00000120: c0f8 76bd e2f9 13be ff47 173d e12b 223d
00000130: bdf0 00be a5f1 a7bd 4079 1abe ad73 7ebd
00000140: 0c5d ba3d 065e 35bd 9824 d83b 3b0e 05bd
00000150: dce5 24bd b346 4fbd 9004 9fbc ba12 9d3c
00000160: 6718 b5bd c60e 66bd 4cec bc3a 3db7 c5bc
00000170: b7b0 c2bd b762 f43c 651a f13d 71fd e9bc
00000180: 2649 18be 7f4d 093d 746f c9bc e85e 80bb
00000190: 4309 afbd e61b 08bc 2101 353d 210d cfbb
000001a0: 0ac3 02bd b9ec e1bb aa22 173c a103 c6bc
000001b0: 5bb7 16be c302 fc39 8019 663d fcf6 3ebc
000001c0: 157c 81bd 0efe 5c3d 5d06 65bd da74 913c
000001d0: e9f3 86bd 1212 813d 7fc4 d8bc a54c 79bd
000001e0: 3fd2 44bd f24e c4bd d641 193d 4fc6 cebc
000001f0: 713b d53b f3a7 70bd 0fde 13bd bccd cabc
-0.03430807 -0.03277598 0.018255625 0.00016707655 -0.026193423 0.016224675 -0.07523298 0.029956443
0.039556596 -0.041508812 -0.08483457 -0.034031853 0.075145796 -0.10606716 -0.15356115 -0.11148296
-0.038981527 -0.013220727 0.02688281 0.05084352 -0.031343702 0.03487965 -0.11157842 -0.15011789
-0.012281482 -0.050006576 0.035296455 0.035591286 -0.04824694 -0.08257462 -0.04815725 -0.1107982
0.07313658 -0.0047242045 0.08290397 -0.08577101 -0.0792664 -0.06458294 -0.057763014 0.034109805
-0.06721987 0.033293776 -0.014188867 -0.1316744 -0.06629171 0.012374978 -0.09714505 0.06450952
-0.011917196 -0.058097575 0.0005252433 -0.063332126 0.028512891 -0.08676689 0.066713355 0.027026191
-0.081279635 0.018359901 0.0169728 0.087610625 0.016329147 -0.009065268 -0.03834879 0.0087085115
0.017498063 0.07361563 0.00529203 -0.0067521855 -0.00041637552 -0.15274535 -0.04748982 -0.06631521
-0.06029582 -0.14450791 0.036933895 0.039592627 -0.12591834 -0.08200387 -0.15085316 -0.062122036
0.090997785 -0.04427912 0.006596159 -0.032484274 -0.040258273 -0.050604533 -0.019411355 0.019173969
-0.08842545 -0.056166433 0.0014413684 -0.024135226 -0.09506362 0.029832227 0.117726125 -0.028563233
-0.14871654 0.03352117 -0.024589278 -0.0039175637 -0.085466884 -0.008307433 0.04419053 -0.0063187038
-0.031924285 -0.0068946746 0.009224573 -0.024171652 -0.14718382 0.00048067243 0.056176662 -0.011655565
-0.06322495 0.053953223 -0.05591427 0.017755914 -0.06589491 0.06302275 -0.026460884 -0.06086411
-0.04805207 -0.0958537 0.0374163 -0.025241045 0.00650733 -0.05875392 -0.036100443 -0.024756305

action_model._discrete_distribution.branches.0.weight f4 [3, 128]
00000000: 2750 afbd 16f5 cd3d 999f 49bd 7a80 9cbc
00000010: 282b ef3d fc70 a1bd bb45 163e 941d bbbd
00000020: 4d8f 0dbe d450 d1bd 6026 663d 2011 57be
00000030: 0285 d53c 0bd0 42bd 4b83 9fbd bf62 87be
00000040: 08c4 fd3b 1392 bcbd 0ee7 463c ca53 2fbe
00000050: 177c 2ebd 005f 0bbe f0d5 e23d 47fc 9d3c
00000060: a22f c9bd 83ab 28bd 18bc 71bc d83c d2ba
00000070: 4e52 fb3d fa7a 36bd 61d4 e1bb f85b d63d
00000080: 838e 663d 6ceb 993d 0626 183c 4d01 92bd
00000090: 8920 e23c ca03 533d f3d3 9c3d 98ca 3dbe
000000a0: 6120 8e3b 6f39 57bc 2985 993d 9d15 553d
000000b0: 9911 3c3d 3f45 93bd 66e6 b2bd 580c adbd
000000c0: d665 9fbc cd89 533a b44d f93b 4158 a6bd
000000d0: 0917 323c f980 073d ad2c 90bc 451e efbb
000000e0: c4b4 28be 309f 5f3c 78d4 a33d 3aee b93d
000000f0: b35c 813c 64ba b93c 76c2 f83c efac 70be
00000100: 130f 993d 0252 d63d 1b6f 8cbd 0257 23bc
00000110: 049e 3dbd 0cfd a1bc 04fd b53d e029 933d
00000120: 5d12 d93c 666f dbbd 390a 293d 3ac7 34bd
00000130: 287b 0e3d 266e 1c3e e961 0bbd 9085 57bd
00000140: b74b 82bc d2c0 093e 5caa 253d ac65 c13d
00000150: af6d 7cbd 8c94 8bbc 461c 093e 37fc 08bd
00000160: fa66 d0bd 8112 80bd c17c 873d 0ddb 85bd
00000170: ec9f d6bd 1ab0 82bd 3ea3 d13d da56 ab3c
00000180: e6de 503d 0daf 32be f406 6fbc c695 053e
00000190: d69a 803a 2b84 c5bc cbf3 80bc 0a52 26bd
000001a0: 21b2 7c3c e225 ffbd 46ca e7bc a50d b2bd
000001b0: 0bf8 d73d 8159 1dbe 9d88 0abd 7bd1 0e3e
000001c0: dd8e a93d 1aed 03be 2718 3f3e 93c0 f83b
000001d0: 650b fdbc 1226 863d 19dd 1a3e 8ffa 80bd
000001e0: 26bc 46bd 0366 4f3d 38ad 0c3c e048 d53d
000001f0: b194 9c3d 3ef1 6c3d 94b9 acbb 7159 16bd
00000200: 3bd5 303d a340 08bd 3d5e bd3d 9a4d 8bbc
00000210: 02e9 d0bd 359c 693d dfcc 83bd c6d6 253d
00000220: 5ae7 ee3d 148a 193e d682 7fbe cb3e 873d
00000230: ca93 2f3e 7083 493d 7b9d 7b3d 165e 2b3e
00000240: 71d9 ba3c 266d 013e bd97 163d 512c 093e
00000250: 0f65 4a3d e197 023e b603 a7bd 34a3 953d
00000260: 5c25 bf3d a1c8 873d 8191 b4bd 2d69 203e
00000270: 6682 a63c d55f 1bbc 9309 dbbc d935 79bd
00000280: 2bf8 21be 556e 27bd 6c89 4dbe 80ad 7c3d
00000290: 0b32 993d 43fb 1ebd f0a8 04bd bbc5 d23d
000002a0: 95e4 023e 50aa 96bd 89c4 9b3c e36a 87bb
000002b0: dac1 1ebe d3b6 0b3e a529 f5bc bcb2 38be
000002c0: a7da 0a3e aa90 063e 03d3 4abe 0ea0 3a3d
000002d0: 5b01 ddbc 4467 1f3e 4364 393d 3e93 113b
000002e0: d848 d13d 4a06 d93d b279 babd 9c53 1c3d
000002f0: f98f 38bc 72c9 0fbe 7f3a 8f3d a5d2 063c
00000300: 3b41 53be e103 0cbd 5441 493e 1490 21bd
00000310: 2486 e43d 2218 463c 9d31 d6bd 6062 f5bc
00000320: a837 13be d209 fd3b 5738 de3d 3c0f 4f3d
00000330: 646a 04be 5d4b 8fbd cc6c 0b3d 0058 a33d
00000340: 8004 e73d c5de c6bd 38be 50be c68d 06be
00000350: c02c db3d 6471 8fbd d705 23bd 5861 56be
00000360: 87ef dd3d 0f12 04bd 4f39 0d3a a989 b03d
00000370: ccfc ff3d 9505 773d 89b0 67be ba5b 4ebd
00000380: ea36 8fbd deef 36be c0a8 db3d 73ae 44bd
00000390: 4bb6 4fbd 2b89 3d3c 3694 2dbd 4884 e0bd
000003a0: b6ba 343c 8acd 92bb bfbf 903d 10da 2a3c
000003b0: 29fc 16be 1f65 83bb cb66 7c3d 8b75 debd
000003c0: 784a e2bd 47f7 c9bd 65fc 81bd 8b43 a63d
000003d0: eb21 303d 7ac5 a33d b3f0 d7bd c4c7 31bd
000003e0: 3772 b13b 4a81 a83d 2658 043c c030 13be
000003f0: 29cf 21be 0711 9bbd 6aec 65be f599 fdbc
-0.0856021 0.10056512 -0.04922447 -0.019104231 0.11678153 -0.07882878 0.14675038 -0.09136501
-0.13824196 -0.10220495 0.05618894 -0.21002626 0.0260644 -0.047561686 -0.07788714 -0.26442525
0.007744316 -0.09207549 0.012140049 -0.17121807 -0.04259881 -0.13610458 0.110759616 0.019285334
-0.09823538 -0.04117919 -0.014754318 -0.0016039861 0.12271558 -0.044550873 -0.0068917726 0.104667604
0.056288254 0.07515606 0.009286409 -0.07129154 0.027603405 0.051517285 0.076576136 -0.18534315
0.004337356 -0.013136252 0.074961014 0.052022565 0.04591522 -0.07190942 -0.08735351 -0.0844962
-0.019457739 0.0008069545 0.00760814 -0.08122302 0.01086975 0.033081982 -0.017599428 -0.0072973096
-0.16475207 0.013648793 0.079995096 0.09078641 0.015791273 0.022671886 0.030366164 -0.23503469
0.07473578 0.104648605 -0.06857129 -0.009969475 -0.046293274 -0.019773982 0.088861495 0.071857214
0.026498014 -0.10714607 0.041269515 -0.04413531 0.03478542 0.15276393 -0.03402892 -0.05261761
-0.015905244 0.13452461 0.04044567 0.094432205 -0.06162804 -0.017038606 0.13389692 -0.033443656
-0.10175891 -0.06253529 0.06615592 -0.06535921 -0.104797214 -0.06381245 0.10236214 0.020915437
0.050993823 -0.17449589 -0.01458906 0.13045415 0.000981177 -0.024110874 -0.01574125 -0.040605582
0.015423329 -0.124583974 -0.028294694 -0.08694009 0.10545357 -0.15366174 -0.03382169 0.13947098
0.08279202 -0.12883416 0.18661557 0.007591316 -0.030889222 0.0655023 0.15123405 -0.0629779
-0.048519276 0.050634395 0.00858622 0.104142904 0.07645548 0.057847254 -0.005271146 -0.03670639
0.043172102 -0.033264767 0.0924649 -0.017004777 -0.10200693 0.057033736 -0.064355604 0.040488027
0.116652206 0.14994079 -0.24952254 0.06603774 0.17146221 0.049197614 0.061429482 0.1673511
0.022808762 0.12639293 0.036765803 0.13395812 0.049412783 0.1275325 -0.08155005 0.07306519
0.093332976 0.06630064 -0.08816815 0.15665121 0.02032585 -0.009483297 -0.026737964 -0.06084237
-0.15817325 -0.040876705 -0.20071954 0.0616889 0.07480248 -0.03881384 -0.032387674 0.1029162
0.1278251 -0.07356703 0.019014614 -0.004132615 -0.15503636 0.1364396 -0.029927084 -0.18036932
0.13559972 0.13141122 -0.19807057 0.045562796 -0.026978185 0.15566736 0.045261633 0.0022213007
0.10218972 0.10596903 -0.09105243 0.038165674 -0.0112647945 -0.14041689 0.06993579 0.0082289325
-0.20630352 -0.034183387 0.19653827 -0.039444044 0.11158398 0.012090715 -0.10458682 -0.029954135
-0.143767 0.007722118 0.1085059 0.050551638 -0.1293121 -0.06996796 0.034039304 0.07975769
0.11280155 -0.09710459 -0.20385063 -0.1314002 0.10701895 -0.070040494 -0.03980049 -0.20935571
0.10836702 -0.032243785 0.0005387263 0.086200066 0.12499389 0.060308058 -0.22625937 -0.050380446
-0.06992896 -0.1786494 0.10725546 -0.04801793 -0.050710957 0.011568348 -0.042377673 -0.10962731
0.0110308435 -0.0044800686 0.07067823 0.010427967 -0.14744629 -0.0040098573 0.06162147 -0.10862263
-0.1104936 -0.098616175 -0.063469686 0.081183515 0.043001097 0.0799665 -0.105439566 -0.043403402
0.005415227 0.08227785 0.008077657 -0.14374065 -0.15801682 -0.07571607 -0.22453466 -0.030957201

action_model._discrete_distribution.branches.0.bias f4 [3]
00000000: a5af 313d a6de 993c 2201 8bbd
0.0433804 0.018782925 -0.067873254

action_model._discrete_distribution.branches.1.weight f4 [2, 128]
00000000: 5fe3 873d 7d80 0f3d 8b0b b93d 9d45 a4bb
00000010: b8e4 cbbd 970f d13d ddb3 d23d b3d1 3e3d
00000020: 6baf 4c3d 8cef c23b c8a4 633d 6bf0 b23c
00000030: 70c4 72bd 5e33 0ebc 79b9 91bd 2bde 1ebe
00000040: 7b87 a4bd 3dfc 96bd 5253 e2bc 0d9d 78bd
00000050: 3475 203d 0c0d 01bd 62dd a73d 0bfb 95bc
00000060: 7250 8abd c936 333d 39f8 153e 4754 843d
00000070: 2fc6 83ba a08a 50bb 6780 06be 42e0 12be
00000080: ea7f 9b3d 4dbb 07bd 22dc 4dbd cc8c c83c
00000090: 7c8f 45be 807e d8bc f78e ad3d 09f7 80bd
000000a0: e156 f8bb 7cfe 7a3b 2e79 abbc fb48 8d3c
000000b0: e76e 523d ef0d 98bd cf71 0abc 7627 7dbd
000000c0: af5b 45bd 8c0f debc 4bbb 22bd 7dd1 a33c
000000d0: 9920 afbc bbc1 97bd 5a88 b23d c9dd a4bd
000000e0: b957 0bbc a3b1 f2bd 9c24 96bd 6ace 82bd
000000f0: 27b7 01be 4c80 94bc e8c8 ac3d fc04 b63d
00000100: ed93 203d aed4 ca3d 1a52 07bc eb3f 60be
00000110: ab6d 913d 5f4b f03b 54f0 9f3b 2983 983c
00000120: 2334 20be 4141 27bd b4eb f7bd 1e73 893c
00000130: 2eaa c33d 8ec6 d8bb aea9 a7bd dc7a 09bd
00000140: 6a58 983d 5a7a acbd 6801 a63c 24f7 6fbd
00000150: a796 96be 1c7c cb3c f331 fabb 240d 19bd
00000160: ce9e f33d 170d c03d 84f3 10bd 1cdd 7cbd
00000170: 8d9b c73d ab40 0dbe e67e db3d 4614 f6bd
00000180: dfbe 0ebe 1319 59be 8016 a53d 28e3 ac3c
00000190: 0bf6 aebd d57f a83d 1160 13bd 9da7 983c
000001a0: 1649 18bc 2f93 023e 8d98 ed3c 93e3 ffbc
000001b0: 5863 7e3c b0fc 7bbd 98ab 8fbd a016 afbc
000001c0: 07b0 493d 8ae9 903c 0831 883c 1e9a 363e
000001d0: a0dd 733d 44b3 b03d 37fb 3e3d cea5 64be
000001e0: 2c50 e83d 1941 c53c 9227 cebc 8245 9b3d
000001f0: ae22 bb3d e77d 2abe b719 35bd 4eba da3c
00000200: 4442 80bd f75e 31bd f253 e2bd 7d2a 98b9
00000210: 6e5e be3d 1af6 d5bd 64f8 c4bd 564e 89bd
00000220: 1897 43bd bd8d 83bc e4f0 4bbd 860a 54bd
00000230: 4bd9 573d 35cd e1bb 6409 a83d cd52 143e
00000240: bd21 b23d 849e b13d d021 413d 5d57 893d
00000250: f81b 40bd 3c6e 333d 9cf5 a6bd 81d3 063d
00000260: b8e7 883d 7149 33bd e5ab 10be 1788 38bd
00000270: 0a43 9b3a ef87 f33b acc5 043e b504 153e
00000280: 6df0 9fbd 0489 253d 2782 5d3d 105e b6bc
00000290: caee 483e d385 c93c dcef acbd 39c7 503d
000002a0: bad6 bd3b 64e5 04bc 3b9d c93b dd5c b0bc
000002b0: 9703 bcbc d334 863d e78f 0b3d 1d87 9e3d
000002c0: 81cd 063d 9e8a b93c 796f 593d 84d6 13bd
000002d0: a2c0 bc3c 2510 cd3d 1101 6bbd 79f5 a83d
000002e0: 17b3 8d3c 1f14 fb3d 1525 8c3d d5ef af3d
000002f0: 4d6c 023e 08a6 a53c ff36 a2bd 0371 dcbd
00000300: 0dd5 0bbd 2d3f d0bd 8d95 923c 1619 5f3e
00000310: 6150 abbd b58f 103b a3c8 943c 9db3 51bc
00000320: f057 203e fccd 093d b444 f43d c3ff c13b
00000330: e7c1 b8bd 8c64 bfbb 4d81 ad3d 11b8 993c
00000340: d507 a2bd 403c a43d f2ea a2bc a3d0 bb3d
00000350: 7aa3 863e 12f6 b6bc 0054 ddbb 2c79 4d3d
00000360: 5e20 0ebe 7b8d bbbd cbe9 b93c 12d2 803d
00000370: b556 96bd e1c5 063e cd29 00be a7be 063e
00000380: 684e f93d 7926 623e 7e91 74bd 1764 0cbd
00000390: 1a70 e53d fc5f 75bd e124 3d3d c583 c7bb
000003a0: 6ba3 60bb 111a f2bd bdb4 aebc 7429 403d
000003b0: e77c b9ba dfe4 c03c fd25 923d b20c eb3c
000003c0: e3e4 4cbd f4ec 81bb d870 25bc db96 1dbe
000003d0: 36c1 5ebd 2870 ccbd aed1 f8bc afae 6a3e
000003e0: 8195 f2bd 31fa e2bc ea43 f63c b386 8fbd
000003f0: 5820 a3bd 8e41 313e 78e6 6e3d 2430 28bc
0.066351645 0.035034645 0.09035405 -0.0050131814 -0.09955734 0.10208052 0.102882124 0.046586704
0.04997198 0.0059489664 0.05557707 0.021843156 -0.05926937 -0.008679239 -0.07115454 -0.15514438
-0.08033653 -0.073723294 -0.02762762 -0.06069665 0.039174274 -0.031506583 0.08196522 -0.018308183
-0.06753625 0.04375342 0.1464547 0.06461387 -0.001005357 -0.0031820908 -0.13134919 -0.1434336
0.07592757 -0.03313761 -0.050258763 0.0244812 -0.19293016 -0.026427507 0.08474534 -0.06297118
-0.007578716 0.0038298657 -0.020931806 0.017246714 0.051375296 -0.074245326 -0.008449986 -0.06180521
-0.04818314 -0.027107023 -0.039729398 0.019997353 -0.021377848 -0.07409998 0.08717413 -0.08050115
-0.008504801 -0.11850288 -0.073312014 -0.063870266 -0.12667523 -0.018127583 0.08436757 0.088876694
0.039203573 0.09903847 -0.008259321 -0.21899383 0.07100996 0.0073332037 0.0048809443 0.01861723
-0.15644889 -0.040833715 -0.12105504 0.016778525 0.095539436 -0.0066154664 -0.08186661 -0.033564433
0.07438739 -0.08421774 0.020264342 -0.0585853 -0.29411814 0.024839453 -0.007635349 -0.037366048
0.11895524 0.09377497 -0.035388485 -0.061734304 0.09746466 -0.137942 0.10717563 -0.120155856
-0.13939999 -0.21200971 0.08060932 0.02110441 -0.08543023 0.08227507 -0.035980288 0.018634612
-0.009294769 0.12751459 0.029003406 -0.031236446 0.015526615 -0.06152028 -0.07015151 -0.021373093
0.04924014 0.017689485 0.016624942 0.17832229 0.05953753 0.08627942 0.046626296 -0.22328874
0.113434166 0.024078893 -0.025165353 0.07581617 0.09137474 -0.1664959 -0.044213977 0.026700165
-0.06262639 -0.043303456 -0.110511675 -0.00029023355 0.09295355 -0.10447331 -0.09617689 -0.067043945
-0.047751516 -0.016058797 -0.049790278 -0.05176785 0.05269746 -0.0068909177 0.08204916 0.14484711
0.08697841 0.086728126 0.047151387 0.06706116 -0.046901673 0.0438063 -0.08152315 0.03291655
0.06684822 -0.04377121 -0.14128073 -0.04505166 0.0011845541 0.007431976 0.12966031 0.14552577
-0.078095295 0.04041387 0.0540792 -0.02226165 0.19622341 0.024599945 -0.08444187 0.050971244
0.0057934197 -0.008111332 0.0061527765 -0.021528656 -0.02295093 0.06553044 0.034072783 0.077406146
0.032910828 0.022649106 0.053084824 -0.03609325 0.023041073 0.10012845 -0.057374064 0.08249945
0.01729731 0.12259697 0.0684301 0.08590666 0.12736626 0.020220771 -0.07920646 -0.10763743
-0.034138728 -0.101683 0.017893577 0.21786913 -0.083649404 0.0022058312 0.018162077 -0.012799171
0.15658545 0.033643708 0.119271666 0.0059203818 -0.09021359 -0.0058408435 0.08471928 0.018764528
-0.0791165 0.08019304 -0.019887421 0.09170654 0.26296598 -0.022334132 -0.0067543983 0.050164387
-0.13879535 -0.09157845 0.022694489 0.06290068 -0.07340757 0.13161422 -0.12515946 0.13158666
0.12173158 0.22084989 -0.059709065 -0.03427514 0.11203022 -0.05990599 0.04617775 -0.006088706
-0.0034277092 -0.11821378 -0.021326417 0.046914533 -0.0014151604 0.023546634 0.07136152 0.028692577
-0.05002297 -0.0039650146 -0.010097705 -0.15389578 -0.05438348 -0.099823296 -0.03037342 0.22918199
-0.11844922 -0.027707191 0.03006168 -0.07008114 -0.079651535 0.17310163 0.05832526 -0.010265384

action_model._discrete_distribution.branches.1.bias f4 [2]
00000000: 5fde 4ebd 4fde 4e3d
-0.05050504 0.05050498

action_model._discrete_distribution.branches.2.weight f4 [3, 128]
00000000: d9b1 8bbd 8f76 66be 154a dabd 60f6 ad3c
00000010: 550c 6d3c e343 54bc 90f1 6d3a 792b 993d
00000020: 001a fc3d 01c4 e03d 589e 493d 9ea5 0bbd
00000030: 551d 77bc a01f 233c 3363 b53d cd7a 2fba
00000040: cee5 3e3e c181 6dbc 4230 b83b 069d 77bc
00000050: cd77 e43d 0e1d 74bd b5f2 4bbd 480c 083e
00000060: d871 a33d 4fc0 9d3d 3d34 cbbc 2ef0 43bb
00000070: 8378 043d d962 50bc 282d 303e dd2d 8b3d
00000080: 3a26 11be 5ac0 313e 767c 0a3d 0c46 033d
00000090: 58d8 a8bc 71ea 8fbb e318 b9bd a760 6b3d
000000a0: 4667 71bd f145 32bd f85f 163e ba75 c03d
000000b0: c5c5 2f3d d2be 803c 1385 e6bd a7be 59be
000000c0: 08e9 bf3d 6a4f f1bb 1317 98bd c2d6 20bc
000000d0: 7348 8d3c 9bda 883d 74c4 03be 0863 c33d
000000e0: 1909 83bd f305 633d 13d2 9b3d fe14 16be
000000f0: e47f 1ebc 5715 23bd 004b 633d 07c2 823d
00000100: fc62 b63d 9064 c5bc 309c 9ebd f04e 483d
00000110: b666 22bc 4bf0 143e d868 3a3d e433 6a3d
00000120: c833 76bd beb0 943d c37e b63d f1e6 3e3e
00000130: 1bad c6bc 300e 733e 08f3 fbb9 cb6a 293e
00000140: 622a 443d 4d01 d33d fa2c 3f3d 0b76 36bd
00000150: 3ca5 4ebd 599a 973c 2886 113e 8abf 43bd
00000160: c0b2 853b fce5 0c3c e24e f2bb 3244 8cbd
00000170: 058a 443c 37ac 403d 547d 913d a525 09bd
00000180: 7483 b03d 6afd 373d 5eb6 d33d 3d2a 943d
00000190: acb5 03bc 709e cfbd 5a48 e3bd 469b ef3c
000001a0: f317 6bbd b3a2 9ebc ad9c d03d c3d1 e73c
000001b0: 3b10 463d a7eb 273d 2752 713d dfb4 073e
000001c0: ba5f 8b3d a3a0 343e af28 593d 03b0 993d
000001d0: a3ef 9d3c 7eb7 b3bc f88e 733d 2c76 723c
000001e0: 4abf 703d 42ad 613d 29ac 6cbc 5d67 d93d
000001f0: 59ee 913d 9830 013e 99a3 163d 0271 693d
00000200: 90a2 c53d 946f 3e3e 3616 1b3e a091 80be
00000210: 01d2 84bd b163 30be 1a61 ea3d 2cef 873d
00000220: cc6c e0bd ca51 0ebe c960 b1bd 7ffa 12bd
00000230: 9898 cb3d 9554 39be 8cba aabc 2785 8f3b
00000240: 90e4 c9bd 97e8 29be 06e8 f7bd cd20 47bd
00000250: 3f40 853d 3180 74bd 2f95 083e 92a6 9f3b
00000260: f04b 803c cdaa 1d3e 743a 6dbd 8075 d4bd
00000270: a586 013d c949 c73b 8022 d5bd 8c06 0b3e
00000280: 776a b13d a179 c0bd a802 7abc 6d44 1b3d
00000290: c12a 9bbd 66b6 d6bd 4c17 033e 696d 37be
000002a0: 1c5c 0abd 8410 733d ab88 0e3c b2f2 20bd
000002b0: 538c 6a3d a6b9 bb3c 2311 a73d f0f7 193e
000002c0: a7fd a73c bda3 053e ffee 493d 6c89 e53d
000002d0: c29e 893e 768c 6abd 43ab 183e e085 e9bd
000002e0: 779d ad3c 3fcf 86bd e72e 283c 3762 5a3d
000002f0: ce45 39bd 9803 9c3d 5da2 523d bb86 553d
00000300: 1adb 97bd 689d b5bd 98a3 3c3b cbb2 14bd
00000310: 3f2e 26bd 1549 8e3c 3a52 ff3d b199 4439
00000320: 3131 413c b659 d9bd 0e79 093b 9581 6cbe
00000330: 81ad c0bd 3cb4 61be 905e 93bc 8605 c03c
00000340: d3f1 393e c1b7 0bbc d292 193d eccf 563d
00000350: 26b8 a83c f642 11bd 3446 89bc 88a8 493d
00000360: 293d 8abd 1419 efbd a285 01bd aac3 2bbe
00000370: db28 b33c c8e1 55be 2ced 37bd c93c 2f3e
00000380: 5d72 e83d 0fd6 0d3d 03bb f0bc c7dd dd3c
00000390: ea8f bb3d b619 db3d 6343 223e d814 803d
000003a0: c6bd 4ebe 223a f2bc 9575 b4bd 92bd 04be
000003b0: c55b a6bc 2686 62bc 057b 68bd ea1d 86bd
000003c0: 7f2a e7bd eeb1 cfbd dab9 e03c bf2b 21bc
000003d0: 308f d53d 5d1c 2e3d b21f 1ebe 6b0b d13d
000003e0: 6ae6 e73c 72c4 5abd 2f11 8abe e555 f13c
000003f0: 7b10 cabc a181 fd3c 37cd 4abe f2b1 b0bb
-0.06821031 -0.22506164 -0.10658661 0.021235645 0.014468272 -0.012955639 0.0009076828 0.07478995
0.123096466 0.10974885 0.049223274 -0.03409349 -0.015082677 0.00995627 0.088568114 -0.0006694019
0.18642351 -0.014496268 0.005620987 -0.015113121 0.11155663 -0.05959802 -0.04979201 0.13285935
0.07980698 0.077026956 -0.024805183 -0.0029897797 0.03234149 -0.01271888 0.17204726 0.06795857
-0.14174739 0.17358533 0.0338101 0.032049224 -0.020610973 -0.0043919613 -0.0903795 0.05746522
-0.05893638 -0.043523733 0.14685047 0.093974546 0.042913217 0.01571599 -0.11255851 -0.21264134
0.09370619 -0.007364203 -0.07426276 -0.009816827 0.01724646 0.06682321 -0.1286791 0.09540373
-0.063982196 0.055425595 0.07608428 -0.14656445 -0.009674046 -0.039815273 0.055491447 0.06384664
0.089055985 -0.024095803 -0.07744634 0.048903406 -0.0099121835 0.1454479 0.045510143 0.057178393
-0.060107976 0.072602734 0.08910897 0.18642785 -0.024252465 0.23735881 -0.00048055523 0.16544645
0.047891982 0.103029825 0.046673752 -0.04454617 -0.05045055 0.018506216 0.14211333 -0.047790088
0.0040801466 0.008599754 -0.0073946575 -0.06848945 0.011995797 0.047039237 0.071039826 -0.033483166
0.08618823 0.04491941 0.10337518 0.07234619 -0.008038919 -0.101376414 -0.11097784 0.029248845
-0.057395887 -0.01936469 0.101861335 0.028298264 0.048355322 0.04099622 0.058916237 0.1325259
0.06805368 0.17639403 0.053017315 0.07504275 0.019279307 -0.021938082 0.059462517 0.014798682
0.058776177 0.055096872 -0.014445343 0.10615418 0.07125539 0.12616193 0.036777113 0.05699254
0.09650147 0.18597251 0.15145192 -0.25111103 -0.064853676 -0.17225529 0.11444302 0.06637415
-0.10958251 -0.13898388 -0.086610384 -0.035883423 0.09941214 -0.18098672 -0.020840906 0.0043798867
-0.09858048 -0.16592632 -0.12104802 -0.048615266 0.065063946 -0.059692565 0.13338159 0.0048721517
0.01566121 0.15397187 -0.057917073 -0.10373974 0.031622548 0.006081794 -0.10406971 0.13576716
0.08662885 -0.09398199 -0.015259422 0.037907053 -0.07576514 -0.104840085 0.12801856 -0.1791283
-0.03377925 0.059341922 0.008699576 -0.039293952 0.05726273 0.022915673 0.081575654 0.15035987
0.020506693 0.13050742 0.04930019 0.11207852 0.26878935 -0.05726286 0.14909081 -0.11402488
0.02119325 -0.06582498 0.010265089 0.05331632 -0.045232587 0.07617873 0.051424373 0.052130442
-0.07414837 -0.088679135 0.0028784033 -0.036303323 -0.040571447 0.017368833 0.12466855 0.00018749271
0.011791513 -0.10612814 0.0020976695 -0.23096307 -0.09408093 -0.2204141 -0.017989427 0.023440134
0.18158655 -0.008527697 0.037493534 0.052444384 0.020595621 -0.03546425 -0.016757108 0.04923299
-0.067499466 -0.11674705 -0.031621583 -0.16773859 0.021870067 -0.2088691 -0.04490392 0.17113031
0.11349938 0.03462797 -0.02938605 0.02708329 0.09158309 0.10698263 0.15846018 0.06253976
-0.2018958 -0.029568736 -0.088114895 -0.1296294 -0.020307431 -0.013825929 -0.056757946 -0.065486744
-0.11287402 -0.10141359 0.02743237 -0.00983709 0.104277015 0.042507518 -0.15441778 0.10207256
0.028308112 -0.05341 -0.26966235 0.029459903 -0.024666062 0.030945601 -0.19804846 -0.0053923065

action_model._discrete_distribution.branches.2.bias f4 [3]
00000000: 8ba4 98bd 581c 89bc ac99 ba3d
-0.07453259 -0.016737148 0.09111342
