results/=Medium_2/Player/Player-826775.pt (torch, 890334 bytes, 72 tensors)

discrete_act_size_vector f4 [1, 4]
000000 00 00 40 40 00 00 00 40 00 00 40 40 00 00 40 40
       3.0 2.0 3.0 3.0

network_body.observation_encoder.processors.0.normalizer.running_mean f4 [14]
000000 77 14 11 c0 26 2d de c0 a0 f5 3b 40 c8 61 4e 41
       -2.266874 -6.9430113 2.9368668 12.898872
000010 fa 12 ba 40 85 35 ab 40 49 d7 c3 40 fc dd 68 bf
       5.8148165 5.350283 6.12003 -0.9096372
000020 9c aa d0 c1 88 12 c9 c0 7a 33 ad 3e 5c a0 4f bf
       -26.083305 -6.283512 0.33828336 -0.81104064
000030 a2 e2 c7 be 2b f4 95 3b
       -0.39040095 0.004576226

network_body.observation_encoder.processors.0.normalizer.running_variance f4 [14]
000000 2f 44 6b 4d 0e ac 50 45 ce d7 86 4b 19 00 5f 4d
       2.4669464e+08 3338.7534 1.767414e+07 2.3383285e+08
000010 bc a2 3d 4d 29 7e 5d 4a 44 61 6b 4a 07 09 bd 4c
       1.9884742e+08 3.6289382e+06 3.856465e+06 9.910892e+07
000020 7f 24 bc 53 bc a9 d8 52 3e 67 b0 4d 83 da 3a 4e
       1.6161323e+12 4.652803e+11 3.699445e+08 7.8372064e+08
000030 63 80 a1 4d f9 08 b3 45
       3.3869322e+08 5729.1216

network_body.processors.0.normalizer.running_mean f4 [14]
000000 77 14 11 c0 26 2d de c0 a0 f5 3b 40 c8 61 4e 41
       -2.266874 -6.9430113 2.9368668 12.898872
000010 fa 12 ba 40 85 35 ab 40 49 d7 c3 40 fc dd 68 bf
       5.8148165 5.350283 6.12003 -0.9096372
000020 9c aa d0 c1 88 12 c9 c0 7a 33 ad 3e 5c a0 4f bf
       -26.083305 -6.283512 0.33828336 -0.81104064
000030 a2 e2 c7 be 2b f4 95 3b
       -0.39040095 0.004576226

network_body.processors.0.normalizer.running_variance f4 [14]
000000 2f 44 6b 4d 0e ac 50 45 ce d7 86 4b 19 00 5f 4d
       2.4669464e+08 3338.7534 1.767414e+07 2.3383285e+08
000010 bc a2 3d 4d 29 7e 5d 4a 44 61 6b 4a 07 09 bd 4c
       1.9884742e+08 3.6289382e+06 3.856465e+06 9.910892e+07
000020 7f 24 bc 53 bc a9 d8 52 3e 67 b0 4d 83 da 3a 4e
       1.6161323e+12 4.652803e+11 3.699445e+08 7.8372064e+08
000030 63 80 a1 4d f9 08 b3 45
       3.3869322e+08 5729.1216

network_body._body_endoder.seq_layers.0.weight f4 [128, 14]
000000 c9 c4 e8 3d 1a ef 1f 3e ad a1 58 3e 8d fe 41 be
       0.11365659 0.15618554 0.21155424 -0.1894476
000010 e5 1a d9 3e 61 ac 3d be c7 73 db bd 28 3c c6 be
       0.4240333 -0.18522789 -0.10715442 -0.3871777
000020 39 d8 d6 3c 39 25 42 bf 4b da 7a 3e 44 fa f4 3c
       0.02622615 -0.7583805 0.24497335 0.029904492
000030 d4 17 22 bd a7 ec 60 3d 7a 58 c0 3e 7c 31 d7 bd
       -0.039573506 0.05491319 0.37567502 -0.10507485
000040 1b a7 03 be 8f 9b 92 3e b3 c9 01 3e d3 1b 5b bd
       -0.12856714 0.28634307 0.12674598 -0.053493332
000050 0f 95 f8 be 73 fb a1 bd 29 b2 50 3e 43 cd d3 bc
       -0.48551223 -0.07909288 0.20380463 -0.025854712
000060 dc 9b a7 3e 14 ee fe be 67 e7 28 3e a8 35 28 3e
       0.327361 -0.49791014 0.16494523 0.16426718
000070 30 98 d8 be 14 0e 4f 3d 76 da 51 3e f3 9f e4 3d
       -0.4230361 0.050550535 0.20493492 0.111633204
000080 c7 39 f7 3d 59 ad 4a be 0f f3 48 bf c8 84 2e bf
       0.12071567 -0.1979269 -0.7849588 -0.6817136
000090 01 d2 56 3c bd 5d 6d be aa 83 b3 3e 87 5b 8f 3e
       0.013111592 -0.2318029 0.3506139 0.27999517
0000a0 48 54 39 bd 04 5b 08 be 99 00 3e 3e 78 1d cd 3b
       -0.045246392 -0.1331597 0.18554915 0.0062596165
0000b0 34 30 fe be eb 8e a5 3d 28 9b 5d be 03 cd 16 3f
       -0.4964615 0.080839 -0.21641219 0.58906573
0000c0 d8 55 97 be 9a 92 d1 bd 5f dd a8 3b db 9f 05 be
       -0.2955768 -0.1023304 0.0051533426 -0.13049261
0000d0 3b 8b a6 3e c1 3e e6 bc 72 4e 22 3c 03 0c 26 be
       0.325281 -0.028106095 0.009906398 -0.1621552
0000e0 6a d1 04 3d e6 c3 76 3e be a8 e0 3d ee cd 1c 3e
       0.032426275 0.24098167 0.10969685 0.15312931
0000f0 19 b1 a5 be 8a 8d 10 bf 4d c2 56 3e eb 1c 95 be
       -0.32361677 -0.5646597 0.20972557 -0.29123625
000100 f0 fd b6 3c 2b 5c 18 bf 29 e6 47 bd 5f bd 21 bd
       0.022337884 -0.5951564 -0.048803482 -0.03948724
000110 4e 38 e1 3d 8a 45 39 be e1 67 ff be af d4 a6 3e
       0.109970674 -0.18092933 -0.4988394 0.3258414
000120 32 f9 5d 3f ab 5b f0 3d 56 62 b9 be fd 1f 5e ba
       0.86708367 0.11736234 -0.36207837 -0.00084733946
000130 c3 d5 ea bd d6 4d c6 3e 89 7a 1a bf 1c bb 3f bf
       -0.11466553 0.3873126 -0.60343224 -0.7489488
000140 1a 7f c3 3d 20 04 c7 3e c9 ca 39 be 0b dd 81 3d
       0.09545727 0.38870335 -0.18143763 0.06340989
000150 46 f2 96 3d c9 f4 c7 bd eb a1 62 be c9 1c dd 3e
       0.07370429 -0.09763486 -0.2213208 0.43186024
000160 76 a7 66 3d ae 22 96 3d 4b ad 91 3e ac 9d 19 be
       0.056312047 0.073308334 0.28452525 -0.15001553
000170 87 6f f0 bd 3a e7 44 bf 27 37 99 bd 8c e7 e0 be
       -0.11740022 -0.76915324 -0.074812226 -0.43926656
000180 91 d4 eb 3d 34 09 20 bd 7b 00 2c be 92 71 95 3e
       0.11515153 -0.039071277 -0.16797058 0.2918821
000190 f7 bf 05 be 57 0b 1e 3e a8 c5 09 bf 48 e1 06 3e
       -0.1306151 0.15434013 -0.53817225 0.13171875
0001a0 46 e6 3d 3e 78 64 89 be 36 37 50 bd bc 0e d7 3e
       0.18544874 -0.26834464 -0.050833903 0.4200343
0001b0 58 b5 55 3d 29 f7 87 bd 7f e0 2c bd 12 6e c0 3e
       0.052174896 -0.06638939 -0.042206284 0.37583977
0001c0 fb 58 02 bf 50 de 95 be 0c a9 bd 3e a1 3a be be
       -0.50917023 -0.29271173 0.37043035 -0.37154105
0001d0 48 11 69 bd 69 f0 fc 3e 19 05 6f 3d 45 ee f6 3d
       -0.056901246 0.49402168 0.05835447 0.12057165
0001e0 74 e4 61 be 32 3b 84 be b5 a3 78 3e 91 73 0f be
       -0.22059804 -0.25826412 0.242812 -0.14008929
0001f0 39 e4 16 be a8 3b d9 3d 6b 50 ea bd a5 04 d1 be
       -0.14735498 0.10607082 -0.1144112 -0.40823856
000200 a4 fc e7 be ff 5b 73 3e 5f 66 d4 be 34 4a e0 3e
       -0.45309937 0.23765562 -0.41484353 0.43806612
000210 67 fd e5 be 98 21 c5 3e c8 21 3b be 96 93 05 3e
       -0.44919893 0.38502192 -0.18274605 0.13044581
000220 30 77 e0 be a6 1e 2c 3e 0d 55 d1 3e 03 1e b3 be
       -0.43840933 0.16808566 0.408852 -0.34983835
000230 b0 41 52 bd e2 c7 2b bf 08 27 58 be 53 1a cf bd
       -0.051332176 -0.6710187 -0.21108639 -0.10112443
000240 34 37 8f 3d e1 28 1e bf 70 86 84 bd b6 c9 15 bf
       0.06992951 -0.61781126 -0.064709544 -0.5851091
000250 84 59 83 bd bb 02 2c 3e 73 3a ac be 59 03 b6 3d
       -0.06413558 0.16797917 -0.33638343 0.08887357
000260 74 25 2a 3d 9f e3 bc 3b 5a d5 ba be 1f 8e a2 be
       0.041539624 0.0057644392 -0.364909 -0.31749055
000270 01 c9 e2 3e 4c a0 0e 3d 25 47 e6 be d0 18 5a be
       0.4429398 0.03482084 -0.44976154 -0.21298528
000280 c2 76 76 be 28 73 1d be e2 d8 9c 3d 57 8e dd be
       -0.2406874 -0.1537596 0.076585546 -0.4327266
000290 c8 86 ee 3e fc 72 a4 bc 27 d0 51 bf 16 6b 1c 3d
       0.46587205 -0.02007436 -0.8195824 0.038188063
0002a0 84 d5 b5 3e de 52 c4 be fc aa 6c be db a0 32 be
       0.35514462 -0.38344473 -0.231121 -0.17444174
0002b0 5f 85 d0 3e db 9f 99 be 19 9b f7 3d ac 34 d2 bd
       0.40726754 -0.30004773 0.120901294 -0.102639526
0002c0 bc d8 37 3d c3 b1 a4 3f 20 83 37 be 86 c2 b5 3e
       0.04488443 1.2866749 -0.17921114 0.35499972
0002d0 00 37 1a 3f b4 bd d2 be b9 c1 d6 3e 95 71 82 3e
       0.60240173 -0.41160357 0.41944674 0.2547728
0002e0 71 93 be be b6 20 97 3e 88 b8 31 bb 8d 3c 0d 3f
       -0.37221864 0.29517144 -0.0027118046 0.5517052
0002f0 d3 e9 1b bf 36 a0 00 bf 90 4c 36 be d4 7d b8 3e
       -0.6090366 -0.5024446 -0.17802644 0.360335
000300 42 35 12 3f be 3f 29 bf 14 a4 16 3f 9f 84 8a 3d
       0.57112515 -0.6611289 0.58844113 0.06763577
000310 50 a5 5c 3d 6e 6d 01 3f d3 2e d7 be cb fa 6c bc
       0.05386859 0.505576 -0.42027912 -0.014464091
000320 5f cc c0 be f6 ca 87 3e fb 98 23 be 96 21 3d be
       -0.37655923 0.26522034 -0.15976326 -0.18469843
000330 5d 10 38 3f 1d ae 4e 3f ce 61 91 be 19 69 d6 be
       0.7189997 0.80734426 -0.28394932 -0.41877058
000340 c5 80 c9 3e b8 54 4a be 5d 75 91 3d f0 e3 f3 be
       0.39356056 -0.1975888 0.071024634 -0.4763484
000350 ea 4d c6 3e 56 d6 15 be 62 b1 ff 3d c6 46 a4 3e
       0.3873132 -0.14632544 0.12485005 0.32085246
000360 9d df 7d bf 80 68 64 bb 53 fe 10 3e 47 4e 1a bf
       -0.9916933 -0.0034852326 0.14159517 -0.6027569
000370 73 94 04 3f a0 b6 2e 3e a2 3d 9c be fd a4 0f 3f
       0.51789016 0.17061853 -0.30515772 0.5611113
000380 e2 56 54 be d5 ff be bd 60 cf 9d 3e 2d e6 5f 3e
       -0.20736268 -0.0932614 0.30822277 0.21865149
000390 d2 67 c7 bd bb 43 58 3d e5 c2 2a be 8e 25 0f 3f
       -0.09736599 0.052798968 -0.16675909 0.5591668
0003a0 35 98 39 3f 9a 99 80 3e b5 07 f3 be fe 45 b6 be
       0.72497874 0.2511719 -0.47466817 -0.35600275
0003b0 85 be 87 bf 3e b6 78 be 3c 6e f5 3e 24 f1 e3 be
       -1.0605017 -0.2428827 0.47935665 -0.44519913
0003c0 55 ac 75 be b2 2e 07 3f 14 15 a9 be 65 75 0a 3f
       -0.2399152 0.52805626 -0.33023894 0.5408538
0003d0 e3 22 eb be c4 e8 bb 3e b1 ef 94 be a4 2d db be
       -0.45925054 0.36701024 -0.2908912 -0.4280826
0003e0 b6 66 f8 bd cf 47 18 bf 8a 9b e3 bd b5 b2 b8 3d
       -0.121289656 -0.5948457 -0.11113651 0.09018461
0003f0 6d a4 d6 bc e9 6b 56 be 3d e2 b2 ba 0e e9 63 3c
       -0.026201451 -0.20939602 -0.0013647747 0.013910545

network_body._body_endoder.seq_layers.0.bias f4 [128]
000000 00 6d d8 3d e2 d3 ba bb 18 4d 44 3e 9f c2 e0 3d
       0.10567665 -0.005701528 0.19170034 0.10974621
000010 93 c2 60 bc a2 d4 07 3e dc 29 ab 3d 8b 0a bc bc
       -0.013718265 0.13264707 0.083575934 -0.022954246
000020 c9 29 24 3c 1c c2 96 bc 42 3e 86 bd de ff 58 3e
       0.010019728 -0.018403105 -0.065548435 0.21191356
000030 d4 48 39 3e c3 cd 18 bc 43 72 ad bd 79 71 ca 3d
       0.18094188 -0.009326401 -0.08469059 0.098849244
000040 0b 48 28 3e 18 0e 5a 3d f9 ff 2b bd fd 72 01 bc
       0.16433732 0.053236097 -0.04199216 -0.0079009505
000050 68 d7 92 3d f3 60 6f 3d d7 b0 b4 3d 21 52 38 3e
       0.07169992 0.058442067 0.08822792 0.1800008
000060 1d 80 96 3d df 3f 77 3e 63 84 af 3c 2b 7c 9e bd
       0.073486544 0.24145459 0.021425432 -0.07738527
000070 9e d2 a7 3c 12 cc 2e bd 1f f7 d2 3c 53 b5 f4 bc
       0.020486172 -0.042675085 0.025752602 -0.029871618
000080 10 c4 e8 bd b8 80 02 bd d2 9a 84 3c 94 00 90 3d
       -0.11365521 -0.031861037 0.016187105 0.0703136
000090 fd 8e 30 3c 5b 52 18 3e b0 0f 96 bd 08 68 7d bd
       0.010776279 0.14875166 -0.07327211 -0.06186679
0000a0 ec 42 15 bd f3 59 32 3d cf 83 13 3e 6e 40 b1 3d
       -0.036440775 0.043542814 0.1440575 0.08654867
0000b0 ac a8 a2 3d 2c 79 c0 3d 36 7a 25 3d 3a 61 4d 3c
       0.07942328 0.09398112 0.040399753 0.012535388
0000c0 14 70 f1 bd c6 f3 27 be fb 57 b8 bd 66 4a 91 3d
       -0.11788955 -0.16401586 -0.09001156 0.070942685
0000d0 71 04 20 3e 99 e9 55 bd ec 21 ec bc 5f cd 4d 3d
       0.15626694 -0.05222473 -0.028824769 0.050244685
0000e0 d2 b7 7a 38 99 18 93 3c 36 31 96 bc 90 cd 19 ba
       5.977584e-05 0.017956065 -0.018334012 -0.0005867118
0000f0 dc 0d f2 bd d9 a5 76 3c 6d 07 17 bd 49 4d 53 3e
       -0.1181905 0.01505419 -0.036872316 0.2063495
000100 50 02 bb 3c 94 91 0d 3d 6b 0a ab 3c 75 c5 bf 3d
       0.022828251 0.034562662 0.020878991 0.09363834
000110 5a aa cf bd 24 5c 60 bd ce 7b c4 bc 7c 33 97 bd
       -0.10139914 -0.054775372 -0.023984816 -0.07382867
000120 f4 0d e6 3c 7e 3a 0b 3e 7a 2e 5d 3d 0b 7d 69 3d
       0.028082825 0.13596532 0.0539994 0.057004016
000130 2b 02 13 3e 78 26 49 3d b4 7b 8f 3c fc b9 ca 3d
       0.14356296 0.049108952 0.017515041 0.09898755
000140 b1 7d f7 bc 3b 88 c2 bd c5 fc 03 3e 1b 96 00 3e
       -0.030211302 -0.0949864 0.12889393 0.1255726
000150 69 44 6c 3e d2 32 f9 3c 97 d8 81 3d 69 8b d9 3c
       0.23072971 0.03041974 0.06340139 0.026555734
000160 3a 34 2c 3e 9e 1d e0 bc 2e d6 4a 3c 66 3e fd 3c
       0.16816798 -0.027357873 0.012380166 0.030913543
000170 51 42 d8 3c 5f 21 3f 3d f0 4c 3c 3d e9 85 32 bd
       0.02639881 0.046662685 0.04597181 -0.043584738
000180 66 b4 21 3d 20 88 f6 bd 37 79 10 bd e7 9f 83 bd
       0.039478682 -0.120376825 -0.03527185 -0.06426983
000190 2a fc 73 3d c9 e1 9d bd 62 03 8e bc 32 61 09 be
       0.059566654 -0.07709081 -0.017335597 -0.13415983
0001a0 4c 16 1c 3d 8b 09 92 3c 06 1e f3 3d c8 28 db 3d
       0.0381072 0.017826816 0.11870961 0.10701138
0001b0 f0 b6 cd 3d 19 4f aa 3c 9c 48 91 bd 09 ec fd 3b
       0.10044658 0.02078967 -0.07093927 0.007749085
0001c0 a0 b2 a2 3d 77 8c 0e 3d 25 93 f8 3d ed 43 07 3e
       0.07944226 0.034801926 0.121374406 0.13209505
0001d0 3e d0 17 3d 2e 66 a5 3d 25 9b 5c 3d ca af e3 3d
       0.03706383 0.0807613 0.053858895 0.111175135
0001e0 b6 7a 1b ba e7 24 c7 3c 18 96 d1 3c 6f ed 62 3d
       -0.0005931066 0.024309589 0.025584266 0.055402216
0001f0 e2 b5 30 3e 48 d3 15 3d 54 2c b1 3d cf 5a 10 3e
       0.17256883 0.036578447 0.08651033 0.1409714

network_body._body_endoder.seq_layers.2.weight f4 [128, 128]
000000 6d 52 ac bd c3 34 41 bb 47 e0 a1 bd c1 26 13 3e
       -0.08414159 -0.0029480911 -0.07904106 0.14370252
000010 c0 be 41 3e 93 fc 18 3e dc 54 51 bd b9 43 8d ba
       0.18920422 0.149401 -0.05110632 -0.0010777629
000020 c8 48 bf 3d d7 fc be 3d 6e a6 ce bd da 12 71 bd
       0.09340054 0.09325569 -0.10090338 -0.05885587
000030 70 a4 b9 bd 6f 4f b8 bb 97 b8 8c 3e 29 e3 92 3e
       -0.09064567 -0.0056247036 0.2748458 0.28688934
000040 5b 81 01 bd c2 61 a3 3e 88 f5 d2 bd 9f cc b0 bd
       -0.031617504 0.3191052 -0.103007376 -0.086327784
000050 b4 23 29 3e 27 a5 ad 3d 0a aa 95 3e 79 5e 70 3e
       0.16517526 0.08478766 0.29231292 0.23473538
000060 74 7e d2 3c 31 d4 72 bb 63 2e e5 bd c5 cb c4 bd
       0.025695063 -0.0037052745 -0.11190488 -0.096091785
000070 71 68 c1 3d 9c 01 45 3d 5d db f8 bd 3e d3 04 be
       0.09443749 0.048097238 -0.12151215 -0.12971207
000080 29 48 14 3e 4c 92 1b be a4 00 58 be af 51 ca 3d
       0.14480652 -0.15192527 -0.21093994 0.09878861
000090 de 97 8b bd 5b 2c 96 3d 9e 45 06 3c 58 55 84 3e
       -0.06816076 0.07332679 0.008195309 0.25846362
0000a0 cf 0b 67 3e 8c a1 22 be d3 6a e6 3c 00 6d ed 3d
       0.22563098 -0.15881938 0.02812711 0.11593056
0000b0 f5 2b c6 3d e9 05 6e be a5 b5 50 be 37 34 53 bd
       0.09676353 -0.23244442 -0.20381792 -0.051563468
0000c0 e4 73 1f 3d fa a7 f0 3d 1e 0e d2 bc 3f 31 f4 3d
       0.03892888 0.11750789 -0.025641497 0.119234554
0000d0 1f 30 3f 3e f0 8b 16 3e f7 c0 b0 3d 52 6e 14 3e
       0.186707 0.1470182 0.08630555 0.14495209
0000e0 5f 8a 6b bd 4e a0 00 3e bd 96 20 bd 86 2a ec bd
       -0.057505008 0.12561151 -0.039206255 -0.11531548
0000f0 73 45 79 be 7e c8 08 3e 10 05 2b bd 8f 75 21 be
       -0.24342899 0.13357732 -0.041752875 -0.15767501
000100 e4 16 3e 3e dc 55 c8 bd c8 f0 07 be 2a de 8a be
       0.1856342 -0.097820014 -0.13275445 -0.27122623
000110 a6 41 d7 3d 2f 5a 1e bd 09 0a 9d 3e 2f 23 39 be
       0.10510568 -0.038660225 0.3067172 -0.18079828
000120 ad 88 a7 bd de 46 fc bd b3 82 69 3e 4c 4f 47 3e
       -0.08180366 -0.12318204 0.22803764 0.19463843
000130 e5 87 15 3e 99 5b ce 3e 86 9e 0d be 60 d9 94 3e
       0.14602621 0.40304258 -0.13830003 0.29072094
000140 63 8f a6 3c 0a 52 e6 bc 69 69 e5 bd 71 f2 4d 3d
       0.020332044 -0.028115291 -0.11201746 0.05028004
000150 95 51 b1 bd 27 f3 af 3c 81 4b 24 be c8 e5 b2 3d
       -0.08658139 0.021478249 -0.16044427 0.087352335
000160 bf 22 76 bd e4 de 04 be be f8 59 3e 4a 1b 40 bc
       -0.06009173 -0.12975651 0.21286294 -0.011725256
000170 dc 0c 42 be 37 1c 0b bd 2b e9 b5 3d 59 22 d3 3d
       -0.18950218 -0.033962455 0.08882364 0.10309286
000180 a4 c7 68 bc 7d a7 12 be 0b c4 0e be 1f a6 52 3d
       -0.014207754 -0.14321704 -0.13941972 0.051427957
000190 d1 fe e0 be d9 56 cf 3d a1 22 f8 3d e5 7b 9b bd
       -0.4394441 0.10123987 0.1211598 -0.075919904
0001a0 a2 d0 75 bd 17 28 53 be b5 66 54 be 7a 2e ad 3c
       -0.06001342 -0.20620762 -0.20742305 0.021140326
0001b0 e4 e6 e2 3c 7e 8f 09 3e 5e df c7 bb cb b3 96 3d
       0.027697988 0.13433644 -0.0060996255 0.073585115
0001c0 02 e7 7d 3d cd e2 95 3e 83 8b 00 3e 04 e5 08 be
       0.061987884 0.29274598 0.1255322 -0.13368613
0001d0 8d 1a 9c 3e 59 fa 68 3d 11 8e 67 3d e3 12 a0 3d
       0.30489007 0.056879375 0.05653197 0.07816102
0001e0 80 5f fb 3d 3b 58 1f be e5 d5 2a 3e be 88 4b bb
       0.122740746 -0.15561001 0.16683157 -0.0031056846
0001f0 ec aa 4b ba 8e 36 e3 3c 64 1b 3d 3d db 67 a4 3d
       -0.0007769305 0.027735975 0.0461687 0.08027621
000200 f7 ba 32 3e ac ea 88 3c ab b5 f8 3d ee e7 01 be
       0.17454134 0.016713463 0.121440254 -0.1268613
000210 82 77 89 3d ed 71 2d be 1b 28 1d 3d 0b 55 c2 3c
       0.067122474 -0.1693799 0.038368326 0.023722192
000220 af b5 4f 3c fe d2 2a bd 15 26 29 3e 70 ed 59 be
       0.012677594 -0.041705124 0.16518433 -0.21281981
000230 62 fc 89 3e a1 57 0b 3d 60 c9 e4 3c 94 18 d9 bd
       0.26950365 0.034019116 0.027928054 -0.10600391
000240 75 12 9c be 28 50 44 be ca d6 84 3e 22 74 20 be
       -0.30482832 -0.19171202 0.2594512 -0.15669301
000250 4c ac 97 be 05 2c a9 be 76 a2 34 be 0f af 70 3e
       -0.2962364 -0.33041397 -0.17640099 0.2350428
000260 bb f2 8a 3e bc bb be bd f6 03 7c 3d b4 f6 a4 bd
       0.27138314 -0.09313151 0.061527215 -0.080548674
000270 4f 7c 83 3e 0f 93 12 3d 44 48 17 3e 56 73 42 3e
       0.25680777 0.035784777 0.14773661 0.1898931
000280 aa b6 b3 be 74 25 d5 3d 91 c0 8b 3d 51 74 6d bd
       -0.351003 0.10407534 0.068238385 -0.057972256
000290 84 cb 85 3d d1 45 8f bd 07 34 3c be 51 40 a7 3c
       0.06532958 -0.06995738 -0.18379222 0.02041641
0002a0 e2 da 97 be 71 ee 26 3e 9a a3 ec bd 18 45 c6 be
       -0.29659182 0.16301896 -0.11554642 -0.3872459
0002b0 63 81 c3 be c5 6e c4 3d 6d b8 92 3d 7a be 7a 3e
       -0.38184652 0.0959144 0.07164083 0.24486724
0002c0 e7 fb 1d 3d 94 be 5b be 39 43 8e 3d 05 c6 91 be
       0.03857031 -0.21459419 0.069464155 -0.2847139
0002d0 44 be a9 3d f4 f4 50 3e 53 08 9c bc 5e d8 39 bd
       0.082882434 0.20405942 -0.019046938 -0.04537236
0002e0 7d a8 d1 3d a9 a1 0d bc 89 88 d0 3d ad c5 47 3e
       0.10237215 -0.0086445 0.10182292 0.19509001
0002f0 7e ac 7f 3e da ce f7 3d c1 fb d3 3c 08 28 2b 3c
       0.24968144 0.12100001 0.025876882 0.010446556
000300 98 ec 82 3e 26 d9 cf 3d 5c ed ac be 87 95 36 bd
       0.25571132 0.1014884 -0.3377484 -0.044576194
000310 8c fa 11 be 8a 13 02 be 1a f9 c8 bc b9 d2 0e 3e
       -0.14255732 -0.12702766 -0.024532843 0.13947572
000320 19 e7 f4 bd a1 5c 07 bd 01 e5 86 be ab fa 40 bc
       -0.11958141 -0.033047322 -0.2634659 -0.011778514
000330 2d e2 3f be 7c 98 69 be 98 4b 16 3e d3 48 66 bb
       -0.18738623 -0.22812074 0.14677274 -0.0035138621
000340 0e 45 2b 3e 7d 4d 87 bd 64 2f a6 3d 3b ec bd bd
       0.16725561 -0.066065766 0.08114508 -0.09273573
000350 40 44 26 be 26 ee 0f 3e 17 11 41 3e 7f d1 2f 3e
       -0.16236973 0.1405569 0.18854176 0.1716976
000360 e6 13 2b 3d 03 a6 6b 3d d1 55 92 bd 68 9b b9 bd
       0.041767024 0.057531368 -0.071452744 -0.090628445
000370 12 3a e5 3d 83 f4 2f be bd fe 49 3d 2c 04 fd bd
       0.11192717 -0.17183118 0.049315203 -0.12354311
000380 d9 a2 4f be af 15 83 3d 46 63 6e 3e 21 42 9a bc
       -0.20276965 0.0640062 0.23280057 -0.01883036
000390 e0 c6 5f 3c 6d 8c 79 3c 71 fe 81 3b 84 5e 69 3e
       0.013658255 0.015231234 0.0039670994 0.22789961
0003a0 4c b9 a3 3a 1c 2f 37 be 0d 40 4a 3e a5 0e e6 bd
       0.0012491136 -0.17889065 0.19750996 -0.11233262
0003b0 6e 94 02 bd 39 e1 76 3e 4c a1 fb bd ea 1e 07 be
       -0.031879835 0.24109353 -0.12286624 -0.13195387
0003c0 e8 4f 90 be b4 4b d0 be b9 96 17 be 3b 0a 6b be
       -0.28185964 -0.40682757 -0.1480359 -0.22953121
0003d0 10 49 13 3d f3 2a a6 3d 6d 62 ba bd 86 78 60 bd
       0.03595835 0.08113661 -0.091008045 -0.05480244
0003e0 f8 92 0c be 02 79 57 3e 74 1d 96 3c 2b ce 13 3c
       -0.13727939 0.21042255 0.018324591 0.009021322
0003f0 6c 85 55 bd 49 52 46 be 9e e7 85 be c2 7c 6a be
       -0.052129194 -0.19367327 -0.26153272 -0.22899154

network_body._body_endoder.seq_layers.2.bias f4 [128]
000000 6a 02 33 bb fd a2 be 3c 05 5b d9 3d 16 76 f2 bd
       -0.0027314671 0.023271078 0.10613064 -0.11838929
000010 26 bf 07 be 92 08 4f 3c 92 d6 08 be 00 96 35 bd
       -0.13256511 0.012636321 -0.13363102 -0.044332504
000020 bd 36 f0 bc e5 8c ea 3d dd a1 7b bc 84 a9 0d 3e
       -0.029322976 0.11452655 -0.015358415 0.13834196
000030 19 a7 cb bd 45 1f b7 3d cb a5 92 3c 49 dc 9e 3c
       -0.09943981 0.08941511 0.017901322 0.01939215
000040 1a fc 15 3d 9d c9 d3 3d 47 e3 c1 bd 65 d9 5b 3d
       0.036617376 0.10341189 -0.09467178 0.05367412
000050 77 aa b2 3d f5 d9 72 bd 0d 4d 83 bc bc c6 b1 bc
       0.0872392 -0.05928989 -0.016027952 -0.02170121
000060 4b 2d 43 3d 73 7a 21 bd d2 84 75 bd fe ce fa bc
       0.047650617 -0.039423417 -0.05994112 -0.03061628
000070 ce 59 30 bd 46 49 95 bc 69 f8 54 3d 65 a0 1d 3e
       -0.043054394 -0.018223416 0.051994715 0.15393217
000080 af 67 d6 3d bc cf 15 3e 6d 7f fc bd 10 88 29 3d
       0.10468995 0.14630026 -0.12328992 0.041389525
000090 6f a3 0f bd 3a 33 4f bd 2f 23 63 3d 30 95 6c bd
       -0.03506797 -0.050585963 0.055453476 -0.057759464
0000a0 2b a8 d6 3d 70 18 d1 bd 7a e2 36 be 1f 66 0e 3e
       0.10481294 -0.10209739 -0.17859831 0.13906144
0000b0 30 6e c1 3c de 3d 8d ba 7f 91 e7 bc 91 a3 a3 ba
       0.023612112 -0.0010775884 -0.02826762 -0.001248466
0000c0 0b c9 7a 3d 67 53 72 bd 8c 9a d5 39 b0 19 78 3c
       0.061226886 -0.05916157 0.00040741672 0.015142843
0000d0 5d dd 58 3d 73 dd 9f bd e5 a1 af bd 99 0b 38 3d
       0.052945483 -0.0780591 -0.08575801 0.044932935
0000e0 a5 11 5a 3d 8a 66 dd 3c ef 3d d0 bc c9 a2 89 3c
       0.053239483 0.027026433 -0.025420157 0.016801255
0000f0 2b 52 ae 3d 88 b3 7d bd 2d a1 33 3c 43 a2 aa bd
       0.08511766 -0.061938792 0.01096372 -0.0833173
000100 c6 8e 62 bc 36 4b 81 3b f8 56 3f 3d 58 37 40 bd
       -0.013827985 0.0039457334 0.0467138 -0.04692778
000110 36 d6 5e bd 6c 75 86 3d f8 96 3b bc 72 f2 76 bb
       -0.054403506 0.06565365 -0.011449568 -0.003768113
000120 d6 f6 1b bb b9 5a 1a 3c e7 02 17 be 70 0e 1c 3c
       -0.0023798249 0.009421044 -0.14747201 0.009524927
000130 ef 44 a8 bd 45 2e d7 bd cf 9d 0b be e4 eb 9b bc
       -0.08216273 -0.10506872 -0.13634418 -0.01903338
000140 f1 c5 fa bc e0 1d a8 bc a0 20 7d bd 95 1a e5 bd
       -0.030611964 -0.020522058 -0.06179869 -0.11186711
000150 b6 0b 85 bc 30 4e 84 3d 35 b9 11 bd 53 54 a9 3c
       -0.016240936 0.064602256 -0.035577018 0.020670092
000160 37 00 3c bd 13 03 84 3d 6f 3d 81 bd b6 61 b7 bd
       -0.045898642 0.06445899 -0.06310546 -0.08954184
000170 3f fa eb bd a4 22 b5 bc 08 36 ce 3c 5a 73 a9 3c
       -0.1152234 -0.022111244 0.025172248 0.020684887
000180 e5 66 69 bc 9e 95 a4 bc e4 6d 2a bd 71 c8 9b 3d
       -0.014245723 -0.020090874 -0.041608706 0.076065905
000190 e6 a2 3e 3d 0c 98 ce 3d 03 f2 d3 3b dd b1 50 bd
       0.04654207 0.100875944 0.006468059 -0.050950874
0001a0 6a 42 67 bd 91 26 4b bd ff 04 48 3d 80 3c 75 3d
       -0.05645982 -0.049597327 0.04883289 0.05987215
0001b0 36 11 bb 3d 8a 05 b9 3b 88 34 54 3b b2 78 2f 3d
       0.09134142 0.0056464123 0.0032379944 0.042839713
0001c0 00 35 6c bd 70 dc 0a 3e 47 e8 ca bc a4 aa 4e 3d
       -0.057667732 0.13560653 -0.024768962 0.050455704
0001d0 be 25 24 3b 84 f3 ea bd 1e 0e 87 bd d7 d2 71 bd
       0.002504691 -0.11472228 -0.065944895 -0.059038963
0001e0 03 ac b3 3d 29 46 05 bd bf c9 f9 bd fb 5e 24 be
       0.08773043 -0.032537613 -0.12196683 -0.16051857
0001f0 44 67 17 3d b8 c0 2b 3d 57 40 c4 3c ae a5 12 3e
       0.036963716 0.041931838 0.02395646 0.14321014

network_body._body_endoder.seq_layers.4.weight f4 [128, 128]
000000 e6 12 5b be 60 ce 34 bd 22 1d 32 bd 45 15 fc 3d
       -0.21393928 -0.044142127 -0.043484814 0.12308744
000010 c7 5d a6 be 22 4f 8c 3e f2 4d 3f be 69 46 4d bd
       -0.3249342 0.27404124 -0.18682078 -0.050115976
000020 0b 3b b9 3e 8c b9 07 3e 89 10 7f 3d bf 72 2a be
       0.3617786 0.13254374 0.06227163 -0.16645335
000030 53 39 9c 3d ad ff 97 be 40 65 4b be bd bf 95 bc
       0.07628121 -0.29687253 -0.19862843 -0.018279904
000040 0f ab 68 bd be 24 8d 3c 28 7b af bc b9 1b 15 3e
       -0.05680376 0.017229434 -0.02142103 0.14561357
000050 a8 dd 21 3e 33 e0 05 be a8 35 2a 3e 4b 78 74 3e
       0.15807211 -0.13073806 0.1662203 0.23874013
000060 dc 68 fa 3d 93 6a 8c bd a6 64 13 3d 0b cf a7 3d
       0.122270316 -0.06856265 0.035984658 0.08193787
000070 d8 c5 14 3e bf 11 9c bd ed e8 8b 3e 83 d8 56 be
       0.14528596 -0.07620572 0.27326146 -0.2098103
000080 84 2b 77 be 05 34 95 bd b1 c2 5b be 31 c4 dc 3d
       -0.24137694 -0.072853126 -0.21460988 0.10779608
000090 89 2c 2a 3d 09 4a 7b 3d 57 9f ae be 0d aa 00 bf
       0.04154638 0.061349902 -0.34105942 -0.50259477
0000a0 3b 29 8a 3d 01 d1 0b be b1 c1 6e be 62 52 35 3d
       0.06746145 -0.13653947 -0.23316075 0.04426802
0000b0 be d9 0e be 4b ac 25 3e 6e 3a 4d 3d da 92 14 be
       -0.1395025 0.16179006 0.05010455 -0.14509144
0000c0 e8 e8 b2 be b8 07 35 be 7b 51 85 be 59 bd 5f be
       -0.34943318 -0.17678726 -0.26038727 -0.21849574
0000d0 c2 e7 e3 3d 83 1b 94 3c b6 9d bc be ad 54 32 3e
       0.11128189 0.018079525 -0.36839074 0.17415114
0000e0 c1 a0 98 bc ec e0 3a be 70 46 71 bd 32 ca 83 be
       -0.018631341 -0.18249863 -0.058905065 -0.257402
0000f0 b7 03 86 be 48 8c ca bd 5b bc 7d 3d cd 15 2b 3e
       -0.2617471 -0.09890038 0.061947208 0.16707535
000100 0d a2 0a be 45 ab e8 bd e2 4d 20 3e 4a 43 a3 bd
       -0.1353838 -0.11360792 0.1565471 -0.07971819
000110 77 74 a1 3c 51 ff ca bd 28 5f a2 3d 8b f1 f9 bc
       0.019708855 -0.09911979 0.07928306 -0.030510684
000120 53 c7 c6 bd fd bd 83 be ff dc c7 3d d2 c8 24 be
       -0.09705987 -0.25730887 0.097589485 -0.16092232
000130 3a 3d 94 be 93 0d f7 bd 36 fa 93 be 7b 03 e5 3d
       -0.28952962 -0.12063136 -0.28901833 0.111823045
000140 bc 84 8e bd 1e 65 c9 3d 6b 0c 27 3e 45 d3 82 bd
       -0.06958911 0.0983374 0.16313331 -0.06387953
000150 30 fc 02 be 6f 79 16 3e 55 f1 85 bd b1 1f 19 bd
       -0.12791514 0.1469476 -0.06540171 -0.03738374
000160 55 af 37 be 82 d5 66 bd ac 90 df bd 69 0b 63 3d
       -0.17937978 -0.05635596 -0.10916266 0.055430803
000170 a7 49 7d be 66 77 b9 bd d6 d8 74 be 33 39 d2 bc
       -0.24735127 -0.090559766 -0.23910841 -0.02566204
000180 5f a0 18 bd 2f ef 19 be 0a 5b e5 bd ec 6a 0d bb
       -0.037262317 -0.15032648 -0.11199005 -0.0021578623
000190 99 8c c6 bd 83 1f bc be 21 3f 01 bd b4 95 94 be
       -0.096947856 -0.36742792 -0.031554345 -0.29020464
0001a0 e3 68 b0 3c fe 76 ce be b6 98 a3 3d 7c 24 9a be
       0.021534389 -0.4032516 0.07988112 -0.3010596
0001b0 4b 7e a6 3d 49 a5 db bd 23 e6 51 be 18 df 72 bb
       0.08129557 -0.10724885 -0.20497946 -0.0037059244
0001c0 c3 ce 38 be 40 12 a4 3c a6 f3 e8 3d 22 58 14 be
       -0.18047623 0.020028234 0.11374597 -0.14486745
0001d0 28 91 4f be 5d fd cb be 12 f6 9c be 8c f4 25 3d
       -0.20270216 -0.39841738 -0.30656487 0.04051642
0001e0 da 3b 05 be 0e 58 10 be 59 74 54 be 7b ef b1 3c
       -0.13011113 -0.1409609 -0.20747508 0.021720638
0001f0 c5 b9 fb bd 4f 86 95 bd c0 f5 1d 3e e3 c6 0e be
       -0.12291292 -0.07301008 0.15425777 -0.13943057
000200 c6 a4 0b bd 3d 46 78 be 13 0b 95 bd 93 44 c5 3e
       -0.034092687 -0.24245544 -0.07277503 0.3852888
000210 cf f1 7f be 39 29 b6 3d 90 77 92 3d 74 c6 da 3d
       -0.24994586 0.08894581 0.07151711 0.10682383
000220 a4 ae a3 bb 7b bb 5d 3c 9c 9b 7d 3e b4 ac 9b bd
       -0.004995184 0.013533468 0.24766392 -0.076013
000230 3a af 39 3e 37 10 6d 3e 56 0b 6b be 77 ef 61 be
       0.1813325 0.23150717 -0.22953543 -0.22064005
000240 4e 98 e3 3d 88 6e a8 3c a3 bc 99 3c ff 15 03 3e
       0.11113034 0.020560518 0.018766707 0.1280136
000250 3d fc 85 3d 2c b6 cc 3d ff c2 64 3d a2 1b 43 3c
       0.06542251 0.09995684 0.055850025 0.011908444
000260 43 1a 7d 3e 6d ae 41 3e 96 af 56 3e 32 09 2c bd
       0.2471705 0.18914194 0.20965418 -0.042000957
000270 f1 db b7 3d 1d c3 85 be 44 58 49 bc 2a c3 37 bd
       0.08977497 -0.26125422 -0.012289111 -0.044863857
000280 b9 1e 80 bd 79 7b bb bd cc 17 3e 3d 69 5d 3a be
       -0.0625586 -0.0915441 0.046409413 -0.18199696
000290 f3 75 6d bd 87 37 cc 3d 0f 65 3e bc 09 25 2e 3e
       -0.057973813 0.099715285 -0.011620774 0.17006315
0002a0 d9 54 8e bd 87 30 68 be da 53 f8 bb 26 e7 c1 bd
       -0.06949777 -0.22674762 -0.0075783553 -0.09467916
0002b0 37 5f 61 bd 53 4c 86 3e a5 2e 85 3c 47 a2 db 3d
       -0.055022445 0.26230106 0.016257593 0.10724311
0002c0 49 d3 33 bd 31 e0 d0 3b f7 46 41 be e3 34 0a 3e
       -0.04390267 0.006374382 -0.18874727 0.13496737
0002d0 af fc a0 3e ef 34 5c 3e 4e f7 9f 3e 26 64 39 be
       0.31442782 0.21504568 0.31243366 -0.1810461
0002e0 ac 8e b8 3d e1 c4 2d be 6e b5 d1 3d f0 4c 74 be
       0.090115875 -0.16969635 0.10239683 -0.23857474
0002f0 75 75 ae bc 5e 1b 18 be 38 15 06 bd 07 05 2d bd
       -0.021296242 -0.1485419 -0.03273508 -0.042241123
000300 57 2d 04 3c 05 c4 81 bd fe 3c d4 3d d5 05 de bd
       0.0080674505 -0.06336216 0.10363196 -0.10840956
000310 c6 c5 3c bd f1 be 2a 3b 09 67 c3 bc 5a 90 92 3e
       -0.04608705 0.0026053751 -0.023852842 0.28625757
000320 f9 c5 78 3d e3 47 5e 3e 61 c8 92 3d 86 71 ae be
       0.060735676 0.2170711 0.071671255 -0.34070987
000330 eb d6 0f bf 44 54 04 bd f8 e4 36 be 53 37 c8 be
       -0.56187314 -0.032306924 -0.17860782 -0.3910471
000340 d8 30 46 3e db e2 70 be de d6 35 be 5d cb 00 bd
       0.1935457 -0.23524038 -0.17757747 -0.031443942
000350 c2 71 61 be a7 3e 97 3e d4 7f ba 3e 84 ba b9 3c
       -0.22016051 0.29539987 0.3642565 0.022671945
000360 12 1a 8d bd 1a bd a0 bb 8d 82 7c 3d e7 b3 e3 bc
       -0.06889738 -0.004905355 0.06164794 -0.027795745
000370 f5 b5 c2 3b 52 80 9f 3d 4e e3 14 be 4c 49 9f 3e
       0.005942101 0.07788147 -0.14539835 0.3111061
000380 f9 dd 95 3e b5 cf dd 3c fe 46 35 be 14 55 95 3d
       0.29270914 0.027076581 -0.17702863 0.07291618
000390 58 ae 7c 3d d0 95 19 bd 38 b4 0d 3d 71 59 1b be
       0.061689705 -0.037496388 0.034595698 -0.15170838
0003a0 4b 88 7d 3e 26 a5 94 bd 33 52 d0 bd 99 26 92 be
       0.24759023 -0.07258062 -0.10171928 -0.28545073
0003b0 fd ed 44 be 50 8c 3d be b6 b9 49 be 93 c4 2e 3d
       -0.1923141 -0.18510556 -0.1969975 0.042667937
0003c0 bc b8 04 be 0e 3a 0e be 40 30 ee bd a8 72 c4 3d
       -0.12961096 -0.13889334 -0.11630297 0.095921814
0003d0 5a 3d 5c bd fe 93 8c 3e 54 ef a8 bd c7 9a 6b 3b
       -0.053769447 0.2745666 -0.08248773 0.0035950409
0003e0 ed 81 63 be 97 7b 1a 3e a2 47 98 be 0e 81 78 bd
       -0.22217532 0.15086208 -0.29742151 -0.06066995
0003f0 6c 53 2e 3c 78 30 b4 3d 49 fa 4a 3d c8 06 d3 bb
       0.0106400065 0.08798307 0.049555097 -0.0064400174

network_body._body_endoder.seq_layers.4.bias f4 [128]
000000 71 16 ae bc ba 33 f1 bd 64 29 c7 bd 47 3c 3c 3d
       -0.021250935 -0.11777444 -0.097246915 0.045955922
000010 c1 82 9b bd 57 75 c4 bd 21 cd 24 bc 69 9a 1d bd
       -0.07593299 -0.09592693 -0.010058672 -0.038477335
000020 e5 9b 5f 3d 75 7d 0d bd 07 3a 0c bc c3 0e a3 bd
       0.054592032 -0.034543473 -0.008558757 -0.079618
000030 d0 b7 d4 bb 10 b9 8e bc fa 8f 73 bd f4 48 13 be
       -0.0064916387 -0.017422229 -0.05946348 -0.14383298
000040 c9 91 bd bd 9d e2 9d 3c e1 ac a5 3d 65 13 20 3d
       -0.09256322 0.019273097 0.08089615 0.039080996
000050 0c f6 e7 3c 8f f5 91 bc 6d 4a a6 bd ac a5 27 bd
       0.028315566 -0.017817287 -0.08119664 -0.04092948
000060 01 22 31 bd 2b ac 33 bd f8 7a 24 3c 48 75 3c 3c
       -0.04324532 -0.043865364 0.010039084 0.011502571
000070 31 55 4e 3d 4a 3b 9f 39 cb b6 41 3d 15 ab 9f bc
       0.050374214 0.00030371017 0.047293466 -0.019490758
000080 e3 d3 1f be 89 3b 01 bd ff 0f 22 3e 1e e5 93 bd
       -0.15608172 -0.031550918 0.15826415 -0.07221435
000090 da d8 2c bd 4e 0c 47 bd f9 57 ff bd 33 0c 3c 3d
       -0.042198993 -0.04859572 -0.12467951 0.04591007
0000a0 d3 24 0b 3b 1b 22 c7 bc 70 2c 84 3d 05 00 d0 bd
       0.0021231666 -0.024308255 0.06453788 -0.10156254
0000b0 2a 1c 66 bd 35 e2 9b bd 0a cb 07 be cf e4 e0 bd
       -0.056179203 -0.07611505 -0.13261047 -0.10981142
0000c0 06 c2 d4 3d d5 0a 76 ba 68 21 55 3c 0b 43 85 bd
       0.103885695 -0.00093857694 0.013008453 -0.06506928
0000d0 4f 81 e2 bd c7 f0 0d 3b 28 4e 41 3d f6 c3 80 bc
       -0.1105982 0.0021658407 0.047193676 -0.015718441
0000e0 b1 7f a3 bd dd 63 3f 3c 9f 69 34 bc 24 5f ce bd
       -0.079833396 0.011681524 -0.01101151 -0.100767404
0000f0 77 a8 99 3c 6f 01 d8 3c 96 ce 16 be f8 b2 04 be
       0.018757088 0.026367871 -0.14727244 -0.12958896
000100 51 cf 8c bc 13 51 a9 bd 6e 74 67 be ed 35 cc bd
       -0.0171887 -0.08267417 -0.22603008 -0.09971223
000110 7d ce 16 be 82 19 bd bb c0 f4 05 bd 11 dc 18 3d
       -0.14727207 -0.005770863 -0.032704115 0.037319247
000120 55 09 ca bc 47 2c bd bd 0e 06 63 bd df 7f 9c bc
       -0.024662653 -0.09236961 -0.055425696 -0.019103942
000130 dc 3c 8b 3c 0b 15 7a bd 4d f9 2b be 62 63 35 bd
       0.016996793 -0.061055224 -0.1679432 -0.044284232
000140 57 8f 0e be 5f c8 87 bd 0b f1 30 bc 10 3a b9 bd
       -0.13921867 -0.06630015 -0.010799657 -0.09044278
000150 8b 13 56 bd 48 7b 57 3b 71 f4 70 bd 08 20 43 bd
       -0.05226473 0.0032879878 -0.058826867 -0.04763797
000160 02 e9 04 3c 48 56 39 be 4f 39 3e bb 81 ab c9 3c
       0.008112194 -0.1809932 -0.0029025858 0.024617912
000170 eb 55 38 3d e4 4a e8 bd 53 82 95 3c c6 c5 81 3a
       0.045003813 -0.11342409 0.01825062 0.000990086
000180 9a 5f b4 bc d3 90 37 bb 88 53 37 3e d2 b3 97 3c
       -0.022018243 -0.0028009906 0.17902958 0.018518362
000190 12 21 9c bd 80 d3 66 bc 9d 37 72 3d c4 3f 50 3c
       -0.07623495 -0.0140885115 0.05913507 0.012710515
0001a0 45 f7 ef bc 34 4c a9 3c f9 35 d7 3b 9d f0 cf bc
       -0.029292712 0.02066622 0.0065677133 -0.025383288
0001b0 4e c7 dd bc 5f 2f 08 bc 37 10 32 bd 71 42 a3 3c
       -0.027072575 -0.008312075 -0.043472495 0.019929143
0001c0 e2 d5 09 bd da 1d c3 3b 50 76 cf bc 6b bb 26 3e
       -0.03365124 0.0059544863 -0.02532497 0.16282432
0001d0 65 cd b4 bd b8 7f 1e bc d1 d6 82 bc 29 8c f1 3c
       -0.088282384 -0.009674005 -0.015971573 0.029485779
0001e0 44 2a 94 bd 14 37 c0 bd 93 41 f1 bd c2 ce c0 ba
       -0.07234624 -0.09385505 -0.117800854 -0.0014710056
0001f0 49 23 2c bd fa 13 8d bc c8 a5 78 3d ba ea a0 bc
       -0.042025838 -0.01722144 0.060704976 -0.019643176

action_model._discrete_distribution.branches.0.weight f4 [3, 128]
000000 1c 87 3a 3e c9 57 a7 bd a1 67 41 3d 23 22 9b 3d
       0.18215603 -0.081710406 0.04721797 0.075748704
000010 03 ab 43 3c 23 b9 09 3e 0b 93 c9 3c 01 4f 0d bb
       0.011942628 0.1344953 0.024606248 -0.0021561983
000020 74 86 01 be 0a c1 1e be 5a 33 da 3d c3 f0 13 3e
       -0.12648946 -0.15503326 0.10654326 0.14447312
000030 f2 9f 24 be 6b 7e 76 3d ef 17 8b 3d 12 0b d4 3c
       -0.1607664 0.060179155 0.06791674 0.025884185
000040 3d 7f 7a 3d f6 b1 7a be c0 db 93 bd 2c 37 76 3e
       0.0611565 -0.24481949 -0.07219648 0.24044484
000050 b1 ba 81 bd 3a 85 1e bc 00 16 84 b9 ea e8 ea bd
       -0.06334437 -0.009675318 -0.00025193393 -0.11470206
000060 84 98 ed 3d 71 bd 9e 3d 86 93 cb 3c 51 33 f3 bd
       0.11601356 0.07750977 0.024850618 -0.11875022
000070 47 9f be bd fb ab 18 bd 02 1b a4 3d ad fe 6d be
       -0.093077235 -0.03727339 0.08012964 -0.23241682
000080 db 0e ef bc 2e ae 9d bc f4 34 0d 3d 40 cd c9 3c
       -0.029181888 -0.019248094 0.03447433 0.024634004
000090 d2 f0 83 bd e9 da 00 be 5c f0 72 be 6e 3d 6d 3d
       -0.06442417 -0.12583508 -0.23724502 0.057919912
0000a0 0f 38 50 bd 62 86 03 3e d7 b3 6e 3d 8b aa da 3d
       -0.05083471 0.12844232 0.058276977 0.1067706
0000b0 82 3e 4a 3e 99 1f 76 3d 56 ae 32 3d 0c 7b 83 3d
       0.19750407 0.060088728 0.04362329 0.06419954
0000c0 73 2d 29 3e 38 f4 67 3e 14 2b 36 3e 8f 69 19 be
       0.16521244 0.22651756 0.1778987 -0.14981674
0000d0 09 e8 bd 3d d1 1a cc 3e 06 07 5a 3a 24 a8 0d be
       0.09272773 0.3986421 0.00083170866 -0.13833672
0000e0 5e c3 a3 3b a4 e7 58 3e 38 d8 0a be f8 98 44 bd
       0.004997655 0.21182114 -0.13559043 -0.047997445
0000f0 b2 40 10 3e af 79 c7 3c f6 f6 36 be 14 96 37 3e
       0.1408718 0.024350015 -0.17867646 0.17928344
000100 40 ae 53 3d f6 54 06 bc 5a 9b 5b 3e 8b ba d5 3d
       0.05167985 -0.008198967 0.2144598 0.10435971
000110 af d8 24 3e bb 2d fa 3d 64 e8 d5 3d ed c5 d2 3d
       0.16098283 0.12215754 0.104447156 0.102916576
000120 ee dc df bd e1 55 98 bd 16 7d 88 3d 42 51 ea bd
       -0.10930811 -0.07438255 0.06664483 -0.1144128
000130 d9 dc 62 bc c3 84 7e 3e 48 6e d1 3c 44 ee ac 3d
       -0.0138465995 0.24855332 0.025565282 0.08443883
000140 f0 3b 7c 3c d6 cb 4b ba e4 45 a7 3d f3 43 6b bd
       0.01539515 -0.00077742094 0.081676275 -0.05743785
000150 10 c3 ab 3d d1 32 03 bc 31 fd f3 3d c2 dd e3 bd
       0.083868146 -0.008007721 0.11913527 -0.11126281
000160 30 c7 46 bc f5 67 06 3c 29 1f a0 bd e4 ed c2 3c
       -0.012132451 0.008203496 -0.07818443 0.023795076
000170 18 de 9a bd 0c 94 8d 3c 4b 42 a0 bd e5 0f 3d 3c
       -0.07561892 0.017282508 -0.078251444 0.011539434
000180 fa 1f 4c bd f3 c3 4e bd 42 a3 69 3c 95 02 60 bd
       -0.049835183 -0.05047984 0.014260115 -0.054689962
000190 37 77 61 bd 78 21 56 bd 7c 1b ca bd c8 c4 65 3e
       -0.055045333 -0.052278012 -0.098685235 0.22438347
0001a0 93 16 2d be 11 9e ab 3d 6e 68 54 3e f0 57 17 bc
       -0.16903143 0.08379758 0.20742962 -0.0092372745
0001b0 7e 45 52 be 4c 0d 0a 3e a6 1a a8 bd be 0d ea 3d
       -0.20534322 0.13481635 -0.08208208 0.11428402
0001c0 b7 e5 6b 3e 4e 0e b0 bb ae ef a5 bd 49 58 c9 bd
       0.23036848 -0.005372799 -0.08102356 -0.09831292
0001d0 a6 2b 19 3e e3 46 ad 3d f9 84 24 bd c9 44 51 3e
       0.14958057 0.08460786 -0.040165875 0.20436396
0001e0 33 2b a9 3d bd 16 4f 3c 64 ea 21 3d 22 aa 20 3d
       0.08260193 0.012639699 0.039530173 0.03922475
0001f0 87 f1 bb bd ba b6 20 3e 4e f6 c2 bd 2e f5 ca bc
       -0.09176927 0.15694705 -0.09519635 -0.024775114
000200 86 f9 d3 3c 8e db 65 3e 3c ce 25 be 0e 96 53 3e
       0.025875818 0.22447035 -0.16191953 0.2066271
000210 36 56 6c bc 10 8d b3 be d8 60 02 bd 30 21 01 3e
       -0.014424851 -0.3506856 -0.03183064 0.12610316
000220 81 f4 0c 3e f5 0f 51 3c 40 14 38 3d 2d e1 c7 bd
       0.13765146 0.012760152 0.044941187 -0.09759746
000230 de 1d 4d 3e 7c 8a 40 3e 0b 86 7c 3d 6c 91 85 bc
       0.20030925 0.18802828 0.06165127 -0.016304694
000240 53 c2 52 bd b1 95 e3 3d 94 97 0b 3e 04 3a 6a be
       -0.051454853 0.11112536 0.13632041 -0.22873694
000250 a3 cd 74 3e a0 f1 09 be 9f a5 52 bb 12 52 8e 3e
       0.23906569 -0.13471079 -0.0032142175 0.2779699
000260 89 48 2c 3d fc dd 93 bd a6 be 3b 3e 84 df 12 bd
       0.042061362 -0.072200745 0.18334445 -0.035857692
000270 48 0e 1e 3d e1 00 59 bc 49 23 21 3d a3 7c 1d 3d
       0.03858784 -0.013244838 0.03934029 0.03844894
000280 bb e9 ae 3d 40 b6 46 3e 35 2d a6 3d c7 f8 05 be
       0.08540674 0.1940546 0.08114091 -0.13083182
000290 9f ee 98 bd 90 e2 28 3e 07 c0 62 3e 00 d1 4d be
       -0.07467388 0.16492677 0.22143565 -0.20099258
0002a0 17 8e 18 bd 5f b1 e3 3d c1 a9 e0 bd dc 26 a6 3d
       -0.037244882 0.11117815 -0.10969878 0.081128806
0002b0 d5 cd 5c be c7 ae 81 bd 2f f3 9f b9 43 01 d1 3b
       -0.21562894 -0.06332164 -0.0003050803 0.0063783242
0002c0 28 61 19 bd 11 80 05 be 10 d2 dc bd 78 27 28 3e
       -0.03744617 -0.13037135 -0.10782254 0.16421306
0002d0 69 c8 59 be 9c 3d 8a be 6a ef 8f bc 87 df 5b 3e
       -0.21267857 -0.2700013 -0.017570216 0.21471988
0002e0 fd ee d0 bd 52 18 0c 3e 3f 79 66 bd d3 e6 5a be
       -0.102018334 0.13681152 -0.056267973 -0.21377115
0002f0 c4 4d f0 3d c9 43 db ba 1b 36 cc 3d f4 23 52 be
       0.117335826 -0.0016728576 0.09971257 -0.20521528
000300 23 12 dd 3d ff be 82 3d cb cb 7e be c1 62 b7 3d
       0.10794475 0.06384086 -0.24882428 0.08954383
000310 f5 ab 4d be 02 10 bb be aa 62 56 3d 76 4b af 3d
       -0.20085128 -0.3653565 0.052340187 0.08559315
000320 f5 33 2f 3d e9 92 ec bb 3d 31 eb 3c fc a2 9f 3e
       0.04277416 -0.0072196615 0.028710002 0.31179035
000330 1c 70 24 bd 12 9b 48 3c 45 fa 0f be 96 f6 8e bd
       -0.04014598 0.012244003 -0.14060314 -0.06980626
000340 70 1c 4e bd 93 b3 c2 bc ce 1d 06 3d 19 27 09 3e
       -0.05032009 -0.023767268 0.032743268 0.13393821
000350 f2 a5 80 3c 4c 1f f4 bb c6 57 92 bd 4a c5 91 3d
       0.015704129 -0.00745002 -0.07145648 0.07117708
000360 0c 95 e0 3d 92 b7 28 3d 43 ea b0 3b 6c f9 0a bd
       0.109659284 0.04119069 0.00539902 -0.033929273
000370 35 6f 04 3e 44 62 70 be d7 61 7d bd 71 66 f6 bd
       0.12933047 -0.23474985 -0.061860885 -0.12031258
000380 31 73 e4 3d c4 0b 10 bd 93 96 d7 3d 21 22 0f 3e
       0.111547835 -0.03516747 0.10526767 0.13977863
000390 7b 37 ea 3c fc 3c 58 3e 04 ef fd 3c b2 d8 a7 3c
       0.028590908 0.21117014 0.03099776 0.02048907
0003a0 ec 4e e4 3d f6 3a 6e be 62 48 e4 bd b5 ec 3f bd
       0.11147866 -0.2326468 -0.111466184 -0.0468566
0003b0 0e d8 db 3d 9f 90 97 3d a0 49 0b 3d 96 fa 2b be
       0.107345685 0.07400631 0.03400576 -0.1679481
0003c0 a3 15 71 be 5a bd 82 be ca b7 49 3d a0 92 80 be
       -0.2354341 -0.2553509 0.04924754 -0.25111866
0003d0 67 1c 75 be 0e 87 77 3c d5 35 83 bd 77 87 79 be
       -0.23936616 0.015107883 -0.06406752 -0.24368082
0003e0 a5 15 d6 3d 89 e6 dd bd 3f 5c 29 3d 30 e5 8c bc
       0.10453347 -0.10834987 0.04134774 -0.017199129
0003f0 f1 d3 fe 3d 22 02 e3 3d ec 50 de 3e e7 f1 99 3d
       0.12442768 0.11084391 0.43421113 0.07516842

action_model._discrete_distribution.branches.0.bias f4 [3]
000000 73 88 b1 3a 19 ab 78 bd 1e a0 88 3d
       0.0013544693 -0.060710046 0.06671165

action_model._discrete_distribution.branches.1.weight f4 [2, 128]
000000 0f ae 65 be ba f3 94 bd 5b a3 32 3e 73 18 8e 3d
       -0.2242968 -0.0727305 0.17445128 0.06938257
000010 76 b5 c7 3d 95 0e 23 3e 2a 1f bf be e1 6a 43 3e
       0.09751408 0.15923531 -0.37328464 0.1908374
000020 df 06 4c 3d 08 c3 94 bd fe c0 2e bc 88 7d 04 be
       0.04981124 -0.07263762 -0.01066613 -0.12938511
000030 f8 1e 80 bd e2 fb 49 3e e1 7d c3 3c e1 4b 00 3c
       -0.06255907 0.19724992 0.023863735 0.007830591
000040 85 f7 00 bd ea cc 08 be e1 78 10 3e 26 16 a5 3c
       -0.031486053 -0.13359419 0.14108612 0.020152163
000050 69 1e d1 bc 88 e0 e8 3d 1b 33 b8 bd 0f dd 02 3d
       -0.025527196 0.11370951 -0.089941226 0.0319491
000060 94 43 46 3d 7c cc c2 3d 47 6d fc 3d 4d 98 3b 3c
       0.04840429 0.095116585 0.123255305 0.011449886
000070 66 50 6e be ae 3d 83 bc 00 cd a4 bd c3 3a cd 3c
       -0.23272857 -0.016020622 -0.08046913 0.025052434
000080 64 82 8d 3d 58 07 73 be e6 08 2b be d2 f6 02 3e
       0.06909636 -0.2373327 -0.16702613 0.12789467
000090 53 92 f5 3c af 7f 3f 3e fa a3 d2 3d 27 bf a1 bc
       0.029977 0.18701051 0.10285182 -0.019744469
0000a0 61 2f eb 3c 42 62 d5 3d 61 78 3d 3b 16 aa d8 3d
       0.028709115 0.10419132 0.0028910863 0.10579316
0000b0 66 2f 9f bd a3 65 61 bd 10 10 34 3e 78 4e 72 3d
       -0.077727124 -0.05502857 0.17584252 0.059156865
0000c0 92 69 58 3e b0 44 26 bd 3e 8a 7f be fa 6c 37 3c
       0.21134022 -0.04059285 -0.24955079 0.011195416
0000d0 5b f3 fa 3d 66 8b 1f 3e c9 c5 14 be 1c 63 69 3c
       0.122534476 0.1558052 -0.14528574 0.014244821
0000e0 51 e4 52 3d 6c 66 2a 3e 48 58 90 bd 35 f4 46 bd
       0.05148727 0.16640633 -0.07048088 -0.048572738
0000f0 02 8c 09 be f3 4d 70 3d 9c c5 74 3d d2 e3 1b 3d
       -0.13432315 0.05866809 0.059758767 0.038059063
000100 e9 53 82 bd 3c 73 a5 bc 32 de 07 3e 42 d2 03 3e
       -0.06363661 -0.02019655 0.13268355 0.12873176
000110 19 da c1 3e e3 63 19 be 60 92 4f be 0d d8 80 bd
       0.37861708 -0.1497951 -0.20270681 -0.062912084
000120 ad 70 80 3e c4 4b e5 3d 3a c2 0f 3e 1b d1 c3 bc
       0.25085965 0.11196092 0.14038935 -0.02390342
000130 4d 77 ec bd 4c 54 c6 bc 20 49 1a bd fc a8 15 3e
       -0.11546192 -0.024210118 -0.037667394 0.14615244
000140 1f d3 4b 3d e0 d6 30 39 0f 25 25 3e ce a6 a7 3d
       0.049761888 0.00016864715 0.16127418 0.08186112
000150 52 a6 69 3d 70 88 c9 bd ae b3 ba 3e 86 1d 8a 3d
       0.05704338 -0.098404765 0.3646521 0.067439124
000160 2c d6 37 3e 4c c6 41 3d 38 c1 44 bd fb 45 b7 bd
       0.17952794 0.04730825 -0.04803583 -0.089488946
000170 04 2e 1c be f9 c9 99 bd d8 73 d2 3d 53 36 46 3d
       -0.15251929 -0.07509226 0.10276002 0.04839165
000180 a9 bf a5 3d 8b ce 96 bd 2b 64 95 bc 47 91 58 bc
       0.08093197 -0.07363614 -0.01823624 -0.013218231
000190 1f 2d fd bc ba 5d a0 bd db 8f 76 3e ed 35 68 be
       -0.030905304 -0.07830377 0.24078314 -0.22676821
0001a0 3f 62 34 ba 40 93 13 bd 0b e3 00 bd b5 f0 bc bd
       -0.0006881095 -0.0360291 -0.031466525 -0.09225599
0001b0 90 e0 11 bc a2 aa b1 3a 96 69 cc 3d c9 18 36 be
       -0.0089036375 0.0013554881 0.099810764 -0.17782892
0001c0 c2 88 56 3e 2e 0c 79 3d 01 f9 97 3d ca 5b 36 bd
       0.20950606 0.06080263 0.074205406 -0.04452113
0001d0 6a 13 d1 bd 86 fe 2c be 06 0d 80 3e ff 79 de bc
       -0.10208781 -0.16893968 0.25009936 -0.027157782
0001e0 65 97 6d 3c 87 b5 c7 3d 8a 76 02 3e 80 09 c4 bd
       0.014501427 0.097514205 0.12740532 -0.095721245
0001f0 d4 13 19 3d 8e 5d bf bd 98 2d b2 3d eb db 53 bb
       0.037372425 -0.09344016 0.087001026 -0.0032327126
000200 c9 a6 66 3e d9 2f 83 3d 58 71 22 be f1 2b b6 bd
       0.22524561 0.064056106 -0.1586355 -0.088951
000210 7f 94 bd bd 37 ce 2a be 8d db c6 3e 79 e3 4d be
       -0.09256839 -0.16680227 0.3883938 -0.20106305
000220 88 5e 33 bd 42 c5 aa 3d b0 96 03 3c c6 de 03 3e
       -0.043791324 0.08338405 0.008031532 0.1287795
000230 f6 15 84 3d ea 9f 21 be 8c c2 b7 bc 36 7a 31 bd
       0.06449501 -0.15783659 -0.022431634 -0.04332944
000240 29 89 be 3c 52 d4 ee 3d d8 a7 1a be db d5 98 bc
       0.023258762 0.11661591 -0.1510309 -0.018656662
000250 ba 32 08 3d 04 4c f1 bd 7a 87 a3 3d f1 2f 1d bd
       0.0332515 -0.11782077 0.079848245 -0.0383758
000260 c6 34 25 bd 1e d7 b5 bd 32 d0 ea bd 1d 9c 38 bc
       -0.04033353 -0.08878921 -0.11465491 -0.011267689
000270 24 92 63 3e 10 4f 87 3c e3 0d e3 3d 33 15 a0 bb
       0.22223717 0.016517192 0.11086633 -0.0048853396
000280 a2 40 b4 bd 91 d4 76 3e e4 ff 29 3e 28 90 f2 bd
       -0.0880139 0.24104525 0.16601521 -0.11843902
000290 17 7e e3 bc d4 76 3b be 32 2c e2 bd b3 a5 ac 3c
       -0.027770085 -0.18307048 -0.11043586 0.021075105
0002a0 16 6c 6c bc 80 d4 bf bd fe d0 bb 3a 02 25 be bd
       -0.014430067 -0.09366703 0.0014329252 -0.092844024
0002b0 1c 55 91 3d 76 93 5f 3d 2c dd 38 be 81 14 8a bd
       0.070963115 0.05458399 -0.1805312 -0.06742192
0002c0 ce 91 56 be f4 0c 4d 3d 11 5c 7c 3e cc cc 7d 3b
       -0.20954058 0.05006118 0.24644496 0.0038726805
0002d0 69 98 06 be 88 5c 2d be 34 67 0e 3e 8f 09 01 bd
       -0.13144077 -0.16929829 0.13906556 -0.031503256
0002e0 a3 44 90 bd 01 c3 26 be 48 9c 94 3d 38 8c 1b 3d
       -0.070443414 -0.16285326 0.07256371 0.03797552
0002f0 5d 69 14 3e c5 0c 92 bd d9 6f 71 bd 87 ca 46 bd
       0.14493318 -0.07131342 -0.058944557 -0.04853299
000300 9f f2 25 3d 21 f8 7e 3c 80 1b 0b be c5 22 13 be
       0.040514585 0.015562088 -0.13584709 -0.14368732
000310 4a 43 c1 be 04 99 1b 3e d6 49 6d 3e c0 2e 1c 3d
       -0.3774665 0.1519509 0.23172697 0.03813052
000320 14 48 7a be e1 62 cc bd 16 82 0a be d9 bd 11 3d
       -0.24441558 -0.09979797 -0.13526186 0.035581443
000330 3f 7c da 3d de 86 7b 3c 65 f2 b9 3c ad ac 09 be
       0.10668229 0.015351979 0.02269859 -0.13444777
000340 b4 43 46 bd 7a 03 af 3b cc 92 1a be 46 c5 6b bd
       -0.04840441 0.0053409906 -0.15095061 -0.05756118
000350 46 f4 96 bd b2 08 de 3d 3f 58 ba be b7 2b 8e bd
       -0.0737081 0.10841502 -0.3639545 -0.06941932
000360 69 c2 2c be 18 8d 10 bd 8e a0 3e 3d 5c 8c 9b 3d
       -0.16871037 -0.035290807 0.046539836 0.07595131
000370 bc 7c 16 3e 95 06 82 3d 7b dc d4 bd a3 08 51 bd
       0.1469602 0.06348912 -0.10393616 -0.051033627
000380 3d d6 b9 bd 45 0d 9b 3d f5 bb ae 3c 1e 06 60 bc
       -0.09074066 0.0757089 0.02132986 -0.013673333
000390 5d 5d 31 3d 23 f7 99 3d 78 f4 70 be 79 e2 74 3e
       0.04330193 0.07517841 -0.23530757 0.23914517
0003a0 85 2c 6d 3b 43 62 61 3d 27 e1 2b 3d cf c7 b5 3d
       0.0036189866 0.05502535 0.04196277 0.08876001
0003b0 c4 ae 67 3c 63 ec a5 bc e5 5a b1 bd 78 72 3e 3e
       0.0141407885 -0.02025432 -0.08659915 0.18598354
0003c0 1b cf 55 be a8 81 60 bd 7c 2a 92 bd d2 3d 1e 3d
       -0.20879786 -0.05481115 -0.071370095 0.038633175
0003d0 67 4b 99 3d 9d f9 35 3e 40 4a 7b be 50 51 7c 3c
       0.07485085 0.17771001 -0.24540043 0.015400246
0003e0 a8 44 52 bc 37 5c ba bd 7b 92 df bd ea dd ca 3d
       -0.012833752 -0.0909962 -0.10916611 0.09905608
0003f0 d7 6c 32 bd de 2e a0 3d 32 7c bd bd 80 71 bd 3a
       -0.04356083 0.07821439 -0.09252204 0.0014453381

action_model._discrete_distribution.branches.1.bias f4 [2]
000000 b8 ef b4 bd c3 ef b4 3d
       -0.08834785 0.088347934
