results/Easy/Player/Player-1324341.onnx (onnx, 159076 bytes, 17 tensors)

discrete_act_size_vector f4 [1, 4]
0	0x40400000	3.0
1	0x40000000	2.0
2	0x40400000	3.0
3	0x40400000	3.0

network_body.observation_encoder.processors.0.normalizer.running_mean f4 [14]
0	0xbf1e43b4	-0.61822057
1	0xc0de3f6c	-6.945242
2	0x404bb0fe	3.1826777
3	0x416fd368	14.989113
4	0x40bca138	5.89468
5	0x40accb6e	5.3998327
6	0x40c0ef51	6.0292134
7	0xbf30db7c	-0.69084907
8	0xc0a1d4e5	-5.057238
9	0x3e959bc1	0.29220393
10	0x3f31a538	0.6939273
11	0xbebe1e70	-0.37132597
12	0xbe7428c8	-0.23843682
13	0x3b08d82d	0.0020880804

network_body._body_endoder.seq_layers.0.weight f4 [128, 14]
0	0x3eed3ea2	0.46336848
1	0x3e06f7dd	0.1318049
2	0x3e16d289	0.1472875
3	0xbe6c2374	-0.230604
4	0x3d8bfa93	0.068349026
5	0xbdc8b8be	-0.09800862
6	0xbdf16791	-0.11787332
7	0x3f466f0c	0.77513194
8	0x3f35c232	0.70999444
9	0xbe830d4a	-0.25596076
10	0x3e615ed0	0.22008824
11	0xbf013a6a	-0.5047976
12	0x3e9311bf	0.28724477
13	0xbf23cf7c	-0.6398847
14	0xbed4c6be	-0.41557878
15	0xbe8caa81	-0.27473834
16	0xbe12c11e	-0.14331481
17	0xbe19eb44	-0.15031153
18	0xbc8844d1	-0.016634377
19	0x3f337eea	0.7011553
20	0x3cc93055	0.02455918
21	0x3e65f8f5	0.22458251
22	0x3e83b396	0.2572295
23	0xbe35c52b	-0.17750995
24	0xbd4e76d9	-0.05040631
25	0xbe77589f	-0.241549
26	0xbee6f033	-0.45105132
27	0xbf74cfe6	-0.9562973
28	0xbeacf6ca	-0.33782035
29	0xbe8cf5cd	-0.2753128
30	0x3ecd805d	0.40136996
31	0xbd5c434a	-0.05377511
32	0xbf1032a2	-0.5632726
33	0xbea6a457	-0.32547256
34	0x3e65fe78	0.22460353
35	0x3e882aa5	0.26595035
36	0x3d209bd7	0.03921112
37	0x3f2fe9c9	0.687161
38	0xbdf852e0	-0.12125182
39	0x3ebb109a	0.36536103
40	0xbbbc5d03	-0.0057483925
41	0x3e4fb73b	0.2028474
42	0xbe298fe9	-0.16558804
43	0xbeab604e	-0.33471912
44	0xbea816d0	-0.32829905
45	0xbcb0c7ea	-0.021579701
46	0xbe1d3788	-0.15353215
47	0xbe910b29	-0.28328827
48	0x3e165a87	0.14682971
49	0x3dbf5469	0.09342272
50	0x3ec20540	0.3789463
51	0x3ee6bf96	0.45068043
52	0xbec43099	-0.38318327
53	0xbf0e6546	-0.5562328
54	0xbe4d2da8	-0.20036948
55	0x3c273f0a	0.010207901
56	0x3eb740c6	0.35791606
57	0xbe33f681	-0.17574503
58	0xbe33c1d2	-0.17554405
59	0x3b054297	0.002033388
60	0xbc4a1587	-0.012334234
61	0xbe657416	-0.22407565
62	0x3f115849	0.5677534
63	0xbdd7eebf	-0.10543584
64	0xbebd2610	-0.36943102
65	0x3f195eda	0.59910357
66	0xbeca5703	-0.3951951
67	0x3d93e5db	0.07221576
68	0x3f30eb41	0.6910897
69	0xbbe87f51	-0.0070952554
70	0x3eb87161	0.36024
71	0xbed91a7b	-0.42403015
72	0xbebb2d53	-0.36558017
73	0x3e2b28a8	0.16714728
74	0xbec68def	-0.38780162
75	0x3dd93baf	0.10607087
76	0x3c96e603	0.018420225
77	0xbef7b9bc	-0.48383892
78	0xbe44abb4	-0.19206125
79	0xbe7d6956	-0.24747214
80	0x3e2b893f	0.16751574
81	0xbe684916	-0.2268413
82	0xbdc67806	-0.096908614
83	0x3e5cf427	0.21577512
84	0xbe1e531b	-0.1546139
85	0x3e8ce4d6	0.27518338
86	0x3e9f713f	0.31141087
87	0xbdd62cdc	-0.10457775
88	0x3eb1ded7	0.34740326
89	0xbeba9c70	-0.36447477
90	0x3e5f631b	0.2181515
91	0x3f267f0e	0.6503762
92	0x3e60266e	0.2188966
93	0x3e64d6d9	0.22347583
94	0xbcc22d41	-0.02370322
95	0x3f06035e	0.5234889
96	0x3df4038c	0.11914739
97	0x3d1f2673	0.038855027
98	0x3e13b8b2	0.14425924
99	0xbc26a17a	-0.010170335
100	0xbed4723d	-0.41493407
101	0x3d931883	0.071824096
102	0xbeb5b3e8	-0.3548882
103	0xbe816a16	-0.2527625
104	0x3efbd17f	0.4918327
105	0xbdb6470a	-0.089002684
106	0x3d9696b0	0.0735296
107	0x3d3fe521	0.046849374
108	0x3e1fdc31	0.1561134
109	0xbf266a61	-0.6500607
110	0xbc9e8bd1	-0.019353779
111	0x3e503dd4	0.20336086
112	0xbd833168	-0.06405908
113	0x3e441df2	0.19152048
114	0x3ed487e1	0.41509917
115	0xbea1b1d9	-0.31581
116	0x3ec6a560	0.38798046
117	0x3d8ce223	0.0687907
118	0xbdba08a1	-0.09083677
119	0xbdfefc0b	-0.12450417
120	0x3ec5848c	0.38577688
121	0xbe6cbd64	-0.23119122
122	0x3e18c0ee	0.14917347
123	0xbe5c1236	-0.21491322
124	0x3d86d722	0.06584002
125	0xbe0a17bd	-0.13485618
126	0xbea8c780	-0.32964706
127	0x3eb30c50	0.3497033
128	0x3f221a46	0.6332134
129	0xbeaa5817	-0.33270332
130	0x3dee4aca	0.11635359
131	0x3eb41221	0.3517008
132	0xbe8b5d0d	-0.2721943
133	0x3d2cdfac	0.042205498
134	0xbdec5829	-0.11540253
135	0x3d0adfd5	0.03390487
136	0xbe8ef7e0	-0.2792349
137	0xbe2abc5c	-0.16673416
138	0xbe1c31ca	-0.15253368
139	0xbee5451f	-0.44779298
140	0xbc6e2032	-0.014534043
141	0x3f64da32	0.8939544
142	0xbcceb509	-0.025232809
143	0xbe2e355e	-0.17012545
144	0xbed44eb7	-0.41466305
145	0x3e960e7d	0.2930793
146	0xbe783e0f	-0.24242423
147	0xbe708b78	-0.23490703
148	0x3e1e8567	0.15480576
149	0x3dd398f0	0.10331905
150	0xbb960e42	-0.0045793364
151	0xbf1ec4d5	-0.6201909
152	0x3d84f463	0.064919256
153	0xbdc0a204	-0.09405902
154	0xbe5f57a1	-0.21810772
155	0xbe8a8d33	-0.2706085
156	0xbe67399a	-0.22580567
157	0x3c91a72e	0.017779913
158	0x3d6e51b3	0.058183383
159	0xbe5b9097	-0.21441875
160	0xbebcce5d	-0.36876193
161	0xbf42f72f	-0.7615842
162	0xbb3e3744	-0.002902464
163	0x3d523a40	0.051325083
164	0x3d098c82	0.033581264
165	0xbf617088	-0.88062334
166	0x3e6b3e38	0.22972953
167	0xbdabe530	-0.083933234
168	0xbde6ff30	-0.11279142
169	0x3de45cf7	0.11150544
170	0x3e997e82	0.2997933
171	0x3e33cc20	0.17558336
172	0x3e924950	0.28571558
173	0xbe1df5d1	-0.15425803
174	0xbe181966	-0.14853439
175	0x3f372a0c	0.71548533
176	0x3e9dde70	0.3083377
177	0x3e02b72d	0.12765189
178	0xbe873e46	-0.26414698
179	0x3f0b4884	0.54407525
180	0xbb429216	-0.0029689125
181	0x3edbfe12	0.42967278
182	0x3e4736fa	0.19454566
183	0xbf69815d	-0.9121302
184	0xbe2c590e	-0.16830847
185	0xbef289b6	-0.4737069
186	0x3e3a873a	0.18215647
187	0xbebc90ab	-0.36829123
188	0x3e3bb144	0.1832934
189	0x3e848bba	0.25887853
190	0x3b975305	0.004618051
191	0xbf073ec5	-0.52830154
192	0xbf03c431	-0.5147124
193	0xbd14b56a	-0.036305822
194	0xbcdd433a	-0.027009595
195	0xbdbc5cfd	-0.091974236
196	0x3df26f32	0.11837615
197	0xbe8e50bd	-0.27795973
198	0x3e1a24f7	0.15053163
199	0x3e02a2a0	0.12757349
200	0x3de4d5f2	0.11173619
201	0x3ebb309d	0.36560526
202	0xbe9e0f10	-0.30870867
203	0xbe1bf2f2	-0.15229395
204	0xbd03874e	-0.03211146
205	0x3e81c126	0.25342673
206	0xbe61bb03	-0.22043996
207	0xbf0fa4fe	-0.56111133
208	0x3f2b4ec6	0.66917074
209	0x3eab958a	0.33512527
210	0x3dacb73a	0.08433385
211	0x3ece1dff	0.4025726
212	0xbe210edd	-0.15728326
213	0xbe7e57bb	-0.24838154
214	0x3d8a7d9c	0.06762239
215	0x3cad909c	0.02118712
216	0x3e1db4a7	0.15400945
217	0x3ad87f70	0.0016517472
218	0x3db25925	0.08708409
219	0x3e744721	0.23855259
220	0x3deeb35c	0.11655304
221	0xbee24d5a	-0.4419964
222	0x3eec24dc	0.4612187
223	0xbd014e54	-0.03156884
224	0x3f08cace	0.53434455
225	0xbd71f290	-0.059069216
226	0x3e96528f	0.29359862
227	0xbd9488f4	-0.07252684
228	0xbe63a3ea	-0.22230497
229	0xbdc58602	-0.096447006
230	0xbe99bfa2	-0.30029017
231	0x3ecb0152	0.39649445
232	0x3b5e98ab	0.003396551
233	0x3e857c31	0.26071313
234	0x3d22ac50	0.03971511
235	0xbf0fe5ca	-0.56210005
236	0x3dd33d27	0.10314398
237	0x3e2bf4eb	0.16792648
238	0x3e742dbd	0.23845573
239	0xbee50567	-0.44730684
240	0x3dbce1b4	0.09222737
241	0x3e85f05c	0.26159942
242	0xbe93d06d	-0.28869954
243	0x3e8b88c8	0.27252793
244	0xbed104a3	-0.4082385
245	0x3e4d3411	0.20039393
246	0x3ee39fed	0.4445795
247	0xbe7350cb	-0.23761289
248	0x3f00ed14	0.5036175
249	0x3e91cb28	0.28475308
250	0x3f146599	0.57967526
251	0xbe4922a1	-0.19642116
252	0x3e05f00e	0.13079855
253	0xbe1dffcc	-0.1542961
254	0xbea15bb3	-0.31515273
255	0xbf3a1c4b	-0.7269942

network_body._body_endoder.seq_layers.0.bias f4 [128]
0	0x3d1661a0	0.036714196
1	0x3cc0b826	0.023525309
2	0x3d0bdcc8	0.0341461
3	0xbc320c8a	-0.010867247
4	0x3d986bed	0.0744246
5	0xbd985620	-0.07438302
6	0xbbd009fd	-0.006348847
7	0xbdf895df	-0.12137961
8	0x3ce66457	0.028124018
9	0xbc34145b	-0.010991181
10	0x3da4c926	0.080461785
11	0xbcdd374c	-0.027003907
12	0x3d204eed	0.03913777
13	0x3c0468fb	0.00808167
14	0xbc863149	-0.016380923
15	0xbd15146e	-0.036396436
16	0x3cab4dbb	0.020911088
17	0x3d184c93	0.037182402
18	0x3d8c61da	0.06854601
19	0x3c9abea2	0.018889729
20	0x3d915ce0	0.070977926
21	0xbcb76d51	-0.022390993
22	0xbcd49342	-0.025949124
23	0x3d228f33	0.039687347
24	0x3d68b832	0.056816287
25	0x3dbee48a	0.09320934
26	0xbc91e251	-0.017808111
27	0x3e1e4bc0	0.15458584
28	0x3d04edef	0.032453474
29	0x3d894d80	0.06704235
30	0x3d4e72ea	0.05040256
31	0xbb1114d9	-0.002213767
32	0x3d5f5afc	0.05453013
33	0x3d8cb83e	0.06871079
34	0x3d5ca402	0.053867348
35	0xbc35029f	-0.011047988
36	0x3d71488c	0.058907077
37	0x3ce57fa6	0.02801497
38	0x3cc37d0d	0.02386334
39	0x3cc0761c	0.023493819
40	0xbd841213	-0.0644876
41	0xbd0c90ad	-0.03431766
42	0x3d1b8127	0.037964966
43	0x3de2de34	0.11077538
44	0xbce3ebbe	-0.027822372
45	0xbba49029	-0.005022068
46	0x3c505e73	0.012717831
47	0x3ce03398	0.027368352
48	0x3c40d558	0.011769615
49	0x3c111f24	0.008857522
50	0x3d92a287	0.07159906
51	0x3dd4198b	0.103564344
52	0x3c33cb8e	0.010973824
53	0xbd9376ca	-0.072003916
54	0x3dca45d3	0.09876599
55	0x3d4cdb82	0.050014026
56	0x3d15b06b	0.0365452
57	0xbdda626e	-0.10663305
58	0x3d649234	0.055803493
59	0x3bafc68b	0.0053642443
60	0x3cc13f88	0.023589864
61	0x3c643363	0.013928267
62	0x3dd3aaaa	0.10335286
63	0x3df55a2a	0.11980088
64	0x3d4f19fd	0.050561894
65	0x3dcc5302	0.0997677
66	0xbd4287af	-0.04749268
67	0x3d870a8a	0.06593807
68	0x3dfda972	0.12385835
69	0x3d1761e8	0.036958605
70	0x3d86c6bb	0.065808736
71	0x3d749f8c	0.05972247
72	0x3da6b9b5	0.081408896
73	0x3d9f4126	0.07776098
74	0x3d6d23fa	0.057895638
75	0xbc64ede6	-0.013972735
76	0xbd669357	-0.056292858
77	0x3cf33677	0.029689057
78	0x3d55101c	0.052017316
79	0x3d9c7521	0.07639528
80	0xbccb907b	-0.024849167
81	0xbd934812	-0.07191481
82	0x3dd16489	0.10224254
83	0xbb8dc26b	-0.004326155
84	0x3e0c49a1	0.13699962
85	0x3d60e618	0.054906934
86	0x3d666272	0.05624623
87	0x3d2e86ad	0.042608906
88	0xbd0921fd	-0.03347968
89	0x3e1bad3b	0.15202801
90	0x3d801a72	0.06255044
91	0x3d4c2c13	0.04984672
92	0x3dfd9fb2	0.12383975
93	0x3e02227e	0.1270847
94	0x3d1a23c5	0.03763177
95	0xbc264142	-0.010147395
96	0x3e06009a	0.13086167
97	0x3d0226d7	0.03177532
98	0x3cb9389f	0.022610007
99	0x3e0ba87c	0.1363849
100	0xbdb76ef5	-0.0895671
101	0x3d163a30	0.036676586
102	0xbdadac41	-0.084801205
103	0xbd07d7c7	-0.033164766
104	0xbccc5a1a	-0.024945308
105	0x3aea59ec	0.0017879582
106	0x3d660d5e	0.05616509
107	0x3e33a53a	0.17543498
108	0x3c280ae5	0.010256504
109	0x3b17f843	0.0023188747
110	0x3e484a78	0.19559658
111	0x3d94eb2d	0.07271419
112	0x3c4fe930	0.012689874
113	0x3dacf4b5	0.08445112
114	0x3de2765f	0.11057734
115	0xbb954b58	-0.004556101
116	0x3d9f0d54	0.07766214
117	0x3d371c29	0.04470459
118	0x3d53fb6f	0.051753458
119	0x3d6c168f	0.0576387
120	0xbc92d0af	-0.017921774
121	0x3b275c7d	0.0025537305
122	0xbce3d3d8	-0.027810976
123	0x3d509aaa	0.05092875
124	0x3ce25feb	0.027633628
125	0xbcd801ea	-0.0263681
126	0xbd1f2826	-0.038856648
127	0x3cb0ead7	0.021596355

network_body._body_endoder.seq_layers.2.weight f4 [128, 128]
0	0xbe6c78b9	-0.23092927
1	0xbcef099c	-0.029179387
2	0xbdb63cdf	-0.08898329
3	0x3e2edeed	0.17077227
4	0x3cfaee33	0.03063116
5	0x3e6769f6	0.22599015
6	0xbdb5cf93	-0.08877482
7	0x3d289e0f	0.04116636
8	0x3b1322bb	0.002245112
9	0x3d6152c7	0.055010583
10	0x3ea93d79	0.33054712
11	0x3ea8fcd7	0.33005401
12	0xbe48b595	-0.19600518
13	0xbe48670e	-0.19570562
14	0x3e0b1a53	0.1358426
15	0x3d605b60	0.054774642
16	0xbe1256f7	-0.14290987
17	0xbdca6410	-0.09882367
18	0xbd33294e	-0.043740563
19	0x3e271fd1	0.16320731
20	0x3da5704e	0.08078061
21	0x3ddee344	0.10883191
22	0xbd0b1289	-0.033953223
23	0xbd725264	-0.059160605
24	0x3de5e380	0.11225033
25	0xbd101e53	-0.03518517
26	0x3e252162	0.16126016
27	0xbda8f8e3	-0.082505964
28	0x3e8b14c2	0.27164274
29	0xbe3b9ae1	-0.183208
30	0x3ddc0727	0.10743552
31	0x3cc7eb89	0.024404304
32	0xbe59940c	-0.21247882
33	0x3df0d54c	0.11759433
34	0xbe9034b3	-0.28165206
35	0xbe834dbe	-0.2564525
36	0x3da5315b	0.080660544
37	0x3d727b0c	0.059199378
38	0x3d455c17	0.048183527
39	0xbcf2de3a	-0.029646982
40	0x3dad94b2	0.08475627
41	0x3e637614	0.22213012
42	0x3e1b3b16	0.15159258
43	0x3e5490dd	0.20758386
44	0x3c5e6385	0.013573532
45	0x3d45a3cb	0.04825191
46	0xbe112333	-0.14173584
47	0x3c927c76	0.017881613
48	0x3ed08b21	0.40731147
49	0xbd9421dd	-0.072330214
50	0xbc4e66dc	-0.012597766
51	0x3d7648ff	0.06012821
52	0x3e9665d3	0.2937456
53	0xbe52fa61	-0.20603324
54	0xbd82f477	-0.06394284
55	0xbe40e865	-0.18838651
56	0xbe278c9a	-0.16362229
57	0x3d8811fc	0.06644055
58	0xbd85c065	-0.06530837
59	0xbe375060	-0.17901754
60	0xbc3d9e75	-0.011573424
61	0x3d697997	0.057000723
62	0x3d84f3f3	0.06491842
63	0xbdca993e	-0.0989251
64	0x3dbdae6e	0.092617854
65	0xbe7e4879	-0.24832334
66	0xbe8a0cb0	-0.26962805
67	0x3d38f5f4	0.045156434
68	0xbe381979	-0.17978467
69	0x3e4508d3	0.19241647
70	0xbe01db86	-0.12681398
71	0xbe30a219	-0.17249335
72	0xbe3543f1	-0.17701699
73	0x3e43b49d	0.19111867
74	0x3e1da193	0.15393667
75	0x3c196fe2	0.009365054
76	0x3eafc83c	0.34332454
77	0x3da19332	0.078894034
78	0x3d11a2b8	0.03555557
79	0x3db77e66	0.089596555
80	0xbe753c83	-0.23948865
81	0xbdde2aa8	-0.1084798
82	0x3e5527fe	0.20816037
83	0xbe59c157	-0.2126516
84	0x3d85dfcd	0.06536827
85	0x3e21264d	0.15737267
86	0x3d5a1f1b	0.05325232
87	0xbcd76e9c	-0.02629786
88	0xbb43895d	-0.0029836514
89	0xbb2ca21c	-0.0026341742
90	0xbe118bb4	-0.14213449
91	0xbdb3abda	-0.087730125
92	0x3d8a62f8	0.06757158
93	0x3c5cf47f	0.013486027
94	0xbb2e8de7	-0.0026634873
95	0x3bbe2790	0.005803056
96	0x3e09e64f	0.13466762
97	0xbe38ba62	-0.1803985
98	0xbde4380b	-0.11143502
99	0x3c83687b	0.016041031
100	0x3cdc083f	0.0268594
101	0x3e25245a	0.16127148
102	0x3dbe1bdd	0.09282658
103	0x3dc77d4a	0.09740694
104	0x3c56292a	0.013071338
105	0x3d06a917	0.0328761
106	0xbd72c86f	-0.05927318
107	0xbc9ff75a	-0.019527126
108	0x3c15b0ba	0.009136373
109	0x3e8c7dca	0.2743972
110	0xbea6484c	-0.32477033
111	0xbe1fe863	-0.15615992
112	0xbd781f8e	-0.060576968
113	0xbe904a51	-0.281817
114	0x3d42b2cf	0.047533806
115	0x3e3e43d0	0.18580556
116	0x3e41e529	0.18935074
117	0x3e57e1ce	0.21082231
118	0xbd22856d	-0.039678026
119	0xbe17cd6f	-0.1482446
120	0x3dae1705	0.085004844
121	0x3daffb79	0.085928865
122	0xbe21ac21	-0.15788318
123	0x3e5840ae	0.21118423
124	0xbe4ab233	-0.1979454
125	0xbd80b140	-0.06283808
126	0x3e0ffc1d	0.14061017
127	0x3cf89d46	0.030348431
128	0x3dfa5f65	0.12225226
129	0x3e70d5bb	0.23519032
130	0xbddb181a	-0.106979564
131	0xbd16fc0d	-0.036861468
132	0xbe97b21e	-0.2962808
133	0xbe0b4d3e	-0.13603684
134	0x3d2e1380	0.042499065
135	0xbda5637d	-0.080756165
136	0x3e501bac	0.20323056
137	0x3d7aa54d	0.0611928
138	0x3d89e26e	0.06732641
139	0xbd9f3009	-0.07772834
140	0x3dcc9d0c	0.09990892
141	0xbc91de96	-0.017806333
142	0x3d44c031	0.04803485
143	0x3e15b956	0.14621481
144	0x3e2691b8	0.16266525
145	0x3da5280c	0.08064279
146	0x3d58254f	0.052769955
147	0x3e6dfcc3	0.23240952
148	0xbcbb3af5	-0.022855261
149	0xbd8d32d8	-0.06894463
150	0x3d637536	0.055531703
151	0xbe68229a	-0.2266945
152	0x3da086a1	0.078381784
153	0x3e351dd3	0.17687158
154	0xbb9da70b	-0.004811173
155	0xbe8c8fe7	-0.2745354
156	0x3ca622e9	0.020280318
157	0x3e0b0c3c	0.13578886
158	0xbe4b5291	-0.19855715
159	0x3df8c057	0.12146061
160	0xbe70f449	-0.23530687
161	0xbe62c7d9	-0.22146548
162	0xbd3ffd2e	-0.04687231
163	0x3d880c16	0.0664293
164	0xbc3f42d6	-0.01167365
165	0x3e9c3303	0.3050767
166	0xbe38bd96	-0.18041071
167	0xbe2c09b9	-0.16800584
168	0xbdeaa0ed	-0.114564754
169	0x3ea977d1	0.33099225
170	0xbd7d091c	-0.061776266
171	0xbde405a0	-0.111338854
172	0x3d4bcbfd	0.049755085
173	0x3d2ff384	0.042956844
174	0xbddeba8a	-0.10875423
175	0xbe09580d	-0.13412495
176	0x3dcfc9e6	0.10145931
177	0xbd6e2bb6	-0.058147155
178	0xbda1858f	-0.078868024
179	0xbd4faa10	-0.050699294
180	0xbe3f8a6c	-0.18705148
181	0x3d819115	0.063265
182	0xbde2dbaa	-0.11077054
183	0xbe5e1dde	-0.21691081
184	0xbe9449d8	-0.28962588
185	0x3d81012f	0.06299054
186	0xbea1fd6a	-0.31638652
187	0x3d11b8d5	0.03557666
188	0xbbd0b573	-0.0063692867
189	0x3b9498fb	0.0045348383
190	0x3db47427	0.08811217
191	0xbe613938	-0.21994483
192	0xbb3a48d1	-0.002842475
193	0x3ce1046c	0.027467929
194	0xbcddcd57	-0.027075453
195	0xbddf4de6	-0.1090353
196	0xbe66a36b	-0.22523277
197	0xbbf8d4ea	-0.0075937407
198	0x3c390e1e	0.01129487
199	0xbe2d18d1	-0.16903998
200	0xbcfdbda9	-0.030974226
201	0xbddfa5b4	-0.10920277
202	0xbd2cf186	-0.042222522
203	0xbeb659c7	-0.3561537
204	0x3e1b9c67	0.15196382
205	0x3e4f5c1c	0.2024998
206	0x3c652b5d	0.013987389
207	0xbd755a13	-0.059900355
208	0xbdc14fbe	-0.09439038
209	0xbe0e6677	-0.13906275
210	0x3d8c3eb7	0.068478994
211	0xbd4f3f80	-0.050597668
212	0xbe216977	-0.15762888
213	0xbe5b9b1b	-0.21445887
214	0xbe2fda78	-0.17173183
215	0x391e2c67	0.00015084595
216	0x3d9c53ca	0.07633169
217	0xbdf2e551	-0.11860145
218	0xbe549231	-0.20758893
219	0x3e11aea3	0.14226775
220	0xbda0afb9	-0.078460164
221	0xbeeaabc4	-0.45834172
222	0xbdaacb09	-0.08339507
223	0x3e573c39	0.21019067
224	0x3cc0fc16	0.023557704
225	0x3e135815	0.1438907
226	0xbe3af9ab	-0.18259303
227	0xbd8d4bd7	-0.06899231
228	0x3dfe6d6c	0.12423214
229	0xbda8c1ad	-0.08240066
230	0x3d990747	0.07472091
231	0xbdb5f1ab	-0.08883985
232	0x3ded1724	0.11576679
233	0x3de34c2f	0.11098515
234	0x3e124d9e	0.14287421
235	0xbdfca97a	-0.123370126
236	0x3d91a3a4	0.0711129
237	0xbe112587	-0.14174472
238	0xbe6b3933	-0.22971039
239	0x3b165c98	0.0022943374
240	0xbe4e58dc	-0.20151085
241	0x3cbbfa0e	0.022946384
242	0x3ca54b75	0.020177582
243	0x3d901043	0.07034352
244	0xbe30a081	-0.17248727
245	0xbcc3a0bc	-0.023880355
246	0xbd77436d	-0.060367037
247	0xbe25d688	-0.16195118
248	0x3d08096d	0.033212114
249	0x3c6e3a2b	0.0145402355
250	0xbe8b9bd0	-0.27267313
251	0x3e5ad0a4	0.21368653
252	0xbe15ec4c	-0.14640921
253	0xbdf2239e	-0.118232
254	0xbe49be2f	-0.19701456
255	0xbdcf7202	-0.10129167

network_body._body_endoder.seq_layers.2.bias f4 [128]
0	0xbced9c76	-0.02900527
1	0xbd1fc2a9	-0.039004
2	0xbc840ee9	-0.016120391
3	0x3ac680c3	0.0015144575
4	0xbd9681f6	-0.07349007
5	0x3cca8b6d	0.024724687
6	0xbdc72fa0	-0.097258806
7	0x3d81d667	0.06339722
8	0xbd2e63f5	-0.042575795
9	0xbcce63a5	-0.025193999
10	0xbd27103d	-0.04078697
11	0x3d60d525	0.05489077
12	0xbbd48292	-0.0064852918
13	0xbd6ca2b9	-0.057772372
14	0xbc01ae42	-0.007915081
15	0xbcd97147	-0.026543273
16	0xbcc09ddd	-0.023512775
17	0x3d5340b4	0.051575378
18	0x3d8cf3cc	0.06882438
19	0xbba7f9e9	-0.005126227
20	0xbe39833b	-0.18116467
21	0x3d0a8d19	0.033825967
22	0x3d87d20d	0.06631861
23	0x3c29699d	0.010340122
24	0x3d5164c4	0.05112149
25	0x3d135090	0.035965502
26	0xbd873e4b	-0.06603678
27	0xbd09c21d	-0.033632386
28	0xbc02cbd3	-0.007983166
29	0x3de0606d	0.10955892
30	0xbd0ac5dd	-0.033880103
31	0xbdabda1d	-0.08391211
32	0xbdb0f6e1	-0.086408384
33	0xbc7159a9	-0.014730849
34	0xbd7b5024	-0.061355725
35	0x3d24fbcc	0.040279195
36	0x3db5eac0	0.08882666
37	0xbdaa1963	-0.083056234
38	0xbc525389	-0.012837299
39	0x3dbcb6ed	0.09214578
40	0x3cc89145	0.024483332
41	0x3cc8ec3c	0.024526708
42	0x3d4ea0d1	0.050446335
43	0x3c2c4206	0.010513788
44	0x3bd7ad36	0.0065819276
45	0x3d2917a0	0.041282296
46	0xbde09260	-0.10965419
47	0x3cb4ecee	0.022085633
48	0x3d719d81	0.058988098
49	0xbc64e129	-0.013969698
50	0x3d657dde	0.05602824
51	0x3d004315	0.031313974
52	0xbced15d5	-0.028941074
53	0xbd33fb62	-0.04394091
54	0xbd68d6e3	-0.056845557
55	0xbc6d34b7	-0.0144779
56	0x3d01c2b5	0.031679828
57	0xbcf725a1	-0.03016931
58	0xbd2e13ec	-0.042499468
59	0xbcf7639e	-0.030198868
60	0x3db0b037	0.0862736
61	0x3d89c980	0.06727886
62	0xbd1adace	-0.037806325
63	0x3c80791e	0.015682753
64	0x3c592c68	0.013255216
65	0xbc906ad8	-0.017629072
66	0x3dae94ae	0.08524452
67	0x3dc925cc	0.09821662
68	0xbd000d28	-0.031262547
69	0xb9aeea75	-0.0003336255
70	0xbb4699b6	-0.0030304021
71	0xbca33c06	-0.019926082
72	0x3cf1e454	0.02952782
73	0x3d8c46d5	0.06849448
74	0xbd96373e	-0.07334755
75	0x3c462a7d	0.012095091
76	0xbd9b11c6	-0.075717494
77	0x3d5802f5	0.052737195
78	0xbd94bdc2	-0.07262756
79	0xbdab8f25	-0.08376912
80	0x3c5ec41d	0.013596562
81	0x3b86e746	0.0041169254
82	0x3b559267	0.0032588483
83	0xbd216296	-0.03940066
84	0xbd39b05d	-0.04533421
85	0x3bc028da	0.005864245
86	0x3a0e13bc	0.0005419811
87	0xbc2de28c	-0.010613095
88	0xbd4c4b30	-0.049876392
89	0xbc8ef027	-0.017448498
90	0x3dc374da	0.09543772
91	0x3d03f333	0.032214355
92	0xbdbc7585	-0.092021026
93	0xbdabdea2	-0.08392073
94	0xbc9906f4	-0.018680073
95	0x3d3b8831	0.04578418
96	0xbc591db9	-0.013251715
97	0xbde7b886	-0.11314492
98	0xbd400619	-0.046880815
99	0x3dd9c49b	0.10633203
100	0xbd194cb9	-0.037426684
101	0xbbbda1b9	-0.005787101
102	0x3c09915e	0.008396475
103	0xbc7f9d52	-0.015601473
104	0xbce8164a	-0.02833094
105	0xbda23686	-0.07920556
106	0xbd8542ce	-0.065068826
107	0xbd5a9c02	-0.053371437
108	0xbc83d544	-0.016092904
109	0x3ca7dc2e	0.020490732
110	0x3d87cb82	0.06630613
111	0xbd48aaf1	-0.048991147
112	0x3c851cac	0.016249023
113	0xbca6ffd6	-0.020385664
114	0xbd838bae	-0.06423126
115	0xbd2af333	-0.04173584
116	0x3bf6bb82	0.007529677
117	0x3dc14b90	0.094382405
118	0x3c1c6db7	0.009547642
119	0x3d9d2aa1	0.076741464
120	0xbd56f1b3	-0.052476596
121	0xbd98d6e7	-0.07462864
122	0xbdbb451e	-0.091440424
123	0xbdd9abce	-0.10628472
124	0x3c123ca2	0.008925589
125	0xbd26aab7	-0.04069015
126	0x3d28096a	0.041024603
127	0x3cbaa189	0.022782104

network_body._body_endoder.seq_layers.4.weight f4 [128, 128]
0	0xbe463a50	-0.19358182
1	0xbe2086df	-0.15676449
2	0xbe485747	-0.19564544
3	0x3db889c1	0.090106495
4	0xbe2424fb	-0.16029732
5	0x3d95877e	0.07301234
6	0xbd861e55	-0.06548754
7	0xbdf39984	-0.11894515
8	0x3cc6b2ad	0.024255121
9	0x3e5ca4a6	0.21547183
10	0xbdd9fed9	-0.106443115
11	0xbe3d1121	-0.18463565
12	0xbe5cc2c8	-0.21558678
13	0xbdc7996d	-0.097460605
14	0x3e1cce07	0.15312968
15	0xbd9129ff	-0.07088088
16	0xbe6bc88c	-0.23025721
17	0x3c3611f4	0.011112679
18	0xbe400e15	-0.18755372
19	0xbc8da8a4	-0.017292328
20	0x3d185df4	0.037198976
21	0x3da4f9f8	0.0805549
22	0x3e52eab8	0.2059735
23	0x3e6b95db	0.23006384
24	0xbd372710	-0.044714987
25	0xbe6d87d0	-0.2319634
26	0xbe1c7ac8	-0.15281212
27	0x3e151f47	0.14562713
28	0x3eb2a715	0.34893098
29	0x3e4c7584	0.19966704
30	0xbac2b0eb	-0.0014853751
31	0xbd8a1029	-0.067413636
32	0x3da48695	0.08033482
33	0x3c13e5ea	0.009026984
34	0xbdac60cd	-0.08416901
35	0x3ddc8440	0.10767412
36	0xbe5204bd	-0.2050962
37	0xbdcd47ef	-0.10023486
38	0xbe366f15	-0.17815812
39	0xbe2fa8ed	-0.17154284
40	0x3dc75fd1	0.097350724
41	0xbccfc9a7	-0.02536471
42	0xbe52c21c	-0.2058186
43	0x3daf4240	0.08557558
44	0x3d847d11	0.06469167
45	0xbd194c96	-0.037426554
46	0x3d51bf55	0.05120786
47	0x3e2e5e52	0.17028168
48	0xbe6006d1	-0.218776
49	0x3dfca3af	0.12335908
50	0x3e6cacba	0.23112765
51	0xbdc02cbc	-0.093835324
52	0xbe77381a	-0.24142495
53	0x3cbc0ca2	0.022955243
54	0xbde28d38	-0.110620916
55	0x3eaebc75	0.34128156
56	0xbbf68223	-0.0075228377
57	0xbdb4aec3	-0.08822396
58	0xbc8c818f	-0.017151622
59	0x3e9a2655	0.3010737
60	0xbc22c1cc	-0.0099339
61	0x3c9904e3	0.018679088
62	0xbdb3eb4a	-0.08785112
63	0xbd1ed346	-0.038775705
64	0x3c91d053	0.017799532
65	0xbe80e8e4	-0.2517768
66	0xbe317acd	-0.17332001
67	0x3c1fc45d	0.0097514065
68	0x3e00a791	0.12563922
69	0xbe4522c1	-0.19251539
70	0xbe020bf9	-0.1269988
71	0xbe2b9d7b	-0.16759293
72	0xbdea1a75	-0.114308275
73	0x388b837e	6.652529e-05
74	0x3d8ccf63	0.068754934
75	0x3dba5e24	0.09099987
76	0xbd960c1b	-0.07326528
77	0xbe3698fd	-0.17831798
78	0xbd0448c5	-0.03229596
79	0x3e11a810	0.14224267
80	0xbd81162b	-0.06303056
81	0x3ca0ea17	0.019642873
82	0xbc399940	-0.011328042
83	0xbdebd962	-0.11516072
84	0x3e31406e	0.17309734
85	0x3e0b4a1f	0.13602494
86	0xbe987436	-0.29776162
87	0xbcc32b3b	-0.023824325
88	0x3d56854b	0.05237321
89	0xbe2e18fe	-0.17001721
90	0x3e220125	0.15820749
91	0x3ca92d55	0.020651499
92	0xbe6386c8	-0.22219384
93	0x3d8cdb20	0.06877732
94	0x3e25cf5e	0.16192386
95	0xbdea6774	-0.11445513
96	0xbd1626bf	-0.036658045
97	0x3b5fc5f4	0.003414509
98	0xbdced9fa	-0.101001695
99	0xbe77cfb3	-0.24200325
100	0xbcc509e1	-0.024052562
101	0xbe777f24	-0.24169594
102	0xbde2c037	-0.11071818
103	0x3e46a2c1	0.19398023
104	0xbe4f0b0b	-0.20219056
105	0x3e9a0c97	0.3008773
106	0xbd3229ba	-0.043496825
107	0x3e6ab3c4	0.22920138
108	0x3cbd3d1f	0.023100434
109	0x3e08c163	0.13355021
110	0xbdb5fd68	-0.08886224
111	0x3dd9d4f4	0.10636321
112	0xbe1c03ee	-0.15235874
113	0x3d7787ab	0.060432117
114	0x3c14ace1	0.009074421
115	0xbe5bb35a	-0.21455136
116	0xbe34d095	-0.17657693
117	0xbe893c53	-0.26803836
118	0xbc9e1049	-0.019294875
119	0xbe32577e	-0.17416188
120	0xbde414ed	-0.11136804
121	0xbe160fa0	-0.14654398
122	0xbd5a7cc8	-0.053341657
123	0x3e45efeb	0.19329803
124	0xbd1422a7	-0.03616586
125	0xbd9a34c8	-0.075295985
126	0xbdc76c33	-0.09737434
127	0x3de195da	0.1101491
128	0xbe42e1c2	-0.19031432
129	0xbd615e61	-0.055021647
130	0xbd4b0cc4	-0.04957272
131	0x3e3b1467	0.18269502
132	0xbdf5efde	-0.12008642
133	0xbe2bfa1e	-0.16794631
134	0x3cbada64	0.022809215
135	0xbea78b72	-0.32723576
136	0xbe1af627	-0.15132962
137	0xbd29450d	-0.041325618
138	0x3e207cc4	0.15672594
139	0xbe530a5d	-0.20609422
140	0x3c216934	0.009851743
141	0xbcb334a3	-0.021875685
142	0x3dde0c55	0.10842196
143	0xbdeace25	-0.114651
144	0xbd5b7efd	-0.053587902
145	0x3d20a80b	0.03922276
146	0x3cc6df3c	0.024276368
147	0x3e3f9172	0.18707827
148	0xbdb78965	-0.08961753
149	0xbd7671b6	-0.060167037
150	0xbe26a78f	-0.16274856
151	0xbe78aa29	-0.24283661
152	0xbe23d5f5	-0.15999587
153	0xbeb75a8f	-0.35811278
154	0x3d2df469	0.042469416
155	0x3d4f0b2c	0.050547764
156	0xbe2d8034	-0.16943437
157	0xbdbded36	-0.0927376
158	0xbe9e31f3	-0.30897483
159	0xbd5648bf	-0.05231547
160	0xbe18a0f9	-0.14905156
161	0xbe320257	-0.17383705
162	0x3e34f39c	0.17671055
163	0x3d2a99f1	0.041650716
164	0xbe8ffc3a	-0.2812212
165	0xbd5052fc	-0.05086039
166	0x3d8bed85	0.06832413
167	0x3e29a118	0.16565359
168	0x3df8fd53	0.12157693
169	0x3ea28f12	0.3174978
170	0xbe1e1011	-0.15435816
171	0xbe549d49	-0.20763125
172	0x3d99825b	0.074955665
173	0xbe54726f	-0.20746778
174	0xbb26b33b	-0.002543642
175	0xbca0b41f	-0.019617138
176	0xbcdd4e72	-0.027014945
177	0x3c807cb2	0.01568446
178	0x3db13b42	0.08653881
179	0x3d410b86	0.04713013
180	0x3c16ec33	0.009211588
181	0x3d8aaff6	0.06771843
182	0x3a7125a8	0.00091990316
183	0xbe090210	-0.13379693
184	0xbe9e8100	-0.30957794
185	0xbda302f6	-0.07959549
186	0x3c7430ad	0.014904183
187	0xbcf81151	-0.030281695
188	0xbd8a4b5b	-0.06752654
189	0xbe4538b6	-0.19259915
190	0xbcc64b01	-0.024205687
191	0xbdc86294	-0.09784427
192	0xbcfc3fad	-0.030792082
193	0xbe0cbdd1	-0.13744284
194	0xbe031631	-0.12801434
195	0x3b1ad362	0.002362453
196	0x3dc3fbde	0.09569524
197	0xbe108506	-0.14113244
198	0xbeb28335	-0.34865728
199	0xbe4d0f6a	-0.20025411
200	0x3d112ca9	0.035442982
201	0xbd5d33cd	-0.05400448
202	0xbd2832b4	-0.04106398
203	0x3e631a04	0.22177893
204	0x3de2633c	0.11054084
205	0xbe3b1da1	-0.18273021
206	0xbe84a10c	-0.2590412
207	0xbdc6d965	-0.097094335
208	0xbcde61e8	-0.027146295
209	0x3e776aea	0.24161878
210	0x3e0a9113	0.13531904
211	0xbe6f8032	-0.23388746
212	0x3d8cf72c	0.06883082
213	0x3d8ce5de	0.06879781
214	0xbe0a58fb	-0.13510506
215	0xbdf1e568	-0.11811334
216	0xbd68d948	-0.05684784
217	0xbdab4701	-0.08363152
218	0xbdfb4ac1	-0.122701176
219	0xbe65892e	-0.22415611
220	0xbe40e99d	-0.18839116
221	0x3d996566	0.07490043
222	0xbe71b000	-0.23602295
223	0xbd68c906	-0.056832336
224	0xbd0866b3	-0.033301067
225	0x3e52ef3f	0.20599078
226	0xbd6cb920	-0.057793736
227	0xbd6159a1	-0.055017117
228	0xbac63edb	-0.0015124934
229	0xbe3ca531	-0.1842239
230	0xbd2ffcb7	-0.042965617
231	0xbe86091b	-0.26178822
232	0xbe67ccf2	-0.22636774
233	0x3cb34d62	0.021887485
234	0xbc77871d	-0.015107897
235	0x3da65dd7	0.08123367
236	0xbd0c4053	-0.03424103
237	0xbe249510	-0.16072488
238	0x3da2ca21	0.07948709
239	0x3d3a341e	0.04545986
240	0xbde4ffab	-0.11181577
241	0xbd474991	-0.048654143
242	0x3d790cc5	0.060803194
243	0x3e2dbeb3	0.16967277
244	0x3c87857e	0.016543146
245	0xbd07fb5e	-0.033198707
246	0x3c562c76	0.013072124
247	0x3c335744	0.010946099
248	0x3dbae3d1	0.09125484
249	0xbc495538	-0.012288384
250	0xbea8ac8b	-0.3294414
251	0x3e8f30cf	0.27966926
252	0xbcb40c1b	-0.021978429
253	0x3d954f73	0.07290544
254	0x3dc21038	0.0947575
255	0x3de8e21e	0.113712534

network_body._body_endoder.seq_layers.4.bias f4 [128]
0	0xbe062755	-0.13100941
1	0xbe19f70a	-0.15035644
2	0xbad7dc28	-0.001646881
3	0xbdb628f2	-0.088945284
4	0x3bdedd63	0.0068012937
5	0x3aa26ce8	0.0012392076
6	0xbd3cb2d6	-0.04606899
7	0xbdccdd37	-0.10003131
8	0x3d7fb8d3	0.06243212
9	0x3d8d5076	0.06900112
10	0xbdae2e7c	-0.0850496
11	0xbd47cb6b	-0.04877798
12	0x3c2de21f	0.0106129935
13	0xbe1949ee	-0.14969608
14	0xbcbbb106	-0.02291156
15	0xbdd69d25	-0.10479192
16	0x3db0abe5	0.08626536
17	0x3d03a6b5	0.032141406
18	0xbd4c9e7f	-0.04995584
19	0xbda00a8b	-0.07814511
20	0x3e09f689	0.13472952
21	0xbba86c44	-0.0051398594
22	0xbca6f2f8	-0.020379528
23	0x3ca70eae	0.020392742
24	0xbdd25497	-0.102700405
25	0x3d61b273	0.055101823
26	0x3ca5c04d	0.020233298
27	0xba69fcf8	-0.000892594
28	0x3cb889c0	0.022526622
29	0xbb31ee3e	-0.002715006
30	0x3d8c9bdb	0.068656646
31	0x3c65c818	0.014024757
32	0xbd50a6c7	-0.0509403
33	0xbc6b1037	-0.014347128
34	0xbcca5a37	-0.02470122
35	0xbc404206	-0.011734491
36	0xbc199716	-0.009374401
37	0x3c8051df	0.01566404
38	0x3d05c83b	0.032661658
39	0xbd1f8f30	-0.038954914
40	0xbcb04b22	-0.021520201
41	0x3c91ca33	0.017796611
42	0xbd355eff	-0.04428005
43	0x3c33ffea	0.010986308
44	0xbdcfe195	-0.10150448
45	0xbc464fc2	-0.012103977
46	0xbd760de0	-0.060071826
47	0xbd6ef586	-0.05833962
48	0xbd5b2cb0	-0.053509414
49	0x3d6e651e	0.0582019
50	0xbd0308ef	-0.03199094
51	0xbd9e2f27	-0.07723837
52	0xbe214a6a	-0.15751043
53	0x3b886503	0.004162432
54	0xbd24c876	-0.040230237
55	0xbd015ecf	-0.031584557
56	0xbced591d	-0.028973157
57	0xbd24b76b	-0.040213984
58	0x3dc46f14	0.09591499
59	0x3dc140d0	0.0943619
60	0x3a518bf1	0.000799357
61	0x3c3a57f6	0.011373511
62	0xbc9a2791	-0.018817695
63	0x3cc0cac4	0.023534186
64	0xbcd2f6ec	-0.025752507
65	0xbc7d4f0d	-0.015460742
66	0xbd462b1e	-0.048380964
67	0xbd8652e1	-0.06558777
68	0xbd9343d2	-0.0719067
69	0x3d9c261f	0.076244585
70	0x3c1c38f9	0.009535068
71	0x3b8aab6c	0.004231861
72	0x3d2b729f	0.041857358
73	0xbd0884e9	-0.033329878
74	0x3cb3b651	0.021937521
75	0x3d088446	0.03332927
76	0x3d98ad81	0.07454968
77	0xbbc9396b	-0.006140878
78	0xbcb25ff7	-0.021774275
79	0xbd09b892	-0.033623286
80	0x39a8c641	0.00032191168
81	0xbcc335b0	-0.023829311
82	0x3d2af035	0.041732986
83	0xbcf2ac19	-0.029623078
84	0x3cdc1edc	0.026870184
85	0x3cc5f669	0.02416535
86	0xbd29228d	-0.041292716
87	0xbd8f8295	-0.070073284
88	0xbd5031a1	-0.05082858
89	0xbc8c07d0	-0.017093569
90	0x3c20e77a	0.009820813
91	0x3d18691b	0.03720961
92	0xbd8c6748	-0.06855637
93	0xbd4ae9b7	-0.049539294
94	0xbcb5c1e1	-0.022187175
95	0xbd189d5d	-0.03725945
96	0x3b91d299	0.004450154
97	0xbcb9f2a1	-0.022698702
98	0xbd64d29c	-0.055864915
99	0xbd025695	-0.031820852
100	0xbdc72514	-0.09723869
101	0xbc9b40cf	-0.018951802
102	0xbcce3509	-0.025171774
103	0xbd94bc74	-0.07262507
104	0x3cc2025a	0.023682762
105	0x3d23f137	0.040024962
106	0x3d9fe025	0.07806424
107	0x3d06ad24	0.032879964
108	0x3c831654	0.016001858
109	0xbd8d1de3	-0.06890466
110	0xbb1bfb13	-0.0023800775
111	0x3db813c1	0.08988143
112	0x3cba1cea	0.022718865
113	0xbd893d2a	-0.06701119
114	0xbc6411ba	-0.013920242
115	0xbd5f30ba	-0.05448983
116	0xbe24a893	-0.16079931
117	0x3dab9496	0.0837795
118	0x3cfa7d9a	0.03057747
119	0x3d00c2cc	0.031435773
120	0xbc79997f	-0.01523435
121	0xbd1c260a	-0.038122214
122	0xbd228d67	-0.039685633
123	0xbd93541d	-0.07193778
124	0x3ce3bd17	0.027800126
125	0xbcb2b75e	-0.021815952
126	0x3ce4e2bc	0.027940147
127	0xbda83453	-0.08213105

action_model._discrete_distribution.branches.0.weight f4 [3, 128]
0	0x3c1f3dd0	0.009719327
1	0x3df74a54	0.12074724
2	0xbd52a0b7	-0.0514228
3	0x3e0924e6	0.13392982
4	0xbd086264	-0.033296958
5	0xbd66164b	-0.056173604
6	0x3c05c8cb	0.008165549
7	0x3e29acaa	0.16569772
8	0xbe2b9487	-0.16755877
9	0x3e491ee7	0.19640695
10	0xbd52cd50	-0.051465333
11	0x3d850936	0.064958975
12	0x3da1e85e	0.07905649
13	0x3d1cdd01	0.038296703
14	0x3d811d26	0.06304388
15	0x3d66759d	0.05626451
16	0xbbe3685b	-0.0069399304
17	0x3c6220c3	0.013801756
18	0x3d919008	0.0710755
19	0xbca0d99d	-0.019635016
20	0xbe7c0336	-0.246106
21	0xbe2989d4	-0.16556484
22	0x3cd3ad32	0.025839422
23	0xbcc20a83	-0.023686653
24	0xbe067922	-0.13132146
25	0xbc587616	-0.013211748
26	0xbd6012f9	-0.054705594
27	0x3c4fd244	0.012684409
28	0xbe2aa6d6	-0.16665205
29	0xbd42f1bd	-0.04759382
30	0x3d918c66	0.07106857
31	0xbdc16ffa	-0.09445186
32	0x3dd35d2f	0.10320508
33	0xbe246093	-0.16052465
34	0xbde274d4	-0.110574394
35	0xbdcfe7bd	-0.101516224
36	0x3d82f7ad	0.06394897
37	0xbc0b069d	-0.008485463
38	0xbda823d4	-0.08209959
39	0x3e0c9456	0.1372846
40	0x3c860dd3	0.016364014
41	0xbe3565e1	-0.17714645
42	0xbd0a8fed	-0.033828665
43	0x3db316e3	0.087446
44	0xbcd663ec	-0.026170693
45	0xbc196776	-0.009363046
46	0x3d2faa53	0.042887043
47	0xbd879b5c	-0.06621429
48	0xbe07d00b	-0.13262956
49	0xbb17914d	-0.0023127377
50	0xbd8abda3	-0.067744516
51	0xbd8fa8e1	-0.07014633
52	0x3d5123c5	0.051059503
53	0x3dd776c5	0.105207
54	0xbbb24bf4	-0.005441183
55	0x3ce1c2fe	0.0275588
56	0x3d806bd2	0.06270565
57	0xbc0a6905	-0.00844789
58	0xbdc449ad	-0.09584365
59	0xbd62b0b1	-0.055344287
60	0xbb26194d	-0.002534467
61	0x3b61f4cb	0.0034478183
62	0x3de02f9e	0.10946582
63	0xbcf39dd1	-0.029738339
64	0x3be76221	0.0070612584
65	0x3e25ce89	0.16192068
66	0x3da0b82f	0.0784763
67	0x3cfdbd09	0.030973928
68	0xbc6674fb	-0.014065976
69	0xbd6b4196	-0.057435594
70	0xbd7c8af4	-0.061655954
71	0x3d323444	0.043506876
72	0x3e40141b	0.1875767
73	0x3d803139	0.062593885
74	0xbdb21e72	-0.08697213
75	0xbd5dfce6	-0.05419626
76	0xbddf4166	-0.10901146
77	0x3d233bee	0.039852075
78	0xbde2f8ef	-0.110826366
79	0xbcc5f54f	-0.024164824
80	0xbd174e95	-0.036940176
81	0xbd62062b	-0.055181663
82	0xbe33abe5	-0.17546041
83	0x3ca2be01	0.019865992
84	0xbd006d34	-0.031354144
85	0xbe5c8435	-0.21534808
86	0xbdbeca1f	-0.09315895
87	0xbce64639	-0.028109657
88	0x3c9b8a18	0.018986747
89	0x3df30cc4	0.11867669
90	0x3d57fd33	0.052731704
91	0x3d1d9281	0.038469795
92	0x3da8b8c8	0.08238369
93	0xbe04bf29	-0.12963547
94	0xbd83d0c0	-0.064363
95	0xbcb31cee	-0.02186438
96	0xbdcf23df	-0.10114264
97	0xbd3b9dfc	-0.045804963
98	0x3d2aeb18	0.04172811
99	0xbd009bce	-0.031398587
100	0x3d398be8	0.04529944
101	0x3cc88a92	0.024480138
102	0xbdf98171	-0.12182892
103	0xbd853c51	-0.06505645
104	0x3d8b0dcb	0.0678974
105	0x3cc0e651	0.023547323
106	0x3cd8ddd4	0.026472963
107	0x3d3f3407	0.046680477
108	0xbd43c700	-0.047797203
109	0x3b12c2e6	0.0022394
110	0xbd1a15d8	-0.037618488
111	0xbe22b268	-0.15888369
112	0x3d022e94	0.0317827
113	0x3e1e2fe2	0.15447953
114	0xbd294fe6	-0.041335963
115	0x3c43b690	0.011945382
116	0x3b4683e5	0.0030291018
117	0xbe813899	-0.25238493
118	0xbe34ac95	-0.1764396
119	0xbe3673ae	-0.17817566
120	0x3d65b323	0.05607904
121	0xbe0d9ff6	-0.13830552
122	0xbe1a16f6	-0.15047821
123	0x3d78d040	0.060745478
124	0xbd90c2eb	-0.07068428
125	0x3df712ec	0.12064156
126	0x3e38f406	0.18061838
127	0xbd958f76	-0.073027536
128	0xbe50aee4	-0.20379215
129	0xbdad790d	-0.08470354
130	0x3d5fae1b	0.0546094
131	0xbdd34a2c	-0.103168815
132	0x3cc343ba	0.023836005
133	0x3daa102a	0.08303864
134	0xbd85e61a	-0.06538029
135	0x3bb9520d	0.005655533
136	0x3e0ad637	0.13558279
137	0xbd8bb80d	-0.06822214
138	0x3db58f2e	0.088652
139	0xbd482cec	-0.048870966
140	0xbc784840	-0.0151539445
141	0xbd9f7eef	-0.077878825
142	0xbe28dfaf	-0.16491579
143	0xbe7d5c49	-0.24742235
144	0xbe6b38ab	-0.22970836
145	0x3e45c23c	0.19312376
146	0xbd96e307	-0.07367521
147	0xbbb620bb	-0.005558101
148	0x3ea65762	0.32488543
149	0xbc9d4ec8	-0.019202605
150	0xbe01b42d	-0.12666388
151	0x3db95710	0.09049809
152	0xbc75788c	-0.014982354
153	0x3e39fa43	0.18161874
154	0x3e0d4944	0.1379748
155	0x3bde7dcc	0.0067898985
156	0xbd89adec	-0.06722626
157	0x3e0b6e01	0.13616182
158	0x3db54343	0.0885072
159	0x3ce004da	0.027346063
160	0xbd01b57c	-0.031667218
161	0x3d6bdd16	0.05758389
162	0x3e3f2c97	0.18669353
163	0x3e028610	0.12746453
164	0xbe013dcf	-0.12621234
165	0x3cb55557	0.02213542
166	0x3dfe0212	0.12402739
167	0xbc05fc1f	-0.008177786
168	0x3cceaead	0.025229776
169	0x3d131188	0.03590539
170	0xbd69cac6	-0.057078145
171	0xbe4939bc	-0.1965093
172	0xbc6b5fd2	-0.014366107
173	0x3de5d30f	0.11221897
174	0xbd964aa1	-0.07338453
175	0xbdd45140	-0.1036706
176	0x3e675258	0.22590005
177	0xbe2c9657	-0.16854225
178	0x3ad6f326	0.0016399368
179	0x3e5d69ea	0.21622434
180	0xbd5df90c	-0.054192588
181	0x3dc6a8c8	0.09700161
182	0x3bc59568	0.0060297735
183	0xbdcb2a94	-0.099202305
184	0x3da7c076	0.08191006
185	0x3d9c15ff	0.07621383
186	0x3e349893	0.17636327
187	0xbd2d4205	-0.04229929
188	0x3ccbcb3d	0.024877185
189	0x3e38569f	0.18001793
190	0x3cc26388	0.0237291
191	0x3d26b93f	0.04070401
192	0x3c945ce9	0.01811071
193	0xbd863e70	-0.06554878
194	0x3d678077	0.056518998
195	0xbc2bbef6	-0.01048254
196	0x3c825605	0.015910158
197	0x3cd97035	0.026542762
198	0x3e0c7606	0.13716897
199	0xbe017913	-0.12643842
200	0xbd23c8eb	-0.039986532
201	0x3cc8bef4	0.024505116
202	0x3e4b2ee1	0.19842102
203	0x3c638c58	0.013888441
204	0x3d5ef128	0.054429203
205	0x3dd3df2d	0.10345302
206	0x3d9a1815	0.075241245
207	0xbe205068	-0.15655673
208	0xbda564ba	-0.08075853
209	0x3e423264	0.18964535
210	0x3e68aae4	0.2272144
211	0xbde40554	-0.11133829
212	0xbaedba22	-0.0018137137
213	0xbdcfb01c	-0.10141012
214	0x3c80271e	0.015643653
215	0x3d862fbd	0.06552074
216	0xbe29be6d	-0.16576548
217	0xbd8c518a	-0.0685149
218	0xbc45301b	-0.012035395
219	0x3d788fb3	0.060683917
220	0xbd9cd04f	-0.07656919
221	0x3c86dec6	0.016463649
222	0x3df6f6c3	0.12058785
223	0xbca14123	-0.01968438
224	0x3cb32f71	0.021873208
225	0xbd4c91b9	-0.04994366
226	0xbda59e81	-0.08086873
227	0x3dea3e41	0.11437655
228	0xbd0078a2	-0.031365044
229	0xbdab0ca4	-0.083520204
230	0xbc29da9b	-0.010367061
231	0x3a247b16	0.0006274445
232	0xbe87faa9	-0.26558426
233	0x3cbd0767	0.023074819
234	0xbdf90d4f	-0.121607415
235	0x3dd692b3	0.104771994
236	0x3d187857	0.03722414
237	0x3cbe971a	0.02326541
238	0xbb246046	-0.0025081798
239	0x3dbc3eff	0.09191703
240	0x3e152b64	0.14567333
241	0xbd3877be	-0.04503607
242	0x3e1a8e9a	0.1509346
243	0xbd111cae	-0.03542774
244	0x3db436bd	0.08799503
245	0x3e0ed7c8	0.13949502
246	0x3e2fd70c	0.17171878
247	0x3d470278	0.04858634
248	0xbd0ff93c	-0.035149798
249	0x3e1396e5	0.1441303
250	0xbd819a51	-0.06328262
251	0xbc7d0776	-0.015443673
252	0x3dbd3fee	0.09240709
253	0x3d28d2f4	0.041216806
254	0x3bb43205	0.005499127
255	0xbc301543	-0.010747257

action_model._discrete_distribution.branches.0.bias f4 [3]
0	0x3d73af53	0.059493374
1	0xbdadc8ba	-0.08485551
2	0x3c89a49e	0.016802128

action_model._discrete_distribution.branches.1.weight f4 [2, 128]
0	0x3d2e4044	0.042541757
1	0x3de9bf35	0.11413423
2	0xbdd8a231	-0.105778106
3	0xbdb2f129	-0.08737404
4	0x3e24b18f	0.16083358
5	0x3dc4551d	0.095865466
6	0x3d4c5503	0.04988576
7	0xbd45242f	-0.04813021
8	0xbd3e0107	-0.0463877
9	0x3ddc0eb2	0.107449904
10	0xbdadbdfd	-0.08483503
11	0x3d28b8f8	0.041192025
12	0xbd250a34	-0.040292934
13	0x3dbd9431	0.09256781
14	0x3c9e609b	0.019333174
15	0x3b840dbd	0.004029958
16	0xbbc3b11c	-0.005972041
17	0xbde8589e	-0.113450274
18	0x3d2a02f6	0.04150673
19	0xbbcd7c4f	-0.0062709223
20	0x3dd4192d	0.103563644
21	0x3e4d0633	0.20021896
22	0xbc304971	-0.010759697
23	0xbdd91884	-0.10600379
24	0xbccbf928	-0.02489908
25	0x3dbbea82	0.09175588
26	0xbd62cf88	-0.0553737
27	0x3d5aeb08	0.0534468
28	0x3d3e9eb3	0.046538066
29	0x3e409c23	0.18809561
30	0xbe3ca5e4	-0.18422657
31	0x3d82af72	0.0638112
32	0x3dda53ff	0.10660552
33	0x3d816c2a	0.06319459
34	0x3c26e385	0.010186081
35	0x3d1e2c0e	0.038616233
36	0x3deef003	0.11666872
37	0x38c9bd2c	9.619663e-05
38	0x3e454a4e	0.19266626
39	0x3d3ab009	0.045578036
40	0x3e1e0ba3	0.15434127
41	0xbd7f3e41	-0.06231523
42	0x3d32f45d	0.043690074
43	0x3d57c987	0.052682426
44	0x3caaa370	0.020829886
45	0xbcc75b87	-0.024335636
46	0x3cd9eea3	0.026603049
47	0x3d481099	0.048843954
48	0x3e5ace21	0.21367694
49	0xbcb1af61	-0.021690072
50	0xbda87b9c	-0.082267016
51	0x3d01a586	0.031651996
52	0x3d4aea9b	0.049540143
53	0xbc63c629	-0.0139022255
54	0xbcdc66a0	-0.026904404
55	0xbd6065cd	-0.054784585
56	0x3cdf5d4e	0.02726617
57	0x3db8e6a8	0.09028369
58	0x3e0fe630	0.14052653
59	0xbddedd55	-0.108820595
60	0xbb96a2e6	-0.0045970557
61	0x3dbd7802	0.09251405
62	0xbdf554db	-0.119790755
63	0x3e0bbbbd	0.13645835
64	0xbe0fe275	-0.1405123
65	0xbd2a391c	-0.04155837
66	0x3e17f0c9	0.14837946
67	0x3c90bc79	0.017667996
68	0x3da9e9e9	0.08296568
69	0xbe1d50b2	-0.15362814
70	0x3ced3a68	0.028958514
71	0xbd32978a	-0.04360155
72	0x3e02d7a6	0.12777576
73	0x3ea25943	0.31708726
74	0x3e76a06c	0.24084634
75	0xbdadce14	-0.08486572
76	0xbdc19545	-0.09452299
77	0xbb8ca5c3	-0.0042922213
78	0x3d51908b	0.051163238
79	0xbe20ae5b	-0.15691511
80	0x3d27adbc	0.04093717
81	0x3da46bb7	0.080283575
82	0xbccd3262	-0.025048438
83	0x3df08d9c	0.1174576
84	0xbcaa4adc	-0.020787649
85	0x3e27ad7d	0.16374774
86	0x3d214ba1	0.039378766
87	0x3d344706	0.044013046
88	0x3d23142b	0.039814156
89	0x3d5464c3	0.051853906
90	0xbdb1d934	-0.08684006
91	0x3dfb47a0	0.12269521
92	0x3c8b01a9	0.016968565
93	0x3e0829db	0.13297217
94	0x3e2590b5	0.16168483
95	0x3e69784e	0.22799799
96	0xbb47d844	-0.0030493895
97	0x3d09ff1f	0.033690568
98	0x3dad0565	0.084482946
99	0x3deeb13b	0.11654898
100	0x3e294790	0.16531205
101	0xbd57b258	-0.052660316
102	0xbbbd9abd	-0.0057862685
103	0x3e160e67	0.14653932
104	0x3d7ed0fa	0.062211014
105	0xbdfca82d	-0.123367645
106	0x3da8f1d4	0.0824925
107	0xbda6bfa0	-0.08142018
108	0xbe0297a5	-0.1275316
109	0x3df3ff2f	0.11913907
110	0xbd4fba30	-0.05071467
111	0xbe46ed35	-0.19426425
112	0x3e04941d	0.12947126
113	0x3d8c9a3a	0.06865354
114	0x3e020aa0	0.12699366
115	0x3d2e6bab	0.04258315
116	0x3e5b15a1	0.2139497
117	0xbd7aecb9	-0.061260913
118	0x3bf5c3fd	0.0075001703
119	0x3e0ef1c7	0.13959418
120	0xbdd978ec	-0.10618767
121	0x3e4160bd	0.18884559
122	0xbd34990e	-0.044091277
123	0xbcd1090a	-0.025517005
124	0xbd84afdf	-0.06478857
125	0x3e574d32	0.21025541
126	0x3d826f19	0.063688464
127	0x3dae5ca0	0.085137606
128	0xbd48c04c	-0.049011514
129	0xbdeeaa75	-0.11653606
130	0x3db55a24	0.088550836
131	0x3d9c365f	0.07627558
132	0xbe265f9d	-0.16247411
133	0xbdcfe7fd	-0.1015167
134	0xbd4cd939	-0.050011847
135	0x3d4cf5ef	0.050039228
136	0x3cfc709e	0.030815419
137	0xbdc1c6de	-0.09461759
138	0x3dc1d26f	0.09463965
139	0xbceee19b	-0.029160311
140	0x3d13d9f8	0.036096543
141	0xbdd2ac91	-0.10286821
142	0x3a824a52	0.0009940362
143	0xbc9d8ce0	-0.019232213
144	0xbc6695f3	-0.014073837
145	0x3ded8022	0.11596705
146	0xbd173ea3	-0.03692497
147	0xba2c2460	-0.00065666996
148	0xbdd21a66	-0.10258941
149	0xbe51c630	-0.20485759
150	0x3cebe583	0.028795963
151	0x3dca8f1d	0.09890578
152	0x3c4cc458	0.012497984
153	0xbdc11d42	-0.094294086
154	0x3d8a6ef0	0.06759441
155	0xbd30df59	-0.04318175
156	0xbd5fb190	-0.054612696
157	0xbe3e6ea4	-0.18596894
158	0x3e456c6d	0.19279642
159	0xbd59ff48	-0.05322197
160	0xbdec5976	-0.11540501
161	0xbd72138b	-0.05910067
162	0xbc9f599a	-0.019451905
163	0xbd2bb1db	-0.041917663
164	0xbe08d758	-0.13363397
165	0x3b15891a	0.0022817315
166	0xbe4579f5	-0.19284804
167	0xbd2cc4a5	-0.042179722
168	0xbe2980d0	-0.16553044
169	0x3da1a359	0.07892484
170	0xbd446ddf	-0.047956344
171	0xbd578788	-0.052619487
172	0xbb821878	-0.003970202
173	0x3bd5039a	0.0065006735
174	0xbd1698b4	-0.036766723
175	0xbd48269d	-0.04886495
176	0xbe668b5b	-0.22514097
177	0x3ce3c55d	0.027804071
178	0x3dc428ca	0.095780924
179	0xbd0be27e	-0.034151547
180	0xbd6b1d12	-0.05740077
181	0x3c9ef6de	0.019404825
182	0x3d0e4fad	0.034743953
183	0x3cfe1494	0.031015672
184	0xbb8b8fdd	-0.004259093
185	0xbdc653bc	-0.0968394
186	0xbe0076ee	-0.12545368
187	0x3de2ce2f	0.11074483
188	0x3bdc6cbe	0.0067268303
189	0xbdc03908	-0.09385878
190	0x3dd2bc2e	0.10289799
191	0xbe1b84e5	-0.15187414
192	0x3e1cdfeb	0.15319793
193	0x3d6090de	0.054825656
194	0xbe122fa7	-0.1427599
195	0xbcc8ef37	-0.024528129
196	0xbd745a5f	-0.059656497
197	0x3e3347f9	0.17507924
198	0xbd2494eb	-0.04018108
199	0x3d321824	0.043480054
200	0xbdf8f892	-0.12156786
201	0xbe9cd47b	-0.3063086
202	0xbe74bd08	-0.23900235
203	0x3dbe89c6	0.09303622
204	0x3dc6635e	0.096869215
205	0x3ab5926c	0.0013852841
206	0xbd1d0dd6	-0.038343273
207	0x3e019487	0.12654315
208	0xbd085e1e	-0.033292882
209	0xbda5f998	-0.08104247
210	0x3cebf717	0.028804345
211	0xbe0f51a9	-0.13995995
212	0x3cc74c1d	0.024328286
213	0xbe169b06	-0.14707574
214	0xbcf4c5f6	-0.029879551
215	0xbce4d086	-0.027931463
216	0xbd0367bc	-0.03208135
217	0xbd5e8d6e	-0.054334097
218	0x3d97b512	0.07407583
219	0xbe0bce22	-0.13652852
220	0xbc6deb51	-0.014521436
221	0xbe07f7b3	-0.13278084
222	0xbe2024a3	-0.15638976
223	0xbe65769a	-0.22408524
224	0xbc296e84	-0.01034129
225	0xbd17c05c	-0.037048683
226	0xbda1e8bb	-0.07905718
227	0xbde70319	-0.11279888
228	0xbe38fc7a	-0.18065062
229	0x3d9874e6	0.074441716
230	0x3caffd6f	0.021483151
231	0xbe166483	-0.1468678
232	0xbd814c1b	-0.06313344
233	0x3df2aabf	0.118489735
234	0xbd974e31	-0.07387961
235	0x3db432f7	0.08798783
236	0x3df5ec4b	0.1200796
237	0xbde62222	-0.11236979
238	0x3d040e40	0.032240152
239	0x3e567159	0.20941676
240	0xbe0eee18	-0.13958013
241	0xbdb0b629	-0.08628494
242	0xbdf873b7	-0.12131446
243	0xbd0f6d39	-0.035016272
244	0xbe50226b	-0.2032563
245	0x3d8b49f3	0.06801214
246	0x3abed905	0.0014560526
247	0xbe24f91d	-0.16110654
248	0x3d9a674c	0.075392336
249	0xbe3816d1	-0.17977454
250	0x3d43a21d	0.047762025
251	0x3d4563de	0.048190944
252	0x3d9ae22b	0.07562669
253	0xbe58cfcd	-0.2117302
254	0xbd6ecf9d	-0.058303464
255	0xbdbba7c7	-0.0916286

action_model._discrete_distribution.branches.1.bias f4 [2]
0	0xbe01aaf1	-0.12662865
1	0x3e01aafc	0.12662882
