results/Easy/Player/Player-872600.pt (torch, 890334 bytes, 72 tensors)

discrete_act_size_vector f4 [1, 4]
000000 00 00 40 40 00 00 00 40 00 00 40 40 00 00 40 40
       3.0 2.0 3.0 3.0

network_body.observation_encoder.processors.0.normalizer.running_mean f4 [14]
000000 78 2d 7d be 13 3d de c0 f5 33 50 40 8e 01 6d 41
       -0.24724376 -6.9449553 3.2531712 14.81288
000010 13 2b b7 40 7e e9 ae 40 e4 85 be 40 0c c1 5d bf
       5.724008 5.4660025 5.953844 -0.8662269
000020 cf 0f a8 c0 2c c1 55 be 68 ca fe 3e 2a ee ce be
       -5.2519298 -0.2087447 0.497638 -0.4041608
000030 fe e7 88 be 21 96 ba 3b
       -0.26739496 0.0056941663

network_body.observation_encoder.processors.0.normalizer.running_variance f4 [14]
000000 90 ff e4 4c 9e 51 ce 44 05 9a 02 4b 46 a3 b0 4c
       1.2006106e+08 1650.5505 8.559109e+06 9.260907e+07
000010 41 a5 6a 4b 36 89 25 4a 01 d1 30 4a 16 3e 2e 4c
       1.5377729e+07 2.7121415e+06 2.8969602e+06 4.567663e+07
000020 8a 38 a2 4b 61 b0 18 50 56 be 14 4d 2c 75 a0 4a
       2.1262612e+07 1.0246784e+10 1.5596886e+08 5.257878e+06
000030 e2 1a 1a 4c 0b 34 9f 45
       4.0397704e+07 5094.5054

network_body.processors.0.normalizer.running_mean f4 [14]
000000 78 2d 7d be 13 3d de c0 f5 33 50 40 8e 01 6d 41
       -0.24724376 -6.9449553 3.2531712 14.81288
000010 13 2b b7 40 7e e9 ae 40 e4 85 be 40 0c c1 5d bf
       5.724008 5.4660025 5.953844 -0.8662269
000020 cf 0f a8 c0 2c c1 55 be 68 ca fe 3e 2a ee ce be
       -5.2519298 -0.2087447 0.497638 -0.4041608
000030 fe e7 88 be 21 96 ba 3b
       -0.26739496 0.0056941663

network_body.processors.0.normalizer.running_variance f4 [14]
000000 90 ff e4 4c 9e 51 ce 44 05 9a 02 4b 46 a3 b0 4c
       1.2006106e+08 1650.5505 8.559109e+06 9.260907e+07
000010 41 a5 6a 4b 36 89 25 4a 01 d1 30 4a 16 3e 2e 4c
       1.5377729e+07 2.7121415e+06 2.8969602e+06 4.567663e+07
000020 8a 38 a2 4b 61 b0 18 50 56 be 14 4d 2c 75 a0 4a
       2.1262612e+07 1.0246784e+10 1.5596886e+08 5.257878e+06
000030 e2 1a 1a 4c 0b 34 9f 45
       4.0397704e+07 5094.5054

network_body._body_endoder.seq_layers.0.weight f4 [128, 14]
000000 0c 0a f6 3e 75 dd 2f 3e 4a c5 3f 3e 34 4e 5a be
       0.4805454 0.17174323 0.18727604 -0.21318895
000010 e0 26 b6 3d d7 05 bf bd 67 b4 05 be 79 fe 4f 3f
       0.088941336 -0.09327286 -0.130571 0.8124767
000020 3c 99 2a 3f b5 84 20 be a2 95 54 3e a3 e0 ed be
       0.6664007 -0.15675624 0.20760205 -0.46460447
000030 d9 a6 96 3e 05 ac 1e bf 46 85 cf be 2e 92 98 be
       0.2942417 -0.6198123 -0.40531367 -0.29799026
000040 15 cd 02 be f1 00 9f bd 3f 82 1b 3c ad 28 2e 3f
       -0.12773545 -0.077638514 0.009491502 0.68030816
000050 a6 3f 30 3d c1 52 20 3e 54 43 83 3e 4c eb 40 be
       0.04302945 0.15656568 0.25637305 -0.18839759
000060 d9 bf d9 bd d0 8c 78 be 6c 5a da be 61 25 6a bf
       -0.10632295 -0.24272466 -0.4264711 -0.91463286
000070 ce 58 ba be ca 05 8d be 6e 34 c3 3e 0e 07 3a bd
       -0.36395878 -0.2754348 0.38125938 -0.045416884
000080 69 02 fa be ce d3 b5 be ba 79 82 3e c3 f3 88 3e
       -0.48829964 -0.35513157 0.25483495 0.26748475
000090 0b 80 1d bb ca 6d 15 3f 68 d2 87 bd 50 d3 b3 3e
       -0.0024032618 0.5837065 -0.06631929 0.35122156
0000a0 60 70 34 3c 3a 5b 12 3e d6 24 44 be 07 46 9d be
       0.01101312 0.14292613 -0.19154677 -0.3071749
0000b0 01 ca a6 be 3a 39 2d bd 06 78 2d be 50 83 67 be
       -0.32575992 -0.042290904 -0.16940317 -0.22608685
0000c0 74 8a c4 3d d7 5c 9e 3d 0a 6b a7 3e 2c 82 be 3e
       0.0959672 0.077325515 0.32698852 0.37208688
0000d0 1c 6f ca be 2d 27 00 bf 45 42 80 be b5 b7 9b 3c
       -0.39537895 -0.5005978 -0.2505056 0.019008497
0000e0 89 8a bc 3e 78 67 0e be 42 b5 67 be 61 28 30 bc
       0.36824444 -0.13906658 -0.22627738 -0.010751815
0000f0 e7 ab e0 3c 0d 07 84 be 71 15 1b 3f ad b4 b4 bd
       0.02742572 -0.2578663 0.6057959 -0.08823524
000100 ef 5b b6 be 71 46 e3 3e a0 13 b9 be ae d0 61 3d
       -0.35617015 0.4438968 -0.36147785 0.055130653
000110 8a 6f 23 3f e8 11 59 3d 47 7c bc 3e 65 39 e8 be
       0.6384207 0.052995592 0.36813566 -0.4535629
000120 91 5d a3 be e3 df 27 3e 2a d3 c7 be 59 6e 28 3e
       -0.31907323 0.16394 -0.39028293 0.16448344
000130 90 87 1b bd 3b 05 df be 99 d3 31 be 65 01 3e be
       -0.03797108 -0.43558678 -0.17365874 -0.1855522
000140 bd 65 1d 3e 01 07 9e be 5c 84 a9 bd 38 74 30 3e
       0.15370841 -0.3086472 -0.08277199 0.17231834
000150 08 38 33 be 3a 17 80 3e cd ea a8 3e e6 5d 07 be
       -0.17501843 0.2501772 0.3299164 -0.13219413
000160 df 85 a6 3e 17 d2 ab be f1 53 44 3e 87 61 27 3f
       0.3252401 -0.33558723 0.19172646 0.6538319
000170 6a 6d 4b 3e ed 38 4f 3e 41 27 a2 3d d2 fa ea 3e
       0.19865957 0.20236559 0.07917643 0.45894486
000180 9c fe 7f 3e 27 1b 84 bb 10 b5 d5 3d 6c 58 85 3c
       0.2499947 -0.004031557 0.104349256 0.016277514
000190 e7 37 ba be 5f 35 a3 3d d7 64 b7 be ac 91 1d be
       -0.36370775 0.07969164 -0.35819122 -0.153876
0001a0 16 0a cf 3e c8 da 04 bd 14 a3 b3 3c 05 d1 2e 3e
       0.40437382 -0.03243521 0.021928348 0.17071922
0001b0 3a ae 10 3e 54 fd 1f bf 5f 98 8a ba 02 57 37 3e
       0.14128962 -0.62495923 -0.0010573975 0.17904285
0001c0 28 f5 66 bd b3 2a 26 3e 62 ee c4 3e e3 c3 a1 be
       -0.056386143 0.16227226 0.38463122 -0.31594762
0001d0 58 8d c6 3e 1f cb b9 3d 6e e7 e9 bd 17 f7 10 be
       0.38779712 0.090719454 -0.11421095 -0.14156757
0001e0 f7 18 a4 3e b4 5b f4 bd 52 df c5 3d 76 20 3e be
       0.32050297 -0.119315535 0.096617356 -0.1856707
0001f0 16 7b 4b 3d fa 5a 85 bd 06 e1 91 be 69 38 ce 3e
       0.04967793 -0.06511493 -0.28491992 0.40277413
000200 b5 a4 1f 3f 08 c7 9c be c5 c8 fa 3d b6 34 9e 3e
       0.623607 -0.306206 0.12245325 0.3089959
000210 27 45 72 be 64 5a 1c 3c d8 7b 33 be 83 b1 29 3d
       -0.23659192 0.009543035 -0.17527711 0.041429054
000220 e6 92 85 be f0 a0 25 be 4d 50 ef bd 1e 3e df be
       -0.26088637 -0.16174674 -0.11685238 -0.4360208
000230 c6 99 fd 3c a3 8c 50 3f b2 b9 07 bd 45 10 7f be
       0.030957114 0.81464595 -0.033136077 -0.2490855
000240 56 38 b3 be ef c8 a2 3e 93 68 89 be 71 16 4c be
       -0.35003918 0.31793925 -0.26837596 -0.19930436
000250 43 e9 ea 3d f3 91 67 3d ad a7 d2 bd 0f da 15 bf
       0.114702724 0.056535672 -0.10285888 -0.58535856
000260 62 13 30 bc d5 85 b0 bd 60 d3 59 be 8b 1f a9 be
       -0.010746809 -0.086192764 -0.2127204 -0.33031878
000270 90 f0 41 be 08 0e 87 bb fe 0d be 3d 77 a9 26 be
       -0.18939424 -0.0041215457 0.092800125 -0.16275583
000280 1b 22 d6 be 7c b0 3e bf c4 21 81 3d 51 e7 e0 3c
       -0.41822895 -0.74488044 0.063052684 0.02745405
000290 6a 8a b3 bc 4f 6c 5b bf 12 71 64 3e 43 13 65 bd
       -0.021916587 -0.8571214 0.22308758 -0.055926573
0002a0 be cf 7a bd f8 68 81 3d c4 4e ab 3e 85 f1 2a 3e
       -0.061233275 0.06318849 0.3345853 0.16693695
0002b0 67 a1 82 3e 80 aa 2a be c9 82 15 be f2 fa 37 3f
       0.25513765 -0.16666603 -0.14600672 0.7186729
0002c0 88 f3 97 3e c4 04 86 3d 23 2d 45 be 1f 06 0c 3f
       0.29677987 0.06543878 -0.192555 0.5469684
0002d0 34 8b 13 3d 38 da b3 3e 45 70 26 3e b5 23 7e bf
       0.036021426 0.35127425 0.16253765 -0.99273235
0002e0 03 7c 51 be 86 db f5 be a1 2c e4 3d e4 28 be be
       -0.20457463 -0.48019046 0.11141325 -0.37140572
0002f0 b5 e4 43 3e 05 7e 9a 3e f5 a6 38 3d 21 52 f7 be
       0.19130214 0.3017427 0.045081098 -0.48304847
000300 fd ed f7 be b8 f7 32 3d 0c bf a6 bb 14 15 90 bd
       -0.48423758 0.043693274 -0.0050886925 -0.0703527
000310 45 72 2f 3e 3f e8 92 be fc c2 14 3e df 7b d5 3d
       0.17133434 -0.28692815 0.14527506 0.10424017
000320 af 95 04 3e 26 a5 ca 3e 74 ee ad be 50 64 31 be
       0.12947725 0.39579123 -0.33970988 -0.17323422
000330 69 92 26 ba 64 5a 22 3e 30 ab 65 be 92 a1 10 bf
       -0.0006354214 0.15854794 -0.22428584 -0.56496537
000340 37 8e 1f 3f 8d 79 88 3e 8e 32 82 3d 62 91 e5 3e
       0.6232638 0.26655236 0.06357299 0.4483748
000350 64 c0 17 be 60 13 8e be a4 83 cb 3d 81 09 20 3d
       -0.14819485 -0.27749157 0.09937218 0.039071564
000360 e1 89 0f 3e 28 63 14 3d bd 7c de 3d 40 f8 28 3e
       0.1401744 0.036227375 0.10863636 0.1650095
000370 96 c5 8a 3d f3 81 cd be 25 9a ba 3e cb 92 1f bd
       0.06775968 -0.40138206 0.36445728 -0.038958352
000380 fe 11 13 3f 63 7a 40 bd 3c a1 93 3e c7 79 dd bc
       0.5744933 -0.046991717 0.2883395 -0.027035607
000390 51 e7 26 be 59 18 8f bd 68 51 aa be 35 d9 b3 3e
       -0.16299178 -0.06987066 -0.33265233 0.35126653
0003a0 4a e1 86 bc aa 61 a1 3e ab 42 90 bd b7 06 07 bf
       -0.016464848 0.31519824 -0.07043966 -0.5274462
0003b0 49 6c 94 3c 3b 15 cf 3d 78 28 73 3e aa 95 af be
       0.01811804 0.10111471 0.23745906 -0.34293872
0003c0 76 52 c8 3d c8 81 90 3e b9 7c 95 be 65 41 85 3e
       0.09781353 0.28224015 -0.29196718 0.26026455
0003d0 3a 85 cb be 72 79 62 3e ca cf f4 3e db f6 91 be
       -0.3975008 0.2211664 0.4781478 -0.28508648
0003e0 84 6d f0 3e 27 4c 8c 3e df 87 08 3f cf 42 4b be
       0.46958554 0.2740185 0.5333232 -0.19849704
0003f0 78 27 e3 3d 9f 5e 3c be fa 70 9d be 2e 1f 2e bf
       0.110915124 -0.1839547 -0.30750257 -0.68016326

network_body._body_endoder.seq_layers.0.bias f4 [128]
000000 e4 fa 36 3d 7e 97 65 3a 23 de 1a 3c 51 79 b0 bb
       0.04467286 0.0008758231 0.009452376 -0.005385556
000010 31 b2 5b 3d 50 c9 14 bd 38 d9 02 bb be a3 9a bd
       0.053636733 -0.0363248 -0.0019965898 -0.075507626
000020 ef 41 1a 3d 0e a1 63 bc 44 55 68 3d 3a c1 47 bd
       0.037660535 -0.013893379 0.05672194 -0.04876826
000030 b1 27 e0 3c 91 f4 41 bc 62 28 3f 3c f0 3d 61 bc
       0.027362676 -0.011838094 0.011667343 -0.013747677
000040 33 ad 24 3d c7 06 d5 3c 7c 0c b0 3d 56 1d 91 3c
       0.04020424 0.026004208 0.08596131 0.017714184
000050 2f 95 90 3d 0b be da bc 54 6e 3a bc cb 5d 6b 3d
       0.070597045 -0.026701948 -0.011378843 0.057462495
000060 f6 83 5f 3d fa 11 5a 3d b6 fc 82 bb 1f a6 0d 3e
       0.054569207 0.0532398 -0.0039974106 0.13832901
000070 ee 0c 9e 3d d3 8f 65 3d 67 38 54 3d 1b 10 28 3c
       0.0771731 0.056045365 0.051811602 0.010257746
000080 55 5c 84 3d a8 c7 2a 3d d5 ad 97 3d 7b bb a1 3c
       0.064629234 0.041694313 0.07406203 0.019742718
000090 67 8f a6 3d ed bf b1 3c 88 5f 91 3c a0 a0 13 3d
       0.081328206 0.021697963 0.017745748 0.036041856
0000a0 93 3e 8f bd d9 86 4e bc 08 f3 28 3d 1f cb dd 3d
       -0.06994357 -0.012605392 0.041247398 0.10829758
0000b0 99 64 6f bb bf 6d 90 3b 83 c5 d0 3c 41 63 01 3d
       -0.0036528467 0.004407614 0.025484806 0.031588797
0000c0 8c eb 01 3d 33 a7 27 bd bd 01 85 3d a5 e5 d0 3d
       0.031718776 -0.040930938 0.06494472 0.10200051
0000d0 9d 6b 67 3c 25 d4 b3 bd 86 b6 55 3d d2 a4 e7 3c
       0.014124778 -0.08780698 0.05217602 0.028276835
0000e0 6d 53 c5 3c a6 a2 81 bd 7b d5 02 39 5a 29 f7 3b
       0.024087632 -0.06329851 0.00012477294 0.0075427713
0000f0 9b 3e 19 3d e8 8a 0a 3d 41 84 5f 3d 26 90 a7 3d
       0.03741322 0.033823878 0.054569487 0.08181791
000100 15 b8 1f 3d a0 f5 e8 3d f0 d3 1b bd 93 07 51 3d
       0.038993914 0.11374974 -0.038043916 0.051032614
000110 db 92 0d 3e df bf 65 3d 39 b8 8a 3d e3 cd 75 3d
       0.13825552 0.056091186 0.06773419 0.060010802
000120 3e 3d 74 3d fe ec ca 3d da b7 2e 3d ce 70 9b bc
       0.059628718 0.09908484 0.042655803 -0.018974688
000130 3e c6 93 bd 64 bd a1 3c 46 cb 58 3d e6 18 96 3d
       -0.07215546 0.019743629 0.05292823 0.07328968
000140 e7 b2 86 3c 52 be 8b bd 36 62 ef 3d 1b 25 c7 3c
       0.01644273 -0.0682341 0.11688654 0.024309685
000150 ea e0 ef 3d c9 1a f0 3c 7d b5 c0 3c ef 86 9e 3d
       0.11712821 0.029309647 0.02352404 0.0774058
000160 e4 2b 95 3c 67 0d 05 3e 83 2c 35 3d ed 65 95 3d
       0.018209405 0.12993394 0.044231903 0.072948314
000170 33 82 bf 3d 84 59 e3 3d b7 6c a5 bc f3 9a da bc
       0.093510054 0.11101058 -0.02019344 -0.026685214
000180 e6 12 c3 3d 74 67 2d 3d e4 14 46 3c 1a 77 22 3e
       0.09525089 0.04233499 0.012089942 0.15865746
000190 a8 59 22 bd 79 19 fb 3c d5 b9 91 bd b0 c9 fb bc
       -0.039636284 0.030651795 -0.07115523 -0.03073582
0001a0 a3 18 25 bd 19 99 db b9 81 3c 44 3d a7 aa 20 3e
       -0.0403067 -0.00041885002 0.047909264 0.15690099
0001b0 28 9d d1 bc 7e 04 93 ba 3e a6 2a 3e e5 6d 2b 3c
       -0.025587633 -0.0011216549 0.16664979 0.010463213
0001c0 14 93 56 3c d0 d0 cd 3d 94 5a 39 3d 61 b4 88 bc
       0.01309659 0.100495934 0.045252398 -0.016687574
0001d0 d4 dd 8f 3d 25 d3 0b 3d 69 71 8e 3c c7 86 28 3d
       0.07024732 0.03413691 0.017388063 0.04114416
0001e0 26 31 0e bd ce 62 ce bc 05 18 89 bc 3f ff 7e 3d
       -0.03471484 -0.025193598 -0.016735086 0.06225514
0001f0 c1 a1 0a 3c d4 81 30 bd db ae 56 3b da e7 3b 3a
       0.008461417 -0.043092564 0.003275803 0.00071680325

network_body._body_endoder.seq_layers.2.weight f4 [128, 128]
000000 ff 07 3f be 54 3b cd bc be f3 76 bd db 1b 21 3e
       -0.18655394 -0.025052704 -0.060291044 0.15733282
000010 ab ed 0d 3d bb 66 3a 3e 9b d3 29 bd 38 01 3c 3b
       0.034650486 0.18203251 -0.04146157 0.002868725
000020 ad 68 a3 3d e4 08 90 3d 3b 82 92 3e 5d 42 a5 3e
       0.0797895 0.07032946 0.28614983 0.32277194
000030 07 ab 02 be 74 e0 11 be 61 98 0a 3e 52 ab 6f 3d
       -0.12760554 -0.14245778 0.1353469 0.058512993
000040 9f a6 16 be f5 37 a0 bd 8e 53 cd bd b1 b5 28 3e
       -0.14711998 -0.07823173 -0.100257024 0.1647556
000050 f1 40 18 3d 03 2e 12 3e 84 1e 33 bd 81 f5 ed bc
       0.037171308 0.14275365 -0.043730274 -0.02904773
000060 77 cc 08 3e 89 42 72 bd ea 03 58 3e 63 e5 67 3c
       0.13359247 -0.059145484 0.21095243 0.014153811
000070 cb 1d 81 3e e9 a3 f8 bd 4e 35 d5 3d 2c a6 4c 3d
       0.25218043 -0.121406384 0.10410558 0.04996316
000080 8e 20 03 be 82 93 3f 3e 10 05 49 be 2f cf 71 be
       -0.12805387 0.18708614 -0.19630837 -0.2361419
000090 31 99 65 3d c5 29 b7 3c e0 ad 9b 3d 14 91 1b bd
       0.056054298 0.022358784 0.076015234 -0.037980154
0000a0 72 c1 3c 3d d4 38 5b 3e 8b 7e 45 3e 2a 5b c3 3d
       0.04608292 0.21408397 0.19286554 0.095388725
0000b0 15 61 4f 3b 67 a3 07 3d 81 13 b7 bd 64 51 48 3c
       0.0031643559 0.033114817 -0.08939267 0.012226436
0000c0 81 3b a7 3e 9e 67 e1 bc 95 0d aa 3c a6 df 79 3d
       0.32662585 -0.027515229 0.02075843 0.061004303
0000d0 61 58 9b 3e 33 48 11 be 24 6c 08 bc 40 ea 32 be
       0.30340865 -0.14187698 -0.008326564 -0.17472172
0000e0 02 3b 34 be 75 ed 1b 3d 62 36 9f bc 21 fb 7b be
       -0.17600635 0.038068254 -0.019435111 -0.24607517
0000f0 7e cc 87 bc 50 b1 87 3d fe 56 d5 3d 96 d0 b1 bd
       -0.016577002 0.066256166 0.10416983 -0.08682363
000100 be 8c eb 3d 28 45 61 be f8 70 74 be ef 7a 0d 3d
       0.11501454 -0.21999037 -0.23871219 0.034541067
000110 f4 eb c5 bd 5b 8f 23 3e 8e 81 c8 bd f5 5a 0c be
       -0.09664145 0.15972655 -0.097903356 -0.13706572
000120 e3 9f e8 bd e5 82 15 3e 63 4f 3c 3e ee 4a a8 3d
       -0.11358621 0.14600714 0.18389659 0.08217417
000130 e6 3e a1 3e f6 03 b5 3d 55 bb e0 3d 8e 7f 01 3e
       0.314933 0.08838646 0.10973231 0.12646315
000140 f4 99 70 be 99 c0 0e be f6 1c 58 3e c3 d2 ee bd
       -0.23496228 -0.13940658 0.21104798 -0.11661293
000150 12 b2 fb 3d 01 ee 2b 3e 0a cc 76 3d 9c 65 77 bd
       0.122898236 0.1679001 0.06025318 -0.060399637
000160 ae b5 96 bc 56 b7 68 3c f2 c3 95 bd 08 1c a9 bd
       -0.018397179 0.014203867 -0.07312764 -0.082573
000170 01 76 a4 3d 0b a5 9e 3d 5c c9 28 3c 12 37 b8 3c
       0.0803032 0.07746323 0.010301914 0.022487197
000180 70 8c 42 3e 1c 83 44 be 94 b7 aa bd cb a8 40 3d
       0.18998885 -0.1919064 -0.08335796 0.047035974
000190 d3 82 27 bd 9e fe 38 3e 88 74 a2 3d fa cd 04 3e
       -0.040896248 0.18065879 0.07932383 0.12969199
0001a0 2d e5 30 3d 40 4d 70 3c 0f 11 23 bd 32 cd 7c 3d
       0.04318731 0.014666855 -0.03981119 0.061719127
0001b0 7d d5 17 3c 84 2f 6d 3e 80 4c 88 be 32 7e b9 bd
       0.009267208 0.23162657 -0.26620865 -0.09057273
0001c0 5e 6f c2 3b 66 b6 7e be 8b 99 8f 3d 6f 33 5f 3e
       0.005933686 -0.24874267 0.07011708 0.21796964
0001d0 0c e2 49 3e d3 1c 52 3e 3b 0c ed bd 74 69 91 bd
       0.19715136 0.20518808 -0.115745984 -0.07100192
0001e0 97 14 b7 3c e3 35 a2 3d 2e 32 87 bd e3 ab 53 3e
       0.022348685 0.07920434 -0.06601368 0.20671038
0001f0 1d 4d 52 be 3d 5a 29 bd a7 7e df 3d b1 98 75 bc
       -0.20537229 -0.041345824 0.10912829 -0.014990018
000200 77 b8 ca 3d 1c b1 63 3e 1a ab ec bd 6b ec 2b bc
       0.09898465 0.2223553 -0.115560725 -0.010493378
000210 c3 d1 76 be 20 b2 f4 bd ad de 77 3d 2e 97 d6 bd
       -0.24103455 -0.11948037 0.060515095 -0.10478054
000220 2c e2 61 3e 37 c5 a6 3d 4a 56 04 3d e6 19 97 bd
       0.22058934 0.081430845 0.032308854 -0.073779866
000230 6c 8b 1d 3e de ed 0b 3d 9e 00 88 3d 59 d1 b5 3d
       0.15385216 0.034162395 0.06640743 0.088778205
000240 96 3a 03 3e ef 3a 98 3d 43 9b 65 bd d8 2f 85 3e
       0.12815318 0.07433116 -0.056056272 0.26013064
000250 be 9e 04 3b c4 06 93 3c 33 0c 9d 3d 8b 5a 12 be
       0.002023622 0.017947562 0.076683424 -0.14292352
000260 18 66 15 3e c7 80 a0 3d 21 87 58 3d fc a5 26 be
       0.14589727 0.07837062 0.052863244 -0.16274256
000270 29 6b 2c 3d b8 70 0f 3e 31 e2 09 be 19 70 04 3e
       0.042094383 0.14007843 -0.13465191 0.12933387
000280 66 50 5f be 30 d4 e1 bd f4 24 7b 3d b7 d9 89 3d
       -0.21808013 -0.110268 0.061314538 0.06730979
000290 e3 fa 1f 3d b7 15 80 3e af 4a ee bd 86 c0 f2 bd
       0.039057624 0.25016567 -0.116353385 -0.11853127
0002a0 a3 34 14 be de b5 ad 3e 6d cf 2d bd 54 9e 36 be
       -0.14473204 0.33927816 -0.042434145 -0.17833835
0002b0 5f b3 a3 3d 24 19 04 3e da 15 e5 bd 24 d8 20 be
       0.07993197 0.12900215 -0.111858085 -0.15707451
0002c0 ad a7 8c 3d 96 11 0d bd 3e 9c 7d bd fc 01 8a 3c
       0.06867919 -0.0344406 -0.061916582 0.01684665
0002d0 e3 08 a9 bd cc 40 92 3d 63 9b 52 bc 9c 92 71 be
       -0.08253648 0.07141265 -0.01285443 -0.23591083
0002e0 e3 1d 85 be 35 ee e4 3c e5 b2 69 be 51 cb d8 3c
       -0.25999364 0.027945617 -0.22822149 0.026464136
0002f0 bf a1 f5 bc f4 85 7e 3d d7 ed ec 3d 4f 55 88 be
       -0.029984353 0.062139466 0.11568802 -0.26627585
000300 b6 d2 7b 3d bc 92 6c 3c c6 4b 27 3b 6a aa 6f bd
       0.061480246 0.014439281 0.0025527342 -0.05851213
000310 e9 21 f8 bd 40 cc 75 3c ac 6a a0 3d a0 8e 5b be
       -0.12115843 0.01500231 0.07832846 -0.21441126
000320 f3 1b fb ba 41 fa f6 bd 5e d2 6b bd 87 10 7b be
       -0.001915811 -0.12059451 -0.05757367 -0.24518023
000330 49 71 cc 3d 5d e4 80 3e d9 40 8b 3d 4d 64 ab bd
       0.09982545 0.25174227 0.06799478 -0.0836874
000340 47 67 08 bd ee b3 3d be ce e5 2d 3d 77 4f 47 bc
       -0.033301618 -0.18525669 0.042455487 -0.012164942
000350 27 ad 14 be df 80 64 be 5d b0 e4 bd 40 07 e7 3c
       -0.14519177 -0.22314785 -0.11166451 0.0282017
000360 97 a8 91 3d 66 72 27 bd 2c d9 32 be a6 98 3d 3e
       0.07112234 -0.040880583 -0.17465657 0.18515262
000370 f7 1b 91 bd 68 60 f6 be 5a a8 b5 bd 64 7b 5a 3e
       -0.07085412 -0.48120427 -0.08870001 0.21336132
000380 36 96 00 3e da 14 c2 3d 86 bf 94 bd 5f aa 92 bd
       0.12557301 0.09476633 -0.07263093 -0.07161402
000390 90 b1 c6 3d 3f 65 ab bc 05 e0 6d 3d 99 ab fc bc
       0.09701836 -0.020922301 0.05807497 -0.030843543
0003a0 b8 67 04 3e 9f f9 25 3e 27 14 2e 3e 21 ce 44 bd
       0.1293019 0.16208504 0.16999875 -0.048048142
0003b0 d9 93 e0 3d 9d 62 19 be 6b 40 06 be 28 12 42 3c
       0.109657 -0.14979024 -0.13110511 0.011845149
0003c0 8a 3a 29 be 2f af 9c 3d d5 5e 68 3d 6c fb f8 3d
       -0.16526237 0.07650601 0.056731064 0.1215733
0003d0 65 70 31 be da 1e 0f bd 6c ed 77 bd 5a 75 44 bd
       -0.17328031 -0.03494153 -0.060529158 -0.047963478
0003e0 bb c2 1f bd bd d4 c5 3d 05 d8 2c be 2b 3b 27 3e
       -0.03900407 0.09659717 -0.1687928 0.16331165
0003f0 24 28 38 be 1a 07 7e bd 9c 60 40 be f8 26 05 be
       -0.17984062 -0.06201849 -0.18786854 -0.13003147

network_body._body_endoder.seq_layers.2.bias f4 [128]
000000 5f c3 61 ba 89 47 80 3c 48 c1 8c bc 6d 94 37 bc
       -0.00086121814 0.01565911 -0.017182007 -0.011204821
000010 bd 61 85 bd 52 37 c1 3c 0d 8d bd bd f1 e9 40 3d
       -0.06512783 0.02358595 -0.09255419 0.047098104
000020 5f ff 05 bc ce dc 25 bd fc f1 a3 bd 2a af 26 3d
       -0.008178561 -0.04049378 -0.08005139 0.040694393
000030 d9 6f 2b 3b 3a 23 a9 bc a1 36 5d bc 3f 5e 57 bc
       0.0026159196 -0.02064668 -0.013501794 -0.013145029
000040 71 cf 8d 3c b4 8b af 3c ff 0d da 3c 7e c3 20 3d
       0.01731083 0.02142892 0.026618002 0.039248936
000050 6d 9f 00 be ec bb cf 3b ed b2 47 3d 83 28 f3 bb
       -0.12560816 0.0063395407 0.04875462 -0.007420601
000060 5c 38 e8 3c 93 18 5f 3d 04 a7 07 bd ec 78 45 bd
       0.028347187 0.054466795 -0.033118263 -0.048211023
000070 c6 43 ed bc 39 31 0f 3e 1d 6d a8 bc 36 8d 73 bd
       -0.028962981 0.1398362 -0.020559842 -0.05946084
000080 3a 0b f9 bc 4e 73 17 bc b2 35 c4 bd 5c c8 b2 3c
       -0.030400861 -0.009243799 -0.09580554 0.021824054
000090 ae 1c a4 3d a9 36 03 bd d9 1b c0 3c 67 58 76 3d
       0.08013283 -0.03203455 0.023450779 0.0601429
0000a0 0b 15 b0 ba 6a 68 04 3a 0e 4c a8 3d 42 ad 3b 3d
       -0.0013434006 0.00050509593 0.08217631 0.04581953
0000b0 bd 85 ca bb bc 53 42 3d 0e 64 af bd 1e ef 49 3d
       -0.0061804936 0.047443137 -0.08564006 0.049300306
0000c0 46 8c 9d 3d cd e1 d1 3c 6f e1 33 3d 19 41 a8 3c
       0.07692771 0.025620366 0.043916162 0.020538853
0000d0 35 3b 50 3c 59 19 40 bd 99 00 70 bc c2 16 0a 3d
       0.012709429 -0.046899173 -0.01464858 0.03371311
0000e0 22 58 4c 3d 6a 56 12 bc 2c 26 5e bd 29 b3 b3 bc
       0.049888737 -0.0089317355 -0.054235622 -0.021936016
0000f0 83 0b 1f 3d c0 90 a1 3d 06 2c 15 3c 5d b8 3b 3d
       0.038829338 0.07888937 0.009104734 0.04583012
000100 0b 90 04 3d aa f4 92 bc 13 d9 a3 3d ec 74 ee 3d
       0.032363933 -0.01793893 0.08000388 0.11643395
000110 de 28 8f bc a7 f3 be bc 64 27 b9 3c a5 0a ee bc
       -0.017475542 -0.023309542 0.02260179 -0.02905781
000120 c7 74 a1 3d 90 8e 68 3d d5 43 85 bd 4c 54 43 3c
       0.07883602 0.056776583 -0.065070786 0.011921953
000130 75 a2 36 bd 38 ca fb 3c d3 f0 7e bc fe f4 45 bd
       -0.044588525 0.030736074 -0.015560347 -0.048329346
000140 20 54 92 3c 1e 87 bd bc 30 98 33 3d 5c 91 5b bc
       0.01786238 -0.023135718 0.04384631 -0.013401356
000150 e3 3e 3b 3c 3f d7 bd 3b 17 12 96 3d da 81 9e 3b
       0.011428568 0.0057934816 0.07327669 0.004837257
000160 41 5a 24 bd 9c d1 1f 3d a7 fc 97 3d e4 30 e4 3c
       -0.040125135 0.03901826 0.074212365 0.027855344
000170 60 09 8c bd d9 43 a7 bd ce 15 24 bc a9 30 25 3d
       -0.06837726 -0.08167238 -0.010014964 0.04032961
000180 65 4f b0 3c 5c f7 b8 bd d6 10 f0 bc d4 78 a8 3d
       0.021522233 -0.09031555 -0.029304903 0.08226171
000190 67 be 8c bc e9 a4 3c 3c 2e 51 97 3c 01 09 b0 3b
       -0.017180635 0.011513927 0.018471327 0.005372167
0001a0 22 a5 c2 bc a4 16 88 bd f3 f2 31 bd 12 9a 1e bd
       -0.023760382 -0.06644943 -0.043444585 -0.03872115
0001b0 ca 99 9f bc 60 cf b0 3c ac 65 74 3d 8f 7e 62 bc
       -0.019482512 0.02158326 0.059667274 -0.013824119
0001c0 fb 3f 9f 3c 95 42 76 3c f8 e8 18 bd 07 4a 93 bc
       0.019439688 0.015030523 -0.03733155 -0.017979635
0001d0 ec 4e 50 3d 72 00 dc 3d b0 46 39 bd 01 0c 99 3d
       0.050856516 0.107422724 -0.04523343 0.07472993
0001e0 78 0e 2f bc 34 7c 03 bd 07 62 77 bd 9c 73 a6 bd
       -0.010684602 -0.03210087 -0.06039622 -0.081275195
0001f0 ce d4 65 3c cf 95 d2 bc a0 ca b0 3c be f1 7c bc
       0.014027787 -0.0257062 0.021580994 -0.015438495

network_body._body_endoder.seq_layers.4.weight f4 [128, 128]
000000 24 cb 52 be 97 ed 18 be c0 7f 69 be b0 36 b1 3d
       -0.20585304 -0.14934383 -0.22802639 0.08653009
000010 c5 15 13 be f9 e3 46 bc 27 86 6f bd 99 2d 21 be
       -0.14363773 -0.012139314 -0.058477547 -0.1574005
000020 bc af 14 3d 8a 57 6b 3e fb 40 b3 bd dd 0d 1d be
       0.036300406 0.22982612 -0.087526284 -0.1533732
000030 90 6c 0d be 06 a4 a9 bd a2 1e 59 3e 8c 0a 19 be
       -0.13810945 -0.08283238 0.21203092 -0.1494543
000040 3c 4a 53 be 30 7f 9c 3c af 04 1d be f4 67 ec 3a
       -0.20633787 0.019103616 -0.15333818 0.0018036352
000050 05 82 25 3d 78 50 db 3d 84 dd 76 3e 73 19 48 3e
       0.0404072 0.107087076 0.24107939 0.19540958
000060 ab 1b 77 bd 5f 77 4d be 81 49 68 be 2e 37 16 3e
       -0.06032912 -0.20065068 -0.2268429 0.14669487
000070 5b 2a 91 3e a4 11 1d 3e 41 44 69 3c 6d b8 0e bd
       0.28352627 0.1533876 0.014237464 -0.03484385
000080 c7 f6 b1 3d 44 b5 c6 3b 3c c2 c5 bd fb b6 6d 3d
       0.08689647 0.006064089 -0.09656188 0.058035832
000090 17 87 3e be 7f 49 9b bd 44 8b cd bd f3 40 17 be
       -0.1860622 -0.07582378 -0.100363284 -0.1477087
0000a0 af 92 93 3c 79 1e a5 3b a2 cb 49 be c7 7f 55 3d
       0.01801428 0.005039033 -0.19706586 0.05212381
0000b0 bd 7a 22 3d 40 2a c7 3a a1 60 4f 3d 15 8e 42 3e
       0.039667834 0.0015195087 0.050629262 0.18999512
0000c0 f4 5d 18 be d3 8e b1 3c c4 fd 26 3e 89 eb f6 bd
       -0.1487959 0.02167455 0.16307741 -0.120566435
0000d0 14 37 7a be 0d 89 ef 3c 48 62 0b be dd 3d 97 3e
       -0.24435073 0.029240156 -0.1361171 0.29539385
0000e0 08 14 cc bc 31 ea b6 bd 83 89 98 bc 8e 42 9f 3e
       -0.024911895 -0.08931387 -0.018620258 0.31105465
0000f0 e3 c0 f7 bd 0d cb e3 bc d1 e3 3a bd 40 3a 98 bd
       -0.12097337 -0.027806783 -0.04562742 -0.07432985
000100 42 fa 22 3c 91 08 8e be 60 f8 53 be 4a b5 18 bd
       0.009947361 -0.2774091 -0.20700216 -0.037282266
000110 ff b3 c7 3d 50 f8 38 be 60 21 0d be de 73 4f be
       0.097511284 -0.18063474 -0.13782263 -0.20259044
000120 23 f7 06 be 59 c6 5c bd 9f 76 dc 3d 28 42 c6 3d
       -0.13180213 -0.053900097 0.10764813 0.09680587
000130 88 0b 1d be b6 05 73 be 85 cf 0f 3d 2e be 10 3d
       -0.1533643 -0.23732647 0.035110015 0.03533762
000140 25 91 b9 bd 2c 0c 0b bd d2 d5 2e ba 7f 5c 15 be
       -0.09060887 -0.033947155 -0.0006669435 -0.14586066
000150 e5 c3 ef 3d bf e7 15 3e 95 9c 92 be f1 85 8a 3c
       0.11707286 0.14639185 -0.28635088 0.016909571
000160 4d 18 3f 3d 5e 46 1d be 52 15 14 3e 85 2b 17 bd
       0.046654034 -0.15358874 0.14461258 -0.036906738
000170 c8 51 66 be 3c 90 b5 3d d7 d1 f1 3d f0 7c 81 be
       -0.22492135 0.08865401 0.11807602 -0.25290632
000180 31 54 f6 bd 63 8b 89 bb fa 1b 13 bd 46 c8 45 be
       -0.12027777 -0.0041975244 -0.035915352 -0.1931468
000190 bf 1e 77 3c 4e 44 8a be 08 d7 e9 bd 03 78 41 3e
       0.015083014 -0.27005237 -0.11417967 0.18893437
0001a0 6e 50 17 be 8f 95 88 3e 9a 3a 9f bd 46 0e 5f 3e
       -0.14776775 0.26676604 -0.07774849 0.21782789
0001b0 be 5d 79 3d b1 cc d1 3d ef d8 38 bd 38 fb 0f 3e
       0.060880415 0.1024412 -0.04512876 0.14060676
0001c0 81 05 40 be 46 66 f2 3d e8 1d 95 bd 86 15 2e be
       -0.187521 0.11835913 -0.07281095 -0.17000398
0001d0 66 f1 bf bd 9e e5 6e be ec c9 34 bd 45 69 c3 bd
       -0.09372215 -0.2332978 -0.04413788 -0.09541563
0001e0 ae a0 a1 bd 92 08 30 be 6e f3 81 bd 94 c3 a4 3d
       -0.07891975 -0.1719077 -0.06345259 0.08045116
0001f0 ca 9a 0b be ad 13 65 bd 87 b0 9b bd 0e da e4 3d
       -0.13633266 -0.055926967 -0.07602029 0.11174403
000200 f4 70 44 be a9 66 dc 3c 4a 37 a5 bd d6 e7 1f 3e
       -0.19183713 0.02690442 -0.08067186 0.15615782
000210 ae 9c 02 be 33 dc d0 bd c0 ab 28 bd 90 5e 8e be
       -0.12755081 -0.1019825 -0.04117942 -0.2780652
000220 1d 5f 26 be fa 1b f1 bd 9e 06 e4 3d ac 21 68 be
       -0.1624722 -0.11772914 0.11134075 -0.22669095
000230 eb ab 0f bd ca 1d 1b bd c1 03 c0 3d 52 e6 e7 bd
       -0.035076063 -0.037870206 0.09375716 -0.11323227
000240 c4 02 ad bd f9 7d 7f bd 01 d8 03 bc 5a af 39 3e
       -0.08447793 -0.062375996 -0.008047105 0.18133298
000250 b1 c3 81 bd 6b 30 e2 bd bc c1 fb bd ee 80 7d be
       -0.06336153 -0.11044391 -0.12292811 -0.24756214
000260 be 6f 1d be aa ff 9c be f0 67 7d 3d 75 c4 16 bd
       -0.15374658 -0.30663806 0.0618667 -0.03680845
000270 49 28 19 be b5 13 c0 bd dd 64 3e be 6e 73 0c be
       -0.14956774 -0.09378759 -0.18593164 -0.13715908
000280 dc 21 43 be 0d a4 1d be e4 01 28 3e 04 94 8b 3c
       -0.19055885 -0.15394612 0.16406971 0.017038353
000290 cf 2e a5 be db 6e 00 be d0 4f d2 3d e8 29 c4 3d
       -0.32262275 -0.12542288 0.10269129 0.095783055
0002a0 a7 8c 96 3d 29 27 80 3e a4 f8 48 be e9 0f 37 be
       0.07351046 0.25029877 -0.19626099 -0.17877163
0002b0 c4 ef 33 3d 8a 1c 65 be 0b e9 89 3b dd 64 99 3c
       0.04392983 -0.22374168 0.004208689 0.018724853
0002c0 84 9d 98 bd 0c 8b 1d 3d d6 8a 47 3d d7 5b d0 3c
       -0.07451919 0.038462684 0.04871639 0.025434418
0002d0 d3 d5 b7 3d 3d 59 d6 3c a7 89 a4 bd d1 5c b3 bd
       0.089763306 0.026165599 -0.080340676 -0.08757938
0002e0 c2 ba b7 be be 62 26 bd 33 a9 fb bc ab 29 52 bd
       -0.35884672 -0.04062151 -0.030720329 -0.05130927
0002f0 93 9d ee bc 61 37 36 be bd 6d e9 3c fd b7 9f bd
       -0.029127872 -0.17794563 0.02849471 -0.07798765
000300 2e d8 f9 bc 2e a5 c7 bd 15 02 59 be 40 bf 15 3d
       -0.03049859 -0.097483024 -0.211922 0.036559343
000310 60 dc f7 3c ad 7d 2e be b7 60 bf be 28 63 58 be
       0.03025645 -0.17040129 -0.37378475 -0.21131575
000320 15 28 5c 3c 63 9f b0 bd 2e f6 e4 bd 15 83 4a 3e
       0.013437291 -0.086241506 -0.111797675 0.19776566
000330 36 bf 6c 3d 46 60 f6 bd 38 4e 78 be 2d 3d 9c bd
       0.05779954 -0.120300815 -0.24248588 -0.07628856
000340 68 42 56 3d 0a cc 2a 3e ff 00 8f 3d 12 87 1e be
       0.052309424 0.16679397 0.06982612 -0.15481213
000350 17 1f b7 3d f2 c5 4d 3d 1f 1f 17 bd e0 63 27 be
       0.08941477 0.050237603 -0.036894914 -0.16346693
000360 a4 13 5f bc 56 a2 f4 bd e8 87 1c be 44 49 07 be
       -0.0136155225 -0.119450256 -0.15286219 -0.13211542
000370 5f 71 de bd f8 0f 3f 3d d6 ad 3f be 32 a5 05 bd
       -0.108614676 0.04664609 -0.18718657 -0.032628246
000380 b4 d9 a3 bb cd 35 37 3e 02 ab 54 bd 6c 38 97 bd
       -0.0050003175 0.17891617 -0.0519209 -0.073838085
000390 1e c0 a9 bd cf f0 ca bd ff fb c2 bc 06 d5 6a be
       -0.082885966 -0.09909212 -0.023801802 -0.22932824
0003a0 6f 26 20 be 14 7b 09 3d 6a 12 4a bc 5e 53 da 3d
       -0.15639661 0.033564642 -0.012333492 0.10660432
0003b0 5a c1 6d bd d0 75 2b be 64 03 3b 3c b5 0a c5 bc
       -0.058045723 -0.1674416 0.011414383 -0.024052957
0003c0 fd a5 de bd 02 92 84 bd c9 b2 96 3d 36 d7 10 3e
       -0.108715035 -0.06473161 0.07358319 0.14144596
0003d0 7d b8 4b bd 5a 34 27 bd 2b 3e 8a 3c 39 5d 9a bc
       -0.04973649 -0.04082141 0.016875347 -0.01884328
0003e0 6f a3 23 bd c1 ff ce bc 9e 5f 82 be 8d c9 7f 3e
       -0.039950784 -0.025268437 -0.25463575 0.2497923
0003f0 e9 f3 fc 3c 72 eb 38 bc 2a 29 98 3d 4f ff ba 3d
       0.030878024 -0.011286603 0.074297264 0.091307275

network_body._body_endoder.seq_layers.4.bias f4 [128]
000000 6d 31 f4 bd aa 21 1b be aa 70 3f 3c ef 7a 4c bd
       -0.1192349 -0.1514956 0.011684576 -0.049921926
000010 55 27 eb bc 22 84 95 3c ca d7 af bc 2c 00 7f bd
       -0.028705278 0.018251482 -0.0214652 -0.062256023
000020 85 c4 83 3c fc 07 2f 3d 55 7e 9a bd 5d 7a 22 bd
       0.016084919 0.042732224 -0.07543627 -0.039667476
000030 cf 06 69 3d 30 e6 f3 bd d6 39 a0 bc 9f a2 91 bd
       0.05689126 -0.11909139 -0.019558828 -0.07111096
000040 2a 05 0d 3d c6 28 79 bb 2a 75 a8 bd eb 94 5b bd
       0.034428753 -0.0038018688 -0.08225472 -0.053608816
000050 dc 76 cc 3d f2 be 47 3b 38 72 54 3b f4 25 24 3d
       0.09983608 0.0030478803 0.0032416712 0.040075257
000060 fe 97 0f be 61 59 61 3d 43 bb e0 3b fc f0 23 bd
       -0.14022824 0.05501688 0.006858261 -0.040024742
000070 3b b1 27 bc da 0e a8 3c 8f 40 3c 3d a0 af fc bc
       -0.010235126 0.020514894 0.045960005 -0.030845463
000080 85 b7 86 bd 90 4e 07 3c ba 6b 74 3b ca ed e4 bc
       -0.06577972 0.008258477 0.0037295655 -0.027945418
000090 3e 0e f1 bc 8e 57 cf bd 8e a6 36 bb de 3f c8 bc
       -0.029425737 -0.101241216 -0.002787027 -0.024444517
0000a0 0e fc b5 bb 1b a7 b5 3b aa b3 98 bb e5 5e 07 bc
       -0.005553729 0.005543602 -0.0046600895 -0.008262371
0000b0 e1 1c ae bd 00 a2 8f bb 30 40 7a bd f3 f7 93 bd
       -0.08501602 -0.0043833256 -0.06109637 -0.07225027
0000c0 e9 c7 56 bd c5 93 0b 3d 6c f5 22 bd 9d f0 00 bd
       -0.052436743 0.03407647 -0.039784834 -0.031479467
0000d0 7d ae 0a be 31 75 4e 3b 03 db 57 bc e3 93 a8 bd
       -0.13543124 0.0031502957 -0.013174775 -0.08231332
0000e0 ea b1 cf bc 37 8d 07 bd 0b eb d7 3d 20 f9 c1 3d
       -0.02535339 -0.033093657 0.10542878 0.09471345
0000f0 1d 9d 44 3c a0 e5 ae 3c 9d 3e 48 bb 0c 3b 31 bb
       0.012000349 0.021349728 -0.0030554899 -0.0027043251
000100 93 26 58 bd 36 a8 bf bc b6 31 13 bd 62 47 2a 3b
       -0.052771162 -0.023395639 -0.03593608 0.002598249
000110 8b 76 99 bd 3d e8 d7 3c 0b 04 85 3d 78 c9 08 bd
       -0.074933134 0.026355857 0.06494912 -0.03339526
000120 43 79 ac 3c b6 6b 5a bd c0 60 0c 3d 58 4e a0 3b
       0.021053916 -0.053325377 0.034271955 0.004892152
000130 af d5 a2 3d 96 a7 cc bb be 57 2c bd f5 8e 0f bd
       0.07950913 -0.0062455637 -0.042075865 -0.035048444
000140 b2 90 3d bd cd 71 63 bd 2a f2 aa 3b e8 12 7b bd
       -0.04628057 -0.05552845 0.0052168565 -0.061297327
000150 0c 17 a0 3d 1c e4 f7 3b 90 7d 17 bd a9 8a 1a bd
       0.07816896 0.0075650346 -0.03698498 -0.037729893
000160 2e 36 a9 bd 00 c8 8c 3b 4e 9f 00 3d 48 40 09 3d
       -0.08262287 0.004296303 0.031401925 0.03350857
000170 91 2f 4c bd 39 47 bb 3c 65 5e ad ba a3 48 52 bc
       -0.04985005 0.02286111 -0.0013226984 -0.012834701
000180 89 dd c2 3c e4 97 ba bc 45 95 74 bd 07 ab e8 bc
       0.023787277 -0.022777505 -0.059712667 -0.028401865
000190 da 89 96 bd 47 3c 45 bd af fc 0a bd 07 40 39 bd
       -0.07350512 -0.048153188 -0.033932384 -0.045227077
0001a0 44 7d ef 3c 4c d9 9f 3c 88 5e f3 3c ec 01 97 bb
       0.029234536 0.019512795 0.029708162 -0.0046083834
0001b0 fb 38 ba 3d 3b b3 1f bd 78 bb 10 3c 56 d1 7a 3d
       0.090928994 -0.038989287 0.0088337585 0.061234795
0001c0 2a 0c 1c 3c 50 fa 93 bb f4 f0 a7 3b a5 fb 14 bd
       0.0095243845 -0.0045159236 0.0051251594 -0.0363728
0001d0 68 99 af bd 78 07 14 3d 32 c7 a1 38 af 75 d5 3c
       -0.08574182 0.036139935 7.714181e-05 0.026057092
0001e0 e1 e4 7a bd bd 2d 25 bb 7e 6a 0b bd ff eb 16 bd
       -0.061253432 -0.0025204264 -0.034037106 -0.036846157
0001f0 9a fe e9 3c 08 99 2b bd c5 43 0b bc f0 43 8d bd
       0.028563786 -0.04189399 -0.008500044 -0.06897724

action_model._discrete_distribution.branches.0.weight f4 [3, 128]
000000 db 51 25 3d cf 10 60 3d b5 6d ae 3b 5b 97 ed 3d
       0.040361267 0.05470353 0.0053231367 0.116011344
000010 b6 b1 9c bd db ec 02 3d e9 90 68 3d fb cd cf 3d
       -0.07651083 0.031964164 0.056778822 0.101467095
000020 04 f1 02 be 32 5f d8 3d 39 fb 5b bd 4d 00 39 3d
       -0.12787253 0.10565032 -0.05370638 0.045166302
000030 1c bf 04 3d 86 ec a5 3c 7e d4 ab 3d ca 6d 46 3d
       0.03240882 0.020254385 0.08390139 0.048444547
000040 91 1b ee 3a 5a 43 a4 3b 7a cb fe 3c a2 6b 54 3a
       0.0018166174 0.0050129117 0.031102885 0.0008103197
000050 40 c5 41 be 43 47 0b be 00 8c ee 3c c3 0c 3c bc
       -0.18922901 -0.13601403 0.029119492 -0.011477652
000060 3d 0f 2e bd e8 e0 44 bc af 4f 08 bd 96 1a d4 3c
       -0.042495 -0.012016512 -0.033279117 0.025891583
000070 a6 2e d1 bd 7c 5f c7 bd 48 5d f6 3c d6 c1 87 bd
       -0.102139756 -0.09735009 0.030073777 -0.06628768
000080 6c 02 e2 3d fc f9 f5 bd b7 c2 2c bd e1 52 92 bd
       0.11035618 -0.12010571 -0.042177882 -0.07144714
000090 ff f7 83 3d de 42 96 bc 8d 00 98 bd e9 67 82 3d
       0.06443786 -0.018342432 -0.0742198 0.063674755
0000a0 20 5f 52 bd 6d ae 0d be e0 9c 3d bd b4 96 e3 3d
       -0.05136025 -0.1383607 -0.046292186 0.11112729
0000b0 7f 17 6a bd fd 21 6b 3b 6d ec 8a 3d 6b 75 17 bd
       -0.057151314 0.0035878413 0.06783376 -0.036977213
0000c0 a6 db 80 bd 48 6c c5 ba 5e 80 10 bc a1 82 72 bc
       -0.062918946 -0.0015062178 -0.008819668 -0.014801652
0000d0 a9 60 06 3d 52 13 97 3d 78 82 20 3c fe 62 83 3c
       0.032807026 0.07376732 0.009796731 0.016038414
0000e0 02 f3 80 3d 74 5c 55 3b 00 d1 77 bd a3 e2 34 bd
       0.0629635 0.0032556327 -0.060502052 -0.04416145
0000f0 50 28 97 3c 79 7a 94 3c 57 5f a4 3d c0 fd 7d b9
       0.01845184 0.018124806 0.08025997 -0.0002422249
000100 b6 7f 4c 3d 5f 85 d3 3d 38 42 af 3d 4d 2c d2 3d
       0.049926482 0.10328173 0.08557552 0.10262356
000110 8e 37 40 bc af 16 9f bd e0 8d 08 3d 3b f5 05 3d
       -0.011731995 -0.077679984 0.033338428 0.032704573
000120 19 35 25 bc 59 8a 2e 3c 3e ce ac bd cb cc ae bd
       -0.01008346 0.010653102 -0.08437775 -0.08535155
000130 a6 b7 e2 bd 1d 87 37 3d f0 e0 7a bd 54 d8 5b bd
       -0.110701844 0.04480659 -0.061249673 -0.053673103
000140 fa 02 19 bd 1c 5a 92 bd a0 a9 fc bd 79 91 45 bc
       -0.037356354 -0.07146093 -0.12337041 -0.012058609
000150 b5 0a 81 bd 15 d7 2b be 3d 6e f3 bd fb 8c 58 bd
       -0.0630087 -0.16781266 -0.11886261 -0.052868824
000160 1d 9c 31 3d 6b 27 03 3e bd 60 f4 3c 44 81 f0 3d
       0.04336177 0.12808006 0.029831285 0.117434055
000170 24 08 04 bd 13 2b aa bd d3 20 10 be 99 1c 78 3c
       -0.032234326 -0.08308997 -0.14075021 0.015143537
000180 09 aa 2e bc 32 f6 7d bc 46 3d 8e 3d 27 08 82 bd
       -0.010660657 -0.015500592 0.06945281 -0.06349211
000190 28 2b bf 3c 04 2e b4 3c 26 a8 52 bd d3 73 94 bd
       0.023336008 0.021994598 -0.05142989 -0.07248654
0001a0 9f b7 cb 3b e8 a7 58 bd b3 5f 60 bc 91 aa b6 3c
       0.0062169577 -0.052894503 -0.0136946915 0.02229813
0001b0 bc cb 0c bd 28 66 e3 bc fe 80 84 bd 4d 4f 02 be
       -0.034373984 -0.027758673 -0.06469916 -0.12725563
0001c0 49 60 1e 3d f4 a3 29 3e c4 47 ab bd 68 05 13 3d
       0.038666043 0.1656645 -0.083632976 0.035893828
0001d0 3c 38 87 3d 3e cc 0c be 85 9c 3a bd 03 c9 1e bd
       0.06602523 -0.13749787 -0.045559425 -0.03876592
0001e0 66 78 06 3d f5 55 d4 bd 0e 02 18 be eb 08 44 3d
       0.032829665 -0.103679575 -0.14844534 0.047860067
0001f0 4e 4f 91 bd 75 24 11 bc 20 33 8a 3d 4e 0c 36 bd
       -0.07095204 -0.00885879 0.067480326 -0.04444533
000200 22 81 06 be 49 98 c8 bc 47 de e5 3c a4 27 07 be
       -0.13135198 -0.024486678 0.028060092 -0.13198715
000210 8d da 88 3c 83 24 b0 3d 10 9d 4b bd 8b 11 24 3d
       0.016705776 0.08600714 -0.049710333 0.040055793
000220 de 78 03 3e bf 53 18 3c fd 09 5a 3d b3 b4 63 bc
       0.12839076 0.00929731 0.05323218 -0.0138980625
000230 1f 9d e2 3c f9 e3 4c bd b1 fc 01 be 05 85 54 be
       0.027662812 -0.0500221 -0.1269405 -0.20753868
000240 25 e1 61 be 7e 61 18 3e 42 b5 80 bd 16 4d a4 bc
       -0.22058542 0.1488094 -0.06284572 -0.020056289
000250 fa 69 55 3e 2f 63 b5 3d a8 f1 03 be 88 04 04 3e
       0.20841208 0.088568084 -0.12885153 0.12892354
000260 5a b8 e7 bc 0d fa 26 3e 9d 13 35 3e a5 43 2a 3d
       -0.028286148 0.16306324 0.17683263 0.041568417
000270 d5 52 01 bd 1a 3d 08 3e 46 92 a3 3d a2 c0 52 3b
       -0.031573135 0.13304558 0.07986884 0.0032158275
000280 5b 9b 8c bd 46 e8 51 3c 12 b3 ca 3d 4d 71 90 3d
       -0.06865569 0.012811726 0.09897436 0.070528604
000290 ce 2c dc bd 27 3e 51 3d f5 72 26 3e ca 50 89 bb
       -0.10750733 0.051084664 0.1625479 -0.004190539
0002a0 11 c2 9d 3c ec 9c 97 3d 1d da be bc ae 12 39 be
       0.019257577 0.07402977 -0.023297364 -0.18073532
0002b0 1d 15 17 3d 80 d7 1d 3d be e0 e2 bc 4a 9b 8f bd
       0.03688537 0.038535595 -0.027695056 -0.07012041
0002c0 8a ff 2a 3e 63 9c fd bd 38 b5 f3 bc 59 95 2e 3e
       0.16699043 -0.12383344 -0.029749498 0.17049159
0002d0 47 fb 38 bd 48 6d 18 3d 1a 7a 53 3a 77 1b cb bd
       -0.04516151 0.037213594 0.0008067206 -0.09917348
0002e0 4f be bd 3d 54 a0 86 3d 1b 96 cc 3d 53 c7 d6 bd
       0.09264814 0.06573549 0.09989568 -0.10487237
0002f0 b7 6e 99 3d ed d6 18 3e 29 91 37 bd e5 af b5 3c
       0.0749182 0.14925738 -0.04481617 0.0221786
000300 25 e5 27 3c 3a 0f 7c bd c2 7c a8 bc 98 3e fd bc
       0.010247503 -0.06153796 -0.020567302 -0.030913636
000310 30 07 6b 3d 57 db 3d 3c 86 9c ef 3d 60 3a b2 bd
       0.0573799 0.011587939 0.11699776 -0.087025404
000320 64 68 90 3d 71 6d 68 3d 28 68 1c 3e 01 42 eb 3c
       0.07051161 0.056744996 0.15274107 0.028717997
000330 d2 46 0e 3d 68 5b 91 3d 42 0a 8d 3d 39 a8 28 be
       0.03473551 0.070975125 0.06886722 -0.16470422
000340 8e 46 17 bd a7 59 04 3e d7 a7 67 3e dd 62 2d bd
       -0.03693252 0.12924825 0.2262262 -0.04233061
000350 d4 48 21 bb 77 06 57 bd 19 c9 c0 3b 93 d7 c6 3a
       -0.002461006 -0.0524964 0.0058833477 0.0015170447
000360 5f 86 d9 bd 12 21 82 bd ad fd b0 bc 2b f5 2e 3d
       -0.106213324 -0.06353964 -0.021605337 0.04271428
000370 70 2f b7 bd 59 f7 01 3d 0d 2b 02 3e 47 b5 03 3d
       -0.08944595 0.03173003 0.12711735 0.0321553
000380 9b b0 24 bc 8b 5f 9e bd f8 cf e2 bd 8b 66 e7 3d
       -0.010051872 -0.07733067 -0.11074823 0.112988554
000390 9f 95 23 bc 87 a3 b7 bc e1 81 a0 3b 2e 36 0f bd
       -0.009984403 -0.022416843 0.0048982953 -0.03496378
0003a0 5d 4a 10 be 00 a8 b2 3d 6e 1f 9a bd 18 f5 bc 3d
       -0.14090867 0.0872345 -0.07525526 0.092264354
0003b0 a0 a7 29 3b 99 cc c0 3b e9 97 82 bc 1a 8f 38 3d
       0.0025887266 0.005883765 -0.015941577 0.045058347
0003c0 c6 4a f5 3d 4a d5 79 bd 3a 64 2c 3e 78 6a 05 bd
       0.119771525 -0.060994424 0.16835108 -0.03257224
0003d0 fc 8b 62 3d 85 1f f5 3d a2 99 d5 3d e8 07 66 3b
       0.05530928 0.119689025 0.10429694 0.0035099927
0003e0 73 b7 8c 3a aa 38 90 3d 4c 12 f2 3c 5e 78 1e 3d
       0.0010735824 0.07042058 0.02954974 0.03868901
0003f0 c7 02 d6 3d 67 9e ba 3d 54 1d 98 3c 3d 6f 0c bd
       0.104497485 0.09112244 0.018568672 -0.034285773

action_model._discrete_distribution.branches.0.bias f4 [3]
000000 38 71 25 3d 7b e6 e8 bc 93 9f 7e bc
       0.040391177 -0.028430214 -0.015540975

action_model._discrete_distribution.branches.1.weight f4 [2, 128]
000000 02 c6 62 3d 7e 73 29 3d a2 17 98 bd 38 6d 05 be
       0.055364616 0.041369908 -0.074263826 -0.13029945
000010 41 13 bb 3d 14 26 b7 3c f6 eb 6f 3b 89 4f d4 bc
       0.09134532 0.022357024 0.003660915 -0.025916832
000020 90 be 96 bd c7 e1 2a 3d 28 43 c2 bc b5 01 63 3d
       -0.07360566 0.041719224 -0.023713663 0.05542155
000030 30 cf cd bd 6a c5 af 3d 19 6d 2f 3d 1a a1 0b bc
       -0.100492835 0.085825756 0.042828653 -0.008522296
000040 1c cd 50 bc 67 fa fa bd 67 32 91 3c 70 42 13 3d
       -0.012744214 -0.12254792 0.017724229 0.03595203
000050 ad 35 62 3d 42 b8 15 3e 5f a4 57 3d d4 3b 43 bd
       0.05522697 0.1462107 0.05264699 -0.04766448
000060 e0 2b 71 3c fb 88 fe 3d 33 bf 2d bd 8a e9 e9 3d
       0.014719933 0.12428471 -0.04241867 0.11421497
000070 6e 2e 29 3c 6d b9 27 3e f3 52 0c be 54 52 de 3d
       0.010326011 0.16379328 -0.13703518 0.108555466
000080 67 e9 bf 3c 3a 5e b8 3d 2f 4d 0e 3c a2 36 f5 3c
       0.023426725 0.09002347 0.008685394 0.029933278
000090 41 8c b3 3c 10 65 10 bd 7c d7 92 3d d0 ad 2c 3d
       0.021917464 -0.03525263 0.07170007 0.042157948
0000a0 e1 34 83 3d d4 10 3b bd 53 d9 b7 bb 6e 9d c7 3c
       0.0640657 -0.045670345 -0.005610624 0.02436706
0000b0 ed 85 06 3b 01 27 4a bb c8 e5 65 3d 12 d1 3c 3d
       0.0020526603 -0.0030846002 0.05612734 0.046097822
0000c0 1f 67 45 3e 0c ac 82 bb c0 d7 65 bd 91 ff 1d 3d
       0.19277619 -0.0039877947 -0.05611396 0.038573805
0000d0 40 60 6d 3c 0b e9 48 bd ec 81 93 3c d4 a7 d9 bc
       0.01448828 -0.049050372 0.018006288 -0.026569284
0000e0 11 91 68 3d 36 9f 6d 3d 98 af 14 3e 61 1d bf bd
       0.05677897 0.058013164 0.14520109 -0.093317755
0000f0 c0 9e 7c bc 3a bd 94 3d e0 2c 5e bd ee 8e 91 3d
       -0.015418708 0.072626546 -0.054242015 0.0710734
000100 f2 67 27 be 67 32 33 bd fa 64 91 3d 1a d4 b0 3c
       -0.16348246 -0.04374924 0.07099338 0.021585513
000110 b6 5d d4 3d a0 e1 91 bd 31 ce ab 3a 8f 4f 71 bd
       0.103694364 -0.07123113 0.0013107714 -0.058913764
000120 e8 75 06 3d 15 c2 01 3e 28 39 42 3e 12 9c 70 bd
       0.032827288 0.12671693 0.18967116 -0.05874259
000130 bb 0d e8 bd 40 80 86 bd 88 c7 12 3e 08 cf b8 bd
       -0.11330744 -0.065674305 0.14333928 -0.09023863
000140 6e 29 4e 3c d4 9d 44 3d b5 ca 79 3d 4d 12 8b 3d
       0.01258312 0.04800208 0.060984332 0.067906
000150 e3 ae 87 bb 87 e9 26 3e bc 19 47 3d 6b 7b 7f 3d
       -0.004140721 0.16300021 0.048608527 0.06237356
000160 8c 06 41 3d 99 08 58 3c c1 e1 ba bd 69 0d cd 3d
       0.047125384 0.013185644 -0.091250904 0.100123234
000170 9d a7 8a 3d fa 1a 2f 3e 66 10 ee 3d d4 07 2c 3e
       0.06770251 0.17100134 0.116242215 0.16799861
000180 9c 2f d6 3c 82 00 dd bb 9f 53 bd 3c 90 b1 bc 3d
       0.026145749 -0.0067444453 0.023111163 0.09213555
000190 84 7d 0e 3e b6 2f 60 bd 0c e9 81 3d b1 63 02 3e
       0.13915068 -0.054733 0.06343278 0.12733342
0001a0 ed f8 50 3d c6 4f b9 bd aa 27 f7 3c 78 35 ab bc
       0.051018644 -0.09048419 0.03017028 -0.02089952
0001b0 59 b2 12 be d2 5f f6 3c 18 2f 98 bd 91 d0 3e be
       -0.14325847 0.030074988 -0.074308574 -0.1863425
0001c0 7f 1a fe 3c da 3e 6a 3d 48 60 c7 3d 55 5c 45 3d
       0.031018494 0.057188846 0.09735161 0.048183758
0001d0 ba 9e d9 3d 9b 11 cc bc 8c 57 f0 bc 17 78 ac 3d
       0.10625978 -0.024910739 -0.02933862 0.08421343
0001e0 99 cc 97 bd 1f 9a cc bb 70 7d 7a bd 8f 5e ca bb
       -0.07412071 -0.0062439586 -0.061154783 -0.006175823
0001f0 1e fb c3 bd 5b 62 4c 3e ae 62 5a 3d fb 48 fd 3d
       -0.09569381 0.19959395 0.053316765 0.123674355
000200 6f 46 7d bd ea 49 33 bd 1b 9f 69 3d a7 1f f4 3d
       -0.06183475 -0.04377166 0.0570365 0.119201
000210 55 6f be bd 4b 71 e5 bc 00 30 78 bb c7 f2 e3 3c
       -0.09298579 -0.028008124 -0.0037870407 0.027825726
000220 70 b4 6d 3d 5a a4 ec bc 5d 4a 09 3d 5e b9 31 bd
       0.058033407 -0.028886963 0.033518184 -0.04338967
000230 06 37 c5 3d d5 dd c4 bd 9d 54 b8 bc 08 e5 da bb
       0.096296355 -0.096126236 -0.022501284 -0.0066801347
000240 f8 41 ef bb f0 10 00 3e a9 53 57 bc 8a a2 2f bd
       -0.0073015653 0.12506461 -0.013142505 -0.04287962
000250 31 38 5e bd 44 78 1a be 51 c4 0d bd 04 29 26 3d
       -0.054252807 -0.1508494 -0.03461105 0.04056646
000260 8a 2c de bc e9 dd 01 be 8a cd 5f 3d b3 e3 d4 bd
       -0.027120847 -0.12682308 0.054639377 -0.10394993
000270 5c bc 96 bc ef 8b 25 be 76 19 15 3e 79 a2 c8 bd
       -0.018400364 -0.16166662 0.14560494 -0.09796614
000280 b0 ff 03 bd d9 fb af bd d5 0e 93 bc 43 21 08 bd
       -0.032226264 -0.08592958 -0.017951408 -0.033234846
000290 22 43 1f bd 70 22 1a 3d c4 36 93 bd 72 c2 1e bd
       -0.038882382 0.0376305 -0.0718818 -0.038759656
0002a0 20 1f 9a bd 39 19 7f 3d 9a 34 b0 3a 62 19 c7 bc
       -0.07525468 0.062279914 0.0013443411 -0.024304096
0002b0 ab 98 72 3c db ab 71 bc 67 c3 87 bd 06 e7 3c bd
       0.014806907 -0.014750446 -0.06629067 -0.04611876
0002c0 54 24 51 be 4b 82 25 3c 0a 99 8e 3d ab 3c 28 bd
       -0.20424014 0.010101865 0.06962784 -0.041073482
0002d0 c2 14 b7 bc dd 72 5f 3d ad 92 26 bc ff 82 37 3b
       -0.022348765 0.0545529 -0.010166806 0.0028001664
0002e0 6d 54 0a bd bc 3c 84 bd b2 40 05 be 49 0e c3 3d
       -0.03377192 -0.06456897 -0.1301296 0.09524209
0002f0 e0 c1 8f 3c 40 7e 97 bd a5 fb 18 3d 05 21 b1 bd
       0.017548501 -0.07397127 0.037349362 -0.08648876
000300 63 65 34 3e e1 89 69 3d aa e2 85 bd db 06 e9 bc
       0.17616801 0.057016257 -0.06537373 -0.028445652
000310 00 a1 a4 bd ea cf bd 3d 44 58 4d bc 26 d0 70 3d
       -0.08038521 0.09268172 -0.012533251 0.058792256
000320 4b 11 da bc a0 70 ed bd d3 55 40 be c0 09 89 3d
       -0.026619574 -0.11593747 -0.1878274 0.06691313
000330 d1 db ec 3d 24 8c 80 3d cc a6 05 be 14 37 75 3d
       0.11565364 0.0627673 -0.13051909 0.05986698
000340 71 d6 a1 bb a4 b9 47 bd 54 68 6a bd fe 27 b9 bd
       -0.0049388935 -0.048761025 -0.0572284 -0.09040831
000350 7e b3 fb 3b fb d6 15 be 1b 31 20 bd a2 9c 3d bd
       0.0076813092 -0.1463279 -0.03910933 -0.046291955
000360 21 5a 21 bd 95 55 80 bc 92 bd a0 3d fe 61 e9 bd
       -0.039392594 -0.015665809 0.07848658 -0.11395644
000370 a8 a4 85 bd d4 e8 2e be 25 38 e3 bd 1a 06 28 be
       -0.06525546 -0.17081004 -0.11094693 -0.16408578
000380 24 f1 21 bd 50 ec 5d 3b 04 e1 90 bc 47 03 b5 bd
       -0.03953661 0.0033862777 -0.01768542 -0.08838516
000390 69 32 1e be ea b3 9c 3d a0 86 43 bd d6 b9 02 be
       -0.15448917 0.076515034 -0.04773581 -0.12766203
0003a0 20 c0 54 bd 5e 52 af 3d c3 99 b0 bc 38 03 e1 3c
       -0.051941037 0.08560632 -0.021557694 0.027467355
0003b0 c8 10 0b 3e 02 ed be bc ec b1 64 3d b3 54 4e 3e
       0.1358062 -0.023306374 0.055833742 0.20149498
0003c0 00 75 28 bd 72 3b 99 bd d9 be bb bd ee 5d 26 bd
       -0.041127205 -0.074820414 -0.09167261 -0.040616922
0003d0 37 b8 c3 bd ed af 01 3d f5 da 1c 3d 0c 87 d8 bd
       -0.095566206 0.031661917 0.03829475 -0.10572633
0003e0 6b 75 31 3d 7a ea 7a 3c 46 c3 84 3d db 55 ec 3c
       0.04332487 0.015314693 0.06482558 0.028849533
0003f0 63 2d da 3d fd e4 4d be ea 53 44 bd 0d 4a 05 be
       0.10653188 -0.20106883 -0.04793159 -0.1301653

action_model._discrete_distribution.branches.1.bias f4 [2]
000000 e7 60 b7 bd f2 60 b7 3d
       -0.089540295 0.08954038
