results/ppo/Player1/checkpoint.pt (torch, 152610 bytes, 20 tensors)

discrete_act_size_vector f4 [1, 5]
00000000: 0000 0040 0000 0040 0000 4040 0000 4040
00000010: 0000 4040
2.0 2.0 3.0 3.0 3.0

network_body._body_endoder.seq_layers.0.weight f4 [128, 1]
00000000: a484 f5bd b70f 583e 1837 bdbf 5753 843f
00000010: 8d53 36bf 297c ca3e f9dd 77bf 6e33 21bf
00000020: 2e15 c13f 04c5 a73d 27ca 30be da21 57be
00000030: e00c b4bf 0954 48bd f0d7 a7be ec69 3d3d
00000040: 2b58 36c0 3217 423e ed51 c13f 4061 913f
00000050: 7b74 d23f 09a4 a2bd b1a8 8e3f f8d0 2f3d
00000060: 183a afbc 8c01 0bc0 7cf9 c7bf b9fa 0ebf
00000070: 31e9 6b3f dd50 e7be 53fd 31bf 8312 1340
00000080: 99ef f0be 1737 09bf 5df3 ae3e 454b d6bf
00000090: 6fb1 03bf d40e 6a3f 5bfd d3be 1632 c7be
000000a0: 78d6 71bf 3797 7ebe 4319 e53e 3456 53c0
000000b0: 0c7a 143f d260 a7bf 5c61 6d3f 11dc b43f
000000c0: adfe f83e 659b c93f 64b0 d3bd a616 89bd
000000d0: 909e fe3d 746f 643f 3550 c8bf 38f5 2940
000000e0: c071 56be ce56 8b3f 719e 4d3f 67cd 60be
000000f0: 6557 0040 4db7 60be b705 59bf b1e7 80bf
00000100: 326b 9f3f 6e65 553f 34ed 4bbf a910 61bf
00000110: 798f 4b3c d90c 39bf d791 c9be d904 9abf
00000120: f371 e83e 77d4 4cbf a24a 50bf 7709 aabf
00000130: 1a78 8bbf 2038 4fbf 7489 f13d 3a77 81bf
00000140: b0bb bb3e f4cb 8abf cb56 6e3e 0aa9 0c3f
00000150: 06ae b9bf 32e9 e53e 0f56 c4bf b31f 94be
00000160: 5ebe 66bf ff9d f6bf 31d9 af3c 8eaa 4cbf
00000170: f145 bdbe 7846 cabe b4a4 0e3f 33d3 0340
00000180: 61db 063e e5d6 f03f ebcf d9be a61e e13d
00000190: 5deb 6cbf 2b77 1cbf 21be 093f a9ab 0ebf
000001a0: f21f 81be 1f24 c13f 8c5b 14bf 6a37 a43f
000001b0: b054 0dbf 76fb 8f3f 4baf 16be 4661 9dbf
000001c0: d8c6 86be 7bfb 7dbf 054d 8dbb 884d 2abe
000001d0: b0ec 3abd ab4a 953e b5a9 a2bd 24a7 db3e
000001e0: b558 24be 97ec 133f 0ca1 043f 1c4f bd3f
000001f0: f87a a63e 0636 ddbf 3690 f93c e8ce c43e
-0.1198819 0.21099745 -1.4782438 1.0337933 -0.7122124 0.39547852 -0.9682308 -0.629691
1.5084589 0.081918746 -0.17264615 -0.21009007 -1.4066429 -0.048908267 -0.32781935 0.046243593
-2.8491313 0.18954161 1.5103127 1.1357803 1.6441797 -0.079414435 1.114523 0.042923898
-0.021390006 -2.1719694 -1.5623012 -0.5585132 0.92152697 -0.4517888 -0.6952717 2.2980049
-0.47057799 -0.53599685 0.34170046 -1.674172 -0.5144262 0.91428876 -0.41404232 -0.389054
-0.9446788 -0.24862371 0.44745836 -3.3021364 0.5799873 -1.3076422 0.92726684 1.4129659
0.48631802 1.5750548 -0.10336378 -0.06693773 0.12432587 0.89232564 -1.5649477 2.655592
-0.2094183 1.0885866 0.8031989 -0.21953355 2.0053341 -0.21944924 -0.84774345 -1.0070707
1.2454588 0.83357894 -0.7965882 -0.87916046 0.012424343 -0.7228523 -0.3936908 -1.2032729
0.45399436 -0.80011696 -0.8136388 -1.3284138 -1.0896027 -0.80945015 0.11793795 -1.011451
0.36666632 -1.0843492 0.23275296 0.54945433 -1.4506233 0.44904476 -1.5338763 -0.28930435
-0.9013423 -1.9266967 0.02146587 -0.79947746 -0.36967424 -0.39506888 0.5572007 2.0597656
0.13169624 1.8815581 -0.4254144 0.10992174 -0.92546636 -0.61119336 0.5380574 -0.5573068
-0.25219685 1.5089148 -0.5795219 1.2829411 -0.5520735 1.1248615 -0.14715306 -1.229531
-0.2632358 -0.99211854 -0.00431216 -0.16631138 -0.04563588 0.2915853 -0.07942525 0.42900956
-0.16049464 0.5778288 0.5180824 1.4789767 0.32515693 -1.7282112 0.030464273 0.38439107

network_body._body_endoder.seq_layers.0.bias f4 [128]
00000000: 0000 0000 0000 0000 0000 0000 0000 0000
00000010: 0000 0000 0000 0000 0000 0000 0000 0000
00000020: 0000 0000 0000 0000 0000 0000 0000 0000
00000030: 0000 0000 0000 0000 0000 0000 0000 0000
00000040: 0000 0000 0000 0000 0000 0000 0000 0000
00000050: 0000 0000 0000 0000 0000 0000 0000 0000
00000060: 0000 0000 0000 0000 0000 0000 0000 0000
00000070: 0000 0000 0000 0000 0000 0000 0000 0000
00000080: 0000 0000 0000 0000 0000 0000 0000 0000
00000090: 0000 0000 0000 0000 0000 0000 0000 0000
000000a0: 0000 0000 0000 0000 0000 0000 0000 0000
000000b0: 0000 0000 0000 0000 0000 0000 0000 0000
000000c0: 0000 0000 0000 0000 0000 0000 0000 0000
000000d0: 0000 0000 0000 0000 0000 0000 0000 0000
000000e0: 0000 0000 0000 0000 0000 0000 0000 0000
000000f0: 0000 0000 0000 0000 0000 0000 0000 0000
00000100: 0000 0000 0000 0000 0000 0000 0000 0000
00000110: 0000 0000 0000 0000 0000 0000 0000 0000
00000120: 0000 0000 0000 0000 0000 0000 0000 0000
00000130: 0000 0000 0000 0000 0000 0000 0000 0000
00000140: 0000 0000 0000 0000 0000 0000 0000 0000
00000150: 0000 0000 0000 0000 0000 0000 0000 0000
00000160: 0000 0000 0000 0000 0000 0000 0000 0000
00000170: 0000 0000 0000 0000 0000 0000 0000 0000
00000180: 0000 0000 0000 0000 0000 0000 0000 0000
00000190: 0000 0000 0000 0000 0000 0000 0000 0000
000001a0: 0000 0000 0000 0000 0000 0000 0000 0000
000001b0: 0000 0000 0000 0000 0000 0000 0000 0000
000001c0: 0000 0000 0000 0000 0000 0000 0000 0000
000001d0: 0000 0000 0000 0000 0000 0000 0000 0000
000001e0: 0000 0000 0000 0000 0000 0000 0000 0000
000001f0: 0000 0000 0000 0000 0000 0000 0000 0000
0.0 0.0 0.0 0.0 0.0 0.0 0.0 0.0
0.0 0.0 0.0 0.0 0.0 0.0 0.0 0.0
0.0 0.0 0.0 0.0 0.0 0.0 0.0 0.0
0.0 0.0 0.0 0.0 0.0 0.0 0.0 0.0
0.0 0.0 0.0 0.0 0.0 0.0 0.0 0.0
0.0 0.0 0.0 0.0 0.0 0.0 0.0 0.0
0.0 0.0 0.0 0.0 0.0 0.0 0.0 0.0
0.0 0.0 0.0 0.0 0.0 0.0 0.0 0.0
0.0 0.0 0.0 0.0 0.0 0.0 0.0 0.0
0.0 0.0 0.0 0.0 0.0 0.0 0.0 0.0
0.0 0.0 0.0 0.0 0.0 0.0 0.0 0.0
0.0 0.0 0.0 0.0 0.0 0.0 0.0 0.0
0.0 0.0 0.0 0.0 0.0 0.0 0.0 0.0
0.0 0.0 0.0 0.0 0.0 0.0 0.0 0.0
0.0 0.0 0.0 0.0 0.0 0.0 0.0 0.0
0.0 0.0 0.0 0.0 0.0 0.0 0.0 0.0

network_body._body_endoder.seq_layers.2.weight f4 [128, 128]
00000000: 0a16 813d ea11 7dbd ec66 4fbd 94af cfbc
00000010: 632e ca3d b653 67bc e641 9abd 1a29 25be
00000020: 3c62 e43d e66a 373d b8dc bebd 4ee9 fd3b
00000030: 4b5d 033d ba2b 0b3e 1284 aabc 5efd a33d
00000040: 3fa3 4cbd adc4 203d 9b2e f73c af02 7dbe
00000050: 43fb 1e3e cac1 14bb 1705 a3bc c38c 153e
00000060: 8d62 153e d503 f43c b896 083c c6bd aabb
00000070: 882b 47be e86c e4bd 8f96 803d f332 db3d
00000080: d14c 7a3d 7332 333e 86c9 07be b63b c43d
00000090: 8f8f 4e3c 4256 1c3e 2c80 46bd 8b31 a43d
000000a0: 877b 61bc 44b8 303e 3e8d a23d 7623 f2bd
000000b0: 797f f83c 8987 003d 62ff d33d f610 c13c
000000c0: a82a efbd e168 be3c 39aa d7bd 99d2 ebbd
000000d0: 509c 26bd a74f fb3a a5ee d33b 1ea5 97bd
000000e0: ea7d a83d 74b7 6b3d c2cf cbbc cbcd da3d
000000f0: efb5 ba3d 13ad a2bd 21de 3f3d 69b3 95bd
00000100: bd35 7bbb 4f73 abbd a0ef 763d a1a5 d23c
00000110: 8c3e bfba 039b 0d3e 866c f6bc dc59 a53d
00000120: 210b ab3d c3f0 7fbd d647 82bd d950 5d3e
00000130: 5a7d b53d 6051 e6bc b3c0 7c3d ff25 06bb
00000140: d3e4 c03c cab6 9cbc c72a 463d 92e8 8cbc
00000150: 5f0e 09be 9820 07bc bd42 df3c ad67 89bc
00000160: 58ed c4bd a2c8 7b3d 0dd1 053e a7df 06bd
00000170: e092 263e 44e9 44bd 6458 123d 1cbe a3bc
00000180: 133a c23d 8b92 29be cb68 72bd 9895 1dbd
00000190: 9aef 44bd 7299 53bc 59e6 793b 452d c4bc
000001a0: 59d2 14be 6fbe 0a3e 98d2 20bc a9a5 10be
000001b0: 435d 8c3c 4ddc 6a3d d9dd 683c 13f0 bcbc
000001c0: c8fb f5bc 3ddd 1b3c 0bca 59bd 29e9 c8bd
000001d0: 8b41 973d d48b c63d 5d5c 173e fe16 503e
000001e0: 2709 203e 1527 943e 223b 83bb 4c36 ae3c
000001f0: 2893 5f3e 161f 4a3e 9957 483d fa7b 35bc
00000200: 2ba8 2f3c 34d0 f3bc 696e 8a3d d966 8d3d
00000210: e541 013c e1ac 9f3d 8f87 ccbd ab23 c7bb
00000220: 702b 8dbd 5406 01bc ff65 2fbd 1f23 3d3d
00000230: 59c8 6e3d b960 073d 48d2 12be ad54 59be
00000240: 8e8b 17bc e3a5 11bd a2de 083d 79b2 b4bd
00000250: 6fbc 9fbc b042 b43d 4360 6bbd 8521 32be
00000260: db1d 9c3d 149e b2bd a43e 0dbc 2ac6 083e
00000270: a3ef 263e 5826 f63c 2b88 71bd 42ec 8cbc
00000280: f8c6 cabd fa83 303d 5201 f3bc f49f eb3d
00000290: 14f5 08bd 3832 8b3d 618c 543c ef67 45bc
000002a0: 3453 90bc bec5 62be 0955 89bd 9a47 173d
000002b0: 06bc b73c c43f 423c d555 82bc 4a6e 41bd
000002c0: 86b9 bfbd 5b8b 3abd 4600 073e 7bf3 e83d
000002d0: ef81 d7bd 0e99 a33c 0a5e 49bd 40be 073d
000002e0: 4622 4fbd b7f9 883c 50ed 36bd 6f7d 5cbd
000002f0: 5dbb 123d 0dcd 143d e0ad 6bbb 14c8 2abe
00000300: ed77 6cbd 93da b9ba 72cc 8d3b 12d3 17be
00000310: b9da 88bd 4283 0e3e c73f 86bd 3bda 77bd
00000320: d419 423c 45bb 66bd 33f3 133e 3662 293d
00000330: 4f52 af3d 08bd f5bc ac33 813d 5420 fa3d
00000340: 49cb a13d 0160 15bd 035a 063e 0944 423c
00000350: d897 9a3d b512 0c3e a5e3 93bd ba62 25bd
00000360: 7c60 813d a269 65bb c2a1 063e e06f 03be
00000370: 0669 af3c bb36 e8bd 0d47 9d3d 9878 463c
00000380: e35c cc3c 9fa3 a63c ffcf bfbb 0a06 f63a
00000390: ba8d 3dbd 0edd f13c a44c e2bd 7c3c 2c3c
000003a0: 8f53 c1bd 38bc 8abd d078 d63d 60df d03d
000003b0: efae 323e 4e4e 93bc 5e86 52bd 2675 1d3e
000003c0: c36a 17be 09f5 953d 1f19 7dbd 0c4d c73c
000003d0: b768 f639 3b17 aa3d 2c3e 083e 5eb3 a6bc
000003e0: 3630 e73d 92af 19be 89c5 55bc 9d69 47bd
000003f0: 71c5 ec3d 0ee0 7cbc 7316 a3bd 1f4b 8fbe
0.06303032 -0.061784662 -0.050635263 -0.025352277 0.09872129 -0.014119079 -0.075321004 -0.1612896
0.11151549 0.04477968 -0.093194425 0.0077487594 0.032071393 0.13590899 -0.02081493 0.0800731
-0.04996037 0.039250065 0.03017359 -0.24708055 0.15525536 -0.0022698515 -0.019899888 0.14604478
0.14588375 0.029786984 0.008336715 -0.005210611 -0.194502 -0.11153585 0.06278717 0.10703077
0.061108414 0.17499714 -0.13260469 0.095817015 0.012607469 0.1526728 -0.048462078 0.08017262
-0.013762361 0.17257792 0.07937096 -0.1182317 0.030334221 0.031379256 0.10351445 0.023567658
-0.11678058 0.02324337 -0.10530514 -0.11514778 -0.040676415 0.0019173519 0.0064676576 -0.074045405
0.08227141 0.057548 -0.02487934 0.10683783 0.09116732 -0.079431675 0.046842698 -0.073096104
-0.003833159 -0.08371603 0.060287118 0.025713744 -0.0014590784 0.13828664 -0.030081045 0.0807378
0.08351732 -0.062485468 -0.06361358 0.21612872 0.088617995 -0.028114974 0.06170721 -0.0020469425
0.023546612 -0.01913013 0.04838064 -0.017200742 -0.13384388 -0.008247517 0.027253503 -0.01677307
-0.09615582 0.061470635 0.13068028 -0.032928135 0.16266966 -0.048074022 0.035728827 -0.019988112
0.09483733 -0.16559808 -0.05918197 -0.03847274 -0.048080064 -0.012915002 0.0038131683 -0.023947367
-0.14533366 0.13549207 -0.009815834 -0.14125694 0.017134314 0.057339 0.014213049 -0.023063695
-0.030027285 0.009513197 -0.0531712 -0.09810097 0.07385548 0.09694639 0.14781328 0.20321271
0.15628491 0.28936067 -0.004004852 0.021266125 0.2183348 0.19738421 0.048911665 -0.011076922
0.010721247 -0.029762365 0.0675934 0.06904382 0.007889246 0.07796646 -0.09986793 -0.00607725
-0.06893051 -0.007875044 -0.04282188 0.046176072 0.058296535 0.033051226 -0.14338028 -0.21223707
-0.009249581 -0.035558593 0.033415444 -0.088231035 -0.019499032 0.08801782 -0.05746485 -0.17395599
0.07622882 -0.08721557 -0.008620892 0.13356844 0.16302352 0.03004758 -0.05896775 -0.0172025
-0.099012315 0.043094613 -0.029663716 0.11505118 -0.03343685 0.06796688 0.012972922 -0.0120487055
-0.0176178 -0.22145745 -0.06705672 0.03693352 0.022428524 0.011856023 -0.015910069 -0.04722432
-0.09361558 -0.045543056 0.13183698 0.11374565 -0.1052283 0.019970443 -0.04916195 0.03314042
-0.050569795 0.016720636 -0.044659913 -0.05383056 0.035823215 0.036328364 -0.0035961792 -0.16677886
-0.057731558 -0.001417952 0.0043273503 -0.1482661 -0.06682343 0.13917258 -0.06555133 -0.060510855
0.011846978 -0.056330938 0.14448242 0.041353427 0.08560621 -0.029997364 0.06308684 0.12213197
0.07900102 -0.03646851 0.13120274 0.011857041 0.07548493 0.13679011 -0.07221154 -0.040377356
0.06317231 -0.003500559 0.13147643 -0.12835646 0.021412384 -0.11338564 0.076795675 0.012113713
0.024946636 0.020341692 -0.0058536525 0.001877011 -0.04627774 0.029524352 -0.11049774 0.0105124675
-0.09439766 -0.06774181 0.10472262 0.101988554 0.17449544 -0.017981675 -0.051397674 0.1537672
-0.1478682 0.07322127 -0.061791535 0.024328731 0.00046998795 0.08305212 0.13304967 -0.0203492
0.112884924 -0.15008381 -0.013047584 -0.048684705 0.115610965 -0.015434278 -0.07963266 -0.27987

network_body._body_endoder.seq_layers.2.bias f4 [128]
00000000: 0000 0000 0000 0000 0000 0000 0000 0000
00000010: 0000 0000 0000 0000 0000 0000 0000 0000
00000020: 0000 0000 0000 0000 0000 0000 0000 0000
00000030: 0000 0000 0000 0000 0000 0000 0000 0000
00000040: 0000 0000 0000 0000 0000 0000 0000 0000
00000050: 0000 0000 0000 0000 0000 0000 0000 0000
00000060: 0000 0000 0000 0000 0000 0000 0000 0000
00000070: 0000 0000 0000 0000 0000 0000 0000 0000
00000080: 0000 0000 0000 0000 0000 0000 0000 0000
00000090: 0000 0000 0000 0000 0000 0000 0000 0000
000000a0: 0000 0000 0000 0000 0000 0000 0000 0000
000000b0: 0000 0000 0000 0000 0000 0000 0000 0000
000000c0: 0000 0000 0000 0000 0000 0000 0000 0000
000000d0: 0000 0000 0000 0000 0000 0000 0000 0000
000000e0: 0000 0000 0000 0000 0000 0000 0000 0000
000000f0: 0000 0000 0000 0000 0000 0000 0000 0000
00000100: 0000 0000 0000 0000 0000 0000 0000 0000
00000110: 0000 0000 0000 0000 0000 0000 0000 0000
00000120: 0000 0000 0000 0000 0000 0000 0000 0000
00000130: 0000 0000 0000 0000 0000 0000 0000 0000
00000140: 0000 0000 0000 0000 0000 0000 0000 0000
00000150: 0000 0000 0000 0000 0000 0000 0000 0000
00000160: 0000 0000 0000 0000 0000 0000 0000 0000
00000170: 0000 0000 0000 0000 0000 0000 0000 0000
00000180: 0000 0000 0000 0000 0000 0000 0000 0000
00000190: 0000 0000 0000 0000 0000 0000 0000 0000
000001a0: 0000 0000 0000 0000 0000 0000 0000 0000
000001b0: 0000 0000 0000 0000 0000 0000 0000 0000
000001c0: 0000 0000 0000 0000 0000 0000 0000 0000
000001d0: 0000 0000 0000 0000 0000 0000 0000 0000
000001e0: 0000 0000 0000 0000 0000 0000 0000 0000
000001f0: 0000 0000 0000 0000 0000 0000 0000 0000
0.0 0.0 0.0 0.0 0.0 0.0 0.0 0.0
0.0 0.0 0.0 0.0 0.0 0.0 0.0 0.0
0.0 0.0 0.0 0.0 0.0 0.0 0.0 0.0
0.0 0.0 0.0 0.0 0.0 0.0 0.0 0.0
0.0 0.0 0.0 0.0 0.0 0.0 0.0 0.0
0.0 0.0 0.0 0.0 0.0 0.0 0.0 0.0
0.0 0.0 0.0 0.0 0.0 0.0 0.0 0.0
0.0 0.0 0.0 0.0 0.0 0.0 0.0 0.0
0.0 0.0 0.0 0.0 0.0 0.0 0.0 0.0
0.0 0.0 0.0 0.0 0.0 0.0 0.0 0.0
0.0 0.0 0.0 0.0 0.0 0.0 0.0 0.0
0.0 0.0 0.0 0.0 0.0 0.0 0.0 0.0
0.0 0.0 0.0 0.0 0.0 0.0 0.0 0.0
0.0 0.0 0.0 0.0 0.0 0.0 0.0 0.0
0.0 0.0 0.0 0.0 0.0 0.0 0.0 0.0
0.0 0.0 0.0 0.0 0.0 0.0 0.0 0.0

action_model._discrete_distribution.branches.0.weight f4 [2, 128]
00000000: 3c1b 803a 38e3 9dbb 1724 f83b d150 b33a
00000010: 8b08 babb 88d9 c43b a337 bc3a c5e8 fa3b
00000020: 9f34 c33c 4296 183c ba97 653b 15ec 0dbc
00000030: 9879 6a3c d055 92ba 28b7 84bc 5d7b f93a
00000040: f175 a5bc 2152 b3bc cba2 18bc 9ba3 083c
00000050: 0f68 d23a a7ce 98bb b7cd 5abc a3f3 92ba
00000060: ca86 78bc 0173 323c e74a 1dbc f362 1dbc
00000070: 0f84 853c 5ba5 753b 234f f3bb 3179 c23c
00000080: af4f f939 2ff8 bbba eae0 8b3c 333a 173c
00000090: 0b57 82bc db89 19bc 98ea dfbb 7a69 5d3b
000000a0: cf6c 0839 f078 1abc 3f09 8b3b 528d 26bb
000000b0: 2c08 0cbb 235e 033c 8354 773c 3316 ba3b
000000c0: 3791 113c f7af 96bb a349 28bc 1bf6 49bc
000000d0: 954a 68bc 08ec 8aba 0537 1c3c da8a edbb
000000e0: acca 94bc 865c b4ba 5156 94bb efe6 2f3c
000000f0: 266b b03b d8a0 fe3b e0c3 523b a267 89bb
00000100: 8e64 983b d20d 5ebb 9a39 2dbb 74d0 333b
00000110: 3d97 8f3b 8741 03bc 8786 a93a 9779 9db9
00000120: b53e 78bb a235 f0b9 d7cb 093b 282a f2bb
00000130: 9cc4 8dbb 7968 8fbb 0d27 1b3b ff80 a83c
00000140: 1cc0 333c 6a06 d93b 9260 04bc ad91 633b
00000150: 1069 58bc 33d5 16bc 4f35 0f3b 2231 75bb
00000160: ba05 5fbb 5540 73bc 60ed dcbb 22ee 1bbb
00000170: 0470 373c cf0f a33b 6f0a 833c e46d 3b3a
00000180: a06b 613c c655 b4bb 3e29 a139 e016 d93a
00000190: f7d7 f1b8 2220 5a3a cec7 8e3b c339 313c
000001a0: 757e e5bb 4b74 2dbb f63c 833b 1480 053c
000001b0: 18b2 a4bb 5338 dcbb 3a61 1c39 41df 033c
000001c0: 9c1e 9dbb 1ed1 023c c691 a6bc b755 0f3b
000001d0: 7b18 d93b 7d29 693c e779 8f3a 2b43 803a
000001e0: 0f3e 1a3c 3785 04b8 28a9 adba 73c2 213b
000001f0: 014c 873c 35c9 153b 4707 0cbc ec73 8839
00000200: b733 a93a f860 57bb 074f 813b 10e7 8c3b
00000210: 6da7 893b 01d4 19bc 0b53 2b3c 73f9 14bb
00000220: dbcf d43b bbfd 50bc 1ac5 543c 9fc2 2a3c
00000230: 2000 66ba 5f7a 40bc 3acd d63b 7fe2 ac3b
00000240: 2be6 033c e5e2 2f3b e2c3 be3b a555 91bc
00000250: 9faf 633a c65d 343c fabf 73bb 8738 d5bb
00000260: e579 5fbb 5108 23bc e269 7fbb fa4f 663b
00000270: 22f7 96ba 52c7 963b c2e0 223b 15d3 e7bb
00000280: eb34 ad3b bde4 b13b 4f0f 283c da82 1e3c
00000290: 115b 87bb 53f3 e1bb 8f7e 983a d239 3f3b
000002a0: 5484 c13b 132f 9abb 1ef0 2f3b 0f2c 003c
000002b0: 3ba5 ecbb 45db f8bb 150b e43b fb8c c23a
000002c0: 4a39 a239 4bb6 a6bc c33c e7bb 75f6 bdbb
000002d0: 80fe 973a 8691 043c 6079 6439 f47b 81bb
000002e0: 4c91 b0bb f8d4 d7bb b55d cd3b 3804 d7bb
000002f0: eee4 c83b 3be4 91bc c5f4 d33c f8c0 2fbb
00000300: d5ea 6f3c 4729 533c c336 0e3c f384 10bc
00000310: 52c1 ddbb aa79 723c 7dda 3f3b d2b7 0eba
00000320: 1b16 f7bb 9b53 19bc 29fc 023c 0374 2fbc
00000330: 9501 623c 42b8 273a 75e8 73ba b397 623c
00000340: 6342 23bc 8f9d a9ba 768e 1e3c 2a38 db3b
00000350: f76f f6ba b48a 403c 6f13 09bb fa64 b33b
00000360: 1f56 11bc 8f9e 71ba 38b3 5e3a edb1 953b
00000370: 3ca2 ccbc be42 1f3b 3530 6d3c 6b57 fe39
00000380: 7137 a438 03bf 293c 47de e63b e686 18bc
00000390: ceda 83bc 5b6f bc3b 97ef 9e3b 7e70 9b37
000003a0: 55f1 e3bb 222b 313b 57b1 1e3c 9141 4cbc
000003b0: b7a7 03bb af72 16bc 97fe 003c d4d3 bfbb
000003c0: 90eb f83a 4381 123c 6370 4ebc a0e9 2ebc
000003d0: 7bdc 54bb 0f63 f4ba cc84 8abb a219 213c
000003e0: 9d7b 723b 3556 10bc d03b 7d3b b508 663c
000003f0: 57fd afbb a3f3 a6ba 372c d53b 4056 8ebc
0.0009773741 -0.0048183464 0.0075726616 0.0013680701 -0.005677288 0.006007377 0.0014359843 0.007657143
0.023828803 0.009313168 0.0035033063 -0.008662243 0.014311217 -0.001116449 -0.016200617 0.0019033958
-0.02019784 -0.021889748 -0.009316157 0.008339788 0.001605274 -0.0046633068 -0.01335471 -0.0011211525
-0.015168855 0.010891677 -0.009600378 -0.009606111 0.016298322 0.0037482593 -0.0074252053 0.02373943
0.0004755235 -0.0014340932 0.01707502 0.009230184 -0.015910646 -0.009371246 -0.0068333857 0.0033784793
0.00013010505 -0.009428248 0.0042430456 -0.0025413823 -0.0021367176 0.008018049 0.015095833 0.005678916
0.00888472 -0.0045986134 -0.010271463 -0.0123267425 -0.014177938 -0.0010598907 0.009534602 -0.0072492184
-0.018163048 -0.0013760484 -0.0045268913 0.010736211 0.005383867 0.007770639 0.0032160208 -0.004193262
0.004650659 -0.003388275 -0.0026432038 0.002743748 0.0043820427 -0.008011228 0.0012933769 -0.00030035965
-0.0037879173 -0.00045816327 0.002102604 -0.0073902793 -0.004326416 -0.004376468 0.00236744 0.020569323
0.010971095 0.006623079 -0.008079665 0.003472428 -0.013208643 -0.009206104 0.0021851843 -0.0037413319
-0.0034030513 -0.014846881 -0.0067421645 -0.0023793061 0.01119614 0.0049762498 0.015996186 0.0007149859
0.01375857 -0.005503389 0.0003073904 0.0016562603 -0.00011532002 0.0008320828 0.0043573147 0.010816994
-0.0070036002 -0.002646702 0.00400507 0.008148212 -0.0050261132 -0.0067205816 0.00014913539 0.008048833
-0.0047949087 0.007984428 -0.020333182 0.0021871158 0.0066252328 0.014231083 0.0010946364 0.0009785643
0.00941421 -3.159532e-05 -0.0013249265 0.002468255 0.016515734 0.0022855524 -0.008546657 0.0002602631
0.0012909089 -0.0032864194 0.0039461884 0.0043000057 0.004200867 -0.009388925 0.010456811 -0.002273169
0.006494505 -0.012755807 0.012986446 0.010422378 -0.00087738223 -0.011747926 0.0065552266 0.005276024
0.008050482 0.002683812 0.005821691 -0.017741034 0.00086855324 0.011008685 -0.0037193284 -0.0065069827
-0.0034099754 -0.009950713 -0.0038973023 0.0035142885 -0.0011517743 0.0046013976 0.0024853204 -0.0070747235
0.0052858493 0.005428879 0.010257556 0.009674752 -0.004130729 -0.0068954616 0.0011634397 0.002917875
0.0059056673 -0.0047053187 0.0026846002 0.007823004 -0.0072218454 -0.0075944983 0.006959329 0.0014843041
0.00030941732 -0.020350596 -0.007056804 -0.0057972022 0.0011596233 0.008091336 0.0002178899 -0.003951544
-0.0053884145 -0.006586667 0.0062672743 -0.006561782 0.006130806 -0.017809024 0.025873551 -0.00268179
0.014643391 0.012888259 0.008680048 -0.00882076 -0.0067674303 0.014799515 0.0029274516 -0.00054442615
-0.007540477 -0.009358312 0.00799469 -0.010708812 0.0137943225 0.0006398001 -0.0009304353 0.013830113
-0.009964558 -0.0012940633 0.00967752 0.006690045 -0.0018801679 0.011751819 -0.0020916124 0.005474684
-0.0088706305 -0.00092170475 0.00084953336 0.0045683295 -0.024979703 0.0024301256 0.0144768255 0.00048511787
7.830456e-05 0.010360482 0.0070455405 -0.009309506 -0.016095545 0.0057505793 0.0048503387 1.8529823e-05
-0.0069562593 0.0027033766 0.009685836 -0.012466804 -0.002008898 -0.009182616 0.007873199 -0.0058541093
0.0018991102 0.008941951 -0.012600037 -0.010675818 -0.003248005 -0.0018645244 -0.0042272564 0.0098327715
0.0036999949 -0.008809616 0.0038640387 0.014040162 -0.0053707766 -0.0012737404 0.006505515 -0.017375112

action_model._discrete_distribution.branches.0.bias f4 [2]
00000000: 0000 0000 0000 0000
0.0 0.0

action_model._discrete_distribution.branches.1.weight f4 [2, 128]
00000000: bcc9 093c db3f e6ba e058 03bc 9294 9d3a
00000010: 0703 10bc a143 1ebb 47f2 9dbc 33f6 90bb
00000020: 96e6 9fbc fe12 033c a026 5c3b 5fa3 dbbb
00000030: 0836 e4ba a0e9 53bb a018 9f39 3308 903b
00000040: 2496 15bb 3dbb 10b8 eace ab3b e73a f13c
00000050: bf7b 30bb 8a03 b139 5b4b 66bc 77ed 79bc
00000060: 375d 233b 8084 0b3c 6b66 dcb9 a75f 3a3c
00000070: 67af a8bb 3b79 a33b e349 183c 82c7 9bbc
00000080: e351 823c 0f6c bf3b a967 333c b76a 033b
00000090: 98b7 c03a 7945 083c bf92 483c c316 513c
000000a0: c9b8 00bb 15f9 c23c cad9 74bc 378b c3bb
000000b0: 4916 a33a 1b9b 003c 7995 b83b 0d57 e7bb
000000c0: e0bb 93bb 1714 8a3a 47e5 b0bb 430f e73b
000000d0: cf41 c33c 68be aebb 9a35 4c3b 09b3 9cbb
000000e0: b36b 9c3b af8e 6dbc 253d 1e3b 9a93 1ebb
000000f0: 0575 27bc c04b c9bb 5548 eb3b dd59 7fb9
00000100: 1afc 213c 8d0c 413c 9b7d 103b 9f35 3b3b
00000110: e56f d7ba 77cb e43b 1d7d f63b ffeb 85bb
00000120: 16bd 04bc 6cfc 473c bb55 943b 9a71 ba3a
00000130: d9d0 1abc 4c9b 9cbb 34b0 a33b afae 8f3b
00000140: 7a84 a1bb f8a3 a5bc 89c4 023c 3505 723c
00000150: 2c4a 8abc 7d18 d93c 1278 5dbb f410 043c
00000160: 5b83 cd3b da41 ddba d0f5 153c 3e77 0e3c
00000170: 64a2 bcba bb65 3cbb df30 c3b9 edf4 5f3b
00000180: 7a1c c3bb 1f8f 813c 3734 5d3b 9fb6 8c3b
00000190: 06e6 9137 a781 50bb 2e54 493c 65a7 acba
000001a0: 800c 723b f56e e93a b29c 67bb 0fd8 723c
000001b0: 6f90 e7ba 52a6 c13a 6365 a73a da4d 3dba
000001c0: 0893 503b a351 d0bb 0341 cbbb 13a4 b53c
000001d0: abf2 1bbc f0b2 81bc aab1 e43b 8044 083b
000001e0: 9f2a 92bc 5fa1 e9bb 6fc4 2e3c 2b4f 4ebb
000001f0: f796 4cbc 14ca 933b 1a82 983c 688a 943c
00000200: 9abd 883b 7aeb 613c 2307 543b 03de 09bc
00000210: bdee 08bc 0043 133c 0bf0 fabb 5387 93bb
00000220: 1ab6 5dbc 7d54 75bc e048 0f3c 7d2d 453c
00000230: e2bf a13b 0ba3 9e3c 8796 90bb eff1 683c
00000240: cf2a f2bb a77b 68bc 23cf 7c3b 0d8a 3fbc
00000250: 1614 b23b 196a c33b fa71 403c c4ef 14bb
00000260: beaf 093b c905 a13a 06d0 2ebc 7ba9 413c
00000270: 0dfa 733c 53aa b13b 8888 a939 9f4c 89bb
00000280: 50a5 9a3c eb38 febb 7fa7 4d3c b3af 6d3a
00000290: 143f 833c a24a 9fbb 214f 28bb 39f7 b63c
000002a0: 234d 613b 3fd1 333c 27a8 0f3b af1e cc3c
000002b0: 37d2 cdb9 1a9b 85bb b39c b339 0043 1e3a
000002c0: a396 5f3a 9253 ff3c 30a5 073c 67af e9bb
000002d0: 0a71 78bc e589 8aba 35dc f73b 07ba 353c
000002e0: c259 213b d4e6 84bc 9206 6abc 8829 28ba
000002f0: 3de7 eb3b 0a1c d7bb 9f6d 913c 93c6 28bb
00000300: d8f3 f83b f48c b03a de81 47bc 2acf c13b
00000310: b1e5 c839 87d1 78bc f0e3 b13b 1dd2 96b9
00000320: 7f05 9fbb 9fb8 b03b 4c44 953b 400f 97bc
00000330: 8ab7 593a ffd3 223c d4ea 0ebc f641 95bb
00000340: c94c 393b 490f b6bb c88f 19bb 6762 1dba
00000350: 0213 eabb 7a3d f23b b391 aeba 6834 43bb
00000360: 7dd2 623c e56a 13bc 504e aabc cb2a ba39
00000370: f77e b83b 9d90 95bc 5d49 ab3b 6195 9e3b
00000380: 9bd3 853b 209c 6b3c 330e 18bc 5201 6bba
00000390: c3f0 093c eba8 1abc f12d 8f3a 5f1b 813b
000003a0: c79b 863a 5cc5 8c3b 6c24 3e3b 5f65 6b3b
000003b0: b0f4 6ebb 7010 d03b cebe 27ba 561c 393b
000003c0: 2832 50bb 9f70 053b e48a 0bbb 0444 923a
000003d0: 2188 be3b ca20 aa3a 9a5a eebb a7b6 47bc
000003e0: 2913 1f3b 39d7 1a3c 7bf3 6e3a e9e7 42bc
000003f0: a635 3c3c 43d8 683c 3222 24bb 1546 d73a
0.008409914 -0.0017566638 -0.008016795 0.0012022427 -0.008789784 -0.0024149197 -0.019280566 -0.0044238805
-0.019519132 0.008000134 0.0033592358 -0.006702825 -0.0017411122 -0.0032335296 0.0003034519 0.0043955087
-0.0022825086 -3.4506655e-05 0.005243172 0.029447032 -0.0026929227 0.00033762708 -0.014056052 -0.01525437
0.0024927387 0.008515477 -0.00042037977 0.011375344 -0.0051478627 0.004988817 0.00929496 -0.019016031
0.015908187 0.005841739 0.0109500075 0.002005262 0.0014703153 0.008317345 0.012242018 0.0127617745
-0.001964139 0.023800412 -0.014944503 -0.0059675234 0.0012442555 0.00784948 0.005633053 -0.007059938
-0.0045084804 0.0010534552 -0.0053984257 0.00705138 0.02383509 -0.005332757 0.0031159879 -0.004782085
0.004773581 -0.01449935 0.0024145332 -0.0024196864 -0.010220771 -0.0061430633 0.0071802535 -0.00024352172
0.009886766 0.0117827775 0.0022047523 0.0028565896 -0.0016436545 0.0069822627 0.007522239 -0.004086971
-0.008101722 0.012206178 0.0045268214 0.001422453 -0.009449207 -0.004779255 0.0049953703 0.0043848376
-0.0049291225 -0.020219788 0.007981428 0.014771749 -0.016881071 0.026500935 -0.0033793491 0.008060683
0.0062717623 -0.0016880587 0.009152845 0.008695422 -0.0014391658 -0.002874716 -0.0003722971 0.0034173087
-0.0059543224 0.015815316 0.0033753046 0.004294231 1.739246e-05 -0.003181556 0.012288136 -0.0013172446
0.003693372 0.0017809557 -0.00353412 0.01482202 -0.0017666946 0.0014774299 0.0012771304 -0.00072213786
0.0031825919 -0.006357388 -0.0062028184 0.022172963 -0.009518306 -0.015832394 0.006979187 0.0020792782
-0.017842589 -0.0071298326 0.010666951 -0.0031480293 -0.012487165 0.0045101736 0.018616725 0.018132403
0.004172993 0.013789052 0.0032352887 -0.008414748 -0.008357701 0.008988142 -0.00765801 -0.004502216
-0.013532186 -0.014973757 0.008745402 0.012034771 0.0049362043 0.019364854 -0.0044124755 0.014217838
-0.007390357 -0.014189637 0.0038575612 -0.011690629 0.0054345233 0.0059635756 0.011745924 -0.002272592
0.0021009292 0.0012285049 -0.010669714 0.011820192 0.01489116 0.0054219156 0.00032335916 -0.004190042
0.018877655 -0.00775825 0.012552141 0.0009067014 0.016021289 -0.004861192 -0.002568193 0.022334682
0.0034378252 0.010975181 0.0021920295 0.024916975 -0.0003925727 -0.0040773274 0.0003425829 0.00060372055
0.00085292215 0.03116778 0.00827913 -0.0071315053 -0.015163669 -0.001056966 0.0075640925 0.011091716
0.002462015 -0.016223349 -0.014283793 -0.000641488 0.0071991966 -0.006564622 0.017752467 -0.0025753125
0.007597428 0.0013469742 -0.012176959 0.0059145885 0.00038318106 -0.015186674 0.0054287836 -0.00028766776
-0.00485295 0.0053931023 0.0045552608 -0.018439889 0.00083052425 0.009938239 -0.00872298 -0.0045549823
0.0028274527 -0.0055560214 -0.0023431648 -0.0006003738 -0.007143379 0.0073925825 -0.0013318568 -0.0029785875
0.01384413 -0.008997654 -0.020789295 0.00035508568 0.0056303698 -0.018257434 0.0052272514 0.0048395847
0.004084063 0.014380485 -0.009280729 -0.00089647353 0.0084192185 -0.009439687 0.0010923726 0.0039400305
0.0010269814 0.004295988 0.0029013408 0.0035918576 -0.0036461763 0.0063496158 -0.00063989765 0.002824565
-0.0031768177 0.0020361317 -0.0021292502 0.0011159186 0.0058145677 0.0012979743 -0.007273984 -0.012189544
0.0024272895 0.009450727 0.0009115261 -0.011896112 0.0114874 0.014211717 -0.0025044796 0.0016424084

action_model._discrete_distribution.branches.1.bias f4 [2]
00000000: 0000 0000 0000 0000
0.0 0.0

action_model._discrete_distribution.branches.2.weight f4 [3, 128]
00000000: 0090 5ebb a88a fe3b cfc7 dcbb c085 713b
00000010: 654e a9ba 6432 c33b 1014 4fbc e764 153c
00000020: 9f1a 4a3c 881f 8b3b 5ac3 eabb e533 6bbc
00000030: 004d 24bc f508 b7bb b99a a6bb 0590 f33b
00000040: e687 4a3c 9f23 28b9 0231 00bc 14ab 923c
00000050: 8f7b 78bc 9f42 8abc efd0 c1bb 2ae0 143c
00000060: f0af 823c dfab a0b9 c112 9d3b 236e 6f3c
00000070: d3b8 d43b 2707 f839 15c0 89b9 33e0 313b
00000080: f162 123a 1fdc 083b a7d3 843c ebb3 e63a
00000090: a089 963a dfb4 46bc 70b1 43bc 3350 ea3b
000000a0: 004c 63bc a70c 9dbb 13ca dcbb 557d 5ebb
000000b0: 61f7 1a3c a3ec f63b 4728 42bb b38f 8e3c
000000c0: a041 53bb 0710 36bc f942 3fbc f738 f83b
000000d0: 86e1 8dbb 4515 2cbc 2ab3 a1bb 73b4 263c
000000e0: 2a20 52bc bcfd 37ba e896 92bc 83ee d939
000000f0: 4aec dcba ec11 b9bb 53f5 02bc 273b 35bc
00000100: 7ab7 bbbb d7ea 883c b7b9 cdbb 210a 4bbc
00000110: cf1d a039 7f55 f3bb 558f 3f37 e915 8eba
00000120: db61 5e3b f828 a73b b056 eb3b 0240 d73b
00000130: 0acc f43b 630d e8ba be8b 0fbc 9bbd f93b
00000140: 906b 93bb 5b6c 2f3c b307 6d3c a341 413b
00000150: 7663 88bb 7bf6 5b3b 284f 723c 1b63 b93b
00000160: 0733 ac3b fbb6 ec3b 54b8 b7bb f8bf bcb7
00000170: 60f9 83bc 77bd f6bb d26f f43a d857 163c
00000180: dbaf 173b 8767 ccbb 4318 843b 7be9 72bc
00000190: e7c6 c03c 87af 823b 902c 9c3b dac5 c13a
000001a0: 5f3b 023c 2c1a b03b cbf4 233c 34be 0dbc
000001b0: 44e2 843c d046 e33b 0541 bb3b 5e3b 85bc
000001c0: ab59 a3bb e087 6dbb ebd7 863c 7f58 003c
000001d0: ddcc 0d3c c8b9 4bbc 8790 9fbb 6d7d a93b
000001e0: 0a04 5ebc 1296 ce3b 07e0 61bc 47d0 67bc
000001f0: c072 683c 6398 363c 4794 5e3b 9eb2 39bc
00000200: d519 eaba 4645 243c abf4 84bc 5d6d d53a
00000210: 22e2 37bc 9377 dd3a 3359 5d3c 1406 b1bc
00000220: bbf4 3a3c c503 e8bb 0293 6dbc 5f7e 023b
00000230: f7b2 303b 73d5 d1bb 5b26 19bc 6a7f c23b
00000240: 38a5 df3a 57fb 683c d1c4 333c 8980 033a
00000250: ca3f 50bb 73e1 c7bb 564d babc 4363 2fbc
00000260: 2f3a 80bb 44c1 8abb 6251 813c c7a9 c8bb
00000270: 9e9f 03bb 92f6 6abc 31a4 be3b dd88 96bb
00000280: fd4c 6f3c 2934 873b 7b9d 623b 1004 9d3c
00000290: dd76 79bc 5fa9 063c bf70 163c 11af 823c
000002a0: 2072 033c f2ad 3bbb b595 c13a 572e 46bc
000002b0: a3d1 9e3a dc58 0b3c d256 1abc 472e a13b
000002c0: 6555 493b 1b94 b3b9 6a2e dc3b 78a1 dab9
000002d0: aaf8 d73b 0717 56bb 5428 0d3c b3ce 91bb
000002e0: 983a 5dbc eba2 70ba 0da8 ff3b 28cd 37bb
000002f0: b10c 9b3b 9db1 793a 75be 6db9 72ae e2bb
00000300: c8b1 8abb f3b4 a13c 0da8 263c c715 25bb
00000310: d3b9 15bc 5d2d 5f3a 2cee 9eba afb8 c13b
00000320: 5aa5 9bbb ab2f 863a d556 f6ba 5b1b d93b
00000330: 842a 903c db24 ceba c8be ebbb 4cee a7bb
00000340: 4839 f03b 9576 15bc d8ef e6ba 85c4 583c
00000350: d0a0 e83a 4fff 29bb ffb6 913a b451 293b
00000360: 0425 16bc 1ac2 353b 439c dbbb 38cb d5bb
00000370: 8bba 823b 5806 38bb 0381 0c3c 9d3d 09bb
00000380: 1fa8 26bb a37e d73b d5e3 d1bb a8b1 61b9
00000390: 0dcc bd3b f336 3b3c 72fa 9a3b 9b6b 63bb
000003a0: 829b 33bc 616b 2fbb 6485 8fbc f374 87bc
000003b0: 20a5 663a f290 efba 7b01 383a ab27 2a3c
000003c0: 1311 663b e822 9cbb 8ac5 7dbb ff8e d5ba
000003d0: df1b 2d3c c54d d4bb 1fa0 32bc 73ff 523b
000003e0: 78a7 dcbb 4a74 e8bb 25d2 1abb c10b 0e3a
000003f0: ad21 ce39 8f83 41bb 6557 243c bf7e 8e3b
-0.0033960342 0.007767994 -0.006737686 0.0036853403 -0.001291704 0.0059569348 -0.012639061 0.009118295
0.0123354485 0.004245702 -0.007164401 -0.014355634 -0.010028124 -0.0055857846 -0.0050843623 0.00743294
0.012361502 -0.00016034998 -0.007824184 0.017903842 -0.015166177 -0.01687747 -0.0059147994 0.009086648
0.015953034 -0.00030645632 0.0047934954 0.014613661 0.0064917593 0.00047307575 -0.00026273789 0.002714169
0.00055842014 0.0020883156 0.016214205 0.0017601227 0.0011485107 -0.012128084 -0.01194416 0.007150674
-0.0138731 -0.004792768 -0.0067379563 -0.0033949215 0.009458394 0.0075355335 -0.0029626058 0.017402506
-0.003223516 -0.01111222 -0.011673682 0.00757515 -0.004329863 -0.010503118 -0.004934688 0.010174858
-0.012825051 -0.00070187054 -0.017894223 0.0004156717 -0.0016855088 -0.0056478884 -0.00799306 -0.011061466
-0.005728659 0.016713543 -0.0062782425 -0.012392552 0.00030539787 -0.0074259634 1.1417859e-05 -0.001084027
0.0033932838 0.0051013194 0.007181965 0.0065689096 0.0074706124 -0.0017704185 -0.0087613445 0.0076214797
-0.0044989064 0.010706986 0.014467168 0.0029488585 -0.0041622473 0.0033563662 0.01478938 0.0056575662
0.0052551064 0.0072239614 -0.0056066904 -2.2500739e-05 -0.016110122 -0.00752991 0.0018649048 0.009176217
0.002314559 -0.0062379274 0.0040312125 -0.014826174 0.023532344 0.0039882096 0.0047660545 0.0014783696
0.0079487255 0.0053742137 0.010007094 -0.008651305 0.016221173 0.0069359317 0.005714538 -0.01626366
-0.0049850545 -0.0036244318 0.01646038 0.007833599 0.0086548 -0.01243443 -0.004869524 0.0051724226
-0.013550768 0.006304511 -0.013786322 -0.014148778 0.014187515 0.01114473 0.0033962892 -0.01133409
-0.0017860482 0.010026282 -0.016229948 0.0016283203 -0.011223348 0.0016896598 0.013510036 -0.021609344
0.011410887 -0.0070805275 -0.014500381 0.0019911749 0.002696214 -0.006403619 -0.009347524 0.005935599
0.0017062789 0.01422008 0.010972218 0.00050164066 -0.0031776302 -0.0060998737 -0.022741955 -0.010704818
-0.003913186 -0.004234465 0.015785877 -0.0061237547 -0.0020084153 -0.0143410135 0.005817913 -0.004593952
0.014605758 0.004126091 0.003457873 0.019166976 -0.015226093 0.008219092 0.009182154 0.015952619
0.008022815 -0.0028637615 0.0014769348 -0.012096009 0.001211692 0.008505072 -0.009420114 0.004918847
0.0030721065 -0.00034251888 0.0067194 -0.00041700504 0.0065909224 -0.0032667534 0.008615572 -0.0044496893
-0.013502739 -0.000917955 0.0078020156 -0.0028045867 0.0047317375 0.00095250626 -0.00022673032 -0.006917768
-0.004232619 0.019739604 0.010171902 -0.0025189982 -0.009138542 0.00085135346 -0.0012125424 0.0059119086
-0.004749936 0.0010237595 -0.0018794189 0.0066255755 0.017598398 -0.0015727537 -0.0071943738 -0.0051248427
0.007331047 -0.00912251 -0.0017619086 0.013230448 0.0017748121 -0.002593953 0.0011117159 0.0025836052
-0.009164099 0.0027734102 -0.0067019775 -0.0065244697 0.003989523 -0.0028079953 0.008575681 -0.0020941265
-0.0025429798 0.0065763756 -0.0064053335 -0.00021523854 0.005792147 0.011426675 0.0047295624 -0.003470159
-0.010962369 -0.0026766884 -0.01751966 -0.016535258 0.0008798409 -0.001827745 0.00070192636 0.010385434
0.0035105392 -0.0047649033 -0.0038722479 -0.0016293227 0.010565727 -0.0064789974 -0.010902434 0.0032195717
-0.006733831 -0.007093941 -0.002362379 0.00054186216 0.00039316472 -0.0029527878 0.010030602 0.0043486054

action_model._discrete_distribution.branches.2.bias f4 [3]
00000000: 0000 0000 0000 0000 0000 0000
0.0 0.0 0.0

action_model._discrete_distribution.branches.3.weight f4 [3, 128]
00000000: c3d7 47bb 9b04 24bb d25c 073c aa36 02b9
00000010: 3bdb 8fbc 68e4 23bb f768 293c ca84 5a3c
00000020: b0f6 013c ef50 2a3c 1303 52bb 17a2 953a
00000030: d168 be3a 025f 7abc adca ddba 4744 6a3a
00000040: 4288 d5b9 e7ca 2dbb ed11 abbb 0b19 063c
00000050: 4553 6f3b 9f75 0bbc 57a7 c33b a7cc 893a
00000060: 2895 e03b 0f4d 77bc cdaa 963c b7f7 0dbc
00000070: b51f 5cbb 1f8c 3ebc 81ea 1ebc 3405 a1bb
00000080: 839d 7eba 439f 3b3b aaae e5b9 227a 453c
00000090: a395 3cb9 725c d2ba 440d 45bc 35b4 353b
000000a0: 3db8 423c f1b0 34bc 27e6 f6bb 8601 0cbc
000000b0: 8aa9 7c3c ebca 5ebb 1b31 bc3b 0a80 3d3b
000000c0: 6a33 893a 63c9 583b 27f0 973b 7560 9e3a
000000d0: d338 d6ba 701a 753a a95e 44bc 2750 0839
000000e0: 1fd9 d6ba 57ac 04bb 9552 863a 30c3 0d3b
000000f0: 5fbf f8ba 0a4d 8d3b 0f71 273c c5c1 9cbc
00000100: 8a90 943c 9875 2ebc b87a d0ba 43a2 343b
00000110: a3bb 06bc 7add 833b 823b e33b cc1e 063b
00000120: 852e 703c b6be 22bc 14d3 91bc 2b0c 9cbc
00000130: 9f8e ffbb b675 ba3b 6328 c13c 47cf 78bb
00000140: 2337 63bc c386 97bb 5bdd 8f3b 4eb1 b53b
00000150: f3d8 953a d7e7 8a3b d0e4 36bb f84a db3b
00000160: 6411 403c 8201 de3b e47b c43a 682e 0dbb
00000170: 0e1c 9d3c afae 5d3c da15 f0bb 8b85 54bc
00000180: fb3c 22bc d025 613c 9737 5fbb c711 333c
00000190: d63a 2bbb 3f25 98bc 7336 78bc 12f8 7fbb
000001a0: 2644 c1bb 5e22 0ebc a368 cebc 230c 693c
000001b0: cb2b b139 47c0 2c3b cb48 0bbb f8b7 2c3b
000001c0: 1f4a 85ba e7b9 ebba 0f3b 4fbc 1bfa 273c
000001d0: 4023 5dbc 8301 9dbb 1108 9b3c 33dd 7dbb
000001e0: bc61 02bb 4f87 6fbc df1c 113c f3a7 2dbc
000001f0: cb22 8dbb e58d 573b d71f 393c d439 863b
00000200: 6911 8b3c 3f35 3a3c 8b4e 1f3b c504 25bc
00000210: 3a98 783c e58c 4f3c 0b55 a2bb bbe7 163c
00000220: 73e4 663c 4b9d 453c 0995 a63a eaf5 e9bb
00000230: 3250 e7ba b5bb 333c 15c2 63bc 5be5 97bb
00000240: 08d8 6bbc d306 183b 633d b7bb ad39 1f3c
00000250: 6e99 a9ba 6719 ad3b 5cdb 93bb 1d7e 52bb
00000260: 33d1 373b 8581 eeb7 761f 09bc 416e aeba
00000270: 704f 463c c027 343c 8453 1dba 3064 5abb
00000280: 3362 e0bb bb83 7e3c e3fb b13b 2b8c b13b
00000290: 9a1c d3bb 5b8c f4bb 6dfa 503c 5001 4dbc
000002a0: f0a2 a53b 0c41 983c 2d53 6fbb 2c34 0a3c
000002b0: c7fc fabb 684b d73b a5c5 4d3c 0f2d a33b
000002c0: b035 2a3c 2369 0d3c 0386 6cbc bc55 9d3c
000002d0: 4b2a 063c f017 f23b eb15 ce3a afac afbc
000002e0: f305 5d3b 2d3b 693c fd2c 8d3b 22fb f6ba
000002f0: 0891 803c e6db 163c 340b 033c e1db a0ba
00000300: a4c9 30bc db78 8dba 7fc0 debb b79d 483c
00000310: d85a 7bbb 3f16 8a3b 3132 3ebc 8bb7 d03b
00000320: a0e7 f8bb c7ec 143c eb4d 98bb ce78 cb3b
00000330: 1c7e acba 6764 49bb 5d56 333c a73a 69ba
00000340: 3a34 303c f601 8b3c 31fa 37bb b04d 883c
00000350: 9030 60ba 8455 c6bb 41bb a7bb 211e 9fbb
00000360: 1064 77bc 78f4 713c 9710 39bb 0277 fd3a
00000370: 108b b73b 4b81 5dbb 98d1 c13a bf69 62bb
00000380: 95ab 8cbb e5fa 3f3c 908e 543c 49df 1239
00000390: 750f f5bb fdff 743c 337d 8bba 5b35 f43a
000003a0: 69cb b93b 7548 1f3a f668 b0bb d7f9 82ba
000003b0: 0f74 ffbb 0bf2 4eba 436b 273c 13c4 48bc
000003c0: 2abc 31bc cb70 b7ba 0336 acbb a3d2 25bb
000003d0: 637d 44bc d54f 4e3c 61cc acbc 5bb2 903b
000003e0: 38c3 3abc 1a38 16bc 1520 86bb a2ad 70bb
000003f0: 8d6d 22ba e36c 823b 8db2 e8bb d9ff 203c
-0.0030493594 -0.002502716 0.008261876 -0.0001241813 -0.017560592 -0.0025007967 0.010339967 0.013337323
0.00793235 0.010395273 -0.003204529 0.0011416104 0.0014527087 -0.015281441 -0.0016921364 0.0008936566
-0.00040728046 -0.0026518644 -0.005220643 0.008184682 0.0036518138 -0.00851193 0.005970876 0.0010513262
0.0068537183 -0.015094056 0.018391991 -0.008665017 -0.0033588235 -0.011630087 -0.009699465 -0.0049139503
-0.0009712802 0.0028628863 -0.0004380842 0.0120530445 -0.00017984821 -0.0016049279 -0.012027089 0.002772582
0.011884746 -0.011028514 -0.0075347605 -0.008545285 0.015421281 -0.003399546 0.0057431585 0.0028915429
0.0010467593 0.003307902 0.0046367827 0.001208319 -0.0016343839 0.0009349948 -0.011985459 0.0001299983
-0.0016391611 -0.0020244324 0.0010248 0.0021631233 -0.0018977931 0.0043121623 0.010219826 -0.019135365
0.018135328 -0.010648154 -0.0015905714 0.0027562536 -0.008223447 0.004024205 0.006934584 0.0020465134
0.014659529 -0.009933164 -0.017800845 -0.01904877 -0.007798984 0.005690302 0.023578828 -0.0037965344
-0.013868126 -0.004624219 0.0043904013 0.005544818 0.0011432454 0.0042390632 -0.002790738 0.0066922866
0.011722896 0.006775082 0.0014990536 -0.0021542553 0.019178417 0.013530417 -0.0073268237 -0.012971292
-0.009902234 0.013741925 -0.0034060234 0.010929531 -0.0026127598 -0.018572448 -0.0151497 -0.0039057774
-0.0058980165 -0.008675186 -0.025196379 0.014224085 0.000337927 0.0026359723 -0.0021253105 0.002635477
-0.0010169185 -0.001798448 -0.012648358 0.010252501 -0.013497174 -0.00479144 0.018924745 -0.0038736581
-0.001989468 -0.014619662 0.008856981 -0.010599124 -0.004307126 0.0032890972 0.011299095 0.004096249
0.016976075 0.011365234 0.002430829 -0.010071938 0.015173012 0.012667869 -0.0049539856 0.009210522
0.0140925525 0.012061427 0.0012709211 -0.007139911 -0.0017647801 0.010970046 -0.013901253 -0.0046354956
-0.014394768 0.0023197427 -0.0055920347 0.009718341 -0.0012939402 0.005282569 -0.0045122337 -0.0032118626
0.0028048276 -2.8432123e-05 -0.008369317 -0.0013308005 0.0121039 0.010995805 -0.00060015195 -0.0033323877
-0.0068476438 0.015534337 0.0054316386 0.0054183207 -0.0064426186 -0.0074630207 0.012755019 -0.01251252
0.005054824 0.018585704 -0.0036518082 0.00843529 -0.007659528 0.0065702684 0.012559329 0.0049797366
0.010388777 0.008631024 -0.014436248 0.01920592 0.008188794 0.0073881075 0.0015723085 -0.021444647
0.003372547 0.0142353 0.0043083415 -0.0018843154 0.015694156 0.009207701 0.0079982765 -0.001227256
-0.010790262 -0.0010793464 -0.0067978497 0.012244633 -0.0038353708 0.0042140777 -0.011608646 0.0063695363
-0.007595971 0.009089655 -0.0046479604 0.0062094694 -0.0013160142 -0.003073001 0.010945884 -0.00088969845
0.010754639 0.016968708 -0.002807271 0.016638607 -0.0008552158 -0.0060526747 -0.005118758 -0.0048558866
-0.01509954 0.014767759 -0.0028238648 0.0019337835 0.0056012943 -0.0033798988 0.0014787195 -0.0034547893
-0.004292915 0.011717533 0.012973443 0.00014006825 -0.0074786493 0.0149536105 -0.0010642171 0.0018631624
0.0056700003 0.00060761656 -0.005383606 -0.0009992671 -0.0077958177 -0.00078943436 0.010218444 -0.012253779
-0.010848084 -0.0013995407 -0.005255462 -0.0025302551 -0.011992785 0.012592276 -0.02109355 0.004415793
-0.011399083 -0.009168649 -0.00409318 -0.0036724587 -0.0006196134 0.0039802655 -0.007101363 0.009826624

action_model._discrete_distribution.branches.3.bias f4 [3]
00000000: 0000 0000 0000 0000 0000 0000
0.0 0.0 0.0

action_model._discrete_distribution.branches.4.weight f4 [3, 128]
00000000: 884d d6bb cff5 9eba 2344 9a3b d287 aa39
00000010: 11a4 a239 7b9a 8fba fdbd 12bb eb30 b4bb
00000020: 72e8 d737 d34f 0d3c 05e6 da3b 81b5 bbbb
00000030: 4d59 4fbc d01e d63a a5cf cdba 01e6 bfba
00000040: efa1 803b 1aa3 c3bb ad1a f33b 2f24 02bb
00000050: 10f9 e53b 7d76 e5bb d815 ceba d590 64bc
00000060: 46fd 263c 1023 8fbb 74dd ae3b 8437 9aba
00000070: 591a 11bc f3cf 44bc e51b f53b 1f16 24bc
00000080: df43 1b3b 2589 983b 022d dbbb 6070 063c
00000090: 6608 0c3c 35ff 79bb 1bdd 58bb 19b7 95bc
000000a0: cdf9 81bb e21a 54bb 7434 afbb 3fb0 e339
000000b0: 7683 863b 5f0d 7aba a3a8 a9bc db3e e5bb
000000c0: 8b62 8c3b 227c 76ba 43c6 653b 7110 c2bb
000000d0: 9ba6 64bb 5e69 32bc dbe6 0abb cfda efbb
000000e0: ad4c 043c 7f19 68ba 05f3 113a 90f7 3abc
000000f0: 1579 3dbb 8012 b4bb 235c 91bb 4b83 01bc
00000100: 5590 193c f0d8 183b 3cf6 a239 5552 0d3c
00000110: 2f71 363c 730a 12bc b8f5 d8bb 178b 203c
00000120: c8ef 24bc b5dd cfbb b727 6aba 041f c9ba
00000130: 8a42 053b 9bb6 ae3b bd26 18ba 32d5 85bc
00000140: 5dc9 233b 8533 7f3c b85a 7abb af74 0cbc
00000150: 53e5 d03a c75f a1bb 0e13 1339 0b40 d4b9
00000160: dfb5 363c 1271 323b 3d58 cbba cff7 2b3c
00000170: c0a6 92bc c84d 29bb c7c8 a5ba 84fd af3b
00000180: 6503 75ba 3a7e 1ebc 1c2d bfbb ea52 b33a
00000190: a010 e13a c7f7 f6bb 3878 473c d88b 25bc
000001a0: 0f9b 0fbc b66a 2d3b 7bed a03b 0997 cabb
000001b0: 522a 7ebc 63e1 8a3b 0275 4dbc afad bd3b
000001c0: 8097 5dbc e7aa 44bc 43d0 9f3b a7cb 0dbc
000001d0: 27e3 eb3b f00e b3bb 30f4 7abc a1a1 283c
000001e0: 8fb3 74bc 2ac8 e53a 2091 deb9 9e29 433b
000001f0: 0304 053c cfbc b13c 5b25 d53b aeb5 49ba
00000200: 52cc 2bbb cadd 21bc e3bd 8e3c b760 ea3b
00000210: ca60 e93a 7f7e 133b ef27 833b a350 83bc
00000220: 806f 40bc e1ea 46ba fa11 53bc 6b9a ebba
00000230: 50bb 31bc 707d e5bb 0aaa e63b 3741 4b3a
00000240: 9ef3 2bbb 0b95 3fbb ce83 843b 3c8b aebb
00000250: eacf ff3b 27e7 213c b388 4f3c 616f 143c
00000260: 4dcb 97ba f6e5 213c 4a5a 4dbc cb4c b73b
00000270: a06c 6cbb f065 67bc 9293 a83b 9b73 35bb
00000280: f519 6ebc c29e 8cb8 97b5 4dbc 4c70 8e3c
00000290: 5e00 1abc 9d30 083a 5b39 f1bb 4867 f139
000002a0: 3706 593c 7b89 893c 8b21 a539 a344 013c
000002b0: f30e 9abb ed64 813a 2fd3 ac39 974a 953b
000002c0: f625 b9ba 02e2 803a 93b2 853c cbca a3bb
000002d0: ea90 e13b a55e d83b 4b82 773b d422 9d3c
000002e0: 2539 82b9 cc34 93ba 0f9f 09bc bbbe e8bb
000002f0: 55e7 9fbb abcd c5ba 6774 cfb9 a4b0 103b
00000300: e373 273c 1703 4c3b 6fdf ab3b d701 953c
00000310: ae0f a7bb 580b 243c 0f72 123c b30f 06bc
00000320: 9315 8b3b 8b15 263c af22 3c3c e1ca 193c
00000330: 479a 00bc ef71 21bb fc86 21bb 04be bdbb
00000340: 5eaf b7ba 093c 38bc 4c09 80bc aafc abbb
00000350: 99b8 be3b c0f3 37bc e6d0 2ebc 3330 a23b
00000360: 234e e5bb af12 cbb9 3318 de3b 53be 893b
00000370: 0af6 5bbb 421c 313b d05c 493c bbc2 f5bb
00000380: f8ed 0b3a 2354 babb 6a1e 6bba 873f 0c3c
00000390: 7f9c 86b9 4c3e 89ba 2f1e 0a3c 1725 81ba
000003a0: 5627 2fbc deda c7bb 430f 01bc 41c0 b53b
000003b0: 4da8 29bb 2486 ccb9 7bd9 1ebc c1c7 103b
000003c0: 07a8 4e3c ef4b b9ba 41e8 993c 02f3 e5bb
000003d0: 4cc9 823b 2ba7 ffbb 93f7 853a e652 053c
000003e0: 9af7 65bb 9afc c43b 0bd6 16bc bb4f 8bbc
000003f0: 7fc8 f0ba 3d1d 373c 466a 37ba 8330 0ebc
-0.006540004 -0.00121277 0.0047078296 0.0003252612 0.00031021287 -0.0010956073 -0.0022391074 -0.0054989955
2.5738238e-05 0.008624989 0.0066802525 -0.005728424 -0.012655568 0.0016336087 -0.0015702142 -0.001464069
0.003925554 -0.005970371 0.0074189515 -0.0019857993 0.007018216 -0.0070026503 -0.0015723063 -0.013950546
0.010192221 -0.0043681934 0.005336458 -0.0011765813 -0.008856379 -0.01201247 0.007480132 -0.01001504
0.0023691577 0.004655021 -0.006688715 0.008205503 0.008546924 -0.00381465 -0.0033090774 -0.018275784
-0.003966546 -0.0032364656 -0.005346829 0.00043428128 0.004105027 -0.00095387356 -0.020710295 -0.0069960183
0.004284208 -0.00094026525 0.00350608 -0.00592237 -0.0034889344 -0.010889379 -0.002119473 -0.007319785
0.008074922 -0.0008853897 0.0005567524 -0.011411563 -0.0028911282 -0.0054953694 -0.0044360324 -0.007904838
0.00937279 0.0023322664 0.00031082507 0.0086255865 0.0111353835 -0.008913624 -0.006621089 0.009798787
-0.010066934 -0.006343568 -0.00089323096 -0.0015344326 0.002033385 0.005331827 -0.00058041123 -0.016337011
0.0024991848 0.015576248 -0.0038201045 -0.008572741 0.0015937485 -0.0049247476 0.00014026111 -0.00040483507
0.01115176 0.002722804 -0.0015513968 0.010496094 -0.017901778 -0.0025833715 -0.0012648337 0.0053707976
-0.0009346514 -0.009673649 -0.005834235 0.0013681327 0.0017171092 -0.0075368616 0.0121746585 -0.010104142
-0.008764996 0.002646131 0.0049111224 -0.0061825556 -0.01551302 0.004238294 -0.012540104 0.005788527
-0.01352489 -0.012003637 0.0048771217 -0.0086545115 0.0071987095 -0.005464427 -0.015317008 0.010292442
-0.014935388 0.0017530967 -0.00042451266 0.0029779444 0.008118632 0.021696476 0.0065046973 -0.0007694614
-0.0026214314 -0.009879539 0.01742453 0.0071526426 0.0017805335 0.0022505817 0.004002563 -0.016029662
-0.011745334 -0.00075881 -0.012882704 -0.0017975097 -0.010847881 -0.0070034787 0.007039313 0.0007753553
-0.0026237736 -0.0029233124 0.0040440327 -0.0053266566 0.0078067677 0.009881771 0.012666869 0.009059758
-0.0011580974 0.009881487 -0.012533734 0.005593871 -0.0036075488 -0.014123425 0.005144545 -0.0027687314
-0.014532556 -6.705291e-05 -0.012555501 0.017387532 -0.009399502 0.0005195232 -0.0073615736 0.00046044053
0.013246111 0.016789189 0.00031496244 0.007889899 -0.004701489 0.0009871997 0.0003296374 0.004556011
-0.0014125693 0.000983298 0.016320502 -0.00499854 0.00688373 0.0066030794 0.003776687 0.019181646
-0.00024838108 -0.0011230945 -0.008399739 -0.007102815 -0.004879872 -0.0015091201 -0.00039568843 0.0022077942
0.010220501 0.0031129771 0.005245141 0.018189354 -0.0050983047 0.01001247 0.0089383265 -0.008182454
0.004244515 0.010136972 0.011482879 0.009386749 -0.007849283 -0.002463456 -0.0024647107 -0.005790474
-0.0014014055 -0.011244782 -0.015629433 -0.0052486258 0.0058203456 -0.011227548 -0.010669922 0.0049495935
-0.00699784 -0.00038733098 0.006777787 0.0042035966 -0.0033563399 0.00270249 0.012290195 -0.0075000203
0.00053378893 -0.0056862994 -0.00089690706 0.008560068 -0.0002567507 -0.0010470836 0.008430048 -0.0009852973
-0.010690531 -0.006099089 -0.007877174 0.0055466 -0.0025887669 -0.00039009855 -0.009695406 0.002209172
0.012613303 -0.001413701 0.018787505 -0.007017494 0.0039912816 -0.0078019104 0.0010220878 0.00813744
-0.003509021 0.0060115578 -0.009206305 -0.017005792 -0.0018370299 0.011176405 -0.0006996732 -0.008678558

action_model._discrete_distribution.branches.4.bias f4 [3]
00000000: 0000 0000 0000 0000 0000 0000
0.0 0.0 0.0

network_body._body_endoder.seq_layers.0.weight f4 [128, 1]
00000000: 76b3 cb3f 4d0a 4c3e 521e bbbf c328 e1be
00000010: cda9 75bf f017 1b3f e309 133e c301 f23f
00000020: 101d 9cbf 8632 6c3f af34 a6bf 7310 8dbe
00000030: 3a6b bb3f f8b6 c03e 27a7 653f 6753 7dbe
00000040: dd0c 18c0 c84b 77bf 2341 00bf 94a4 aabe
00000050: 4b30 e13d a4a8 923f 28ee 36bf d948 683e
00000060: 1056 a9be 1c27 593f d19f 903e 0a3b a9bd
00000070: a341 a53f 26b8 873f 8383 82be 8371 20bf
00000080: 70e6 3ec0 685b 153f efd1 903e c9ed eebe
00000090: 2546 89bf 4d86 e0bd e281 263f 43a6 d43e
000000a0: e48a 3abe b798 d83f 6f71 c23f 1238 25bf
000000b0: 3613 12bf 18a2 bd3e 520f e03f 7342 8c3f
000000c0: 7988 6e3f 5f12 ba3e cd46 b0bd d23b 66bf
000000d0: ad6d 7abd 4586 cebe 43a1 1240 6f84 f9be
000000e0: 8500 453e 0ec9 0abf cf56 0cbe f0ea 0cbf
000000f0: d3ad d53f 3c57 aabe 59a4 eebe 8695 b43f
00000100: 251e 1bbe 27f9 c23e d6de 213f 9b58 d73e
00000110: 23c6 d23f 5409 36bf d325 1c3f b183 dc3d
00000120: 05f2 84bd 7a2b 87bf 3c05 483e fbd7 1f3f
00000130: 2360 51be c273 e1be 273e 9abe f522 903f
00000140: b7b5 e03d d5fc c4be b6eb 52bf e4c9 b73f
00000150: 2974 2d3f b0c6 893f b028 543f bbda 523e
00000160: cff4 fdbe 442c ba3e 1ad0 a5be dfff 9b3f
00000170: c01c 583e 227d 0540 f083 1f3f ad3b ba3f
00000180: 7189 1f3f fd3c 2cbf bc7e 923d 8cf6 8bbe
00000190: c957 bb3e c027 ba3f a593 053f 8c81 18be
000001a0: 39f0 51bf 96d0 8cbe 4beb 06bf 5d57 3cbf
000001b0: c6bd d3bf 0049 b53f f720 4dbe 4df6 ac3e
000001c0: c430 fb3d 0368 cebf 5491 0140 d050 9e3e
000001d0: d134 4cbf 387f 293f cde4 32bf 4f39 003f
000001e0: 3d3c 093f 735f 393f 24b8 6f3f c48a ce3f
000001f0: 9c03 8b3e e34d 20bf 6719 22bf 10ea 263e
1.5914142 0.19925804 -1.4618628 -0.4397641 -0.9596222 0.605834 0.1435924 1.8906788
-1.2196369 0.9226459 -1.2984828 -0.27551612 1.4642098 0.37639594 0.8970818 -0.24738847
-2.375785 -0.9660001 -0.5009939 -0.33328688 0.10995539 1.1457715 -0.7145715 0.22684039
-0.33073473 0.848253 0.2824693 -0.08263214 1.2910656 1.0603073 -0.2549096 -0.62673205
-2.9828148 0.583426 0.28285167 -0.4666579 -1.0724531 -0.10963116 0.65041935 0.41533098
-0.18217045 1.6921605 1.5190867 -0.6453868 -0.57060564 0.3703773 1.7504675 1.0957779
0.9317699 0.3634214 -0.08607254 -0.8993503 -0.06113975 -0.40336815 2.2910926 -0.4873385
0.1923848 -0.54213035 -0.1370499 -0.55045986 1.6693672 -0.3326968 -0.46609762 1.4108131
-0.15148218 0.38080713 0.63230646 0.42059788 1.6466717 -0.71107984 0.60995215 0.10767306
-0.06491474 -1.0560143 0.19533247 0.62438935 -0.2044683 -0.4403363 -0.30125543 1.1260668
0.10972159 -0.38474146 -0.82390916 1.4358487 0.6775537 1.076376 0.82874584 0.20591252
-0.49600837 0.36361897 -0.3238533 1.2187461 0.21104717 2.0857625 0.62310696 1.4549462
0.62319094 -0.6728056 0.07153079 -0.27336538 0.36590412 1.4543381 0.5217841 -0.14893168
-0.82007176 -0.27502888 -0.5270278 -0.73570806 -1.6542289 1.4162903 -0.20032106 0.33781663
0.12265161 -1.6125492 2.0244951 0.3092103 -0.7976809 0.66209745 -0.6988037 0.50087446
0.5360754 0.7241127 0.9364035 1.6136098 0.2715119 -0.62618846 -0.6332001 0.16300225
