results/Medium_Clar/Player/Player-855654.pt (torch, 893662 bytes, 72 tensors)

discrete_act_size_vector f4 [1, 4]
0	0x40400000	3.0
1	0x40000000	2.0
2	0x40400000	3.0
3	0x40400000	3.0

network_body.observation_encoder.processors.0.normalizer.running_mean f4 [15]
0	0xbfaf35d0	-1.3688297
1	0xc0de15b3	-6.940149
2	0x40146e74	2.3192415
3	0x414efee9	12.937234
4	0x4096b4eb	4.7095847
5	0x413d8cb4	11.846851
6	0x409c2acc	4.880224
7	0x40d232ca	6.5687
8	0xbf37281f	-0.71545595
9	0xc0b9c9d3	-5.8058867
10	0x3fe5d0cc	1.7954345
11	0x3df099bb	0.11748072
12	0xbe78572d	-0.24252005
13	0xbd541f60	-0.051787734
14	0x3b44e666	0.0030044555

network_body.observation_encoder.processors.0.normalizer.running_variance f4 [15]
0	0x4d216a0d	1.6925512e+08
1	0x4577ecbc	3966.796
2	0x4b358f3d	1.1898685e+07
3	0x4cde2cc5	1.16483624e+08
4	0x4b895a12	1.800298e+07
5	0x4cdc0775	1.1535863e+08
6	0x4a15afa1	2.4524562e+06
7	0x4a253f8d	2.7074272e+06
8	0x4c79255e	6.531212e+07
9	0x4b4ade89	1.3295241e+07
10	0x4c4b6e65	5.3328276e+07
11	0x4d82b45f	2.7410736e+08
12	0x4afc1573	8.2602815e+06
13	0x4b815843	1.6953478e+07
14	0x45189015	2441.0051

network_body.processors.0.normalizer.running_mean f4 [15]
0	0xbfaf35d0	-1.3688297
1	0xc0de15b3	-6.940149
2	0x40146e74	2.3192415
3	0x414efee9	12.937234
4	0x4096b4eb	4.7095847
5	0x413d8cb4	11.846851
6	0x409c2acc	4.880224
7	0x40d232ca	6.5687
8	0xbf37281f	-0.71545595
9	0xc0b9c9d3	-5.8058867
10	0x3fe5d0cc	1.7954345
11	0x3df099bb	0.11748072
12	0xbe78572d	-0.24252005
13	0xbd541f60	-0.051787734
14	0x3b44e666	0.0030044555

network_body.processors.0.normalizer.running_variance f4 [15]
0	0x4d216a0d	1.6925512e+08
1	0x4577ecbc	3966.796
2	0x4b358f3d	1.1898685e+07
3	0x4cde2cc5	1.16483624e+08
4	0x4b895a12	1.800298e+07
5	0x4cdc0775	1.1535863e+08
6	0x4a15afa1	2.4524562e+06
7	0x4a253f8d	2.7074272e+06
8	0x4c79255e	6.531212e+07
9	0x4b4ade89	1.3295241e+07
10	0x4c4b6e65	5.3328276e+07
11	0x4d82b45f	2.7410736e+08
12	0x4afc1573	8.2602815e+06
13	0x4b815843	1.6953478e+07
14	0x45189015	2441.0051

network_body._body_endoder.seq_layers.0.weight f4 [128, 15]
0	0x3eb703e0	0.35745144
1	0xbf345de9	-0.70455796
2	0xbe8ad126	-0.27112693
3	0xbe419bb6	-0.18907055
4	0x3e6488a6	0.22317752
5	0xbd0e5bc0	-0.03475547
6	0xbedd47b4	-0.43218768
7	0x3f0723e3	0.52789134
8	0x3db66999	0.0890686
9	0x3d28e400	0.041233063
10	0xbebbe446	-0.36697596
11	0x3e13312b	0.14374225
12	0xbaeb9a53	-0.0017975069
13	0xbe2468c3	-0.16055588
14	0xbe4e422b	-0.20142429
15	0xbeb28283	-0.34865198
16	0xbe09be97	-0.1345161
17	0xbde42a40	-0.11140871
18	0x3ddad969	0.10685999
19	0x3e935efc	0.28783405
20	0x3d3c74ca	0.046009816
21	0x3e495443	0.1966105
22	0x3df52f50	0.11971915
23	0xbae79fb6	-0.0017671499
24	0xbd73ef21	-0.059554223
25	0xbe93b54d	-0.2884926
26	0x3e16763b	0.14693539
27	0xbe738460	-0.23780966
28	0xbecfccf8	-0.40586066
29	0x3f263099	0.64917904
30	0xbf1fd1cc	-0.624295
31	0xbe929ff6	-0.28637666
32	0x3ce5fd5a	0.028074909
33	0x3ee7193a	0.45136434
34	0xbc53d77e	-0.012929795
35	0x3dfbc6f1	0.122938044
36	0x3eba1608	0.36344934
37	0xbe849d27	-0.25901148
38	0x3e2c0ba9	0.16801323
39	0xbe2edaa1	-0.17075588
40	0x3f0cef94	0.5505307
41	0xbc4ae142	-0.012382807
42	0xbea91f35	-0.33031622
43	0xbe3867b1	-0.18008305
44	0x3d5cd4b2	0.05391378
45	0xbe9996f9	-0.29997995
46	0x3e20933a	0.15681162
47	0x3d3ca1e3	0.046052825
48	0xbf1df205	-0.6169742
49	0x3d9ddf63	0.07708623
50	0x3de413bb	0.11136576
51	0x3ef6ac61	0.4817839
52	0xbe8ad210	-0.2711339
53	0x3e63942e	0.22224495
54	0xbdeaa14b	-0.114565454
55	0x3e8f2d90	0.2796445
56	0x3ea0c141	0.3139744
57	0x3e04c138	0.12964332
58	0xbe828926	-0.2549526
59	0xbdfbc07d	-0.122925736
60	0xbe406912	-0.18790081
61	0x3e3a8839	0.18216027
62	0x3e7b6fdb	0.24554388
63	0x3f0e0fd1	0.55492884
64	0x3e2b11a8	0.16705954
65	0x3d236470	0.039890707
66	0xbe485987	-0.19565402
67	0xbd99f1d4	-0.07516828
68	0xbe80e097	-0.25171348
69	0xbec38992	-0.38190895
70	0xbf20d5b1	-0.6282607
71	0xbe1fe068	-0.15612948
72	0xbd2d7eb0	-0.042357147
73	0x3cc747e1	0.024326267
74	0xbed9a944	-0.42511952
75	0x3e53a75b	0.2066931
76	0x3f0881ac	0.53322864
77	0xbe140307	-0.1445428
78	0xbe984943	-0.29743394
79	0xbe03b2db	-0.12861197
80	0x3da13223	0.07870891
81	0xbdbe26c8	-0.09284741
82	0x3e2de417	0.1698154
83	0xbe3b8435	-0.18312152
84	0x3d6f24b8	0.058384627
85	0x3eef69eb	0.46760496
86	0xbe63525c	-0.22199386
87	0xbe8671bb	-0.26258644
88	0x3f11000b	0.5664069
89	0xbea59410	-0.32339525
90	0x3ed0bc6b	0.40768752
91	0x3ec97b2b	0.39351782
92	0x3e800ef1	0.250114
93	0xbed09c00	-0.4074402
94	0xba45adcb	-0.0007540851
95	0xbe400441	-0.18751623
96	0x3e45ff6e	0.1933572
97	0x3eb939bc	0.3617686
98	0xbf0ab620	-0.5418415
99	0x3dbbe7f9	0.09175105
100	0x3f1b50a9	0.6066995
101	0x3ea43f5a	0.32079583
102	0xbd348ee1	-0.044081572
103	0xbca98813	-0.020694768
104	0xbee267f3	-0.44219932
105	0xbdc03403	-0.093849204
106	0x3f1e48af	0.61829656
107	0xbeb9c7e1	-0.36285308
108	0x3f0d69c9	0.5523954
109	0x3a94a1e0	0.0011339746
110	0x3e122f2f	0.14275812
111	0x3d92e164	0.07171896
112	0x3eb3baae	0.35103363
113	0xbe02e5ba	-0.12782946
114	0x3ddaf33f	0.10690927
115	0x3dc9c2ca	0.09851606
116	0x3db76e10	0.0895654
117	0x3f545cc8	0.8295407
118	0x3e347314	0.17622024
119	0x3dbe7b05	0.09300808
120	0x3d973f77	0.07385152
121	0x3d2a2265	0.041536707
122	0xbea09641	-0.31364635
123	0xbebead07	-0.37241384
124	0xbdb05915	-0.08610741
125	0xbd590f5c	-0.052993163
126	0xbf0ed0a6	-0.5578712
127	0x3ee2fd13	0.44333705
128	0x3ec5addc	0.38609207
129	0x3e785bb5	0.24253733
130	0x3c59bee5	0.013290142
131	0xbe203f4a	-0.15649143
132	0xbe898992	-0.2686277
133	0x3ce9a49a	0.028520871
134	0xbdaa5d40	-0.08318567
135	0x3d8f72aa	0.07004292
136	0xbe30f3d7	-0.17280518
137	0x3f19546a	0.5989443
138	0xbd27c527	-0.040959504
139	0x3e1d7787	0.15377627
140	0xbd06dfd5	-0.032928307
141	0xbe66ae7f	-0.22527502
142	0x3e76a9ec	0.24088258
143	0x3e72ee6b	0.23723762
144	0xbe96b688	-0.29436135
145	0xbed29687	-0.41130468
146	0x3e7c826e	0.2465913
147	0xbd3d13df	-0.04616153
148	0xbe6f279e	-0.23354957
149	0xbeaa624a	-0.33278114
150	0xbde12921	-0.10994173
151	0x3c8b4c6d	0.017004216
152	0x3ef7655a	0.48319513
153	0x3e95e51b	0.29276356
154	0x3f0ae5f1	0.5425711
155	0x3e78dd75	0.24303229
156	0xbf07a2c8	-0.5298276
157	0x3e651bb6	0.22373852
158	0xbde0689a	-0.10957451
159	0x3e918b44	0.28426564
160	0x3d981b28	0.07427055
161	0xbd9001da	-0.07031603
162	0xbe85174c	-0.25994337
163	0xbe667f91	-0.225096
164	0x3dfaf9c6	0.12254672
165	0xbea3d98b	-0.3200191
166	0x3e7ccb9a	0.24687043
167	0xbe9c1c98	-0.30490565
168	0xbf42f4b2	-0.76154625
169	0x3dfc00c8	0.123048365
170	0xbe503476	-0.20332512
171	0xbd8bc090	-0.06823838
172	0xbe6f4e6b	-0.23369758
173	0x3dbc3a60	0.09190822
174	0x3e88a79c	0.26690376
175	0xbeab3b31	-0.33443597
176	0x3ef1189f	0.47089097
177	0x3d8b4ce7	0.06801777
178	0x3e6cf770	0.23141265
179	0xbdbfaf30	-0.09359586
180	0x3ee38c24	0.44442856
181	0x3d89a3da	0.06720705
182	0xbeee8ce4	-0.46591866
183	0x3c5f78da	0.013639653
184	0xbd0e70d8	-0.034775585
185	0xbcbe43a2	-0.02322561
186	0x3d25026c	0.040285513
187	0x3d2fafe8	0.042892367
188	0xbed17699	-0.40910795
189	0xbe86cd60	-0.26328564
190	0x3f7e6722	0.9937612
191	0x3dffc19e	0.124881014
192	0xbeeaeb68	-0.45882726
193	0x3ed3244d	0.41238633
194	0x3e09de91	0.13463809
195	0x3e65f9d6	0.22458586
196	0xbccef013	-0.02526096
197	0xbedc3fe2	-0.4301749
198	0xbcc5d192	-0.024147782
199	0xbf3eed85	-0.74581176
200	0x3e0f0641	0.1396723
201	0xbe8dbf25	-0.27684894
202	0xbc856ea5	-0.016288111
203	0x3e262169	0.16223682
204	0x3c9cf197	0.019158168
205	0x3f1c4be7	0.6105332
206	0x3ba0a766	0.004902768
207	0x3df521ff	0.11969375
208	0xbf246304	-0.64213586
209	0xbdc0753f	-0.09397363
210	0xbf2bd7a6	-0.6712593
211	0xbe566066	-0.2093521
212	0xbece9db4	-0.40354693
213	0xbebd4175	-0.36964002
214	0xbdc09438	-0.094032705
215	0xbe9ba9b1	-0.30402902
216	0x3e9454fd	0.2897109
217	0xbdf43f14	-0.11926094
218	0xbeea9c25	-0.45822254
219	0xbeca1d71	-0.39475587
220	0x3de58cf2	0.11208524
221	0x3e1b2c99	0.15153731
222	0xbd3462a5	-0.044039387
223	0xbe6c113c	-0.2305345
224	0xbe29b697	-0.16573559
225	0x3d9e96b7	0.0774359
226	0x3f0fc610	0.56161594
227	0x3d488919	0.04895887
228	0xbf2ee3bb	-0.6831624
229	0x3ed0c590	0.40775728
230	0x3e426e0f	0.18987297
231	0x3e4cd735	0.2000397
232	0xbe062950	-0.13101697
233	0xbea0f3ea	-0.31436092
234	0xbe561ff0	-0.2091062
235	0xbeb95af6	-0.3620221
236	0xbe889654	-0.2667719
237	0x3f355a72	0.70841134
238	0xbd2d61c9	-0.042329583
239	0xbcbc66e2	-0.022998277
240	0x3e1d4100	0.15356827
241	0x3e2fdfa5	0.17175157
242	0xbec5ff3a	-0.38671285
243	0xbcaefaf7	-0.021359904
244	0x3f146f92	0.5798274
245	0x3eb2979f	0.34881303
246	0x3dbac0b4	0.091187865
247	0x3ea6b2e2	0.32558352
248	0xbf09bd46	-0.53804433
249	0xbe3afe64	-0.18261105
250	0x3f280328	0.65629816
251	0x3d817fc5	0.06323198
252	0x3e69b140	0.22821522
253	0xbe2ae9d3	-0.1669076
254	0x3d952533	0.07282486
255	0x3c7af09c	0.015316155

network_body._body_endoder.seq_layers.0.bias f4 [128]
0	0xbcad5373	-0.021157956
1	0xbd81b9d4	-0.06334272
2	0xbdb730ae	-0.08944832
3	0x3c8c6f80	0.017143011
4	0xbd0358ad	-0.03206699
5	0xbd1f270d	-0.0388556
6	0x3d4aedce	0.049543194
7	0xbd8c95d2	-0.068645135
8	0xbd6867d4	-0.056739643
9	0xbbc8bbe4	-0.006125914
10	0x3dbfa0fe	0.09356879
11	0xbd7f0ccf	-0.062268075
12	0x3d9a67d4	0.07539335
13	0x3dc29bf5	0.09502403
14	0x3cedd6c3	0.02903307
15	0x3dc4484f	0.09584104
16	0x3d58ff7f	0.052978035
17	0xbd3be8b8	-0.045876235
18	0xbc7a8eb9	-0.015292817
19	0xbc62fe1d	-0.013854531
20	0x3c82b1c4	0.015953906
21	0x3e250293	0.16114263
22	0x3d3c09ee	0.045907907
23	0x3d11bc12	0.03557975
24	0x3cc15e64	0.02360458
25	0xbcba01fc	-0.022706024
26	0x3d32f5bc	0.04369138
27	0x3df0d632	0.117596045
28	0xbb87da6e	-0.004145912
29	0x3ce2e0d0	0.02769509
30	0xbe020b5f	-0.1269965
31	0x3d520498	0.051273912
32	0x3e05e8d0	0.13077092
33	0x3a60ee2b	0.00085804117
34	0xbdc985e2	-0.09839989
35	0x3e7f4470	0.2492845
36	0xbcbaeb1c	-0.022817187
37	0x3c4a5140	0.012348473
38	0xbdb0eeb4	-0.08639279
39	0x3d49c679	0.049261544
40	0xbc86885e	-0.016422447
41	0x3d7da45d	0.061924327
42	0xbb187c81	-0.002326757
43	0x3dd0232e	0.1016296
44	0xbda3633c	-0.07977912
45	0xbc971674	-0.018443324
46	0x3d9247a6	0.07142572
47	0x3e1b04c5	0.15138538
48	0x3d452797	0.04813346
49	0x3c950644	0.018191464
50	0xbd12e076	-0.035858594
51	0x3e0b9685	0.13631637
52	0x3dca8b61	0.09889866
53	0xbd1645ed	-0.03668778
54	0x3e6f1824	0.23349053
55	0x3e17e3f1	0.14833046
56	0xbdd04d8d	-0.10171042
57	0x3de101d4	0.10986677
58	0x3c8616f0	0.01636836
59	0xbda2b4c2	-0.07944633
60	0x3cabfdc5	0.02099503
61	0xbd1946d5	-0.037421066
62	0x3cd71eae	0.026259746
63	0x3d9b979e	0.07597278
64	0x3d81b543	0.06333401
65	0x3e14eca3	0.14543395
66	0x3d9babd0	0.0760113
67	0x3c807edb	0.01568549
68	0xbcf5e359	-0.030015634
69	0x3cf99c4e	0.03047004
70	0x3e1c9834	0.15292436
71	0x3e36a2a0	0.17835474
72	0x3bf0666c	0.0073364284
73	0xbd94d8fb	-0.07267948
74	0xbe06df3b	-0.13171093
75	0xbd9d7b17	-0.07689493
76	0xbd9eeafb	-0.07759663
77	0xbcc34e30	-0.023840994
78	0xbbe35f76	-0.00693887
79	0xbddd3fc4	-0.10803178
80	0x3d35c69a	0.044378854
81	0x3d941d3b	0.07232138
82	0x3d7244d1	0.05914766
83	0x3cd51ece	0.026015665
84	0xbda3568f	-0.07975494
85	0xbd5cbef7	-0.053893056
86	0x3defd6db	0.11710902
87	0x3e044bfe	0.12919614
88	0xbd3532ef	-0.044238027
89	0x3dc6716b	0.096896015
90	0x3e0baccf	0.1364014
91	0x3ce8f92a	0.028439123
92	0xbcf5391c	-0.029934458
93	0xbca3933a	-0.019967664
94	0x3ce6e936	0.028187376
95	0x3d6d5ecf	0.057951745
96	0x3d1e82e4	0.038699046
97	0x3cf3175f	0.02967423
98	0x3dcb57f3	0.09928884
99	0x3da5a578	0.08088201
100	0xbd005f24	-0.031340733
101	0x3d2e2736	0.042517863
102	0xbc0a632e	-0.008446498
103	0xbd0ac827	-0.033882286
104	0x3e0910ca	0.13385311
105	0x3def925e	0.11697839
106	0x3d24417c	0.040101513
107	0x3e2b6252	0.16736725
108	0x3c9c4f28	0.019080713
109	0xbc8a7c05	-0.01690484
110	0x3d241df6	0.040067635
111	0x3c3ff84a	0.011716912
112	0x3d46f632	0.048574634
113	0x3c3d2cce	0.011546327
114	0xbdd94c5f	-0.1061027
115	0xbcf865dd	-0.03032201
116	0xb782de54	-1.5600737e-05
117	0x3c5659c4	0.013082925
118	0x3ddb06bc	0.10694644
119	0xbca3ab42	-0.019979123
120	0x3e4b298e	0.1984007
121	0xbd9d6bc7	-0.076865725
122	0x3de2ca0a	0.11073692
123	0xbdbfc2ba	-0.09363313
124	0xbd9a1939	-0.07524342
125	0x3dc9de84	0.098568946
126	0xbe29c27b	-0.16578095
127	0x3b1dd882	0.0024085348

network_body._body_endoder.seq_layers.2.weight f4 [128, 128]
0	0x3e023e9c	0.12719196
1	0x3d707ef5	0.058714826
2	0xbe3f4fc3	-0.1868277
3	0x3de1105c	0.109894484
4	0xbe009f32	-0.12560728
5	0x3e01908c	0.12652797
6	0x3e469f3c	0.1939668
7	0xbdf19c38	-0.117973745
8	0x3e3875ed	0.18013735
9	0x3c03aced	0.008036834
10	0xbd9116fe	-0.070844635
11	0x3bb8af20	0.005636111
12	0x3e15c9ca	0.14627758
13	0x3e6d42fe	0.23170087
14	0x3ddd725b	0.10812827
15	0xbd0861e2	-0.033296473
16	0xbd24aff2	-0.040206857
17	0xbdc51059	-0.09622259
18	0x3e6684d0	0.22511601
19	0x3e371f96	0.17883143
20	0xbe37dc4c	-0.1795513
21	0xbd0fe458	-0.035129875
22	0x3e0d19c7	0.13779365
23	0x3d9859b9	0.07438988
24	0x3d6e4cbb	0.058178645
25	0xbd138ade	-0.036021106
26	0x3ded3302	0.115819946
27	0x3e0eb76a	0.13937154
28	0x3db36ecf	0.087613694
29	0x3e88fa91	0.26753667
30	0xbe06b7e4	-0.13156086
31	0xbce5a2ab	-0.028031668
32	0x3e7f5e42	0.249383
33	0xbe47d90d	-0.19516392
34	0x3b792db4	0.0038021626
35	0xbe8866eb	-0.2664102
36	0xbe1f5691	-0.15560366
37	0x3e100225	0.14063318
38	0x3d527d98	0.051389307
39	0x3e88e1c8	0.26734757
40	0x3db4f472	0.08835687
41	0x3daeef71	0.085417636
42	0x3d1dfb9b	0.038570028
43	0x3d92cbb7	0.07167762
44	0xbd20ae95	-0.039228994
45	0xbe1df89d	-0.1542687
46	0x3e99757f	0.29972455
47	0x3db43252	0.0879866
48	0xbe2bc3dd	-0.16773935
49	0x3c190c59	0.009341323
50	0x3e05e725	0.13076456
51	0x3d84cf56	0.06484859
52	0xbe20edbd	-0.1571569
53	0x3e174a3f	0.14774416
54	0xbda74ed9	-0.08169336
55	0x3e40eb5b	0.18839781
56	0x3c73e91f	0.014887123
57	0xbda0965b	-0.07841178
58	0xbdc5f1a9	-0.09665234
59	0xbe3c1839	-0.18368615
60	0x3d88311a	0.066499904
61	0xbe1b72de	-0.15180537
62	0x3dced948	0.10100037
63	0x3bb79215	0.005602131
64	0x3dab9753	0.08378472
65	0x3cd69fa4	0.02619917
66	0x3da181a6	0.078860566
67	0xbde0b84f	-0.10972654
68	0x3ea9f544	0.33194935
69	0xbe0d7b24	-0.13816506
70	0xbdb5ddd7	-0.08880203
71	0x3ea97f4c	0.33104932
72	0xbde6c6bd	-0.11268375
73	0x3da01f2f	0.07818448
74	0x3de220f8	0.110414445
75	0x3e0d1bae	0.1378009
76	0x3d4b1403	0.04957963
77	0xbe4c335b	-0.19941466
78	0xbdbe4d93	-0.0929214
79	0x3dfe8f91	0.12429727
80	0x3e8f75c0	0.28019524
81	0xbcb17ec1	-0.021666886
82	0x3dbf34cb	0.09336241
83	0xbe646201	-0.2230301
84	0xbe17234b	-0.14759557
85	0xbcf7fcd3	-0.030271923
86	0x3dbb6a49	0.09151132
87	0x3e151454	0.14558536
88	0x3d9899e4	0.07451227
89	0x3e077707	0.13228999
90	0xbd79d477	-0.060993638
91	0x3d3d543a	0.046222903
92	0x3d44962a	0.04799477
93	0xbea0360d	-0.31291237
94	0xbda327a7	-0.079665475
95	0x3e675ca4	0.22593933
96	0x3c042f17	0.008067868
97	0x3e54d937	0.20785986
98	0x3ec68dd5	0.38780084
99	0x3e460d74	0.1934107
100	0x3c5efa8a	0.013609538
101	0x3bde7d7d	0.0067898617
102	0xbd4263e8	-0.04745856
103	0x3dee4729	0.116346665
104	0x3ed7fb2e	0.42183822
105	0x3d945cdd	0.07244275
106	0xbe9659ff	-0.29365537
107	0x3e3b95a0	0.18318796
108	0xbdf206a5	-0.118176736
109	0x3ce95a61	0.028485479
110	0x3e1a3635	0.15059741
111	0x3dc4af89	0.09603793
112	0xbcc4d4de	-0.024027284
113	0xbbd45a4d	-0.0064804913
114	0x3e06c88e	0.13162443
115	0x3db7d06d	0.08975301
116	0xbe140687	-0.14455615
117	0xbe38fc56	-0.18065009
118	0x3da4f380	0.080542564
119	0xbdb2f7e7	-0.0873869
120	0x3e8f9e38	0.280504
121	0xbe3800bb	-0.17969029
122	0xbcd475af	-0.025935022
123	0x3d2124d2	0.039341755
124	0xbc1defdd	-0.009639707
125	0x3da3e28f	0.08002197
126	0xbe8c12d8	-0.27358127
127	0x3d99c5ad	0.07508407
128	0xbe0af363	-0.13569407
129	0x3d6137fb	0.054985028
130	0x3e080849	0.1328441
131	0xbe5682ae	-0.20948288
132	0xbd2927e1	-0.041297797
133	0x3c9927e8	0.018695787
134	0x3d9aaa4d	0.075520135
135	0xbd6dcd0c	-0.058056876
136	0x3dcc264e	0.099682435
137	0xbc516379	-0.012780064
138	0x3e53039f	0.2060685
139	0xbe5532f4	-0.20820218
140	0x3e9a59ca	0.3014663
141	0xbe5763da	-0.21034184
142	0x3e1c246a	0.15248266
143	0xbdf2a593	-0.11847987
144	0x3e2b3904	0.16720968
145	0xbdff2250	-0.124577165
146	0xbe1f08a9	-0.15530647
147	0xbe167273	-0.14692096
148	0x3d75460f	0.059881266
149	0xbd5844a6	-0.052799843
150	0x3e2e8730	0.17043757
151	0xbe015976	-0.12631783
152	0xbe84332e	-0.25820297
153	0xbe0f1914	-0.1397441
154	0x3cb9d87e	0.02268624
155	0x3ca673f7	0.020318968
156	0x3e11c428	0.14234984
157	0xbd72c410	-0.05926901
158	0xbe0beca3	-0.13664488
159	0xbe48f70e	-0.19625494
160	0xbe72a5a2	-0.23695996
161	0x3d87dcbf	0.06633901
162	0x3e73e047	0.23816024
163	0xbca813f8	-0.020517334
164	0x3e44f990	0.19235826
165	0x3df4afd3	0.11947598
166	0x3e401474	0.18757802
167	0xbe160146	-0.14648923
168	0x3c184326	0.009293353
169	0x3da27847	0.07933097
170	0x3e8d211c	0.27564323
171	0x3d5c264f	0.05374747
172	0xbda07c06	-0.078361556
173	0x3d966663	0.073437475
174	0x3e0f69ca	0.14005199
175	0x3cfbf0ea	0.030754525
176	0xbe003ef3	-0.12524013
177	0xbd9901c6	-0.074710414
178	0x3e26d491	0.16292025
179	0x3e22d7cd	0.15902634
180	0x3e5e3af4	0.21702176
181	0x3d9d8c67	0.07692795
182	0x3be3c69d	0.006951167
183	0x3db7d409	0.08975989
184	0xbdf39e64	-0.11895445
185	0xbe137ac8	-0.14402306
186	0x3e41e570	0.1893518
187	0xbd473601	-0.048635487
188	0xbd835494	-0.06412616
189	0x3e021dfc	0.1270675
190	0x3dade93c	0.084917516
191	0x3e519684	0.20467573
192	0x3e385a1c	0.18003124
193	0xbd84be20	-0.06481576
194	0x3d9c8727	0.07642966
195	0x3de17694	0.11008945
196	0xbe4e7548	-0.20161927
197	0x3cbdffe9	0.023193317
198	0xbdfaed4f	-0.12252294
199	0xbdde5cbf	-0.10857534
200	0xbd547120	-0.051865697
201	0x3e582691	0.21108462
202	0x3d881e2c	0.0664638
203	0x3e4742c6	0.19459066
204	0x3db7b1dd	0.089694716
205	0x3ea8e0f5	0.3298413
206	0x3e932f98	0.2874725
207	0x3e10a5fa	0.14125815
208	0xbe837c13	-0.256806
209	0xbe8cdc06	-0.27511615
210	0xbd303206	-0.043016456
211	0xbd307b55	-0.04308637
212	0x3d672517	0.056431856
213	0xbceda054	-0.029007114
214	0xbe3a2d67	-0.18181382
215	0x3e86a0ca	0.26294547
216	0x3d708835	0.058723647
217	0xbe7503d3	-0.2392724
218	0xbe4130b3	-0.18866234
219	0x3e3f1950	0.18662
220	0xbd62eadb	-0.055399757
221	0x3d984d03	0.07436564
222	0xbe49f11c	-0.19720882
223	0xbb728cff	-0.003701031
224	0x3e17974f	0.14803813
225	0xbe08bc55	-0.13353093
226	0xbe68e8e1	-0.22745086
227	0x3daf7fad	0.08569274
228	0xbd9886c5	-0.0744758
229	0x3da4d932	0.08049239
230	0xbd522325	-0.051303048
231	0x3def3ad1	0.1168114
232	0xbd1727b2	-0.03690309
233	0xbe866bad	-0.26254025
234	0xbd171f24	-0.036894932
235	0xbdd4ba02	-0.10387041
236	0xbcc665a6	-0.024218392
237	0xbea833b1	-0.32851937
238	0xbd94cf67	-0.07266121
239	0xbda81c9f	-0.08208584
240	0x3b2c9a81	0.0026337209
241	0xbe07665c	-0.13222641
242	0x3d6fdf5e	0.05856263
243	0x3e410a62	0.18851617
244	0x3d80d830	0.062912345
245	0x3e88304e	0.26599354
246	0xbe1d2394	-0.15345603
247	0x3e4e9c9b	0.20176928
248	0xbe1c94ba	-0.1529111
249	0x3da18fc9	0.07888753
250	0x3df3456a	0.11878474
251	0xbc5621c2	-0.013069572
252	0xbc1d5cc1	-0.009604634
253	0xbda9ae76	-0.08285229
254	0x3e2ce8fb	0.1688575
255	0xbd99cd51	-0.07509864

network_body._body_endoder.seq_layers.2.bias f4 [128]
0	0x3b154713	0.002277796
1	0xbdb97b1a	-0.09056683
2	0xbd9c311f	-0.076265566
3	0x3d8005ce	0.06251107
4	0xbd147108	-0.036240608
5	0xbcfc7317	-0.030816598
6	0xbd79be9d	-0.0609728
7	0xbd2fb535	-0.042897422
8	0x3c485642	0.012227597
9	0xbcb4b381	-0.02205825
10	0xbda6f118	-0.08151454
11	0xbdad8193	-0.0847198
12	0x3d6c1989	0.05764154
13	0x3d2eaf29	0.042647514
14	0xbd018967	-0.031625178
15	0x3d29988e	0.041405253
16	0x3d973138	0.073824346
17	0xbddbd479	-0.10733885
18	0xbd63884e	-0.055549912
19	0x3d52a751	0.051429097
20	0xbcadff24	-0.021239825
21	0x3cd37e3b	0.025817027
22	0xbdbd6788	-0.09248263
23	0xbce334a3	-0.02773506
24	0x3c650c73	0.013980019
25	0xbc30ac22	-0.010783227
26	0xbda78d68	-0.08181268
27	0xbddf22a2	-0.108952776
28	0xbcf52dc7	-0.029929055
29	0xbd717d27	-0.058957245
30	0x3c9b1730	0.018931955
31	0x3b81462c	0.0039451327
32	0xbd9114fc	-0.070840806
33	0x3cd50912	0.026005302
34	0x3b8f3d58	0.0043713264
35	0xbd86a6f6	-0.06574814
36	0x3d929ce2	0.07158829
37	0xbd93ec32	-0.07222785
38	0x3c0bfaac	0.008543652
39	0x3c70ce88	0.014697678
40	0x3d46772e	0.048453502
41	0xbdbe8f4a	-0.09304674
42	0x3dc3da79	0.09563155
43	0xbcd75a18	-0.026288077
44	0x3d2826ed	0.041052748
45	0x3d9c0d33	0.07619705
46	0xbd81160c	-0.06303033
47	0xba5dd0ff	-0.0008461624
48	0xbd516646	-0.051122926
49	0x3d10d435	0.035358626
50	0xbd4f5e6d	-0.05062716
51	0xbdee058e	-0.11622153
52	0xbc6e7153	-0.014553386
53	0xbd2636d0	-0.040579617
54	0xbd50898e	-0.050912432
55	0x3d29979e	0.04140436
56	0x3bc70fc7	0.006074879
57	0xbd871db3	-0.065974616
58	0x3d210265	0.039308924
59	0xbc4075b8	-0.011746816
60	0x3c7440cb	0.014908026
61	0x3e22338d	0.15839978
62	0x3e0dcdd0	0.13848042
63	0x3d928f2c	0.07156214
64	0x3dd1dcdb	0.10247203
65	0x3e1adb5d	0.15122743
66	0xbdbd726e	-0.09250341
67	0xbdb36477	-0.087593965
68	0x3d6f0a64	0.05835952
69	0xbddc8e1e	-0.10769294
70	0x3cf37036	0.029716592
71	0x3c5e966e	0.01358567
72	0x3cb5a37d	0.022172684
73	0xbcf0a43a	-0.029375184
74	0x3d374e21	0.044752244
75	0x3d0040d5	0.03131183
76	0x3d1455c2	0.036214598
77	0x3baf11af	0.005342684
78	0xbce1e45b	-0.027574709
79	0x3deb6c3f	0.11495256
80	0xbd75c637	-0.060003486
81	0xbcd2b23e	-0.025719758
82	0xbc0404eb	-0.008057813
83	0xbd558f30	-0.052138507
84	0x3d1fae47	0.038984563
85	0xbe2ca159	-0.16858424
86	0x3c5ce87f	0.013483166
87	0x3db7e18f	0.08978569
88	0x3de16957	0.1100642
89	0x3d0ba32d	0.034091163
90	0x3d15bac5	0.03655507
91	0x3d36d22c	0.04463403
92	0xbdd85c32	-0.1056446
93	0xbb91e776	-0.004452641
94	0x3cda1a9f	0.026624022
95	0x3d151ea3	0.03640617
96	0xbddaa501	-0.10676003
97	0x3d1d932f	0.038470443
98	0xbe01b7bd	-0.12667747
99	0xbb9d9ebe	-0.0048101833
100	0x3d3b0f38	0.04566881
101	0xbc3d130f	-0.011540188
102	0xbd9c11e1	-0.07620598
103	0x3c54290e	0.012949241
104	0x3ce7822d	0.028260315
105	0xbc8562c7	-0.016282452
106	0xbdbcd877	-0.09220975
107	0xbaf8dd84	-0.0018986915
108	0xbd95fd8b	-0.0732375
109	0xbd418c84	-0.047253147
110	0xbce16229	-0.027512627
111	0xbdc7b7b9	-0.09751839
112	0x3d63b499	0.055592153
113	0x3d26d281	0.040728096
114	0xbd2bf062	-0.041977294
115	0x3d1903fa	0.037357308
116	0xbdfba112	-0.12286581
117	0xbdee4e93	-0.116360806
118	0x3d23d12b	0.0399944
119	0xbd9d942f	-0.076942794
120	0xbdda271f	-0.10651993
121	0xbd994e7b	-0.07485672
122	0xbd9217f2	-0.071334735
123	0xbcf2cee7	-0.029639674
124	0xbd07ec4e	-0.033184342
125	0xbdbe505a	-0.092926696
126	0xbda7b673	-0.08189096
127	0x3e03c210	0.12866998

network_body._body_endoder.seq_layers.4.weight f4 [128, 128]
0	0xba9abb84	-0.0011805152
1	0x3e08f3c2	0.13374236
2	0xbe3e911e	-0.18610045
3	0x3dcf6e52	0.10128464
4	0xbe46267c	-0.19350618
5	0xbe061449	-0.13093676
6	0xbe1b1e7c	-0.15148348
7	0xbd457f29	-0.048216973
8	0xbc40836f	-0.011750086
9	0x3dfc851e	0.123300776
10	0xbdb79c0f	-0.08965313
11	0xbd1a4a5d	-0.037668575
12	0xbe749f81	-0.23888971
13	0xbe2a8820	-0.1665349
14	0x3df3841a	0.11890431
15	0x3dbacdac	0.0912126
16	0xbe157a2c	-0.14597386
17	0x3d3122a7	0.043245938
18	0xbe22f078	-0.15912044
19	0xbe3f4995	-0.18680413
20	0x3e1b2c54	0.15153629
21	0x3dcb065e	0.09913324
22	0x3dc0e1c5	0.09418062
23	0xbd103259	-0.035204265
24	0x3d1eda1d	0.038782228
25	0xbe487ccc	-0.19578856
26	0x3b3f217f	0.0029164252
27	0xba183c82	-0.0005807356
28	0xbe56f309	-0.20991148
29	0xbde7462f	-0.11292683
30	0xbe8af054	-0.2713648
31	0xbe8ecd59	-0.27891043
32	0x3c8d358f	0.017237453
33	0xbe1b42a9	-0.15162148
34	0xbe938280	-0.288105
35	0xbd2e187d	-0.042503823
36	0x3e29c689	0.16579641
37	0xbcef1e99	-0.029189395
38	0xbdb9e173	-0.09076204
39	0x3d8211b7	0.06351035
40	0x3e8e0a67	0.2774231
41	0xbd456d9e	-0.048200242
42	0x3e28aef8	0.16472995
43	0xbd83f449	-0.06443078
44	0xbe15c826	-0.14627132
45	0xbe731f0f	-0.23742317
46	0xbe8a02f8	-0.2695539
47	0x3d3322a3	0.043734204
48	0xbcd52621	-0.026019158
49	0x3e6e7108	0.23285306
50	0xbeae95fa	-0.34098798
51	0xbe6b04d6	-0.22951064
52	0xbe69cc2a	-0.22831789
53	0x3d74f62a	0.059805073
54	0xbdced089	-0.10098369
55	0xbe6a5b75	-0.2288645
56	0xbe29fae6	-0.16599616
57	0x3b1553c9	0.0022785536
58	0xbdca12aa	-0.09866841
59	0x3df3709c	0.11886713
60	0xbddb9795	-0.10722271
61	0x3d8ab1a9	0.06772167
62	0xbebe3165	-0.3714706
63	0xbdd810f2	-0.10550107
64	0x3d710e2e	0.058851413
65	0x3c22333d	0.0098999115
66	0xbdca6626	-0.098827645
67	0xbd6ee8b2	-0.058327384
68	0xbd95353e	-0.07285546
69	0x3c511244	0.0127607025
70	0xbe531bf5	-0.20616134
71	0xbbde39db	-0.0067817993
72	0xbeb4a0f6	-0.35279053
73	0xbe2868a9	-0.16446175
74	0xbe45e371	-0.19325043
75	0x3da31807	0.07963567
76	0xbe71d5b2	-0.23616675
77	0x3d4ba0c5	0.04971387
78	0xbe926bdd	-0.28597918
79	0x3d64c3c7	0.05585077
80	0xbcf0a100	-0.029373646
81	0xbe0489c6	-0.12943181
82	0xbe8bb8a0	-0.27289295
83	0x3ce3ddfe	0.027815815
84	0xbdb4bf2c	-0.08825526
85	0x3e161ee7	0.14660226
86	0x3cceb41e	0.025232371
87	0xbd9d3a2b	-0.0767711
88	0x3c9d7b19	0.019223737
89	0x3da62561	0.08112598
90	0xbeb37652	-0.3505121
91	0x3d6e65c4	0.05820252
92	0xbe5cf304	-0.21577078
93	0xbdaa0b1f	-0.083029024
94	0xbe82d0d2	-0.25549942
95	0xbe4170bd	-0.18890662
96	0x3d8a0e9f	0.0674107
97	0xbdcb3519	-0.09922237
98	0xbdb8dfd4	-0.09027067
99	0xbe81185a	-0.2521389
100	0xbe42147b	-0.18953125
101	0x3e1b8db5	0.15190776
102	0xbe71c25c	-0.23609298
103	0x3e0abffa	0.13549796
104	0xbe210063	-0.15722804
105	0xbe83f43f	-0.25772282
106	0xbe2edbee	-0.17076084
107	0xbe064015	-0.13110383
108	0x3d983909	0.074327536
109	0xbdc44621	-0.095836885
110	0x3e1d0ce4	0.15336949
111	0xbaa8177a	-0.0012824379
112	0xbd222647	-0.039587285
113	0x3de97adf	0.11400389
114	0xbe7420e6	-0.23840675
115	0xbe2c3f58	-0.16821039
116	0x3cf96e27	0.030448033
117	0x3dcccf82	0.100005165
118	0x3b8458ff	0.0040389295
119	0xbe32bc23	-0.17454581
120	0x3c4af244	0.012386862
121	0xbe243761	-0.1603675
122	0x3e2529bc	0.16129202
123	0xbe3aa3de	-0.18226573
124	0xbe5a874a	-0.21340671
125	0xbeb94eb1	-0.3619285
126	0xbda746e7	-0.081678204
127	0xbe2e724a	-0.17035785
128	0xbe5b00e8	-0.21387064
129	0x3d1a1720	0.03761971
130	0x3e044653	0.12917452
131	0x3da3d390	0.07999337
132	0xbe3a63db	-0.18202154
133	0x3c318855	0.010835727
134	0xbcccb2b2	-0.024987552
135	0xbde3fbb5	-0.11131994
136	0x3e2c8dc2	0.16850951
137	0xbc81eca4	-0.01585991
138	0x3d963e6b	0.07336124
139	0x3c78b3b2	0.015179561
140	0x3d71b8fb	0.0590143
141	0xbde207c5	-0.11036638
142	0x3dc03f62	0.09387089
143	0xbe56ea47	-0.20987807
144	0x3e7ec592	0.24880055
145	0x3c98d79c	0.018657498
146	0xbd5e5dfb	-0.054288846
147	0xbe01263a	-0.12612239
148	0xbd0ad8be	-0.033898108
149	0xbe46eebe	-0.1942701
150	0xbe8c859c	-0.27445686
151	0x3cda5d04	0.026655681
152	0xbd4da188	-0.050202876
153	0xbdcb6cf1	-0.09932888
154	0xbd8e677e	-0.06953333
155	0x3c564457	0.013077817
156	0x3dc1ab7e	0.09456538
157	0xbdfdeb99	-0.12398452
158	0x3e1d9fac	0.15392941
159	0xbc8d07f9	-0.017215716
160	0x3d438a08	0.04773906
161	0xbe1ca906	-0.15298852
162	0xbdf0a4f6	-0.11750214
163	0xbcd224b1	-0.025652261
164	0x3e036d97	0.12834774
165	0x3e6d0eda	0.23150197
166	0xbd6fe754	-0.05857022
167	0xbd558f01	-0.052138332
168	0xbea6c5d4	-0.32572806
169	0xbcc4912b	-0.023995003
170	0x3e267e1c	0.16259044
171	0x3ec3eaba	0.3826502
172	0x3d330552	0.043706246
173	0xbd98b66b	-0.074566685
174	0xbd001cb0	-0.03127736
175	0xbaabb37d	-0.0013099756
176	0xbd3021aa	-0.043000855
177	0x3c01099f	0.007875829
178	0x3c70541c	0.014668491
179	0x3e8168ce	0.25275272
180	0x3d730241	0.05932832
181	0xbd8708b2	-0.065934554
182	0xbbe365b0	-0.0069396123
183	0x3ea6292e	0.32453293
184	0x3db8745d	0.090065695
185	0x3cc0c719	0.023532437
186	0x3d547b94	0.051875666
187	0xbdb8dac2	-0.090261
188	0x3d589e6e	0.052885465
189	0xbd7407ec	-0.059577867
190	0xbe844586	-0.25834292
191	0xbdd8f9ae	-0.105944976
192	0xbe0f6319	-0.14002647
193	0xbe2e664a	-0.17031208
194	0x3d40aaa3	0.04703773
195	0xbd4a0204	-0.04931833
196	0xbde5e854	-0.11225954
197	0x3dc9a404	0.098457366
198	0x3e2c2a7a	0.16813079
199	0x3e5fc4f9	0.21852483
200	0xbeb776aa	-0.3583272
201	0x3dfefc11	0.124504216
202	0x3cf71b1c	0.030164294
203	0x3d993fa1	0.074828394
204	0xbd3817ce	-0.044944577
205	0xbc4208ff	-0.011842965
206	0x3de6d646	0.11271338
207	0x3baaf718	0.005217444
208	0xbd9d3429	-0.076759644
209	0x3d365694	0.04451616
210	0x3cc2223d	0.023697967
211	0x3d89f136	0.067354605
212	0xbe799594	-0.24373466
213	0x3e0182ba	0.12647524
214	0x3e2bfedb	0.16796438
215	0xbb24e5e2	-0.0025161435
216	0xbe3984b3	-0.18117027
217	0xbdc0d8ce	-0.09416352
218	0x3e244a59	0.16043986
219	0x3ef58b15	0.47957674
220	0xbdbacdc0	-0.09121275
221	0x3d5668b5	0.05234595
222	0xbdcce5c4	-0.10004762
223	0x3e33edb0	0.1757114
224	0xbe586324	-0.21131569
225	0xbd8d6e5c	-0.06905815
226	0xbd638b4b	-0.055552762
227	0x3a62720d	0.0008638211
228	0xbd97b5f0	-0.07407749
229	0xbdbde02e	-0.092712745
230	0x3d6c6657	0.057714786
231	0xbc2e347e	-0.010632632
232	0xbe0dd720	-0.13851595
233	0x3c9e043f	0.019289134
234	0xbd919a85	-0.071095504
235	0xbe4b888a	-0.19876304
236	0xbdd5b7e7	-0.10435467
237	0xbe4bd04f	-0.19903682
238	0xbe1f1a38	-0.15537345
239	0xbdca8f05	-0.0989056
240	0xbe351372	-0.17683199
241	0x3cb34080	0.021881342
242	0xbdc55b24	-0.09636524
243	0xbdfb802a	-0.12280305
244	0x3e620a86	0.22074327
245	0x3d921875	0.07133571
246	0xbe39516d	-0.18097468
247	0x3da63054	0.081146866
248	0xbb13fee9	-0.0022582358
249	0xbd3a10b3	-0.045426082
250	0x3c27f4cd	0.010251236
251	0xbcd0e19a	-0.0254982
252	0x3d7fe229	0.062471543
253	0xbd8a915f	-0.067660086
254	0xbe2b5594	-0.16731864
255	0xbe8cfc97	-0.2753646

network_body._body_endoder.seq_layers.4.bias f4 [128]
0	0x3cbae21e	0.0228129
1	0x3c0ab31e	0.008465556
2	0xbd3b3819	-0.045707796
3	0x3d7d634d	0.06186228
4	0x3d3bbbe0	0.04583347
5	0x3d240ebb	0.04005311
6	0xbda6d1c0	-0.081454754
7	0x3cccf931	0.025021167
8	0x3dd7d03e	0.10537766
9	0x3d20666a	0.03916017
10	0xbca9f1e8	-0.020745233
11	0xbdc990c2	-0.098420635
12	0x3dfe1068	0.12405473
13	0xbd41f161	-0.047349337
14	0xbdd9cad5	-0.1063439
15	0xbd97ad26	-0.07406072
16	0xbda6e0fa	-0.081483796
17	0x3d154345	0.036441106
18	0x3cd4f99f	0.025997935
19	0x3d073c3b	0.033016425
20	0xbda77a33	-0.081776045
21	0xbc85cdb2	-0.016333435
22	0xbd7e5af5	-0.062098462
23	0xbd2e62da	-0.04257474
24	0xbbf3f402	-0.0074448595
25	0xbd9c4bd8	-0.076316535
26	0xbccc2fb3	-0.024925089
27	0x3c82af1f	0.015952645
28	0xbcb5b0e7	-0.02217908
29	0xbde4d89e	-0.11174129
30	0x3cf20e59	0.029547857
31	0xbdedeb6c	-0.11617169
32	0x3d631a7b	0.055445176
33	0x3c500bc2	0.012698116
34	0x3c8f64c8	0.017504111
35	0xbd83a55d	-0.06428025
36	0xbd861274	-0.065464884
37	0xbcb97536	-0.022638898
38	0xbd7d6549	-0.06186417
39	0xbb55fe09	-0.0032652637
40	0x3d26b950	0.04070407
41	0x3d180e58	0.037123054
42	0xbddbf634	-0.10740319
43	0xbded5597	-0.115885906
44	0xbda879e1	-0.082263716
45	0x3c8a8e80	0.016913652
46	0xbce71c59	-0.02821176
47	0x3de5f999	0.112292476
48	0x3cc11729	0.023570614
49	0xbce5643d	-0.028001899
50	0x3c662e46	0.014049118
51	0xbd6c00e1	-0.057618026
52	0x3c9f91a4	0.019478627
53	0xbd8e8bd0	-0.06960261
54	0x3d3b68fb	0.045754414
55	0x3ab1a268	0.0013552429
56	0xbd64f7b2	-0.055900283
57	0x3d0df6dd	0.034659255
58	0x3c8e8739	0.017398464
59	0x3d13b9d5	0.036065895
60	0xbd7b5fbe	-0.061370604
61	0x3c899be8	0.016797975
62	0xbd42faa5	-0.047602315
63	0x3bde5502	0.006785036
64	0x3d9d8692	0.07691683
65	0x3d22d964	0.0397581
66	0xbc91f81e	-0.017818507
67	0x3cca7e56	0.024718445
68	0x3d1fdffe	0.039031975
69	0xbdb7e04f	-0.0897833
70	0x3d1b4f60	0.037917495
71	0xbd4f555e	-0.050618522
72	0x3d527f9e	0.051391236
73	0xbd75587c	-0.05989884
74	0x3cc0a514	0.023516215
75	0xbcfd4f06	-0.03092147
76	0xbdaad6a1	-0.083417185
77	0xbd99143d	-0.07474563
78	0xbd4f92a0	-0.050676942
79	0x3cd01c39	0.025404083
80	0x3e1838da	0.14865437
81	0x3d255899	0.040367696
82	0xbd7f2385	-0.062289733
83	0xbd950b11	-0.072775014
84	0xbda36371	-0.07977951
85	0xbd1ad27d	-0.037798394
86	0xbe11ceae	-0.14238998
87	0x3cc86116	0.024460357
88	0xbd5159d4	-0.051111057
89	0xbcae7f8d	-0.021301055
90	0x3cb11ba3	0.021619624
91	0xbd7e2c5e	-0.06205403
92	0xbd9f002e	-0.07763706
93	0x3ccd3394	0.025049008
94	0xbc6b9c04	-0.014380459
95	0x3b07b734	0.0020708563
96	0xbd6827c7	-0.05667856
97	0x3da1f3bd	0.079078175
98	0xbd9c9e8d	-0.07647429
99	0xbd8c4626	-0.06849317
100	0xbcea401f	-0.028595028
101	0xbd351336	-0.044207774
102	0x3da4c47a	0.080452874
103	0xbd859873	-0.06523218
104	0xbdef469e	-0.11683391
105	0xbd5d9884	-0.05410053
106	0xbc87cbfa	-0.016576756
107	0xbd49d172	-0.04927201
108	0xbe13a39e	-0.14417884
109	0xbc93f544	-0.018061288
110	0x3de7e60f	0.11323177
111	0xbce1b534	-0.027552225
112	0xbe94b297	-0.29042503
113	0xbb47e477	-0.0030501166
114	0xbd83589b	-0.064133845
115	0xbd6c6684	-0.057714954
116	0xbdbb8c54	-0.09157625
117	0xbcbf5f79	-0.023360955
118	0x3d60a9bf	0.054849382
119	0x3cfca704	0.030841358
120	0xbd452210	-0.048128188
121	0xbd85c7ec	-0.06532273
122	0x3d504190	0.050843775
123	0xbd9ba67a	-0.07600112
124	0xba708845	-0.0009175579
125	0x3cb38e4e	0.021918442
126	0xbdcbf6a6	-0.09959154
127	0xbd9e485b	-0.077286445

action_model._discrete_distribution.branches.0.weight f4 [3, 128]
0	0xbd9d0a2f	-0.07667958
1	0xbd7ce96b	-0.061746042
2	0x3c871dbd	0.016493673
3	0xbda36a0b	-0.079792105
4	0x3e6300b0	0.22168231
5	0xbdb83fd4	-0.08996549
6	0x3c09e1e1	0.00841567
7	0x3d0d6cd1	0.034527604
8	0x3b59c2cd	0.0033227683
9	0x3b5237c4	0.0032076696
10	0x3d4c5d85	0.049893875
11	0xbd962905	-0.073320426
12	0x3d299916	0.04140576
13	0xbdcbdbbf	-0.099540226
14	0x3d1e687c	0.038673863
15	0xbe50bee9	-0.20385326
16	0xbe262c6f	-0.16227888
17	0x3e337021	0.17523243
18	0xbc5ccc6e	-0.013476474
19	0xbda7c6c9	-0.08192212
20	0xbda7dc91	-0.081963666
21	0xbd18b514	-0.037282065
22	0xbd0921f4	-0.033479646
23	0x3e45044d	0.19239922
24	0xbe0decbb	-0.13859837
25	0x3de00260	0.10937953
26	0xbd78d51a	-0.060750104
27	0xbd7ceee8	-0.061751276
28	0xbdb71696	-0.08939855
29	0xbda984a2	-0.08277251
30	0xbd87ab48	-0.06624466
31	0xbd4c350f	-0.049855288
32	0xbd495689	-0.049154792
33	0x3d7ecbda	0.062206127
34	0x3c8e37d1	0.0173606
35	0xbdb961a1	-0.09051824
36	0xbe08fc9d	-0.13377614
37	0xbc4d0ab6	-0.012514761
38	0xbe0d6751	-0.13808943
39	0xbe206aff	-0.15665816
40	0xbdb1df85	-0.08685211
41	0xbc99774f	-0.018733649
42	0xbc5bef38	-0.013423733
43	0x3ce153ee	0.027505841
44	0x3d22be0d	0.039732028
45	0x3bcd314f	0.0062619816
46	0x3d3e917d	0.046525467
47	0xbdb40de9	-0.08791716
48	0xbb8d0c95	-0.0043044784
49	0x3cf9d151	0.030495318
50	0x3deb4c61	0.114891775
51	0xbca96ed4	-0.02068273
52	0xbd268e5a	-0.0406631
53	0xbe109ec2	-0.14123061
54	0xbcc693a4	-0.024240322
55	0x3da22b31	0.07918394
56	0xbc9eb848	-0.019374982
57	0x3e31526a	0.17316595
58	0xbd775aed	-0.060389448
59	0x3e5eb5ba	0.2174901
60	0x3e1bbe36	0.15209278
61	0xbd3fdb4f	-0.04684001
62	0x3de74499	0.11292381
63	0xbdb07564	-0.086161405
64	0xbccb3936	-0.024807554
65	0x3df4f3bc	0.11960551
66	0xbe2c2717	-0.16811787
67	0x3e10ec0c	0.14152545
68	0x3d820922	0.06349398
69	0xbdb5eadd	-0.08882687
70	0x3c5154fd	0.01277661
71	0x3db5eeff	0.088834755
72	0x3e30e98a	0.17276588
73	0xbe002af9	-0.12516393
74	0x3daf9511	0.08573354
75	0xbb8e8529	-0.00434937
76	0xbe1048a6	-0.14090213
77	0x3e2847bc	0.16433614
78	0x3d91bd52	0.07116188
79	0xbca099c9	-0.01960458
80	0x3da567fb	0.08076473
81	0x3e22cd41	0.1589861
82	0xbd2ca025	-0.042144913
83	0x3dbe5b05	0.09294704
84	0x3e176e3b	0.14788143
85	0x3df5ab71	0.119955905
86	0x3d4f20fe	0.050568573
87	0xbdc82fb5	-0.097747244
88	0x3db72c05	0.08943943
89	0xbbdc0e61	-0.0067155813
90	0xbc39847d	-0.011323092
91	0xbdcad9ef	-0.09904849
92	0xbbe96705	-0.0071228766
93	0xbda181fd	-0.078861214
94	0x3da062d0	0.07831347
95	0x3d1196f6	0.03554436
96	0x3dbc3b20	0.09190965
97	0x3c8377cc	0.016048335
98	0x3cc9f326	0.024652075
99	0x3e2f8da7	0.1714388
100	0xbd19f160	-0.03758371
101	0xbdc8a912	-0.097978726
102	0xbd65071d	-0.055914987
103	0x3d64a460	0.055820823
104	0xbd954529	-0.07288582
105	0xbdbcdbb4	-0.092215925
106	0x3db7421d	0.08948157
107	0xbd81d979	-0.06340308
108	0x3d8441f5	0.06457893
109	0xbd349a58	-0.044092506
110	0xbbc97046	-0.0061474172
111	0xbbc892d6	-0.00612102
112	0x3ddd6a95	0.108113445
113	0x3c91b0b4	0.017784454
114	0x3d886f42	0.06661846
115	0x3d909e5d	0.070614554
116	0x3ddd44ec	0.108041614
117	0x3c7575af	0.014981671
118	0x3e3deea4	0.18548065
119	0x3df352b7	0.11881011
120	0xbe063ef2	-0.13109949
121	0xbb9de78f	-0.0048188637
122	0x3ccbed48	0.024893418
123	0x3e054609	0.13014998
124	0xbda97a6e	-0.08275305
125	0x3d4bfab4	0.049799636
126	0x3d80e444	0.06293538
127	0xbd89f7b2	-0.06736697
128	0xbcb67ce8	-0.022276357
129	0x3dcb1cfd	0.099176385
130	0x3d0862cb	0.03329734
131	0x3cf76601	0.030200006
132	0xbe13ba31	-0.14426495
133	0xbdd74348	-0.1051088
134	0xbd2356c6	-0.039877675
135	0xbdd7a510	-0.1052953
136	0x3e2b0280	0.16700172
137	0x3d2748c0	0.040840864
138	0xbe3efe1e	-0.18651626
139	0x3c02c19b	0.007980729
140	0x3ddfb7bb	0.10923716
141	0x3c968a53	0.018376505
142	0xbb49ec3d	-0.0030810975
143	0x3e0312a3	0.12800078
144	0x3d597b63	0.053096186
145	0x3d5cf276	0.053942166
146	0xbdb1da4c	-0.08684215
147	0x3e1cf88a	0.15329185
148	0xbc69ab28	-0.014261998
149	0x3d4dc31b	0.050234895
150	0xbd5820be	-0.0527656
151	0xbdf6b3f0	-0.12046039
152	0x3e214b6a	0.15751424
153	0x3d4549eb	0.048166197
154	0xbd425fd2	-0.047454663
155	0x3d9b6921	0.07588411
156	0x3e2d0590	0.16896653
157	0x3dfd4afe	0.12367819
158	0xbdbbb582	-0.09165479
159	0xbde73a08	-0.112903655
160	0xbd99920e	-0.07498561
161	0x3d1345ee	0.035955362
162	0xbe312406	-0.17298898
163	0x3dbab062	0.091156736
164	0x3dc65fe1	0.09686256
165	0x3c84568b	0.016154548
166	0x3e0ffa14	0.14060241
167	0x3e192111	0.1495402
168	0x3d35524b	0.044267934
169	0xbe25b149	-0.1618091
170	0x3d3392e1	0.043841247
171	0x3db764c5	0.08954767
172	0xbdeb17ad	-0.11479125
173	0x3d74f60e	0.05980497
174	0xbdda321d	-0.106540896
175	0xbe122c47	-0.14274703
176	0x3e397f53	0.18114977
177	0x3dac84d0	0.084237695
178	0xbe6f41fa	-0.23365012
179	0x3d894f4c	0.06704578
180	0x3db6f910	0.08934224
181	0x3e7dbbd9	0.2477869
182	0xbdb78f64	-0.089628965
183	0xbe0703f4	-0.13185102
184	0x3b861f97	0.0040931213
185	0xbba7f42b	-0.0051255426
186	0xbd50b726	-0.050955914
187	0xbda948ea	-0.082658604
188	0xbc85b308	-0.01632072
189	0xbd2c8a41	-0.042124037
190	0x3d41ccb4	0.04731436
191	0xbd37ef8a	-0.044906177
192	0xbdfeba6a	-0.124378994
193	0xbcfd66e7	-0.030932857
194	0x3e279b2a	0.16367784
195	0xbd611bef	-0.05495828
196	0x3d783218	0.060594648
197	0x3c57873a	0.013154799
198	0xbd6806c5	-0.05664708
199	0xbe0c61ef	-0.13709234
200	0xbda3aed7	-0.079923324
201	0x3e29fb54	0.1659978
202	0x3d805374	0.062659174
203	0xbd3c2a58	-0.04593882
204	0x3d03d7b1	0.03218812
205	0xbdfa4e77	-0.12221997
206	0xbdd77d4d	-0.10521946
207	0x3cb17c2f	0.02166566
208	0x3ca0ca96	0.01962785
209	0xbdff0333	-0.12451782
210	0xbddad382	-0.10684873
211	0xbd41bdb8	-0.04730007
212	0xbd73a6ef	-0.059485372
213	0xbe3be970	-0.18350768
214	0xbd0b2500	-0.033970833
215	0xbe33a55f	-0.17543553
216	0x3cd7757a	0.026301134
217	0xbe852336	-0.26003426
218	0x3c95a487	0.01826693
219	0x3e50968f	0.20369934
220	0x3df661e1	0.12030388
221	0xbc972fa8	-0.018455341
222	0xbe898b12	-0.26863915
223	0x3dbde195	0.09271542
224	0xbc96ec7a	-0.018423308
225	0xbdea465c	-0.11439201
226	0x3d55b1fd	0.052171696
227	0xbde9562a	-0.113933876
228	0xbd8aab89	-0.06770999
229	0xbd235b63	-0.039882075
230	0xbdebcec3	-0.11514046
231	0xbd87bd0b	-0.06627854
232	0x3d914dd3	0.07094922
233	0xbd77d7b3	-0.06050844
234	0x3d577d96	0.052610002
235	0x3d6d59b6	0.057946883
236	0xbe1257b0	-0.14291263
237	0x3d554de0	0.05207622
238	0x3d3cc169	0.046082888
239	0x3d4e3e8b	0.050352614
240	0xbe039e3a	-0.12853327
241	0xbe2fb250	-0.17157865
242	0x3dc6a532	0.09699477
243	0xbd8ffc8b	-0.070305906
244	0x3d4e62cd	0.050387193
245	0x3d72c678	0.059271306
246	0xbe53236e	-0.20618984
247	0xbe5cc579	-0.21559705
248	0x3d7c3fd8	0.061584324
249	0x3d4db22c	0.050218746
250	0x3d9c3455	0.07627169
251	0xbe333708	-0.17501462
252	0xbe06eed4	-0.13177043
253	0xbe084e8f	-0.13311218
254	0xbddc4f5a	-0.107573226
255	0x3dbf0530	0.09327161

action_model._discrete_distribution.branches.0.bias f4 [3]
0	0x3d3df95b	0.046380382
1	0x3c9a81df	0.018860755
2	0xbd8e3434	-0.06943551

action_model._discrete_distribution.branches.1.weight f4 [2, 128]
0	0xbcd41789	-0.025890129
1	0xbcc977b9	-0.024593221
2	0xbb8b8a40	-0.004258424
3	0xbe95342a	-0.2914136
4	0x3c06f9c6	0.008238262
5	0x3d4cd46e	0.050007276
6	0x3d089b95	0.0333515
7	0xbd852a83	-0.06502249
8	0x3e58d29a	0.21174088
9	0xbd36bb5d	-0.044612277
10	0x3de9e944	0.11421445
11	0x3d638faf	0.05555695
12	0xbd413417	-0.047168817
13	0x3d2a9685	0.041647453
14	0x3d942591	0.07233728
15	0xbe098830	-0.13430858
16	0x3d6404d6	0.055668674
17	0x3c7df671	0.015500651
18	0xbe83c788	-0.25738168
19	0x3d686af9	0.056742642
20	0x3d45b82f	0.048271354
21	0xbdec9737	-0.115522794
22	0xbd9f6ff9	-0.07785029
23	0x3e484e9e	0.1956124
24	0xbcfa5e13	-0.030562436
25	0xbd6bb605	-0.057546634
26	0xbc1f0d62	-0.009707781
27	0xbd7352b8	-0.05940506
28	0x3e09cdb1	0.13457371
29	0xbdb2b0e8	-0.087251484
30	0xbd471830	-0.04860705
31	0x3d1f66da	0.038916446
32	0x3ddbd015	0.10733048
33	0x3cf3694a	0.029713292
34	0x3d29d76c	0.041465208
35	0xbde6ebb9	-0.11275429
36	0xbe72631f	-0.23670624
37	0xbd59d987	-0.053185966
38	0xbe0d57cf	-0.13803028
39	0xbe06a769	-0.131498
40	0xbddbe7e8	-0.10737592
41	0xbcaedf00	-0.021346569
42	0xbde2568f	-0.11051666
43	0x3d780f9d	0.060561765
44	0xbc7d0e86	-0.015445357
45	0xbc9145fb	-0.017733565
46	0xbde4c4ff	-0.111703865
47	0xbdf6f5ee	-0.12058626
48	0xbe24f65d	-0.16109605
49	0xbde41289	-0.11136348
50	0x3c879ae9	0.01655336
51	0x3df41f81	0.119200714
52	0xbd1c06f2	-0.03809256
53	0xbd41bf95	-0.047301847
54	0x3d4ff10e	0.050766997
55	0xbd9f6730	-0.07783353
56	0x39ca5701	0.00038593265
57	0xbe2ea89b	-0.17056505
58	0x3c204d9f	0.009784131
59	0xbd110c41	-0.035412077
60	0xbd8d322a	-0.06894334
61	0xbe54c6db	-0.20778982
62	0x3e06643e	0.13124177
63	0x3dbe56ee	0.09293924
64	0xbbab6edc	-0.0052317213
65	0xbd9efd29	-0.0776313
66	0x3cb21776	0.021739703
67	0xbc31cde7	-0.010852314
68	0x3d967e07	0.073482566
69	0xbd707089	-0.058701072
70	0xbda028f6	-0.07820313
71	0x3dba7bc9	0.091056414
72	0xbdee6987	-0.116412215
73	0x3dcf32cf	0.10117113
74	0xbdad894f	-0.08473455
75	0xbb835748	-0.0040082075
76	0x3db34296	0.08752935
77	0x3d2c4c22	0.042064793
78	0x3d8b1f55	0.067930855
79	0xbd717af0	-0.058955133
80	0x3dd0d210	0.10196316
81	0xbd804447	-0.06263023
82	0xbd4edba1	-0.050502423
83	0xbd97a2b4	-0.0740408
84	0xbe3f468d	-0.18679257
85	0xbccf26c1	-0.025287034
86	0xbdb60f45	-0.08889631
87	0x3d54f3c3	0.05199028
88	0xbcbfb457	-0.023401422
89	0x3e670f1c	0.22564358
90	0xbddb523e	-0.10709046
91	0xbb86c4fc	-0.004112838
92	0x3d2a4df6	0.041578256
93	0x3baad799	0.0052136895
94	0xbd862cf9	-0.065515466
95	0xbb964de6	-0.004586923
96	0xbd2ae268	-0.041719824
97	0xbe735f27	-0.23766766
98	0x3e14f81f	0.14547776
99	0x3dd07e7c	0.10180375
100	0xbc96db05	-0.018414984
101	0x3e17cbfc	0.14823908
102	0xbd920390	-0.07129586
103	0xbdae8a64	-0.0852249
104	0x3da9f2c7	0.08298259
105	0x3dbe0e30	0.0928005
106	0x3e80cfcd	0.2515854
107	0x3d985456	0.07437961
108	0xbdbb6a4e	-0.091511354
109	0xbde48259	-0.11157674
110	0xbdb206df	-0.08692717
111	0xbd500e5d	-0.050794948
112	0x3d3233d8	0.043506473
113	0xbba04552	-0.004891076
114	0x3dbc182c	0.09184298
115	0x3df584d1	0.11988223
116	0x3d11e0b1	0.035614673
117	0xbe05f97a	-0.13083449
118	0x3c919396	0.01777057
119	0xbe497d3e	-0.19676682
120	0xbc2bc256	-0.010483345
121	0xbd36c8b1	-0.044624988
122	0xbd474fc9	-0.048660073
123	0x3caee072	0.021347258
124	0x3df8665b	0.12128898
125	0xbd76fb0b	-0.060298007
126	0x3b9f4cab	0.0048614345
127	0xbdbe3853	-0.09288087
128	0x3cf29bf3	0.029615378
129	0x3c85ba2a	0.016324122
130	0xbc823f83	-0.015899425
131	0x3e927d16	0.28611058
132	0xbc732a4d	-0.014841628
133	0xbd56a1a2	-0.05240024
134	0xbcda4afe	-0.026647087
135	0x3d368a4e	0.04456549
136	0xbe568c8f	-0.20952056
137	0x3d0d52a1	0.03450263
138	0xbdde0f57	-0.108427696
139	0xbdaf1134	-0.08548203
140	0x3d2648e5	0.04059686
141	0xbd6a5cd3	-0.05721743
142	0xbd7baa6a	-0.061441816
143	0x3dfdf9f2	0.12401189
144	0xbd48d028	-0.04902664
145	0xbb2390b2	-0.0024958071
146	0x3e8dc690	0.27690554
147	0xbd4e5912	-0.050377913
148	0xbd655eae	-0.055998497
149	0x3e02e3c0	0.12782192
150	0x3da057c5	0.07829241
151	0xbe39591c	-0.18100399
152	0x3cf4bb24	0.029874392
153	0x3d6ba358	0.057528824
154	0x3c73d540	0.014882386
155	0x3da1b9bd	0.07896755
156	0xbe099ec1	-0.13439466
157	0x3dbb64e8	0.09150106
158	0x3d402cfc	0.0469179
159	0xbd16d4f1	-0.03682417
160	0xbde040a7	-0.109498315
161	0xbcb7ce28	-0.02243717
162	0xbd1a31b1	-0.037645046
163	0x3deb776f	0.114973895
164	0x3e75c25d	0.23999925
165	0x3d525d3f	0.051358458
166	0x3e0da763	0.13833384
167	0x3df4bb7f	0.119498245
168	0x3dd83fdb	0.105590545
169	0x3c8bcbd6	0.01706497
170	0x3dc4122b	0.09573778
171	0xbd84ccb2	-0.06484355
172	0x3d33b0e9	0.043869887
173	0x3c13c281	0.009018541
174	0x3e0c9f49	0.13732637
175	0x3e0b746e	0.13618633
176	0x3e1552a9	0.14582314
177	0x3ddaf12c	0.10690531
178	0xbb519bc5	-0.0031983715
179	0xbe0a8b2c	-0.13529652
180	0x3d22d6f4	0.039755777
181	0x3d962da4	0.07332924
182	0xbcabc092	-0.020965848
183	0x3da37ee5	0.079831876
184	0x3c09bd96	0.008407017
185	0x3e32da0b	0.1746599
186	0xbc704b14	-0.0146663375
187	0x3d6b4fae	0.057449035
188	0x3d8e9c62	0.069634214
189	0x3e56eba5	0.20988329
190	0xbe011b42	-0.12608054
191	0xbde4c26b	-0.11169895
192	0x3c28b256	0.010296425
193	0x3d99929c	0.07498667
194	0xbc465605	-0.01210547
195	0x3c1f6016	0.0097274985
196	0xbdb060e6	-0.08612232
197	0x3d8bc188	0.068240225
198	0x3dcf59e4	0.10124567
199	0xbdae9147	-0.08523803
200	0x3deeb129	0.11654884
201	0xbdddec5f	-0.108361
202	0x3da9e239	0.08295102
203	0x3cdac82a	0.026706774
204	0xbda85a5b	-0.08220359
205	0xbd5f5196	-0.054521166
206	0xbd8547b6	-0.065078184
207	0x3d34dbe3	0.044155013
208	0xbdda816b	-0.10669216
209	0x3d700c03	0.058605205
210	0x3d5066c9	0.050879274
211	0x3ddb76f3	0.10716047
212	0x3e1f60ed	0.15564318
213	0x3ce3ad0d	0.027792478
214	0x3d9896f8	0.0745067
215	0xbd208801	-0.039192203
216	0x3b6972b2	0.0035621342
217	0xbe64cf4a	-0.223447
218	0x3dc152d4	0.09439626
219	0x3bacfe41	0.005279333
220	0xbc8f88c6	-0.017521273
221	0xbc3d16ff	-0.011541127
222	0x3d42b04c	0.04753141
223	0x3c8338a6	0.016018223
224	0x3cc50867	0.024051858
225	0x3e7c6c6c	0.24650735
226	0xbdff224c	-0.124577135
227	0xbdeb77fb	-0.11497494
228	0x3d386222	0.04501546
229	0xbe00e444	-0.12587076
230	0x3da6e5e2	0.081493154
231	0x3dc83bcb	0.097770296
232	0xbdc4011b	-0.09570523
233	0xbdab01ec	-0.08349976
234	0xbe79c2d3	-0.24390726
235	0xbd7071ab	-0.058702152
236	0x3dd8506e	0.10562216
237	0x3d96bcbd	0.07360218
238	0x3db4814a	0.088137224
239	0x3d6e0961	0.058114413
240	0xbd3568b6	-0.044289313
241	0x3c987f55	0.018615404
242	0xbdaeba1a	-0.0853159
243	0xbdc37e18	-0.09545535
244	0xbcf9891a	-0.030460883
245	0x3df0362e	0.11729084
246	0xbac6dfb4	-0.001517287
247	0x3e4f8654	0.20266086
248	0x3bb32bb2	0.0054678554
249	0x3d27ec18	0.04099664
250	0x3d5b5e3c	0.053556666
251	0xbc7fc92f	-0.015611931
252	0xbde06451	-0.10956634
253	0x3d890481	0.06690312
254	0x3c178b5f	0.009249537
255	0x3ddfe0ec	0.10931572

action_model._discrete_distribution.branches.1.bias f4 [2]
0	0xbd91a8bc	-0.07112262
1	0x3d91a8c5	0.07112268
