results/Medium_Clar/Player/Player-842646.pt (torch, 893662 bytes, 72 tensors)

discrete_act_size_vector f4 [1, 4]
0	0x40400000	3.0
1	0x40000000	2.0
2	0x40400000	3.0
3	0x40400000	3.0

network_body.observation_encoder.processors.0.normalizer.running_mean f4 [15]
0	0xbfa3eeeb	-1.2807287
1	0xc0de1ca2	-6.940995
2	0x4015c53c	2.3401632
3	0x414ed7e5	12.927709
4	0x4097488c	4.727606
5	0x413dc571	11.860703
6	0x409c34c8	4.881443
7	0x40d21471	6.5649953
8	0xbf37d4a0	-0.71808815
9	0xc0b9b733	-5.803613
10	0x3fe55667	1.7916993
11	0x3df28473	0.11841669
12	0xbe7a9490	-0.24470735
13	0xbd556978	-0.052102536
14	0x3b461560	0.0030225143

network_body.observation_encoder.processors.0.normalizer.running_variance f4 [15]
0	0x4d205595	1.681227e+08
1	0x45665216	3685.1304
2	0x4b345ebf	1.1820735e+07
3	0x4cdc1e40	1.1540531e+08
4	0x4b88824b	1.7892502e+07
5	0x4cdaf568	1.1479738e+08
6	0x4a1504df	2.4415278e+06
7	0x4a247967	2.6947458e+06
8	0x4c77590f	6.4840764e+07
9	0x4b4a6480	1.3264e+07
10	0x4c4b3774	5.3272016e+07
11	0x4d8147c6	2.7112058e+08
12	0x4af95cf2	8.171129e+06
13	0x4b80390d	1.6806426e+07
14	0x4518567b	2437.405

network_body.processors.0.normalizer.running_mean f4 [15]
0	0xbfa3eeeb	-1.2807287
1	0xc0de1ca2	-6.940995
2	0x4015c53c	2.3401632
3	0x414ed7e5	12.927709
4	0x4097488c	4.727606
5	0x413dc571	11.860703
6	0x409c34c8	4.881443
7	0x40d21471	6.5649953
8	0xbf37d4a0	-0.71808815
9	0xc0b9b733	-5.803613
10	0x3fe55667	1.7916993
11	0x3df28473	0.11841669
12	0xbe7a9490	-0.24470735
13	0xbd556978	-0.052102536
14	0x3b461560	0.0030225143

network_body.processors.0.normalizer.running_variance f4 [15]
0	0x4d205595	1.681227e+08
1	0x45665216	3685.1304
2	0x4b345ebf	1.1820735e+07
3	0x4cdc1e40	1.1540531e+08
4	0x4b88824b	1.7892502e+07
5	0x4cdaf568	1.1479738e+08
6	0x4a1504df	2.4415278e+06
7	0x4a247967	2.6947458e+06
8	0x4c77590f	6.4840764e+07
9	0x4b4a6480	1.3264e+07
10	0x4c4b3774	5.3272016e+07
11	0x4d8147c6	2.7112058e+08
12	0x4af95cf2	8.171129e+06
13	0x4b80390d	1.6806426e+07
14	0x4518567b	2437.405

network_body._body_endoder.seq_layers.0.weight f4 [128, 15]
0	0x3eb64f88	0.35607553
1	0xbf353539	-0.70784336
2	0xbe8cde90	-0.27513552
3	0xbe44256d	-0.19154902
4	0x3e5daea5	0.21648653
5	0xbd360579	-0.044438813
6	0xbeded1a1	-0.4351931
7	0x3f07eba1	0.53093916
8	0x3d9bdf58	0.07610959
9	0x3d59d6d3	0.053183388
10	0xbebadd00	-0.36496735
11	0x3e0e2f85	0.13885315
12	0xbc831154	-0.015999474
13	0xbe280c5c	-0.16410965
14	0xbe698510	-0.22804666
15	0xbeb43196	-0.3519408
16	0xbdf68312	-0.120367184
17	0xbde80d3b	-0.113306485
18	0x3df2c4f0	0.11853969
19	0x3e9231c7	0.28553602
20	0x3d1c2a24	0.038126126
21	0x3e4aa501	0.19789506
22	0x3df59003	0.11990359
23	0xb8ce28ff	-9.8304816e-05
24	0xbd96fb19	-0.07372112
25	0xbe980fea	-0.2969964
26	0x3e18cfac	0.1492297
27	0xbe710f69	-0.23541035
28	0xbecf4ec5	-0.40489784
29	0x3f270a77	0.65250343
30	0xbf1f20c3	-0.62159365
31	0xbe97b7a8	-0.29632306
32	0x3d19c420	0.037540555
33	0x3ee5097b	0.44733796
34	0xbca1199b	-0.01966553
35	0x3dfba590	0.12287438
36	0x3ebcf916	0.36908787
37	0xbe8831e4	-0.26600564
38	0x3e29a662	0.16567376
39	0xbe19cad3	-0.15018778
40	0x3f0b1082	0.54322064
41	0xbcd873f4	-0.026422478
42	0xbea414fc	-0.3204726
43	0xbe417407	-0.18891917
44	0x3d36fe35	0.044676024
45	0xbe98430c	-0.29738653
46	0x3e2623ff	0.16224669
47	0x3d411c0c	0.04714589
48	0xbf1e295a	-0.6178185
49	0x3d9bb0ca	0.07602079
50	0x3dfb307d	0.12265108
51	0x3ef5f54c	0.4803871
52	0xbe8a270a	-0.2698291
53	0x3e701d89	0.23448767
54	0xbdde85e4	-0.10865381
55	0x3e94aa34	0.29036105
56	0x3e9e1f4c	0.30883253
57	0x3e11645a	0.14198437
58	0xbe865260	-0.26234722
59	0xbe00d591	-0.12581469
60	0xbe3accb7	-0.18242155
61	0x3e3b53c8	0.18293679
62	0x3e7966dc	0.24355644
63	0x3f102e4f	0.5632066
64	0x3e314d88	0.17314732
65	0x3d057643	0.032583486
66	0xbe498357	-0.19679008
67	0xbd9a02ec	-0.075200886
68	0xbe8293e1	-0.25503448
69	0xbec55712	-0.38542992
70	0xbf2262ec	-0.6343219
71	0xbe1d53e9	-0.1536404
72	0xbd230d18	-0.03980741
73	0x3cb03a56	0.021512192
74	0xbeda76bb	-0.4266871
75	0x3e4c805e	0.19970843
76	0x3f07a897	0.5299162
77	0xbe132dd4	-0.14372951
78	0xbe97a208	-0.29615808
79	0xbdf02161	-0.117251165
80	0x3d930779	0.0717916
81	0xbdc41085	-0.09573463
82	0x3e31f04a	0.17376819
83	0xbe45444e	-0.19264337
84	0x3d8e5b78	0.0695104
85	0x3eeab29a	0.45839387
86	0xbe5bd9b6	-0.21469769
87	0xbe85a0c5	-0.2609922
88	0x3f126ac4	0.5719416
89	0xbeab127f	-0.3341255
90	0x3ecc82d8	0.39943576
91	0x3ec80ceb	0.39072356
92	0x3e85cf77	0.26134846
93	0xbed8efed	-0.4237055
94	0xba2162df	-0.00061563955
95	0xbe420564	-0.18947369
96	0x3e46853b	0.19386761
97	0x3eba0ca4	0.3633777
98	0xbf0ad162	-0.5422574
99	0x3dd6a815	0.10481278
100	0x3f1ab1ae	0.6042737
101	0x3ea3ba8a	0.31978256
102	0xbd2bef3e	-0.041976206
103	0xbcbfbab3	-0.023404455
104	0xbee8ebdc	-0.45492446
105	0xbdbbc8db	-0.091691695
106	0x3f1f5103	0.6223299
107	0xbeb92e0c	-0.36167943
108	0x3f0ca098	0.54932547
109	0xbb2cdd68	-0.0026377086
110	0x3e0b9d55	0.13634236
111	0x3d7de56d	0.061986376
112	0x3eb7dc08	0.35910058
113	0xbe08c357	-0.13355766
114	0x3de3cbdb	0.11122867
115	0x3db1012b	0.08642801
116	0x3dbd55b2	0.09244861
117	0x3f5446e3	0.82920665
118	0x3e3a4666	0.18190917
119	0x3dd70028	0.10498077
120	0x3d8359b6	0.064135954
121	0x3d3c9466	0.04603996
122	0xbea3c082	-0.3198281
123	0xbeb76e4d	-0.3582634
124	0xbdb3f500	-0.087869644
125	0xbd4b21c8	-0.049592763
126	0xbf106378	-0.5640178
127	0x3ee6b05f	0.45056435
128	0x3ec80f96	0.3907439
129	0x3e7d0c15	0.2471164
130	0x3c9639f0	0.018338174
131	0xbe20f151	-0.15717055
132	0xbe921511	-0.28531697
133	0x3cc9779c	0.024593167
134	0xbdcfb676	-0.101422235
135	0x3d94dd6b	0.072687946
136	0xbe40c74f	-0.1882603
137	0x3f1797f9	0.59216267
138	0xbd644350	-0.055728257
139	0x3e14e41c	0.14540142
140	0xbcf50dd6	-0.029913824
141	0xbe5aeec8	-0.2138015
142	0x3e6c6b0b	0.23087709
143	0x3e6f1163	0.23346476
144	0xbe912b22	-0.2835322
145	0xbecbd513	-0.39811
146	0x3e834a3e	0.2564258
147	0xbd565b78	-0.052333325
148	0xbe62d1ab	-0.22150294
149	0xbeaffe99	-0.3437393
150	0xbdf09462	-0.11747052
151	0x3cb490fc	0.02204179
152	0x3ef6c487	0.48196813
153	0x3e9a23e8	0.3010552
154	0x3f0b1c13	0.5433971
155	0x3e793081	0.24334909
156	0xbf06cfd8	-0.52660894
157	0x3e63f2e5	0.22260626
158	0xbdd6780a	-0.104721144
159	0x3e91147a	0.28335935
160	0x3d9a3d3a	0.07531209
161	0xbd84aa8b	-0.06477841
162	0xbe8ade36	-0.27122658
163	0xbe633449	-0.22187914
164	0x3dee6502	0.116403595
165	0xbea324b7	-0.3186395
166	0x3e7961d4	0.24353725
167	0xbe9aa292	-0.30202156
168	0xbf420060	-0.7578182
169	0x3e076c2a	0.13224855
170	0xbe5a0e75	-0.21294577
171	0xbda2506e	-0.07925497
172	0xbe64a68d	-0.22329159
173	0x3db017ce	0.085982904
174	0x3e86a969	0.26301125
175	0xbea81a06	-0.32832354
176	0x3eebac69	0.46029976
177	0x3d95de43	0.07317784
178	0x3e5e54ad	0.21711989
179	0xbdcf1c36	-0.10112803
180	0x3ee35f46	0.44408625
181	0x3d8d3c0f	0.06896221
182	0xbeead823	-0.45868024
183	0x3c0db527	0.008649147
184	0xbced8649	-0.028994696
185	0xbccede2a	-0.02525242
186	0x3d17dd93	0.037076544
187	0x3d3ba20e	0.045808844
188	0xbed39e9e	-0.41331953
189	0xbe7e7bf1	-0.24851967
190	0x3f7dceff	0.99143976
191	0x3e033852	0.12814453
192	0xbee8b144	-0.45447743
193	0x3ed722f9	0.4201887
194	0x3e0f1883	0.13974194
195	0x3e6ab9cc	0.22922438
196	0xbca96fae	-0.020683136
197	0xbede6238	-0.4343431
198	0xbca3177d	-0.019908661
199	0xbf3f7250	-0.747838
200	0x3e1189a0	0.14212656
201	0xbe8d6dac	-0.27622736
202	0xbc95d9d8	-0.018292353
203	0x3e245443	0.16047768
204	0x3c5f5f11	0.013633505
205	0x3f1a033c	0.60161185
206	0x3c61166c	0.013738256
207	0x3ddeac45	0.108727016
208	0xbf21972f	-0.6312131
209	0xbdae14c4	-0.085000545
210	0xbf2bf984	-0.67177606
211	0xbe5a799d	-0.21335454
212	0xbecd3ce2	-0.40085512
213	0xbeb97321	-0.3622065
214	0xbdbddd20	-0.09270692
215	0xbe9c4314	-0.30519927
216	0x3e96310d	0.29334298
217	0xbdfb471b	-0.12269422
218	0xbee9be35	-0.4565293
219	0xbece7f9a	-0.40331727
220	0x3dc92e4c	0.098232836
221	0x3e127191	0.14301135
222	0xbd196a68	-0.037454993
223	0xbe7114e2	-0.23543122
224	0xbe260e24	-0.16216332
225	0x3d909109	0.07058913
226	0x3f10248d	0.5630577
227	0x3d266083	0.040619384
228	0xbf2c4c52	-0.67303956
229	0x3ed49738	0.4152162
230	0x3e396c03	0.1810761
231	0x3e45d81d	0.19320722
232	0xbdfad255	-0.12247149
233	0xbe9d742f	-0.30752704
234	0xbe67fe37	-0.22655569
235	0xbebed284	-0.37269986
236	0xbe9342c8	-0.28761888
237	0x3f373df0	0.71578884
238	0xbd88006e	-0.06640707
239	0xbbd05c83	-0.0063586845
240	0x3e154abf	0.14579295
241	0x3e2819d7	0.16416107
242	0xbec32d4b	-0.38120493
243	0xbd07a3a7	-0.033115055
244	0x3f177c7a	0.5917431
245	0x3eae43f1	0.3403621
246	0x3db8dea0	0.09026837
247	0x3ea80f7b	0.3282431
248	0xbf0ad2d6	-0.5422796
249	0xbe4abcfd	-0.19798656
250	0x3f23f916	0.6405195
251	0x3d6f5cf7	0.058438268
252	0x3e71bc5c	0.2360701
253	0xbe2e4ed7	-0.17022263
254	0x3db04482	0.08606817
255	0x3c970195	0.018433372

network_body._body_endoder.seq_layers.0.bias f4 [128]
0	0xbc97e790	-0.018543035
1	0xbd6e322f	-0.058153328
2	0xbdbecef7	-0.09316819
3	0x3c8ec849	0.017429488
4	0xbd123b3d	-0.035701025
5	0xbd094e83	-0.03352214
6	0x3d69d0f1	0.057084028
7	0xbd8ec3f3	-0.06970968
8	0xbd42ada7	-0.04752889
9	0xbbf139d0	-0.007361628
10	0x3dcfc6da	0.1014535
11	0xbd7d1652	-0.061788864
12	0x3d999a86	0.07500176
13	0x3db8a8be	0.0901656
14	0x3cedab00	0.029012203
15	0x3dd965c3	0.10615113
16	0x3d7584f0	0.059941232
17	0xbd5a5e5a	-0.053312637
18	0xbb8e512b	-0.004343172
19	0xbcb95e5d	-0.022628004
20	0x3c268a83	0.01016486
21	0x3e224629	0.15847076
22	0x3d426e8c	0.047468707
23	0x3d051dc2	0.032499082
24	0x3ce31152	0.02771822
25	0xbcc1285a	-0.023578811
26	0x3d3e27b0	0.046424568
27	0x3de90947	0.11378723
28	0xbaad12d3	-0.0013204463
29	0x3cd13930	0.025539964
30	0xbe026f04	-0.12737662
31	0x3d49e0e0	0.049286723
32	0x3df76da6	0.12081461
33	0xb8826052	-6.216824e-05
34	0xbdc306ba	-0.09522767
35	0x3e796320	0.2435422
36	0xbce69274	-0.028146006
37	0x3c49689c	0.012293007
38	0xbda3fd17	-0.080072574
39	0x3d3b3a27	0.045709755
40	0xbc84dc2c	-0.016218267
41	0x3d736749	0.059424672
42	0xbacccc76	-0.0015624899
43	0x3dd936ce	0.10606156
44	0xbda4b581	-0.080424316
45	0xbc709d9c	-0.0146860145
46	0x3d93b222	0.072117105
47	0x3e16ea05	0.14737709
48	0x3d3575eb	0.04430191
49	0x3c9129ed	0.017720187
50	0xbcec8687	-0.028872741
51	0x3e0ed262	0.13947442
52	0x3dc68c5e	0.09694742
53	0xbcf0bcb2	-0.029386852
54	0x3e6b250e	0.22963354
55	0x3e1710ae	0.14752457
56	0xbdcb1783	-0.09916594
57	0x3dd287b7	0.10279792
58	0x3c907f74	0.0176389
59	0xbda496bb	-0.08036562
60	0x3cc4ef41	0.024039866
61	0xbd1107e0	-0.0354079
62	0x3cd92e40	0.026511312
63	0x3d9b0254	0.075688034
64	0x3d956338	0.07294315
65	0x3e0b7db9	0.13622178
66	0x3dae47d2	0.085097924
67	0x3cb02163	0.021500295
68	0xbcc3a059	-0.02388017
69	0x3cd7a12d	0.026321972
70	0x3e1eac3d	0.15495391
71	0x3e351aed	0.17686053
72	0x3bd7cd7f	0.0065857763
73	0xbd746068	-0.059662253
74	0xbe012940	-0.12613392
75	0xbda88863	-0.08229139
76	0xbda5357c	-0.08066842
77	0xbccdcc05	-0.025121698
78	0xbc1a63b3	-0.009423184
79	0xbdd9637c	-0.10614678
80	0x3d421c29	0.047390137
81	0x3d9245f9	0.071422525
82	0x3d791188	0.060807735
83	0x3ca6e219	0.020371484
84	0xbd81a3f8	-0.06330103
85	0xbd4974e6	-0.04918375
86	0x3ddb010f	0.10693561
87	0x3e010feb	0.12603728
88	0xbd47ac9e	-0.048748605
89	0x3dc426cd	0.09577713
90	0x3e11c430	0.14234996
91	0x3d076a8c	0.033060595
92	0xbd077d12	-0.03307826
93	0xbca9a597	-0.020708842
94	0x3ccf1466	0.025278281
95	0x3d6db7d5	0.058036644
96	0x3d135c2a	0.035976566
97	0x3cd483bf	0.025941728
98	0x3dbb209e	0.091370806
99	0x3dac87da	0.08424349
100	0xbceecea3	-0.029151266
101	0x3d51d519	0.051228616
102	0xbbf41cf2	-0.0074497396
103	0xbca1cdf6	-0.01975153
104	0x3e08ed26	0.13371715
105	0x3de3b097	0.11117666
106	0x3d107a35	0.035272796
107	0x3e299a55	0.16562779
108	0x3ce78635	0.028262237
109	0xbc542444	-0.0129480995
110	0x3d40adb2	0.04704065
111	0x3c55ac2d	0.013041538
112	0x3d4939f5	0.049127538
113	0x3bfc45d1	0.0076987525
114	0xbddbd0d0	-0.10733187
115	0xbcda5016	-0.026649516
116	0x3c15855a	0.009126032
117	0x3b9c7421	0.004774586
118	0x3dd5e9f6	0.10445015
119	0xbc2af9cb	-0.010435532
120	0x3e486477	0.19569574
121	0xbd913d5b	-0.07091781
122	0x3de3f814	0.111313015
123	0xbdbb2b96	-0.09139173
124	0xbd9e73cd	-0.07736931
125	0x3db3337b	0.087500535
126	0xbe290a58	-0.16507852
127	0x3b1598dd	0.002282671

network_body._body_endoder.seq_layers.2.weight f4 [128, 128]
0	0x3df884e8	0.12134725
1	0x3d8cea02	0.06880571
2	0xbe46d0ab	-0.19415538
3	0x3de14537	0.1099953
4	0xbdfa5f79	-0.12225241
5	0x3dfbf70d	0.123029806
6	0x3e47997f	0.19492148
7	0xbdeddbea	-0.11614211
8	0x3e381263	0.17975764
9	0x3bc30368	0.005951334
10	0xbd832d83	-0.06405165
11	0x3becf8cc	0.0072318073
12	0x3e0a757c	0.13521379
13	0x3e6c4e54	0.23076755
14	0x3de45545	0.11149076
15	0xbd0532f5	-0.0325193
16	0xbd0406db	-0.0322331
17	0xbdb84659	-0.08997793
18	0x3e5fb93c	0.21848005
19	0x3e31ccb5	0.17363246
20	0xbe3cf78f	-0.18453811
21	0xbd0a5b51	-0.033778492
22	0x3e137956	0.14401755
23	0x3d974e27	0.07387953
24	0x3d881a40	0.06645632
25	0xbd364d55	-0.044507343
26	0x3df4c6e5	0.119519986
27	0x3e1aa7c4	0.1510306
28	0x3dc199fa	0.09453197
29	0x3e8aa18b	0.27076373
30	0xbe01e2f2	-0.12684229
31	0xbd21c2b7	-0.039492335
32	0x3e806c81	0.25082782
33	0xbe48cc42	-0.19609168
34	0xbb79a42b	-0.0038092237
35	0xbe877b93	-0.26461467
36	0xbe20d19c	-0.1570496
37	0x3e200ce8	0.15629923
38	0x3d530cba	0.05152581
39	0x3e84ffc5	0.25976387
40	0x3db3c614	0.08778015
41	0x3da91a4b	0.08256968
42	0x3d06f3b7	0.03294727
43	0x3d9fa8a4	0.077958375
44	0xbd233b02	-0.039851196
45	0xbe19e40e	-0.15028402
46	0x3e938b8f	0.28817412
47	0x3dcf2ab7	0.10115569
48	0xbe2cc22b	-0.16870944
49	0x3c236458	0.009972654
50	0x3e0510dd	0.12994714
51	0x3d76e512	0.060277052
52	0xbe0db19f	-0.13837288
53	0x3e0ee55a	0.13954678
54	0xbdab3c79	-0.083611436
55	0x3e47930e	0.1948969
56	0x3ca3db8c	0.020002149
57	0xbd8cf6bf	-0.068830006
58	0xbdadaafc	-0.08479878
59	0xbe3f7f77	-0.18700968
60	0x3d87703f	0.06613206
61	0xbe1dfed9	-0.15429248
62	0x3dc625b4	0.0967516
63	0x3c1836d7	0.009290419
64	0x3daa7129	0.08322365
65	0x3cee7fb6	0.029113632
66	0x3da8da4f	0.08244764
67	0xbdfc91c6	-0.123324916
68	0x3ea24dd1	0.31699994
69	0xbe12d48f	-0.14338897
70	0xbdb0c459	-0.086312
71	0x3eae87a4	0.3408786
72	0xbde8ef4f	-0.113737695
73	0x3d83ed2b	0.064417206
74	0x3de96139	0.11395497
75	0x3e1416ad	0.14461775
76	0x3d2946dd	0.041327346
77	0xbe4e5c89	-0.20152487
78	0xbdc78ddf	-0.09743857
79	0x3df553d2	0.11978878
80	0x3e8f6f6c	0.28014696
81	0xbc96e9eb	-0.018422088
82	0x3db80db8	0.08986992
83	0xbe70f3f1	-0.23530556
84	0xbe171268	-0.14753115
85	0xbd089637	-0.03334638
86	0x3dcb57df	0.099288695
87	0x3e15cc1e	0.14628646
88	0x3d9a03c4	0.075202495
89	0x3e03874f	0.12844585
90	0xbd59b33d	-0.05314945
91	0x3d2fd207	0.042924907
92	0x3d43a907	0.04776862
93	0xbe999589	-0.299969
94	0xbdaf8e6d	-0.085720874
95	0x3e61a57b	0.22035782
96	0x3c46cf7d	0.01213443
97	0x3e5085c5	0.20363529
98	0x3ec3da0f	0.38252303
99	0x3e48d350	0.1961186
100	0x3c700a98	0.014650963
101	0x3ba5b47c	0.005056916
102	0xbd6fa38a	-0.058505572
103	0x3df78ff4	0.12088004
104	0x3ed8eba1	0.4236727
105	0x3d90a93e	0.070635304
106	0xbe97068c	-0.29497182
107	0x3e385eab	0.18004863
108	0xbdeb9bb0	-0.115043044
109	0x3cf05226	0.029336046
110	0x3e160853	0.14651613
111	0x3dc2a1e1	0.09503532
112	0xbd050f12	-0.032485075
113	0xbc589cd6	-0.013220986
114	0x3e07d58d	0.13265057
115	0x3dcaeb35	0.099081434
116	0xbe13ea18	-0.14444768
117	0xbe390f0b	-0.18072145
118	0x3d9812aa	0.07425435
119	0xbdc16a11	-0.09444059
120	0x3e97fe08	0.29685998
121	0xbe38e9a8	-0.18057883
122	0xbd13cddc	-0.036084995
123	0x3d23e292	0.040010996
124	0xbc1a54a5	-0.009419595
125	0x3da52c3e	0.08065079
126	0xbe8ffbdd	-0.28121844
127	0x3db84480	0.0899744
128	0xbe136dfb	-0.14397423
129	0x3d66db6f	0.056361612
130	0x3e169cfa	0.1470832
131	0xbe4d7627	-0.20064603
132	0xbd270e7c	-0.040785298
133	0x3cacc5d6	0.02109043
134	0x3da1e55e	0.079050764
135	0xbd6c241b	-0.05765162
136	0x3dcf73b7	0.10129493
137	0xbc5a10c9	-0.013309666
138	0x3e54b08f	0.20770477
139	0xbe4b37c3	-0.1984549
140	0x3e9d628f	0.30739257
141	0xbe54d8e9	-0.2078587
142	0x3e1b94d9	0.151935
143	0xbdf80c8e	-0.121117696
144	0x3e24f540	0.1610918
145	0xbdf28d55	-0.11843363
146	0xbe19eb58	-0.15031183
147	0xbe0af183	-0.13568692
148	0x3d9da410	0.07697308
149	0xbd69e0a3	-0.057098996
150	0x3e394715	0.18093522
151	0xbe00c6b9	-0.12575807
152	0xbe85f2a8	-0.26161695
153	0xbe0de654	-0.13857394
154	0x3cef29de	0.029194769
155	0x3c8ea2e1	0.017411651
156	0x3e186770	0.14883208
157	0xbd76299e	-0.060098283
158	0xbe012128	-0.12610304
159	0xbe3efb4d	-0.18650551
160	0xbe73fdde	-0.23827311
161	0x3d9a0bf9	0.07521815
162	0x3e6c50b6	0.23077664
163	0xbcad1c6d	-0.021131719
164	0x3e4b9d52	0.19884232
165	0x3dffcffe	0.12490843
166	0x3e4860d6	0.1956819
167	0xbe12c72d	-0.14333792
168	0x3c822e58	0.015891239
169	0x3dba86d1	0.091077454
170	0x3e906d96	0.28208607
171	0x3d652a24	0.05594839
172	0xbd967d09	-0.07348067
173	0x3d99ebbc	0.07515666
174	0x3e13afbd	0.14422508
175	0x3d117353	0.035510372
176	0xbe01de5d	-0.12682481
177	0xbd8eef63	-0.06979253
178	0x3e23bacc	0.15989226
179	0x3e2036db	0.15645926
180	0x3e6311ae	0.22174713
181	0x3d98df84	0.07464507
182	0x3caaa6c7	0.020831479
183	0x3dbfef35	0.09371797
184	0xbe004661	-0.12526847
185	0xbe1d6cf5	-0.15373595
186	0x3e47a161	0.19495155
187	0xbd503597	-0.050832357
188	0xbd7c22d6	-0.06155666
189	0x3dfcc0fd	0.12341497
190	0x3daf70ba	0.08566423
191	0x3e5a5ac8	0.21323693
192	0x3e373f32	0.17895201
193	0xbd8899c6	-0.06669955
194	0x3dac12fa	0.08402057
195	0x3dfc8e4d	0.12331829
196	0xbe5d14fa	-0.21590033
197	0x3cf152b8	0.029458389
198	0xbdf12e9d	-0.11776469
199	0xbdd1a58a	-0.10236652
200	0xbd444de9	-0.047925863
201	0x3e60c915	0.21951707
202	0x3d798432	0.060917087
203	0x3e399164	0.18121868
204	0x3dc1adb3	0.094569586
205	0x3eacb3b8	0.33730865
206	0x3e94f3dd	0.29092303
207	0x3e091edb	0.13390677
208	0xbe7b0241	-0.24512579
209	0xbe882003	-0.26586923
210	0xbd263799	-0.040580366
211	0xbd31313d	-0.043259848
212	0x3d68ffaa	0.056884445
213	0xbcf13c31	-0.029447647
214	0xbe38593f	-0.18002795
215	0x3e8bdbe6	0.27316207
216	0x3d8c8ddd	0.06862996
217	0xbe6602b9	-0.22461976
218	0xbe3bd76d	-0.18343897
219	0x3e3be525	0.1834913
220	0xbd80067b	-0.06251236
221	0x3db5704f	0.08859312
222	0xbe3cd6d1	-0.18441321
223	0x3acf10da	0.0015797869
224	0x3e219cc1	0.15782453
225	0xbe03f608	-0.12886822
226	0xbe618b29	-0.22025742
227	0x3da8aedc	0.08236477
228	0xbda564cc	-0.08075866
229	0x3da70ace	0.08156358
230	0xbd425ebb	-0.047453623
231	0x3de8868f	0.1135379
232	0xbcc067d4	-0.02348701
233	0xbe7ef8c3	-0.24899583
234	0xbce4aeb2	-0.027915332
235	0xbdba9bcd	-0.09111748
236	0xbcc44e53	-0.02396313
237	0xbea13c61	-0.31491378
238	0xbd8ccb48	-0.0687471
239	0xbdb0686c	-0.08613667
240	0x3c512b08	0.012766607
241	0xbdf01e77	-0.11724561
242	0x3d4c57a0	0.049888253
243	0x3e304e69	0.17217411
244	0x3d849984	0.06474593
245	0x3e8929d9	0.2678974
246	0xbe12fcf3	-0.14354305
247	0x3e504815	0.20339997
248	0xbe173330	-0.1476562
249	0x3d9dca85	0.07704643
250	0x3e02905a	0.12750378
251	0xba49f14a	-0.00077034964
252	0x39a6ee33	0.0003183946
253	0xbdac4dd4	-0.08413282
254	0x3e368abf	0.17826365
255	0xbd7b22c5	-0.061312456

network_body._body_endoder.seq_layers.2.bias f4 [128]
0	0x3b916a27	0.004437703
1	0xbda7059a	-0.08155365
2	0xbd51caa9	-0.051218662
3	0x3d67937e	0.056537144
4	0xbcfbfc9a	-0.030760098
5	0xbce7e2a8	-0.02830632
6	0xbd8260bd	-0.063661076
7	0xbd422faf	-0.047408756
8	0x3b2cd3d4	0.0026371377
9	0xbcd5c943	-0.026096946
10	0xbdaaf235	-0.083469786
11	0xbda9628d	-0.0827075
12	0x3d5f467c	0.05451058
13	0x3d393137	0.04521295
14	0xbcc08232	-0.023499582
15	0x3d2de6f8	0.042456597
16	0x3d8dab11	0.06917394
17	0xbdd70440	-0.104988575
18	0xbd43e6b4	-0.047827438
19	0x3d496443	0.049167883
20	0xbc91b1d0	-0.017784983
21	0x3d0b53b8	0.034015387
22	0xbdb52ee4	-0.08846834
23	0xbcd9ef9e	-0.026603516
24	0x3c922c14	0.017843284
25	0xbc84f59e	-0.0162304
26	0xbd956291	-0.07294191
27	0xbdd1850b	-0.10230454
28	0xbcb7f4a4	-0.02245552
29	0xbd5b689b	-0.053566556
30	0x3c60577f	0.013692736
31	0x3c6460dd	0.01393911
32	0xbd9d29ee	-0.07674013
33	0x3cbd30f7	0.023094637
34	0x3c5429f0	0.012949452
35	0xbd4f00de	-0.050537936
36	0x3d91e561	0.07123829
37	0xbda9d818	-0.0829317
38	0x3c0e3e5b	0.008681859
39	0x3c7d9a7c	0.0154787265
40	0x3d46d1a4	0.048539773
41	0xbdc0bb97	-0.0941078
42	0x3dc1fa98	0.09471625
43	0xbc9a8cdf	-0.018866
44	0x3d2a26a9	0.041540775
45	0x3da2e8ee	0.07954584
46	0xbd27a6d1	-0.040930573
47	0x3c260cdf	0.010134905
48	0xbd48848b	-0.048954528
49	0x3d178b21	0.036997918
50	0xbd541d33	-0.05178566
51	0xbded22fa	-0.11578937
52	0xbc83304a	-0.016014237
53	0xbd3fd672	-0.04683537
54	0xbd4443cf	-0.04791623
55	0x3d2fe57b	0.04294346
56	0x3cb40ab2	0.021977756
57	0xbd8d66b2	-0.06904353
58	0x3d62bf5c	0.055358276
59	0xbbaea83b	-0.005330113
60	0x3cc2df85	0.023788223
61	0x3e1ea757	0.15493523
62	0x3e109b0c	0.14121646
63	0x3d874e10	0.06606686
64	0x3dd82071	0.10553063
65	0x3e1a77f8	0.15084827
66	0xbdb96e1a	-0.09054203
67	0xbdb6d807	-0.08927923
68	0x3d71c97b	0.059030037
69	0xbdc7cdef	-0.097560756
70	0x3cc5fb30	0.024167627
71	0x3be3b4e6	0.006949055
72	0x3d101f82	0.0351863
73	0xbce0e98b	-0.027455112
74	0x3d40c6f9	0.047064755
75	0x3d14cdcd	0.03632908
76	0x3ce4516c	0.027870856
77	0x3c1415df	0.009038418
78	0xbcc1dedc	-0.023665838
79	0x3e017065	0.12640531
80	0xbd644041	-0.05572534
81	0xbce85f86	-0.028365862
82	0x39ea78a4	0.00044721842
83	0xbd7a461e	-0.061102025
84	0x3d239597	0.039937582
85	0xbe26de3a	-0.1629571
86	0x3c816a97	0.015797896
87	0x3dc3c9cf	0.09559976
88	0x3de76578	0.112986505
89	0x3d1ddb25	0.03853907
90	0x3d2a8bd2	0.04163725
91	0x3d3716a8	0.04469934
92	0xbdccd742	-0.10001995
93	0xbc11d39e	-0.008900551
94	0x3ce2dbb7	0.027692659
95	0x3d0a5879	0.03377578
96	0xbdd03fd9	-0.10168428
97	0x3d782713	0.06058414
98	0xbdfb6b81	-0.12276364
99	0xbbd0058e	-0.0063483184
100	0x3d45cbf2	0.0482902
101	0xbc00efa2	-0.007869633
102	0xbd843694	-0.064557225
103	0x3cbd061c	0.023074202
104	0x3d08b1ef	0.033372816
105	0xbca1c479	-0.019747006
106	0xbdc0540a	-0.09391029
107	0xbc1d593f	-0.009603797
108	0xbd8acb25	-0.06777028
109	0xbd33111d	-0.043717492
110	0xbd1d7132	-0.03843803
111	0xbdbf391b	-0.09337064
112	0x3d60edad	0.054914165
113	0x3d2f4add	0.042796005
114	0xbd1d161d	-0.038351167
115	0x3d1b3cd8	0.037899822
116	0xbddbc327	-0.10730582
117	0xbde863ac	-0.11347136
118	0x3d2979a2	0.041375764
119	0xbda67b80	-0.081290245
120	0xbdd05a71	-0.101735
121	0xbd989288	-0.074498236
122	0xbd9a2b62	-0.07527806
123	0xbcb5ba8e	-0.022183683
124	0xbd2203d2	-0.039554425
125	0xbd9cfbf4	-0.07665244
126	0xbda0a62c	-0.07844195
127	0x3e04d483	0.12971692

network_body._body_endoder.seq_layers.4.weight f4 [128, 128]
0	0x3bec5315	0.0072120526
1	0x3e08f965	0.13376386
2	0xbe46fd48	-0.19432557
3	0x3de50cc9	0.11184079
4	0xbe46f604	-0.19429785
5	0xbe09c275	-0.13453086
6	0xbe1fb8f8	-0.15597904
7	0xbd50d0d8	-0.05098042
8	0x3b2e6306	0.0026609316
9	0x3e026a3e	0.1273584
10	0xbda798c1	-0.08183432
11	0xbd27bde9	-0.040952597
12	0xbe756891	-0.2396567
13	0xbe1f9cfa	-0.15587226
14	0x3dfb6fcf	0.12277185
15	0x3db8989e	0.090134844
16	0xbe1c23f5	-0.15248092
17	0x3d6d0b0a	0.057871856
18	0xbe2974f1	-0.16548516
19	0xbe3e45eb	-0.18581359
20	0x3e157419	0.14595069
21	0x3de5024c	0.11182079
22	0x3dc7f319	0.09763164
23	0xbd16506e	-0.036697797
24	0x3d2193a1	0.03944743
25	0xbe400ea5	-0.18755586
26	0x3c0ba463	0.00852308
27	0x3c2b157a	0.010442132
28	0xbe4e46cf	-0.20144199
29	0xbde52b5f	-0.11189913
30	0xbe89a793	-0.2688566
31	0xbe926141	-0.28589824
32	0x3ce136a3	0.027491873
33	0xbe1b03af	-0.15138124
34	0xbe8df84d	-0.277285
35	0xbce6a35c	-0.028154068
36	0x3e27d4b6	0.16389737
37	0xbd17b526	-0.03703799
38	0xbdb935f5	-0.090434946
39	0x3d7d66f6	0.06186577
40	0x3e8a03f6	0.26956147
41	0xbd00fb5c	-0.031489715
42	0x3e2f2444	0.17103678
43	0xbd7463b3	-0.059665393
44	0xbe0edda7	-0.13951741
45	0xbe7bd6df	-0.24593686
46	0xbe87be03	-0.26512155
47	0x3d3198ef	0.04335874
48	0xbcdee301	-0.027207853
49	0x3e6e428d	0.23267575
50	0xbea8aee7	-0.3294594
51	0xbe74ee99	-0.23919143
52	0xbe656070	-0.22400069
53	0x3d65ff08	0.05615142
54	0xbdc89bd8	-0.0979535
55	0xbe69f7cc	-0.22848433
56	0xbe1cc200	-0.1530838
57	0x3c349ec8	0.0110241845
58	0xbddbb9e8	-0.10728818
59	0x3e017e7d	0.12645908
60	0xbde913b4	-0.11380711
61	0x3d8d35bf	0.06895017
62	0xbec12750	-0.37725306
63	0xbdd47e05	-0.10375599
64	0x3d7a4125	0.061097283
65	0x3c6ae8a0	0.014337689
66	0xbde70bdc	-0.11281559
67	0xbd5675c3	-0.0523584
68	0xbd8f4339	-0.069952436
69	0x3cb3e05d	0.02195757
70	0xbe529c91	-0.20567538
71	0xba0cc2da	-0.00053696113
72	0xbeb8df31	-0.36107782
73	0xbe22b489	-0.15889181
74	0xbe442cc0	-0.19157696
75	0x3db61d8f	0.088923566
76	0xbe729ca0	-0.2369256
77	0x3d4adb50	0.04952556
78	0xbe9743a2	-0.29543787
79	0x3d5b14e0	0.053486705
80	0xbd3a9ef1	-0.045561735
81	0xbe010757	-0.12600456
82	0xbe908196	-0.28223866
83	0x3d00223d	0.031282652
84	0xbdb0904b	-0.08621272
85	0x3e17ca5f	0.14823292
86	0x3ce4eb15	0.027944127
87	0xbd8f1269	-0.06985933
88	0x3cc93c78	0.024564967
89	0x3dae6ed7	0.08517235
90	0xbeb800a9	-0.35938004
91	0x3d1a08f3	0.03760619
92	0xbe6a58eb	-0.22885482
93	0xbdcf18a3	-0.10112121
94	0xbe80d46f	-0.25162074
95	0xbe3d769d	-0.18502279
96	0x3d77f390	0.060535014
97	0xbdc889a3	-0.09791877
98	0xbdb170f5	-0.08664123
99	0xbe7a13ea	-0.24421659
100	0xbe3f8596	-0.18703303
101	0x3e1a8ff4	0.15093976
102	0xbe82b29b	-0.2552689
103	0x3dffffa1	0.12499929
104	0xbe1adbae	-0.15122864
105	0xbe848189	-0.25880077
106	0xbe2eb026	-0.17059383
107	0xbe0fc9c3	-0.1404181
108	0x3da355cb	0.07975348
109	0xbda4e4e1	-0.08051468
110	0x3e1e8098	0.15478742
111	0xbc3818c4	-0.011236373
112	0xbd0f9d3a	-0.035062052
113	0x3e02b9ce	0.12766191
114	0xbe6e65c5	-0.2328101
115	0xbe313840	-0.17306614
116	0x3d2c2273	0.04202504
117	0x3db947f1	0.09046925
118	0x3c155e03	0.009116652
119	0xbe2dafab	-0.16961543
120	0x3c1ab2bd	0.009442029
121	0xbe1cb272	-0.15302446
122	0x3e2c0ea7	0.16802464
123	0xbe3a7cae	-0.18211624
124	0xbe673eb3	-0.22582512
125	0xbeb8c109	-0.36084774
126	0xbdaf84d8	-0.0857026
127	0xbe21b6c5	-0.15792377
128	0xbe54fdd1	-0.20799948
129	0x3d3642e4	0.044497386
130	0x3e195c35	0.1497658
131	0x3dbe123a	0.0928082
132	0xbe3beb16	-0.18351397
133	0x3cc31c93	0.023817336
134	0xbb62ac69	-0.0034587628
135	0xbdd230dc	-0.102632254
136	0x3e2eb0c6	0.17059621
137	0xbcba6441	-0.022752883
138	0x3da0d82b	0.07853731
139	0x3ce84ffe	0.028358456
140	0x3d6e0571	0.058110658
141	0xbde658e7	-0.112474255
142	0x3dbcadc3	0.0921283
143	0xbe32a03a	-0.17443934
144	0x3e72b82f	0.23703073
145	0x3d260a5e	0.04053723
146	0xbd5262e9	-0.05136386
147	0xbdfddf61	-0.12396122
148	0xbc84688d	-0.016163135
149	0xbe393e0a	-0.18090072
150	0xbe8145ab	-0.25248465
151	0x3c8203dc	0.01587098
152	0xbd4e1605	-0.05031397
153	0xbd9dbf23	-0.07702472
154	0xbda1b78a	-0.078963354
155	0x3cce6d1c	0.025198512
156	0x3db4482b	0.088028274
157	0xbde9b0b1	-0.11410654
158	0x3e19a5e5	0.1500469
159	0xbcf539fc	-0.029934876
160	0x3d9510c6	0.0727859
161	0xbe1a47d3	-0.15066461
162	0xbdc1f4b1	-0.09470499
163	0xbc6f8f4a	-0.014621565
164	0x3e02a25d	0.12757249
165	0x3e73b899	0.23800887
166	0xbd8ca931	-0.06868208
167	0xbd05f1d3	-0.032701325
168	0xbea19d3c	-0.31565273
169	0xbd197dd7	-0.037473526
170	0x3e09760e	0.1342394
171	0x3ec9ceb6	0.3941552
172	0x3c9e2710	0.019305736
173	0xbda1c265	-0.07898406
174	0xbc9ade6f	-0.018904893
175	0xbc2cd9e5	-0.010549997
176	0xbd03a983	-0.03214408
177	0x3c2db3aa	0.010601917
178	0x3cc3ee92	0.02391747
179	0x3e8ae06c	0.27124345
180	0x3d547ad9	0.05187497
181	0xbd9670d8	-0.07345742
182	0xbad18704	-0.0015985672
183	0x3ea95d34	0.3307892
184	0x3dd38c6a	0.10329516
185	0x3cede344	0.029039033
186	0x3d717019	0.058944795
187	0xbdc5b6f9	-0.0965404
188	0x3da782c8	0.081792414
189	0xbd985ab7	-0.074391775
190	0xbe76078e	-0.2402632
191	0xbdbbaa16	-0.09163301
192	0xbe015def	-0.12633489
193	0xbe5220b8	-0.20520294
194	0x3d5f13cd	0.054462243
195	0xbcc343f2	-0.02383611
196	0xbdc44a67	-0.095845036
197	0x3df0e57a	0.11762519
198	0x3e1d62cb	0.15369718
199	0x3e5bca32	0.2146385
200	0xbeaf24f7	-0.3420789
201	0x3dd939e2	0.106067434
202	0x3ccf0c35	0.025274375
203	0x3da2840e	0.07935344
204	0xbd1f7000	-0.03892517
205	0xbc45ff10	-0.012084737
206	0x3e04e9b8	0.12979782
207	0x3b94fc46	0.004546675
208	0xbd94c114	-0.07263389
209	0x3cb9360c	0.02260878
210	0x3c4c1eba	0.012458498
211	0x3d81c63b	0.063366376
212	0xbe801eb0	-0.25023413
213	0x3e14c4a5	0.14528139
214	0x3e36df17	0.1785854
215	0x3c9074c9	0.017633813
216	0xbe3d3e51	-0.18480803
217	0xbdb929c6	-0.09041171
218	0x3e07b084	0.13250929
219	0x3eef51c2	0.46742064
220	0xbd9aa411	-0.075508244
221	0x3d4c0901	0.049813274
222	0xbdaf4b1b	-0.08559247
223	0x3e3a3815	0.18185456
224	0xbe47fe8b	-0.19530694
225	0xbd84edad	-0.064906456
226	0xbd304cee	-0.043042116
227	0xbd1efbd6	-0.03881439
228	0xbd5e47ee	-0.054267816
229	0xbd9e6871	-0.07734764
230	0x3d891f74	0.06695452
231	0xbcde5437	-0.027139766
232	0xbdf8a62b	-0.12141069
233	0x3ca0994e	0.019604351
234	0xbd938260	-0.072026014
235	0xbe38770d	-0.18014164
236	0xbdcebe43	-0.10094883
237	0xbe3e9681	-0.186121
238	0xbe328821	-0.17434742
239	0xbdd0ad4d	-0.101893045
240	0xbe40e805	-0.18838508
241	0xbc1f483a	-0.00972181
242	0xbdc1d723	-0.09464862
243	0xbdbd0bc3	-0.09230759
244	0x3e6a6a50	0.22892118
245	0x3d96589e	0.07341121
246	0xbe2dcbdf	-0.16972302
247	0x3da38eb0	0.079862
248	0x3c0e28fa	0.008676762
249	0xbd1e399d	-0.038629163
250	0x3c5171a1	0.012783439
251	0xbc465a55	-0.012106498
252	0x3d5ba27a	0.053621747
253	0xbd4c2f10	-0.04984957
254	0xbe234830	-0.15945506
255	0xbe92649f	-0.28592393

network_body._body_endoder.seq_layers.4.bias f4 [128]
0	0x3ceffdd6	0.029295843
1	0x3b8fca96	0.004388164
2	0xbd5279a9	-0.051385555
3	0x3d8f6430	0.07001531
4	0x3d25c72b	0.040473145
5	0x3d02262b	0.03177468
6	0xbd9a950b	-0.07547959
7	0x3cf50261	0.02990836
8	0x3de0dcd2	0.10979618
9	0x3d259027	0.040420678
10	0xbcb873aa	-0.02251609
11	0xbdcb8c90	-0.099389195
12	0x3dfb5298	0.12271613
13	0xbd52388d	-0.051323462
14	0xbdf9b1c1	-0.12192107
15	0xbd8376ef	-0.06419169
16	0xbd8ec3a1	-0.06970907
17	0x3d0fbfed	0.035095144
18	0x3ca45e5c	0.020064525
19	0x3d1d0d03	0.038342487
20	0xbd99879c	-0.074965686
21	0xbc8f12e7	-0.017465068
22	0xbd9b43a1	-0.075812586
23	0xbd4aecde	-0.0495423
24	0xbc01b367	-0.007916308
25	0xbda0d432	-0.07852973
26	0xbcf02903	-0.02931643
27	0x3c879511	0.016550573
28	0xbce3b050	-0.027794033
29	0xbdd9669e	-0.10615276
30	0x3cbead2a	0.02327593
31	0xbdf73b2f	-0.12071835
32	0x3d6e3c9d	0.058163274
33	0x3c854fd5	0.016273418
34	0x3c98d8f4	0.018658139
35	0xbd52812e	-0.051392727
36	0xbd7dfaef	-0.062006887
37	0xbd182f34	-0.03715439
38	0xbd90ba58	-0.07066792
39	0xbb583456	-0.003299018
40	0x3d1b39ca	0.03789691
41	0x3cd78a7d	0.026311154
42	0xbdd5e5ce	-0.104442224
43	0xbdf30158	-0.11865491
44	0xbdad36cc	-0.08457717
45	0x3c84eb69	0.016225534
46	0xbcbd6144	-0.023117669
47	0x3de4e13b	0.11175772
48	0x3c47fae6	0.012205815
49	0xbcda9e42	-0.026686791
50	0x3c412924	0.011789594
51	0xbd6f73f5	-0.058460195
52	0x3cf9ef33	0.030509567
53	0xbd926479	-0.0714807
54	0x3d225df7	0.039640393
55	0x3b8ece45	0.0043580853
56	0xbd78cc78	-0.06074187
57	0x3cfb3ba5	0.03066809
58	0x3cc75bf0	0.024335831
59	0x3d039ef2	0.032134004
60	0xbd91bfec	-0.07116684
61	0x3cc217c8	0.02369298
62	0xbd3d03fd	-0.04614638
63	0x3b88a5d1	0.0041701575
64	0x3d989d9e	0.07451938
65	0x3ccb7a81	0.024838688
66	0xbcc31b4a	-0.023816723
67	0x3c8b6024	0.017013617
68	0x3d1036e1	0.035208587
69	0xbdae5f74	-0.085143
70	0x3d187382	0.03721953
71	0xbd5691ca	-0.05238513
72	0x3d578e45	0.052625913
73	0xbd82363d	-0.063580014
74	0x3cc12763	0.023578351
75	0xbd1e243e	-0.038608782
76	0xbdabc845	-0.08387808
77	0xbd884e5c	-0.06655571
78	0xbd497d4b	-0.049191754
79	0x3cdc21a1	0.026871504
80	0x3e18ab81	0.14909174
81	0x3d061e02	0.03274346
82	0xbd8860d3	-0.06659093
83	0xbda05480	-0.07828617
84	0xbdaa369e	-0.08311199
85	0xbd1f0069	-0.03881875
86	0xbe12483a	-0.14285365
87	0x3d0e1bc4	0.034694448
88	0xbd3e1f2b	-0.046416443
89	0xbcd72c1e	-0.026266154
90	0x3cad00f2	0.021118615
91	0xbd79a255	-0.060945828
92	0xbda7ef72	-0.081999674
93	0x3cb9d8e6	0.022686433
94	0xbc5b97ad	-0.013402862
95	0xbb9cb7b7	-0.0047826427
96	0xbd73807a	-0.059448697
97	0x3da0e53c	0.07856223
98	0xbd832b06	-0.064046904
99	0xbd8dce44	-0.06924108
100	0xbd150d6b	-0.03638975
101	0xbd2db6f6	-0.042410813
102	0x3d951a53	0.072804116
103	0xbd76ac96	-0.060223185
104	0xbdfb0bd5	-0.12258116
105	0xbd57c1e5	-0.052675147
106	0xbcdae98d	-0.026722694
107	0xbd6936fb	-0.0569372
108	0xbe0bb3b6	-0.13642773
109	0xbb49e9c2	-0.0030809497
110	0x3dfdfd0b	0.1240178
111	0xbd1ad1c9	-0.037797723
112	0xbe8c6b89	-0.27425793
113	0xbc16f2a9	-0.009213128
114	0xbd84fe29	-0.0649379
115	0xbd512674	-0.051062062
116	0xbdad08d5	-0.0844895
117	0xbcbcb7ef	-0.023036925
118	0x3d414919	0.047188852
119	0x3d17cc1b	0.037059885
120	0xbd55aa13	-0.05216415
121	0xbd6c8a5f	-0.05774915
122	0x3d68fd5c	0.056882247
123	0xbd8e8bd3	-0.06960263
124	0xbc9501c3	-0.018189317
125	0x3c93940a	0.018014926
126	0xbde839eb	-0.11339172
127	0xbd99d140	-0.075106144

action_model._discrete_distribution.branches.0.weight f4 [3, 128]
0	0xbda4855f	-0.08033251
1	0xbd7d5d67	-0.061856654
2	0x3ce7a2f6	0.028275948
3	0xbdbc7a58	-0.09203023
4	0x3e5c74f2	0.21528986
5	0xbd953385	-0.07285217
6	0x3bdcbbbd	0.0067362473
7	0x3c900354	0.017579712
8	0x3b31c5b9	0.0027125909
9	0x3b3387ec	0.0027394248
10	0x3d5717c4	0.0525129
11	0xbda45389	-0.080237456
12	0x3d1a527a	0.037676312
13	0xbdcb4d2f	-0.09926831
14	0x3d1efed0	0.038817227
15	0xbe504789	-0.20339788
16	0xbe20893c	-0.15677351
17	0x3e31afc9	0.17352213
18	0x3c3f63f0	0.011681542
19	0xbdac015f	-0.08398699
20	0xbda65087	-0.08120828
21	0xbccc25ce	-0.02492037
22	0xbccd9052	-0.025093231
23	0x3e511149	0.2041675
24	0xbe075204	-0.1321488
25	0x3ddc98d1	0.10771335
26	0xbd8df6cd	-0.06931839
27	0xbd486078	-0.048920125
28	0xbd8ae7b1	-0.06782473
29	0xbda07caa	-0.07836278
30	0xbd9b560b	-0.07584771
31	0xbd42b14c	-0.047532365
32	0xbd806332	-0.0626892
33	0x3d725ec8	0.05917242
34	0x3c490ed1	0.012271599
35	0xbdbcf2ab	-0.09225973
36	0xbdfa0096	-0.12207143
37	0xbb3ea70a	-0.0029091262
38	0xbdff8f27	-0.12478476
39	0xbe268214	-0.16260558
40	0xbdb7a262	-0.08966519
41	0xbcadd974	-0.021221854
42	0xbbefc85b	-0.0073175854
43	0x3d0b4ca7	0.03400865
44	0x3d2405ba	0.040044524
45	0xbabd41d4	-0.0014439174
46	0x3d2f8b8e	0.0428577
47	0xbdb448c7	-0.08802944
48	0xbb340e2d	-0.002747427
49	0x3d2efa4e	0.042719178
50	0x3dfe9dda	0.124324515
51	0xbc3aa8d2	-0.011392789
52	0xbd18c1bc	-0.037294134
53	0xbe12afc4	-0.14324862
54	0xbc0dacd5	-0.008647163
55	0x3dbb3a2d	0.091419555
56	0xbc7e81ca	-0.015533874
57	0x3e3083b5	0.17237742
58	0xbd500a39	-0.050791
59	0x3e5a9855	0.21347173
60	0x3e1d1488	0.15339863
61	0xbd491b01	-0.04909802
62	0x3dd3e960	0.10347247
63	0xbdb538ec	-0.088487476
64	0xbd02f1eb	-0.031968992
65	0x3dfad4a9	0.12247593
66	0xbe1c5e8a	-0.15270439
67	0x3e02800b	0.12744157
68	0x3d94bacb	0.072621904
69	0xbdae4865	-0.08509902
70	0x3ca3551e	0.019938048
71	0x3d9a8553	0.07544961
72	0x3e2386b8	0.1596936
73	0xbe09dc97	-0.13463055
74	0x3da9c03c	0.08288619
75	0x3c379abd	0.011206326
76	0xbe1ab445	-0.1510783
77	0x3e2b23d7	0.1671289
78	0x3d816e52	0.0631987
79	0xbd144819	-0.03620157
80	0x3da2808a	0.07934673
81	0x3e1cf69c	0.15328449
82	0xbcc08894	-0.023502626
83	0x3dab95cf	0.08378183
84	0x3e1bf6a9	0.15230812
85	0x3df05128	0.11734229
86	0x3d9910b6	0.074738905
87	0xbdc01017	-0.09378069
88	0x3db6eb22	0.08931567
89	0xbd057ece	-0.032591633
90	0xbc394bb2	-0.011309551
91	0xbda8305b	-0.08212348
92	0x3b134a3d	0.002247467
93	0xbdb25d86	-0.087092444
94	0x3dbad407	0.09122472
95	0x3cd69a6c	0.026196681
96	0x3de28697	0.11060827
97	0x3b36dd8c	0.0027903048
98	0x3d00157a	0.03127048
99	0x3e123812	0.14279202
100	0xbc9c0dd8	-0.01904957
101	0xbdd23fa1	-0.102660425
102	0xbd622a15	-0.055215914
103	0x3d78f630	0.060781658
104	0xbd8a867f	-0.06763934
105	0xbdc853e8	-0.09781629
106	0x3d9458cd	0.072435
107	0xbd51948f	-0.051167067
108	0x3d84d818	0.06486529
109	0xbce86904	-0.028370388
110	0xbc862895	-0.016376773
111	0xbc613661	-0.013745875
112	0x3defe1fb	0.11713024
113	0x3a76d61e	0.0009416061
114	0x3d7961dc	0.06088434
115	0x3d8cd731	0.06876982
116	0x3defe8b9	0.1171431
117	0x3cbb1b8e	0.022840288
118	0x3e34798e	0.17624494
119	0x3df3d457	0.11905735
120	0xbe11c229	-0.14234222
121	0x39daf6c3	0.00041764052
122	0x3cc6420c	0.024201415
123	0x3e062ea3	0.13103728
124	0xbd9a30e4	-0.075288564
125	0x3d1585e6	0.03650465
126	0x3d7bf82f	0.061515983
127	0xbd63297d	-0.05545949
128	0xbc9156ab	-0.017741522
129	0x3db8c3e0	0.09021735
130	0x3cccc6ea	0.024997193
131	0x3d4a2264	0.049349204
132	0xbe0a5ffb	-0.13513176
133	0xbdc76f62	-0.097380415
134	0xbd1fc1b9	-0.039003108
135	0xbdb2b713	-0.08726325
136	0x3e305a21	0.17221881
137	0x3d3ce026	0.046112202
138	0xbe4b7b2c	-0.19871205
139	0x3cdd01dc	0.026978426
140	0x3de21ff0	0.11041248
141	0x3c986990	0.018605024
142	0xbc53aa65	-0.012919043
143	0x3e05a5df	0.13051556
144	0x3d51930e	0.051165633
145	0x3d73523c	0.059404597
146	0xbde7a435	-0.11310617
147	0x3e275fe1	0.16345169
148	0xbb8c120e	-0.004274613
149	0x3d30c054	0.04315217
150	0xbd7864b9	-0.06064293
151	0xbe1b9389	-0.15192999
152	0x3e2a2d2f	0.16618799
153	0x3d826f54	0.063688904
154	0xbd513d3a	-0.05108378
155	0x3db21483	0.086953185
156	0x3e2b91c0	0.16754818
157	0x3e062b01	0.13102342
158	0xbd9f1316	-0.07767312
159	0xbdddf535	-0.10837785
160	0xbd7e19db	-0.062036376
161	0x3d0ebb28	0.034846455
162	0xbe29cc32	-0.165818
163	0x3dd779cc	0.10521278
164	0x3db1cf7c	0.08682153
165	0xba3304ab	-0.00068290037
166	0x3e0574a8	0.13032782
167	0x3e2f6025	0.1712652
168	0x3d4e5513	0.0503741
169	0xbe20282a	-0.15640321
170	0x3d4f23a5	0.050571103
171	0x3da4f510	0.080545545
172	0xbde2751c	-0.11057493
173	0x3d890cab	0.06691869
174	0xbdd60a27	-0.10451155
175	0xbe2259b2	-0.15854529
176	0x3e3fa8f8	0.187168
177	0x3da6f037	0.08151286
178	0xbe6f1d46	-0.2335101
179	0x3d9f809f	0.077882044
180	0x3dba5001	0.09097291
181	0x3e6e3306	0.23261651
182	0xbd934405	-0.07190708
183	0xbe151787	-0.14559756
184	0x3c2d7f3e	0.010589419
185	0xbb95cb36	-0.004571344
186	0xbd832179	-0.06402869
187	0xbdb81d8f	-0.08990013
188	0xbc3296c0	-0.010900199
189	0xbd6af93a	-0.057366587
190	0x3d8088a5	0.06276063
191	0xbd15d0a2	-0.03657592
192	0xbdfb137e	-0.12259577
193	0xbd3461d7	-0.04403862
194	0x3e1562e8	0.14588511
195	0xbd77b3b6	-0.06047412
196	0x3d674d2f	0.056470092
197	0x3c443d4a	0.011977503
198	0xbd54eace	-0.05198174
199	0xbdf5f073	-0.12008753
200	0xbd8f0403	-0.06983187
201	0x3e31684a	0.1732494
202	0x3d88cc92	0.06679644
203	0xbd297b01	-0.04137707
204	0x3d19f8e1	0.037590865
205	0xbdf80c03	-0.12111666
206	0xbdc7c20b	-0.09753808
207	0x3ceff04b	0.029289385
208	0x3ca63c44	0.020292409
209	0xbe1181ab	-0.1420962
210	0xbe0400ee	-0.1289098
211	0xbd21d73b	-0.0395119
212	0xbd8b6444	-0.068062335
213	0xbe374d4d	-0.17900582
214	0xbd89e948	-0.06733948
215	0xbe33779a	-0.17526093
216	0x3cce2b3b	0.025167098
217	0xbe6b64ce	-0.22987673
218	0x3cb82f55	0.022483507
219	0x3e4bec00	0.19914246
220	0x3defa6df	0.1170175
221	0xbc551c59	-0.013007247
222	0xbe8efec5	-0.2792875
223	0x3dc89bd1	0.097953446
224	0xbce118c8	-0.027477637
225	0xbdf15f62	-0.11785771
226	0x3d20cf20	0.03926003
227	0xbde0d5e9	-0.109783
228	0xbd9b0535	-0.075693525
229	0xbd29ad71	-0.041425172
230	0xbdee1b08	-0.116262496
231	0xbd9cd8cb	-0.076585375
232	0x3d87bfa6	0.06628351
233	0xbd89a95c	-0.06721756
234	0x3d895bfb	0.06706997
235	0x3d86c8fd	0.06581304
236	0xbe0d590d	-0.13803501
237	0x3d46e1e3	0.048555266
238	0x3d868e65	0.06570128
239	0x3d77313e	0.060349695
240	0xbe06f18e	-0.13178083
241	0xbe1679cd	-0.14694901
242	0x3dcd1acb	0.10014876
243	0xbd621451	-0.055195156
244	0x3d5668d7	0.052346077
245	0x3d4f8dfd	0.05067252
246	0xbe4ea46b	-0.20179908
247	0xbe5fc9ed	-0.21854372
248	0x3d74fd86	0.05981209
249	0x3d221dce	0.039579205
250	0x3daaa6f3	0.08332624
251	0xbe2ed6b6	-0.17074093
252	0xbe099d30	-0.13438869
253	0xbe0a6a00	-0.13516998
254	0xbdd0cec4	-0.101956874
255	0x3dc0ce7c	0.09414384

action_model._discrete_distribution.branches.0.bias f4 [3]
0	0x3d22687f	0.039650436
1	0x3cb31b87	0.021863712
2	0xbd84fbb3	-0.0649332

action_model._discrete_distribution.branches.1.weight f4 [2, 128]
0	0xbd1709d6	-0.036874615
1	0xbc9cfa7f	-0.019162415
2	0xbb82baa7	-0.003989536
3	0xbe933635	-0.28752294
4	0x3bb4923a	0.0055105956
5	0x3d8e6572	0.06952943
6	0x3d178497	0.036991682
7	0xbd8f84d0	-0.07007754
8	0x3e5bec30	0.21476817
9	0xbd1d935a	-0.038470604
10	0x3deacf2a	0.11465295
11	0x3d823fcc	0.063598245
12	0xbd0ed2fd	-0.034869183
13	0x3cd251e4	0.025673814
14	0x3da69e34	0.081356436
15	0xbe131a00	-0.14365387
16	0x3d5be34b	0.05368356
17	0xba67874d	-0.0008832112
18	0xbe6aee9b	-0.22942583
19	0x3d3efaba	0.04662583
20	0x3d83a2be	0.06427525
21	0xbddb0b0a	-0.10695465
22	0xbd9d36da	-0.07676478
23	0x3e3baf16	0.18328509
24	0xbc53bca9	-0.012923398
25	0xbd8e5585	-0.06949905
26	0xbc4f1016	-0.0126381125
27	0xbd7a6056	-0.06112703
28	0x3e0fcbe0	0.14042616
29	0xbda8da46	-0.08244757
30	0xbd84d05d	-0.06485055
31	0x3cd06c0b	0.025442144
32	0x3de248a6	0.11049013
33	0x3cf9cd13	0.030493295
34	0x3d633595	0.05547102
35	0xbdecf282	-0.11569692
36	0xbe71b54c	-0.23604316
37	0xbd4ecb07	-0.05048659
38	0xbdedbc92	-0.116082326
39	0xbe063725	-0.13106973
40	0xbdb2dee2	-0.08733918
41	0xbc79149e	-0.015202669
42	0xbdd0f801	-0.10203553
43	0x3d5d2e78	0.053999394
44	0xbc60ddcb	-0.013724755
45	0xbc382452	-0.011239128
46	0xbddb5ec6	-0.10711436
47	0xbdda45df	-0.10657858
48	0xbe23bc06	-0.15989694
49	0xbde731e2	-0.11288811
50	0x3c8564d9	0.01628344
51	0x3dee235e	0.116278395
52	0xbd06ffbd	-0.032958735
53	0xbd7c8911	-0.061654154
54	0x3d35d0b7	0.0443885
55	0xbda2b848	-0.07945305
56	0x398e9bd8	0.00027200463
57	0xbe3351da	-0.17511693
58	0x3caa633a	0.020799268
59	0xbd02da8b	-0.0319467
60	0xbd7f7a76	-0.062372647
61	0xbe51bd3d	-0.20482345
62	0x3df7caa8	0.120992005
63	0x3dbf81a3	0.09350898
64	0xbb54a3ad	-0.0032446191
65	0xbda69543	-0.08133938
66	0x3c091c8d	0.008368623
67	0xbb88cb6f	-0.004174642
68	0x3d768f42	0.060195215
69	0xbd8b5581	-0.06803418
70	0xbdb7f1ef	-0.08981692
71	0x3d98e434	0.07465401
72	0xbe1ec027	-0.15502988
73	0x3dbdce42	0.09267856
74	0xbdb66b69	-0.089072056
75	0x3c10161a	0.008794332
76	0x3db299bd	0.087207295
77	0x3d3eb15f	0.046555873
78	0x3d9d69af	0.07686173
79	0xbd7f8833	-0.06238575
80	0x3dcb833f	0.099371426
81	0xbd8aa04c	-0.067688555
82	0xbd2c05aa	-0.04199759
83	0xbd888795	-0.06666485
84	0xbe3182c0	-0.17335033
85	0xbd13fb8e	-0.036128573
86	0xbda92db1	-0.08260668
87	0x3d4ee06f	0.050507005
88	0xbcce1f40	-0.025161386
89	0x3e711427	0.23542844
90	0xbdd93a99	-0.1060688
91	0xbb5aed70	-0.0033405684
92	0x3d40f519	0.047108743
93	0x39e96a4a	0.00044520415
94	0xbd5f1c01	-0.054470066
95	0x3c1f4951	0.00972207
96	0xbd71cafa	-0.059031464
97	0xbe6ddef6	-0.23229584
98	0x3e1003cc	0.14063948
99	0x3de1afab	0.11019834
100	0xbc1e917f	-0.009678244
101	0x3e00a6a4	0.12563568
102	0xbd7687b4	-0.06018801
103	0xbd8ecaf9	-0.06972308
104	0x3da99cf6	0.08281891
105	0x3dbf4cae	0.09340797
106	0x3e81e5bb	0.25370583
107	0x3d843ea8	0.06457263
108	0xbdc800e3	-0.09765794
109	0xbe04763e	-0.12935731
110	0xbdb4fb7d	-0.0883703
111	0xbd0bb7d8	-0.034110874
112	0x3d4a34ae	0.049366646
113	0xbbe4d32c	-0.0069831815
114	0x3db609a2	0.08888556
115	0x3e119e54	0.14220554
116	0x3cf18805	0.029483804
117	0xbe01443c	-0.12623686
118	0x3cc75d76	0.024336558
119	0xbe45ef7b	-0.19329636
120	0xbbd0a61f	-0.0063674594
121	0xbced27d3	-0.028949654
122	0xbd0e5701	-0.034750942
123	0x3cfb9b75	0.030713776
124	0x3df53999	0.119738765
125	0xbd7eb699	-0.062185857
126	0x3c6e3c3d	0.014540729
127	0xbd99a354	-0.075018555
128	0x3d264c13	0.040599894
129	0x3c3279e4	0.010893319
130	0xbc847354	-0.016168274
131	0x3e907f21	0.28221992
132	0xbc467995	-0.012113948
133	0xbd934c0c	-0.07192239
134	0xbcf81cf4	-0.030287243
135	0x3d4b3ef0	0.04962057
136	0xbe59a625	-0.21254785
137	0x3ce8554f	0.02836099
138	0xbddef53c	-0.108866185
139	0xbdbf8936	-0.09352343
140	0x3ce7cf90	0.028297216
141	0xbd28ef3f	-0.041243788
142	0xbd904dd6	-0.07046096
143	0x3e088ec9	0.13335718
144	0xbd40ae9d	-0.047041524
145	0x3c638ab9	0.0138880545
146	0x3e7eecae	0.24894974
147	0xbd24e8d2	-0.040261097
148	0xbd937600	-0.07200241
149	0x3df43b4b	0.11925372
150	0x3d9e1ea6	0.077206895
151	0xbe2cb994	-0.16867667
152	0x3c4876d0	0.012235358
153	0x3d8e4c2e	0.06948124
154	0x3c91ec07	0.017812742
155	0x3da54084	0.08068946
156	0xbe0f9cef	-0.14024709
157	0x3db18e45	0.08669714
158	0x3d815ac1	0.06316138
159	0xbcbf484e	-0.023349907
160	0xbde6b938	-0.112657964
161	0xbcbe31f5	-0.02321718
162	0xbd538fd9	-0.051650856
163	0x3df17e37	0.11791652
164	0x3e75148a	0.23933616
165	0x3d474ecb	0.048659127
166	0x3dee5bb7	0.11638587
167	0x3df3daf9	0.11907
168	0x3daf36d4	0.085553795
169	0x3c32ee56	0.0109210815
170	0x3db2b39c	0.08725664
171	0xbd6eb83e	-0.058281176
172	0x3d2ca4be	0.042149298
173	0x3b256b97	0.002524113
174	0x3e07ec2e	0.13273689
175	0x3dfa38ea	0.12217887
176	0x3e141852	0.14462402
177	0x3dde1085	0.108429946
178	0xbb3feba4	-0.002928474
179	0xbe078d28	-0.1323744
180	0x3d0dcfbf	0.03462195
181	0x3db39267	0.087681584
182	0xbc6effd3	-0.01458736
183	0x3da6cffe	0.0814514
184	0x3c0b9b6e	0.008520944
185	0x3e378349	0.17921175
186	0xbcd261ef	-0.025681464
187	0x3d5d1dfa	0.053983666
188	0x3d81277a	0.06306358
189	0x3e53e207	0.20691691
190	0xbded38b0	-0.11583078
191	0xbde5ed20	-0.11226869
192	0x3c0823c4	0.008309308
193	0x3da12ab7	0.07869475
194	0x3aa5e34a	0.0012656238
195	0x3b47dfa1	0.0030498283
196	0xbd952a85	-0.072835006
197	0x3d9edec5	0.07757334
198	0x3de722dd	0.112859465
199	0xbd8cf9b3	-0.06883564
200	0x3e1ee3f8	0.1551665
201	0xbdcc87d1	-0.099868424
202	0x3db2c453	0.08728852
203	0x3c63ce94	0.0139042325
204	0xbda7b182	-0.08188154
205	0xbd71b6d3	-0.059012245
206	0xbd97920f	-0.07400905
207	0x3d42e926	0.04758563
208	0xbdd5329b	-0.10410043
209	0x3d826205	0.06366352
210	0x3d2d90d0	0.042374432
211	0x3dcc5bd4	0.09978452
212	0x3e119d20	0.14220095
213	0x3d1e3eb4	0.038634017
214	0x3d8bb564	0.06821707
215	0xbd1a74a9	-0.037708912
216	0x3bae653b	0.005322126
217	0xbe6ed455	-0.23323186
218	0x3dbf3b2f	0.0933746
219	0x3b93b006	0.0045070676
220	0xbcbcd6ed	-0.023051703
221	0xbbdded39	-0.006772664
222	0x3d15725e	0.036486022
223	0x3ae00813	0.001709225
224	0x3d296cc0	0.041363478
225	0x3e76ec3a	0.24113551
226	0xbdf5399f	-0.11973881
227	0xbdfca92b	-0.12336954
228	0x3d14990f	0.03627878
229	0xbdd37dbd	-0.10326717
230	0x3d90261e	0.0703852
231	0x3da87c60	0.08226848
232	0xbdc3ab4a	-0.09554155
233	0xbdac406a	-0.084107235
234	0xbe7beed0	-0.24602818
235	0xbd484635	-0.04889508
236	0x3de4e704	0.11176875
237	0x3dbb26df	0.091382734
238	0x3db775e8	0.08958036
239	0x3d29b2dd	0.041430343
240	0xbd4d698b	-0.05014948
241	0x3ca9a2ca	0.020707507
242	0xbda8ab8f	-0.08235847
243	0xbdf13610	-0.1177789
244	0xbcc74fb2	-0.024329994
245	0x3de6cbc8	0.11269337
246	0xbc046fc5	-0.008083289
247	0x3e4bf892	0.19919041
248	0x3ab1348e	0.0013519691
249	0x3ccf6ea1	0.025321307
250	0x3d226574	0.039647534
251	0xbccc9f97	-0.024978442
252	0xbddd3799	-0.1080162
253	0x3d8ce244	0.06879094
254	0xb9e15278	-0.00042976788
255	0x3dbb4bed	0.09145341

action_model._discrete_distribution.branches.1.bias f4 [2]
0	0xbd8e37df	-0.0694425
1	0x3d8e37e7	0.06944256
