results/Final_Train_2_0/Player/Player-122793.onnx (onnx, 159076 bytes, 17 tensors)

discrete_act_size_vector f4 [1, 4]
000000 00 00 40 40 00 00 00 40 00 00 40 40 00 00 40 40
       3.0 2.0 3.0 3.0

network_body.observation_encoder.processors.0.normalizer.running_mean f4 [14]
000000 4c ee a0 c0 bb 37 de c0 e5 79 e9 3f 81 66 f7 41
       -5.029089 -6.944303 1.8240324 30.92505
000010 e2 c4 05 41 eb 92 4a 40 68 e1 38 bf 12 d7 b0 c0
       8.360567 3.1652172 -0.7221894 -5.5262537
000020 61 b0 64 40 09 29 c1 3e d8 b0 27 bf 5d c7 11 40
       3.5732653 0.3772662 -0.6550422 2.2777932
000030 a6 87 bc 3b 00 00 00 00
       0.0057534752 0.0

network_body._body_endoder.seq_layers.0.weight f4 [128, 14]
000000 2f f2 9b bd 57 46 39 be 00 56 1f 3e 5c 73 ef 3e
       -0.07614552 -0.18093239 0.1556015 0.467677
000010 2a e4 cb bd 83 f8 fc 3b ca 7d b7 bc 52 bf 4f 3e
       -0.09955628 0.0077200546 -0.022398848 0.20287827
000020 84 53 b0 bd 06 6f 45 be 70 3c 3d 3e 99 fa 31 bf
       -0.08609679 -0.19280633 0.18480086 -0.69523007
000030 a4 3f 6a be 4b 44 a5 be 7a f0 7b be 18 88 44 3d
       -0.2287584 -0.32278666 -0.24603453 0.04798135
000040 97 17 9c be 45 9a ec 3d 5e 2e e4 bd a8 f7 e3 3d
       -0.30486748 0.11552862 -0.11141656 0.11131221
000050 1c 1b 82 3e a5 0a de 3e 4c 71 85 be d0 5b f6 3c
       0.25411308 0.43367496 -0.26063 0.030073076
000060 f6 22 43 3d 6f ce 0c 3f 4c e6 8c be 44 8d 11 3e
       0.047640763 0.5500249 -0.27519453 0.14214045
000070 05 d1 97 bd 1c 7f fc be e6 96 2b be 57 66 10 3d
       -0.07412914 -0.49315727 -0.16756782 0.03525385
000080 c2 e7 d7 be 55 1e b8 3e 55 59 51 3e de d9 c3 3e
       -0.42169005 0.35960642 0.20444234 0.38252157
000090 ec dc 2d bb 95 dc 89 be 88 fe 2c bb b7 51 86 3e
       -0.0026529385 -0.26926103 -0.002639683 0.26234218
0000a0 db e8 04 3c 12 ad cd be 3d e9 a3 be 31 24 74 be
       0.008112158 -0.40171105 -0.32013884 -0.23841931
0000b0 50 7f 99 3d f7 0f cc 3e 48 57 42 3e 7a 91 e3 be
       0.07494986 0.3985593 0.18978608 -0.44446927
0000c0 7d 49 25 be ac d7 21 bd a9 34 31 3e b6 cd 61 3d
       -0.16141315 -0.03951232 0.17305245 0.055127822
0000d0 6e a9 76 be c8 63 93 3e 55 9b 12 3e 0a c5 fc bd
       -0.2408807 0.28787065 0.14317067 -0.1234227
0000e0 64 54 91 39 fa 40 81 be a3 eb 23 be 62 4b 8b bd
       0.0002771943 -0.25244886 -0.16007857 -0.068014875
0000f0 dc ab 0b be 07 34 9b 3d ae b0 63 3e 69 47 7c 3e
       -0.13639778 0.07578283 0.22235367 0.24636616
000100 46 e0 4d 3e ff 8e 16 be 28 9f 92 3d c7 bb d7 3d
       0.20105085 -0.14702986 0.07159263 0.105338626
000110 f0 63 4f 3e d3 03 f5 bd 24 fb a5 bd 27 76 5e 3d
       0.20252967 -0.1196362 -0.08104542 0.054311898
000120 7a 5f 81 3e 18 cf 9d 3e d2 34 8b 3e f8 5b d4 be
       0.25268155 0.30822062 0.27188736 -0.41476417
000130 62 89 81 3e ea 7b 06 be ea e6 f8 3d f6 c7 90 be
       0.25300127 -0.13133207 0.12153418 -0.28277558
000140 e5 6a 15 3e cf b3 b1 3e 2e ed bb 3a 4b 5e 97 3e
       0.14591558 0.34707496 0.0014337653 0.29564127
000150 50 f2 0f 3c b8 24 d6 be 58 af 2d 3e ef 06 17 bf
       0.008785799 -0.4182489 0.1696142 -0.58994955
000160 9b 6d 8e bd 72 d7 0c 3e 86 6f 0d be 40 ae 02 be
       -0.06954499 0.13754061 -0.13812074 -0.12761784
000170 27 bf ee 3e 4a 25 03 3d 9e 73 51 3e c5 e5 f7 3d
       0.46630213 0.032017983 0.2045426 0.12104372
000180 b2 de 64 3e 1f 25 97 be b9 bc 40 be 04 1b e4 bc
       0.22350577 -0.2952051 -0.18821992 -0.027844913
000190 99 b1 28 be d1 83 ba 3e ae ed c8 3d 6b ab e9 3e
       -0.16473998 0.36428693 0.09810959 0.45638594
0001a0 f6 6c 40 be e5 e2 90 be 67 f7 1d 3c 50 36 8d be
       -0.18791565 -0.28298107 0.009641505 -0.275805
0001b0 fe 68 ee be 8c ef 21 be 55 16 38 be fa 3d fd 3d
       -0.46564478 -0.15814036 -0.17977269 0.12365337
0001c0 c6 b7 4d bc 87 78 06 3e 50 9e 30 bd 5e 7f 4e be
       -0.012556022 0.13131915 -0.04311973 -0.20165774
0001d0 70 14 f9 3d c7 b7 e2 bc b1 0d bd be 62 a3 dd be
       0.12162101 -0.027675522 -0.36924508 -0.43288714
0001e0 5f e4 01 3e 58 78 4f be 57 97 db bd c2 78 c2 bd
       0.12684773 -0.20260751 -0.10722225 -0.09495689
0001f0 9b 78 1f bd 09 c4 5f 3e 45 ad 87 be 89 af 1b be
       -0.038933378 0.21852125 -0.26499382 -0.1520368
000200 9c f4 2d 3e 92 a2 ab 3d 5c 09 f8 be 76 ed 13 be
       0.16987842 0.08380617 -0.4844464 -0.14446053
000210 9e d2 8e 3e 44 29 02 be 64 69 c4 bb 01 91 a9 be
       0.27895063 -0.12711054 -0.005994009 -0.33118442
000220 c5 a2 da 3c 02 58 ef 3e da 34 7a be 04 20 e8 bd
       0.026688943 0.46746832 -0.24434224 -0.113342315
000230 fb 52 91 be dc ea 6b be a2 2e ac 3e 15 0e bd bc
       -0.28383622 -0.2303881 0.33629328 -0.023078004
000240 19 7a 57 3e 47 18 bb be 89 24 6e be 96 bb 68 be
       0.2104267 -0.3654196 -0.23256125 -0.22727808
000250 d4 23 fb 3e c6 af 6c 3e e3 e8 06 3e a1 bc d9 3d
       0.49050772 0.23113927 0.13174777 0.10631681
000260 f3 81 50 be 11 a5 79 3e eb c1 e6 be cd 31 1f 3f
       -0.20362072 0.24379374 -0.45069823 0.62185365
000270 fc 6b dd 3e 0c 35 1e bd 17 a8 ca 3e 78 12 93 3e
       0.43246448 -0.03862481 0.39581367 0.28725028
000280 76 b3 e3 3d 0e 56 49 be d1 df f4 bd 0e 07 a3 3e
       0.11118214 -0.19661734 -0.11956752 0.3184132
000290 5c 6b 00 3f 6b 53 2c 3e 11 80 1e 3e 13 f9 fc 3c
       0.5016382 0.16828696 0.15478541 0.030880487
0002a0 fa 07 57 3e 41 23 a9 be 91 4f 9c bd a7 75 49 bd
       0.20999137 -0.3303471 -0.076323636 -0.049184468
0002b0 84 41 a2 be 28 55 88 3e 5f 8b c6 3d ef d7 87 3c
       -0.3169061 0.2662747 0.09694552 0.016582457
0002c0 50 04 57 be 91 9e e6 be 58 83 63 3e f0 f8 81 3d
       -0.20997739 -0.45042852 0.22218072 0.06346309
0002d0 6c 3d f9 bd c9 35 a9 bd 44 b6 e0 3e 45 bc 87 3b
       -0.121699184 -0.08262212 0.43889058 0.0041423165
0002e0 37 ce 53 be 20 3a d2 3e 2d a7 41 3e 66 34 de bd
       -0.20684133 0.4105997 0.18911429 -0.10849838
0002f0 2c c1 18 3e 31 97 3e bd 19 e9 a1 be c6 8a 4b be
       0.14917439 -0.046530906 -0.31623152 -0.19877157
000300 8b a9 3e bd 07 f1 f2 3d 23 1a 0a 3d 8d 24 b0 3d
       -0.046548408 0.118623786 0.033716332 0.086007215
000310 ad c5 ea 3c 02 8c 5e 3e 9a d2 9f 3e 5d a5 29 3d
       0.028658712 0.21733096 0.31215364 0.04141747
000320 d4 f4 9d bd d3 a3 6f 3e 42 8d 18 be 58 ef 08 bf
       -0.07712713 0.23402338 -0.14897636 -0.5349021
000330 6a 7e a4 3e 14 52 27 3f 82 bf 57 be 20 b9 83 be
       0.32127696 0.65359616 -0.21069148 -0.25727177
000340 8a a4 aa 3c cb 0e 7d be 98 4a 61 3d 8d 26 59 bf
       0.020830411 -0.24712674 0.05500278 -0.8482445
000350 46 f4 06 3e 8a e3 98 3e 1a 2e 5c bd b8 39 4c 3e
       0.1317912 0.298611 -0.053754903 0.19943893
000360 e4 c4 7e 3e 8c f9 01 3e 11 dd 11 3f 94 45 5e 3e
       0.24879795 0.12692851 0.56977946 0.2170623
000370 9f cc 6b be e8 03 0e 3f 63 02 50 bb 9e cd ab be
       -0.23027276 0.5547471 -0.0031739704 -0.3355531
000380 67 00 c7 be ac 15 cf bd cb ed 87 bd de 3a ab bc
       -0.38867494 -0.101115555 -0.06637152 -0.020902093
000390 68 1c 33 be eb e3 2c 3e cb fa ae 3c 73 f8 8a 3d
       -0.17491305 0.16883819 0.021359822 0.06785669
0003a0 b3 2f e0 3e a8 4e 92 bd 88 03 50 bd 53 04 e9 3e
       0.43786392 -0.07143909 -0.050784618 0.45511112
0003b0 a6 59 e6 3e 63 f3 f4 3b c6 41 a7 be 98 cc c7 3e
       0.4499027 0.007475303 -0.3266737 0.3902328
0003c0 37 0c 2c 3f 0a 66 54 be ab 55 91 3e 2d 58 39 3e
       0.6720614 -0.2074205 0.28385672 0.18100043
0003d0 1c 57 52 3d 5a 25 db 3e 7c 68 f4 be ba bd e6 be
       0.051352605 0.42801934 -0.47735965 -0.45066625
0003e0 b1 09 2d be 72 f5 dc be d1 8a 02 bf be 9e d3 3e
       -0.16898228 -0.4315601 -0.5099307 0.41332048
0003f0 31 5d a3 3e d6 4e b9 3e cc 29 29 3e a6 f8 28 bd
       0.31907037 0.3619296 0.1651985 -0.041252755

network_body._body_endoder.seq_layers.0.bias f4 [128]
000000 01 05 f1 3b a1 40 f2 bc 0c 23 fc 3c a1 7f 87 3b
       0.007355333 -0.029571833 0.03077843 0.0041350876
000010 62 63 57 bc 46 78 bb bc a6 57 2a 3d f6 56 23 3d
       -0.013146253 -0.0228845 0.041587494 0.039877854
000020 ff 4e ea 3c c8 c0 80 3c 5c 44 14 3d ea 8d c8 bb
       0.028602121 0.015716925 0.036198005 -0.006120433
000030 dc 78 08 3d 5a 74 07 3d e4 3e 1d 3b f7 2e ea 3c
       0.033318385 0.033069946 0.0023993785 0.028586848
000040 c7 1d 84 3c 32 e6 e2 3c ae c7 ee bc d7 4b 8b 3d
       0.01612748 0.027697656 -0.02914795 0.06801575
000050 09 bc 61 3d 15 07 b9 3c 02 16 d3 3c 3d 47 01 3d
       0.055110965 0.022586385 0.02576733 0.03156208
000060 81 84 86 bc 7a 86 1d 3d f6 a1 92 bc 38 04 89 3d
       -0.016420605 0.038458325 -0.017899495 0.06690258
000070 1e b4 92 bb 23 fe 84 3d 8d ed bb bc 87 c9 41 3d
       -0.004477038 0.06493785 -0.022940421 0.047311332
000080 71 f0 d1 bc 4b 18 23 bc eb 1f e1 3c d1 b5 0c 3d
       -0.025627347 -0.009954522 0.02748104 0.03435308
000090 90 ad 85 3d ef 90 ab bb b8 91 03 3d a0 56 04 3d
       0.06527245 -0.0052357833 0.03212139 0.032309175
0000a0 c8 03 48 3d be 27 2c bc 39 aa 58 3c c8 47 0b 3c
       0.04883173 -0.010507522 0.013224178 0.008501001
0000b0 21 80 97 bc a3 c6 9d 3d b2 78 3f 3d 63 70 3c 3d
       -0.018493714 0.077039026 0.046745963 0.046005618
0000c0 1e 08 15 bd 4f e7 d0 bb 88 80 93 3c b8 d3 7d 3d
       -0.036384694 -0.0063752304 0.018005624 0.06196949
0000d0 1c 6f 83 3d da 9c c2 bc ce da b9 3c 70 a8 8b 3d
       0.06417677 -0.023756433 0.022687342 0.06819236
0000e0 ad 18 f8 bb d0 07 ca 3b 87 8d e9 3c e7 99 27 3d
       -0.007571301 0.006165482 0.028509868 0.040918257
0000f0 27 1b b3 3c b7 f2 ae 3b 4b c3 fb 3d 47 9d 3b 3b
       0.021863533 0.0053389925 0.122931086 0.002862768
000100 0d 26 95 3d e0 0c 2c 3c c8 e8 27 bd 83 86 8c 3c
       0.07282648 0.0105011165 -0.040993482 0.017153984
000110 70 db 29 3d 3a 21 9d 3d b6 50 32 bd 1e 26 a0 3d
       0.041469038 0.07672353 -0.043534003 0.0781977
000120 4b 5f 0f 3b 5b 08 bb 3a 25 51 dd 3d dd a7 af 3a
       0.0021876867 0.0014269458 0.10806493 0.0013401468
000130 4e cf 53 3d 78 e2 6c 3c 65 33 df bc 26 3d 9e bc
       0.051711373 0.014458291 -0.027246187 -0.019316267
000140 2f 03 1f bd d8 c2 ba 3c b1 5e 96 3a 0a 11 79 3a
       -0.038821395 0.022797987 0.0011472312 0.0009501135
000150 7b 56 25 3d 7c 99 b4 3c 48 f1 e3 3c 11 60 10 3d
       0.040365677 0.022045843 0.027825013 0.035247866
000160 d0 67 34 bc 7a 2b ad bc 42 b7 c8 3b 80 a8 a6 bc
       -0.011011079 -0.021138895 0.0061253617 -0.020344019
000170 1b f3 e5 bc ed 80 0f 3d 1f b2 4d 3d 7c 40 24 3b
       -0.028070023 0.035035063 0.050218698 0.002506285
000180 84 7d 9e 3d b2 b6 f6 bc 66 e1 b7 bc 26 77 13 bb
       0.07738784 -0.030116413 -0.022446346 -0.0022501438
000190 32 a9 e8 3b bc 0d f9 3c 0c e9 39 3d 0b 98 10 bc
       0.007100248 0.030402057 0.045388266 -0.008825312
0001a0 41 46 54 3d 6f 56 d6 bc 4c a1 04 3d 9d 34 c4 3c
       0.05182481 -0.026164262 0.032380387 0.02395087
0001b0 c1 73 20 3c 29 0b 40 3d a4 a2 65 bc 5a ff 3f 3d
       0.009793223 0.046885643 -0.014015827 0.04687438
0001c0 30 4a 84 bd 4a 2f b0 3d be 23 d4 3c 3e 68 1d bd
       -0.06459463 0.0860277 0.02589595 -0.03842949
0001d0 b0 e0 f8 bc 8a cc 75 3c d0 f7 9f 3c c2 24 81 bc
       -0.030380577 0.015002379 0.019527346 -0.015764598
0001e0 6b ce 82 bc 74 6a 9c bc 70 7c ab bc 9a 9b 5e bc
       -0.015967568 -0.01909373 -0.02093336 -0.013586903
0001f0 34 b5 06 bc 1f 78 fe 3c 50 ef d4 bc 15 e0 07 3c
       -0.008221913 0.031063138 -0.02599302 0.008293171

network_body._body_endoder.seq_layers.2.weight f4 [128, 128]
000000 1c 5c e7 bc fe 75 d7 bd ee 06 f0 3b 9b b2 fc 3d
       -0.028242163 -0.10520552 0.007325045 0.12338754
000010 51 98 cd bc 3c ba c7 3d ba df b0 3d d3 7c 5a 3c
       -0.025097044 0.09752318 0.086364225 0.0133354245
000020 a4 42 26 3d 6c 5e 23 3e 42 dc ca 3b dc 4a a6 bd
       0.040590897 0.15953988 0.0061908076 -0.08119747
000030 a3 41 64 be 82 47 23 3e 73 7f fe bd 53 b7 22 3e
       -0.22290663 0.15945247 -0.12426653 0.15890245
000040 4f 07 22 3e 6c 08 01 bd a7 4b 6a be 96 73 bc 3d
       0.158231 -0.031502172 -0.22880422 0.09201734
000050 c1 7a 3f bc 21 5c 09 3e 67 c5 1d be 7c b3 52 3e
       -0.011686982 0.1341405 -0.15407334 0.2057628
000060 c9 5d 5b 3b 9b 98 bc 3d c9 27 df bc 27 cc 3b 3d
       0.0033472648 0.09208795 -0.02724065 0.04584899
000070 b8 90 53 bc 08 3d 25 3c 49 d7 1c b9 ba 40 7f be
       -0.012912922 0.010085352 -0.0001495752 -0.24927035
000080 8d e2 6b bd 1e 89 60 bd a3 21 fb bd 22 a8 1a 3b
       -0.057589103 -0.054818265 -0.12262275 0.002359875
000090 01 4f 45 bd c1 b4 2f 3e 3a 47 09 bc b8 c2 59 3d
       -0.048171047 0.17158796 -0.008378798 0.053164214
0000a0 b9 54 41 bd 6b 77 12 bc 1f 66 0f 3d a2 22 dd 3d
       -0.04719994 -0.008939604 0.0350095 0.10797621
0000b0 11 98 36 bd 31 70 fc bd 9e 7d d4 bd 38 d7 10 be
       -0.044578616 -0.12326086 -0.10375522 -0.141446
0000c0 9d 72 86 3c 5b a2 ba bd 5b 25 3d bc aa b7 df bc
       0.016412074 -0.09112998 -0.011544551 -0.027309258
0000d0 f2 71 ff bd d4 f5 71 3d 9d b1 98 bd 07 d6 24 3c
       -0.12472905 0.05907233 -0.07455752 0.010060794
0000e0 0a b3 2a 3d f5 13 e6 3d 93 bf 41 3d 65 31 a1 3d
       0.04167465 0.11234275 0.04730184 0.078707494
0000f0 5a 3c fc bd c6 a0 1e 3e ed f5 b2 bd 17 4f dc 3d
       -0.12316199 0.15491018 -0.08738313 0.10757273
000100 5b 4c 24 3e 81 3e 54 3b 43 4e b3 bd 82 f6 ca 3d
       0.16044752 0.0032385888 -0.087551616 0.09910299
000110 25 18 f2 bd c8 38 67 be 1c 23 09 bd 44 a3 a4 bd
       -0.118210115 -0.22580254 -0.03348075 -0.08038953
000120 64 d2 52 bd ad de db bd cf aa 3f 3e a6 dc 5d 3d
       -0.051470175 -0.107358314 0.18717502 0.054165505
000130 f6 d9 43 bc 09 e2 00 be fe f5 cb 3d 4f d9 b8 3d
       -0.011953821 -0.12586226 0.09959029 0.09025823
000140 a1 23 9a bd 28 f0 fb 3d 85 ce 78 3c 51 99 2a 3d
       -0.07526327 0.123016655 0.015185957 0.04165012
000150 bd 32 43 3d 5a ad 1e 3c 62 93 c9 3d 6b 59 ee 3c
       0.04765581 0.009684885 0.09842564 0.029095372
000160 09 e6 31 be 4a df 58 3d f6 1c 53 be 4b 14 34 3d
       -0.17372908 0.05294732 -0.20616516 0.043964665
000170 74 b0 d6 3d cf 8f 04 be 69 f7 4a 3d 2a 57 18 be
       0.104828745 -0.12945484 0.049552355 -0.14877
000180 79 b9 f8 bd 73 56 a6 3d 4b 56 96 bd a7 99 b1 3d
       -0.12144751 0.08121958 -0.07340678 0.08671885
000190 0d fa 25 bd 25 49 24 be 25 09 12 be 51 d9 1f bb
       -0.04052167 -0.16043527 -0.14261301 -0.0024391005
0001a0 f9 cf cc bd c4 a1 e9 bd e3 b5 df 3c 86 40 92 3d
       -0.10000605 -0.114078075 0.02730841 0.07141213
0001b0 6b 8e 09 be 13 a4 13 be 4e 18 7f 3d 2e d9 b1 3c
       -0.13433234 -0.14418058 0.062279038 0.021710005
0001c0 67 22 73 bd b2 3f 0e be 9c 22 54 3d ba cb 3c 3d
       -0.05935898 -0.13891485 0.05179082 0.046092726
0001d0 96 bc ca 3c 3a 9f 4f be 78 c6 e1 bd 16 64 a5 bd
       0.024748128 -0.20275584 -0.11024183 -0.080757305
0001e0 35 12 28 3d b4 81 3f 3d ab 52 a0 3c 26 16 d5 bd
       0.04103299 0.046754554 0.01957067 -0.10404615
0001f0 b1 16 c2 3d 50 cc 21 bd 6a 4d c9 3d 86 fb c8 bd
       0.09476984 -0.03950149 0.09829219 -0.09813599
000200 bd 68 68 bd 7e 15 18 3e e7 4f 96 3e 8f 30 67 3d
       -0.05674051 0.14851949 0.29357836 0.056442793
000210 c9 b2 05 3e d3 ea 97 3d 73 62 4b bd c6 bf ee 3d
       0.13056482 0.07417836 -0.049654435 0.11657672
000220 1b 47 cb 3d 98 ca 50 3d c7 6f d0 bd 88 a1 1f be
       0.09925672 0.05097446 -0.1017757 -0.15588963
000230 81 73 70 bd 0a 9c 37 3e 2d 47 aa bc b8 a9 d2 bc
       -0.058703903 0.17930618 -0.020785892 -0.025715694
000240 86 70 a0 bc 63 9a 0a bc 00 5d a0 bd 6b a9 aa bd
       -0.019584905 -0.00845966 -0.07830238 -0.08333095
000250 b9 7f 00 be fa d6 1c 3e f9 6e c6 bd 7f a5 aa bc
       -0.12548722 0.15316382 -0.09689135 -0.020830868
000260 cd 9d 00 bd f2 aa 98 3d 74 81 1f bc fa 21 43 3c
       -0.03140049 0.0745448 -0.009735454 0.011909956
000270 6f 8a 17 be f5 92 d5 bd 1f 66 83 3d e5 85 84 3d
       -0.14798902 -0.104284205 0.064159624 0.06470851
000280 88 93 1c bd 68 c5 af bd 4e 5a 18 bc 0b 8e e0 3d
       -0.038226634 -0.08582574 -0.009298874 0.109645925
000290 e2 69 89 bd f9 b1 83 3d cf b4 b6 bd 57 9a c0 bc
       -0.06709649 0.0643043 -0.08921205 -0.023511095
0002a0 4b a9 a3 3d 89 25 75 bd 8d 5d 5b be dd 16 43 bd
       0.079912744 -0.05985025 -0.21422406 -0.047629226
0002b0 f0 0e 9a bc 8d d3 84 bd ec 0a 38 bd 6a 8a e8 bd
       -0.01880595 -0.064856626 -0.04493229 -0.113545254
0002c0 32 21 c8 3c ff e6 90 bd 23 8f 2f be a8 33 94 3b
       0.024429891 -0.07075309 -0.17144446 0.0045227595
0002d0 fa 3f 97 bd fc 06 f3 bd 95 56 ba 3c 6f 17 d2 bd
       -0.073852494 -0.118665665 0.022746364 -0.10258376
0002e0 cb c0 12 3e 68 e6 00 3e cf 08 47 3d 3a 01 d9 bc
       0.14331357 0.12587893 0.048592385 -0.026489843
0002f0 b5 fb 0a bd a2 8a 5f 3e 53 bf 78 bd 73 2d 0e 3d
       -0.033931453 0.21830228 -0.060729336 0.034711313
000300 06 de cf bd 3c 10 ec 3d 54 35 e1 bd ed 20 66 bd
       -0.101497695 0.11526534 -0.109965 -0.056183744
000310 d5 65 07 be 64 9e 12 3e 43 86 12 3d 49 cc 12 be
       -0.1322244 0.14318234 0.035772573 -0.14335741
000320 65 59 4d 3d bd 39 0d 3e 3d d6 a9 bd 37 83 89 3d
       0.05013408 0.13791557 -0.08292816 0.0671448
000330 b0 6b a1 3d 46 9c a3 3d 82 56 82 bb db 64 17 3e
       0.07881868 0.07988791 -0.0039775977 0.14784567
000340 77 4e 3e 3e cc 6d 53 3e 83 5a 91 3d 53 b3 56 3e
       0.1858462 0.20647353 0.07097342 0.20966844
000350 56 e5 7f bd 38 a1 04 3e d8 3b 2a be 35 ba 5e 3c
       -0.06247457 0.12952125 -0.16624391 0.0135942
000360 b0 0a 08 bc 8a b5 15 bd ce cb ab bd b9 ed 9e bd
       -0.008303329 -0.036550082 -0.08388482 -0.07760186
000370 08 4c 09 bc 9c 03 4b 3d 88 5a 01 ba 27 9e 1d 3e
       -0.008379944 0.04956399 -0.00049344497 0.15392362
000380 a4 0f 07 3e 85 e4 41 3d 24 1f 86 bd 6e 39 de 3d
       0.1318956 0.047337074 -0.06548908 0.108507976
000390 65 54 98 3c 46 d0 6f 3d 66 d6 29 3e 65 c4 7b 3d
       0.01859493 0.058548234 0.16585693 0.061466593
0003a0 98 0d 05 bd aa 4d 92 3d 1b d8 95 3d ed 8f 60 bd
       -0.032483667 0.071437195 0.073166095 -0.05482476
0003b0 db b3 0e bd 51 75 bf bd 90 3b 7b be 33 20 ee 3c
       -0.034839492 -0.09348548 -0.2453444 0.029068088
0003c0 a0 47 4b 3e 16 2a ab 3d e2 98 a4 bd 71 26 a1 3c
       0.19851542 0.08357637 -0.080369726 0.01967165
0003d0 40 27 c3 bc df 71 59 bc 41 72 02 bd 87 50 04 bd
       -0.023822427 -0.013271778 -0.031847242 -0.03230336
0003e0 0e 05 e8 3c b4 6e f2 3d 85 22 67 3e 08 9f 4f 3c
       0.028322723 0.11837521 0.22571762 0.012672193
0003f0 83 1e 8f bd 95 43 ec 3d ad a8 86 3d 8b dc bf 3c
       -0.069882415 0.11536328 0.06575141 0.023420593

network_body._body_endoder.seq_layers.2.bias f4 [128]
000000 7d 6d 09 bd 51 af 1e bc 1c b4 33 3b 12 88 b4 3c
       -0.03355168 -0.009685353 0.0027420586 0.02203754
000010 80 ef a9 bb d4 f4 ba bc c7 f7 69 bc de 88 30 3d
       -0.0051860213 -0.022821821 -0.014280266 0.043099277
000020 e2 03 4a 3c cd 7c 89 3a 52 be 73 ba 1d 42 a8 3b
       0.012330027 0.0010489464 -0.00092980743 0.0051348344
000030 59 15 d7 3c 36 59 33 3d 90 2e cc bc 25 d0 e7 3a
       0.026255297 0.04378625 -0.024924546 0.0017685933
000040 d4 e9 63 bc 9f 4b bb 3c aa 2c aa bc 1a 78 fc 3c
       -0.013910729 0.022863207 -0.02077325 0.030818988
000050 2b 43 82 3d fc 21 57 3d 51 b9 e4 bb e2 12 53 3d
       0.063604675 0.052522644 -0.0069800992 0.05153168
000060 58 89 d2 bc cc 1b 91 3c 1b 7e 94 ba 2d eb a7 3a
       -0.025700256 0.01771345 -0.0011329086 0.0012811177
000070 9a d7 c7 bc c9 c3 c3 bc b0 13 80 bc a8 88 99 bb
       -0.024394799 -0.023897069 -0.015634388 -0.00468548
000080 6b 41 a7 3c 8a f3 83 bd 72 09 46 bd dc 04 6b 3c
       0.020416936 -0.06442936 -0.04834885 0.01434442
000090 16 ad 49 bc fa bb 31 bc db 2a 0e bd 10 06 57 bc
       -0.012309333 -0.01084804 -0.03470884 -0.013124004
0000a0 49 83 9e 3c 1c 72 2b 3d 49 6b bb 3c 98 74 a4 3b
       0.019349711 0.04185687 0.022878306 0.005018782
0000b0 6d 17 df bc 60 6d 58 3d fa eb 07 3c f9 37 4b 3d
       -0.02723285 0.052838683 0.008296007 0.049613927
0000c0 de 4e 86 3d f3 82 4f 3d 60 a5 2c bc 2d 99 bf 3c
       0.065580115 0.050661992 -0.010537475 0.02338847
0000d0 84 94 13 bd c4 a0 c2 bc e3 33 ce 3a 47 c4 97 bc
       -0.036030307 -0.0237583 0.0015732016 -0.01852621
0000e0 25 ca a9 bc 1e e5 ce 3c b9 d6 34 bd c6 33 80 bd
       -0.020726273 0.025255736 -0.044150088 -0.06259875
0000f0 1c 7b 91 bd 4a b8 a3 bb 80 52 df bc 27 79 49 bd
       -0.071035594 -0.004996334 -0.027261019 -0.049187806
000100 31 84 3f bd 64 2d 3c bc 7e 14 04 3d 3b 61 8f 3c
       -0.046756927 -0.011485431 0.032246105 0.017502418
000110 a8 95 60 bc ff 2f 25 3b fa 2c 32 bc a3 9e 60 bd
       -0.013707556 0.002520561 -0.010874981 -0.054838788
000120 24 8c 1a bd 8b d1 e2 bc 2e 36 8a 3c 81 8e bf 3c
       -0.037731305 -0.027687808 0.016871538 0.02338338
000130 fe fd 77 3d 38 bf 0d 3d af 3c d1 bc 11 af 36 bd
       0.06054496 0.03460619 -0.025541632 -0.04460055
000140 4a b9 78 bc 3b 2f db 3c 20 64 4d 3b e2 9f f0 bb
       -0.015180895 0.02675592 0.0031340197 -0.0073432783
000150 08 49 87 3a ac 93 a1 3b 4e 17 de 3c de 8e 02 bd
       0.0010321448 0.004930934 0.027110722 -0.03187453
000160 0e b5 93 3c a0 d2 76 bd 11 9d 60 bd a3 45 e3 bc
       0.01803067 -0.06025946 -0.05483729 -0.027743166
000170 07 ee 7f 3c a0 54 ba bc 6f 7b e2 bc bb f1 0c bb
       0.015620715 -0.02274543 -0.027646748 -0.0021506387
000180 c7 ba 31 3b 5e f4 4d bd 2d 5b d6 3b a9 1e 04 3c
       0.0027119385 -0.050281875 0.0065416307 0.008063951
000190 05 44 d9 bc 38 5f 37 bb 15 a6 7f 3c 38 3f 1e ba
       -0.026521692 -0.0027980339 0.015603562 -0.0006036642
0001a0 04 cc 87 bc ad db 28 bd 24 9b 24 3c 2a 2f 5c 3c
       -0.016576774 -0.041225124 0.010046754 0.013438979
0001b0 79 e6 9a 3d 55 bb a8 3c 2a a2 3e 3c f1 81 bd bb
       0.075634904 0.02059714 0.011635343 -0.0057833125
0001c0 fc e5 ca bc f5 0e 61 3c 9a a5 80 bc 74 03 02 3d
       -0.024767868 0.013736476 -0.015703965 0.031741574
0001d0 ab c7 51 bc 03 75 ad bc 2e 05 0e bc 57 40 cc bc
       -0.012803952 -0.02117396 -0.008668227 -0.024933023
0001e0 73 c7 50 bc d2 5e be 3d 4e da a1 3c 4a 9b b2 bc
       -0.012742865 0.09295429 0.019757416 -0.021802563
0001f0 dd f7 11 3d ae c1 6d 3c 39 17 fa bc 09 6c ac 3c
       0.03563677 0.014511509 -0.030528652 0.021047609

network_body._body_endoder.seq_layers.4.weight f4 [128, 128]
000000 e1 0b 43 bc ea d8 04 3d 41 d2 2e bd c1 50 05 3e
       -0.011904688 0.032433428 -0.042680983 0.13019086
000010 0d cf 30 bd a6 33 47 3e 9a c7 92 3b 98 88 90 3d
       -0.04316621 0.19453296 0.0044793608 0.07057303
000020 cb 4b dd bd 20 9e c0 3c 4c 99 7f be 1d 2a 94 3c
       -0.10805472 0.0235129 -0.24960822 0.018086487
000030 3d 85 66 3d b1 e0 27 3d 4a df 7c bd 18 0d e6 3d
       0.05627941 0.040985767 -0.061736383 0.11232966
000040 a4 27 cf bd 19 99 7e bd 18 67 03 be 58 3d 27 3e
       -0.10114983 -0.062157724 -0.12832296 0.16331995
000050 70 26 cd 3d dc 49 48 3d c2 ff 58 3e c0 42 4b 3e
       0.10017097 0.048898563 0.21191314 0.19849682
000060 b2 3a 09 be 1e 82 30 3c 4b a3 87 3d 28 1f 96 bd
       -0.13401297 0.01077321 0.066229425 -0.07330161
000070 ce 14 d6 bd c9 8e d2 bc 58 e8 29 3e 39 51 e2 bb
       -0.10453187 -0.02570285 0.16592538 -0.006906655
000080 e8 78 fc bb d1 fc c0 3c ab a1 93 bc ee 67 ac bd
       -0.007704843 0.023558052 -0.018021425 -0.084182605
000090 03 b3 e7 3d 09 c8 c4 bc bb d4 f6 3d e5 4c a4 bd
       0.11313441 -0.024021165 0.12052294 -0.08022479
0000a0 47 26 a0 3d e8 10 81 3d 6a eb 98 3d db 46 ac 3d
       0.07819801 0.06302053 0.07466777 0.08411952
0000b0 03 79 e5 bc ae 23 b2 3d 7d ed 21 3d b9 05 91 bd
       -0.028011804 0.086982116 0.039533127 -0.0708117
0000c0 2a 1c 4e be 80 4d b8 3b 3d 5e 4f 3d 76 b8 0f 3d
       -0.20127931 0.005624473 0.050626982 0.035088025
0000d0 33 fc 11 3e 71 e6 02 3d d1 5c 8a 3d 5d 7a 80 3e
       0.14256363 0.031958047 0.067559846 0.25093356
0000e0 2d cb a9 3d ed f2 05 3d ad 9a 01 be a9 6c 5e bd
       0.08290706 0.032702375 -0.1265666 -0.054302845
0000f0 9e 24 83 bd b2 26 27 be 34 60 0d bd ea 2f f7 3b
       -0.064034685 -0.16323355 -0.034515575 0.0075435536
000100 7a 15 18 3e 7b 5f 5f 3d 0b 54 22 bd 0c e8 c7 bd
       0.14851943 0.054534417 -0.03963093 -0.09761056
000110 64 f1 2e be 7d 03 59 3d 01 9f 4a bd e3 63 05 bd
       -0.1708427 0.052981842 -0.049468044 -0.032565963
000120 49 27 00 bd b6 91 32 bd 8c d6 19 bd 11 d1 7b 3d
       -0.031287465 -0.043595992 -0.037558123 0.061478678
000130 f8 8b da 3d 6d fa 45 bc f7 cc 10 3e f2 1c e5 3d
       0.10671228 -0.012083632 0.14140688 0.111871615
000140 01 85 eb bd 0d 85 53 bc 3c f6 95 3d 7e a9 29 be
       -0.11499978 -0.01291014 0.07322356 -0.16568562
000150 cd b7 2c bd 1d 71 e1 bd 90 b5 13 3e 45 f1 a7 3d
       -0.042167474 -0.11007903 0.1442473 0.082003154
000160 44 83 01 3e 15 df ca 3d fa d0 0a 3d 84 ac f3 bc
       0.1264773 0.09905831 0.0338907 -0.029745348
000170 4c 7e 10 3e 12 b9 44 3c aa 3e 20 3e 45 13 41 3d
       0.14110678 0.012007015 0.15648904 0.047137517
000180 ff e3 66 3e 75 bd 86 bd c4 db 79 be 34 8a 87 be
       0.22547911 -0.06579105 -0.2440024 -0.26472628
000190 12 58 4e bd c0 c5 b2 3d 48 4f ef bd 44 34 cd bd
       -0.05037696 0.08729124 -0.116850436 -0.100197345
0001a0 5e 27 05 be af 96 0a 3d d4 0b 7f 3d 39 0b d2 3c
       -0.13003299 0.03383511 0.06226714 0.025640117
0001b0 19 15 70 3d 8a 9d 03 bd cf 6c 32 bd 74 77 28 be
       0.05861387 -0.032132663 -0.0435608 -0.16451818
0001c0 55 34 8c 3d a0 c9 1f be 3a 75 72 3d b8 7f 62 3a
       0.06845919 -0.15604258 0.059193827 0.00086402474
0001d0 5f e8 3d 3c 2c 52 04 3e 73 e4 2b be 28 f4 1b 3e
       0.011591046 0.12921971 -0.16786365 0.15229857
0001e0 5f 2b 54 bd 90 76 b8 bd e1 72 b3 3d 5e ce 4b 3b
       -0.051799174 -0.09006989 0.08762146 0.0031098346
0001f0 02 43 d0 3c 6d 6a 07 be bf 15 35 be 31 e7 ae bd
       0.025422577 -0.13224192 -0.17684077 -0.0854019
000200 5f c8 27 be 53 b8 2c bd 9e 05 e3 3d 30 a3 c3 bd
       -0.1638503 -0.042167973 0.11085056 -0.0955261
000210 25 d9 b9 3c ab c8 d8 bd 07 1a 87 bc 96 16 c4 bd
       0.02268655 -0.105851494 -0.016491903 -0.095746204
000220 b5 5a f2 3d 80 16 72 3e f9 98 8f 3c 68 9a b0 bd
       0.11833707 0.23641396 0.017528998 -0.08623201
000230 b9 30 89 bd 41 92 c7 3d a2 16 2f 3e 78 34 05 be
       -0.06698746 0.097446926 0.17098477 -0.13008296
000240 0e 26 91 bd 08 2c 97 3d e3 6d 93 bd 4e 4e 9e bd
       -0.070873365 0.07381445 -0.071986936 -0.07729779
000250 47 08 a8 3d ee 6b e8 3d 9f d6 9c 3d 7a 2f b4 3d
       0.08204704 0.11348711 0.07658123 0.08798118
000260 31 74 c6 bd b5 46 84 3d 66 f4 8c 3c 6e 56 f0 bd
       -0.096901305 0.06458799 0.017206382 -0.11735235
000270 95 db 1c be d6 d4 20 bd 2a 1c 79 be ad 8a a8 3c
       -0.15318139 -0.039265476 -0.2432715 0.020573938
000280 fe 63 8c 3d d0 c9 ee bd b6 d7 14 be 03 1d da 3d
       0.068550095 -0.116595864 -0.14535412 0.10650065
000290 69 b2 81 bd 3e 45 b5 bc 9b 9b e4 bd 11 46 c6 3c
       -0.06332857 -0.022127744 -0.11162492 0.024203332
0002a0 19 a8 96 bc c0 79 a2 bd e8 2d c6 bc 77 39 03 3d
       -0.018390702 -0.07933378 -0.024191812 0.032037225
0002b0 17 e8 77 bb cb 3b 99 3c c5 a2 08 3e a2 e5 d3 3d
       -0.0037827545 0.01870527 0.13343342 0.10346533
0002c0 44 56 ec 3b 9e 03 bd 3c 1b b6 4d bd 25 22 ef 3d
       0.007212432 0.023073014 -0.050222497 0.116764344
0002d0 89 f4 b8 bd 9e 92 06 be d3 53 10 bc c9 02 f2 bb
       -0.090310164 -0.13141868 -0.008809048 -0.007385586
0002e0 ca f8 2b be bd 9c 59 bd 43 c0 d3 3d fc bd ab 3d
       -0.16794124 -0.053127993 0.103394054 0.08385846
0002f0 72 43 50 3d f0 e5 91 3d 9b f2 d4 bd a4 94 20 be
       0.05084557 0.07123935 -0.10397836 -0.15681702
000300 7a f7 0d be c3 2b 7c bd f6 93 83 3d c8 e6 fc 3a
       -0.13863936 -0.061565172 0.06424706 0.0019294852
000310 de 51 b6 3b bd a9 e4 bd eb 46 66 3c 07 25 55 bb
       0.0055639585 -0.111651875 0.014054994 -0.003252329
000320 50 67 76 bc 7d d8 40 3d f7 57 48 bc 2b 72 58 3d
       -0.01503928 0.04708146 -0.012228004 0.052843254
000330 39 27 ca 3d b4 96 e5 3c 19 93 0c 3d 58 ed 4c be
       0.098707624 0.028025962 0.03431997 -0.20012414
000340 0a ab 75 3c d8 c2 8d bd 80 28 ce bc 36 30 01 be
       0.014994392 -0.06921929 -0.025165796 -0.12616047
000350 0e e1 98 bd df d7 e1 bd 17 e1 72 3d 59 b9 06 3e
       -0.07464801 -0.11027502 0.059296694 0.13156642
000360 3f 9f 2d 3d 2c b2 35 bd 02 86 01 3e 37 49 ae bd
       0.042388197 -0.04435937 0.12648776 -0.085100584
000370 b3 35 c7 3d 11 b8 05 be dc 05 e9 bd 32 4a 7d 3c
       0.09727039 -0.13058497 -0.11378071 0.015459584
000380 c6 34 fe bd 8b 4b 2e bd d5 16 41 3e 45 06 a4 3d
       -0.124124095 -0.042552512 0.18856366 0.08009008
000390 f6 24 72 be 06 59 fa bd d1 e7 a1 bd 7a 0c 46 be
       -0.23646912 -0.12224011 -0.079055436 -0.19340697
0003a0 49 b1 0c 3d e2 04 62 3d 6c e9 9f bd 18 cb 9a bd
       0.03434876 0.055180438 -0.078081936 -0.07558268
0003b0 dd 3d b2 bd bd 97 bb bd eb e4 d3 bd 97 16 a5 3d
       -0.08703206 -0.09159801 -0.10346397 0.08060949
0003c0 35 1a 11 3e f0 bc 86 3d 26 5b 1a bd e9 b2 41 bd
       0.14170153 0.06579006 -0.037684582 -0.047289763
0003d0 58 c3 c4 3d 97 c3 c1 bc b5 89 08 be d6 ae e6 bb
       0.09607571 -0.023652835 -0.13333781 -0.007039885
0003e0 bc eb c0 bd 43 88 bc bd dc 9a 90 3c a7 62 bd bd
       -0.09419963 -0.09205677 0.017651968 -0.09247332
0003f0 b0 09 34 bc c5 3c df 3c b2 eb b0 bd 66 2a 81 3c
       -0.010988638 0.027250657 -0.08638705 0.015767287

network_body._body_endoder.seq_layers.4.bias f4 [128]
000000 12 48 f3 3b 48 32 c7 3c 7e 1e 6d 3d a4 4e 12 bd
       0.007424363 0.024315968 0.057890408 -0.03571953
000010 8f 22 a3 3c b5 be ed 3c 9a e2 c8 bc 21 39 0b 3d
       0.01991394 0.0290216 -0.024522115 0.03399003
000020 96 d3 0f 3d cb e1 b4 bc da f1 03 bd 2f 87 34 bd
       0.035113893 -0.022080323 -0.03221307 -0.044074234
000030 32 8f dd bc 8f d5 76 bc c3 d7 c8 bc c9 0c c3 bc
       -0.02704582 -0.015065565 -0.024516946 -0.023809807
000040 9d aa 18 3c f6 7e 8a 3d bf 42 7e 3c e3 7e a1 bb
       0.009318021 0.06762497 0.015518843 -0.004928456
000050 d8 d5 66 3c e7 65 e2 3c d1 24 fd bc 22 61 45 3c
       0.01408907 0.027636481 -0.030901344 0.012047084
000060 fc 67 32 bd 40 02 61 bc a4 ea d7 b7 0a 84 84 bc
       -0.0435562 -0.013733447 -2.573926e-05 -0.016176242
000070 c6 47 52 3d 6f e8 c8 3c 04 f9 e5 bc 2d 56 00 bd
       0.05133798 0.024524895 -0.028072841 -0.031332184
000080 f6 39 e9 3a 21 81 05 3c 91 26 25 3c 03 0e e5 bb
       0.0017793763 0.0081484625 0.010079996 -0.0069901957
000090 3e 65 88 bc 14 ed fd bb d0 3f a1 bb 28 17 4b bd
       -0.016649839 -0.007749209 -0.004920937 -0.04958263
0000a0 5a 61 37 bc eb 50 c6 3b b4 b7 82 3b 85 d4 e5 3c
       -0.011192644 0.0060521266 0.0039891843 0.028055439
0000b0 3f 6d da bc 58 65 fb bc 79 98 91 bc a9 73 bd bb
       -0.02666342 -0.030687973 -0.0177729 -0.00578161
0000c0 7a 5a c4 3c 1a 69 40 3a c4 0a ea 3c b8 08 2b 3d
       0.023968924 0.000733988 0.028569587 0.04175636
0000d0 75 73 d1 bc 46 9c 3e 3c d3 2c 3b 3c f0 14 1d bd
       -0.02556775 0.011633938 0.011424261 -0.038350046
0000e0 32 cc 8d bc e6 95 0f bd 31 05 e2 3d d4 55 f9 bc
       -0.017309282 -0.035055064 0.110361464 -0.030436434
0000f0 f4 2c 39 bd 94 e0 a3 3d fe 05 26 bd b0 a8 47 bd
       -0.045208886 0.08001819 -0.04053306 -0.048744857
000100 a5 4e 94 3d 16 52 28 3d b3 3d ac bb 34 69 c8 3a
       0.07241563 0.04109391 -0.0052563786 0.0015290142
000110 a9 0a 11 3c 80 ec 34 bb ed a0 eb bc 14 10 40 bd
       0.008852639 -0.0027606785 -0.028763259 -0.046890333
000120 c2 91 55 3d 38 c7 45 bd 13 4b cd 3a 12 0f 17 bc
       0.05214096 -0.048285693 0.0015662633 -0.009219902
000130 72 1a 1c bc 16 24 b2 bc e0 45 63 bc f2 e4 24 3d
       -0.009527789 -0.021745723 -0.01387164 0.0402574
000140 c9 d5 f6 bc cc 95 0d bb 84 e9 f3 bc d9 39 3d bc
       -0.030131238 -0.0021604178 -0.029774435 -0.0115494365
000150 97 eb 11 3d 75 3f 32 bc fe 59 26 bd cf a8 f4 bc
       0.035625067 -0.010879387 -0.040613167 -0.02986565
000160 14 d1 cc 3c 59 68 14 3d ad e7 87 3d b5 e9 b4 3c
       0.02500204 0.036232326 0.066359855 0.022084096
000170 b9 58 c4 bc d0 b9 2e 3c ee e5 8c bd 87 b9 7c bb
       -0.023968088 0.010664418 -0.06879793 -0.0038562731
000180 c8 6f bf bb 1c ff 2c bc 51 85 b6 bb 0a 9e 61 3d
       -0.005842183 -0.01055887 -0.005570092 0.05508236
000190 46 54 c4 bd 66 bd 71 bc 5f 7b 6a 3b cd 80 31 3d
       -0.095863864 -0.014754629 0.0035779101 0.043335725
0001a0 bb 33 1c 3d 86 58 81 3d 88 3c a3 bd dd 95 7e 3c
       0.03813527 0.06315713 -0.0797053 0.01553866
0001b0 e4 ba b4 bc b3 91 73 3c c9 13 01 3d e8 10 39 bc
       -0.022061773 0.01486628 0.03151301 -0.011295535
0001c0 f4 e7 c5 3c 77 b4 a9 bb 96 24 80 bc 81 ad 31 bd
       0.024158455 -0.005178984 -0.015642446 -0.043378357
0001d0 69 d8 13 bd 02 d4 4b 3d ef 6d 1a bb 79 30 14 3d
       -0.036095057 0.049762733 -0.002356406 0.03617904
0001e0 48 48 e7 bc 44 ae 9a bc 88 b7 07 3d 51 a1 0f bd
       -0.028232709 -0.018881924 0.033134013 -0.035065953
0001f0 64 6e 3b bd 16 0a db bc 63 db be bc a1 6d 25 3d
       -0.045759574 -0.026738208 -0.023297971 0.040387753

action_model._discrete_distribution.branches.0.weight f4 [3, 128]
000000 37 1b 96 bc 11 fe cf b9 4c 8f 03 3b ed 7c d8 bb
       -0.018323524 -0.0003967141 0.0020074425 -0.006606689
000010 1b d0 ee bc 23 f5 35 3d 3c 94 d2 ba 8d da 26 3c
       -0.029151967 0.044423234 -0.0016065906 0.0101839425
000020 4c 4d ea bc 12 60 72 bc 63 cc 07 3c b8 4f 30 3c
       -0.028601311 -0.014793413 0.008288476 0.010761194
000030 63 02 c3 3b a7 eb 1a bb 26 0e 66 bc bb 89 6e bb
       0.0059512123 -0.0023638995 -0.014041459 -0.0036398012
000040 6b 54 7d 3b 22 10 16 bd c6 76 b1 bb 09 9f 01 3d
       0.0038655053 -0.03663648 -0.00541577 0.03164581
000050 44 77 b3 bc 6b 8f 43 3d 11 2a 85 bc a5 83 df bc
       -0.021907456 0.047744196 -0.01625541 -0.027284453
000060 90 1e 21 bc c4 07 9f 3c 17 3d 8d 3d 74 5d 14 3b
       -0.009833947 0.019412883 0.068964176 0.002263871
000070 3b aa 2b 3c d7 61 3f 3b 80 de 59 ba cc 67 bd bb
       0.010477598 0.0029202604 -0.0008311048 -0.005780196
000080 f8 ef 47 bd be 47 88 bb 96 17 c4 3c 2d bd 1f 3d
       -0.048812836 -0.004158943 0.023937028 0.03899877
000090 e8 84 a9 3c 6d 9a 92 bb 3e 2b 5f bc 77 b3 13 3c
       0.020693257 -0.0044739754 -0.01362115 0.009014956
0000a0 5c 56 72 bc ba e4 b7 ba 77 28 96 3d 08 e5 4d 3d
       -0.0147910975 -0.0014029958 0.07331937 0.05026725
0000b0 0b 05 c5 3a 83 19 48 3b 43 e3 43 3b 6d 6d bc bb
       0.001503141 0.0030532784 0.0029890097 -0.0057503493
0000c0 82 4c fc 3b ca c7 05 bd d4 10 ac 3c 04 cc 95 bc
       0.00769955 -0.032661237 0.021004118 -0.018285759
0000d0 35 1e 86 3c 1a eb da 3c fa 2b 89 3b 83 9e 33 bd
       0.016371826 0.026723433 0.0041861506 -0.04385234
0000e0 f0 f7 47 bc 32 5c 5f 3b ce 8a 42 bd fd 00 99 bc
       -0.012205109 0.0034082052 -0.047495656 -0.018677229
0000f0 e0 c7 93 3c 65 61 84 bc 53 6f 23 3d 7d 02 19 3b
       0.018039644 -0.016159723 0.03990109 0.002334743
000100 f2 8a 15 3d 2f b3 27 3c 19 a7 ce 3c a5 36 42 3c
       0.03650946 0.010235592 0.025226163 0.011853849
000110 e2 36 02 3d 6a 68 ec 3b 64 c5 c1 bc fa fc 87 bc
       0.03179062 0.0072145956 -0.023653693 -0.01660012
000120 53 43 ed bc 15 dc 1e bd 04 3e cf 3b 40 d6 b4 3c
       -0.028962767 -0.038784105 0.0063245315 0.022074819
000130 55 6e 7a 3c c9 9e 92 3b a2 58 17 3d 41 31 7a 3c
       0.015285094 0.004474495 0.03694976 0.015270532
000140 87 16 88 3c 6a 55 ec ba d0 6e 66 3d 6a 2b 8e 3c
       0.016612304 -0.0018030826 0.056258023 0.017354686
000150 0c 9e 54 3d 74 ff c9 3c bb 81 3f bc 24 8a b8 bc
       0.051908538 0.024657942 -0.011688645 -0.022526808
000160 0e fc 40 3c 74 37 0b b9 14 3d 0c bd ab 9a 9c 3c
       0.0117788445 -0.00013276731 -0.034237936 0.01911672
000170 af 50 49 bc 1d 41 7d 3c da e7 41 bb 17 5a 07 3d
       -0.012287303 0.015457419 -0.0029587657 0.0330449
000180 d5 30 82 3d 02 2b 56 bc df 4e b6 bc 1d 90 0e bd
       0.0635697 -0.013071777 -0.022254406 -0.034805406
000190 07 c4 2a bd 88 54 80 bc 18 f8 6b 3c 59 ba a1 bb
       -0.041690852 -0.015665308 0.014402412 -0.0049355444
0001a0 6d 17 8c ba a4 a9 c2 3c 42 86 2d bc e3 41 af bc
       -0.0010688134 0.023762532 -0.010591092 -0.021393722
0001b0 26 66 c5 3c 42 39 e7 bc 4d 61 a7 bc f4 76 f2 3c
       0.02409656 -0.028225545 -0.020432139 0.029597737
0001c0 34 0a d3 bc fb 49 ba 3c 33 2b 01 bd 35 94 71 bd
       -0.025761701 0.022740355 -0.03153534 -0.058979232
0001d0 0a c3 18 bd d4 ad 81 bb 96 0e d1 3b e6 57 38 bd
       -0.03729538 -0.0039574895 0.0063799126 -0.0450057
0001e0 16 97 03 3c 54 98 5d 3c c6 33 13 3d 19 29 2d bd
       0.008031627 0.013525087 0.035938047 -0.042275522
0001f0 2f 1d 28 3d 5b 1c b1 3c 29 19 1f bd 2e 64 12 3d
       0.041043457 0.021619966 -0.038842354 0.03574007
000200 8a 76 bd bc 00 1a 08 bd fc 0e 6c bd 18 13 45 3d
       -0.023127813 -0.03322792 -0.057631478 0.048113912
000210 ea 2e 82 3c 62 f2 9c bd 08 cd 9e bc 24 87 02 bd
       0.015891511 -0.07663418 -0.019384876 -0.03186716
000220 27 7d 1d bd f5 e1 17 3d 66 2e 60 3d 19 a4 6c 3d
       -0.038449433 0.037080724 0.05473175 0.057773683
000230 dc df c5 bc 63 c1 b5 3c cf ce 89 3d 77 34 6f 3d
       -0.024154596 0.02218694 0.06728899 0.058399644
000240 9d 08 a6 3c 9c 47 15 bc 6b 46 d9 bc e0 df 10 bc
       0.020267779 -0.009111311 -0.026522836 -0.008842438
000250 55 63 0b 3d b9 19 0f bc d1 fb 36 3d 78 9e 0b bd
       0.034030277 -0.00873416 0.044673745 -0.034086674
000260 52 00 59 3d 06 b8 e2 bb 71 db db 3b 0f 98 86 3d
       0.05297882 -0.00691891 0.006709509 0.065719716
000270 6f 00 12 bd f7 2b 8f b8 83 4d a4 3c b6 fa c0 ba
       -0.035644945 -6.8269605e-05 0.020056492 -0.0014723155
000280 44 9a 54 3d d3 1b 00 ba d2 17 eb 3c 20 cc 05 3d
       0.05190493 -0.00048869586 0.028697882 0.032665372
000290 74 7f 22 3d 50 1b 1c bc ac df c5 3c 30 a7 9d bc
       0.03967233 -0.009527996 0.024154507 -0.01924476
0002a0 87 74 41 bc 01 9f c9 bb 7b 77 b8 bb d3 36 8b bc
       -0.011807567 -0.006152988 -0.0056294776 -0.016993916
0002b0 0f a5 60 bc fb 8a 94 3c 5c bd 9b 3d ff f0 07 3d
       -0.013711228 0.018132677 0.07604477 0.033188816
0002c0 d9 5d c3 bb e8 2b 77 3d b4 e6 0a bd e1 08 7a bc
       -0.0059621152 0.060344607 -0.033911422 -0.015260906
0002d0 ab f8 a5 bc 7d 24 2b 3d 34 6d 4c 3c 4e 9d 0c 3e
       -0.020260176 0.041782845 0.012477208 0.13731882
0002e0 cc 47 0e 3d 05 a2 98 3c d8 88 c9 bd 4e ad d2 3c
       0.03473644 0.018631944 -0.09840554 0.025717404
0002f0 62 20 87 3c be aa 6b bd cb 17 3b bc 1f 72 68 bc
       0.016494934 -0.05753588 -0.011419247 -0.014187365
000300 c4 d6 91 bd 45 22 0b bd 5a b9 60 bd f3 d5 84 bd
       -0.071210414 -0.03396823 -0.054864265 -0.0648612
000310 7c cd 64 bc 76 21 e5 3c 0d 06 14 3d 68 00 a4 3d
       -0.013965007 0.027970057 0.036138583 0.0800789
000320 58 c9 ba 3b 67 a1 d1 3d c1 3f cf bb 2e 77 99 bc
       0.0057002716 0.10235863 -0.0063247387 -0.018733587
000330 f6 c9 96 bb 3f cc 12 bd a2 cb 01 3d d6 16 c6 bc
       -0.0046017123 -0.035839316 0.03168834 -0.02418081
000340 2d 0b 08 3d c2 fc 4a 3c e6 92 22 3c 86 f3 e0 3c
       0.033213783 0.012389364 0.009922719 0.027459871
000350 6e 5b 7f bd 06 cb 9f 3d e7 62 3e bb 79 0f 7c bc
       -0.062343054 0.078023955 -0.002905065 -0.015384548
000360 eb e4 44 bd f4 8a bd bc 95 d4 70 bc 55 c9 c2 bc
       -0.048069876 -0.023137547 -0.014699121 -0.023777643
000370 67 30 ce 3b c3 cc 8d 3d da f1 ae 3c 8c cf 1c 39
       0.006292391 0.06923821 0.021355558 0.00014954637
000380 ce 45 31 bd bf 37 8d 3c bf b8 4d b7 8a 2d 22 bd
       -0.04327946 0.017238496 -1.2261967e-05 -0.03959421
000390 cf 36 db 3d 5b ae 0c bd 6e 2b 9d 3c a9 48 8e bb
       0.10703813 -0.034345966 0.019185748 -0.004342158
0003a0 51 6e 58 bd a3 6b 6b bc 16 45 2b 3d 27 38 4c ba
       -0.05283958 -0.014368924 0.041813932 -0.000779035
0003b0 9c 61 e0 bc c1 6d e7 bc a5 8a 99 3c 34 d1 a9 bc
       -0.027390294 -0.028250577 0.018742869 -0.020729639
0003c0 84 d2 95 3c ed 14 2a 3b 31 af 91 3d 3d 89 a7 3d
       0.018288858 0.0025952414 0.07113493 0.08180473
0003d0 fe 29 92 3d 18 75 5d bd 97 e1 b8 3d a1 a1 19 bc
       0.071369156 -0.054066747 0.09027403 -0.009376914
0003e0 c6 90 c1 bc 39 cb 00 bd bd cb 31 bd a4 e8 b6 3d
       -0.023628604 -0.03144381 -0.04340719 0.089310914
0003f0 0a 3b c0 3c d5 f6 d5 bb ed a9 0a bc e8 c9 11 bd
       0.023465652 -0.006529669 -0.008463365 -0.035592943

action_model._discrete_distribution.branches.0.bias f4 [3]
000000 5e 4e 69 3c 27 f5 80 bd 16 dc 44 3d
       0.014239876 -0.06296759 0.048061453

action_model._discrete_distribution.branches.1.weight f4 [2, 128]
000000 4e d8 66 bc 1e 7d b7 3c 4e a5 d2 bb 07 d5 5a bd
       -0.014089657 0.022398528 -0.0064283973 -0.053425815
000010 0f d6 7d 3d 6d fb 3d 3c 2f 87 2d bc ac a6 09 bd
       0.06197172 0.011595589 -0.010591312 -0.033606216
000020 30 da 94 3b 0e 61 6e bd b1 0e 03 3c 53 cd af 3c
       0.0045426115 -0.058198027 0.007999108 0.02146021
000030 73 14 63 3c 9f 45 36 bd 75 99 55 3c 13 46 be bc
       0.013859856 -0.04449999 0.013037075 -0.023226773
000040 f4 48 3e 3d f3 a4 9a bc 44 9a 86 3c 19 6a da bc
       0.046456292 -0.018877482 0.016430981 -0.02666192
000050 b4 9a c1 bb 23 1b 3e 3d 9a 2c 19 3d b3 7c 3e bc
       -0.0059083346 0.0464126 0.03739605 -0.01162641
000060 a7 18 d6 bc 18 8c 69 3d f3 3c 9c b9 7f 39 4b bc
       -0.026134802 0.05701837 -0.0002980005 -0.012403845
000070 33 2d af 3b 32 97 3d 3d d8 47 91 bc 06 47 79 3c
       0.0053459643 0.04628677 -0.017734453 0.015214687
000080 4a 5a be bd dd 77 6b 3c 18 42 db 3c fa a7 9e bc
       -0.09294565 0.014371839 0.026764914 -0.019367207
000090 08 3d 80 bb 26 ce 9b bc 25 69 03 3d 94 da f3 3c
       -0.0039135255 -0.019019198 0.032082696 0.029767312
0000a0 31 79 f8 3c c3 e1 28 3d 75 1e 5f 3d bd 8f 92 3c
       0.030331226 0.04123093 0.054472405 0.017890805
0000b0 13 46 37 3d 52 d7 b0 3c f8 ea 18 bc 62 b1 30 bc
       0.044744562 0.021587048 -0.009333365 -0.010784479
0000c0 64 52 96 bc fb 7e b7 bc 74 0b fd bc b3 4a 46 3d
       -0.018349834 -0.022399416 -0.03088925 0.048411082
0000d0 b0 86 8d 3c de af 56 bc 01 b8 1f 3c bb a1 d5 3c
       0.017276138 -0.013103453 0.00974846 0.026078096
0000e0 88 d9 00 3c 54 ef 51 bd bf d4 4d 3c c3 b1 cd bc
       0.0078643635 -0.05125363 0.01256293 -0.025109177
0000f0 78 48 40 3d 3b 21 83 bb 24 c7 14 3a 19 0a 71 bb
       0.04694411 -0.004001764 0.0005675426 -0.00367797
000100 47 13 59 3b ad c9 e0 3c 3d 9b 37 3d 56 a2 ab 3c
       0.0033123062 0.027439917 0.04482578 0.020951431
000110 05 53 19 3d 17 8a 73 bc 4f 5c 12 bd 5e 07 52 bc
       0.03743269 -0.014864466 -0.035732564 -0.012819139
000120 64 2f b3 bc f0 31 2f 3c b1 88 33 bd 1f 14 bc bc
       -0.021873184 0.010693058 -0.04383153 -0.022958813
000130 0c 10 d2 ba b8 3b 93 3c cc 61 71 bb b0 bb 35 bd
       -0.0016026511 0.017972812 -0.0036831973 -0.044368446
000140 d9 1e 3c bc 8b be b2 bc 37 8a 4b bb 5c 6c 3e bc
       -0.011481964 -0.021819374 -0.0031057724 -0.011622515
000150 1e 1b 0f 3d 59 1b 31 bc d7 c2 c1 bc 6b 44 a1 bc
       0.03493797 -0.010809743 -0.023652477 -0.019685945
000160 a5 aa 2f 3d 04 1a 1e bc 6e ed d2 3c 1f 36 11 bd
       0.04288735 -0.009649757 0.02574798 -0.035452005
000170 75 08 92 3c b9 c7 45 3a 13 a4 5c bc c7 ac eb 3c
       0.017826298 0.00075447146 -0.013466853 0.02876891
000180 0f eb a0 3c 37 5c 89 3b f8 bb 25 3d 9a 6d 1d bc
       0.019643335 0.004191901 0.040462464 -0.009608651
000190 e7 89 3e 3c dd 39 2d bb 80 25 58 3c 74 cb 62 3c
       0.011629558 -0.0026432194 0.013192534 0.013842452
0001a0 30 24 39 bc d5 be 43 3c 5e 94 5f bc f6 de 46 3d
       -0.011300132 0.011947353 -0.013646213 0.048552476
0001b0 91 8c 55 3d a1 83 a6 bc 25 9f 9a 3c cc 91 8e 3b
       0.052136008 -0.020326437 0.018874714 0.0043508764
0001c0 9f b3 ad bc 83 c3 22 bd ae b2 f8 bc 46 70 03 bc
       -0.021203814 -0.039737236 -0.030358639 -0.008022374
0001d0 06 d9 c1 bc fb c2 b6 3c bc ac 04 bc c7 b2 69 bc
       -0.023663055 0.02230977 -0.008097824 -0.014263815
0001e0 50 ea ac 3b be c5 ec bc 99 1a 80 3b d3 88 66 bd
       0.0052769557 -0.028902885 0.0039094207 -0.05628283
0001f0 79 93 ff bb 58 9b 21 bd 64 1b e9 bc 3f 5c 1d bd
       -0.0077995625 -0.039454788 -0.028455444 -0.03841805
000200 44 ab c0 bc 23 01 cc bc a3 5c d1 3c d3 80 37 3d
       -0.023519166 -0.024902886 0.025556868 0.04480059
000210 9a a6 1e bd 82 87 82 bc 54 90 a4 3c 38 cc ac 3c
       -0.038733102 -0.015933756 0.020088352 0.021093473
000220 09 e9 88 3b 6b 8e 66 3d 21 be e4 bc 12 c1 c1 bc
       0.0041781706 0.056288164 -0.027922692 -0.023651633
000230 4c fa bd 3b 16 2f 04 3d 6f db c2 bb 74 4e d3 3c
       0.00579766 0.032271467 -0.0059465687 0.025794245
000240 5a 20 33 bd df 01 b0 3b 3c 7b 02 ba 88 c3 0a 3d
       -0.043732025 0.005371317 -0.000497747 0.03387788
000250 d1 fc ec 3a 21 92 29 bd aa 79 5a bd 3e 99 ee 3b
       0.0018080716 -0.041399125 -0.053338684 0.0072814515
000260 17 a8 a5 3c ef e1 79 bd 29 57 38 3c 8e 55 6b 3c
       0.020221753 -0.061006483 0.011251249 0.01436366
000270 fd 32 3d bc 50 f5 4a bd 5c 11 86 3c 08 dd 9e 3c
       -0.011547801 -0.049550354 0.0163657 0.019392505
000280 83 33 b7 3d 08 cc 0e 3d c4 4c 1e bd 6c 35 95 3c
       0.08945372 0.034862548 -0.03864743 0.01821395
000290 d6 19 d4 bb dd 2c 8c 3c 2d 05 7f bc ce 9e 7e bc
       -0.0064728064 0.017111236 -0.015565199 -0.015540792
0002a0 2e ce 29 bd 60 69 6d bd 1f 3f 04 bd 6b 4d 95 bc
       -0.041456394 -0.05796182 -0.03228676 -0.018225392
0002b0 f4 8c 21 bd ed 98 42 bd 52 14 61 3b 6a ba 76 3c
       -0.039441064 -0.047509123 0.0034344387 0.015059093
0002c0 13 d4 a6 3c 7f ba e3 3c 0d 52 0d 3d 65 55 e3 bc
       0.020364797 0.02779889 0.034502078 -0.02775068
0002d0 a1 2b 8c bb 7c 3d ed 3c 6e 0a de ba 44 76 b5 bc
       -0.004277662 0.028959982 -0.0016940364 -0.02215112
0002e0 2d 27 17 3b 41 31 9a 3d 86 49 81 bc b3 ae f1 3c
       0.0023064122 0.07528926 -0.015782129 0.029502248
0002f0 c0 c2 57 bd ec 25 07 3c d4 15 02 3d 33 e6 99 3c
       -0.052675962 0.008248787 0.0317591 0.018786525
000300 81 29 1c bb 97 f1 02 bd 80 c2 32 bd e1 35 c7 bc
       -0.002382845 -0.03196868 -0.04364252 -0.024317684
000310 03 08 0b bd 99 75 c8 3c dd 24 06 3d 40 d7 97 3c
       -0.033943187 0.024470137 0.03275 0.018535256
000320 80 42 48 3c 06 da 3b 3c cf e6 ed 3c d3 4e 64 3c
       0.012222886 0.011465555 0.029040722 0.013934809
000330 8d 15 0c 3c 29 ba d9 bb 22 85 08 bc da 6a 43 3d
       0.00855006 -0.0066445065 -0.008332523 0.047709323
000340 7a 95 a0 3c 04 15 96 3c ba 25 f2 b9 c3 1d 43 3c
       0.019602526 0.018320568 -0.00046185945 0.011908951
000350 93 ba 2b bd 6e c5 24 3c ca 48 2d 3c 4d 39 20 3c
       -0.041925978 0.0100568365 0.010576436 0.009779287
000360 b6 36 b0 bc e2 09 1b 3d bb 7c 01 bc 07 2a 5d 3d
       -0.021510463 0.03785122 -0.007903273 0.05399516
000370 29 00 a9 bc 22 c9 41 3c 32 0c 11 3c 37 09 cd bc
       -0.02062996 0.011827739 0.008853005 -0.025028808
000380 6e 43 dd bc 65 4c 89 3c 6e 15 21 bd 6b 24 85 3c
       -0.027009692 0.01676006 -0.039327078 0.016252717
000390 f9 f8 23 bc 6c 99 ca 3c 7c a4 12 bc 54 94 aa 3c
       -0.01000809 0.02473136 -0.008950349 0.020822681
0003a0 f8 66 b0 ba 8e b3 84 3b 18 77 80 bb c5 ab 00 bd
       -0.0013458421 0.004049725 -0.003920447 -0.031413812
0003b0 10 22 53 bd ec ab 6a 3c 2b 6a d7 bc ac b1 06 ba
       -0.051546156 0.014323216 -0.026295742 -0.00051381695
0003c0 2a fd cb 3c 3f bd 2a 3d ce 56 b5 3c 27 24 04 bb
       0.024900991 0.041684385 0.022136118 -0.002016315
0003d0 a4 7c 44 bb 8e bf ff bc ad f0 58 3c 28 18 ee 3c
       -0.0029981518 -0.03121927 0.013240975 0.029064253
0003e0 c0 f3 04 bc b0 f0 26 3d 95 bf 71 bc 95 c5 4a 3d
       -0.008114755 0.04075688 -0.014755149 0.049504835
0003f0 3b 05 bb 3c 1e f7 2b 3d 68 4f 13 3d 1e 31 28 3d
       0.022829643 0.041983716 0.0359644 0.041062467

action_model._discrete_distribution.branches.1.bias f4 [2]
000000 83 9f 4d bc 87 9f 4d 3c
       -0.012550238 0.012550241
