results/Final_Train_2_0/Player/Player-148180.pt (torch, 890334 bytes, 72 tensors)

discrete_act_size_vector f4 [1, 4]
0	0x40400000	3.0
1	0x40000000	2.0
2	0x40400000	3.0
3	0x40400000	3.0

network_body.observation_encoder.processors.0.normalizer.running_mean f4 [14]
0	0xc0cc1f36	-6.37881
1	0xc0de2f12	-6.943246
2	0x3fdc462f	1.7208918
3	0x41f2ed3b	30.365835
4	0x410689e4	8.408665
5	0x40497e66	3.1483397
6	0xbf215c31	-0.630313
7	0xc0b4b972	-5.6476374
8	0x4069a73c	3.6508322
9	0x3f07b343	0.53007907
10	0xbf247e80	-0.64255524
11	0x40173294	2.362462
12	0x3bca1af2	0.006167763
13	0x00000000	0.0

network_body.observation_encoder.processors.0.normalizer.running_variance f4 [14]
0	0x4b765f5f	1.6146271e+07
1	0x438d7b94	282.96545
2	0x49593f82	889848.1
3	0x4b6c410b	1.5483147e+07
4	0x48cd2601	420144.03
5	0x48cf78a4	424901.12
6	0x4ad8254c	7.082662e+06
7	0x49ee915a	1.9543472e+06
8	0x4a292f01	2.7719042e+06
9	0x4bd6ad87	2.8138254e+07
10	0x498010c2	1.0491122e+06
11	0x49f193ad	1.9789976e+06
12	0x4394bb49	297.46317
13	0x3f800000	1.0

network_body.processors.0.normalizer.running_mean f4 [14]
0	0xc0cc1f36	-6.37881
1	0xc0de2f12	-6.943246
2	0x3fdc462f	1.7208918
3	0x41f2ed3b	30.365835
4	0x410689e4	8.408665
5	0x40497e66	3.1483397
6	0xbf215c31	-0.630313
7	0xc0b4b972	-5.6476374
8	0x4069a73c	3.6508322
9	0x3f07b343	0.53007907
10	0xbf247e80	-0.64255524
11	0x40173294	2.362462
12	0x3bca1af2	0.006167763
13	0x00000000	0.0

network_body.processors.0.normalizer.running_variance f4 [14]
0	0x4b765f5f	1.6146271e+07
1	0x438d7b94	282.96545
2	0x49593f82	889848.1
3	0x4b6c410b	1.5483147e+07
4	0x48cd2601	420144.03
5	0x48cf78a4	424901.12
6	0x4ad8254c	7.082662e+06
7	0x49ee915a	1.9543472e+06
8	0x4a292f01	2.7719042e+06
9	0x4bd6ad87	2.8138254e+07
10	0x498010c2	1.0491122e+06
11	0x49f193ad	1.9789976e+06
12	0x4394bb49	297.46317
13	0x3f800000	1.0

network_body._body_endoder.seq_layers.0.weight f4 [128, 14]
0	0xbd932846	-0.07185416
1	0xbe3c1114	-0.1836589
2	0x3e0d3f87	0.13793765
3	0x3ee90dab	0.4551824
4	0xbe014de9	-0.12627377
5	0x3cfbaf6a	0.030723292
6	0x3c5e107d	0.013553736
7	0x3e454e9f	0.19268273
8	0xbd95f75c	-0.07322571
9	0xbe47cc70	-0.1951158
10	0x3e3e6488	0.18593037
11	0xbf33cb4f	-0.702321
12	0xbe697ac3	-0.22800736
13	0xbea5444b	-0.32278666
14	0xbe7cedbe	-0.24700066
15	0x3d54f07d	0.05198716
16	0xbe93ae66	-0.28843993
17	0x3daacc8a	0.08339794
18	0xbe062599	-0.1310028
19	0x3e048d6b	0.12944572
20	0x3e74b126	0.23895702
21	0x3edcdd2f	0.431375
22	0xbe8ca6d0	-0.27471018
23	0x3ced4c7c	0.028967135
24	0x3da196d1	0.07890094
25	0x3f0a2356	0.5396017
26	0xbe95d72c	-0.29265726
27	0x3e118d44	0.14214045
28	0xbd896a7c	-0.067097634
29	0xbeee14a5	-0.46500126
30	0xbe282184	-0.16419035
31	0x3d282b1c	0.041056737
32	0xbedd0e98	-0.43175197
33	0x3ebc3bb4	0.367643
34	0x3e5c270f	0.21499275
35	0x3ec580b8	0.38574767
36	0xbc4f5794	-0.012655158
37	0xbe8b72c9	-0.27236012
38	0xbb914054	-0.0044327173
39	0x3e82f23f	0.25575444
40	0xbc81573d	-0.015788669
41	0xbecdad12	-0.40171105
42	0xbea3e26a	-0.32008678
43	0xbe54e3ef	-0.20790075
44	0x3da6948f	0.08133804
45	0x3ed56424	0.41677964
46	0x3e3d66a0	0.1849618
47	0xbee13b1b	-0.43990406
48	0xbe23344c	-0.15937918
49	0xbd3ce466	-0.046116255
50	0x3e2dcc9b	0.16972582
51	0x3d876b46	0.06612258
52	0xbe70142a	-0.23445192
53	0x3e9b27ba	0.30303746
54	0x3deb1733	0.11479034
55	0xbdfcc50a	-0.1234227
56	0x3c1562e8	0.009117819
57	0xbe6d5ab4	-0.23179132
58	0xbe25fc7c	-0.16209596
59	0xbd9af504	-0.07566264
60	0xbe0e32be	-0.13886544
61	0x3d9c778f	0.076399915
62	0x3e664760	0.22488165
63	0x3e8165f6	0.25273103
64	0x3e40856e	0.188009
65	0xbe21710f	-0.15765785
66	0x3da47144	0.08029416
67	0x3dc42e80	0.09579182
68	0x3e3f2be0	0.1866908
69	0xbdf503d3	-0.1196362
70	0xbdacd646	-0.08439307
71	0x3d8e711e	0.06955169
72	0x3e880d4a	0.2657264
73	0x3e9deeb5	0.30846182
74	0x3e8fa72b	0.28057227
75	0xbed815a3	-0.42204008
76	0x3e87a7e4	0.26495278
77	0xbdf9b756	-0.12193172
78	0x3dfd7f4f	0.12377798
79	0xbe920374	-0.2851826
80	0x3e0c2fe9	0.13690151
81	0x3eb3f9e8	0.351516
82	0xbcd0f8e7	-0.02550931
83	0x3e975e4b	0.29564127
84	0xbba7d5ac	-0.005121907
85	0xbedd7c50	-0.43258905
86	0x3e36e9fb	0.17862694
87	0xbf192b00	-0.5983124
88	0xbda98a82	-0.082783714
89	0x3e1ced6d	0.15324946
90	0xbe1af8df	-0.15134
91	0xbe072e2c	-0.13201207
92	0x3ef03411	0.46914724
93	0x3c6670ad	0.01406495
94	0x3e587f36	0.21142277
95	0x3e0ad84d	0.13559075
96	0x3e5de097	0.21667705
97	0xbe97251f	-0.2952051
98	0xbe36dae6	-0.1785694
99	0xbd491ba6	-0.049098633
100	0xbe2a0263	-0.16602473
101	0x3ec10585	0.37699524
102	0x3dd15b5b	0.10222503
103	0x3ee6c160	0.45069408
104	0xbe370bf2	-0.1787565
105	0xbe9dac2c	-0.3079542
106	0xbb02e6d7	-0.0019974017
107	0xbe8651ca	-0.26234275
108	0xbef0febe	-0.47069353
109	0xbe26d610	-0.16292596
110	0xbe30a168	-0.17249072
111	0x3dfd3dfa	0.12365337
112	0xbbb08332	-0.0053867334
113	0x3df6d858	0.12052983
114	0xbd27f7a3	-0.04100765
115	0xbe4e7dae	-0.2016513
116	0x3df92d8c	0.121668905
117	0xbcf395af	-0.02973446
118	0xbebc7ff3	-0.36816368
119	0xbee867e9	-0.45391777
120	0x3dd5df6c	0.10443005
121	0xbe454941	-0.19266225
122	0xbdba9d93	-0.09112086
123	0xbdc592dd	-0.096471526
124	0xbd21fa7d	-0.039545525
125	0x3e5fc409	0.21852125
126	0xbe8aea7a	-0.27132016
127	0xbe36cbb8	-0.1785115
128	0x3e2da7a9	0.16958489
129	0x3dcedbf8	0.101005495
130	0xbef066b1	-0.46953347
131	0xbe219256	-0.15778479
132	0x3e8be95d	0.2732648
133	0xbe14da1f	-0.14536332
134	0xbcb674c5	-0.022272477
135	0xbeaf8c5d	-0.34286776
136	0x3d3be2db	0.045870643
137	0x3eeeced2	0.46642166
138	0xbe6c1e4b	-0.23058431
139	0xbde82004	-0.113342315
140	0xbe92a8a5	-0.2864429
141	0xbe68129f	-0.22663353
142	0x3eb23cfe	0.34812158
143	0xbcaa0ecf	-0.020759014
144	0x3e5a89a2	0.21341565
145	0xbebc07e4	-0.3672477
146	0xbe6cb54e	-0.23116037
147	0xbe5a6ffd	-0.21331783
148	0x3f016512	0.50544846
149	0x3e679ee1	0.22619201
150	0x3e08b910	0.13351846
151	0x3de1ef43	0.11031964
152	0xbe590351	-0.21192671
153	0x3e79a511	0.24379374
154	0xbee9b23c	-0.45643795
155	0x3f1d4713	0.61436576
156	0x3ee88a37	0.4541795
157	0xbcf602ad	-0.030030573
158	0x3ed5c693	0.41753063
159	0x3e88e3a9	0.2673619
160	0x3daa5233	0.083164595
161	0xbe510736	-0.20412907
162	0xbe03a7bc	-0.12856954
163	0x3ea0331f	0.31289002
164	0x3efaafe6	0.48962325
165	0x3e39cc39	0.18144311
166	0x3e27af24	0.16375405
167	0x3cfcf913	0.030880487
168	0x3e503b70	0.20335174
169	0xbea47616	-0.32121342
170	0xbdc13bce	-0.09435235
171	0xbd6b756b	-0.057485025
172	0xbea491c8	-0.32142472
173	0x3e8ac2b8	0.27101684
174	0x3e0177a9	0.12643303
175	0x3c53e680	0.012933373
176	0xbe5c9ff7	-0.21545397
177	0xbee98d41	-0.4561558
178	0x3e75650d	0.23964329
179	0x3d88d37a	0.06680961
180	0xbdf28133	-0.11841049
181	0xbda935c9	-0.08262212
182	0x3ee32f02	0.44371802
183	0x3c233987	0.009962446
184	0xbe6ea190	-0.23303819
185	0x3ed2a941	0.41144755
186	0x3e3181d4	0.17334682
187	0xbdc2e85f	-0.095169775
188	0x3e36a843	0.17837624
189	0xbd6ca125	-0.057770867
190	0xbea5b678	-0.32365775
191	0xbe3d832e	-0.18507072
192	0xbd4e2826	-0.050331257
193	0x3e078477	0.13234125
194	0x3cdaccd2	0.026708994
195	0x3db0248d	0.086007215
196	0x3cc3d967	0.023907376
197	0x3e5c29fe	0.21500394
198	0x3eb11e55	0.34593454
199	0x3d0b66fb	0.034033757
200	0xbd856af0	-0.06514537
201	0x3e656ea3	0.22405486
202	0xbe339f01	-0.17541124
203	0xbf0fbae3	-0.5614454
204	0x3e9cdb40	0.30636024
205	0x3f2ca484	0.6743853
206	0xbe696035	-0.22790606
207	0xbe852f83	-0.2601281
208	0x3d201c7d	0.03908967
209	0xbe7d0ecb	-0.24712674
210	0x3d43a370	0.047763288
211	0xbf5185dc	-0.8184488
212	0x3e09bd85	0.13451202
213	0x3ea715d2	0.32633835
214	0xbce62d9e	-0.028097924
215	0x3e367abe	0.1782026
216	0x3e733ff1	0.2375486
217	0x3dfd33e1	0.12363411
218	0x3f139471	0.5764838
219	0x3e6ab19d	0.22919317
220	0xbe8226b7	-0.25420162
221	0x3f111fda	0.56689227
222	0xbc00de47	-0.007865495
223	0xbeabcd9e	-0.3355531
224	0xbebfa191	-0.37427953
225	0xbdc18588	-0.09449297
226	0xbd7068c4	-0.058693662
227	0xbcc45e2b	-0.023970684
228	0xbe3faa0d	-0.18717213
229	0x3e369373	0.17829685
230	0x3ce16fd3	0.027519142
231	0x3d9438ec	0.072374195
232	0x3ee3d9ba	0.4450205
233	0xbd6d952c	-0.05800359
234	0xbd170f8f	-0.036880072
235	0x3ef29fb3	0.47387466
236	0x3ed9db5f	0.4255018
237	0x3bf4f363	0.007475303
238	0xbeacedb9	-0.33775118
239	0x3eba8c3c	0.36435115
240	0x3f3190f2	0.69361794
241	0xbe6a8d7a	-0.22905532
242	0x3e999a2f	0.30000445
243	0x3e2b0bfb	0.16703789
244	0x3d3e4364	0.046450987
245	0x3eda7c0f	0.42672774
246	0xbef499d1	-0.47773603
247	0xbef3a730	-0.4758849
248	0xbe3545b9	-0.17702378
249	0xbee2dbea	-0.44308406
250	0xbeff29b8	-0.49836516
251	0x3ed39ebe	0.41332048
252	0x3ea402e3	0.32033452
253	0x3eb4a61c	0.3528298
254	0x3e2bbb35	0.16770633
255	0xbd27a1e4	-0.040925875

network_body._body_endoder.seq_layers.0.bias f4 [128]
0	0xbaea0d5b	-0.0017856763
1	0xbd02c137	-0.031922545
2	0x3c9db957	0.019253416
3	0x3b12a9ad	0.0022378967
4	0xbce5d19a	-0.028054047
5	0xbc86ea50	-0.01646915
6	0x3d7e843d	0.06213783
7	0x3cd7f3bd	0.02636134
8	0x3c70f5e0	0.014707059
9	0x3ccea730	0.025226206
10	0x3d1d6281	0.03842402
11	0xbadf8a77	-0.0017054816
12	0x3d39a88f	0.045326766
13	0x3cbf5d60	0.023359954
14	0x3bbf62b7	0.005840625
15	0x3d2de197	0.042451467
16	0xba8131b3	-0.000985673
17	0x3d351e46	0.044218324
18	0xbcff16bc	-0.03113877
19	0x3dbb6604	0.09150317
20	0x3d832f65	0.06405524
21	0x3cf73b4d	0.030179644
22	0x3cada79f	0.021198092
23	0x3d4a4d9a	0.049390413
24	0xbc1c5dc2	-0.009543838
25	0x3d3c3344	0.04594733
26	0xbd0380d6	-0.03210529
27	0x3d95c666	0.07313232
28	0x3bf627fe	0.0075120917
29	0x3d812df5	0.06307594
30	0xbcb6ef30	-0.02233085
31	0x3d43bc22	0.04778684
32	0xbc285235	-0.010273506
33	0xbb29d23e	-0.0025912668
34	0x3c65a32a	0.014015952
35	0x3c9f7175	0.01946328
36	0x3d85dee4	0.06536654
37	0xb7938498	-1.758551e-05
38	0x3d1194f4	0.035542443
39	0x3d076fe2	0.033065684
40	0x3d130718	0.035895437
41	0xbcf76859	-0.030201124
42	0x3c0eea53	0.008722859
43	0x3bc98874	0.0061502997
44	0xbc98ba33	-0.018643474
45	0x3d973609	0.07383353
46	0x3d369f00	0.044585228
47	0x3d16655d	0.03671776
48	0xbcadb365	-0.021203706
49	0xbad3f0bf	-0.001616977
50	0x3ce943c8	0.028474703
51	0x3d43b769	0.047782335
52	0x3d83cce1	0.06435562
53	0xbc9601a7	-0.018311335
54	0x3ca85ce4	0.020552106
55	0x3da9560b	0.082683645
56	0xbc2618a1	-0.010137708
57	0x3c70b9eb	0.014692764
58	0x3d1d3d29	0.038388405
59	0x3d71d048	0.059036523
60	0x3c4426be	0.0119721275
61	0xbaf5eba6	-0.0018762245
62	0x3e02a13c	0.12756819
63	0xbb6ed049	-0.0036440066
64	0x3db90ea9	0.09035999
65	0x3bb5530a	0.0055335807
66	0xbd570863	-0.052498233
67	0x3cf04d21	0.029333653
68	0x3d319123	0.043351304
69	0x3d81caf6	0.0633754
70	0xbd360ebc	-0.044447646
71	0x3db75601	0.08951951
72	0xbc587db5	-0.013213565
73	0xbc95b52c	-0.018274866
74	0x3e0008cd	0.12503357
75	0xbc440ee4	-0.011966441
76	0x3d6b4d00	0.05744648
77	0x3c4d446d	0.012528521
78	0xbd346a09	-0.044046436
79	0xbce4044f	-0.027834086
80	0xbd393354	-0.045214966
81	0x3ca3f31d	0.020013386
82	0xbb9c615f	-0.0047723497
83	0xbc09435d	-0.008377877
84	0x3d36c82f	0.044624504
85	0x3c77023c	0.015076216
86	0x3d1ba7a2	0.038001664
87	0x3ccb35d2	0.024805937
88	0xbbfadd2c	-0.0076557603
89	0xbd0261a1	-0.031831387
90	0x3b34788b	0.002753767
91	0xbcc5fbe8	-0.02416797
92	0xbc2a8a10	-0.010408893
93	0x3c824bd8	0.015905306
94	0x3d7a1d6a	0.061063208
95	0x3c5d116b	0.013492922
96	0x3d875895	0.066086926
97	0xbceb04b2	-0.028688762
98	0xbc81e44d	-0.015855933
99	0xba9aeb67	-0.0011819423
100	0x3c783568	0.015149452
101	0x3ce9f79e	0.028560456
102	0x3d19b257	0.037523594
103	0xbd0e69bd	-0.03476881
104	0x3d5f5a7c	0.054529652
105	0xbd11a6b5	-0.035559375
106	0x3c95f9cc	0.018307589
107	0x3cea4384	0.028596647
108	0xbb4aee90	-0.0030964948
109	0x3d18906f	0.037247118
110	0x3b479091	0.0030451159
111	0x3d8e86cd	0.06959305
112	0xbd9410c6	-0.07229762
113	0x3db2404f	0.08703672
114	0x3c97da74	0.018536784
115	0xbd1eef8c	-0.03880267
116	0xbce1da9e	-0.027570065
117	0x3c9f8192	0.019470964
118	0x3ccf06a7	0.025271727
119	0xbc8432b9	-0.016137468
120	0xbcaa75ae	-0.020808067
121	0xbc91e01e	-0.017807063
122	0xbd0008f2	-0.03125853
123	0xbae632a2	-0.0017562697
124	0x3baa51f7	0.0051977593
125	0x3c6f731b	0.014614846
126	0xbcf37ea7	-0.029723478
127	0x3c71a041	0.01474768

network_body._body_endoder.seq_layers.2.weight f4 [128, 128]
0	0xbc363e69	-0.011123278
1	0xbd994ca7	-0.074853234
2	0x3d27f196	0.04100188
3	0x3e0698ab	0.13144176
4	0xbb87feb6	-0.004150237
5	0x3de1cd8e	0.110255346
6	0x3da50a4c	0.080586046
7	0x3c5557b8	0.013021402
8	0x3d1bb611	0.03801543
9	0x3e451c47	0.19249068
10	0x3bebf928	0.0072013326
11	0xbdd03350	-0.10166037
12	0xbe4fb5f3	-0.20284252
13	0x3e1f201d	0.15539594
14	0xbe241f20	-0.16027498
15	0x3e293413	0.16523771
16	0x3e2bd82a	0.16781679
17	0xbb39a766	-0.0028328537
18	0xbe7004eb	-0.23439376
19	0x3db2cf82	0.08730985
20	0xbc2ae9d9	-0.01043173
21	0x3e059656	0.1304563
22	0xbe3ed034	-0.1863411
23	0x3e563a98	0.20920789
24	0x3bbbef88	0.0057353415
25	0x3dbcf3e4	0.09226206
26	0xbd210935	-0.03931542
27	0x3d5f0030	0.05444354
28	0xbc4bf264	-0.012447927
29	0xba5ac717	-0.0008345707
30	0xbc95adf2	-0.01827142
31	0xbe72ab4f	-0.23698162
32	0xbda82a89	-0.08211238
33	0xbd36a71d	-0.044592965
34	0xbdbd93cd	-0.092567064
35	0x3b42e9b1	0.0029741342
36	0xbd37026f	-0.044680055
37	0x3e3f9a53	0.18711214
38	0xbc36b5cc	-0.011151742
39	0x3d5ca35a	0.05386672
40	0xbd44c83e	-0.04804253
41	0x3c2fac1d	0.010722187
42	0x3d0974f8	0.033558816
43	0x3e032da2	0.12810376
44	0xbd44d15d	-0.048051227
45	0xbe0b2bad	-0.1359088
46	0xbdd3f19a	-0.10348816
47	0xbe0f5a58	-0.13999307
48	0xba9c4fc8	-0.0011925632
49	0xbdbb010a	-0.091310576
50	0xbc865bce	-0.016401198
51	0xbd17781c	-0.03697978
52	0xbe06c6e8	-0.13161814
53	0x3d66ac55	0.056316692
54	0xbd9c1ff1	-0.0762328
55	0x3ca3ab48	0.019979134
56	0x3d5c8cb5	0.053845126
57	0x3decf863	0.115708135
58	0x3d588c18	0.05286798
59	0x3dc098d9	0.094041534
60	0xbdec0264	-0.115238935
61	0x3e15cdbd	0.14629264
62	0xbdae9007	-0.08523565
63	0x3db913b9	0.09036965
64	0x3e41d66b	0.1892945
65	0xbb65d188	-0.0035067517
66	0xbe01a7e5	-0.12661703
67	0x3dc5dd50	0.09661353
68	0xbdf64a01	-0.12025834
69	0xbe6381a7	-0.22217427
70	0xbd0adfb7	-0.033904757
71	0xbda48b1c	-0.080343455
72	0xbd68cb69	-0.056834612
73	0xbdb2eaa7	-0.08736163
74	0x3e464e89	0.19365896
75	0x3d37f5c9	0.044912133
76	0xbc9f63be	-0.01945674
77	0xbe049b70	-0.1294992
78	0x3da7024b	0.08154734
79	0x3db2ea50	0.08736098
80	0xbd5a00e5	-0.05322351
81	0x3e12ef21	0.14349033
82	0x3d0aab80	0.03385496
83	0x3d49ab9c	0.049235925
84	0x3d378081	0.044800285
85	0xbba42c85	-0.00501019
86	0x3dcb32e9	0.0992182
87	0x3c7a86d5	0.0152909355
88	0xbe340260	-0.17579031
89	0x3d3c5f11	0.0459891
90	0xbe566a21	-0.20938922
91	0x3d42676d	0.047461916
92	0x3dee9baf	0.11650788
93	0xbe066f17	-0.13128315
94	0x3d7762c8	0.06039694
95	0xbe09cc2a	-0.13456789
96	0xbdff8804	-0.12477115
97	0x3dc83c9e	0.09777187
98	0xbd7527e5	-0.0598525
99	0x3dae9898	0.08525199
100	0xbd52f3ee	-0.05150216
101	0xbe405993	-0.1878417
102	0xbe034fc0	-0.12823391
103	0x3cb2fee9	0.021850066
104	0xbdc35449	-0.095375605
105	0xbde990f8	-0.11404604
106	0x3cbbb237	0.022912128
107	0x3d6d8ae9	0.057993803
108	0xbe03d931	-0.1287582
109	0xbdf588d0	-0.119889855
110	0x3d47bbd4	0.04876311
111	0x3cf92e47	0.030417575
112	0xbda4587b	-0.08024689
113	0xbe1db021	-0.15399219
114	0x3d3a2bf5	0.045452077
115	0x3d1acbb0	0.037791908
116	0x3ceb60eb	0.028732738
117	0xbe36e001	-0.17858888
118	0xbdd183d9	-0.10230226
119	0xbdc3e63b	-0.09565397
120	0x3d099255	0.03358682
121	0x3d03eeab	0.032210033
122	0x3cd12e06	0.025534641
123	0xbdcac05b	-0.0989997
124	0x3da7dbd4	0.08196226
125	0xbca6f37a	-0.02037977
126	0x3dabcc94	0.083886296
127	0xbdd63d3f	-0.104609005
128	0xbd4fe0e5	-0.050751586
129	0x3e1e3b86	0.15452394
130	0x3e9a9ca2	0.30197626
131	0x3d1619fd	0.036645878
132	0x3df7df02	0.12103082
133	0x3d3fb2e8	0.046801478
134	0xbd10e56f	-0.035375055
135	0x3defed7f	0.11715221
136	0x3dc9a997	0.098468
137	0x3d636019	0.055511568
138	0xbdf7259e	-0.12067722
139	0xbe1dc73a	-0.1540803
140	0xbd5f2fce	-0.05448895
141	0x3e39d5d4	0.18147975
142	0xbcd23b21	-0.02566296
143	0xbcb2cd55	-0.021826426
144	0xbcea8d3a	-0.028631795
145	0xb8917f00	-6.9377944e-05
146	0xbdbbfa17	-0.0917856
147	0xbd8e1678	-0.06937879
148	0xbe05c7f0	-0.13064551
149	0x3e200ab5	0.15629084
150	0xbda31e8c	-0.07964811
151	0xbcbe3517	-0.023218675
152	0xbcf32674	-0.029681422
153	0x3daf46e5	0.08558444
154	0x3c8899c9	0.016674893
155	0x3c3280b6	0.010894945
156	0xbe197624	-0.14986473
157	0xbdf7854a	-0.1208597
158	0x3d9f8950	0.07789862
159	0x3d84699f	0.06465458
160	0xbcde07d6	-0.027103346
161	0xbda552a2	-0.080724016
162	0xbca3ee2d	-0.020011032
163	0x3dbae6ac	0.091260284
164	0xbd4eb39c	-0.050464258
165	0x3d87cf62	0.06631352
166	0xbda67823	-0.08128383
167	0xbd176a0d	-0.036966372
168	0x3d73e7d0	0.059547246
169	0xbd7adbfb	-0.061244946
170	0xbe489308	-0.19587338
171	0xbd67ef84	-0.056624904
172	0xbd16e20c	-0.03683667
173	0xbdadaf20	-0.08480668
174	0xbd2849c5	-0.041085977
175	0xbdeee0a6	-0.11663942
176	0x3ce894a5	0.028391192
177	0xbd3c6f1e	-0.046004407
178	0xbe25a7a2	-0.16177228
179	0xbca665b9	-0.020312177
180	0xbd89bb6f	-0.06725203
181	0xbdd5e97e	-0.10444926
182	0x3ce07334	0.027398683
183	0xbe084fcb	-0.13311689
184	0x3e1ed38a	0.15510383
185	0x3dddbf76	0.10827534
186	0x3d117a13	0.03551681
187	0xbcd3c90c	-0.025852703
188	0xbc8a6b20	-0.016896784
189	0x3e561397	0.2090591
190	0xbda12f35	-0.07870332
191	0x3cba60d2	0.022751246
192	0xbdce0c9d	-0.100609995
193	0x3dcbd879	0.09953398
194	0xbdeb8d82	-0.115016
195	0xbd301648	-0.04299
196	0xbdc6fd1d	-0.09716246
197	0x3e0835a2	0.1330171
198	0x3d102951	0.035195652
199	0xbe04c7da	-0.12966862
200	0x3d24d327	0.040240433
201	0x3e07bb14	0.13254958
202	0xbda232af	-0.079198234
203	0x3d808f2e	0.06277309
204	0x3d865f7a	0.065611795
205	0x3d920bb9	0.07131142
206	0x3911feff	0.00013923271
207	0x3e23dbf5	0.16001876
208	0x3e4dacd0	0.20085454
209	0x3e52f8d3	0.20602731
210	0x3d95b9ca	0.07310827
211	0x3e48beaa	0.19603983
212	0xbda2d5b9	-0.079509206
213	0x3e100970	0.140661
214	0xbe0613c6	-0.1309348
215	0x3c626cc2	0.013819875
216	0x3c21f7b9	0.009885722
217	0xbcac0a0d	-0.021000886
218	0xbd8611e8	-0.06546384
219	0xbd62fa90	-0.055414736
220	0xbba3dac4	-0.005000444
221	0x3d5a61fd	0.053316105
222	0xbc59460e	-0.013261331
223	0x3e1753ed	0.14778109
224	0x3dfe219b	0.124087535
225	0x3d7c547e	0.061604016
226	0xbd9c1195	-0.07620541
227	0x3da785d7	0.08179825
228	0x3ca0b13b	0.01961576
229	0x3d6ffc32	0.05859012
230	0x3e38dc84	0.1805287
231	0x3d5e41ba	0.0542619
232	0xbd18ec4c	-0.037334725
233	0x3d9084b8	0.07056564
234	0x3d937858	0.07200688
235	0xbd6ce5cb	-0.057836335
236	0xbc116590	-0.008874312
237	0xbde1f401	-0.11032868
238	0xbe748613	-0.2387927
239	0x3d12ddde	0.03585612
240	0x3e559157	0.20856224
241	0x3dad90f6	0.08474915
242	0xbd8dab83	-0.06917479
243	0x3ceb73ed	0.028741801
244	0xbd122553	-0.035680126
245	0x3abe5ff6	0.0014524448
246	0xbc5bcfd2	-0.013416247
247	0xbd0aa7ae	-0.033851318
248	0x3cf76e89	0.030204074
249	0x3df17ea2	0.117917314
250	0x3e719bda	0.23594609
251	0x3c953567	0.01821394
252	0xbd9a2dac	-0.075282425
253	0x3df8a494	0.12140766
254	0x3d617839	0.055046294
255	0x3c7cf30f	0.015438809

network_body._body_endoder.seq_layers.2.bias f4 [128]
0	0xbc3f3e8a	-0.011672625
1	0xbcab1e37	-0.020888431
2	0xbc843b8d	-0.016141677
3	0x3c9fd9ae	0.019512977
4	0x3ad427ed	0.0016186215
5	0xbd1be489	-0.038059745
6	0xbcbe3483	-0.023218399
7	0x3d141f9e	0.036162965
8	0x3c90bcfd	0.017668242
9	0xbbf807b6	-0.0075692786
10	0x3af4cb10	0.001867624
11	0xbc471fa2	-0.012153538
12	0x3d2a4417	0.04156884
13	0x3d24ae44	0.040205255
14	0xbbacf452	-0.0052781487
15	0x39c6e6ca	0.00037937454
16	0x3b943d4f	0.00452391
17	0x3cb6acfc	0.022299282
18	0xbd0a5d15	-0.033780176
19	0x3cd145df	0.025546012
20	0x3d538612	0.05164153
21	0x3d79e867	0.06101265
22	0xbbd263d8	-0.0064205937
23	0x3d389166	0.045060538
24	0xbcdb5747	-0.026775016
25	0x3c06c036	0.008224538
26	0x3c40b890	0.011762753
27	0x3c622cd6	0.013804635
28	0xbc089484	-0.00833619
29	0xbcaca182	-0.021073107
30	0xbcae67b0	-0.021289676
31	0xbc8a23c2	-0.016862754
32	0x3c84052f	0.016115753
33	0xbd63718d	-0.055528212
34	0xbd24ae34	-0.040205196
35	0x3bcfb32f	0.006338499
36	0xbbe4e045	-0.006984743
37	0xbc96f14d	-0.018425608
38	0xbce8c18b	-0.028412601
39	0xbca259a4	-0.019818135
40	0x3cfe4730	0.031039804
41	0x3ccc2d59	0.024923967
42	0x3c81e4d3	0.015856182
43	0xbc1e44c4	-0.00965995
44	0xbd0b9640	-0.034078836
45	0x3d85fcb0	0.06542337
46	0x3cccdcf7	0.025007708
47	0x3d442afa	0.04789255
48	0x3d90ff3d	0.07079933
49	0x3d47e30d	0.048800517
50	0xbb18d797	-0.002332186
51	0x3d184cbb	0.03718255
52	0xbd7a3def	-0.06109422
53	0xbd114e7f	-0.03547525
54	0xbbf4c4ee	-0.007469765
55	0xbcd68a8e	-0.026189115
56	0xbca97551	-0.020685824
57	0x3c277294	0.010220189
58	0xbd1f1f21	-0.038848046
59	0xbd9c0405	-0.07617954
60	0xbdbfd5dd	-0.09366963
61	0xbc7bea9c	-0.015375759
62	0xbd297932	-0.041375346
63	0xbd3d6fb6	-0.046249114
64	0xbd47df8f	-0.048797186
65	0xbcac97a0	-0.021068394
66	0x3d0f07bf	0.034919497
67	0x3cd85f69	0.026412683
68	0xbbe2ed42	-0.006925256
69	0xbbcf8f81	-0.0063342457
70	0x3ba4ce46	0.0050294725
71	0xbd820905	-0.063493766
72	0xbd0760bf	-0.03305125
73	0xbcf61ed4	-0.030043997
74	0x3c55c7b9	0.013048106
75	0x3cfbecd3	0.030752575
76	0x3d718f19	0.05897436
77	0x3d321db4	0.04348536
78	0xbccde020	-0.025131285
79	0xbd26a074	-0.040680364
80	0xbcb7ae42	-0.02242196
81	0x3ccb9a68	0.0248539
82	0xbb57d3de	-0.003293268
83	0xbbf8c9cd	-0.007592416
84	0xbc15fff1	-0.0091552595
85	0xbbd4b2b5	-0.00649103
86	0x3cca8635	0.024722198
87	0xbc68f8e8	-0.0142195
88	0x3c45711a	0.012050891
89	0xbd8c58d3	-0.068528794
90	0xbd106a89	-0.03525785
91	0xbd0035dd	-0.031301368
92	0x3b0baba2	0.0021312018
93	0xbd1072ff	-0.03526592
94	0xbd0d5c49	-0.034511838
95	0x3b516b53	0.003195484
96	0x3ce4e516	0.027941268
97	0xbd493f8d	-0.049132872
98	0x3c9ef2d6	0.019402903
99	0x3c7bb42e	0.015362782
100	0xbc883c8d	-0.016630435
101	0xbaf74400	-0.001886487
102	0x3ca6c072	0.020355437
103	0xbbeed5d1	-0.0072886725
104	0xbcf78c54	-0.03021828
105	0xbd21ddf5	-0.039518315
106	0x3bfafc6f	0.007659487
107	0x3b6eb70f	0.003642503
108	0x3d89cfd9	0.06729097
109	0x3cc042da	0.023469377
110	0xba8dd09c	-0.0010819617
111	0x3b6d36f9	0.0036196096
112	0xbd078ac0	-0.033091307
113	0x3bd98778	0.0066384636
114	0xbcdcd10a	-0.026955146
115	0x3d309562	0.043111213
116	0xbc555183	-0.013019922
117	0xbd06f50b	-0.032948535
118	0xbba60f76	-0.005067761
119	0xbd1022a4	-0.035189286
120	0xbb9cec1a	-0.0047888877
121	0x3dd6af0f	0.104826085
122	0x3cf8b5b9	0.03036009
123	0xbcee5c83	-0.029096847
124	0x3cf6f48f	0.030145911
125	0x3cad18ad	0.02112993
126	0xbd007d18	-0.0313693
127	0x3b0a587e	0.0021109874

network_body._body_endoder.seq_layers.4.weight f4 [128, 128]
0	0xbbacb621	-0.005270735
1	0x3cdfabdd	0.02730363
2	0xbd1c0d78	-0.038098782
3	0x3e24658d	0.16054364
4	0xbd44b5b5	-0.04802485
5	0x3e3df960	0.1855216
6	0x3ae8b7ad	0.0017754935
7	0x3db2d2f6	0.08731644
8	0xbdc019e7	-0.093799405
9	0x3d43af29	0.047774468
10	0xbe845385	-0.2584497
11	0x3c940ed3	0.018073475
12	0x3db953e4	0.09049204
13	0x3d24f49b	0.040272336
14	0xbdb73b4f	-0.08946859
15	0x3e0b3338	0.13593757
16	0xbe077dd9	-0.13231601
17	0xbd66fb4d	-0.056392003
18	0xbe0d73ea	-0.13813749
19	0x3e33f1ec	0.17572755
20	0x3dbe8df4	0.09304419
21	0x3d5755c6	0.052572034
22	0x3e6efb32	0.23338011
23	0x3e477324	0.19477516
24	0xbe147a92	-0.14499882
25	0x3c6cf0d2	0.014461713
26	0x3d8e25ae	0.069407806
27	0xbd6ff50f	-0.058583315
28	0xbe0284fc	-0.12746042
29	0xbc9d1caf	-0.019178716
30	0x3e390faa	0.18072382
31	0x3c4db81d	0.012556103
32	0xbbf7fa77	-0.0075676995
33	0x3c824baf	0.01590523
34	0xbc076cff	-0.008265733
35	0xbda30d53	-0.07961526
36	0x3df6dbd0	0.12053645
37	0xbc5b6847	-0.013391561
38	0x3dc0ee18	0.09420413
39	0xbdb69b43	-0.089163326
40	0x3de75e0e	0.112972364
41	0x3da51b29	0.08061821
42	0x3d97e3de	0.07416509
43	0x3dea234c	0.114325136
44	0xbca48dc0	-0.020087123
45	0x3d9ca78f	0.07649147
46	0x3d50d930	0.050988376
47	0xbdae0c3a	-0.08498426
48	0xbe49d920	-0.19711733
49	0x3c540c55	0.012942393
50	0x3d46c6fc	0.04852961
51	0x3d2bb601	0.04192162
52	0x3e07ca42	0.13260749
53	0x3d104ba0	0.03522837
54	0x3d5550c6	0.052078985
55	0x3e67f387	0.22651492
56	0x3d92199f	0.07133793
57	0x3cb119d5	0.021618763
58	0xbe05a79c	-0.13052219
59	0xbd81481f	-0.06312584
60	0xbda3b1a4	-0.07992867
61	0xbe28cf52	-0.16485336
62	0xbd2f1826	-0.04274764
63	0x3bb2dde5	0.005458581
64	0x3e19281d	0.14956708
65	0x3da6292e	0.08113323
66	0xbd2adf90	-0.041717112
67	0xbd9f4ec8	-0.07778698
68	0xbe126cf7	-0.1429938
69	0x3d93cd40	0.07216883
70	0xbd42dbac	-0.047572777
71	0xbc9e5528	-0.019327715
72	0xbcb86593	-0.022509372
73	0xbcbe7332	-0.023248289
74	0xbd7b7217	-0.0613881
75	0x3d883264	0.06650236
76	0x3d9887a1	0.07447744
77	0x3d0f626c	0.03500597
78	0x3e0d83f7	0.13819872
79	0x3def1d17	0.1167547
80	0xbdd021dc	-0.10162708
81	0xbd023231	-0.031786148
82	0x3da9e49f	0.08295559
83	0xbe0d09e2	-0.13773301
84	0xbd1accf2	-0.037793107
85	0xbdfe7c79	-0.12426085
86	0x3e4a94af	0.19783281
87	0x3d8e9bd1	0.06963313
88	0x3dcc9a54	0.09990373
89	0x3ddfd8be	0.10930012
90	0x3d238964	0.039925948
91	0xbd2fa3f2	-0.04288096
92	0x3e2a7dad	0.16649504
93	0x3cb22c03	0.021749502
94	0x3e226f68	0.1586281
95	0x3d5a3b75	0.05327936
96	0x3e5e9c56	0.21739325
97	0xbd5c8122	-0.05383409
98	0xbe7d539e	-0.24738929
99	0xbe8379dc	-0.2567891
100	0xbcc40dc6	-0.023932349
101	0x3d873b3f	0.06603097
102	0xbde6a9b1	-0.11262835
103	0xbde31651	-0.11088241
104	0xbdf959ba	-0.12175317
105	0x3d2272db	0.039660316
106	0x3d4ddadf	0.05025756
107	0x3cf54553	0.029940283
108	0x3d738c7d	0.059460152
109	0xbbb8ad7d	-0.005635916
110	0xbc850469	-0.016237454
111	0xbe1c326b	-0.15253608
112	0x3d8cdd48	0.068781435
113	0xbdf6c61f	-0.12049507
114	0x3dc987b8	0.098403394
115	0xbbbcc438	-0.005760696
116	0x3d10974b	0.035300534
117	0x3e03c2a1	0.12867214
118	0xbe27c5ad	-0.16384001
119	0x3e17aa5d	0.14811082
120	0xbd861f76	-0.065489694
121	0xbdbd2dd3	-0.09237256
122	0x3da4c894	0.0804607
123	0x3a538dd5	0.0008070146
124	0x3d04138f	0.032245215
125	0xbe0689a7	-0.13138448
126	0xbe37035a	-0.17872372
127	0xbd5ddbf6	-0.05416485
128	0xbe2de58d	-0.16982098
129	0xbc86a5c1	-0.01643646
130	0x3e049790	0.12948442
131	0xbded580a	-0.11589058
132	0x3c98078f	0.018558292
133	0xbdf2aff5	-0.118499674
134	0x3a883e01	0.0010394455
135	0xbdaf5199	-0.085604854
136	0x3debd641	0.11515475
137	0x3e7950b6	0.24347195
138	0x3c92a991	0.017903121
139	0xbd96490c	-0.07338151
140	0xbd9b5950	-0.075853944
141	0x3dbf8e78	0.09353346
142	0x3e39d0ab	0.18146007
143	0xbe0cc3a7	-0.1374651
144	0xbdc83639	-0.09775967
145	0x3da8a236	0.08234064
146	0xbdb2ee5d	-0.087368704
147	0xbdd09bc1	-0.10185958
148	0x3da4daa4	0.08049515
149	0x3ded64fb	0.11591526
150	0x3dafd2fd	0.08585165
151	0x3d9a316a	0.07528956
152	0xbde0477a	-0.10951133
153	0x3d3eb89c	0.046562776
154	0x3bcc3c51	0.006232776
155	0xbddc1ed3	-0.10748067
156	0xbe1a2d86	-0.15056428
157	0xbd2a9900	-0.04164982
158	0xbe8215f6	-0.2540738
159	0x3d02f514	0.031972006
160	0x3d9c5e1a	0.07635136
161	0xbde06269	-0.1095627
162	0xbe186166	-0.14880905
163	0x3dd47c66	0.103752896
164	0xbd3457be	-0.04402899
165	0xbb974ef1	-0.004617565
166	0xbde96b8f	-0.11397468
167	0x3d347194	0.04405363
168	0xbd08ec07	-0.03342822
169	0xbdca331e	-0.09873031
170	0x3b31d568	0.0027135257
171	0x3d06d541	0.03291822
172	0xba9aa875	-0.0011799472
173	0x3c6c6554	0.014428455
174	0x3e056ff0	0.13030982
175	0x3de2b106	0.11068921
176	0xbb9df4ee	-0.0048204577
177	0x3c7c7a51	0.015410022
178	0xbd573f1f	-0.05255043
179	0x3dd6896e	0.104754314
180	0xbdc3ed46	-0.09566741
181	0xbe055cdf	-0.13023709
182	0xbbee0278	-0.007263478
183	0xbb7dcd5d	-0.0038727142
184	0xbe21ba11	-0.15793635
185	0xbd4a27cc	-0.04935436
186	0x3dda61f6	0.10663216
187	0x3daeb15e	0.08529924
188	0x3da33387	0.079688124
189	0x3dac4632	0.08411826
190	0xbdce5180	-0.10074139
191	0xbe216126	-0.15759715
192	0xbe07da54	-0.1326688
193	0xbd46e6f2	-0.04856009
194	0x3d724515	0.059147913
195	0xbb77440c	-0.0037729768
196	0xbc345b19	-0.0110080475
197	0xbe03e310	-0.12879586
198	0x3c5ecd8e	0.013598813
199	0x3cc01f86	0.023452532
200	0xbcd0b1d6	-0.025475424
201	0x3da736cc	0.081647485
202	0xbc33b689	-0.010968813
203	0x3d806b3b	0.062704526
204	0x3dc015fa	0.09379192
205	0x3cc68918	0.024235293
206	0x3d150653	0.036382984
207	0xbe615c6f	-0.22007917
208	0x3cc572b8	0.024102554
209	0xbd7d5d0f	-0.061856326
210	0xbc82a8bc	-0.0159496
211	0xbddcdb4a	-0.107840136
212	0xbd998856	-0.07496707
213	0xbdfd69de	-0.12373708
214	0x3d2a9fd5	0.041656334
215	0x3e0ee7ab	0.13955562
216	0x3d0eb5b0	0.03484124
217	0xbd722b36	-0.05912324
218	0x3e0142fe	0.12623212
219	0xbda870b3	-0.08224621
220	0x3de3725e	0.11105798
221	0xbe0be433	-0.1366127
222	0xbdeaeebc	-0.11471316
223	0x3cca9a9d	0.024731928
224	0xbe01db27	-0.12681256
225	0xbd098f8e	-0.03358417
226	0x3e4d1c80	0.20030403
227	0x3dafbc09	0.08580787
228	0xbe6dacd1	-0.23210455
229	0xbe03c05f	-0.12866352
230	0xbdbce63d	-0.09223602
231	0xbe37b211	-0.1793902
232	0x3d66e75e	0.056372993
233	0x3d320e28	0.04347053
234	0xbd717472	-0.05894894
235	0xbd9cec67	-0.07662278
236	0xbdc3497f	-0.09535503
237	0xbdcae17e	-0.099062905
238	0xbdba6d4d	-0.09102879
239	0x3d7835ea	0.06059829
240	0x3e1e0ab6	0.15433773
241	0x3d9138dd	0.07090924
242	0xbd1bd2e7	-0.03804293
243	0xbcf76230	-0.030198187
244	0x3dbf7a3d	0.09349487
245	0xbc91d647	-0.01780237
246	0xbe050a73	-0.12992267
247	0xbbe8938c	-0.007097667
248	0xbdda0bed	-0.10646806
249	0xbddfe209	-0.10931785
250	0x3c90e373	0.017686581
251	0xbdd0d2a1	-0.10196424
252	0x3ade12bc	0.0016942839
253	0x3d0756d4	0.03304179
254	0xbd899412	-0.06717695
255	0x3c91a0af	0.017776815

network_body._body_endoder.seq_layers.4.bias f4 [128]
0	0x3b3e19dd	0.0029007115
1	0x3d028cfb	0.03187273
2	0x3d58cc5e	0.052929275
3	0xbcb7d9b9	-0.022442685
4	0x3c68f1e8	0.014217831
5	0x3d3e8352	0.046511956
6	0xbd0b0c77	-0.033947434
7	0x3d1225d8	0.03568062
8	0x3cdc185d	0.026867086
9	0xbcc6b1e9	-0.024254756
10	0xbcfc5f27	-0.03080709
11	0xbd598ee4	-0.053114787
12	0xbd03981b	-0.03212748
13	0xbb64698b	-0.0034852948
14	0xbcd79879	-0.026317822
15	0xbc144d38	-0.0090516135
16	0xbb1e6336	-0.002416802
17	0x3d8eae87	0.06966882
18	0x3c22146a	0.009892562
19	0xbbb7147f	-0.00558716
20	0x3cd1fab9	0.02563225
21	0x3cd3dd04	0.025862224
22	0xbd2afd9e	-0.041745774
23	0x3c4e5561	0.012593598
24	0xbccff5f5	-0.025385836
25	0xbd03dc62	-0.032192595
26	0x3bf28d48	0.007402096
27	0xbc960f52	-0.018317852
28	0x3d52e52b	0.051488083
29	0x3ce84544	0.02835334
30	0xbd099578	-0.03358981
31	0xbd28d825	-0.041221756
32	0x3bc79df1	0.006091826
33	0x3bd5a0f9	0.0065194336
34	0x3cd22825	0.025653908
35	0xbc5c1f2e	-0.013435168
36	0xbc43acc5	-0.011943047
37	0xbc75d6a1	-0.015004785
38	0x39250082	0.00015735815
39	0xbd7210d5	-0.059098084
40	0xbc90dc93	-0.017683303
41	0xbb7da4ff	-0.0038703082
42	0xba8b44d6	-0.0010625373
43	0x3d0015d8	0.03127083
44	0xbd2e3644	-0.04253222
45	0xbd275327	-0.040850785
46	0x3a83ce7f	0.0010056047
47	0xbc09de7a	-0.008414859
48	0x3d059cce	0.032620244
49	0xba8efccb	-0.0010909078
50	0x3cf09a3f	0.029370425
51	0x3cb30f7a	0.021857966
52	0xbd231b99	-0.03982124
53	0x3cb442a9	0.022004442
54	0x3c54731e	0.012966899
55	0xbd2eea3b	-0.04270385
56	0xbbc5b024	-0.0060329605
57	0xbcd4adc1	-0.025961759
58	0x3dd140a0	0.10217404
59	0xbcc624df	-0.024187503
60	0xbd72bf25	-0.05926432
61	0x3dac567d	0.08414934
62	0xbd058a05	-0.03260233
63	0xbd5a00b7	-0.053223338
64	0x3d915751	0.070967324
65	0x3d0107a0	0.031501412
66	0xbad89dfa	-0.0016526573
67	0xbbdcf0fe	-0.0067425957
68	0x3bcd4b04	0.006265046
69	0xbba83bf1	-0.0051340987
70	0xbbe9ea0d	-0.0071384967
71	0xbcf7778e	-0.030208375
72	0x3d7a425a	0.061098434
73	0xbd4f83df	-0.05066287
74	0x3c682b8f	0.014170541
75	0xbc439caa	-0.011939207
76	0xbc20c88c	-0.009813439
77	0xbcf4a4cc	-0.029863738
78	0xbcd843f0	-0.026399583
79	0x3d35048f	0.0441938
80	0xbc9b1b0c	-0.018933795
81	0x3c05903d	0.008152065
82	0xbcb69c30	-0.022291273
83	0xbc3cc391	-0.011521236
84	0x3cf98f94	0.030463971
85	0x3ac060fa	0.0014677339
86	0xbd31d44d	-0.043415356
87	0xbcebee92	-0.028800283
88	0x3bdc6349	0.006725703
89	0x3d2c865a	0.042120315
90	0x3d7e1582	0.06203223
91	0x3cc058e7	0.023479892
92	0xbc5d0ca7	-0.013491786
93	0x3cc887a3	0.02447874
94	0xbd9dca5d	-0.07704613
95	0xbbfbf7e7	-0.0076894644
96	0xbc0c2793	-0.008554357
97	0xbb143fba	-0.0022620992
98	0xbc8174ec	-0.015802823
99	0x3d4aec31	0.049541656
100	0xbdc0f649	-0.09421975
101	0xbc17f27b	-0.00927412
102	0xbb60fd6c	-0.0034330739
103	0x3d4b4428	0.049625546
104	0x3d04445f	0.032291766
105	0x3d6b29b0	0.057412803
106	0xbdb32648	-0.08747536
107	0xba9a7b40	-0.0011785999
108	0xbd03e5c7	-0.032201555
109	0x3c4a7b7a	0.012358541
110	0x3cfbbbc9	0.030729191
111	0xbc91cbd7	-0.017797394
112	0x3c92cb51	0.017919214
113	0xb9110ecd	-0.00013833791
114	0xbc82cc80	-0.015966654
115	0xbd5ce2eb	-0.053927343
116	0xbd381ef7	-0.044951405
117	0x3d0100bb	0.031494837
118	0x3c01b68e	0.00791706
119	0x3d0ade94	0.033903673
120	0xbd0dc9b8	-0.034616202
121	0xbca98e8f	-0.02069786
122	0x3d0175b8	0.031606406
123	0xbc9740c0	-0.018463492
124	0xbd471987	-0.04860833
125	0xbc93ce2b	-0.018042644
126	0xbca26205	-0.01982213
127	0x3d393afc	0.045222268

action_model._discrete_distribution.branches.0.weight f4 [3, 128]
0	0xbc3b228e	-0.011421813
1	0x394307d1	0.00018599561
2	0x394c0c40	0.0001945952
3	0xbc9332d8	-0.01796858
4	0xbc91f7cc	-0.017818354
5	0x3d178bb0	0.03699845
6	0xbbc9377c	-0.0061406475
7	0x3c703d41	0.014663042
8	0xbd0bcfa9	-0.034133587
9	0xbca7750e	-0.020441558
10	0x3c95cc03	0.018285757
11	0x3ca0ee84	0.019644983
12	0x3cebb443	0.028772479
13	0xbc3e215a	-0.011604631
14	0xbc66f2be	-0.01409596
15	0xbb06045e	-0.002044938
16	0x3c6f0916	0.014589569
17	0xbd0d7359	-0.034533832
18	0xbc07a866	-0.008279895
19	0x3cf5df70	0.03001377
20	0xbcf57eba	-0.029967654
21	0x3d4c7f41	0.049926046
22	0xbca6f85c	-0.020382099
23	0xb9965640	-0.0002867449
24	0xbcb86245	-0.022507796
25	0x3c98cd9c	0.01865273
26	0x3d8b7fc5	0.068114795
27	0x3b99cf2a	0.0046938853
28	0x3cbdd1c4	0.023171313
29	0x3cc6f591	0.024287017
30	0x3a16bcb9	0.0005750168
31	0x3cc763a7	0.02433951
32	0xbd3b8475	-0.045780618
33	0xbc166092	-0.009178298
34	0x3c9d9849	0.019237654
35	0x3d2b021f	0.04175007
36	0x3cb3a3a3	0.021928614
37	0xbc0f9b2b	-0.008765022
38	0xbba3fc45	-0.005004438
39	0x3c81ca0c	0.015843414
40	0xbc154392	-0.009110348
41	0x3c2bc173	0.010483134
42	0x3db88142	0.09009029
43	0x3d66052a	0.05615727
44	0x3ca30646	0.019900452
45	0x3c5a7d84	0.013335589
46	0x3b228fd7	0.0024804974
47	0xbc361c56	-0.011115154
48	0xbc1d8786	-0.009614831
49	0xbd5fdf9d	-0.054656614
50	0x3d065846	0.032799028
51	0xbca8c835	-0.020603279
52	0x3c3940c7	0.011306948
53	0x3c9be976	0.019032221
54	0xbb27c9a5	-0.0025602367
55	0xbd399cb3	-0.045315456
56	0xbcdd0ab1	-0.026982637
57	0xbc10382f	-0.008802458
58	0xbd500140	-0.050782442
59	0xbc88e3c5	-0.016710171
60	0x3cc8c601	0.024508478
61	0xbcb9a297	-0.022660537
62	0x3d2ea79f	0.042640325
63	0xb8edc407	-0.000113375536
64	0x3d328627	0.04358497
65	0x3c8dc21c	0.017304473
66	0x3d22de8e	0.039763026
67	0x3cb5460c	0.022128128
68	0x3d04b1ae	0.03239601
69	0x3c976606	0.018481266
70	0xbd2066c4	-0.039160505
71	0xbd2a4af9	-0.041575406
72	0xbcd70e33	-0.026251888
73	0xbd636bc2	-0.055522688
74	0xb9b6de11	-0.00034879197
75	0x3cc38e24	0.023871489
76	0x3cb9ffe0	0.022705019
77	0x3b92eecb	0.0044840327
78	0x3cac6782	0.02104545
79	0x3c581797	0.013189218
80	0x3c2fa507	0.010720498
81	0xbc0623d9	-0.008187258
82	0x3d565d41	0.052335028
83	0x3c815487	0.015787376
84	0x3d845a26	0.06462507
85	0x3cf6312b	0.030052742
86	0x3c88cde1	0.016699733
87	0xbc8ae663	-0.01695556
88	0x3bcb7006	0.0062084226
89	0x3ba06673	0.0048950254
90	0xbd1f1bf2	-0.03884501
91	0x3c8c9dc5	0.017165074
92	0xbcc6163b	-0.024180522
93	0x3c580acf	0.013186171
94	0xbc389e20	-0.011268169
95	0x3d1a9fb0	0.037749946
96	0x3d65cf41	0.056105856
97	0xbcb2780f	-0.021785764
98	0xbd303337	-0.043017592
99	0xbd1e3930	-0.038628757
100	0xbd36790b	-0.04454903
101	0xbd205302	-0.039141662
102	0x3cc0980d	0.023510003
103	0x3bb7de2c	0.0056112017
104	0x3a403dbd	0.00073334185
105	0x3c80072a	0.015628416
106	0xbbfb6803	-0.0076723113
107	0xbd2340bb	-0.039856654
108	0x3cd4045c	0.025880985
109	0xbcd3465b	-0.025790384
110	0xbd090063	-0.033447634
111	0x3ce3cc40	0.027807355
112	0xbcdf5459	-0.0272619
113	0x3d3b8b51	0.04578716
114	0xbcf25411	-0.029581102
115	0xbd74f218	-0.05980119
116	0xbd29dc73	-0.041470002
117	0xbc790ddb	-0.015201057
118	0x3be2a9fb	0.006917236
119	0xbd2a11af	-0.04152077
120	0x3c81b023	0.015831059
121	0x3c8cc627	0.01718433
122	0x3cfe21aa	0.031021912
123	0xbd84f95f	-0.06492876
124	0x3d311631	0.043234054
125	0x3c7cf0e4	0.015438292
126	0xbca6173b	-0.020274749
127	0x3cb26dec	0.02178093
128	0xbd2d7fde	-0.04235827
129	0xbd2d4e83	-0.042311203
130	0xbd87d170	-0.06631744
131	0x3d901c0c	0.070365995
132	0x3c2dd24c	0.010609221
133	0xbdb25f52	-0.08709587
134	0xbc890be0	-0.016729295
135	0xbd13a0b0	-0.036041915
136	0xbd4a037c	-0.04931973
137	0x3c8e574d	0.017375613
138	0x3d6b610b	0.057465594
139	0x3d79990b	0.06093697
140	0xbd13929e	-0.036028497
141	0x3cccd3ee	0.0250034
142	0x3da0c8f7	0.07850831
143	0x3d50a19e	0.05093538
144	0x3c42c716	0.011888286
145	0xbcaeffaf	-0.021362154
146	0xbd1c933c	-0.03822635
147	0xbca55062	-0.020179931
148	0x3d36534f	0.044513043
149	0xbbda0c0b	-0.0066542677
150	0x3d74de09	0.05978206
151	0xbd5b09ba	-0.053476073
152	0x3da2c696	0.079480335
153	0xbb8180af	-0.003952108
154	0x3c26af6e	0.010173662
155	0x3d5408be	0.05176615
156	0xbd24b174	-0.040208295
157	0xbb200945	-0.0024419588
158	0x3cc2d082	0.023781065
159	0xbc337383	-0.010952833
160	0x3d57d2f0	0.0526914
161	0xbc299f09	-0.010352858
162	0x3d484fb9	0.048904154
163	0x3d091342	0.03346563
164	0x3d3c2fc2	0.045943983
165	0xbb554a78	-0.0032545608
166	0x3cd4b2e4	0.025964208
167	0xbd085b3c	-0.033290133
168	0xbd071609	-0.03298
169	0xbc8b2ff5	-0.016990641
170	0xbbc4763a	-0.005995539
171	0xbc6fa141	-0.014625848
172	0xbcb29af2	-0.0218024
173	0x3cc65b22	0.024213377
174	0x3dbd9f72	0.092589274
175	0x3d35692d	0.044289757
176	0x3c808d73	0.015692448
177	0x3d88730f	0.06662571
178	0xbd4cc26c	-0.049990103
179	0xbcd0eeee	-0.025504556
180	0xbd16cf88	-0.03681901
181	0x3d70e965	0.058816332
182	0x3c801fae	0.015640106
183	0x3e17c76a	0.14822164
184	0x3d41358d	0.04717021
185	0x3cf6914a	0.030098576
186	0xbded2b1e	-0.115804896
187	0x3ce0a0ce	0.027420428
188	0x3c8601dc	0.016358308
189	0xbd7eeaff	-0.06223583
190	0xbc9b4037	-0.018951518
191	0xbc992e49	-0.018698828
192	0xbda157ad	-0.07878051
193	0xbd1151f8	-0.035478562
194	0xbda25bd2	-0.079276696
195	0xbdacb85a	-0.084336
196	0xbc34098a	-0.010988602
197	0x3c699a3c	0.014257964
198	0x3d64fc82	0.055904873
199	0x3de15feb	0.11004623
200	0x3c778d1a	0.015109325
201	0x3dfc58f7	0.12321656
202	0x3bebae1d	0.007192387
203	0xbcb11612	-0.02161697
204	0xbc7b5f23	-0.015342507
205	0xbd62017c	-0.055177197
206	0x3d09bded	0.033628393
207	0xbc9a88b1	-0.018864008
208	0x3d44db90	0.048060954
209	0x3ca56280	0.02018857
210	0x3ca308c4	0.01990164
211	0x3d1ea663	0.038732897
212	0xbd860568	-0.06544
213	0x3da74f1d	0.081693865
214	0xbd0f341e	-0.034961812
215	0xbcb5e343	-0.022203093
216	0xbd386f9b	-0.04502831
217	0xbc843aed	-0.01614138
218	0xbcb3a10e	-0.021927383
219	0xbc91d452	-0.017801438
220	0x3cfc0ce3	0.030767864
221	0x3da83fa5	0.08215264
222	0x3c640779	0.013917797
223	0xbb249741	-0.0025114568
224	0xbce13c60	-0.02749461
225	0x3ced4c9e	0.028967198
226	0x3bce2427	0.006290931
227	0xbd3dc0b0	-0.04632634
228	0x3de67a25	0.11253766
229	0xbd30afec	-0.043136522
230	0x3bdec91f	0.006798878
231	0xbc1a3ec7	-0.009414381
232	0xbd9016c9	-0.07035596
233	0x3b32e8a0	0.00272993
234	0x3d13e2d7	0.036105003
235	0xbb98cc7e	-0.0046630492
236	0xbcc49b0f	-0.023999719
237	0xbd404473	-0.04694028
238	0x3c91c39b	0.017793467
239	0xbc616e2f	-0.01375918
240	0x3c87851c	0.016542964
241	0xbbab8055	-0.005233804
242	0x3d90a97e	0.07063578
243	0x3db2493b	0.08705374
244	0x3d873851	0.066025384
245	0xbd5ff520	-0.05467713
246	0x3dc0ab5a	0.09407683
247	0xbcc593d7	-0.024118347
248	0xbd0a0172	-0.033692785
249	0xbd52ab1b	-0.05143271
250	0xbd380338	-0.044924945
251	0x3dc0b5e4	0.09409693
252	0x3cf68845	0.030094275
253	0xbbbb234e	-0.0057109958
254	0xbcb1231e	-0.02162319
255	0xbcec5f90	-0.028854162

action_model._discrete_distribution.branches.0.bias f4 [3]
0	0x3cc09793	0.023509776
1	0xbd740d0f	-0.059582766
2	0x3d0b7d5c	0.0340551

action_model._discrete_distribution.branches.1.weight f4 [2, 128]
0	0xbc502c37	-0.012705854
1	0x3cd29dec	0.025710069
2	0xbc4ec1b2	-0.012619423
3	0xbd52e0df	-0.051483985
4	0x3d37dbc9	0.044887338
5	0x3d0a166a	0.033712782
6	0xbc5866fb	-0.013208146
7	0xbd28ff9a	-0.041259386
8	0x3c34329f	0.010998397
9	0xbd3b9784	-0.045798793
10	0x3b5ed86d	0.0034003512
11	0x3cb70d68	0.02234526
12	0xbb8ae622	-0.0042388598
13	0xbd35f7c8	-0.044425756
14	0xbc102962	-0.008798929
15	0xbc7d96a3	-0.015477809
16	0x3d2e9290	0.04262024
17	0xbc83b470	-0.01607725
18	0x3b20afcb	0.0024518843
19	0xbcc73408	-0.024316803
20	0xbbefff6e	-0.0073241508
21	0x3d69d79b	0.057090383
22	0x3d12ec6a	0.035869993
23	0xbcde1edd	-0.027114326
24	0xbccb40d2	-0.024811182
25	0x3d523469	0.051319513
26	0xbb6466fb	-0.003485142
27	0xbc635ba6	-0.013876831
28	0x3b07d8e5	0.0020728644
29	0x3d5516c1	0.052023653
30	0x39e00329	0.00042726964
31	0x3ba61bd3	0.005069235
32	0xbdbeed20	-0.09322572
33	0x3c33516c	0.010944705
34	0x3c85fb0b	0.016355058
35	0xbcbe7b1e	-0.023252066
36	0xbc005fef	-0.007835372
37	0xbcc9b829	-0.024623947
38	0x3d087e04	0.033323303
39	0x3cdea14a	0.027176518
40	0x3ca1eb07	0.01976539
41	0x3d244b38	0.040110797
42	0x3d5e1cce	0.05422669
43	0x3c834327	0.016023232
44	0x3d152fc6	0.036422513
45	0x3c017abb	0.007902796
46	0xbc2f1a9f	-0.010687499
47	0xb9c2ca35	-0.0003715322
48	0xbcac55a2	-0.021036927
49	0xbc8c1fbd	-0.017104978
50	0xbd0c7805	-0.034294147
51	0x3d1e5f51	0.03866512
52	0xbb0059c7	-0.0019584761
53	0xbb89836e	-0.004196576
54	0x3b8bed9f	0.00427027
55	0x3c9fa7aa	0.019489128
56	0x3c099393	0.008397001
57	0xbd3e71dc	-0.046495304
58	0xbb0ceaf4	-0.0021502348
59	0xbcb1a546	-0.021685254
60	0x3d295c72	0.04134793
61	0xbb2d9475	-0.0026486192
62	0x3bc1c0f5	0.005912895
63	0xbc1a4bc4	-0.009417478
64	0xbb0cb95e	-0.0021472792
65	0x3c76262d	0.01502375
66	0x3d584997	0.052804556
67	0x3bbab07d	0.0056973086
68	0x3d1e913a	0.038712718
69	0xbc19668d	-0.009362829
70	0xbd1244a3	-0.03570999
71	0xbcdc7b25	-0.026914189
72	0xbd11ae84	-0.03556682
73	0xbb252a2d	-0.002520214
74	0xbd77eda4	-0.060529366
75	0xbc954982	-0.018223528
76	0xbc3cb5fa	-0.011517996
77	0x3d051276	0.03248831
78	0xbab9dc0b	-0.0014179958
79	0xbd4308c6	-0.04761579
80	0xbca8ab39	-0.020589458
81	0xbc764a44	-0.015032355
82	0xbbeb496c	-0.0071803834
83	0xbc9677b2	-0.018367622
84	0x3cd24ecd	0.02567234
85	0xbc804c13	-0.015661275
86	0xbce70d89	-0.028204696
87	0xbc8c8e08	-0.01715757
88	0x3d01e05b	0.031708103
89	0xba92aa1e	-0.0011189615
90	0x3cdccdc6	0.02695359
91	0xbd0e1105	-0.0346842
92	0x3cc71bc0	0.024305224
93	0xbbc8307a	-0.0061092945
94	0xbc083639	-0.008313709
95	0x3ce89f2f	0.028396217
96	0x3c9a7f6a	0.018859584
97	0x3be02913	0.006840834
98	0x3cd9d110	0.026588947
99	0xbca765b5	-0.02043424
100	0x3bbe7d16	0.0058132512
101	0xbbb2f689	-0.005461518
102	0xbb3be16f	-0.0028668304
103	0x3ba21d74	0.0049473587
104	0xbd0501d7	-0.032472458
105	0x3ca0ddf0	0.019637078
106	0xbc8c5c6a	-0.01713391
107	0x3d42a12e	0.047516994
108	0x3d78250a	0.0605822
109	0xbcd7c929	-0.026341038
110	0x3cd030c6	0.025413882
111	0x3b3235f7	0.002719281
112	0xbca63d8d	-0.020293022
113	0xbd2787dc	-0.04090105
114	0xbce5323d	-0.027978057
115	0xbc5525e6	-0.013009524
116	0xbcbfa583	-0.023394352
117	0x3cb7e84d	0.022449637
118	0xbbe53f72	-0.0069960887
119	0xbd054e14	-0.032545164
120	0xbb118850	-0.0022206493
121	0xbc914cae	-0.017736759
122	0x3c390a12	0.011293905
123	0xbd6926ac	-0.056921646
124	0xbaebce06	-0.0017990477
125	0xbd35b86e	-0.04436534
126	0xbd0aee4f	-0.033918675
127	0xbcd2668f	-0.02568367
128	0xbccc015d	-0.024902994
129	0xbce721f1	-0.028214427
130	0x3d020a09	0.03174785
131	0x3d2f8ca9	0.042858753
132	0xbcb158b8	-0.02164875
133	0xbd1bdb4e	-0.038050942
134	0x3cba0042	0.022705201
135	0x3ceb7e19	0.028746651
136	0xbb1543d9	-0.0022776036
137	0x3d33c4df	0.043888923
138	0xbcbf11d7	-0.023323936
139	0xbcc90120	-0.02453667
140	0x3cc3c25d	0.02389639
141	0x3d03e143	0.03219725
142	0x3c822a8f	0.015889434
143	0x3c93d3b9	0.018045293
144	0xbd2369f3	-0.039895963
145	0x3b287faf	0.002571087
146	0x3c5ce0db	0.013481344
147	0x3d012887	0.03153279
148	0x3b5347c6	0.0032238825
149	0xbd554e99	-0.05207691
150	0xbd54397b	-0.05181263
151	0x3cba86da	0.02276938
152	0x3c9ad03d	0.018898124
153	0xbd628a39	-0.0553076
154	0x3c6c8f05	0.014438395
155	0x3c81bbd0	0.015836626
156	0xbc07929b	-0.0082747
157	0xbd6274de	-0.055287234
158	0xbaeb6882	-0.0017960223
159	0x3cf1f990	0.029537946
160	0x3db7c659	0.08973379
161	0x3d1cd5a0	0.038289666
162	0xbce7526c	-0.028237544
163	0x3cb50889	0.022098796
164	0xbb272dd9	-0.0025509505
165	0x3cba16dd	0.02271598
166	0xbc89ac64	-0.016805835
167	0xbc542c4a	-0.012950012
168	0xbcfd0e27	-0.030890537
169	0xbd68d2d2	-0.05684168
170	0xbd033d78	-0.032041043
171	0xbc8600d9	-0.016357826
172	0xbcfeed57	-0.031119032
173	0xbd0a8be0	-0.0338248
174	0x3b9ce994	0.004788587
175	0x3b983eca	0.004646157
176	0x3cbcd745	0.023051867
177	0x3cb85b2f	0.022504417
178	0x3d1b445b	0.037906986
179	0xbc937e84	-0.018004663
180	0x3c750e10	0.014956966
181	0x3ca44665	0.020053098
182	0x3b77ff96	0.003784155
183	0xbc7ef852	-0.015562134
184	0x3ae87e50	0.0017737839
185	0x3d90729f	0.07053112
186	0xba8c1d1c	-0.0010689828
187	0x3cd5a23a	0.026078332
188	0xbd40d6be	-0.047079794
189	0x3be1f4c3	0.006895633
190	0x3cd86192	0.026413713
191	0x3cc8eab9	0.024525987
192	0x3b49a31c	0.0030767387
193	0xbca02cb3	-0.019552564
194	0xbd5370d8	-0.051621288
195	0xbc147f62	-0.009063574
196	0xbd104641	-0.03522325
197	0x3c9b63cc	0.018968485
198	0x3d060d31	0.032727424
199	0x3d05a760	0.032630324
200	0x3cd44eed	0.025916541
201	0x3cca2b38	0.024678811
202	0x3d3b5875	0.045738656
203	0x3c16b993	0.009199518
204	0x3c9744c1	0.018465402
205	0xbcad57af	-0.021159975
206	0xbc2da21a	-0.01059773
207	0x3d50b7f2	0.050956674
208	0x3ceb316a	0.028710086
209	0x3c3cf72f	0.011533543
210	0x3b6cc414	0.0036127614
211	0x3c98d061	0.01865405
212	0xbd05c6dc	-0.03266035
213	0x3c74423a	0.014908368
214	0x3c77de1a	0.015128637
215	0x3bed9961	0.00725095
216	0xbc294466	-0.010331249
217	0x3cf03154	0.029320396
218	0xbc153d9c	-0.009108927
219	0x3d5a04e9	0.05322734
220	0xbcde1371	-0.02710888
221	0x3c991eec	0.018691503
222	0x3b727971	0.0036998654
223	0xbcc9fbb3	-0.024656152
224	0xbcd6d7c1	-0.026225926
225	0x3c673284	0.014111165
226	0xbcd0840c	-0.02545359
227	0x3cddd342	0.027078275
228	0xbb895b29	-0.0041917753
229	0x3ce1afe7	0.027549697
230	0x3be8f2c6	0.007109019
231	0x3cf372b0	0.029717773
232	0x3ca26b36	0.019826513
233	0xbb6e8ca9	-0.0036399758
234	0xb9e2dfdd	-0.0004327287
235	0xbcf8dbe2	-0.030378286
236	0xbd75ba8c	-0.059992358
237	0x3ca69b7a	0.020337809
238	0xbd067de4	-0.032834902
239	0x3a92824b	0.0011177746
240	0x3cc48719	0.0239902
241	0x3d2f8193	0.04284818
242	0x3ca1d678	0.019755587
243	0x3b42b250	0.0029708333
244	0xbb561854	-0.003266831
245	0xbd007276	-0.03135916
246	0x3c46e38a	0.0121392105
247	0x3d41ed70	0.04734558
248	0xba21c89e	-0.0006171557
249	0x3cf26855	0.029590765
250	0xbcb55e36	-0.02213965
251	0x3d4d6371	0.050143663
252	0x3c89dd56	0.016829174
253	0x3d40142d	0.04689424
254	0x3d29affd	0.0414276
255	0x3ce81052	0.028328095

action_model._discrete_distribution.branches.1.bias f4 [2]
0	0xbcc499bd	-0.02399909
1	0x3cc499bd	0.02399909
