results/Hard_dmn/Player/Player-2332143.onnx (onnx, 161676 bytes, 17 tensors)

discrete_act_size_vector f4 [1, 4]
0	0x40400000	3.0
1	0x40000000	2.0
2	0x40400000	3.0
3	0x40400000	3.0

network_body.observation_encoder.processors.0.normalizer.running_mean f4 [19]
0	0xbfc56f68	-1.5424623
1	0xc0de2584	-6.9420795
2	0x4041f824	3.0307703
3	0x4174986e	15.287214
4	0x40b1b2f5	5.5530953
5	0x413dbd35	11.858693
6	0x40b95d36	5.7926283
7	0x40b4fc00	5.6557617
8	0xbf3e791c	-0.7440355
9	0xc0abfddf	-5.37474
10	0x401f69bc	2.4908285
11	0x3e207c53	0.15672426
12	0xbe94eece	-0.29088444
13	0x3dd4b08f	0.103852384
14	0xbf12d613	-0.573579
15	0xc0d35dae	-6.6051855
16	0x401a1470	2.4074974
17	0x40b9735b	5.7953315
18	0x3f08d6b0	0.5345259

network_body._body_endoder.seq_layers.0.weight f4 [128, 19]
0	0x3df65458	0.12027806
1	0xbf091b65	-0.53557426
2	0xbe6379bc	-0.22214407
3	0xbe4295f9	-0.19002523
4	0x3f00e4c2	0.50349057
5	0xbcfb556b	-0.030680379
6	0x3e1dfbc8	0.15428078
7	0xbd97ffa0	-0.074218035
8	0xbeadbb3f	-0.3393192
9	0x3cd50378	0.02600263
10	0x3edf10c7	0.43567488
11	0x3e82601b	0.25463948
12	0xbdf42525	-0.11921147
13	0x3da9740c	0.08274087
14	0x3e38330d	0.17988224
15	0x3c8f633a	0.01750337
16	0x3efbef0d	0.4920582
17	0xbd996bbf	-0.07491254
18	0x3ce72feb	0.028221091
19	0xbe51fbf6	-0.20506272
20	0x3dc4c78d	0.09608374
21	0x3d11d269	0.035601053
22	0x3e2047a5	0.1565233
23	0xbe9d8603	-0.30766305
24	0x3cb7f7b1	0.022456976
25	0x3d9737c4	0.07383683
26	0xbdbe9c47	-0.09307151
27	0xbed6184c	-0.41815412
28	0x3e806de2	0.25083834
29	0xbe09322e	-0.13398048
30	0xbdf77dba	-0.12084527
31	0x3dc7d08b	0.09756573
32	0xbe5f78b1	-0.21823384
33	0x3d6bef4b	0.057601254
34	0x3e2801e8	0.16406977
35	0x3f3b93af	0.7327222
36	0xbe86420d	-0.26222268
37	0xbe7fa919	-0.2496685
38	0x3e25b988	0.16184056
39	0x3eb9b5c9	0.36271504
40	0xbc9a019e	-0.0187996
41	0x3e89c53a	0.26908284
42	0xbe2bf0c0	-0.16791058
43	0xbf4e8b82	-0.8068162
44	0xbe8ac4aa	-0.27103168
45	0x3e7d6e8f	0.24749206
46	0x3d4cff7f	0.050048348
47	0x3e50e798	0.20400846
48	0x3d2c9ef0	0.042143762
49	0xbf29b369	-0.66289383
50	0xbbc2fab1	-0.005950295
51	0xbe02c848	-0.12771714
52	0xbe831da8	-0.25608563
53	0xbd119a76	-0.035547696
54	0x3e30539f	0.17219399
55	0x3ddddfd7	0.1083371
56	0x3d0dc9f5	0.03461643
57	0x3d08c839	0.033394072
58	0x3d429a22	0.047510274
59	0x3da30d11	0.079614766
60	0xbdc3e250	-0.0956465
61	0xbd438e82	-0.047743328
62	0xbddec388	-0.108771384
63	0x3e8ee22a	0.27906924
64	0xbdba564c	-0.09098491
65	0x3f0a4309	0.5400854
66	0x3d6247a5	0.055244107
67	0x3ee1e196	0.4411742
68	0x3cd48576	0.025942545
69	0xbda3b7aa	-0.079940155
70	0xbf220a75	-0.63297206
71	0xbe47fc4a	-0.19529834
72	0xbd9e9cf5	-0.07744781
73	0x3f344425	0.7041648
74	0x3da41e3f	0.080135815
75	0xbec3cc60	-0.38241863
76	0xbe091a15	-0.13388856
77	0x3e8be0a1	0.27319816
78	0x3ecd3d31	0.40085748
79	0x3f398b6a	0.72478354
80	0x3df89b99	0.12139053
81	0xbe188db4	-0.14897805
82	0x3d75655e	0.059911124
83	0x3c030382	0.007996442
84	0xbdde581b	-0.108566485
85	0x3e6e368f	0.23263
86	0x3e881ddc	0.2658528
87	0xbe847810	-0.2587285
88	0x3eca608b	0.3952678
89	0xbd335b5a	-0.04378829
90	0x3e1710ed	0.1475255
91	0x3d2e7b38	0.04259798
92	0xbeb9a764	-0.3626052
93	0x3eee1233	0.4649826
94	0x3d10e36a	0.03537313
95	0xbe3a512f	-0.18195032
96	0x3dc12c52	0.094322816
97	0x3e8e1bf6	0.27755708
98	0xbec2a7df	-0.380187
99	0xbe260a73	-0.16214924
100	0x3d6c93e0	0.057758212
101	0xbe11086c	-0.14163369
102	0x3e8f9d5a	0.28049737
103	0x3f1bb76b	0.6082675
104	0x3e94fc35	0.2909867
105	0xbded41a8	-0.115847886
106	0xbef7b00c	-0.483765
107	0xbea13a69	-0.31489876
108	0x3c83808a	0.016052503
109	0xbd52c7eb	-0.051460188
110	0x3e8526c7	0.26006147
111	0xbe8a2a5b	-0.2698544
112	0x3eb9a5a1	0.36259177
113	0xbea900dc	-0.33008468
114	0xbe6cfe26	-0.23143825
115	0xbdc1ef6a	-0.09469493
116	0xbd8efc48	-0.069817126
117	0xbee6cf74	-0.4508015
118	0xbf498ca8	-0.7873025
119	0x3c425cc2	0.0118629355
120	0xbd4b93d6	-0.049701534
121	0xbe39ed1b	-0.18156855
122	0xbe1ed031	-0.15509106
123	0x3e3f1cf8	0.18663394
124	0x3d86bb91	0.06578744
125	0x3ee2705c	0.44226348
126	0x3e69b186	0.22821626
127	0x3eb46cb8	0.35239196
128	0x3ece541f	0.40298554
129	0xbf0be09a	-0.5463959
130	0xbda9d777	-0.0829305
131	0x3da8ecc9	0.08248288
132	0xbe9bc617	-0.30424568
133	0xbc8c42a7	-0.017121626
134	0x3e5b231c	0.21400112
135	0xbe194dfa	-0.14971152
136	0x3dd23d2e	0.10265575
137	0xbe80dd7a	-0.25168973
138	0xbd843aef	-0.06456553
139	0xbefe0f02	-0.49620825
140	0x3ebef5a4	0.37296784
141	0x3e24c91f	0.16092347
142	0x3ebe72f7	0.37197086
143	0xbd76ad17	-0.060223665
144	0xbee6507b	-0.44983277
145	0x3e2b17c7	0.16708289
146	0x3d236b1b	0.039897066
147	0x3eb9ec17	0.36312935
148	0x3dc90757	0.09815853
149	0xbc9a6a4d	-0.018849516
150	0x3ec65940	0.38739967
151	0x3e890fa3	0.26769742
152	0x3d91cc69	0.07119066
153	0x3e992538	0.29911208
154	0xbee878ab	-0.45404562
155	0x3e0b2a63	0.13590388
156	0xbd8cca5b	-0.06874534
157	0xbe97cbbb	-0.29647622
158	0xbeb11fbb	-0.3459452
159	0x3d81ca46	0.06337409
160	0x3edc60b6	0.43042535
161	0xbdfcdb51	-0.12346519
162	0x3f3b80e3	0.7324354
163	0x3e90340b	0.28164706
164	0x3f02547e	0.50910175
165	0x3d963924	0.073351175
166	0xbdf57aed	-0.11986337
167	0xbe313763	-0.17306285
168	0x3eec513e	0.46155733
169	0xbdd83bea	-0.10558303
170	0x3ba3b584	0.0049960036
171	0x3e05a433	0.13050918
172	0x3ef8a256	0.48561352
173	0x3da7c9c3	0.0819278
174	0xbf2fdbf7	-0.68695015
175	0x3e855f06	0.2604906
176	0x3cf3eda3	0.0297764
177	0x3ea7e126	0.32788962
178	0x3d58993f	0.052880522
179	0xbec49cc3	-0.3840085
180	0xbd8d2cea	-0.06893332
181	0xbcf58ee1	-0.029975357
182	0xbef0b5b5	-0.4701363
183	0x3c23a505	0.009988074
184	0xbeea9f0b	-0.45824465
185	0x3e0ee686	0.13955125
186	0x3dcb58bb	0.09929033
187	0xbe3f00fe	-0.18652722
188	0x3f54799e	0.82998073
189	0x3e83155b	0.2560223
190	0x3df43eb8	0.11926025
191	0x3d6623ee	0.05618661
192	0xbf2e5cc1	-0.6811028
193	0x3eb06156	0.3444926
194	0xbee317f9	-0.44354227
195	0xbe5f70af	-0.21820329
196	0x3eefeb38	0.46859145
197	0x3daeaee0	0.085294485
198	0xbe7cbf32	-0.2468231
199	0xbed303e8	-0.41213918
200	0x3d2d54e9	0.042317305
201	0x3dbef89f	0.093247645
202	0xbf12e905	-0.5738681
203	0xbe1432f5	-0.14472564
204	0x3e14bd34	0.145253
205	0x3d87050f	0.06592762
206	0x3ece8e97	0.40343162
207	0xbeceb413	-0.4037176
208	0xbe53af72	-0.20672396
209	0xbe18c769	-0.14919819
210	0xbe84fe8f	-0.25975463
211	0xbeaa6b2f	-0.332849
212	0x3e2ff125	0.17181833
213	0x3e158ebf	0.14605235
214	0x3e9f73f1	0.31143144
215	0x3d0ecd2c	0.034863636
216	0x3cdeeb15	0.027211705
217	0xbdf49af5	-0.11943618
218	0x3d774340	0.06036687
219	0x3eedc107	0.4643633
220	0xbe57f389	-0.21088995
221	0x3f0533b5	0.52032024
222	0xbeef5e29	-0.46751526
223	0x3e4d4829	0.20047058
224	0xbe49c58d	-0.19704266
225	0x3ea68317	0.3252189
226	0xbe3c0cee	-0.18364307
227	0xbcdc7831	-0.02691278
228	0x3c62d4be	0.013844667
229	0xbe87cdf4	-0.26524317
230	0xbe0061c3	-0.12537293
231	0x3ec9a329	0.39382294
232	0x3e057c43	0.13035683
233	0xbe45270d	-0.19253178
234	0xbe7b8e40	-0.24565983
235	0x3e1ce3c4	0.1532126
236	0x3d10c6af	0.03534573
237	0xbdb27fda	-0.08715792
238	0xbeab30cd	-0.3343567
239	0xbe8efb31	-0.2792602
240	0xbdc1285f	-0.09431528
241	0x3e203202	0.15644076
242	0x3e2bead2	0.16788796
243	0xbe21f9ee	-0.15817997
244	0xbec3b182	-0.38221365
245	0xbeeacec9	-0.4586089
246	0xbe80070a	-0.2500537
247	0x3e4f3041	0.20233251
248	0xbe0928c3	-0.13394456
249	0xbf2b441d	-0.6690081
250	0xbd36e8b3	-0.044655513
251	0xbe9fae0c	-0.31187475
252	0xbe9c13df	-0.3048391
253	0xbe66d87f	-0.22543524
254	0xbd9f0c79	-0.07766051
255	0xbef732cd	-0.48280945

network_body._body_endoder.seq_layers.0.bias f4 [128]
0	0x3c082456	0.008309444
1	0xbd72cb96	-0.059276186
2	0x3d6180ac	0.05505435
3	0xbc1e98a6	-0.009679949
4	0x3dbf540b	0.09342202
5	0xbabce2d5	-0.0014410863
6	0x3e23dcdf	0.16002224
7	0xbba2e6d4	-0.0049713645
8	0xbd1ba8cf	-0.038002785
9	0x3d638f52	0.055556603
10	0xbe06775d	-0.13131471
11	0xbd19d780	-0.037559032
12	0x3e0c4b7b	0.13700669
13	0x3e0f9857	0.14022957
14	0xbd86a275	-0.06573955
15	0x3d802846	0.062576815
16	0x3d17448a	0.0369306
17	0x3e008bb7	0.12553297
18	0x3dda0758	0.10645932
19	0xbd3aea43	-0.045633566
20	0x3df8ced7	0.121488266
21	0x3c088b3c	0.008333977
22	0x3d02b161	0.031907443
23	0x3e225cdd	0.15855737
24	0x3e21568a	0.15755668
25	0xbd3490f7	-0.04408356
26	0xbe51f180	-0.20502281
27	0x3d2a8858	0.041633934
28	0xbc9c4057	-0.019073648
29	0x3e1e9f9d	0.15490575
30	0xbd157474	-0.03648801
31	0xbde26d14	-0.11055961
32	0x3e4c527e	0.19953343
33	0x3e053ebc	0.13012213
34	0x3e0c8240	0.13721561
35	0xbd6093ed	-0.054828573
36	0x3d1803a1	0.037112836
37	0x3e2ad607	0.16683207
38	0x3cad549b	0.021158507
39	0x3d4aa36b	0.049472254
40	0x3e2a3b69	0.16624226
41	0xbe062015	-0.13098176
42	0xbdb372e7	-0.0876215
43	0xbda59b18	-0.080862224
44	0x3de79d34	0.11309281
45	0x3b924203	0.0044634356
46	0xbc4b2882	-0.0123997945
47	0x39872ac9	0.00025781084
48	0x3cf3604a	0.029709
49	0xbd3ed98f	-0.0465942
50	0xbda2b5cf	-0.079448335
51	0xbce434b4	-0.027857162
52	0xbd9bc721	-0.0760634
53	0x3cbb138d	0.022836471
54	0xbe65e3dc	-0.22450203
55	0x3d71471d	0.05890571
56	0x3df5e4b1	0.1200651
57	0x3d8a13d2	0.06742062
58	0xbb9495de	-0.004534467
59	0xbdaa99ad	-0.083300926
60	0xbd1b2dd5	-0.037885506
61	0x3e0af783	0.1357098
62	0xbdfd938e	-0.123816594
63	0x3c9cdb12	0.01914743
64	0x3df9d8b5	0.12199537
65	0x3d9a3e76	0.07531445
66	0xbd239edb	-0.03994642
67	0x3e049bfb	0.12950127
68	0xbd0c3c42	-0.034237154
69	0xbe4dd7b1	-0.20101811
70	0x3cf6722d	0.03008374
71	0xbd13ac7b	-0.036053162
72	0xbd8ca5d6	-0.06867568
73	0x3d45ab11	0.048258845
74	0x3e5535a9	0.20821251
75	0x3e127a8c	0.1430456
76	0xbd400f4d	-0.046889592
77	0xbd277cb6	-0.040890418
78	0xbd96839c	-0.07349321
79	0x3de22638	0.11042446
80	0x3e01fdab	0.12694423
81	0xbd874c31	-0.06606329
82	0xbdc47617	-0.09592836
83	0xbde2f0ae	-0.11081062
84	0x3e1cf9ac	0.15329617
85	0xbe48ce02	-0.19609836
86	0x3d9a9502	0.07547952
87	0xbc9c48d0	-0.019077688
88	0x3cbca639	0.02302848
89	0x3db8e28a	0.09027584
90	0xbd2b589f	-0.041832563
91	0xbdca8af5	-0.09889785
92	0x3cf3e8e0	0.02977413
93	0x3c2a1b1f	0.010382443
94	0xbc327560	-0.010892242
95	0xbd282e55	-0.04105981
96	0x3e365aa9	0.17808022
97	0x3d188ace	0.03724175
98	0xbe0d9d88	-0.13829625
99	0xbc94fc23	-0.018186634
100	0xbd25f510	-0.040516913
101	0x3b5acf89	0.003338786
102	0x3a0b099f	0.0005303863
103	0xbdab6111	-0.08368123
104	0x3dc32ac9	0.09529645
105	0x3e28ff00	0.16503525
106	0xbc373442	-0.011181893
107	0x3d8d606f	0.06903159
108	0x3ca17b40	0.01971209
109	0x3d91a99d	0.07112429
110	0xbe142ad9	-0.1446947
111	0x3d9f7827	0.07786589
112	0xbde73ff3	-0.11291494
113	0x3d3d4156	0.046204887
114	0xbe27da7c	-0.16391939
115	0x3ccad5ed	0.02476021
116	0xbde320ee	-0.11090265
117	0xbe4d454e	-0.20045969
118	0xbda344d6	-0.07972114
119	0x3d374cea	0.044751085
120	0x3e24fb31	0.16111447
121	0xbd211d09	-0.03933433
122	0xbc014b53	-0.007891494
123	0x3d386f40	0.04502797
124	0x3e1d4a42	0.15360358
125	0xbc426952	-0.011865931
126	0x3d1c0649	0.03809193
127	0x3e296efa	0.1654624

network_body._body_endoder.seq_layers.2.weight f4 [128, 128]
0	0x3daf7427	0.08567076
1	0x3e2fe126	0.17175731
2	0xbdfa8b60	-0.12233615
3	0x3dd9c0d0	0.10632479
4	0xbd280715	-0.04102238
5	0xbe9d1060	-0.30676556
6	0xbb7e6b67	-0.003882134
7	0x3e1b421f	0.15161942
8	0x3e43c91b	0.19119684
9	0x3e0129d2	0.1261361
10	0x3df745c4	0.120738536
11	0x3dde632d	0.1085876
12	0xbe132b93	-0.14372091
13	0x3e11b91c	0.1423077
14	0xbc369ce5	-0.011145805
15	0xbe4a8970	-0.19778991
16	0xbd991b77	-0.07475942
17	0x3cd08bb6	0.025457244
18	0x3de808ce	0.11329804
19	0x3e7ff28a	0.24994865
20	0xbe44af26	-0.19207439
21	0xbe08978b	-0.13339059
22	0xbebc1e02	-0.36741644
23	0xbc27afb6	-0.010234764
24	0x3dbb48b3	0.09144726
25	0x3d4a2b12	0.04935748
26	0x3d80c6ee	0.06287943
27	0xbca2d27e	-0.019875761
28	0x3d7ed575	0.062215287
29	0x3dbdc028	0.092651665
30	0xbe50ba61	-0.20383598
31	0x3dc1792e	0.09446941
32	0x3cfc7419	0.030817078
33	0xbd8b54a4	-0.06803253
34	0xbe75bd56	-0.23998007
35	0xbcff9990	-0.031201154
36	0x3dcd517a	0.10025306
37	0x3dfdd737	0.123945646
38	0xbef5dbc5	-0.48019233
39	0x3d97caf9	0.07411761
40	0xbd6ad555	-0.057332356
41	0x3e9da447	0.30789396
42	0x3db76f6b	0.08956798
43	0xbe0bdfd1	-0.13659598
44	0xbc4fdbec	-0.012686711
45	0x3ef68915	0.4815146
46	0x3d8ab21a	0.067722514
47	0x3e155533	0.14583282
48	0x3e65ab72	0.22428682
49	0xbd8f3bd7	-0.069938354
50	0xbd854072	-0.065064326
51	0x3e0c38d8	0.13693559
52	0xbeae3ca0	-0.34030628
53	0xbe11d4ec	-0.1424138
54	0x3e1a96c4	0.15096575
55	0x3eb496ad	0.35271206
56	0x3e9dbb6c	0.30807054
57	0xbd49cb75	-0.049266297
58	0x3f02cc4d	0.5109299
59	0xbe49f3c5	-0.19721897
60	0xbc9cee5f	-0.019156633
61	0x3e54b476	0.20771965
62	0x3e328d8b	0.17436807
63	0x3e1c7919	0.1528057
64	0xbc687681	-0.01418841
65	0x3e27595c	0.16342682
66	0x3e5b215e	0.21399447
67	0x3e5c4d8a	0.21513954
68	0x3cb0b17e	0.02156901
69	0x3d8e007a	0.06933685
70	0x3e5cd8b7	0.21567045
71	0x3d66a561	0.05631006
72	0x3d7594dd	0.05995642
73	0x3e2bf3c1	0.16792203
74	0xbe07ba14	-0.13254577
75	0x3e02ece9	0.12785687
76	0x3e826166	0.25464934
77	0x3e6b733e	0.2299318
78	0x3cdfb1c7	0.02730645
79	0xb8172244	-3.6033118e-05
80	0x3e4c3141	0.19940664
81	0x3db4bea0	0.08825421
82	0x3d9036fb	0.07041737
83	0xbea5d4f8	-0.32389045
84	0x3d7c9931	0.061669532
85	0x3d892f5e	0.06698488
86	0xbe201c22	-0.15635732
87	0x3e2a0124	0.16601998
88	0xbe69bdec	-0.22826356
89	0xbe2594b7	-0.16170011
90	0xbe2ca3f8	-0.16859424
91	0xbe97e9ae	-0.2967047
92	0xbde31383	-0.11087706
93	0x3e259413	0.16169767
94	0x3dc75cf6	0.09734528
95	0xbe478c8c	-0.19487208
96	0x3e48dc39	0.19615258
97	0x3e2d9882	0.16952708
98	0x3e243ee1	0.16039611
99	0x3e3abde1	0.18236496
100	0xbd307328	-0.04307857
101	0xbd346a07	-0.044046428
102	0x3dc163b6	0.094428465
103	0xbcf784c9	-0.030214684
104	0x3def85cf	0.11695444
105	0x3e2767c0	0.16348171
106	0xbd76b51d	-0.060231317
107	0xbe58b732	-0.21163633
108	0xbe72bb96	-0.23704371
109	0x3d85605e	0.06512521
110	0x3e2b7c5f	0.16746663
111	0xbe32f2d4	-0.17475444
112	0x3e10a61f	0.1412587
113	0x3e8a1bd4	0.26974356
114	0x3e9f48b9	0.3111017
115	0xbd9277fc	-0.071517915
116	0x3caf3539	0.021387683
117	0x3d72bc73	0.05926175
118	0xbc9c7649	-0.019099372
119	0xbe0bff34	-0.13671571
120	0x3c318b4a	0.010836432
121	0x3e7e4db3	0.24834327
122	0x3e17cb0e	0.14823553
123	0xbf105cef	-0.56391805
124	0xbe98664f	-0.29765555
125	0x3d159ba2	0.036525376
126	0x3c1f35aa	0.009717384
127	0xbe01253d	-0.12611862
128	0xbe5f61d2	-0.21814659
129	0x3e388999	0.1802124
130	0x3ddf0ce1	0.10891128
131	0xbc1b75dd	-0.00948855
132	0xbe3e7732	-0.18600157
133	0xbdfc57a0	-0.12321401
134	0x3e445143	0.19171624
135	0xbd46c63f	-0.048528906
136	0x3e1a9f7e	0.15099904
137	0xbe0a84a3	-0.1352716
138	0x3d79683a	0.060890414
139	0xbd528d30	-0.05140418
140	0xbe29c5cb	-0.16579358
141	0x3ccc8891	0.024967464
142	0xbc0fc38e	-0.008774651
143	0x3e12017d	0.1425838
144	0x3e5091dd	0.20368142
145	0x3dfd646e	0.12372671
146	0xbe09fcb4	-0.13475305
147	0x3eed0ed4	0.46300375
148	0xbd845454	-0.06461397
149	0x3e5ae4e9	0.21376385
150	0x3cad2284	0.021134622
151	0xbe052cff	-0.13005446
152	0x3de33016	0.11093156
153	0x3d17102b	0.036880653
154	0xbe6290e3	-0.22125582
155	0x3d5c5101	0.05378819
156	0xbde843c0	-0.11341047
157	0xbe8f6c4b	-0.28012308
158	0xbd48619a	-0.048921205
159	0xbd6c21dd	-0.057649482
160	0xbe370024	-0.17871147
161	0xbe8cf2db	-0.27529034
162	0xbe662e44	-0.22478586
163	0xbe49ba2a	-0.19699922
164	0xbe5700ac	-0.2099635
165	0xbd596085	-0.053070564
166	0x3db40e66	0.08791809
167	0xbcbfa912	-0.023396049
168	0x3e008edf	0.12554501
169	0x3dfc769e	0.12327312
170	0x3e4e6094	0.20154029
171	0xbdb1314f	-0.08651983
172	0xbd136903	-0.03598882
173	0xb8315dc8	-4.228743e-05
174	0x3d8873b4	0.066626936
175	0xbd4ae779	-0.049537156
176	0x3e8c5880	0.2741127
177	0x3e5e32de	0.21699092
178	0x3d8d61c9	0.06903417
179	0xbd8c8f1f	-0.06863236
180	0xbe62a021	-0.22131397
181	0xbef33879	-0.47504023
182	0xbd0872ea	-0.033312716
183	0x3e0480c4	0.12939745
184	0xbe20b228	-0.15692961
185	0x3d27b4d2	0.040943928
186	0x3aa0546f	0.0012232194
187	0x3e63d065	0.22247465
188	0x3e31ba71	0.17356278
189	0xbcdc11d5	-0.026863972
190	0xbdbd927e	-0.09256457
191	0xbe9dc470	-0.30813932
192	0x3d593ff1	0.053039495
193	0x3c64a6e2	0.013955804
194	0x3e9ca4b5	0.30594411
195	0x3cefac75	0.029257039
196	0x3e1127a6	0.14175281
197	0x3da00418	0.07813281
198	0xbe25b17a	-0.16180983
199	0x3e9a7479	0.30166987
200	0x3dbaf56e	0.09128843
201	0xbd330eb6	-0.0437152
202	0x3e60232e	0.2188842
203	0x3ef95fbc	0.48705852
204	0xbd0e119e	-0.03468477
205	0xbc00632c	-0.007836144
206	0x3e8606e3	0.2617713
207	0xbed732cf	-0.4203095
208	0xbf2933aa	-0.6609446
209	0x3d6d0ffd	0.057876576
210	0x3d907654	0.07053819
211	0xbd845df9	-0.06463236
212	0xbafda0d0	-0.0019350294
213	0x3d09e0fc	0.033661827
214	0x3d925357	0.07144802
215	0xbe50199a	-0.20322266
216	0x3d82dd16	0.06389825
217	0x3e0f1f5c	0.13976806
218	0xbe0d94b0	-0.13826251
219	0xbe0cab48	-0.13737214
220	0xbe9c462a	-0.3052228
221	0xbc569f24	-0.0130994655
222	0xbcd24846	-0.025669228
223	0x3d674e8c	0.056471393
224	0xbcfd3602	-0.030909542
225	0xbea681ff	-0.32521054
226	0x3df2f9a2	0.1186402
227	0xbe4667f1	-0.19375588
228	0xbded738f	-0.11594307
229	0xbe03b276	-0.12861046
230	0xbe99e133	-0.30054626
231	0x3dc6261d	0.09675238
232	0xbda48f47	-0.080351405
233	0xbe84c11a	-0.25928575
234	0xbda5a401	-0.08087922
235	0x3e4c605f	0.19958638
236	0x3c8a186b	0.016857347
237	0xbe8090a2	-0.25110346
238	0x3df5c3a9	0.1200021
239	0x3e2db426	0.16963252
240	0xbdcecaa5	-0.10097245
241	0xbe696e12	-0.22795895
242	0x3df71cfe	0.12066077
243	0xbd9e3e4f	-0.07726728
244	0x3dbc7425	0.0920184
245	0x3d62679d	0.055274595
246	0xbe2f5a9c	-0.17124408
247	0xbe47eb5f	-0.1952338
248	0x3d83be33	0.06432762
249	0x3d099008	0.033584625
250	0x3bcd4500	0.006264329
251	0xbca1014f	-0.019653944
252	0x3e12222a	0.14270845
253	0x3e95c987	0.29255316
254	0x3dde7017	0.10861223
255	0xbe52d40a	-0.20588699

network_body._body_endoder.seq_layers.2.bias f4 [128]
0	0x3d7fd132	0.062455364
1	0xbc92f187	-0.017937435
2	0x3ddf5ae3	0.10906007
3	0x3dbc65d0	0.09199107
4	0x3dd38736	0.10328524
5	0xbe03bb1b	-0.12864344
6	0xbd99aa1b	-0.07503148
7	0x3ce676a9	0.028132753
8	0xbd7f4a74	-0.062326863
9	0xbe280817	-0.16409336
10	0xbbca0e26	-0.0061662374
11	0x3d1c67f6	0.038185082
12	0x3c66e111	0.014091746
13	0xbc17f62e	-0.009275002
14	0xbd850662	-0.06495358
15	0xbd104e7a	-0.03523109
16	0x3d3d2d7c	0.046185955
17	0xbdba95c6	-0.09110598
18	0xbdb3c450	-0.08777678
19	0x3df9d29a	0.12198372
20	0xbd0b5fed	-0.03402703
21	0x3cf81323	0.030282563
22	0xbd90abb8	-0.07064003
23	0x3c2e09e2	0.010622473
24	0xbd6a333f	-0.05717778
25	0xbc5bfffc	-0.013427731
26	0xbd612959	-0.054971073
27	0x3d60ca3f	0.054880377
28	0xbdb950c5	-0.09048609
29	0xbd8901bb	-0.06689783
30	0xbe04fe28	-0.12987578
31	0xbe2087ba	-0.15676776
32	0xbc8dcdb7	-0.017310007
33	0x3bb9d20f	0.005670793
34	0x3be0c901	0.006859899
35	0xbe20d20a	-0.15705124
36	0xbd849bf2	-0.06475057
37	0x3d6d53e1	0.05794132
38	0x3cedda24	0.029034682
39	0xbddf3ce0	-0.10900283
40	0xbd3f31f7	-0.04667851
41	0x3d903f10	0.07043278
42	0xbd196eb3	-0.037459087
43	0xbd31ef3c	-0.043441042
44	0xbdaf330e	-0.0855466
45	0xbd1bc07a	-0.038025357
46	0xbca89725	-0.020579884
47	0x3ccea2ff	0.025224207
48	0xbe63f481	-0.2226124
49	0xbe10c784	-0.14138609
50	0xbc98eda4	-0.018668003
51	0xbd9cba05	-0.07652668
52	0xbdd30794	-0.1030418
53	0x3d8917f4	0.06694022
54	0x3d1f43fd	0.038883198
55	0xbd5483f9	-0.05188367
56	0x3a2add5a	0.00065179693
57	0x3d83b3ce	0.064307794
58	0xbc1e625d	-0.009667006
59	0x3c8982df	0.016786037
60	0xbcb99233	-0.022652721
61	0x3c06385e	0.00819215
62	0xbdb25545	-0.0870767
63	0x3db26f7f	0.087126724
64	0x3cd4287a	0.025898207
65	0xbce0d7ea	-0.027446706
66	0xbd8cdd92	-0.06878199
67	0x3db4ab00	0.08821678
68	0x3d970943	0.073748134
69	0xbdc72747	-0.097242884
70	0x3e00e3a7	0.12586842
71	0xbe123dae	-0.14281341
72	0x3c846d6b	0.016165456
73	0xbda43ad2	-0.080190316
74	0xbd82c872	-0.06385888
75	0xbdac6a5f	-0.08418726
76	0x3acfff53	0.0015868939
77	0xbcdde63c	-0.027087323
78	0xbe0aeff0	-0.13568091
79	0x3d806e62	0.06271054
80	0x3d3ed82a	0.04659287
81	0xbe175257	-0.14777504
82	0xbdf37780	-0.11888027
83	0xbcaa8087	-0.02081324
84	0xbda817a4	-0.08207634
85	0xbd826838	-0.063675344
86	0xbdbc5fa1	-0.09197927
87	0x3c187df3	0.009307372
88	0x3d81953c	0.06327292
89	0xbd9889e3	-0.07448175
90	0xbde1a1f0	-0.11017215
91	0x3b3f6f36	0.0029210574
92	0xbd3095f2	-0.04311175
93	0x3de1a8b5	0.110185064
94	0xbdc578e7	-0.09642201
95	0x3db489bf	0.088153355
96	0xbd447071	-0.047958795
97	0xbd5bc384	-0.053653255
98	0xbdb88469	-0.0900963
99	0xbd84b4c6	-0.06479792
100	0x3d7b4776	0.061347447
101	0xbdc54b53	-0.096335076
102	0xbcb245f1	-0.021761866
103	0x3d7bdbc6	0.06148889
104	0xbe09f907	-0.13473903
105	0xbafa017c	-0.0019073929
106	0xbd994fb5	-0.07485906
107	0xbe44171a	-0.19149438
108	0x3c5f0d0e	0.013613952
109	0xbdd7f695	-0.10545079
110	0xbd5e760e	-0.054311804
111	0xbc861703	-0.016368395
112	0x3dc4efdc	0.09616062
113	0xbda0292f	-0.07820355
114	0x3cf7bc26	0.030241083
115	0xbba0d352	-0.004908004
116	0xbc05fca1	-0.008177907
117	0xbd7426b2	-0.059607215
118	0xbdca1931	-0.09868086
119	0xbd139e88	-0.03603986
120	0x3c2b3031	0.010448501
121	0xbd313556	-0.043263756
122	0xbda43696	-0.08018224
123	0xbc8b607a	-0.017013777
124	0x3dbadf5e	0.09124635
125	0xbdc4f562	-0.096171156
126	0x3d40e081	0.047089104
127	0x3d8d2df0	0.068935275

network_body._body_endoder.seq_layers.4.weight f4 [128, 128]
0	0xbe607759	-0.21920528
1	0xbe0b9e99	-0.13634719
2	0xbe46181e	-0.19345137
3	0xbddb0c38	-0.1069569
4	0x3d408734	0.04700394
5	0xbe2da44a	-0.16957203
6	0xbdff5910	-0.12468159
7	0x3e10b44a	0.14131275
8	0xbe0a6134	-0.13513643
9	0x3dc61c01	0.0967331
10	0x3d3c5539	0.045979712
11	0xbe27b6da	-0.16378346
12	0xbe83ec7b	-0.25766358
13	0xbddd1a1c	-0.107959956
14	0xbed9dd5f	-0.42551705
15	0xbe1c1b43	-0.15244775
16	0xbe02add5	-0.12761624
17	0xbb5f35f7	-0.0034059265
18	0x3d2521dc	0.040315494
19	0x3df1759f	0.117900126
20	0xbe4ee619	-0.20204963
21	0xbe2ff63b	-0.17183773
22	0xbe0cc289	-0.13746084
23	0xbe44b87e	-0.19211003
24	0xbe1a4061	-0.15063621
25	0x3db7ffca	0.08984335
26	0xbf146bfb	-0.57977265
27	0x3cde6c1e	0.027151164
28	0x3d1adabf	0.03780627
29	0xbda15d73	-0.07879152
30	0xbe205a10	-0.15659356
31	0xbe005d59	-0.1253561
32	0xbec146cb	-0.37749323
33	0xbe006e5d	-0.125421
34	0xbda0c428	-0.07849914
35	0xbde78627	-0.113048844
36	0xbebd2a43	-0.36946306
37	0x3e5446db	0.20730154
38	0x3e299cf6	0.16563782
39	0xbe52afea	-0.20574918
40	0xbdf54986	-0.11976914
41	0x3d9345d6	0.071910545
42	0xbe063d77	-0.13109384
43	0x3e81f3df	0.2538137
44	0xbebd3406	-0.36953753
45	0xbdc7b877	-0.09751981
46	0x3e3fee80	0.18743324
47	0xbd0c8df1	-0.034315053
48	0xbe5bcfbb	-0.21465962
49	0xbe0f284e	-0.13980219
50	0xbe05d051	-0.13067748
51	0xbd6243f7	-0.055240598
52	0x3d774f76	0.060378514
53	0xbddbbcd4	-0.107293755
54	0x3db3df04	0.08782771
55	0xbddcd6c7	-0.10783153
56	0xbce26585	-0.027636299
57	0xbe07f62a	-0.13277498
58	0xbe5abecb	-0.21361844
59	0xbe640b38	-0.22269905
60	0xbe67512b	-0.22589557
61	0x3e580059	0.21093883
62	0xbc2b4de2	-0.01045558
63	0x3e4a5f74	0.19762975
64	0xbe8f2050	-0.2795434
65	0x3e6fcb77	0.2341746
66	0xbd089bae	-0.033351593
67	0x3dd44cbc	0.103661984
68	0xbd2b830c	-0.041873023
69	0xbe48e087	-0.196169
70	0xbed52e56	-0.41636914
71	0xbec5bc8c	-0.38620412
72	0x3e20a917	0.15689503
73	0x3d3a7daa	0.04553
74	0xbb3ac26e	-0.0028497237
75	0x3dc6d9d3	0.097095154
76	0xbe8eebe8	-0.27914357
77	0xbe8b8ec2	-0.27257353
78	0x3cf44947	0.029820098
79	0xbe454f06	-0.19268426
80	0x3e7a08f8	0.24417484
81	0xbef622c0	-0.48073387
82	0xbe205ff6	-0.15661606
83	0xbe26ba96	-0.16282114
84	0x3db87124	0.09005955
85	0xbc8d1aaa	-0.017224628
86	0x3cb010e0	0.021492422
87	0xbd33f879	-0.043938134
88	0xbd74fefe	-0.059813492
89	0xbd27f10f	-0.041001376
90	0xbe8cc3d9	-0.2749317
91	0x3e493d57	0.19652306
92	0xbda2f644	-0.07957128
93	0x3cdcfd13	0.026976144
94	0xbe047be1	-0.12937881
95	0xbce53ed7	-0.027984066
96	0xbd22af07	-0.0397177
97	0x3e569b33	0.20957641
98	0x3d9df00a	0.077117994
99	0xbebf7be0	-0.37399197
100	0x3cd9e77e	0.026599642
101	0xbe1ba919	-0.15201224
102	0x3e5ab2c6	0.21357259
103	0xbe8bc780	-0.27300644
104	0xbd7efed4	-0.06225474
105	0xbcab7b69	-0.02093287
106	0x3cc1624a	0.023606438
107	0x3dcce664	0.10004881
108	0x3d500dc2	0.05079437
109	0xbe6c624f	-0.23084377
110	0x3dcbf86c	0.09959492
111	0x3daccb6a	0.08437236
112	0xbd2b9528	-0.041890293
113	0x3de87ae0	0.113515615
114	0xbab73d0f	-0.0013979989
115	0xbdd9ac7b	-0.10628601
116	0x3cf2933e	0.029611226
117	0xbecc14ff	-0.3985977
118	0xbe1161c9	-0.14197458
119	0xbd84321d	-0.06454871
120	0xbcd07570	-0.025446624
121	0x3d941822	0.072311655
122	0xbe3c9ea4	-0.18419892
123	0x3e0fc98d	0.1404173
124	0xbe8909d1	-0.26765302
125	0xbd14c422	-0.03631986
126	0x3b8a92b9	0.0042289165
127	0xbcf52a4f	-0.0299274
128	0x3da4220c	0.080143064
129	0xbe25a9de	-0.1617808
130	0x3db5d7da	0.08879061
131	0x3d1e10d3	0.038590264
132	0xbc746007	-0.014915473
133	0x3d749a65	0.059717555
134	0x3eb2f80d	0.34954873
135	0xbe24752d	-0.16060324
136	0xbeb7b7f8	-0.35882545
137	0xbd5c1b3f	-0.05373692
138	0xbe981e5d	-0.29710665
139	0x3e84203f	0.25805852
140	0xbec6ae7c	-0.38804996
141	0x3e3ecf2d	0.18633719
142	0xbebc8c6b	-0.3682588
143	0xbcc138fd	-0.023586744
144	0xbe2aeb88	-0.1669141
145	0xbe1a9b4a	-0.150983
146	0x3e212dca	0.15740123
147	0xbd8c83c2	-0.06861068
148	0xbe9a6700	-0.30156708
149	0xbe49091e	-0.19632384
150	0xbcc718d0	-0.024303824
151	0xbefcf216	-0.49403447
152	0xbd947b51	-0.07250083
153	0x3e5ab0f8	0.2135657
154	0x3eb61b71	0.3556781
155	0x3df29860	0.118454695
156	0xbe65e80f	-0.22451805
157	0xbd24d508	-0.040242225
158	0xbe86754a	-0.2626136
159	0xbea5c3bc	-0.32375896
160	0x3bb12324	0.0054058004
161	0xbd0e3466	-0.03471794
162	0x3e87fd73	0.26560554
163	0x3de30136	0.11084215
164	0xbdd80bb8	-0.1054911
165	0x3d01cb42	0.031687982
166	0x3d4535b5	0.048146922
167	0xbdb35c89	-0.08757884
168	0xbefd461e	-0.49467558
169	0x3e3be758	0.1834997
170	0xbcecec6c	-0.028921328
171	0xbe9c7d46	-0.30564326
172	0x3d95e336	0.07318728
173	0x3e4d9c28	0.200791
174	0xbe030709	-0.12795652
175	0x3d96e6df	0.07368254
176	0x3d31b618	0.04338655
177	0xbda644e5	-0.08118609
178	0x3be4c77d	0.0069817887
179	0x3e108ea3	0.14116912
180	0x3d08a8ea	0.033364214
181	0x3d793fb5	0.06085177
182	0xbcaf4ea3	-0.021399802
183	0x3bee0394	0.00726361
184	0xbf1f3ba9	-0.6220041
185	0x3df937ff	0.121688835
186	0xbc6ceedc	-0.014461245
187	0xbdcbd4cd	-0.09952698
188	0xbf528d30	-0.82246685
189	0xbdee7d96	-0.11645047
190	0x3c938ca7	0.018011404
191	0xbe0deebc	-0.13860601
192	0xbe077e46	-0.13231763
193	0xbd4920f8	-0.049103707
194	0x3dbf6efd	0.09347341
195	0xbe920f35	-0.28527227
196	0x3e2a9b9e	0.16660926
197	0xbe5c953d	-0.21541305
198	0x3e7f6c96	0.24943766
199	0xbea0866b	-0.31352553
200	0xbc1393c6	-0.0090074
201	0xbee836f3	-0.45354423
202	0xbca8e846	-0.02061857
203	0xbcf97197	-0.030449672
204	0xbd50b0ce	-0.050949864
205	0xbe92d1ea	-0.28675777
206	0x3d743f3e	0.059630625
207	0xbe25f50e	-0.16206762
208	0x3daa9ec9	0.08331067
209	0x3e184806	0.14871225
210	0xbeb83792	-0.35979897
211	0xbe0edfbb	-0.13952534
212	0x3a5762f8	0.00082163466
213	0xbe420cb7	-0.18950163
214	0xbd860437	-0.06543773
215	0xbdc691e1	-0.09695793
216	0x3e9ebeb8	0.31004882
217	0x3dc32dda	0.0953023
218	0xbe44fbb2	-0.19236639
219	0x3e447590	0.19185472
220	0x3ca8422e	0.02053937
221	0xbcc5754c	-0.024103783
222	0x3cd61a28	0.02613552
223	0x3dec01cb	0.115237795
224	0x3d8267b6	0.063674375
225	0x3caa051c	0.02075439
226	0xbe91aa83	-0.28450403
227	0x3ce4b2ac	0.027917229
228	0xbdee8909	-0.11647231
229	0x3de76a75	0.11299602
230	0x3e142033	0.14465408
231	0xbde7cf28	-0.11318809
232	0xbd9890fe	-0.0744953
233	0xbcdef622	-0.027216975
234	0x3cb086e9	0.021548705
235	0x3c3703d9	0.011170351
236	0xbdb3e34f	-0.0878359
237	0xbcf1d78c	-0.029521726
238	0xbe6280d5	-0.22119458
239	0xbd998fa5	-0.07498101
240	0x3e6e1154	0.23248798
241	0xbd41c647	-0.047308233
242	0xbd843a9e	-0.06456493
243	0x3e9c97bb	0.3058451
244	0xbe2562a0	-0.16150904
245	0xbd86f03a	-0.06588788
246	0xbddd1895	-0.10795704
247	0x3d869b23	0.06572559
248	0xbeb894b3	-0.36050949
249	0xbe0e662a	-0.1390616
250	0x3edddb3e	0.4333133
251	0xbe019f90	-0.12658525
252	0xbd9b100d	-0.07571421
253	0xbbb1d1e9	-0.0054266346
254	0x3e072951	0.13199355
255	0xbebfc5eb	-0.37455687

network_body._body_endoder.seq_layers.4.bias f4 [128]
0	0xbd871ccd	-0.0659729
1	0x3c515414	0.012776393
2	0xbd98bb17	-0.074575596
3	0xbb9ac179	-0.004722771
4	0xbd0834cf	-0.033253487
5	0xbdf8f592	-0.12156214
6	0x3d20445b	0.03912769
7	0xbcb26b51	-0.021779688
8	0xbd80e969	-0.062945195
9	0xbde8dd0b	-0.113702856
10	0x3d036f32	0.032088466
11	0x3d649baa	0.055812515
12	0x3bf8d65f	0.0075939144
13	0xbcd703b7	-0.026246889
14	0xbc41269a	-0.0117889885
15	0xbd6de2d2	-0.05807764
16	0xbc9e1928	-0.019299105
17	0x3be3a174	0.006946737
18	0xbd1a41dc	-0.037660465
19	0x3d0bcc1e	0.03413021
20	0xbde0a54d	-0.109690286
21	0x3dfe8037	0.12426799
22	0xbd9d5ced	-0.0768374
23	0xbe100aa8	-0.14066565
24	0xbb797d9b	-0.0038069251
25	0xbd8e5d6c	-0.069514126
26	0xbd869d99	-0.06573028
27	0xbda0d9de	-0.07854055
28	0xbd2112e5	-0.03932466
29	0xbcf8d7a5	-0.030376265
30	0xbd911440	-0.070839405
31	0xbd6ccf8c	-0.05781512
32	0xbe0d18c9	-0.13778986
33	0x3d1a389e	0.03765165
34	0xbd5a7c67	-0.053341296
35	0xbd7a67d7	-0.061134186
36	0xbd851da5	-0.06499795
37	0x3cc044f4	0.02347038
38	0x3dc2e8bf	0.09517049
39	0xbdddf072	-0.10836877
40	0x3d50807d	0.050903786
41	0x3daff132	0.08590926
42	0xbddad180	-0.1068449
43	0xbcae2d63	-0.021261876
44	0xbc6c5912	-0.014425533
45	0xbd36e474	-0.044651464
46	0xbe1ed971	-0.15512635
47	0x3cad69ff	0.021168707
48	0xbe013811	-0.12619044
49	0xbcf90096	-0.030395787
50	0x3ceb6e84	0.028739221
51	0xbdfce8ab	-0.123490654
52	0xbd814047	-0.06311088
53	0xbd8dc0b8	-0.06921524
54	0x3cc6241a	0.024187136
55	0xbd6e34a2	-0.058155663
56	0x3d947c98	0.07250327
57	0x3d802cb1	0.06258524
58	0xbe0ad80b	-0.13558976
59	0xbe0331b0	-0.12811923
60	0xbc300ecd	-0.010745716
61	0xbd8f5412	-0.06998457
62	0x3cfd4d9c	0.030920796
63	0xbdb61898	-0.0889141
64	0xbc536297	-0.012901924
65	0xbcc492b7	-0.02399574
66	0x3d4df145	0.05027892
67	0x3c5cc9e2	0.013475867
68	0x3d0de853	0.03464539
69	0xbd0745d0	-0.033025563
70	0xbc0fce25	-0.008777176
71	0xbd4fec02	-0.050762184
72	0xbc9db426	-0.01925094
73	0xbd4f912e	-0.050675564
74	0xbd131958	-0.03591284
75	0xbb2591b7	-0.0025263855
76	0xbdaa1c21	-0.083061464
77	0xbd8b93e5	-0.06815318
78	0xbdbb60fb	-0.09149357
79	0xbde5b782	-0.11216642
80	0xbe06dc86	-0.1317006
81	0xbd2b0bfa	-0.04175947
82	0xbd4c3614	-0.04985626
83	0x3d3c7c35	0.04601689
84	0x3c84ecbc	0.016226165
85	0xbe5ac28c	-0.21363276
86	0xbdfb8dac	-0.12282881
87	0x3dab39df	0.083606474
88	0x3d0d6e16	0.034528814
89	0xbcf56282	-0.029954199
90	0x3d085ec2	0.033293493
91	0xbde1f039	-0.11032147
92	0xbca3f033	-0.020011997
93	0xbbdd20dd	-0.0067483024
94	0xbd0cc503	-0.034367573
95	0xbe569e60	-0.20958853
96	0xbdf82e02	-0.1211815
97	0xbdecc4fd	-0.1156101
98	0x3cca6c2f	0.02470979
99	0xbdb43e09	-0.08800895
100	0xbcbf44a2	-0.023348156
101	0xbe17ae35	-0.14812548
102	0xbd87c61a	-0.06629582
103	0x3ca27f77	0.01983617
104	0x3d9178db	0.071031295
105	0x3d82d40d	0.06388102
106	0xbdcb71a2	-0.09933783
107	0x3d6998db	0.05703054
108	0xbce45a0f	-0.027874975
109	0xbceec646	-0.029147279
110	0xbd16d449	-0.036823545
111	0xbdce9dca	-0.100886896
112	0x3c23bab5	0.009993245
113	0xbd5972c4	-0.053087965
114	0x3de1a0d3	0.11017003
115	0x3c01b78e	0.007917298
116	0xbdaa46d1	-0.083142884
117	0x3c8c4ed9	0.017127441
118	0xbca23248	-0.019799367
119	0xbd11887d	-0.035530556
120	0xbda116bf	-0.078656666
121	0xbe0d256f	-0.13783811
122	0xbd8f3808	-0.06993109
123	0xbe1764fc	-0.14784616
124	0xbc845804	-0.01615525
125	0xbcc64743	-0.024203902
126	0xbd2c10cf	-0.042008217
127	0xbb8bc198	-0.0042650215

action_model._discrete_distribution.branches.0.weight f4 [3, 128]
0	0xbd12b163	-0.0358137
1	0xbe22261f	-0.15834855
2	0xbd3afa09	-0.04564861
3	0xbd6c601f	-0.057708856
4	0xbe0bda16	-0.13657412
5	0xbddab7f3	-0.10679617
6	0xbd7e5230	-0.0620901
7	0x3db41d1e	0.08794616
8	0xbde80207	-0.11328512
9	0xbe2516e0	-0.16122007
10	0x3e862a80	0.262043
11	0xbe8a2b33	-0.26986083
12	0xbe10b372	-0.14130953
13	0xbc9df622	-0.019282404
14	0x3c3ee9df	0.011652439
15	0xbd315de7	-0.043302443
16	0x3e3fade1	0.18718673
17	0x3bb15cdc	0.005412681
18	0x3c14be03	0.009078505
19	0xbdd8ca87	-0.10585504
20	0xbd87fa93	-0.0663959
21	0x3e048102	0.12939838
22	0xbe56a978	-0.20963085
23	0xbd350318	-0.044192404
24	0x3d6cbebf	0.057799097
25	0xbe0721b0	-0.13196445
26	0xbcc89c7a	-0.024488676
27	0xbe07370e	-0.13204595
28	0x3e255feb	0.16149871
29	0xbdca6457	-0.098824196
30	0xbc6ce3ec	-0.014458638
31	0x3c755499	0.014973783
32	0xbc34a8e7	-0.011026598
33	0xbcbd91ac	-0.02314075
34	0x3d311cc7	0.043240335
35	0xbe01b49e	-0.12666556
36	0x3c941c71	0.018079968
37	0x3c74b4a9	0.014935651
38	0x3da86e4b	0.08224162
39	0x3e038404	0.12843329
40	0x3d99ed8c	0.075160116
41	0x3cc8d3bf	0.02451503
42	0x3e99bcf1	0.30026963
43	0xbe566e44	-0.209405
44	0xbe6cabd8	-0.23112428
45	0x3e169d4f	0.14708446
46	0xbe1a0d6e	-0.15044186
47	0x3c638e1b	0.013888861
48	0x3e1208dd	0.14261194
49	0x3dd428e1	0.103593595
50	0xbe224243	-0.1584559
51	0xbe2a71e0	-0.16645002
52	0xbe05758d	-0.13033123
53	0xbc9c55d9	-0.019083904
54	0xbd2152be	-0.03938555
55	0x3d7f5f24	0.062346593
56	0xbddeb99d	-0.10875247
57	0x3e528d64	0.20561749
58	0x3d9e448b	0.07727917
59	0xbdf6769b	-0.12034341
60	0x3de5d09a	0.11221428
61	0xbe1bef50	-0.15228009
62	0x3d94eccf	0.0727173
63	0x3d94b1ed	0.07260499
64	0xbddee252	-0.10883011
65	0xbd85120e	-0.06497584
66	0x3e0b2033	0.13586502
67	0xbd7a5532	-0.061116405
68	0xbe15fb1c	-0.14646572
69	0x3c365ae0	0.011130065
70	0xbd82e8f6	-0.0639209
71	0x3e8587bd	0.26080123
72	0xbe5fbed1	-0.21850134
73	0xbe936fa3	-0.2879611
74	0xbc95c247	-0.018281115
75	0xbb81c464	-0.003960179
76	0x3d8e5f01	0.06951714
77	0x3e330ce2	0.17485383
78	0x3d0fd223	0.03511251
79	0xbd47d681	-0.04878855
80	0x3e04bc09	0.12962355
81	0x3d82f7d4	0.06394926
82	0x3d83a992	0.06428827
83	0xbd1fca2f	-0.039011177
84	0xbc9dea8c	-0.01927688
85	0x3b925dd3	0.004466751
86	0x3da64b7c	0.08119866
87	0x3dd3aeac	0.103360504
88	0x3e10c8be	0.14139077
89	0xbe6c2ea6	-0.2306467
90	0x3bd28c43	0.006425412
91	0xbe139963	-0.14413981
92	0xbd09ccde	-0.033642642
93	0xbe4173f5	-0.1889189
94	0xbdaaf9c0	-0.08348417
95	0xbd9676c8	-0.073468745
96	0x3d1c135f	0.03810441
97	0xbd88412b	-0.06653055
98	0x3ae516f8	0.0017478159
99	0x3e03a452	0.12855652
100	0xbd2941d5	-0.041322548
101	0xbd1faaaf	-0.038981136
102	0x3d3878ed	0.0450372
103	0xbe5bed5a	-0.21477261
104	0x3d8d89e7	0.069110684
105	0x3dda0943	0.10646298
106	0xbda30479	-0.079598375
107	0xbc0a685b	-0.008447732
108	0xbe6c5fb8	-0.23083389
109	0xbde3dcb5	-0.11126081
110	0x3da9c693	0.08289828
111	0xbd0fb042	-0.035080202
112	0xbd862913	-0.06550803
113	0x3dfb1aad	0.122609474
114	0xbd8e927e	-0.06961535
115	0x3d38a43c	0.0450785
116	0x3e4b2ce0	0.19841337
117	0x3e8d99e9	0.27656487
118	0x3e1dadda	0.1539835
119	0x3e1fb6a9	0.15597023
120	0x3df6335f	0.12021517
121	0xbc7a9ede	-0.015296666
122	0x3e009448	0.12556565
123	0x3cd277ba	0.025691856
124	0x3cd286da	0.025699068
125	0x3e0069d2	0.12540367
126	0x3dc4a4e5	0.09601764
127	0xbdbf1f26	-0.09332113
128	0x3dd7b3e0	0.10532355
129	0x3e253c32	0.16136244
130	0x3db409bc	0.08790919
131	0x3e9c8735	0.30571905
132	0x3c3552e2	0.011067124
133	0x3e539b8e	0.20664808
134	0x3dc190c5	0.09451441
135	0x3d7a590b	0.061120074
136	0x3dff9af0	0.12480724
137	0x3df82ab0	0.12117517
138	0x3d7a2f51	0.06108028
139	0xbe5dc131	-0.21655728
140	0x3edee42c	0.43533456
141	0x3e286188	0.16443455
142	0xbd432d7e	-0.047650807
143	0xbb414184	-0.0029488513
144	0xbdda7c18	-0.106682
145	0x3c88a0c8	0.016678229
146	0x3d5b8c47	0.053600576
147	0x3e17616a	0.14783254
148	0x3e1801a2	0.14844373
149	0xbe864236	-0.2622239
150	0x3e2d1ea4	0.1690622
151	0x3e3e030f	0.18555854
152	0xbda8cee7	-0.082425885
153	0x3e150e70	0.14556289
154	0xb990ec07	-0.00027641674
155	0x3e6de0e7	0.23230325
156	0x3d98f56d	0.07468686
157	0x3e0fa628	0.14028227
158	0xbca412ba	-0.02002846
159	0xbddbeeb4	-0.107388884
160	0x3e5cf53a	0.21577922
161	0x3d7da47d	0.061924446
162	0x3c4eec9d	0.012629655
163	0x3e1ec762	0.15505746
164	0xbd6fa838	-0.058510035
165	0xbd525b01	-0.05135632
166	0xbe0fe3a8	-0.14051688
167	0x3c42afa9	0.011882701
168	0xbe738557	-0.23781334
169	0xbcb27f7d	-0.021789307
170	0xbe8b8396	-0.2724883
171	0x3e46cc45	0.1941386
172	0xbdd7fa80	-0.10545826
173	0xbd9a1d8c	-0.07525167
174	0x3d185352	0.037188835
175	0x3d90c148	0.070681155
176	0x3c962eda	0.018332887
177	0xbdbc168f	-0.0918399
178	0x3eee3a3a	0.46528798
179	0x3d654365	0.055972476
180	0x3d929670	0.071576
181	0x3d196b4b	0.03745584
182	0xbe231978	-0.15927684
183	0x3dde50d1	0.10855258
184	0xbdd6361c	-0.10459539
185	0x3e32ade4	0.17449147
186	0x3cb8ada1	0.02254373
187	0xbd4f505e	-0.050613753
188	0xbde738a8	-0.11290103
189	0x3e2b16bb	0.1670789
190	0x3d535604	0.051595703
191	0x3df3cd54	0.119043976
192	0xbe158e62	-0.14605096
193	0x3c3070a5	0.010769044
194	0xbd1d6fed	-0.03843682
195	0x3e2f02a1	0.17090847
196	0x3a30f485	0.00067503034
197	0xbe2eb38d	-0.1706068
198	0xbe224b71	-0.15849091
199	0xbdcd08b9	-0.10011429
200	0xbdf29c17	-0.11846178
201	0x3e3d1ed7	0.18468796
202	0x3e6cc35e	0.23121402
203	0x3d98ee33	0.07467308
204	0x3d3e7bf5	0.046504933
205	0xbcca441f	-0.024690686
206	0xbc98cab7	-0.01865135
207	0x3d6b6461	0.057468776
208	0xbd33ea45	-0.04392459
209	0x3e398fec	0.18121308
210	0xba04033f	-0.0005035884
211	0xbcc98e7e	-0.024604078
212	0x3e6ce900	0.23135757
213	0xbc36df97	-0.011161706
214	0xbdda4c56	-0.10659091
215	0xbe61224d	-0.21985741
216	0xbd92a1a3	-0.07159736
217	0x3e23c8b5	0.15994532
218	0xbdb23f12	-0.08703436
219	0x3e36993e	0.17831895
220	0x3d00eac7	0.0314739
221	0x3e5ec659	0.21755351
222	0x3e3b97b5	0.1831959
223	0x3ddd8476	0.108162805
224	0x3d846401	0.06464387
225	0xbd98f774	-0.07469073
226	0xbe6f8dd3	-0.23393945
227	0xbcbfbf6e	-0.02340671
228	0x3d97a562	0.07404591
229	0xbe19808d	-0.14990444
230	0x3d6b894f	0.057503995
231	0xbdc37c13	-0.0954515
232	0x3d354529	0.04425541
233	0xbe4e0321	-0.20118381
234	0xbd6ca08e	-0.057770304
235	0x3e31c387	0.17359744
236	0x3db1e538	0.08686298
237	0x3e34b176	0.17645821
238	0xbd560828	-0.052253872
239	0x3e1df97b	0.154272
240	0xbe23af3d	-0.15984817
241	0xbe397626	-0.18111476
242	0x3e1761d3	0.1478341
243	0x3df2df24	0.11858967
244	0xbdaa3c3f	-0.08312272
245	0xbeae56da	-0.34050637
246	0xbcf3cb61	-0.029760065
247	0xbcb9656c	-0.02263137
248	0xbd663ba3	-0.056209218
249	0xbd011e2c	-0.031522915
250	0xbe5bb407	-0.21455394
251	0x3d65dda8	0.05611959
252	0xbd93efc9	-0.0722347
253	0xbd3877e4	-0.04503621
254	0xbddaeb71	-0.10689438
255	0x3c9a6ba5	0.018850157

action_model._discrete_distribution.branches.0.bias f4 [3]
0	0x3cbbe3c5	0.022935757
1	0xbd8d9269	-0.06912691
2	0x3d46ca40	0.048532724

action_model._discrete_distribution.branches.1.weight f4 [2, 128]
0	0x3c659720	0.014013082
1	0x3e92f992	0.28706032
2	0x3d17e355	0.037082035
3	0xbd0988c7	-0.033577707
4	0x3db40e4d	0.0879179
5	0xbc826124	-0.01591546
6	0x3e526790	0.20547318
7	0x3d31ce74	0.04340978
8	0xbe3a6e58	-0.18206155
9	0x3d9df1ba	0.07712121
10	0x3e1e6ff9	0.15472402
11	0x3d4ba4fb	0.049717885
12	0x3d796746	0.060889505
13	0xbe03e0d9	-0.12878741
14	0xbdd70cd6	-0.10500495
15	0x3e2c0294	0.16797858
16	0xbdd26f46	-0.1027513
17	0xbd8e91e7	-0.069614224
18	0xbdb9b4c6	-0.09067683
19	0x3e260ec6	0.16216573
20	0xbdcb4d42	-0.09926845
21	0x3df24d3f	0.1183114
22	0x3ddbeb7f	0.10738277
23	0x3d3e41ae	0.046449356
24	0xbc91a397	-0.017778201
25	0x3d6ab348	0.057299882
26	0xbe4fb21f	-0.20282792
27	0x3ccc5ec8	0.024947539
28	0xbd64dd01	-0.05587483
29	0x3d848080	0.06469822
30	0xbe022c09	-0.1271211
31	0xbd84cd1c	-0.06484434
32	0xbdcfd32a	-0.10147698
33	0xbf117e44	-0.5683329
34	0x3d97a035	0.07403604
35	0x3d0e47f8	0.034736603
36	0x3c21ff86	0.009887582
37	0x3c8f3986	0.017483484
38	0x3cdcf9b7	0.026974542
39	0xbd4ef124	-0.05052294
40	0x3e3f2809	0.18667616
41	0x3d0f8ba7	0.035045292
42	0x3e488742	0.19582847
43	0xbe220d86	-0.15825471
44	0xbd632bbd	-0.055461634
45	0xbe1c7a4a	-0.15281025
46	0x3daa51e6	0.08316402
47	0x3e2ee8e6	0.17081031
48	0xbe4025c3	-0.18764405
49	0x3d9a7621	0.075420626
50	0x3d96417a	0.073367074
51	0x3a6ea532	0.00091035955
52	0x3bf33e1b	0.007423175
53	0x3b4c7ca9	0.0031202233
54	0x3c661618	0.0140433535
55	0xbcc1f396	-0.023675721
56	0x3de2f8cf	0.11082613
57	0xbe824906	-0.25446337
58	0x3c9c8e21	0.019110741
59	0x3b307491	0.0026924948
60	0x3da1df02	0.079038635
61	0x3c334785	0.010942345
62	0xbe15b9a1	-0.14621593
63	0x3c2023ba	0.009774143
64	0x3cbedeeb	0.023299655
65	0x3dc332ca	0.095311716
66	0x3d686ec7	0.05674627
67	0x3eaae994	0.3338133
68	0x3e9861c6	0.29762095
69	0x3da7e93a	0.08198781
70	0x3d86b326	0.065771386
71	0x3dedb76c	0.116072506
72	0x3ca68a96	0.020329755
73	0x3c21e036	0.009880116
74	0x3d54af57	0.05192503
75	0xbdb84190	-0.0899688
76	0x3e609360	0.21931219
77	0xbd71856b	-0.058965128
78	0x3d247760	0.040152907
79	0x3e70b52a	0.23506609
80	0x3e2afe34	0.16698533
81	0x3dfd0b6f	0.123556964
82	0xbdf30bac	-0.118674606
83	0x3d12f6e3	0.03587998
84	0x3e5b8193	0.21436147
85	0xbc41d61e	-0.011830835
86	0x3d1ae29e	0.037813775
87	0xbc9b3834	-0.018947698
88	0x3de811fa	0.11331554
89	0xbd91ec2f	-0.071251266
90	0xbbf09022	-0.0073414007
91	0x3c815bda	0.015790869
92	0x3d16624e	0.036714844
93	0xbe17541f	-0.14778183
94	0xbd71a940	-0.0589993
95	0xbdde75f6	-0.10862343
96	0xbd3d8237	-0.04626676
97	0xbe0445b7	-0.12917219
98	0xbc81d1dd	-0.01584714
99	0xbdac29db	-0.08406421
100	0xbced9a45	-0.029004226
101	0x3db9b9d9	0.09068651
102	0x3e08f0a4	0.13373047
103	0xbda8962c	-0.08231768
104	0x3e39b05e	0.18133685
105	0x3d2cc153	0.042176556
106	0xbd61da6d	-0.055139948
107	0xbe8f30f1	-0.27967027
108	0x3e00ea5e	0.12589404
109	0x3d702890	0.058632433
110	0x3d15aad8	0.036539882
111	0xbd51e0de	-0.05123984
112	0xbe199d85	-0.15001495
113	0x3ddfc226	0.10925703
114	0x3d3a631c	0.045504674
115	0x3dd37bb5	0.103263296
116	0x3b859380	0.0040764213
117	0xbbbab678	-0.0056980215
118	0xbddb20d0	-0.10699618
119	0x3db134bd	0.08652637
120	0x3d8dc195	0.069216885
121	0xbcfc1150	-0.030769974
122	0x3cd2227d	0.02565121
123	0xbe521fbd	-0.2051992
124	0x3e1b5e13	0.15172605
125	0x3d7ebc80	0.062191486
126	0xbd211010	-0.03932196
127	0x3d208a29	0.03919426
128	0xbc5ef25d	-0.013607589
129	0xbe93e033	-0.28881988
130	0xbd8a6e44	-0.06759313
131	0x3ca5b6e2	0.020228807
132	0xbdaedfe7	-0.085388
133	0xba1609f7	-0.0005723531
134	0xbe56c3a9	-0.20973076
135	0xbd41a992	-0.047280855
136	0x3e55b2f3	0.20869045
137	0xbdaecd33	-0.085352324
138	0xbe15b743	-0.1462069
139	0xbd6e713d	-0.05821346
140	0xbd608266	-0.054811858
141	0x3e11d1c4	0.14240175
142	0x3dbd8aba	0.092549756
143	0xbe25f056	-0.16204962
144	0x3dd07953	0.10179391
145	0x3d736f37	0.059432235
146	0x3dd016c0	0.10160589
147	0xbe2301f0	-0.15918708
148	0x3dc7780b	0.09739693
149	0xbde6f10e	-0.11276446
150	0xbdf002f1	-0.11719311
151	0xbd1bea8e	-0.038065486
152	0x3b98e4bc	0.004665939
153	0xbd936579	-0.07197089
154	0x3e3b8cc7	0.18315421
155	0xbcefef49	-0.029288905
156	0x3d5e5b0f	0.05428606
157	0xbda30e64	-0.07961729
158	0x3dfb1996	0.122607395
159	0x3d3c8121	0.046021584
160	0x3ddf6626	0.10908155
161	0x3f0e4021	0.555666
162	0xbd88484c	-0.066544145
163	0xbd2fe41f	-0.042942163
164	0xbc09aa63	-0.00840244
165	0xbb945d24	-0.004527705
166	0xbcce25d8	-0.02516453
167	0x3d3df646	0.046377443
168	0xbe4b6989	-0.19864477
169	0xbd4fd802	-0.05074311
170	0xbe4c7d5b	-0.19969694
171	0x3e1694e7	0.14705239
172	0x3d36de9f	0.0446459
173	0x3e14cc89	0.14531149
174	0xbd8f97de	-0.07011388
175	0xbe31d804	-0.1736756
176	0x3e46acd0	0.1940186
177	0xbda91ec0	-0.08257818
178	0xbd9d4784	-0.07679656
179	0xbc4d87c0	-0.012544572
180	0xbc227f04	-0.009917978
181	0xb9c3f2b1	-0.00037374118
182	0xbb343e82	-0.0027503078
183	0x3c1d2f0b	0.009593735
184	0xbdbac748	-0.09120041
185	0x3e7247d2	0.2366021
186	0xbd041cc0	-0.03225398
187	0x3c78a4b2	0.015175985
188	0xbda36905	-0.07979015
189	0xbcb0f08b	-0.021599075
190	0x3e263b91	0.1623366
191	0x3bf934d8	0.0076051764
192	0xbb22566c	-0.002477075
193	0xbdb4c8ba	-0.08827348
194	0xbda6c85d	-0.08143685
195	0xbeb2f54c	-0.34952772
196	0xbe94418b	-0.28956255
197	0xbd9b606b	-0.0758675
198	0xbd1f0fd7	-0.038833465
199	0xbdb66038	-0.08905071
200	0xbd0f1f95	-0.03494223
201	0x3babafd3	0.0052394657
202	0xbd40345e	-0.04692494
203	0x3de926fa	0.11384387
204	0xbe572471	-0.21009995
205	0x3d7f2798	0.06229362
206	0xbcbabe29	-0.022795754
207	0xbe66f4fe	-0.22554395
208	0xbe346017	-0.1761478
209	0xbe08c45c	-0.13356155
210	0x3ddf74da	0.109109595
211	0xbd28d604	-0.041219726
212	0xbe519588	-0.20467198
213	0x3c8d98f9	0.017284857
214	0xbd53464e	-0.05158072
215	0x3c4653cb	0.012104939
216	0xbdd80e56	-0.10549609
217	0x3d8a004e	0.06738339
218	0x3bc48709	0.0059975428
219	0xbcace907	-0.02110721
220	0xbcc31c39	-0.023817169
221	0x3e2c98d9	0.16855182
222	0x3d91f4a8	0.071267426
223	0x3e03b1df	0.12860821
224	0x3cf8eff7	0.030387862
225	0x3e16783d	0.14694305
226	0x3c927e03	0.017882353
227	0x3d82ac36	0.06380503
228	0x3c9f64c7	0.019457234
229	0xbdcc8bda	-0.09987612
230	0xbe042998	-0.12906492
231	0x3dbe5685	0.09293846
232	0xbe30f5eb	-0.1728131
233	0xbd5e2598	-0.05423507
234	0x3d3d9ad0	0.04629022
235	0x3e8c3c6d	0.2738985
236	0xbe21b64c	-0.15792197
237	0xbd9945d1	-0.074840195
238	0xbcc30e5f	-0.023810564
239	0x3d4188f6	0.047249757
240	0x3e0f6f14	0.14007217
241	0xbdfeab62	-0.124350324
242	0xbd5be94a	-0.05368928
243	0xbdf73ab4	-0.120717436
244	0x3c7f4e9a	0.015582705
245	0x3caa56a7	0.020793272
246	0x3de0c772	0.10975541
247	0xbdae1a09	-0.085010596
248	0xbd818909	-0.063249655
249	0x3cd0a86d	0.025470937
250	0xbc86b1bf	-0.016442178
251	0x3e57067f	0.20998572
252	0xbe16358e	-0.14668867
253	0xbd20560d	-0.039144564
254	0x3cff80cf	0.03118935
255	0xbd114883	-0.035469543

action_model._discrete_distribution.branches.1.bias f4 [2]
0	0xbd19bd12	-0.037533827
1	0x3d19bd1b	0.03753386
