results/Hard_Sper/Player/Player-5965.pt (torch, 902604 bytes, 72 tensors)

discrete_act_size_vector f4 [1, 4]
3.0 2.0 3.0 3.0
00000000: 0000 4040 0000 0040 0000 4040 0000 4040

network_body.observation_encoder.processors.0.normalizer.running_mean f4 [18]
-5.4023414 3.4990218 10.067066 24.073938 10.899954 12.606537 8.470243 3.2363088
6.174743 4.2978625 12.7240305 1.5925008 -0.5860702 2.246332 15.788242 5.3494115
12.701046 8.091457
00000000: fbdf acc0 f9ef 5f40 b412 2141 6d97 c041
00000010: 3666 2e41 60b4 4941 1e86 0741 af1f 4f40
00000020: 7f97 c540 1788 8940 a195 4b41 11d7 cb3f
00000030: b208 16bf e7c3 0f40 a49c 7c41 612e ab40
00000040: 7c37 4b41 9c76 0141

network_body.observation_encoder.processors.0.normalizer.running_variance f4 [18]
1.2879806e+07 18.952894 3.3123202e+07 886614.44 195652.84 363922.75 17321.28 17240.055
1.1693851e+07 1.4970374e+06 2.9412514e+07 5.0230405e+06 43048.918 70031.0 1.1610225e+07 1.5964296e+06
2.9279812e+07 3.8277718e+06
00000000: be87 444b 879f 9741 c1b5 fc4b 6775 5849
00000010: 3611 3f48 58b2 b148 8f52 8746 1cb0 8646
00000020: 1b6f 324b 6bbe b649 5166 e04b 814a 994a
00000030: eb28 2847 80c7 8847 7128 314b 6de0 c249
00000040: 2263 df4b efa0 694a

network_body.processors.0.normalizer.running_mean f4 [18]
-5.4023414 3.4990218 10.067066 24.073938 10.899954 12.606537 8.470243 3.2363088
6.174743 4.2978625 12.7240305 1.5925008 -0.5860702 2.246332 15.788242 5.3494115
12.701046 8.091457
00000000: fbdf acc0 f9ef 5f40 b412 2141 6d97 c041
00000010: 3666 2e41 60b4 4941 1e86 0741 af1f 4f40
00000020: 7f97 c540 1788 8940 a195 4b41 11d7 cb3f
00000030: b208 16bf e7c3 0f40 a49c 7c41 612e ab40
00000040: 7c37 4b41 9c76 0141

network_body.processors.0.normalizer.running_variance f4 [18]
1.2879806e+07 18.952894 3.3123202e+07 886614.44 195652.84 363922.75 17321.28 17240.055
1.1693851e+07 1.4970374e+06 2.9412514e+07 5.0230405e+06 43048.918 70031.0 1.1610225e+07 1.5964296e+06
2.9279812e+07 3.8277718e+06
00000000: be87 444b 879f 9741 c1b5 fc4b 6775 5849
00000010: 3611 3f48 58b2 b148 8f52 8746 1cb0 8646
00000020: 1b6f 324b 6bbe b649 5166 e04b 814a 994a
00000030: eb28 2847 80c7 8847 7128 314b 6de0 c249
00000040: 2263 df4b efa0 694a

network_body._body_endoder.seq_layers.0.weight f4 [128, 18]
0.1606363 -0.19339451 -0.04925443 0.120345086 0.0989056 -0.13547221 0.27717552 -0.2532931
-0.19520988 -0.08412613 0.21964298 -0.1377252 -0.59011734 -0.08812864 0.17461947 -0.14600031
0.023850666 -0.1454867 0.24761574 -0.38383168 -0.24781278 -0.40031493 0.1525348 0.17729838
0.11370847 0.1896013 0.15887795 0.037986305 0.010247248 -0.26645687 -0.2213324 -0.05341851
0.22938521 -0.04789353 0.15391175 -0.24034014 0.2583629 0.07248227 0.2347806 -0.14016765
-0.33877712 0.21190473 0.11400132 -0.38223496 -0.07075104 0.27725795 0.053126093 0.28696766
-0.28817463 0.14706954 0.13090236 -0.107256085 0.073295794 -0.29461518 0.27344537 0.08518106
-0.10280897 0.37427273 -0.18975037 -0.034922477 0.002028706 -0.18719089 -0.22636025 -0.13186142
0.36878574 0.07884866 0.0477924 0.2417562 -0.12981929 -0.18655518 0.40181568 0.24167119
0.30070868 -0.21375163 0.10503028 -0.017260425 0.31617242 0.2314415 0.24725543 0.22197793
0.3335932 -0.095098026 0.16263834 -0.13719317 -0.58529675 0.011959473 -0.19090083 0.2669908
-0.083199784 0.19450958 -0.064860575 0.057989825 -0.19088848 0.17666996 0.026998496 0.060309965
0.10426327 0.22857527 -0.25955394 0.009318868 0.07092505 0.17126639 -0.31540865 0.09212364
-0.20212518 -0.024126321 -0.41061664 -0.26929384 -0.21557634 0.060600005 -0.015119913 -0.26206383
-0.092754655 -0.2906772 -0.45170006 0.0062808217 0.10867783 0.1360648 0.2316529 0.32826987
0.14696485 -0.04997917 0.19703345 0.18495108 -0.13604583 0.23651423 0.16840272 0.110399075
-0.1886816 -0.064193204 0.09775604 0.13353853 -0.7258303 0.025408367 -0.16390568 -0.6845379
0.26663163 0.3546641 0.24932142 0.44757804 0.120142035 0.039112236 0.2844888 0.11886566
0.16966698 0.24060147 0.093115136 -0.0068982504 0.13736749 -0.18539579 -0.04641175 0.05280522
-0.10361829 -0.3584331 -0.21885763 -0.40989062 -0.21205384 0.49812073 0.0032019708 -0.037918154
-0.42147207 0.56009245 0.59401673 -0.269177 -0.19145449 -0.03357124 0.42188868 -0.10915087
0.007807461 0.080978334 -0.21984182 0.08262616 0.09999176 0.107442744 0.35351756 0.2635899
0.12870742 0.2104239 -0.11196908 -0.010640043 -0.06600911 0.09625867 -0.17973356 0.017969701
-0.10270784 -0.20551775 0.20264249 -0.116644114 0.44379172 -0.28678128 0.5420618 0.13468799
0.24060695 -0.0903566 0.28576833 -0.0022421915 0.030650495 -0.17655884 0.09234249 -0.11283351
0.3299007 0.20075296 -0.25433868 -0.21343476 0.24712947 0.32385495 0.108427025 0.038059782
0.2822541 -0.25943083 0.0710236 0.045040715 -0.15411428 0.034887537 0.16371752 0.4201997
0.045744054 -0.13558728 0.5261346 0.27223688 0.3071685 -0.27223894 -0.036914267 -0.2648218
-0.052675176 -0.05203751 0.025116831 0.18235771 -0.024590012 0.123328365 0.07434474 0.08736775
-0.099969156 0.27450112 -0.3635216 -0.19520536 -0.554313 -0.2209443 -0.025345357 0.13778368
-0.031725816 -0.12572505 0.043343354 0.12571645 -0.29417855 -0.06892446 -0.10490136 -0.48926514
-0.2808665 0.14447647 -0.29522356 0.5187572 0.5261116 -0.053454924 -0.33326778 0.19856758
00000000: d87d 243e 3609 46be 03bf 49bd 7c77 f63d
00000010: 058f ca3d 3ab9 0abe f3e9 8d3e a2af 81be
00000020: 19e5 47be 524a acbd 17ea 603e d607 0dbe
00000030: ee11 17bf ca7c b4bd 72cf 323e 1b81 15be
00000040: 7962 c33c 77fa 14be fb8e 7d3e 9685 c4be
00000050: a2c2 7dbe 14f6 ccbe 1532 1c3e b58d 353e
00000060: fcdf e83d d826 423e e7b0 223e 8797 1b3d
00000070: 13e4 273c 096d 88be f6a4 62be 5ecd 5abd
00000080: f5e3 6a3e 022c 44bd 0b9b 1d3e ba1b 76be
00000090: 2448 843e 9671 943d 536a 703e 1c88 0fbe
000000a0: 3274 adbe 8efd 583e 8679 e93d 4db4 c3be
000000b0: ece5 90bd c1f4 8d3e bf9a 593d 6ded 923e
000000c0: a08b 93be 6699 163e 450b 063e 14a9 dbbd
000000d0: 1b1c 963d cdd7 96be 0801 8c3e 6873 ae3d
000000e0: 828d d2bd ada0 bf3e ec4d 42be df0a 0fbd
000000f0: 0af4 043b f8ae 3fbe fbca 67be ae06 07be
00000100: 7cd1 bc3e 687b a13d f7c1 433d f08e 773e
00000110: 59ef 04be 5208 3fbe c9ba cd3e a778 773e
00000120: 7df6 993e b5e1 5abe 1e1a d73d bc65 8dbc
00000130: 5ae1 a13e 00ff 6c3e 8730 7d3e 2f4e 633e
00000140: bacc aa3e c1c2 c2bd aa8a 263e 5e7c 0cbe
00000150: 02d6 15bf aaf1 433c 827b 43be 05b3 883e
00000160: a664 aabd 852d 473e 9fd5 84bd bd86 6d3d
00000170: 4578 43be f8e8 343e f32b dd3c 9507 773d
00000180: fb87 d53d a30f 6a3e 41e4 84be 2aae 183c
00000190: 2741 913d 7560 2f3e 3e7d a1be 52ab bc3d
000001a0: e7f9 4ebe 90a4 c5bc 583c d2be e2e0 89be
000001b0: 0bc0 5cbe b637 783d 83b9 77bc 3b2d 86be
000001c0: 27f6 bdbd a4d3 94be 3b45 e7be 5acf cd3b
000001d0: 7b92 de3d 9254 0b3e 6b36 6d3e fd12 a83e
000001e0: f47d 163e f5b6 4cbd 23c3 493e d163 3d3e
000001f0: 994f 0bbe c930 723e c371 2c3e e918 e23d
00000200: c035 41be ba77 83bd 5234 c83d 53be 083e
00000210: 04d0 39bf 3525 d03c e4d6 27be e03d 2fbf
00000220: f183 883e 8896 b53e 1d4e 7f3e f328 e53e
00000230: 070d f63d 2734 203d 84a8 913e d76f f33d
00000240: 2ebd 2d3e 3b60 763e 26b3 be3d b80a e2bb
00000250: 10aa 0c3e 65d8 3dbe 3f1a 3ebd 494a 583d
00000260: d335 d4bd 8b84 b7be 371c 60be 2fdd d1be
00000270: a424 59be ae09 ff3e 28d8 513b 1150 1bbd
00000280: 30cb d7be 3862 0f3f 7b11 183f 91d1 89be
00000290: a50c 44be ff81 09bd cb01 d83e 7e8a dfbd
000002a0: bbd5 ff3b f8d7 a53d 371e 61be e737 a93d
000002b0: 7bc8 cc3d f10a dc3d 4100 b53e 41f5 863e
000002c0: e1cb 033e 5d79 573e 0c50 e5bd 9353 2ebc
000002d0: c92f 87bd 4423 c53d 130c 38be 3235 933c
000002e0: 7d58 d2bd 3f73 52be 8381 4f3e 1ce3 eebd
000002f0: ab38 e33e ffd4 92be 90c4 0a3f a6eb 093e
00000300: ab61 763e e20c b9bd 3a50 923e bbf1 12bb
00000310: bf16 fb3c d7cb 34be 0f1e bd3d 4115 e7bd
00000320: bfe8 a83e 2f92 4d3e ae38 82be a48e 5abe
00000330: 820f 7d3e 51d0 a53e fd0e de3d 93e4 1b3d
00000340: 9c83 903e 1ed4 84be d274 913d 9d7c 383d
00000350: 22d0 1dbe 3ce6 0e3d 91a5 273e 6a24 d73e
00000360: 1e5e 3b3d 64d7 0abe c2b0 063f a262 8b3e
00000370: 3145 9d3e e762 8bbe 6a33 17bd b996 87be
00000380: edc1 57bd 4925 55bd d0c1 cd3c fbbb 3a3e
00000390: fe70 c9bc 9593 fc3d 0e42 983d dded b23d
000003a0: a1bc ccbd 698b 8c3e 811f babe eae3 47be
000003b0: 75e7 0dbf 393f 62be 11a1 cfbc 2a17 0d3e
000003c0: eef2 01bd 11be 00be cd88 313d d0bb 003e
000003d0: 929e 96be 4428 8dbd 86d6 d6bd f680 fabe
000003e0: bccd 8fbe a4f1 133e 8b27 97be 46cd 043f
000003f0: 40af 063f 8df3 5abd 13a2 aabe 4d55 4b3e

network_body._body_endoder.seq_layers.0.bias f4 [128]
0.017431516 0.018277375 0.0004918434 0.0034708905 0.019037727 0.002537154 -0.009766322 0.022029756
0.0069940393 0.00059021486 0.020642953 0.004575346 0.005177617 0.015887018 0.009474284 -0.023695309
-0.0046815583 0.008810842 0.010100008 0.020090746 0.0011539465 0.010442472 0.00706324 0.012941674
0.010312634 -0.02540407 -0.0083993785 0.021035193 0.007256425 -0.0018998662 0.008227588 0.01468501
0.0101107415 -0.017256195 -0.018539706 -0.0015297963 -0.013179581 0.018515365 0.028286586 0.001664458
0.01624891 0.0056832223 0.006543591 0.0069632353 0.017258894 -0.0006979762 0.014288848 0.029263351
0.0150767565 0.015095248 0.028069733 0.024375018 0.025403805 0.0056657423 0.001775684 0.013624288
-0.0046058223 0.023797654 -0.0059538507 0.008894982 0.021584153 0.024269 -0.011622389 0.010947637
-0.0063717137 -0.0017499347 0.022761464 0.032983895 0.018612461 0.01052245 0.021732053 -0.004174174
0.012720786 0.004024149 0.007839588 0.01918661 0.031760033 -0.009419228 0.017505426 0.0067684078
0.023162914 0.005367068 0.019224962 -0.017563011 0.012242765 -0.0110705495 0.007100472 0.004952539
-0.0199306 -0.00986425 0.0019297615 0.0054616863 0.015554783 0.01662525 -0.0043958607 -0.004929893
0.0048419903 -0.013159959 0.014622304 0.0013219533 0.03564542 0.031067187 -0.010632213 -0.00022768235
0.009066632 0.0032782794 -0.006150057 -0.0061203013 0.0009787026 0.021224482 0.015471066 -0.006007886
-0.0137365395 0.009537955 0.018444465 0.025860917 0.026893819 0.0072911913 0.0142962495 -0.0026427417
-0.008715382 -0.038408656 0.007338703 0.013470739 -0.028509498 0.0050315317 0.00069338415 -0.006376172
00000000: 8acc 8e3c 6fba 953c 0def 003a e177 633b
00000010: 02f5 9b3c 6146 263b ec02 20bc bf77 b43c
00000020: 412e e53b a6b8 1a3a 691b a93c c9ec 953b
00000030: 00a9 a93b 7e25 823c 073a 1b3c aa1c c2bc
00000040: c267 99bb 5a5b 103c 817a 253c 5995 a43c
00000050: 0540 973a e716 2b3c c072 e73b 5109 543c
00000060: 52f6 283c 321c d0bc 8c9d 09bc ff51 ac3c
00000070: 4ec7 ed3b ee04 f9ba 01cd 063c 6599 703c
00000080: 86a7 253c dd5c 8dbc 95e0 97bc 7283 c8ba
00000090: 2bef 57bc 89ad 973c 45b9 e73c f129 da3a
000000a0: 6f1c 853c 533a ba3b 9f6b d63b da2b e43b
000000b0: 8662 8d3c 64f8 36ba c61b 6a3c b2b9 ef3c
000000c0: 8004 773c 0f52 773c 7ff2 e53c 1eae c73c
000000d0: a41b d03c b1a7 b93b 11be e83a 6838 5f3c
000000e0: 70ec 96bb 4cf3 c23c 8518 c3bb 42bc 113c
000000f0: 40d1 b03c c8cf c63c d56b 3ebc b85d 333c
00000100: cfc9 d0bb 115e e5ba 4076 ba3c 1f1a 073d
00000110: 2979 983c 5b66 2c3c 6b07 b23c 82c7 88bb
00000120: d86a 503c 02dd 833b 9e71 003c 3d2d 9d3c
00000130: cf16 023d 1b53 1abc 8a67 8f3c 85c9 dd3b
00000140: 27c0 bd3c 3bde af3b ab7d 9d3c 4ee0 8fbc
00000150: e195 483c 4061 35bc 14ab e83b e948 a23b
00000160: 7f45 a3bc aa9d 21bc 0df0 fc3a f2f7 b23b
00000170: 7dd9 7e3c ad31 883c 270b 90bb f18a a1bb
00000180: 8fa9 9e3b de9c 57bc 6392 6f3c 6445 ad3a
00000190: ef00 123d 9d80 fe3c bc32 2ebc 04be 6eb9
000001a0: 368c 143c 67d8 563b 6b86 c9bb cf8c c8bb
000001b0: cf47 803a f7de ad3c 5b7a 7d3c cddd c4bb
000001c0: 390f 61bc 1545 1c3c d918 973c 46da d33c
000001d0: 6d50 dc3c f2ea ee3b d13a 6a3c d931 2dbb
000001e0: f6ca 0ebc 6552 1dbd 8179 f03b 60b4 5c3c
000001f0: c08c e9bc 8cdf a43b 39c4 353a 35ef d0bb

network_body._body_endoder.seq_layers.2.weight f4 [128, 128]
-0.05595467 -0.12718102 0.020692924 -0.16523202 -0.20362774 0.08282915 0.0923973 0.09433055
-0.04178666 -0.035451666 0.062410265 0.013442415 -0.0940632 0.072624706 0.056500666 0.010151719
-0.021151748 0.030076955 0.017436331 -0.045902967 0.06008845 -0.01090428 0.19652607 0.046144307
0.048450828 -0.06253043 0.013919758 -0.033362377 0.109303094 0.016163707 -0.063927166 0.09464828
0.018823829 -0.01476998 0.004767916 0.017512001 -0.009228727 -0.05090704 0.029822713 -0.18658258
0.10797538 -0.11297947 0.11728539 0.03954518 0.11682475 -0.045577805 -0.06880402 -0.12912737
-0.0543261 -0.05065329 0.0013040872 -0.13724573 -0.11262906 0.11825669 -0.051972955 -0.017956477
-0.046010215 0.059528798 -0.019003266 -0.0003463928 -0.19238463 -0.43527487 -0.08463671 -0.054555837
0.10673645 0.00024224662 0.10901406 0.028251354 0.082720146 -0.18149644 0.091378175 0.14853625
-0.08327169 0.058550164 -0.15417144 -0.13902082 -0.04645951 0.090002105 0.076490544 0.078629866
-0.021140406 -0.043203216 0.17849551 0.0017339787 -0.003557448 -0.0008045608 -0.09048024 0.019972134
-0.023447903 0.06757034 0.010372751 0.006005094 -0.0056275465 -0.1650036 0.059743613 -0.020397741
-0.005632898 0.060045063 0.03156145 0.04178451 -0.062715754 0.033974897 0.13551223 -0.002000425
0.024261817 -0.028089544 0.061406225 -0.13767457 6.114281e-05 -0.05030248 0.059886802 0.033303894
0.119306356 0.0074363467 0.050857898 -0.046733424 -0.11796114 0.04145318 0.0946738 0.04110741
0.09356154 -0.02289284 0.034428168 -0.101443276 0.08167846 -0.07887596 0.06665573 0.09722572
0.00069558073 0.007973222 0.05285162 0.17524315 0.04248767 -0.055416916 0.048792485 0.03841089
-0.11103796 0.1448121 -0.12861559 -0.0052142567 0.06183418 -0.09981934 -0.061337154 -0.08801347
0.011241432 -0.12489057 -0.21099532 0.12512493 -0.033454776 -0.042343833 -0.07870456 -0.040502656
-0.029555684 0.036012378 -0.055296533 0.08777794 0.028895259 -0.052140526 -0.024299242 -0.006513442
0.04753901 -0.090924874 -0.07494063 -0.054185104 0.02764168 -0.06550578 -0.1545466 0.072584085
-0.03378867 0.076711126 0.15447341 -0.016507313 -0.0058819903 -0.017200273 0.0829067 -0.06968695
0.05440374 -0.12553033 0.12524185 0.0020807993 0.04146258 0.1151817 -0.03596326 0.08192973
0.124523096 0.07814965 -0.0722969 0.15030971 -0.108958095 -0.05027232 -0.08723778 -0.0108597465
-0.0960813 -0.07943253 -0.07721516 -0.051381983 0.07714648 -0.127954 0.068165414 0.029742993
-0.044411298 0.009423938 0.047110073 0.11292944 0.0033778744 -0.014588239 0.11750079 -0.11536504
-0.01631204 -0.21579501 -0.20580155 0.096058376 0.16766112 0.10673988 -0.015195634 -0.043444727
0.09487577 0.07035429 -0.14339723 -0.145596 -0.121276 -0.13761853 0.174418 -0.06570804
-0.16931589 0.0582738 -0.12269995 -0.069183156 -0.0439987 -0.08231383 0.019955374 0.0834809
-0.08664909 -0.14514758 0.11208771 0.05272062 -0.04107626 0.067593254 -0.06514457 0.10780512
0.036069483 -0.06328482 -0.015124145 -0.053921804 -0.059712965 -0.044392303 0.10548924 0.04542182
0.032320168 0.054161567 -0.1807067 0.017125644 0.06175842 -0.1436707 -0.0101155685 0.050199345
00000000: b930 65bd be3b 02be 3584 a93c 9532 29be
00000010: ca83 50be 54a2 a93d cc3a bd3d 6030 c13d
00000020: 7d28 2bbd c435 11bd e8a1 7f3d 933d 5c3c
00000030: 35a4 c0bd 43bc 943d 3e6d 673d 6553 263c
00000040: 6e46 adbc f263 f63c a3d6 8e3c c004 3cbd
00000050: 4e1f 763d dda7 32bc 213e 493e d001 3d3d
00000060: 6074 463d f40f 80bd b20f 643c fda6 08bd
00000070: 4dda df3d c069 843c 3fec 82bd f5d6 c13d
00000080: 6e34 9a3c c9fd 71bc 2e3c 9c3b 5475 8f3c
00000090: 1634 17bc e683 50bd c34e f43c 810f 3fbe
000000a0: 3222 dd3d c861 e7bd 5333 f03d 20fa 213d
000000b0: d141 ef3d cbaf 3abd 1fe9 8cbd f739 04be
000000c0: 0b85 5ebd d379 4fbd e8ed aa3a 258a 0cbe
000000d0: 11aa e6bd 9030 f23d 98e1 54bd 7619 93bc
000000e0: 3575 3cbd 78d4 733d bdac 9bbc 0e9c b5b9
000000f0: 7a00 45be 59dc debe 0356 adbd f175 5fbd
00000100: a498 da3d 9503 7e39 c342 df3d 626f e73c
00000110: 2e69 a93d 34da 39be 7b24 bb3d e319 183e
00000120: 598a aabd 4cd2 6f3d 1edf 1dbe 795b 0ebe
00000130: 544c 3ebd 0653 b83d 13a7 9c3d b208 a13d
00000140: a52e adbc dbf5 30bd 87c7 363e ac46 e33a
00000150: 1324 69bb 29e9 52ba b44d b9bd 9a9c a33c
00000160: d115 c0bc 5262 8a3d 79f2 293c 61c6 c43b
00000170: 4867 b8bb b4f6 28be b8b5 743d 2a19 a7bc
00000180: 2c94 b8bb d0f1 753d 9446 013d 3c26 2b3d
00000190: 1e71 80bd 4329 0b3d b8c3 0a3e 9019 03bb
000001a0: b8c0 c63c 0b1c e6bc 1885 7b3d 90fa 0cbe
000001b0: cc39 8038 f909 4ebd dd4b 753d aa69 083d
000001c0: e456 f43d 99ac f33b 5f50 503d 8c6b 3fbd
000001d0: 9c95 f1bd cfca 293d 56e4 c13d 3e60 283d
000001e0: 319d bf3d c489 bbbc 8d04 0d3d 7ec1 cfbd
000001f0: 0947 a73d b889 a1bd cd82 883d 471e c73d
00000200: a257 363a 1ea2 023c f17a 583d f172 333e
00000210: 8d07 2e3d d9fc 62bd a1da 473d bd54 1d3d
00000220: df67 e3bd a049 143e ceb3 03be 5bdc aabb
00000230: d645 7d3d 156e ccbd ab3c 7bbd 6840 b4bd
00000240: fc2d 383c a1c6 ffbd 280f 58be c020 003e
00000250: e007 09bd ba70 2dbd db2f a1bd 1de6 25bd
00000260: c31e f2bc b781 133d 9e7e 62bd ecc4 b33d
00000270: c0b5 ec3c 4e91 55bd 340f c7bc b66e d5bb
00000280: 44b8 423d d236 babd 797a 99bd 33f1 5dbd
00000290: ce70 e23c e527 86bd 7741 1ebe f7a6 943d
000002a0: fd65 0abd b91a 9d3d 472e 1e3e 583a 87bc
000002b0: b6bd c0bb 96e7 8cbc fdca a93d 08b8 8ebd
000002c0: 75d6 5e3d 068b 00be 663f 003e 055e 083b
000002d0: abd4 293d 62e4 eb3d 364e 13bd c6ca a73d
000002e0: f705 ff3d ec0c a03d 6610 94bd caea 193e
000002f0: 6c25 dfbd 59ea 4dbd b9a9 b2bd 14ed 31bc
00000300: 46c6 c4bd 86ad a2bd fb22 9ebd ea75 52bd
00000310: f9fe 9d3d 6006 03be 4f9a 8b3d 94a7 f33c
00000320: 9fe8 35bd dc66 1a3c 7ef6 403d 8d47 e73d
00000330: 545f 5d3b 8203 6fbc 41a4 f03d 8244 ecbd
00000340: d4a0 85bc 5ef9 5cbe a4bd 52be 41ba c43d
00000350: 5baf 2b3e 709a da3d 1cf7 78bc 19f3 31bd
00000360: 3a4e c23d e915 903d b9d6 12be 1e17 15be
00000370: 8d5f f8bd dfeb 0cbe a29a 323e f091 86bd
00000380: 2561 2dbe 82b0 6e3d 1d4a fbbd e6af 8dbd
00000390: fb37 34bd 2794 a8bd 7479 a33c 09f8 aa3d
000003a0: 1475 b1bd 91a1 14be 3e8e e53d 94f1 573d
000003b0: 953f 28bd 556e 8a3d 846a 85bd eec8 dc3d
000003c0: 98bd 133d 799b 81bd 43cb 77bc 1cdd 5cbd
000003d0: 9595 74bd b4d4 35bd be0a d83d 3b0c 3a3d
000003e0: 2762 043d 85d8 5d3d 2d0b 39be 144b 8c3c
000003f0: 66f6 7c3d 691e 13be c5bb 25bc d49d 4d3d

network_body._body_endoder.seq_layers.2.bias f4 [128]
-0.024406658 -0.0092982305 0.021223033 0.013553033 -0.008224824 0.015063658 0.019771535 -0.0008580978
0.030065276 0.02026633 0.017689222 0.022723515 0.019403635 0.00878549 0.0103536025 0.005702403
0.007982453 0.010567832 0.03463778 -0.0060036653 -0.0033786679 0.008155122 -0.008368272 -0.0003340923
0.009393115 0.01851559 0.006738828 -0.020278757 -0.018859688 0.015135597 0.015152915 0.012659747
0.008373857 0.010685584 -0.02023303 -0.012825795 0.0071197753 -0.0010977892 0.013976602 -0.021481976
0.019098489 0.025670849 -0.011681003 0.018202364 0.014069338 0.0061983187 0.023493847 -0.01709854
-0.03076572 0.024164578 0.010257259 -0.0070738024 -0.0051318062 -0.004961903 0.006509287 0.018888269
-0.0015254674 0.021180147 -0.015531228 -0.038542517 0.007743812 0.007424379 0.016196093 0.030434689
-0.006836005 0.016578725 -0.007985803 0.024985692 0.013907421 0.004313178 0.012354657 -0.012818716
0.005772456 -0.01767243 0.002387769 0.0024491674 -0.0067074406 0.016734364 0.0021848565 -0.016703194
-0.018987529 0.017125847 0.008444769 0.010014685 -0.032998748 -0.020699713 -0.0138754435 -0.009300927
-0.012135943 -0.025034308 -0.006722386 -0.024684938 0.0010119886 0.018644419 -0.0033857955 0.004647876
0.013622286 0.012854012 0.02286529 0.0026076164 0.0021930966 -0.0010880615 0.016122283 0.0008912061
-0.016294658 0.016913842 0.0064111315 0.014919499 -0.017562468 0.011746167 0.015668647 0.008286998
0.030198561 0.004064486 -0.0003166337 -0.011239275 0.014003245 0.023492156 -0.011329888 -0.007491161
0.009029511 -0.00066959875 0.00092047965 -0.020122254 0.0016267556 0.0029367118 0.017383037 0.01634081
00000000: 79f0 c7bc 9b57 18bc eddb ad3c 8a0d 5e3c
00000010: 6ac1 06bc 90cd 763c eaf7 a13c f8f1 60ba
00000020: 744b f63c 9305 a63c fde8 903c aa26 ba3c
00000030: 5ff4 9e3c 04f1 0f3c 28a2 293c 39db ba3b
00000040: d6c8 023c b324 2d3c 58e0 0d3d 65ba c4bb
00000050: a46c 5dbb 109d 053c 141b 09bc 1c29 afb9
00000060: 94e5 193c 02ae 973c 63d1 dc3b a31f a6bc
00000070: a27f 9abc 4cfb 773c ef43 783c d46a 4f3c
00000080: 8032 093c 9612 2f3c bdbf a5bc 4923 52bc
00000090: 014d e93b b1e3 8fba 1efe 643c f8fa afbc
000000a0: 6f74 9c3c ac4b d23c ad61 3fbc 201d 953c
000000b0: 1583 663c 441b cb3b 2b76 c03c 3d12 8cbc
000000c0: 6408 fcbc cbf4 c53c 100e 283c 5bcb e7bb
000000d0: b628 a8bb 7697 a2bb db4b d53b 92bb 9a3c
000000e0: 31f2 c7ba fd81 ad3c b176 7ebc c2de 1dbd
000000f0: cebf fd3b 3448 f33b abad 843c 2b52 f93c
00000100: 9100 e0bb 1bd0 873c e3d6 02bc cbae cc3c
00000110: f4db 633c 8f55 8d3b 306b 4a3c 9705 52bc
00000120: df26 bd3b c6c5 90bc 1e7c 1c3b 3682 203b
00000130: 17ca dbbb 8116 893c cf2f 0f3b 23d5 88bc
00000140: bc8b 9bbc 814b 8c3c ee5b 0a3c a214 243c
00000150: b229 07bd 7292 a9bc d455 63bc ea62 18bc
00000160: d6d5 46bc c014 cdbc 7647 dcbb 1138 cabc
00000170: b4a4 843a 2ebc 983c 39e4 5dbb 364d 983b
00000180: 0230 5f3c a299 523c fd4f bb3c 8be4 2a3b
00000190: 0eba 0f3b 499d 8eba e112 843c d49f 693a
000001a0: 607c 85bc e68e 8a3c 7814 d23b ea70 743c
000001b0: 2adf 8fbc ff72 403c 895b 803c 30c6 073c
000001c0: f962 f73c 612f 853b db01 a6b9 f024 38bc
000001d0: de6d 653c 9f72 c03c ffa0 39bc 6a78 f5bb
000001e0: 84f0 133c 0388 2fba 584c 713a 6dd7 a4bc
000001f0: dc38 d53a d975 403b df66 8e3c 2add 853c

network_body._body_endoder.seq_layers.4.weight f4 [128, 128]
-0.047103662 -0.06624689 0.005937152 -0.09256813 0.17796698 0.001906918 -0.0961118 -0.030504199
0.044241693 0.18066362 0.13525873 0.026086567 0.16314138 0.04046945 0.013389895 -0.0035414414
0.09054691 -0.11534427 -0.0033514388 0.12673189 0.02354786 0.04009003 0.058743954 0.043615397
0.02106358 0.0088342 -0.043560337 -0.02462631 -0.129342 0.1395342 0.034857318 0.0016489953
-0.05035209 0.00947067 0.017354596 -0.07243576 0.099022545 0.10439456 -0.049129736 -0.10246092
0.027900683 0.02272578 0.07154195 0.058468156 -0.04677836 0.013743281 0.049939238 -0.036208905
0.09851551 -0.1053371 0.0072031585 -0.04715373 0.039097402 0.00047585674 0.014758 -0.08988069
-0.042207804 0.020977242 -0.080297716 0.012518139 -0.0173155 -0.043166302 -0.006347155 0.08894034
0.11102567 0.12151463 -0.013107552 -0.004430538 -0.08957613 0.099017404 -0.06353932 0.014965428
-0.08806198 0.07108577 -0.0228885 -0.020739676 -0.08193239 -0.021463383 0.023498332 -0.09023762
-0.008919133 0.062676184 0.07105008 0.0008287267 0.17023306 -0.008211853 -0.11837315 0.16071452
0.11485727 0.21361718 -0.10611041 -0.096286975 0.07078029 -0.0523247 0.015396196 0.05103617
-0.19970779 -0.021748452 0.15526123 0.19219786 -0.020474631 -0.111154705 0.07945464 0.023859994
-0.06694426 0.063098595 -0.008594033 -0.040292155 0.1784318 -0.09556765 -0.026238795 0.037752815
0.051085543 -0.15310556 -0.025923984 -0.03314147 0.0048922263 0.04079959 0.027195409 -0.0017786487
0.034003403 -0.10220248 0.006694854 0.020098753 0.18374395 0.10331238 0.125143 0.06650678
0.015428717 0.01801064 0.013743593 -0.02634151 -0.017916875 0.16676494 -0.06324246 0.08889722
0.03508582 0.13272491 0.08554796 0.106272094 0.07863312 -0.08845163 -0.08219895 -0.1557729
-0.16122097 0.096706934 0.0064300373 -0.006474178 0.034360833 -0.05891354 -0.10809125 0.2045653
-0.017741363 -0.1665956 -0.028927017 0.07685259 -0.11835304 -0.108227395 -0.023455665 -0.0045605437
-0.05668076 -0.082892716 -0.2604416 -0.094033346 0.04625368 -0.02580739 0.012968378 -0.0068112104
0.20292482 -0.23463929 -0.028037826 0.09071428 0.12565818 -0.0382207 0.12141376 -0.039939113
-0.07785292 0.017280372 0.09376675 -0.062289257 -0.012080556 -0.1406217 -0.069932856 -0.01442658
0.16044755 0.086127795 -0.09227541 -0.030647617 0.18225083 0.012872043 0.056742426 0.15582305
0.14991736 0.051013384 0.033972953 0.025561092 -0.06296538 -0.16820152 0.112613544 0.13070776
-0.07749022 0.0021654915 0.08790929 -0.045483224 0.02289667 0.01619362 -0.097998805 0.061405215
-0.031454995 0.04169617 -0.07149871 -0.042770028 0.022945067 0.04483608 -0.015544399 -0.10092448
0.24497908 0.0025092214 -0.12703963 0.016930006 -0.020427866 -0.07872989 -0.038273096 -0.13587818
0.13490812 -0.093949065 -0.040778164 0.0041938345 0.00063007284 0.10970074 -0.01230265 0.100074306
0.15140577 -0.02186747 0.00142098 -0.09643198 0.07488552 -0.09740689 0.023972454 -0.08887647
0.13332438 0.043221723 0.020272013 -0.019105952 0.0748233 -0.008571112 -0.07111205 -0.0005976411
-0.015046064 -0.016141746 -0.04735152 0.12535411 0.075978674 -0.06458866 0.0337142 -0.06943227
00000000: c5ef 40bd 73ac 87bd 718c c23b 5c94 bdbd
00000010: fa3c 363e 8df1 f93a 43d6 c4bd f1e3 f9bc
00000020: c736 353d e2ff 383e 4481 0a3e 7fb3 d53c
00000030: 890e 273e 4bc3 253d 4a61 5b3c 8717 68bb
00000040: a970 b93d 9e39 ecbd d0a3 5bbb 01c6 013e
00000050: 71e7 c03c 7135 243d 809d 703d 0fa6 323d
00000060: 878d ac3c 52bd 103c 536c 32bd 1ebd c9bc
00000070: 3b72 04be 0ee2 0e3e 8cc6 0e3d 1a23 d83a
00000080: fe3d 4ebd de2a 1b3c 3a2b 8e3c 3359 94bd
00000090: 55cc ca3d d1cc d53d 433c 49bd 08d7 d1bd
000000a0: f98f e43c 6a2b ba3c 9684 923d 4e7c 6f3d
000000b0: aa9a 3fbd 802b 613c 168d 4c3d ca4f 14bd
000000c0: 80c2 c93d faba d7bd 7908 ec3b 4524 41bd
000000d0: 9924 203d 697c f939 8acb 713c 5e13 b8bd
000000e0: 17e2 2cbd 77d8 ab3c 2173 a4bd e118 4d3c
000000f0: 3cd9 8dbc 26cf 30bd ccfb cfbb 5a26 b63d
00000100: 6d61 e33d aadc f83d 0fc1 56bc 0c2e 91bb
00000110: b173 b7bd a3c9 ca3d e720 82bd 8e31 753c
00000120: d759 b4bd 6b95 913d aa80 bbbc 41e6 a9bc
00000130: 2bcc a7bd fad3 afbc 937f c03c 80ce b8bd
00000140: 8e21 12bc 5f5c 803d b482 913d e83e 593a
00000150: 9351 2e3e 028b 06bc 9f6d f2bd 5992 243e
00000160: 4a3a eb3d 76be 5a3e 6a50 d9bd 1b32 c5bd
00000170: 42f5 903d 6d52 56bd 5440 7c3c 4e0b 513d
00000180: 3380 4cbe cf29 b2bc cdfc 1e3e 84cf 443e
00000190: 6aba a7bc 14a5 e3bd 1db9 a23d 0976 c33c
000001a0: 121a 89bd d639 813d fdcd 0cbc 6309 25bd
000001b0: d3b6 363e f9b8 c3bd bef2 d6bc b2a2 1a3d
000001c0: 133f 513d b4c7 1cbe 895e d4bc 5abf 07bd
000001d0: f84e a03b 791d 273d e8c8 de3c 8c21 e9ba
000001e0: 2747 0b3d 894f d1bd 8160 db3b 24a6 a43c
000001f0: 6027 3c3e 7195 d33d 7d25 003e b534 883d
00000200: bbc8 7c3c 0d8b 933c cf2c 613c 26ca d7bc
00000210: 69c6 92bc 6ec4 2a3e 4385 81bd bf0f b63d
00000220: 26b6 0f3d 0ae9 073e c533 af3d 2fa5 d93d
00000230: 670a a13d 2126 b5bd ec57 a8bd ee82 1fbe
00000240: 1c17 25be 490e c63d 10b3 d23b 5725 d4bb
00000250: f2bd 0c3d 534f 71bd f25e ddbd 9179 513e
00000260: 5656 91bc 0998 2abe 5af8 ecbc e464 9d3d
00000270: 1463 f2bd 53a6 ddbd 1826 c0bc 9d70 95bb
00000280: 162a 68bd a8c3 a9bd 9a58 85be 8e94 c0bd
00000290: 8074 3d3d 056a d3bc 5279 543c 9330 dfbb
000002a0: 86cb 4f3e 4845 70be 95af e5bc 69c8 b93d
000002b0: 8aac 003e 4f8d 1cbd c7a7 f83d 3297 23bd
000002c0: 5a71 9fbd 918f 8d3c c808 c03d 0523 7fbd
000002d0: 86ed 45bc 23ff 0fbe f538 8fbd 765d 6cbc
000002e0: 5d4c 243e c563 b03d e4fa bcbd b610 fbbc
000002f0: f69f 3a3e 43e5 523c bf6a 683d 1490 1f3e
00000300: f083 193e 69f3 503d 3927 0b3d 7f65 d13c
00000310: fef3 80bd 053d 2cbe eea1 e63d 41d8 053e
00000320: 31b3 9ebd ebea 0d3b c909 b43d 9e4c 3abd
00000330: cc91 bb3c 7ca8 843c 99b3 c8bd 0984 7b3d
00000340: f4d6 00bd 9ac9 2a3d ea6d 92bd a02f 2fbd
00000350: 4bf7 bb3c 0aa6 373d efad 7ebc 7eb1 cebd
00000360: ccdb 7a3e c071 243b ad16 02be ccb0 8a3c
00000370: 5758 a7bc 233d a1bd 40c4 1cbd a623 0bbe
00000380: 5b25 0a3e 5e68 c0bd 0107 27bd 6f6c 893b
00000390: 792b 253a c8aa e03d 0e91 49bc c2f3 cc3d
000003a0: 1d0a 1b3e 6923 b3bc 2d40 ba3a 217e c5bd
000003b0: 945d 993d 437d c7bd e161 c43c de04 b6bd
000003c0: 3086 083e 4309 313d 7e11 a63c 1684 9cbc
000003d0: f53c 993d d96d 0cbc 32a3 91bd 04ab 1cba
000003e0: c483 76bc b23b 84bc abf3 41bd d45c 003e
000003f0: b59a 9b3d 0f47 84bd e717 0a3d 8232 8ebd

network_body._body_endoder.seq_layers.4.bias f4 [128]
-0.0033507436 0.009097124 0.026105277 -0.013218518 0.009355285 -0.0027095894 0.014176137 0.004857281
-0.0023742022 0.012603671 0.024420861 -0.0017539547 -0.007918048 -0.0109338155 0.009622228 0.0044146418
-0.026291758 0.020316165 0.0038837066 0.011442595 -0.01929615 0.0027284997 0.030168483 -0.010777937
0.010412449 0.025202299 -0.0063003683 -0.006362285 0.016454987 -0.0064008636 -0.0009442108 0.0058040954
0.011284745 -0.0016115605 -0.026844446 -0.0402196 0.0055756858 0.0072266026 0.006962014 -0.016598182
0.017039036 0.008520223 -0.01901018 0.016535986 0.014292187 -0.00448533 0.017912505 0.012080159
0.00898999 -0.005425039 0.011329837 0.014118081 0.0077711856 -0.011012666 0.02112348 0.014966452
0.012793933 -0.0075766887 0.008784464 -0.034095187 -0.0024334975 -0.02881225 -0.016892895 0.01042087
0.0058319364 -0.0070814635 -0.012959928 0.01596049 0.018346604 0.007587094 0.018289413 -0.03028429
0.009622529 -0.007384907 0.016478973 -0.0029816679 0.01410403 0.0147905145 -0.017107908 0.011517572
-0.009765192 -0.015199571 -0.021305626 0.022060275 0.016527086 -0.012089017 -0.009567211 0.026157161
-0.0068053915 -0.013252632 -0.035560872 0.023485838 -0.0038645105 0.021826694 0.003952249 -0.020093968
-0.028404 -0.029935004 0.0036168008 -0.018479042 0.018718949 -0.0001405967 0.008850049 0.020971643
0.002179087 -0.0030460455 0.023504468 0.016248222 0.0016505548 0.005800365 0.0018538628 0.0014731326
-0.004350016 -0.005719695 -0.012983584 0.00034250016 -0.01770614 -0.012889959 0.00020048878 -0.0059990897
-0.022549441 0.021501588 0.018858474 0.0073862565 0.018774565 -0.0040687495 -0.03561826 -0.00027728794
00000000: 2698 5bbb 1b0c 153c bcda d53c 7c92 58bc
00000010: e946 193c 5e93 31bb 0743 683c d429 9f3b
00000020: 8198 1bbb a17f 4e3c 420e c83c f4e4 e5ba
00000030: b3ba 01bc bf23 33bc 8da6 1d3c b3a8 903b
00000040: d061 d7bc 166e a63c c985 7e3b b979 3b3c
00000050: f612 9ebc a1d0 323b e523 f73c f295 30bc
00000060: fa98 2a3c 0d75 ce3c 5273 cebb b77a d0bb
00000070: 9ccc 863c 56be d1bb ea84 77ba 4830 be3b
00000080: a7e3 383c ff3a d3ba e2e8 dbbc 4fbd 24bd
00000090: 3eb4 b63b 23cd ec3b 9b21 e43b e9f8 87bc
000000a0: 7395 8b3c 6898 0b3c 3dbb 9bbc 7a76 873c
000000b0: c729 6a3c adf9 92bb 3fbd 923c dceb 453c
000000c0: c04a 133c 87c4 b1bb c8a0 393c 864f 673c
000000d0: 6ea5 fe3b 786e 34bc 260b ad3c d935 753c
000000e0: a59d 513c df45 f8bb b6ec 0f3c 65a7 0bbd
000000f0: 507b 1fbb ab07 ecbc f862 8abc 4cbc 2a3c
00000100: d419 bf3b 9f0b e8bb e155 54bc 93bf 823c
00000110: 9e4b 963c 289d f83b aed3 953c c216 f8bc
00000120: d0a7 1d3c 17fd f1bb e9fe 863c 1668 43bb
00000130: 9714 673c ea53 723c e225 8cbc 33b4 3c3c
00000140: 2ffe 1fbc 9f07 79bc 2389 aebc c0b7 b43c
00000150: d063 873c 0311 46bc cbbf 1cbc 8b47 d63c
00000160: c3ff debb 9121 59bc 47a8 11bd 5f65 c03c
00000170: ba43 7dbb e5cd b23c de81 813b 1b9c a4bc
00000180: 81af e8bc 413a f5bc d907 6d3b 5c61 97bc
00000190: 7b58 993c 246d 13b9 ccff 103c b9cc ab3c
000001a0: 03cf 0e3b 2aa0 47bb 718c c03c fe1a 853c
000001b0: 6e57 d83a fd10 be3b 50fd f23a 2116 c13a
000001c0: 948a 8ebb 476c bbbb 19b9 54bc 9891 b339
000001d0: 780c 91bc 6830 53bc 4c3a 5239 0394 c4bb
000001e0: 9bb9 b8bc 1924 b03c 167d 9a3c 6908 f23b
000001f0: 1ecd 993c 2553 85bb 74e4 11bd f560 91b9

action_model._discrete_distribution.branches.0.weight f4 [3, 128]
0.017435519 -0.008689018 -0.0037158784 0.009188317 -0.0011745625 -0.0067871325 -0.019074172 -0.029805493
0.0021116524 -0.0058774985 -0.0016389085 -0.0034679684 0.005214492 -0.007485006 -0.014398921 -0.016909251
0.0015119694 0.026724633 -0.0034435198 0.00097538554 0.0013183395 -0.0015126038 -0.019206004 -0.00083266577
0.019122489 -0.020169048 0.030355163 -0.009336245 -0.0014268946 0.00845317 0.01499566 -0.010761443
-0.011369493 0.024019416 -0.010727238 0.0049941875 0.0027664623 -0.027225148 -0.012069796 0.0073495684
0.00585768 -0.003328436 -0.015256001 -0.013619629 -0.01207632 0.020226024 0.013866789 0.017372819
0.0020297437 0.018676698 0.019288061 -0.00090739375 0.010877715 0.012602338 -0.019166619 0.011321669
-0.017095506 -0.013208404 -0.010098015 -0.0014866386 -0.011889163 0.00025232867 0.0032949226 -0.0013935071
-0.007433952 0.0018142493 0.013645335 -0.006961902 0.014006842 -0.010830657 -0.009620503 0.0071662744
0.01331048 0.017365197 0.010183867 0.01394349 0.008888475 -0.0082911495 0.006245833 -0.0065677776
0.0015226683 -0.0017548695 0.014843117 0.0065941596 0.004894076 0.0060959095 -0.011315969 -0.039885312
-0.02416305 0.009784213 0.012152329 0.0039123828 -0.0039457195 -0.019985693 -0.007449978 0.01808807
0.014054808 0.00986674 -0.026170129 0.01525381 0.0012198021 0.0064596 -0.0058704284 -0.000310678
0.029141378 -0.0064684707 0.014415959 -0.021552872 0.036882725 0.005612203 -0.0090434225 -0.012461479
-0.0021715916 0.00967571 0.003888312 -0.008806385 -0.006753249 0.005079918 -0.0016611271 0.017900111
0.015772417 -0.008552881 -0.004344902 0.0068956604 -0.009635966 0.023979662 -0.007399407 -0.005373087
-0.01971467 0.016962087 0.036119446 -0.016917013 0.0043125073 -0.00041290725 0.0025098629 -0.010537205
-0.0033166783 -0.0064800372 0.03294301 -0.001014008 -0.017677207 -0.008750292 0.0010905415 0.010223266
-0.027761813 0.015469506 -0.011541898 -0.0033247184 -0.00055601884 0.0016873799 0.034578465 -0.010800613
-0.01861859 0.024028173 -0.009783333 0.0039017904 0.014001739 0.008853387 -0.018220896 0.0042680944
0.009677736 -0.019758642 -0.02894225 -0.028606964 -0.004759328 0.018208612 0.008958127 -0.014638041
0.008284768 0.0056947977 -0.024662334 0.019670386 0.003938073 -0.03107703 0.010190376 0.013212772
0.007982083 -0.028676024 0.007261379 0.00832238 0.00403474 -0.0046990938 0.000312392 -0.0018749018
0.020280644 -0.01866208 0.006821383 -0.029798966 0.010315223 -0.030090721 -0.025033524 0.0017982807
-0.013761941 -0.016576927 -0.0004584872 0.012160429 0.00850018 0.011353876 0.022228798 -0.02939804
0.0017914083 -0.005789191 -0.008174282 -0.021874838 0.013393962 0.017847652 -0.020621244 0.018513538
-0.020530233 -0.022546178 -0.02593127 0.017884262 0.022684164 -0.017225208 -0.011598439 0.043299537
-0.0104664955 -0.020739425 -0.017730236 0.01837036 -0.028454848 0.01671344 0.008431542 -0.042071294
-0.025243532 -0.02797776 -0.003114787 -0.01660871 0.029969277 -0.01006913 0.006417934 0.005549488
0.012462211 -0.0013709357 0.01060013 0.017357979 -0.0065264883 0.008102099 0.027657771 0.0043673613
-0.003639253 -0.0055726585 -0.013898339 0.003968385 -0.029684935 -0.0107052 -0.0039836764 -0.01885856
-0.024226954 0.01785704 0.00899099 -0.0058899377 0.0059775943 -0.0259849 -0.034835406 0.006001754
00000000: efd4 8e3c 625c 0ebc 1886 73bb 988a 163c
00000010: c7f3 99ba 9866 debb 7041 9cbc a62a f4bc
00000020: a663 0a3b 0898 c0bb a5d0 d6ba db46 63bb
00000030: 54de aa3b c844 f5bb 74e9 6bbc 4585 8abc
00000040: 462d c63a 9eed da3c adac 61bb 04b1 7f3a
00000050: 22cc ac3a 9042 c6ba e955 9dbc 4147 5aba
00000060: c4a6 9c3c 8f39 a5bc 64ab f83c 0df7 18bc
00000070: a306 bbba 2a7f 0a3c 5bb0 753c c350 30bc
00000080: 1c47 3abc 5ec4 c43c 4cc1 2fbc 48a6 a33b
00000090: 894d 353b 4607 dfbc 65c0 45bc a6d4 f03b
000000a0: c8f1 bf3b e421 5abb 4ef4 79bc dd24 5fbc
000000b0: c2db 45bc 0cb1 a53c 8731 633c 7151 8e3c
000000c0: 7305 053b e0ff 983c ff01 9e3c 2ade 6dba
000000d0: 7238 323c 097a 4e3c 5003 9dbc 867e 393c
000000e0: e00b 8cbc 1068 58bc 2572 25bc 50db c2ba
000000f0: c4ca 42bc fb4a 8439 a1ef 573b 57a6 b6ba
00000100: 8298 f3bb 1bcc ed3a af90 5f3c ab20 e4bb
00000110: f47c 653c 1173 31bc 509f 1dbc 11d3 ea3b
00000120: 3314 5a3c 7541 8e3c 3cda 263c 3c73 643c
00000130: f7a0 113c 9ad7 07bc d8a9 cc3b 8336 d7bb
00000140: 4594 c73a a603 e6ba 8c30 733c d213 d83b
00000150: 7c5e a03b 32c0 c73b 9d66 39bc c85e 23bd
00000160: 97f1 c5bc f74d 203c 901a 473c 7233 803b
00000170: 184b 81bb 09b9 a3bc f21e f4bb 6f2d 943c
00000180: 2346 663c 1ba8 213c bd62 d6bc 1eeb 793c
00000190: c4e1 9f3a 0dab d33b b95c c0bb 7fe2 a2b9
000001a0: e6b9 ee3c 77f5 d3bb ea30 6c3c a68f b0bc
000001b0: 5712 173d 92e6 b73b dd2a 14bc 3b2b 4cbc
000001c0: 4351 0ebb df86 1e3c 0dd3 7e3b a848 10bc
000001d0: 5c4a ddbb 7175 a63b 2dba d9ba 41a3 923c
000001e0: 2835 813c 6221 0cbc ae5f 8ebb fef4 e13b
000001f0: 2ce0 1dbc ff70 c43c ba76 f2bb b810 b0bb
00000200: a980 a1bc 13f4 8a3c fcf1 133d 8c95 8abc
00000210: ef4f 8d3b 797b d8b9 837c 243b 3ea4 2cbc
00000220: a15c 59bb 7e56 d4bb 40ef 063d 76e8 84ba
00000230: cacf 90bc 625d 0fbc 80f0 8e3a 7c7f 273c
00000240: be6c e3bc d073 7d3c 3b1a 3dbc 85e3 59bb
00000250: cbc1 11ba 132b dd3a 26a2 0d3d 0ef5 30bc
00000260: 0386 98bc bbd6 c43c 464a 20bc 2eb5 7f3b
00000270: 8d67 653c cc0d 113c fd43 95bc 5fdb 8b3b
00000280: 5e8f 1e3c e0dc a1bc 4c18 edbc 2759 eabc
00000290: 23f4 9bbb 3a2a 953c 1cc5 123c 65d4 6fbc
000002a0: d6bc 073c 6d9b ba3b aa08 cabc ca23 a13c
000002b0: f30a 813b 4195 febc 89f5 263c 627a 583c
000002c0: 48c7 023c fbe9 eabc ddf0 ed3b 975a 083c
000002d0: da35 843b dbfa 99bb 8bc8 a339 44bf f5ba
000002e0: 9823 a63c 38e1 98bc e885 df3b f61c f4bc
000002f0: 2e01 293c d180 f6bc 1b13 cdbc 4ab4 eb3a
00000300: c479 61bc 56cc 87bc 1c61 f0b9 893c 473c
00000310: 5744 0b3c 9c05 3a3c 2b19 b63c 29d4 f0bc
00000320: b0cd ea3a 41b3 bdbb 6ced 05bc dc32 b3bc
00000330: 5972 5b3c 3d35 923c e2ed a8bc b4a9 973c
00000340: 052f a8bc c3b2 b8bc d16d d4bc 0482 923c
00000350: 24d4 b93c e11b 8dbc 6107 3ebc db5a 313d
00000360: aa7b 2bbc bae5 a9bc 003f 91bc 707d 963c
00000370: 241a e9bc a0ea 883c 7324 0a3c f352 2cbd
00000380: 86cb cebc 9e31 e5bc 7421 4cbb fd0e 88bc
00000390: 2182 f53c fef8 24bc 884d d23b 7bd8 b53b
000003a0: 4d2e 4c3c f8b0 b3ba 2bac 2d3c 5232 8e3c
000003b0: 27dc d5bb abbe 043c 8d92 e23c 151c 8f3b
000003c0: 8980 6ebb d99a b6bb dcb5 63bc 3a09 823b
000003d0: d22d f3bc dd64 2fbc 8089 82bb 447d 9abc
000003e0: 9b77 c6bc ed48 923c f24e 133c 6100 c1bb
000003f0: b2df c33b 49de d4bc 92af 0ebd 5daa c43b

action_model._discrete_distribution.branches.0.bias f4 [3]
-0.0036578812 0.028423684 -0.02130834
00000000: 10b9 6fbb c9d8 e83c d48e aebc

action_model._discrete_distribution.branches.1.weight f4 [2, 128]
-0.008120428 -0.011598238 -0.014365216 -0.0076835253 -0.006235004 -0.008662923 0.0032415648 0.016692163
0.032782353 0.0158781 -0.0008901287 0.017189668 0.009786082 0.018112741 -0.0136901755 0.010210446
0.002588458 0.016319726 -0.012208707 0.01278349 0.006120669 0.011844598 -0.00658498 -0.022436544
-0.003861479 -0.002102655 0.00036383676 -0.018612685 0.019798879 0.010763324 0.01964382 0.0024142917
0.023865549 -0.005287458 0.01064696 0.0044912463 0.0014075027 0.024991928 0.008685385 -0.0011566152
-0.010262292 0.005047135 -0.01223863 0.011892076 0.027134227 -0.019420296 0.019745076 -0.030856403
-0.006127982 -0.009017466 -0.023072297 0.024624951 0.007615639 0.008494395 -0.013777196 -0.00664489
-0.011373628 -0.009758656 0.017762927 -0.0044774204 0.0048766625 0.01225289 -0.01863958 -0.05098709
-0.002347753 -0.008563583 -0.007920615 0.025851088 -0.012678492 0.006501773 0.0025866013 -0.024563543
0.0014433212 -0.013393483 -0.009438105 0.0071957884 -0.0012894251 -0.001551514 0.009765439 0.010531876
0.010134347 0.014541425 -0.009899963 -0.0017088285 0.00556469 0.0019209058 -0.006516705 0.008881024
-0.0039086007 0.016473014 -0.008990739 -0.0012373612 -0.020923857 0.00637341 0.014307717 0.006730695
-0.006211533 0.002682462 -0.018983386 -0.012594675 -0.0068827183 -0.019714508 0.021938955 -0.0016758305
-0.008388906 -0.022053685 0.0137165785 0.00071481755 -0.0076261554 0.01486562 0.00985137 0.018533679
-0.008457002 -0.009524044 0.0067682927 0.0040031327 -0.024839817 0.002356812 0.027640862 -0.013367275
-0.0034675668 0.0011300443 0.0047087404 0.010763099 -0.01726996 -0.0014042294 -0.010592522 0.0020864545
0.014113703 -0.012494078 0.011932099 0.0057746596 0.025516642 -0.014161324 -0.014692237 -0.009686388
-0.016130812 -0.019135078 -0.0031174212 -0.005989251 0.012638444 -0.026527382 0.004816751 -0.026377028
-0.0019848149 0.0001967629 0.008989431 -0.008667079 0.016357014 -0.020991446 -0.0049323463 0.020956084
0.00074682024 0.0061576315 0.0027936227 0.013558093 -0.023098182 -0.013488548 -0.0025329748 -0.0013461804
-0.008698438 0.008903453 0.011374932 0.008119934 -0.011106943 -0.038955007 0.015029889 0.0047330516
0.018528314 -0.0052069393 0.006335992 -0.00033271025 -0.016146021 0.0106577575 0.0054009836 0.03140188
0.01113357 -0.0029407376 0.0072873323 -0.023948839 0.0054055196 0.0022579078 0.03061812 0.011362833
0.040504724 -0.0004356149 -0.03999527 -0.0015399461 0.0066365735 -0.004110801 0.019877378 0.045378957
0.010079246 0.008584647 -0.0015842905 -0.0031714577 0.009857294 0.016516594 0.0092669 -0.009579783
0.012890959 -0.0039799535 -0.0077858483 -0.0065351706 -0.005457702 0.022078844 -0.0053328495 0.019397568
-0.0035264269 -0.0020903535 -0.006949554 -0.0053465343 -0.016596204 0.008245063 0.0041583423 -0.00085340074
-0.0023009828 0.0055719926 -0.0005226514 -0.002146187 0.020393517 -0.013099909 0.0019400218 0.012937972
-0.0049159955 0.0054049054 0.018438894 -0.00048919435 0.00607209 0.026446989 -0.017181117 0.022456393
-0.009105556 0.0032808094 -0.014853411 -0.0016858705 -0.012626026 -0.021594979 -0.008218288 0.01243037
0.016445814 0.02315527 -0.02444269 -0.022586673 0.014549748 0.0041320836 -0.03125752 0.0023625572
-0.0066428073 -0.021607475 0.008701789 -0.014468459 0.011636334 -0.0053197774 0.008578095 -0.023620611
00000000: 8b0b 05bc 8906 3ebc 155c 6bbc 15c6 fbbb
00000010: 014f ccbb efee 0dbc 6f70 543b 01be 883c
00000020: ca46 063d ca12 823c 8757 69ba 59d1 8c3c
00000030: ce55 203c 2c61 943c c24c 60bc b749 273c
00000040: 1ea3 293b f2b0 853c 0707 48bc d871 513c
00000050: e58f c83b d80f 423c d1c6 d7bb d8cc b7bc
00000060: de10 7dbb b2cc 09bb 58c1 be39 a179 98bc
00000070: 4231 a23c a758 303c 14ec a03c 1839 1e3b
00000080: af81 c33c 6a42 adbb 9670 2e3c 4e2b 933b
00000090: f47b b83a dfbb cc3c 254d 0e3c 9199 97ba
000000a0: 2c23 28bc 7062 a53b 8984 48bc fbd6 423c
000000b0: 9948 de3c 5017 9fbc 6dc0 a13c 91c6 fcbc
000000c0: 3dcd c8bb febd 13bc 1d02 bdbc 44ba c93c
000000d0: 9c8c f93b 132c 0b3c c0b9 61bc 61bd d9bb
000000e0: 7458 3abc c5e2 1fbc 8f83 913c 53b7 92bb
000000f0: 69cc 9f3b 58c0 483c 08b2 98bc d7d7 50bd
00000100: c2dc 19bb 454e 0cbc 78c5 01bc a9c5 d33c
00000110: 73b9 4fbc d30c d53b f883 293b 7c39 c9bc
00000120: d32d bd3a 5770 5bbc 48a2 1abc a6ca eb3b
00000130: ed01 a9ba 2c5c cbba 38ff 1f3c e48d 2c3c
00000140: 880a 263c 283f 6e3c 7433 22bc c5fa dfba
00000150: 0158 b63b e7c6 fb3a 158a d5bb b781 113c
00000160: b813 80bb 6af2 863c e44d 13bc f42e a2ba
00000170: 8268 abbc 0ad8 d03b ea6a 6a3c 298d dc3b
00000180: 1e8a cbbb 3fcc 2f3b 0c83 9bbc e559 4ebc
00000190: 6d88 e1bb 5280 a1bc 53b9 b33c 8aa7 dbba
000001a0: 9f71 09bc eea9 b4bc 80bb 603c 9862 3b3a
000001b0: d4e4 f9bb ee8e 733c a467 213c f1d3 973c
000001c0: 3d8f 0abc bc0a 1cbc 8ec8 dd3b b62c 833b
000001d0: df7c cbbc be74 1a3b 176f e23c 6a02 5bbc
000001e0: 1e40 63bb ff1d 943a c74b 9a3b b657 303c
000001f0: bb79 8dbc 1f0e b8ba 428c 2dbc e6bc 083b
00000200: 293d 673c f6b3 4cbc da7e 433c 5b39 bd3b
00000210: 4708 d13c e604 68bc b5b7 70bc a8b3 1ebc
00000220: c424 84bc 2bc1 9cbc a64d 4cbb 7b41 c4bb
00000230: 7a11 4f3c f44f d9bc d6d5 9d3b a314 d8bc
00000240: ab13 02bb 2452 4e39 6848 133c 5d00 0ebc
00000250: 25ff 853c 41f6 abbc 859f a1bb 18ac ab3c
00000260: 42c6 433a f5c5 c93b 3615 373b c422 5e3c
00000270: 6638 bdbc 12ff 5cbc 4400 26bb 5272 b0ba
00000280: e583 0ebc cadf 113c ec5d 3a3c 7909 053c
00000290: e5f9 35bc 498f 1fbd ec3f 763c b717 9b3b
000002a0: b1c8 973c f99e aabb 279e cf3b 9d6f aeb9
000002b0: a944 84bc e09d 2e3c bcfa b03b 429f 003d
000002c0: 9469 363c 64b9 40bb 93ca ee3b 5b30 c4bc
000002d0: c920 b13b 68f9 133b dad2 fa3c 2d2b 3a3c
000002e0: 48e8 253d 3e63 e4b9 15d2 23bd 04d8 c9ba
000002f0: 9d77 d93b e6b3 86bb e2d5 a23c 49df 393d
00000300: 6c23 253c 9fa6 0c3c f8a7 cfba 3bd8 4fbb
00000310: 7d80 213c cf4d 873c 32d4 173c 86f4 1cbc
00000320: 9a34 533c 456a 82bb 6e20 ffbb fc24 d6bb
00000330: 86d6 b2bb b1de b43c 2fbf aebb a6e7 9e3c
00000340: a01b 67bb 50fe 08bb 16b9 e3bb fb31 afbb
00000350: c3f4 87bc 4d16 073c b442 883b c1b6 5fba
00000360: 16cc 16bb 4395 b63b 8b02 09ba 0ba7 0cbb
00000370: 4e10 a73c 00a1 56bc 5448 fe3a caf9 533c
00000380: 5c16 a1bb a21b b13b 2a0d 973c 473d 00ba
00000390: 62f8 c63b 5ba7 d83c 6abf 8cbc 78f6 b73c
000003a0: 782f 15bc d902 573b b95b 73bc 6df8 dcba
000003b0: 64dd 4ebc f4e7 b0bc 00a6 06bc c0a8 4b3c
000003c0: 5fb9 863c 1fb0 bd3c 093c c8bc b007 b9bc
000003d0: 1162 6e3c 6e66 873b e307 00bd 22d5 1a3b
000003e0: e8ab d9bb 2902 b1bc f391 0e3c 1e0d 6dbc
000003f0: 52a6 3e3c 8751 aebb 238b 0c3c 0380 c1bc

action_model._discrete_distribution.branches.1.bias f4 [2]
0.0013686568 -0.0013686547
00000000: 8064 b33a 6e64 b3ba

action_model._discrete_distribution.branches.2.weight f4 [3, 128]
0.008419278 -0.016127551 -0.003636467 0.010343033 0.014019046 -0.0005460409 0.010506181 -0.00010536464
0.021628888 -0.005881803 0.0062780576 -0.013851207 0.014695155 0.002795129 0.010199758 4.5515422e-05
0.0074633835 0.0076268013 0.013126424 -0.0051468164 0.018138262 -0.012089008 0.032500174 -0.0080811875
0.01120022 0.02234451 0.022614617 -0.007760892 0.0013283471 -0.011712929 0.00658834 -0.011534905
-0.019416433 -0.0043324213 0.0019348655 0.0008589706 -0.019285131 -0.017024146 -0.011185523 -0.018068407
0.00048811748 -0.007841389 -0.0043960265 -0.009267999 -0.0007174993 0.0014038412 -0.019430075 0.012387162
0.0039669843 0.00459608 0.0075712847 0.008141096 0.0056736264 -0.0011390588 0.0086792 0.012020242
0.0012750117 -0.0086990055 -0.011855464 0.011114601 -0.0039839516 0.013984285 0.009570147 0.010833043
-0.009162932 -0.03010472 0.013674597 -0.01158272 0.010009751 -0.00029336358 -0.021447726 -0.0016642282
0.0046151103 0.0015173984 0.031617317 0.014055973 -0.011365939 0.0035410395 -0.021589294 -0.015974639
0.036992125 0.0005481556 0.0018212176 0.014147757 -0.009288776 -0.011966494 -0.006266576 -0.0063580126
-0.015563406 0.007974556 -0.003962226 0.007207878 0.01093793 0.00095874205 0.0122174835 0.0022097107
-0.023041114 -0.015982514 0.009812187 -0.012873583 0.019229507 0.015584144 -0.024000984 0.00788607
-0.0019793024 0.003506983 0.0028709578 -0.013937077 0.011221643 0.002742343 -0.00998035 -0.004591342
0.013237136 -0.020688042 -0.005340315 0.0023756654 -0.0028116803 -0.0056876363 -0.031195875 -0.0072716214
0.004863724 0.015108462 0.011821557 -0.018122144 0.012137115 -0.010189689 -0.0019522097 0.012026243
-0.02311752 0.0057843216 -0.0039667846 -0.020785205 0.00079312257 0.008753545 0.00858142 -0.0010054087
0.011027366 -0.00034730646 -0.0057689017 0.008644189 -0.023352519 0.018861251 -0.0048707016 0.017368058
-0.00510038 0.024475606 -0.014539828 0.006208453 0.002750553 -0.0052817655 -0.00243899 -0.006041814
-0.011366148 -0.0021189435 0.003340711 0.0069720456 0.0031078863 0.003909649 -0.007927875 0.010214822
0.018051624 -0.01270348 0.0063476996 0.0006083924 0.00886525 0.011192084 0.012037944 0.008820623
-0.018406264 0.015844043 -0.0033467996 0.0067398925 0.0217864 0.008728114 -0.0035755322 -0.011277418
-0.006350998 -0.003152246 -0.010458218 -0.0032427604 -0.008774105 0.005632954 -0.0126936445 0.003330898
-0.008236361 -0.010793055 0.024146315 0.0018651872 -6.0300317e-06 -0.0058034393 -0.0019367705 -0.013192962
-0.0077767265 0.003942327 -0.008892387 0.019761998 -0.019330306 0.017195392 0.012718945 -0.009403646
0.0061846315 -0.017310712 -0.0021490206 0.008625981 0.022988439 0.00075996475 0.011425734 0.029750159
-0.014543958 -0.0006859285 0.028859911 -0.003392363 0.003247406 0.02475292 -0.002215717 0.017013578
-0.0007820989 -0.016092692 0.007529694 0.015326744 -0.006238921 0.0033996447 -5.4581964e-05 0.003723372
0.0010200015 -0.009613698 -0.011218646 0.007921981 -0.004232741 -0.007127928 0.02041865 -0.022745965
0.012034564 -0.017616518 0.011662853 0.008605884 0.007954119 0.012073026 0.008162739 -0.005551306
-0.011487967 0.0033109263 0.023856586 -0.012742514 0.0055010268 0.0024069336 0.011071507 -0.006634399
-0.005845699 0.0011593768 0.010340643 -0.015530214 0.006265184 0.0105112055 0.0076465933 0.006312256
00000000: 03f1 093c ed1d 84bc cb51 6ebb d375 293c
00000010: 24b0 653c 2f24 0fba 1e22 2c3c 36f7 dcb8
00000020: 112f b13c 24bc c0bb 2ab8 cd3b 2cf0 62bc
00000030: f3c3 703c 7c2e 373b e31c 273c d0e7 3e38
00000040: 668f f43b 3fea f93b 3610 573c a0a6 a8bb
00000050: b196 943c fa10 46bc e71e 053d f566 04bc
00000060: 2181 373c d50b b73c 4a42 b93c 154f febb
00000070: ef1b ae3a 96e7 3fbc 00e3 d73b e6fc 3cbc
00000080: 360f 9fbc fcf6 8dbb 509b fd3a 8b2c 613a
00000090: dafb 9dbc 3976 8bbc 7c43 37bc 3204 94bc
000000a0: 05ea ff39 2b79 00bc 8b0c 90bb ced8 17bc
000000b0: 9016 3cba 1801 b83a d22b 9fbc 86f3 4a3c
000000c0: 7afd 813b b79a 963b 8a18 f83b 3b62 053c
000000d0: d4e9 b93b 794c 95ba 3433 0e3c 8df0 443c
000000e0: 4b1e a73a 4686 0ebc 6c3d 42bc 041a 363c
000000f0: cf8b 82bb 581e 653c 1bcc 1c3c 137d 313c
00000100: 1f20 16bc 2c9e f6bc 6b0b 603c 73c5 3dbc
00000110: f0ff 233c 98ce 99b9 24b3 afbc 3b22 daba
00000120: 5a3a 973b 71e3 c63a 2981 013d 064b 663c
00000130: 3438 3abc c910 683b 08dc b0bc 3fdd 82bc
00000140: 0e85 173d 1ab2 0f3a ecb5 ee3a fecb 673c
00000150: f32f 18bc 1d0f 44bc d957 cdbb e056 d0bb
00000160: a8fd 7ebc b6a7 023c 90d5 81bb 1030 ec3b
00000170: 0135 333c 1754 7b3a d72b 483c cbd0 103b
00000180: b8c0 bcbc c3ed 82bc 4cc3 203c b8eb 52bc
00000190: 3387 9d3c a354 7f3c b69d c4bc 9334 013c
000001a0: 2fb7 01bb 69d5 653b ae26 3c3b 5658 64bc
000001b0: fbda 373c e1b8 333b 9f84 23bc f872 96bb
000001c0: 93e0 583c f879 a9bc cffd aebb 0db1 1b3b
000001d0: 2b44 38bb 5a5f babb 7e8e ffbc c846 eebb
000001e0: e05f 9f3b 7c89 773c 34af 413c e474 94bc
000001f0: c0da 463c a7f2 26bc 4ae1 ffba b809 453c
00000200: f460 bdbc 688a bd3b cdfb 81bb bc45 aabc
00000210: 8ee9 4f3a 076b 0f3c 1699 0c3c ebc7 83ba
00000220: 20ac 343c af16 b6b9 0e09 bdbb 5ba0 0d3c
00000230: c84d bfbc e982 9a3c 689a 9fbb 7547 8e3c
00000240: 1721 a7bb 1181 c83c 7538 6ebc 4770 cb3b
00000250: 9f42 343b a912 adbb 76d7 1fbb 69fa c5bb
00000260: 1439 3abc f9dd 0abb d4ef 5a3b c275 e43b
00000270: aead 4b3b 831c 803b ebe3 01bc 125c 273c
00000280: 00e1 933c 4222 50bc 5d00 d03b 867c 1f3a
00000290: 8e3f 113c 015f 373c cc3a 453c 6084 103c
000002a0: bcc8 96bc 5ecb 813c fb55 5bbb 51da dc3b
000002b0: 6479 b23c 5d00 0f3c 7a53 6abb ebc4 38bc
000002c0: 081c d0bb e995 4ebb f258 2bbc 7e84 54bb
000002d0: 44c1 0fbc a594 b83b 01f9 4fbc 324b 5a3b
000002e0: cdf1 06bc 5bd5 30bc 7ece c53c 4c79 f43a
000002f0: 9455 cab6 c72a bebb 3cdb fdba 4b27 58bc
00000300: e9d3 febb a32e 813b 60b1 11bc eae3 a13c
00000310: 975a 9ebc 5add 8c3c 1f63 503c c011 1abc
00000320: 73a8 ca3b 32cf 8dbc 95d6 0cbb fd53 0d3c
00000330: 4052 bc3c 5f38 473a 0033 3b3c 9bb6 f33c
00000340: c849 6ebc e2cf 33ba 9f6b ec3c 6852 5ebb
00000350: 6fd2 543b a3c6 ca3c 9035 11bb 0f60 8b3c
00000360: c505 4dba d2d4 83bc a7bb f63b 061d 7b3c
00000370: dd6f ccbb 93cc 5e3b f0ee 64b8 d103 743b
00000380: 92b1 853a c682 1dbc 69ce 37bc 32cb 013c
00000390: ceb2 8abb 6591 e9bb 0345 a73c bf55 babc
000003a0: 9f2c 453c 8450 90bc 8d15 3f3c b2ff 0c3c
000003b0: fe51 023c f1cd 453c 02bd 053c bbe7 b5bb
000003c0: 0738 3cbc 20fc 583b e36e c33c fac5 50bc
000003d0: f541 b43b a5bd 1d3b 4465 353c 5f65 d9bb
000003e0: 478d bfbb 3bf6 973a cd6b 293c 7072 7ebc
000003f0: 2c4c cd3b 3137 2c3c 4690 fa3b 0bd7 ce3b

action_model._discrete_distribution.branches.2.bias f4 [3]
0.0018366572 -0.0051703397 0.0045244363
00000000: fdbb f03a f46b a9bb b941 943b
