results/Hard_Sper/Player/Player-10624.pt (torch, 902709 bytes, 72 tensors)

discrete_act_size_vector f4 [1, 4]
000000 00 00 40 40 00 00 00 40 00 00 40 40 00 00 40 40
       3.0 2.0 3.0 3.0

network_body.observation_encoder.processors.0.normalizer.running_mean f4 [18]
000000 93 08 bc c0 33 bc 5f 40 10 2c 31 41 b3 4c c1 41
       -5.8760467 3.4958618 11.073257 24.16245
000010 4f d9 0f 41 c0 c1 a9 41 6e f0 da 40 b1 b0 9b 40
       8.990554 21.219604 6.8418493 4.865319
000020 91 b4 6b 41 0c 14 5d 40 af a7 55 41 dd 55 24 40
       14.731584 3.4543486 13.353438 2.5677407
000030 4b b7 a6 bd 94 12 1f 3f 52 ed 8b 41 59 e6 79 40
       -0.08140429 0.6213772 17.49088 3.9046843
000040 dc 7c 5f 41 95 d8 02 41
       13.967983 8.177876

network_body.observation_encoder.processors.0.normalizer.running_variance f4 [18]
000000 2a a6 a4 4b d6 31 93 41 86 f6 7d 4c d1 e8 94 49
       2.1580884e+07 18.399334 6.657487e+07 1.2198661e+06
000010 6c ed eb 48 ad 98 dd 48 a7 1b 54 47 94 ff 53 47
       483179.38 453829.4 54299.652 54271.58
000020 c5 88 a0 4b 12 b5 6e 49 6e d3 73 4c 35 44 44 4a
       2.1041546e+07 977745.1 6.3917496e+07 3.2156292e+06
000030 1b 8f ae 46 dd 56 2d 47 49 77 9e 4b f7 49 66 49
       22343.553 44374.863 2.077045e+07 943263.44
000040 f0 db 73 4c a9 20 29 4a
       6.392621e+07 2.7709862e+06

network_body.processors.0.normalizer.running_mean f4 [18]
000000 93 08 bc c0 33 bc 5f 40 10 2c 31 41 b3 4c c1 41
       -5.8760467 3.4958618 11.073257 24.16245
000010 4f d9 0f 41 c0 c1 a9 41 6e f0 da 40 b1 b0 9b 40
       8.990554 21.219604 6.8418493 4.865319
000020 91 b4 6b 41 0c 14 5d 40 af a7 55 41 dd 55 24 40
       14.731584 3.4543486 13.353438 2.5677407
000030 4b b7 a6 bd 94 12 1f 3f 52 ed 8b 41 59 e6 79 40
       -0.08140429 0.6213772 17.49088 3.9046843
000040 dc 7c 5f 41 95 d8 02 41
       13.967983 8.177876

network_body.processors.0.normalizer.running_variance f4 [18]
000000 2a a6 a4 4b d6 31 93 41 86 f6 7d 4c d1 e8 94 49
       2.1580884e+07 18.399334 6.657487e+07 1.2198661e+06
000010 6c ed eb 48 ad 98 dd 48 a7 1b 54 47 94 ff 53 47
       483179.38 453829.4 54299.652 54271.58
000020 c5 88 a0 4b 12 b5 6e 49 6e d3 73 4c 35 44 44 4a
       2.1041546e+07 977745.1 6.3917496e+07 3.2156292e+06
000030 1b 8f ae 46 dd 56 2d 47 49 77 9e 4b f7 49 66 49
       22343.553 44374.863 2.077045e+07 943263.44
000040 f0 db 73 4c a9 20 29 4a
       6.392621e+07 2.7709862e+06

network_body._body_endoder.seq_layers.0.weight f4 [128, 18]
000000 86 54 22 3e eb 96 54 3d a5 83 cc 3e f9 6d 8c 3e
       0.15852556 0.05190174 0.39944187 0.27427652
000010 29 42 b3 3e 05 33 09 3f 3a 36 44 be 8b f2 21 3e
       0.35011414 0.53593475 -0.19161311 0.15815179
000020 c5 56 0e be 32 10 05 be c4 5a ed 3d 02 65 87 bd
       -0.13900287 -0.1299446 0.11589578 -0.066110626
000030 0b 8a c3 3e d1 59 b2 3d 19 60 f3 3e 1a 5c 88 3e
       0.38191256 0.08708537 0.47534254 0.26632768
000040 59 d9 e9 bd 9f 4b c4 3c 5c 21 57 be b9 50 e1 bd
       -0.11418409 0.02396184 -0.2100882 -0.11001725
000050 99 7c 25 3e 3d 1c ae be 3d 73 bb bd 1b da ee bd
       0.16160811 -0.3400592 -0.09152839 -0.11662694
000060 91 82 72 3d e6 f5 4d 3e 20 79 9a bd 25 c6 90 3e
       0.05920655 0.20113334 -0.07542634 0.28276172
000070 d3 12 09 3e 35 a3 73 bd 2f 94 47 3e 4f 98 91 be
       0.13386087 -0.05948182 0.19490121 -0.28436515
000080 c7 e4 07 3c 70 48 e6 bd 5c 06 52 bd fa d1 07 3e
       0.008294291 -0.11244285 -0.051275596 0.13263693
000090 3e ad a7 3d 64 18 8c be fe 2d c2 3d 6b 35 89 be
       0.0818734 -0.2736236 0.094814286 -0.26798567
0000a0 91 dd 0a be ef f7 f6 3d 90 0a 50 be 9c 56 2d bd
       -0.13561083 0.12059008 -0.2031653 -0.042318925
0000b0 2a de 57 be 81 08 ac bd 1a a3 1c 3e 76 9e 89 be
       -0.21080843 -0.084000595 0.15296593 -0.2687871
0000c0 41 c7 37 3e 3b 97 d0 3d 2d 30 90 be a3 bd b0 bd
       0.17947103 0.10185095 -0.28161755 -0.0862992
0000d0 d9 c0 7d 3d 42 c9 bb be 48 26 34 bd 44 73 85 3e
       0.061951492 -0.36676985 -0.04398182 0.26064503
0000e0 8a 89 97 3e 3b af cc 3d cf 5d 29 bf 81 cb a7 be
       0.2959712 0.0999436 -0.66158766 -0.3277245
0000f0 72 d3 c5 bc fa 0f 84 be 08 7c 84 bd 0b f3 4e be
       -0.024148677 -0.2579344 -0.064689696 -0.20209901
000100 6b 9d 4b bd 5f 26 eb 3c b4 e5 00 be 9e cb b2 3e
       -0.049710672 0.02870482 -0.12587625 0.34920973
000110 2b bc 01 bf cc ae 66 3e 28 ff 3c 3e d0 96 4d 3e
       -0.50677747 0.22527617 0.1845671 0.20077062
000120 32 e9 80 3c f9 d5 83 3e 7b fa 42 bd 2a 42 9b 3d
       0.015736196 0.25749186 -0.047602158 0.07580979
000130 59 07 a3 3e 54 f6 ad 3e 03 d3 84 3d 67 04 f6 3b
       0.31841543 0.33976996 0.0648556 0.007507849
000140 f3 a3 4f 3e c4 86 08 be 30 2c 26 3e cf 7b e7 bc
       0.20277385 -0.13332659 0.16227794 -0.028257279
000150 99 3e de 3e 4f 99 84 be d8 ba ed 3d 80 e4 d9 bd
       0.43407133 -0.25898215 0.11607903 -0.10639286
000160 25 32 74 3c c7 ec d9 bd 4b f7 37 be f1 b4 74 3e
       0.0149045335 -0.10640865 -0.17965429 0.23897149
000170 96 6c 00 be 09 33 f1 bc c3 94 c0 be e5 63 91 bd
       -0.12541422 -0.02944328 -0.37613496 -0.070991315
000180 59 be 0f 3e 3b 2c 61 3e c9 b7 23 3e 3c b9 7c bd
       0.14037456 0.21989529 0.15988077 -0.06170009
000190 c7 d3 51 3e 24 bc 0c 3d ef cc bf 3e a4 82 6d be
       0.20490943 0.034359112 0.3746104 -0.23194367
0001a0 ef 5c 19 3e 0a 93 77 3e d1 13 72 3c 99 6f 47 3e
       0.14976858 0.24177185 0.014775232 0.19476165
0001b0 4b f0 3d be ee ea 74 be 50 c5 aa be ee 56 02 3e
       -0.18548696 -0.23917744 -0.33353662 0.12728474
0001c0 38 f3 83 3e fa 0f b9 3e e9 d4 88 3e 3e 99 a8 3e
       0.257715 0.36145002 0.26724938 0.32929415
0001d0 ba 11 c4 bb c9 74 df 3d bd 36 76 3d de bc f1 bd
       -0.0059835585 0.10910947 0.060110796 -0.11803602
0001e0 73 0c db bc a3 2d 35 3e e1 67 b2 3d 49 b6 a2 be
       -0.026739335 0.1769319 0.087112196 -0.31779698
0001f0 af b8 ca be fb 52 d5 3e ac 58 ca 3d 35 53 13 be
       -0.39594027 0.41664872 0.09880194 -0.1438721
000200 e9 24 1c be e2 a3 70 be 6d 6c 14 be 41 7e 58 3e
       -0.15248455 -0.23500016 -0.14494486 0.21141912
000210 11 97 4b bc ed 41 78 be 0e e5 db be 70 23 a0 be
       -0.012426154 -0.24243899 -0.42948192 -0.31277037
000220 7c e9 79 be 54 fb 1d bf bd 42 11 3d 5e 16 0f be
       -0.24405473 -0.6171162 0.035464037 -0.13973376
000230 68 78 ff bc 96 27 51 be e6 42 bf bb 36 95 8b 3e
       -0.031185344 -0.20425257 -0.0058368323 0.27262276
000240 1a eb 0a 3f d2 48 9a 3e 44 9d c4 3e a6 71 6a be
       0.54264987 0.30133682 0.38401234 -0.22894916
000250 bd 07 cd bd 27 b2 80 3d 4f 08 99 3e 4d 86 55 3e
       -0.100112416 0.0628398 0.2988915 0.20852013
000260 0d f9 a9 be 3f 58 07 bf 3f 78 06 3e 28 27 ed bc
       -0.33197823 -0.5286903 0.13131808 -0.028949335
000270 7f a3 97 be b4 d3 0f be 81 78 fd 3c af 4e a8 be
       -0.29616925 -0.14045602 0.03094125 -0.3287253
000280 3f 66 1b be bf 1b ac be 61 c5 8c 3e dd a3 8e be
       -0.15175723 -0.3361492 0.27494338 -0.27859393
000290 8c 6e 35 bd e7 89 9f 3e 81 71 8a 3e 23 04 e3 bd
       -0.04429488 0.311599 0.27039722 -0.110847734
0002a0 57 81 46 be 03 cc be be b5 f4 2a 3f ee 30 3a 3d
       -0.19385277 -0.37265024 0.66779643 0.04545682
0002b0 44 0a 04 3f c1 80 3c be 65 11 07 bf 92 6a 8b 3d
       0.51578164 -0.1840849 -0.52760917 0.06807436
0002c0 c2 14 53 be 39 7e 6c be 04 64 bb 3d 65 12 92 be
       -0.20613387 -0.23095025 0.09149936 -0.2852966
0002d0 50 0f 73 3d bf 83 47 3e e2 3b 04 3f 0a d5 f7 bd
       0.059340775 0.19483851 0.51653874 -0.12101181
0002e0 d1 59 bf 3e 03 75 3d 3d cd e4 f2 bd f1 cd 05 3e
       0.37373212 0.04625417 -0.118600465 0.13066842
0002f0 91 5e 72 3d 45 26 64 bd d6 6d 26 be 91 b5 8a 3e
       0.059172217 -0.05570056 -0.16252837 0.2709165
000300 f7 ab 37 3e 68 d8 bf 3e bf 3f bd be bd f3 d4 3c
       0.17936693 0.37469792 -0.36962697 0.02599513
000310 c9 9f 9d be 49 da e6 bd ee 57 b2 bd d4 6c f4 bd
       -0.3078597 -0.11272103 -0.087081775 -0.1193482
000320 f8 86 8e 3e a4 2f 17 bf e8 e7 df 3e 12 63 2f bd
       0.27837348 -0.5905707 0.43731618 -0.04281909
000330 bb cc f6 3b 7e 68 dd 3d 2e e9 ce bd 7c ef 16 3d
       0.00753173 0.10810946 -0.10103069 0.036849484
000340 22 f5 84 bd 41 3e ed 3d 1a ec b4 be 6d 2f 00 3e
       -0.06492068 0.115841396 -0.3533638 0.12518091
000350 3d 1e 89 bd d0 e1 da 3d 69 65 7b be 5d c4 ba 3d
       -0.066952206 0.106876016 -0.24550404 0.091194846
000360 93 44 b5 3e 5f e1 d9 3d 8d 14 29 3e ae 2e 95 3d
       0.3540388 0.10638689 0.16511746 0.07284294
000370 1d 5f d1 3d 87 99 aa bd 85 93 ef 3d ba 65 76 3e
       0.102232195 -0.08330064 0.11698059 0.24062243
000380 94 fa 1b 3e a9 8d 67 be af d1 1c be 76 84 5c be
       0.15232307 -0.22612633 -0.15314363 -0.21534905
000390 ac 5a 08 be 0f 7c b3 bd 01 e9 f1 3d 6d 63 39 3e
       -0.13315839 -0.08763897 0.1181202 0.18104334
0003a0 7a 47 ab bd 2e 22 75 bd 79 23 9f bd f2 dd de 3e
       -0.083632424 -0.05984705 -0.07770438 0.43528706
0003b0 c2 c2 10 be 07 cd ae 3b ac 4a e1 3b 2d d6 b9 be
       -0.14136794 0.0053344998 0.0068753567 -0.36296216
0003c0 bb 76 d8 bd 21 f5 18 be ae 1c 9a bd 99 32 9f 3e
       -0.10569521 -0.1493726 -0.075250015 0.3109329
0003d0 e0 92 c1 3d be 5c 64 3d 87 1f 1c be 74 e5 77 bc
       0.09451842 0.05575251 -0.15246402 -0.0151303895
0003e0 4b f5 8f be a1 8d 84 be 9d 90 53 be ff 58 d7 3d
       -0.2811683 -0.25889304 -0.20660634 0.105150215
0003f0 e7 96 fc be 8a 94 cb 3e 60 68 20 3e d7 40 39 3e
       -0.4933388 0.39761764 0.15664816 0.1809114

network_body._body_endoder.seq_layers.0.bias f4 [128]
000000 3c ae 9d 3c 65 82 39 3b 52 28 5b 3b fd 7c 20 3c
       0.01924812 0.002830648 0.003344078 0.0097954245
000010 ba 64 04 bc 0d cd 73 ba 99 06 7c 3c 84 cc 63 3c
       -0.008080656 -0.00093002693 0.015382432 0.013903741
000020 c2 f4 2b 3c a3 03 1a bc 3c 8d af 3c 57 6f 0f 3b
       0.0104953665 -0.009400281 0.02142965 0.0021886432
000030 b6 5a 8d bb 00 03 15 3b 52 d0 69 bb 0c 17 24 3c
       -0.004313792 0.0022737384 -0.0035677147 0.01001526
000040 22 40 7f 3c 96 0d ab 3b 5b c8 86 3c f9 80 d9 3c
       0.015579255 0.0052201254 0.016452959 0.026550757
000050 68 75 0d 3b 89 e6 f7 3c e9 bb d6 3c d2 6a 6d 3c
       0.0021584872 0.030261295 0.02621265 0.0144908
000060 8c bb be 3c cf 51 bd 3c 2a 6a 6b 3c 77 51 ac 3b
       0.023282789 0.023110298 0.014368573 0.005258735
000070 0e 11 83 bb 02 ed 14 3c 56 c1 41 bc 2c b0 94 3c
       -0.003999836 0.00908971 -0.01182588 0.018150412
000080 2c 9a 12 3b e3 57 01 bc 20 40 d7 3a af a0 91 bb
       0.0022369726 -0.007894489 0.0016422309 -0.004444204
000090 0f 00 c8 3c 5e b3 8b 3c 2d b2 b0 3b 6a 71 8e 3c
       0.02441409 0.017053302 0.005392334 0.017388064
0000a0 b9 9d 07 bc 0e 8b d1 3a a3 a5 b1 3c 82 0f f3 bb
       -0.00827735 0.0015986876 0.021685427 -0.00741762
0000b0 7a 5d 84 3c 52 22 3b bc 58 7a 77 3c 85 73 61 3c
       0.016157854 -0.011421757 0.015104853 0.013760452
0000c0 b1 bc 94 bb 47 ab b2 3c f5 fa bd 3b 53 e2 44 3b
       -0.0045390953 0.021810187 0.0057977387 0.0030042126
0000d0 41 e8 2d ba de f7 f7 3b e2 90 b7 3c 5e 64 c4 3c
       -0.0006634035 0.00756739 0.022407953 0.02397364
0000e0 d4 7c 4f 3c 60 66 b3 bb 7b 9d 76 3c 4c 04 d5 3b
       0.012664039 -0.0054748505 0.015052195 0.0065007564
0000f0 69 02 80 3c 83 6e a5 3c 86 f4 94 3c c7 e1 dd 3b
       0.01562615 0.020194298 0.018183004 0.0067712995
000100 ce 6f 4d 3c 0e 83 37 3c b0 03 29 bc 6a 2a 98 bb
       0.012538863 0.0112006795 -0.010315821 -0.004643728
000110 28 c5 70 3c 42 04 c3 3c 63 a1 0b bc 6c 5e 23 3b
       0.014695443 0.023805741 -0.008522364 0.0024928106
000120 40 48 b8 3c a2 2c be 3c cc 28 ce 3b 75 e7 80 bb
       0.022495389 0.023214642 0.0062914845 -0.003933842
000130 ef 7a 03 3c fd 1b 67 3c bf 64 b7 3c 20 ba 19 3c
       0.008024915 0.014105794 0.022386907 0.009382755
000140 1e de 07 bb 74 9d 5e bb e2 41 6a 3a f3 23 20 bc
       -0.0020731757 -0.003396836 0.0008936209 -0.009774196
000150 25 83 0e bc 5d fd e6 ba 8b ce fc 3b f5 33 25 bc
       -0.0086982595 -0.0017623116 0.0077150515 -0.010083188
000160 7a 27 e3 39 d8 69 b8 bc a0 50 aa 3b 9e a6 57 3c
       0.00043326226 -0.022511408 0.0051975995 0.013162283
000170 0b b7 85 3c cd 4f 9d ba 16 0a c2 3b aa dd 19 3c
       0.016322633 -0.0012001932 0.0059216125 0.009391228
000180 a5 c1 99 3b db 50 e2 3b c5 af c2 3c 1c 6e 02 bc
       0.0046922737 0.0069066114 0.023765454 -0.007960822
000190 55 cd 58 3c 73 11 01 3b 4d 9c 86 3c 5b 51 a4 3c
       0.013232549 0.0019694238 0.016431952 0.020058325
0001a0 1e 7a ba bb 5e eb cb 3b c6 af c3 3c 16 22 15 bc
       -0.005690827 0.0062231263 0.023887526 -0.009102365
0001b0 ab 7a a6 3a ff 64 88 3c b8 dc 87 3b fc d7 35 3b
       0.0012701353 0.016649721 0.004146185 0.0027747145
0001c0 e4 9d 88 3c 73 b6 5c 3c f4 31 f7 ba d4 46 88 3c
       0.01667685 0.013471234 -0.0018859492 0.016635336
0001d0 04 f9 6e 3c 39 f1 9c 3c b0 98 d6 3c f3 ed fb 3b
       0.014585737 0.019157993 0.026195854 0.007688278
0001e0 94 ab 43 3c 17 d8 d3 3b c1 09 37 bc 18 cd 3c 3c
       0.011942763 0.006464969 -0.011171759 0.011523508
0001f0 de be ec 3c 3e 62 ad bb 5c 76 88 3c ff 53 21 bb
       0.028899606 -0.0052912524 0.016658 -0.0024616716

network_body._body_endoder.seq_layers.2.weight f4 [128, 128]
000000 18 08 0b be 06 b2 78 3d 9a 8a 54 3e 93 34 a0 bd
       -0.13577306 0.06071665 0.20755997 -0.07822528
000010 ce bd 44 be a5 65 d5 3d 3a 1d 63 bd 2e bf a5 3d
       -0.1921303 0.10419778 -0.055447794 0.08093105
000020 37 54 c5 bd 62 ef 0d bd 67 f9 24 3c d6 87 7c 3d
       -0.09635203 -0.03465212 0.010069228 0.06165298
000030 d3 e3 97 3d 95 2d b6 bc f5 1f d7 bd e8 35 11 3d
       0.07416501 -0.022238532 -0.10504142 0.0354518
000040 ec dc f4 bc 5d e6 ae 3c 6f 04 92 bd 95 00 dd 3d
       -0.0298905 0.02135008 -0.07129752 0.10791127
000050 6e 6d c0 3d 6a 83 6b bd 90 c7 4b 3e d5 26 38 3e
       0.09395872 -0.057498373 0.19900346 0.17983563
000060 cd 98 0b be 72 a1 d0 ba 6b 9a 06 be c4 ed 92 bc
       -0.13632508 -0.0015917255 -0.13144843 -0.017935641
000070 8f c4 64 3c 58 b1 2f 3e ae 95 35 3e 1e 2b 27 3d
       0.013962879 0.17157495 0.1773288 0.040812604
000080 a9 4b 5d 3d a7 28 01 be 4d 6b c7 3c 4a 9d ba 3d
       0.054027233 -0.12613164 0.024343157 0.09112032
000090 67 51 cc 3d 8d 12 0b 3d 9b a2 17 3e 85 94 2e 3d
       0.09976464 0.03395324 0.14808123 0.042622108
0000a0 d1 95 23 bd 4a 6c 0c 3e cd aa 29 3c e2 78 4c bd
       -0.039937798 0.13713184 0.0103556635 -0.04991997
0000b0 ed 2d 1d be 82 d2 cc bb c7 83 b2 3d 43 07 62 3d
       -0.1534955 -0.0062506804 0.08716541 0.055182707
0000c0 e1 8e 02 3c dc d9 0f 3e 01 e8 59 bd 18 91 b4 3c
       0.007968635 0.1404795 -0.05319977 0.022041842
0000d0 eb 8f 5f bc 16 b7 f3 3d af 63 83 3c 77 4a 9f 3d
       -0.013645153 0.11900155 0.016038744 0.07777875
0000e0 43 f9 d0 bd df a2 6a 3d 91 0a 48 bc 5b 7f 4b bd
       -0.10203793 0.057284232 -0.0122095505 -0.049682003
0000f0 f8 bf a1 bc 50 d7 4a 3d 3a 68 7f be 7e 51 06 bd
       -0.019744858 0.049521744 -0.24942103 -0.03279256
000100 ea 83 ac bc f0 af c6 3c 87 1b 9b 3d d2 e5 29 3e
       -0.021058995 0.024253815 0.0757361 0.16591576
000110 fe 7d 90 bd d9 c9 6a 3e 6e 54 f0 3c 4b 46 a6 3d
       -0.07055281 0.22928561 0.029337134 0.08118876
000120 97 93 26 3d 29 71 db 3d 88 3a e4 3c df 2b 3f 3b
       0.040668096 0.10714943 0.027859941 0.0029170436
000130 51 c1 89 bd 74 0a 08 be 73 ef 3d bd 24 2b 84 bd
       -0.06726325 -0.13285238 -0.046370935 -0.06453541
000140 5c 51 5d 3d cf c8 dd bd 9c 46 d5 bd 0d 0e 8b 3d
       0.05403267 -0.10829317 -0.10413858 0.06789789
000150 0c 50 19 3d dd 09 a7 3c ae bb 48 bc fa 28 2f 3d
       0.037429854 0.020390445 -0.012251778 0.042763688
000160 f8 97 e2 bb 7a 8b 03 be b8 95 cc 3d a4 b5 84 bd
       -0.0069150887 -0.12846175 0.09989494 -0.06479958
000170 27 b1 0b 3e cd 0f f4 3c 00 5e 02 be b1 4d 1e bd
       0.13641797 0.02979269 -0.1273117 -0.03864831
000180 22 eb cc 3d 6b a6 f3 3d 5f f6 99 bb 67 65 98 3d
       0.100057855 0.11896976 -0.004698559 0.07441216
000190 47 d2 ca 3d 6b c1 0f be 5b ad 6a 3d b9 cb 82 3d
       0.099033885 -0.14038627 0.05729423 0.06386513
0001a0 91 45 66 3d 55 bd c7 bd 8a 8a 8d 3a b4 64 10 3e
       0.056218687 -0.09752909 0.0010798734 0.14100915
0001b0 19 02 6d bd de c4 85 bd b8 d6 dc bd 21 31 13 be
       -0.05786333 -0.0653169 -0.10783142 -0.1437421
0001c0 43 f2 ed 3d b2 c3 d3 3d 14 d9 51 bd 70 21 b2 bb
       0.116184734 0.1034006 -0.051232412 -0.005436115
0001d0 bb 84 c8 3d a7 15 7f bd c9 37 7e 3d 2f da 28 be
       0.09790941 -0.06227651 0.06206492 -0.1648948
0001e0 42 06 e4 3d 3a 43 08 3d b3 b4 e9 3d 5b 34 c2 bd
       0.11134006 0.033267237 0.11411419 -0.09482642
0001f0 4b 37 96 bc 56 ce 0d 3e e0 4c 68 3d 5b 08 a0 3c
       -0.018336913 0.13848242 0.05671394 0.019535234
000200 6e 11 4e 3e 4c 2f 0e bc d5 e0 1e bd b4 09 09 3d
       0.20123836 -0.008678269 -0.038788635 0.03345652
000210 63 34 b6 bd 8c 69 ad bd d3 d6 c0 3c 4c 57 3c 3d
       -0.08896711 -0.08467397 0.023539936 0.04598169
000220 e8 56 6a 3c 05 0d bb 3d eb 15 01 3e df 6f 74 3c
       0.014302947 0.09133343 0.12606017 0.01491925
000230 d9 bb 09 3c ae e7 f0 bc 80 46 06 3d a1 c5 0f 3d
       0.008406603 -0.029407348 0.032782078 0.035100583
000240 01 f3 f4 3d ea 22 87 3d 4c c5 b2 3d 4b 1f f4 3d
       0.11960412 0.06598456 0.08729038 0.11920031
000250 32 78 53 be f8 46 e6 3d e3 64 9c bd df df 2c 3d
       -0.2065132 0.11244005 -0.0763643 0.042205688
000260 2e e1 41 3e 1c 4a 48 bd 23 05 1e be 11 c2 27 be
       0.18933555 -0.0488988 -0.15431647 -0.16382624
000270 2f b4 09 be 54 94 02 3e 25 9c 54 be 51 55 9d 3d
       -0.13447641 0.12751895 -0.2076269 0.076822884
000280 e9 80 01 3e 8c 66 c5 3d 33 89 8e bd 2d b9 5f 3d
       0.12646832 0.096387 -0.069597624 0.054619957
000290 14 68 de 3c 37 03 14 be 5e c8 c7 bd 63 c8 2d 3d
       0.027149238 -0.14454351 -0.09755014 0.04242743
0002a0 be a6 23 3e 97 e2 e7 bd d7 20 b9 3d d8 b8 31 3d
       0.15981576 -0.113225155 0.09039467 0.04338917
0002b0 0a ec 30 bc 69 61 63 bd 06 6d c0 3d a5 4c 8c 3d
       -0.010798464 -0.05551282 0.093957946 0.06850556
0002c0 cb 91 ad 3c 81 e9 a9 3d 09 a8 01 3d 3e be ac 3a
       0.021187684 0.082964905 0.03165439 0.0013179255
0002d0 d1 fa cd 3c 95 9e e7 3c 1f 1b a2 3d 10 13 e8 3c
       0.025144013 0.02827386 0.07915329 0.028329402
0002e0 38 7f d1 3d ea f7 b7 bd db 83 f5 3c be 63 c7 3c
       0.10229343 -0.08982833 0.0299701 0.024339553
0002f0 f7 97 b9 3d 69 22 6f 3d 31 ba da 3d fa 11 af 3d
       0.09062188 0.058382425 0.106800444 0.08548351
000300 96 e9 81 bc 38 1c 1a 3e e1 ca a3 3a ca 6e 00 3a
       -0.015858453 0.15049827 0.0012496376 0.00048993214
000310 22 c4 df bc 78 a4 5b 3e 9b dd 18 3d 80 34 66 3d
       -0.027315203 0.21449459 0.037320714 0.05620241
000320 09 76 5d 3d a9 21 ff 3d 15 61 72 bd 62 47 7f bc
       0.054067645 0.12457592 -0.059174616 -0.015580984
000330 d9 26 df bc 32 51 1a 3e f4 b1 02 bd 47 e1 ae bd
       -0.027240204 0.15070036 -0.03190799 -0.08539062
000340 93 af 17 3e ec 35 b7 bc a7 fd 55 3d 75 5e a0 3c
       0.1481307 -0.02236458 0.052243855 0.01957629
000350 92 c0 21 bd 37 ae 19 bd f8 b7 11 3e a2 54 2e 3d
       -0.03949029 -0.03751966 0.14230335 0.04256118
000360 f5 1b 8c bd 48 c6 37 be db 0e 59 bd af a2 6c 3d
       -0.0684127 -0.17946732 -0.052992683 0.057772335
000370 30 95 aa bd 77 38 af 3d 7b 17 c4 bb 00 b9 89 3d
       -0.083292365 0.08555692 -0.0059842444 0.06724739
000380 df c4 55 bd 3e 7a 9c 3e e7 5a bb bc 52 de a0 bd
       -0.052189704 0.30562013 -0.022870494 -0.07854904
000390 45 d7 b6 b9 6d a9 1f be 0d 3b 8b bb 45 91 3e bd
       -0.00034874133 -0.15591975 -0.0042489828 -0.04652526
0003a0 2c d6 7b be 0f 49 de 3a 74 d9 10 3e 9b b5 42 be
       -0.24593419 0.0016959029 0.14145452 -0.1901459
0003b0 91 82 4c 3d 9b 7c 15 bd 90 ae 4b be dd 3d 4e bb
       0.049929205 -0.036495786 -0.19890809 -0.003146998
0003c0 0e 77 40 3e 14 9a bc 3c b4 72 86 3b e5 25 67 3b
       0.18795416 0.023022689 0.004103029 0.003527039
0003d0 c5 98 c4 3c 2f ba ed 3d 58 75 07 bd f6 8f 3e ba
       0.023998627 0.11607777 -0.033070892 -0.00072693767
0003e0 59 e2 b5 bc e5 94 20 3e 8b 50 aa bc bd 1e cd 3d
       -0.022202658 0.15681799 -0.020790359 0.100156285
0003f0 51 01 c7 3d 4d 0c 75 3d 7f 95 42 bc 97 31 df bd
       0.09717048 0.059826184 -0.011876463 -0.108981304

network_body._body_endoder.seq_layers.2.bias f4 [128]
000000 80 69 83 b7 15 5c a0 3c 1c 84 89 3c c6 b4 ad bb
       -1.5665544e-05 0.019575158 0.016786627 -0.005301091
000010 4b 36 35 bc c5 93 5b 3c 99 dd f0 3b 71 69 ce 3c
       -0.011060308 0.01340193 0.0073506352 0.025196763
000020 64 06 cb 3c 29 d0 d6 bb 17 72 9c bb cc 03 ad 3c
       0.02478332 -0.0065555763 -0.0047743428 0.021119975
000030 5c 91 1f 3c c2 cc fe ba 81 45 29 3c b0 ec ed 3b
       0.009739246 -0.0019439685 0.010331512 0.0072608814
000040 44 12 e1 3b 36 76 16 3b 77 09 04 bc cb eb b0 ba
       0.0068686325 0.0022958643 -0.008058897 -0.0013498006
000050 df e3 6f bc 4f 0e a0 3c 14 9e b6 bb f8 41 d4 3b
       -0.014641731 0.019538073 -0.0055730436 0.0064775907
000060 32 2c 46 3c eb 19 23 3c d7 fe 73 3c a0 b0 78 3b
       0.012095498 0.00995491 0.0148923015 0.0037947074
000070 a3 81 92 bc 0e b2 7b 3c 61 76 0a 3b c8 a8 7c 3c
       -0.017884081 0.015362276 0.0021127688 0.0154211
000080 7f 79 a5 3c 7d 28 13 3c 25 ad bb 3a 3c be 01 3c
       0.020199535 0.008981821 0.0014318569 0.007918891
000090 41 3a 23 3c b6 a9 cf 3b 58 22 28 bc 18 03 c5 3b
       0.009962619 0.00633737 -0.010262094 0.0060123317
0000a0 07 74 7b bb e4 cd 1f bc 35 e7 a3 bc 3f fd 80 3b
       -0.0038368718 -0.009753678 -0.020007709 0.0039364393
0000b0 d7 6e 3a 3c fc 72 8b 3a d4 1d b0 bb 12 af 77 3c
       0.011378965 0.0010639126 -0.0053746495 0.015117424
0000c0 40 20 58 3b bf 6f 51 ba 7d cd e9 bb 22 c8 a4 3c
       0.0032978207 -0.0007989369 -0.007135092 0.020114962
0000d0 e5 f7 10 3c 2f 63 a3 3b 59 24 b1 3a 28 06 b9 ba
       0.008848165 0.004986189 0.0013514861 -0.0014116215
0000e0 e5 56 9d 3c db d4 c3 3b 5f 10 61 3c 97 5b 08 3b
       0.019206474 0.005976302 0.013736813 0.0020806545
0000f0 a1 42 a9 3c 11 ff 4c bb b2 b1 ce bb 0e 5e 07 bc
       0.020661654 -0.003127996 -0.006307804 -0.0082621705
000100 74 19 10 3c 63 3d 0a 3c d8 05 1e bb b8 f8 55 ba
       0.008795131 0.008437487 -0.002411237 -0.0008162367
000110 cb 2b b6 3c 73 41 68 3b 84 d2 32 3c 55 77 f0 ba
       0.022237679 0.0035439401 0.010914449 -0.0018346111
000120 56 36 1e 3c 63 b3 80 bb a9 80 57 bb 66 1d 3d bb
       0.009656509 -0.0039276346 -0.0032883084 -0.0028856634
000130 3a 9c b4 3b 34 37 84 bb 6d 66 b4 ba fc 84 a5 3a
       0.0055117877 -0.004034901 -0.0013763435 0.0012628133
000140 f9 ff ef 3a 62 c3 10 3c d5 f7 a3 bb d2 45 a9 3c
       0.0018310539 0.008835645 -0.005003909 0.020663176
000150 c4 3e 35 bc 96 5e 09 bc 08 5b 36 3a d7 01 2d 3c
       -0.011062328 -0.008384367 0.0006956314 0.010559521
000160 e2 57 38 3c e8 b8 ad 3b eb ca 53 3c 0e 36 a4 ba
       0.011251422 0.0053015836 0.012926797 -0.0012528317
000170 7e b9 e1 3b 1b 51 51 3c 5f 0f 37 3c ad 74 fe b9
       0.0068885675 0.012775685 0.011173098 -0.00048533586
000180 7b af 74 3b 5e 96 10 3c 72 51 86 3c 89 c0 a7 3b
       0.003733604 0.008824913 0.016396258 0.0051193875
000190 da 70 a2 bc 75 1a 83 ba ae dc 8c bb ea 94 0b 3b
       -0.019829202 -0.0010002392 -0.004298768 0.0021298476
0001a0 93 2f e9 ba 00 ef b5 3b 53 3f 09 bb fc d8 15 3c
       -0.0017790667 0.0055521727 -0.0020942285 0.009145971
0001b0 de 91 43 bc 96 09 fd 3b 61 cf 3b 3c dd d6 fd 3b
       -0.011936633 0.00772209 0.011463017 0.007746561
0001c0 02 df 58 bb 30 b4 75 bb 71 3d 25 3c 78 de 7a 3c
       -0.0033091907 -0.0037491433 0.01008545 0.01531183
0001d0 09 62 e8 bb 51 23 0e 3c 99 f1 88 3c 09 c5 89 3c
       -0.007091765 0.008675412 0.016716765 0.016817586
0001e0 61 f8 5a 3c c2 ec c4 3b bf 1d 93 3c be ce 5a bb
       0.013364882 0.006009669 0.01795852 -0.0033387388
0001f0 6a a0 98 3b 38 68 ca 39 0b f5 41 3c d1 5e e6 3b
       0.0046577947 0.0003860609 0.011838208 0.007030346

network_body._body_endoder.seq_layers.4.weight f4 [128, 128]
000000 47 dc 93 3b 6f 30 11 3e b5 5f 78 be e5 27 5b bd
       0.004512343 0.14178632 -0.2425526 -0.053504843
000010 32 28 9f bd af 24 01 3e f5 b2 f1 3d 82 bb cf bd
       -0.077713385 0.1261165 0.118017115 -0.10143186
000020 6f c8 41 be af d6 71 bd 45 e4 2e 3d 35 6b 58 3e
       -0.18924116 -0.05904263 0.042698164 0.21134646
000030 90 7c 9b bc 4e b5 da 3c 1a 2e 2a bc 37 12 9c 3d
       -0.018980294 0.026697781 -0.010386968 0.07620662
000040 7b fd e6 bd c4 02 e7 3d eb 9f 46 3d 1b 31 91 3c
       -0.11278816 0.112798244 0.048492353 0.01772361
000050 9d 07 a8 bd 89 29 bc bd 18 5c 6c bd e1 01 1b 3c
       -0.08204577 -0.0918761 -0.057705015 0.009460897
000060 b6 12 f9 3d ce c6 0a bc 23 1d db 3c ec 4f 04 3e
       0.12161772 -0.00847025 0.026747292 0.12921113
000070 a7 aa 65 bc 83 0b 95 3c 52 a5 c4 bc 01 ef 96 3d
       -0.0140177375 0.018193966 -0.024004612 0.07369805
000080 0c e2 7f 3d b7 88 ac bc 51 c5 ba 3d 1f 09 b9 bc
       0.062471434 -0.021061284 0.09119666 -0.022587357
000090 06 f2 92 39 87 d6 e1 3d 75 81 a8 bd 58 0e a8 3d
       0.00028027612 0.11027246 -0.08227817 0.08205861
0000a0 39 66 f6 3c 62 75 d3 bd 34 55 3a be e7 6c 6a bd
       0.03007804 -0.10325123 -0.18196565 -0.057232764
0000b0 30 e4 9f 3c 42 c4 b4 bd 06 1d 02 3d 03 36 b7 bc
       0.019517988 -0.08826496 0.03176596 -0.022364622
0000c0 eb 31 3c 3d c8 b8 a9 b8 14 ae 24 bc 08 5e 16 be
       0.045946043 -8.092966e-05 -0.010051269 -0.14684308
0000d0 58 1f ab bd a1 2a ec bd 2a f1 ed bd 47 b2 92 3d
       -0.08355588 -0.11531568 -0.11618264 0.0716291
0000e0 f8 48 03 be 58 db f9 3b ce 80 89 3e 5b 77 68 bd
       -0.12820804 0.0076250248 0.26856083 -0.05675445
0000f0 3f 1b a7 bb f8 64 97 bb 9a 99 c2 bd c0 2f cd bd
       -0.0050996835 -0.0046201907 -0.095019534 -0.10018873
000100 20 30 76 bd 9b 68 0f bc 10 81 20 3b 1f c0 a3 3c
       -0.06010449 -0.008752967 0.002449099 0.019989071
000110 1d 1d 39 bd 4f 5d 78 bd 25 29 9a 3d d0 f4 ff bb
       -0.04519378 -0.06063586 0.07527379 -0.0078111663
000120 0f a4 cd bd 5f 8e e5 bd 6d 73 7e 3c 8d f4 db 3d
       -0.10041057 -0.11208796 0.015530449 0.10740004
000130 92 e9 2e 3d 97 cb d3 bc 2a dc 27 be 4c b3 07 3d
       0.04270322 -0.025853915 -0.1639258 0.033129975
000140 da 20 b1 bc 3c 62 38 be 99 1c 27 3d a3 24 ae 3d
       -0.02162211 -0.18006223 0.040798757 0.08503082
000150 ae f4 29 bd 03 c2 cc bd cf c7 45 be f1 d6 46 3a
       -0.04149311 -0.09997942 -0.19314502 0.00075851294
000160 db e5 93 bc 29 37 74 bd 01 2c 96 bc b7 d6 0d be
       -0.01805394 -0.059622917 -0.01833153 -0.13851438
000170 03 66 6b be bd 7b 26 3d 62 8e 68 3d ae 34 a3 bd
       -0.22988133 0.04064535 0.05677641 -0.07969032
000180 6f ae 72 be 46 92 08 3e 95 fb 0a be 58 ac bb bd
       -0.23699354 0.13337049 -0.13572533 -0.09163731
000190 ac 05 27 3e 5f cd 43 bd 27 6a f8 bb 15 c4 de bc
       0.16310757 -0.04780328 -0.0075810137 -0.027193109
0001a0 40 f2 f3 3d 3d 46 ff 3b a0 dd 0a 3c b2 fc 2f 3e
       0.1191144 0.0077903555 0.008475691 0.1718624
0001b0 a3 ea 25 3e f8 3e 5c bd ba 63 77 bd 7b ca 3e 3d
       0.16202788 -0.05377099 -0.06039784 0.04657982
0001c0 77 fc b0 bb d5 db 61 bd 47 b5 59 bc af 27 6f bd
       -0.00540119 -0.05514129 -0.013287849 -0.058387455
0001d0 25 5c b4 bd 55 e8 96 3e 8c 6f b7 3d 4d ea 1b 3d
       -0.08806638 0.2947413 0.08956823 0.038065244
0001e0 3b 5b 23 3e 8c 25 b6 bc 85 72 47 3d 4d 97 97 bd
       0.1595277 -0.0222347 0.0486932 -0.07401905
0001f0 4f d8 11 3b d9 df 93 bd 41 6c 42 3d a6 51 5d 3d
       0.0022254174 -0.0722043 0.04746652 0.054032944
000200 60 49 60 bc 40 c4 9b bd 15 ba 4c 3d 6d 03 20 3d
       -0.013689369 -0.07605791 0.04998215 0.039065767
000210 8e 40 1f be ae 2a ac bd 1e e3 48 bd 74 b8 98 3d
       -0.1555197 -0.08406578 -0.04904472 0.07457057
000220 bc 77 84 ba 09 fc 9e 3d d8 18 bc 3d 32 40 01 be
       -0.0010106484 0.07762916 0.09184426 -0.12622145
000230 62 d9 ba 3d 23 96 33 3c ba 61 30 3d 0a 4d 99 bd
       0.09123494 0.010961088 0.04306195 -0.07485397
000240 20 7b ce bd d7 9f 01 3e df 6b e6 bd 96 c6 52 3d
       -0.10082078 0.1265863 -0.112510435 0.051458918
000250 41 67 72 bd b8 64 04 bc 84 ad ea 3c 0f f3 b7 bd
       -0.0591805 -0.008080654 0.028647192 -0.089819066
000260 a3 e2 4a 3d db e7 fe 3d 8d cf c7 3d 30 0e 5a 3d
       0.049532544 0.12446567 0.09756384 0.053236187
000270 43 24 af bc 0c 69 af 3d dc c1 77 bd 06 86 89 3d
       -0.021379596 0.08564958 -0.060487613 0.06715016
000280 11 5e f0 3d 7e 22 94 bd b7 21 9e 3d 20 76 c6 3c
       0.11736692 -0.07233141 0.07721274 0.024226248
000290 37 a2 f7 bd bf 22 ca bc 23 44 bb 3d 53 32 90 3d
       -0.12091487 -0.024674771 0.091438554 0.070408486
0002a0 81 64 10 be a4 91 b5 3d a4 66 98 bd 94 b5 a2 3d
       -0.14100839 0.08865669 -0.07441452 0.079447895
0002b0 2f b5 29 3d 0f 37 35 3e 6f 5a 9d 3d 9e da 8d 3d
       0.041432556 0.17696784 0.076832645 0.069264635
0002c0 d7 2c 4e 3d a9 e8 13 3e ec b4 7d 3a 84 fa 03 bd
       0.05033573 0.14444222 0.00096781435 -0.032221332
0002d0 91 53 56 bd 39 1f b8 bd 39 a9 16 3d 20 ec 0c be
       -0.05232579 -0.0899033 0.036782477 -0.1376195
0002e0 c2 99 1b be 4c 75 67 3e 56 ba 09 be fb 74 c2 3d
       -0.15195373 0.22603339 -0.13449988 0.094949685
0002f0 58 bb cb 3d 69 65 87 bc 7b 0b ee 3c 16 c2 c7 bb
       0.09947842 -0.016527848 0.029058209 -0.006096135
000300 5c 1c f1 bd 98 4b 6a bc e3 88 e1 3c b2 84 61 be
       -0.11772987 -0.0143002495 0.027531093 -0.22023275
000310 68 e5 97 3d 8d a2 01 3e cd 01 74 3d c4 f0 0c 3d
       0.07416803 0.12659664 0.05957203 0.0344093
000320 cd 70 06 3d 63 38 8a bd 46 05 b5 bd a8 d6 1c bd
       0.03282242 -0.06749036 -0.088388965 -0.03829065
000330 cd 96 fa bd 2d d0 4e bc a7 45 e5 bb 22 4c ce ba
       -0.12235794 -0.012622875 -0.0069968286 -0.0015739242
000340 00 ca 36 bd de 4f 45 bc 1f 53 80 bd 25 2a 33 3e
       -0.044626236 -0.012042968 -0.06265854 0.17496546
000350 e0 8e eb bd 59 9e 48 bd 5a 92 94 bd f6 a8 7f 3d
       -0.115018606 -0.048979137 -0.07254477 0.062416993
000360 99 c8 dd 3d 58 4f b3 bd 0b e1 4c 3e d9 7f 51 3d
       0.108292766 -0.08755368 0.20007722 0.051147316
000370 c7 2d 9d 3d 50 40 04 3e 3f 0e 54 bd 82 dd 31 bd
       0.07674747 0.12915158 -0.0517714 -0.043424137
000380 08 7e 74 3d 9a 8f ac bd e8 4f 20 bd 0e 9c c0 bd
       0.059690505 -0.08425827 -0.039138705 -0.09404765
000390 de 49 d1 3c 78 fc 7c 3c c2 2d 97 bc a6 23 4f bd
       0.025547918 0.015441053 -0.018454436 -0.050571106
0003a0 2e 45 b4 bd 38 10 73 bd e6 3a 56 3d f6 aa 85 bd
       -0.088022575 -0.05934164 0.052302264 -0.06526749
0003b0 79 2c 00 be cf 6d be 3d 0d ca 08 3e 9c 83 10 3c
       -0.12516965 0.09298288 0.13358326 0.008820441
0003c0 b5 da b3 3c dc e7 d7 bd 1c aa 5c bd 01 81 52 be
       0.021954874 -0.105422705 -0.053873166 -0.20557024
0003d0 27 71 80 bb e1 4f 72 3c 6d e0 15 bd cc 59 07 3e
       -0.003919739 0.014789552 -0.036590982 0.13217849
0003e0 c6 ab 02 bd 98 ea 5d 3d bc 75 b4 bd 72 94 56 3e
       -0.031902097 0.054178804 -0.088115185 0.20955065
0003f0 9c d1 ac 3c 49 f1 5b 3d c8 00 38 3d f0 ef 74 3e
       0.021096043 0.053696904 0.04492262 0.23919654

network_body._body_endoder.seq_layers.4.bias f4 [128]
000000 10 3d 86 3b 18 5a 62 3c 6f 74 50 3c ef e6 02 bb
       0.0040966347 0.013815425 0.012723072 -0.0019974073
000010 a0 71 63 3b f6 be 0d 3c af 5c 53 bb b3 93 fb 3b
       0.0034705177 0.008651486 -0.0032251289 0.007677519
000020 c4 1b 94 3b 4b 80 58 3b 0c ed 05 bc e4 aa 24 3c
       0.0045199115 0.0033035453 -0.008174192 0.010050509
000030 63 e0 94 3c 8c 3a 4c 3c 7c f8 ab 3b 13 14 a2 3b
       0.018173402 0.012465131 0.0052481275 0.0049462407
000040 ad 39 56 bb 2c f9 7e 3c 64 1b 09 bc 1a 23 37 bc
       -0.0032688186 0.015562337 -0.008368347 -0.011177802
000050 d7 2b 0e 3c 27 72 65 3c 54 09 29 3c c7 64 02 3a
       0.008677444 0.014004267 0.010317165 0.00049741234
000060 ea 8e b6 bb f4 e7 07 3b e9 39 0f bc 35 bf 98 3b
       -0.005571236 0.002073762 -0.008741834 0.0046614655
000070 bd 13 a3 3b 41 46 0e bc f6 8e de b9 68 1f 08 bc
       0.004976718 -0.008683742 -0.00042449654 -0.008308269
000080 e8 71 cc 3a 90 97 84 3b ab 2c 34 3c 2f c9 a2 bb
       0.0015597912 0.004046388 0.010996978 -0.0049678306
000090 a7 a9 d5 3b a1 c9 1a 3b a7 73 b2 3c 90 9e 2d 3b
       0.0065204683 0.0023618715 0.021783663 0.0026492216
0000a0 59 90 b3 3b 16 0d c6 3a 7d e6 a6 bb fb a4 2d 3b
       0.005479854 0.0015110101 -0.0050933943 0.002649604
0000b0 85 28 1a 3c af 8f 2e bc 29 d5 46 3c c0 12 05 bb
       0.009409075 -0.010654374 0.012135782 -0.0020305365
0000c0 8d b5 6a 3c 8f d4 81 bb d6 14 38 b9 52 35 21 3b
       0.014325512 -0.0039621065 -0.0001755537 0.0024598432
0000d0 e1 31 81 3c 07 0a 78 bc b3 a6 07 bb b5 98 a7 bb
       0.015770854 -0.015139109 -0.0020698726 -0.0051146396
0000e0 94 50 a9 3c 97 5d 8d bc 24 08 28 3c f5 cd f9 3b
       0.020668305 -0.017256541 0.010255847 0.007623429
0000f0 89 c7 44 bc 33 3c 76 3b d8 e2 aa 3b 1f a3 b7 bb
       -0.0120104635 0.0037572503 0.00521503 -0.0056041623
000100 f8 26 75 3c 3a 6c 13 bc 31 1a 0e 3c c7 0d dd 38
       0.014962904 -0.008997971 0.008673237 0.000105406674
000110 78 f5 b1 3b 7a d7 49 ba 69 e9 74 bc 8a 0e 5c bb
       0.0054308735 -0.000769965 -0.014948227 -0.0033578002
000120 89 4c 53 3c e8 a1 6b bb 6d be 34 b9 64 6a 8d bb
       0.012896665 -0.0035954658 -0.00017237077 -0.0043156613
000130 67 e0 06 3b 3c d6 95 3a 87 88 81 bb af b5 02 bb
       0.0020580532 0.0011431645 -0.003953043 -0.0019944718
000140 d0 e1 ca 3b 9d 87 af 3b 99 01 d3 3a 6b 6d 8b bc
       0.0061914697 0.0053567425 0.0016098499 -0.017019948
000150 b3 a6 9b 3c 0c 9e a4 bb d3 90 2f bc 48 0c 83 3c
       0.019000387 -0.0050237235 -0.010715681 0.015997067
000160 2b 52 3c 3c 2d c4 3b 3c 93 06 26 bc 0e 2a 83 bc
       0.0114942 0.011460346 -0.010133403 -0.016011264
000170 86 90 8a 3c 64 59 61 3c 5f 3c 9e 3b 16 72 c9 bb
       0.016914617 0.013754223 0.004828974 -0.0061476333
000180 82 0b 65 3a 39 ab 0a 3a 49 9d f8 3b 8b 68 f4 bb
       0.00087373715 0.00052897964 0.007587109 -0.0074587516
000190 00 50 6e 3c ba b4 8c 3c 5c 03 b1 3b 6f 07 06 3c
       0.014545441 0.01717602 0.005402012 0.008180483
0001a0 8a fd 5a bc 39 86 57 bc 63 e7 8c 3b a8 3a 97 bc
       -0.0133661125 -0.01315456 0.0043000444 -0.018460587
0001b0 eb 47 90 bb 8e 91 95 3a af ef 8b 38 b1 53 fb bb
       -0.0044031045 0.0011411177 6.672681e-05 -0.007669889
0001c0 8e e6 a0 3c 0d 42 3e bc ff 4d 83 3b 1a af 89 3b
       0.019641187 -0.011612427 0.0040071006 0.004201782
0001d0 25 b2 92 3a 10 5a b2 ba d0 d0 08 3c 10 d0 4a 3c
       0.0011192007 -0.0013607163 0.008350566 0.0123787075
0001e0 fa ec 18 bb 5f 98 2f bc 56 b2 8d 3b 60 8d 8c 3c
       -0.0023334608 -0.01071748 0.004324238 0.017157257
0001f0 8d 3c 8c bb a6 9c 63 3c 48 25 ca 3b 71 a0 7e 3c
       -0.004279679 0.013892328 0.006168995 0.015541182

action_model._discrete_distribution.branches.0.weight f4 [3, 128]
000000 f4 1f 4c 3b c3 d6 95 3b 43 19 ff ba 54 12 60 3a
       0.0031146975 0.0045727207 -0.0019462485 0.0008547653
000010 1a a5 d3 3b 8c 70 15 bc f7 82 21 3c 3c 17 d8 3c
       0.0064588906 -0.009121072 0.009857885 0.026378267
000020 78 80 0d bc 98 0f 99 bc 37 4e b9 39 9e 37 27 3c
       -0.008636586 -0.018684193 0.00035344224 0.010206131
000030 94 48 80 bc 4c 65 0b 3c de d3 56 bc 98 c5 59 3b
       -0.015659608 0.008508038 -0.0131120365 0.0033229347
000040 99 20 40 bc ef ee 15 bc ea 62 18 3c f0 c1 f7 ba
       -0.011726522 -0.0091512045 0.009300927 -0.0018902402
000050 35 0e 5b ba c2 92 ec 3a ac 47 10 3c 97 37 ed bb
       -0.0008356304 0.0018049108 0.00880615 -0.007239293
000060 6b f8 b9 bb 8a e0 e6 bb b7 8a 9f bc c3 9a d3 3b
       -0.0056753657 -0.00704581 -0.019475324 0.006457658
000070 10 91 83 3b ee 77 a7 bb 89 0c 3e 3b c3 a5 4e ba
       0.0040150955 -0.0051107323 0.002899917 -0.0007882977
000080 96 41 05 3c 9f 8e d8 bc 6b 69 97 b9 01 3d 85 bc
       0.008133313 -0.026435195 -0.00028879507 -0.01626444
000090 c9 a6 84 3b d0 37 1b 3c 9d ac ce 3b 1a a4 2d 3c
       0.0040482027 0.009473756 0.006307198 0.010598207
0000a0 18 8f eb 3a cc b3 40 bc 76 4a 93 bc ab 31 49 bc
       0.0017971722 -0.011761617 -0.017979842 -0.012279908
0000b0 c1 39 88 bc 8e 60 2f bc 3f 06 cc bc 86 c4 a6 3a
       -0.016629102 -0.010704173 -0.024905322 0.0012723363
0000c0 82 62 74 3b 40 fd 88 bb 75 9d 1c 3c 6c 5e 18 3c
       0.003729016 -0.0041805804 0.009559025 0.009299856
0000d0 33 55 90 bc a0 80 c4 bb 07 6a 12 bc 46 e4 3e bc
       -0.017618751 -0.0059967786 -0.008936412 -0.011651104
0000e0 08 fd 02 bc 8c 14 dd bb 96 76 9b 3b eb 12 41 bc
       -0.007994898 -0.006746834 0.004744361 -0.011784296
0000f0 57 46 3d bc cd 4f 80 3c c3 f4 5b 3c 63 b3 a0 bc
       -0.011552415 0.015663052 0.013425055 -0.019616788
000100 13 8d 90 bb 49 bc 12 3c 3b 2e f2 bb 26 6f 6c bc
       -0.0044113486 0.0089560235 -0.007390765 -0.014430797
000110 d5 fc 93 ba e4 ff 53 3c 39 1c c7 bb d5 d4 e0 ba
       -0.001129056 0.012939427 -0.0060763624 -0.0017153273
000120 33 4e 0a bd e5 15 4e b9 e5 7a c5 39 ec 05 26 3c
       -0.033765983 -0.00019653847 0.00037666332 0.010133248
000130 49 fb 4f 3c 24 a1 dd ba 0f 1d 0d 3c b6 b1 6b 3b
       0.012694188 -0.0016908986 0.008612885 0.0035964078
000140 fd 58 9b ba 9c e1 db bb fd 11 2b bc c5 2f 88 bb
       -0.0011852082 -0.0067102443 -0.0104413 -0.004156085
000150 23 c3 49 bc 4d 1a 8d 3b 41 1c aa bc f1 8b d8 3b
       -0.012314591 0.004306114 -0.020765426 0.006608479
000160 00 c0 0d bc 60 19 6a bb f0 6b 23 3b 7e d8 4e 3c
       -0.008651733 -0.003572069 0.0024936162 0.012624858
000170 14 7a f0 3a 88 44 e9 3b ec b1 fa bb 90 e5 99 bc
       0.0018346929 0.0071187653 -0.0076506045 -0.018786222
000180 c3 36 3c bc 99 d6 99 3a 2b ba 83 3c 9f f1 59 3c
       -0.011487666 0.0011736929 0.016079983 0.013302236
000190 f7 e5 ff ba 33 1b 17 39 89 fa 81 bc c9 0c 53 3a
       -0.0019523491 0.00014410615 -0.015866535 0.00080509164
0001a0 73 9e a0 3c b5 c8 c5 3a e5 db 86 bc 19 d5 82 bb
       0.019606804 0.0015089723 -0.016462276 -0.0039926884
0001b0 80 c0 81 bc 8a 41 4f bc 0a 0b 83 3c 19 14 8f 3c
       -0.015838861 -0.012649903 0.015996475 0.017465638
0001c0 52 75 8d 3c fc 23 93 bb 8a 32 16 3b f5 0a ae bb
       0.017267857 -0.0044903737 0.0022918307 -0.005311365
0001d0 7e 88 a6 3b 5a c3 63 bc 77 60 7e bb 0a b6 ca bc
       0.005082189 -0.013901556 -0.0038814822 -0.024745006
0001e0 36 13 0b 3c 5e 44 1a 3c ca e8 a0 bc 63 38 bf 3b
       0.008488467 0.009415714 -0.019642252 0.0058355792
0001f0 ed f8 7d 3c e6 43 65 bb 2b 3e d4 3b 54 3d 9e 3a
       0.015501243 -0.0034983098 0.0064771376 0.001207272
000200 f1 17 6a 3c 48 90 c7 3c 02 3d ce 3c 6b 66 f5 bc
       0.014287935 0.02436079 0.025175575 -0.029956063
000210 71 4a 16 ba e1 93 5f 3c 01 03 2c bc ce 88 56 bd
       -0.00057331385 0.013646097 -0.010498763 -0.05237656
000220 9b 4d 21 bc d3 9d 3b bc 42 0b be bc a2 46 4b 3a
       -0.009845163 -0.011451202 -0.023198728 0.00077543606
000230 e5 73 8a 3c 66 32 f7 3b ab 11 54 3c cf 26 b2 bc
       0.016900966 0.0075438498 0.0129436655 -0.021747021
000240 c5 ca b7 bc 6a fb 1d bc f5 f2 35 bc f7 b3 91 bc
       -0.022435555 -0.009642461 -0.011105289 -0.01778601
000250 d0 cc 51 3c 31 bb dc 3c 72 84 19 3d 05 b0 45 bb
       0.012805179 0.026944729 0.037479825 -0.003016473
000260 e1 7b 07 bb f4 b9 3c bc 3e 1b 80 bb 06 57 95 bc
       -0.0020673203 -0.011518944 -0.0039094975 -0.018229973
000270 72 93 b6 b9 e9 6b c0 bb d0 cf 77 3c 25 83 c9 bc
       -0.000348236 -0.005872239 0.01512523 -0.024598667
000280 83 df 13 bc 3e 44 29 3c 49 47 93 3c 73 a0 ff ba
       -0.009025457 0.010331212 0.017978327 -0.0019502774
000290 8a a3 6b 3c 7f 05 44 ba c9 e9 6b 3c b0 68 af bc
       0.0143822525 -0.00074776256 0.014399 -0.021412224
0002a0 9b b8 3a 3c 42 bb c2 39 11 dc 8b bb 03 76 26 bd
       0.011396552 0.0003714208 -0.0042681773 -0.04063989
0002b0 89 1e de 3c 4a 4a 59 3b 60 45 6b 3c 2e d3 a8 bc
       0.02711417 0.0033155852 0.014359802 -0.02060851
0002c0 9d 90 60 3c 30 ce fe 3b fb 5a 57 3c e9 e0 3d 3c
       0.0137063535 0.0077760443 0.01314425 0.011589267
0002d0 30 e3 b1 3c 4a ef 99 3a bd a8 a5 3c f5 70 7f 3b
       0.021714777 0.0011744287 0.020222062 0.003897724
0002e0 db ff 16 3d 47 5e 9f bc ad 87 87 3c 87 51 8c 3b
       0.036865097 -0.019454135 0.016544187 0.0042821798
0002f0 34 0f 6e bc 72 30 17 bc 7a 88 55 3c 87 f8 76 bc
       -0.014529992 -0.009227859 0.013033027 -0.015073902
000300 74 0c 2c 3c c9 09 38 bc 2f bb 38 3c 08 8c 08 3c
       0.010501016 -0.011232802 0.011275097 0.008334167
000310 0b b7 32 3c bc 64 26 3c 92 7b b4 bc 5d d1 ff bb
       0.010907899 0.010155853 -0.02203158 -0.0078069405
000320 e3 da b7 bb 2a 3b 15 bd 64 61 4d 3b 00 9f 82 bc
       -0.00561081 -0.036433376 0.0031338567 -0.015944958
000330 5d 9a 91 bc c6 92 8d bc f6 85 9c bb d4 db 29 bc
       -0.017773801 -0.017281901 -0.0047767116 -0.0103673525
000340 5e 28 88 3b ab d2 82 3c c1 4d 22 3c 7a f3 00 bc
       0.004155203 0.015969595 0.009906233 -0.007870549
000350 79 b3 53 bc 5d bf b4 bb b4 01 08 bd c0 4d ae 3c
       -0.012921208 -0.0055159763 -0.03320475 0.021277308
000360 33 eb a6 3c 6a e8 c2 3b a3 60 97 bc 4a 1a 49 bc
       0.020375824 0.005948116 -0.018478697 -0.012274334
000370 1f b2 1b 3c a7 d7 cf 3c 9d 7d bf bc ab 4d ce bb
       0.009502917 0.025371386 -0.023375327 -0.00629588
000380 25 02 cd bb ff 35 8e b9 81 01 bd bc 7b 07 8d 3c
       -0.006256359 -0.0002712458 -0.023072006 0.017215481
000390 34 cb ed 3c b7 ab fd 3c 5c 95 66 3b 55 73 81 3c
       0.029027559 0.03096567 0.003518424 0.015802065
0003a0 5d 1c 00 bd 3a d1 aa bb 74 9b a8 3c 9d 56 c1 bc
       -0.03127705 -0.00521293 0.020581938 -0.02360087
0003b0 ec e3 02 bc 96 5b e0 3b 76 e4 57 3c ca 46 a5 bc
       -0.007988911 0.0068468554 0.013177028 -0.020175356
0003c0 d2 4c fa 3c 24 c7 a6 3a 9a 3a ad 3c 77 64 5a 3c
       0.030554209 0.0012724143 0.021146107 0.013329617
0003d0 6d 58 c4 bc bd d1 e0 ba 39 f5 a6 3c fe 9f 54 bc
       -0.023967946 -0.0017152351 0.020380603 -0.012977598
0003e0 ec 26 01 bc a9 2a fa bc 44 66 c6 39 9e df a6 3c
       -0.007882815 -0.03053792 0.00037841697 0.0203703
0003f0 64 88 b6 bc d2 0e 76 3c 32 45 23 bc 63 66 02 3d
       -0.022281833 0.015018182 -0.009965228 0.031835925

action_model._discrete_distribution.branches.0.bias f4 [3]
000000 d7 af ba 3a 7c 79 7e 3c 14 b8 95 bc
       0.0014243078 0.015531894 -0.018276252

action_model._discrete_distribution.branches.1.weight f4 [2, 128]
000000 de f2 4d 3c 21 e5 ed bb 5c b3 77 bc 23 c9 ff bb
       0.012570111 -0.0072599803 -0.015118446 -0.00780596
000010 71 80 66 bb 88 b8 a4 bc 94 e8 0a ba 83 e5 f2 3a
       -0.0035171772 -0.020107523 -0.0005298939 0.0018531535
000020 eb c1 a0 bb 0e 95 15 bc f2 89 08 bc a7 98 35 bc
       -0.0049059293 -0.009129776 -0.00833367 -0.011083758
000030 c5 2a 96 ba d4 c2 8c bc 71 57 6d 3c c6 35 e8 3b
       -0.0011456838 -0.017182745 0.01448618 0.0070864884
000040 f2 3f 76 bc a9 d0 c6 bb f0 f5 82 ba 50 98 96 3b
       -0.015029894 -0.0060673547 -0.0009991508 0.004595794
000050 e8 3b b6 39 ee 1a 8e bc a3 2f 9f 3c 3e e3 6c 3a
       0.0003475838 -0.017346825 0.019431895 0.0009036547
000060 18 04 ee 3c 4e 6b 00 bc c9 3e 36 bc ee 02 fe 3b
       0.029054686 -0.007838083 -0.011123368 0.007751814
000070 07 14 9e bb 7c 2d 8b 3c ba f4 1a bc a3 f3 5c 3c
       -0.004824165 0.016989462 -0.009457761 0.013485822
000080 25 8e bc 38 ea 7e 35 3c 48 18 c5 3a b7 00 46 bb
       8.991015e-05 0.011077622 0.0015037144 -0.0030212828
000090 87 f7 00 bc 6d 0b aa 3c 9b 6a 36 bc fa bc af bc
       -0.007871515 0.020757401 -0.011133815 -0.021452416
0000a0 de 38 6c 3c 65 5b 6b 3c e5 ed 5b 3c 35 2f b8 3c
       0.014417855 0.014365052 0.013423418 0.022483448
0000b0 d0 d2 58 3b 73 b3 8f 3c 2a 49 69 bb b0 33 b0 bb
       0.0033084638 0.017541623 -0.0035596588 -0.0053772554
0000c0 4a 48 78 bc af 7b c5 bb 72 24 07 3d 09 fc f0 3c
       -0.015153954 -0.006026707 0.03299374 0.029417055
0000d0 3e 81 60 bb 3d ba 73 3c eb 19 f9 3c 68 f1 9a 3c
       -0.0034256722 0.014875946 0.030407866 0.01891394
0000e0 97 99 07 3b b0 ca 2c 39 65 36 3e 3c 70 5d 47 3c
       0.0020690912 0.00016478705 0.011609648 0.012168273
0000f0 29 6c ac bb ff ad 94 3b 10 bc dc 3a c5 b3 ca 3c
       -0.005261917 0.0045373435 0.0016840715 0.024743924
000100 c6 74 a3 bc 05 3e b4 3a 63 5c 0e bc 46 c7 3e 3c
       -0.019953143 0.0013751393 -0.008689019 0.01164419
000110 3e c7 a2 3c ce 16 0f 3c 68 30 39 3c f2 97 b7 3c
       0.019870397 0.008733464 0.011303045 0.02241132
000120 39 51 fb bc 83 ac ed 3c 86 e9 d2 3c 8f b2 1a 3c
       -0.030678378 0.029012924 0.025746118 0.009441986
000130 4c 35 ed bb 29 d6 18 3c 05 0f 53 39 df 8f 03 3d
       -0.0072390195 0.0093284035 0.00020128123 0.032119628
000140 37 2f 3c 3c f6 ea 41 bc 2c af a0 3c 7f 26 6e bc
       0.011485866 -0.011835804 0.019614778 -0.014535545
000150 3d 28 a5 bc 3b 90 b1 bb 47 ed ae 3b 3f b7 70 bb
       -0.020160789 -0.005418805 0.0053383443 -0.0036730317
000160 87 91 bc 3c cf ef 8d 3c 23 98 3b 3c 67 7f 1a 3b
       0.023018612 0.017326264 0.011449846 0.0023574473
000170 2c 28 51 bc f5 7e ba 3b b9 73 0e bc 2f 53 24 bc
       -0.012765925 0.005691404 -0.008694583 -0.010029598
000180 f9 5b a2 bb 45 27 ba 3b fc ad 6d bc 73 8f 2b bc
       -0.0049548117 0.005680951 -0.014506813 -0.010471213
000190 10 98 43 bb 28 7e 1c bc 9b b2 2a ba 06 ef eb 3b
       -0.0029845275 -0.009551562 -0.00065115996 0.0072001247
0001a0 58 52 ec 3b ed 98 4c 3c 7f 4c 84 3b aa 64 26 3c
       0.0072119646 0.012487632 0.0040374394 0.010155836
0001b0 e9 c0 9a bb 58 41 7a 3c 5b 8f d3 bb 05 47 21 3a
       -0.0047227037 0.015274368 -0.0064562983 0.00061522453
0001c0 76 17 04 bc 3f cd 48 3c 7e 2f ac bb d4 c5 e0 3a
       -0.008062234 0.012255966 -0.005254685 0.0017148801
0001d0 35 1a 97 bc 56 e8 5c 3c 22 de 01 bc 5e 8e ac ba
       -0.018445114 0.013483128 -0.007926496 -0.0013164987
0001e0 d5 3f 09 bc e4 8a f7 3b 18 b5 10 3a 65 51 b1 3b
       -0.008377035 0.007554399 0.0005520149 0.0054113143
0001f0 30 7d 98 3c 7c 7c b5 3a e4 cd f3 bc 84 eb 06 bc
       0.018614382 0.0013846303 -0.029761262 -0.008234862
000200 46 10 a9 bb 98 64 de ba 27 90 95 3c 96 32 06 bc
       -0.0051594106 -0.0016967235 0.018257214 -0.008190772
000210 1b c9 40 3b 05 6a 70 3c 08 a3 4e b7 40 2f d9 3b
       0.0029416743 0.0146737145 -1.23165155e-05 0.006627947
000220 8d c5 6f 3b 68 f0 53 3b 3a 47 36 bc 11 6e 5c 3c
       0.0036586255 0.0032339338 -0.01112538 0.013453976
000230 ee 8b 73 3b 59 28 95 3c 33 10 ba bc d5 03 77 bc
       0.0037162262 0.018207716 -0.022712803 -0.015076597
000240 3d ab 13 bc 47 b4 89 3c 69 2b 9d bc bf 8a 66 bc
       -0.009012994 0.016809596 -0.019185739 -0.014071166
000250 2f 8f 62 3b 1b 4d af 3b c0 7d 55 38 04 20 69 3b
       0.0034570207 0.005349768 5.090027e-05 0.0035572061
000260 dc 22 ac bc 52 3d 96 3c 97 25 7f 3b 25 10 4b 3c
       -0.021012716 0.018339787 0.0038932317 0.012393986
000270 9c aa 32 3b 23 b6 f8 bc 41 58 6e 3c 46 8a 17 bb
       0.0027262336 -0.030360287 0.014547409 -0.002312319
000280 8c 07 a6 3b fd d5 23 3c 2f 06 be bc 61 8e 14 bd
       0.0050668176 0.009999749 -0.023196308 -0.036268596
000290 82 37 af 3c 36 a0 7b bc 9c 1e 68 3c d9 b3 1c bb
       0.021388773 -0.0153580215 0.014167454 -0.0023910908
0002a0 cc 4b 95 3a 20 7d f2 bc cf dc 40 bb a4 32 1b 39
       0.0011390387 -0.02960068 -0.0029428487 0.00014800817
0002b0 f0 94 5b bc bf ee 59 bc 21 fe 28 3c 00 a8 32 bb
       -0.013402209 -0.01330155 0.010314495 -0.002726078
0002c0 53 36 9c 3b 62 a4 b0 bc 9b 9c 8d bc ff 75 a1 bb
       0.004767218 -0.021562759 -0.01728659 -0.0049273963
0002d0 6c 60 8a 3b bf 6a 19 bc 6f 61 98 bc 62 a5 98 bc
       0.00422292 -0.009363829 -0.018601147 -0.018633548
0002e0 29 66 84 bb 53 25 c2 bc 68 ec c1 bb cd d5 2f 3c
       -0.0040404988 -0.023699438 -0.0059180744 0.010732126
0002f0 e1 92 e5 bb af 56 0d bc 1b 9b 2e 3b d2 cf ed bc
       -0.0070060347 -0.008626624 0.0026642743 -0.02902976
000300 32 28 de 3c 64 8a 6d 3a ce 32 aa 3c 1d 3d 99 bc
       0.027118776 0.00090614543 0.020776179 -0.018705899
000310 38 b2 9e bc 67 b3 af ba c8 64 46 3c b7 36 a4 bc
       -0.01937209 -0.0013404906 0.012108989 -0.020045621
000320 0a 0a 31 3c ca a3 a1 bc 62 ca 50 bc 6c 8a 5a bb
       0.010805616 -0.019731421 -0.012743564 -0.0033346666
000330 36 a9 09 3b 67 87 04 bc 01 8d b7 bb 0f 38 a2 bc
       0.0021005399 -0.008088923 -0.005601526 -0.019802121
000340 48 1e 60 bb 42 11 b7 3a e8 af 9e bc e2 86 05 ba
       -0.0034197737 0.0013966935 -0.019370988 -0.00050936465
000350 59 de f5 3b f4 07 20 bc 9f bb 9f bb bc 01 8f 3c
       0.0075033125 -0.009767521 -0.004874661 0.017456882
000360 18 36 4c bb cb 76 d6 bb f1 d9 3a bc 72 b5 6f bc
       -0.0031160172 -0.006544923 -0.0114045 -0.014630662
000370 f7 15 0b 3d 86 50 13 3c 47 97 a6 ba 4d a7 de bb
       0.033956494 0.008991366 -0.0012709879 -0.006794846
000380 fe 47 9e 3b b9 81 49 bc 9b 15 ee 3a 49 f7 a7 3b
       0.0048303595 -0.012298995 0.0018164398 0.0051259142
000390 2a d2 9e bc a1 d6 a8 3c 24 0d c6 3b 96 c3 c3 bc
       -0.019387323 0.020610156 0.006044047 -0.023896974
0003a0 14 fb 94 bc da 4d 8a 3a 04 fc e1 3b a5 64 a7 bc
       -0.01818613 0.0010551766 0.0068964977 -0.020433733
0003b0 a2 50 b7 bc ec e4 f6 bc 94 3c 55 3b 23 d9 2b 3c
       -0.022377316 -0.030138455 0.0032537328 0.010488781
0003c0 d9 16 09 bb 16 cf 3d 3c 74 8f fc 39 d9 a3 20 3b
       -0.002091816 0.011585018 0.00048172066 0.0024511723
0003d0 32 4e 70 3c bc 3d 13 bb 8f 21 72 3b 5d d5 76 3c
       0.014667081 -0.0022467216 0.0036946272 0.015065518
0003e0 b8 08 b6 3b 0f ba df bb a0 dc 48 ba 43 62 96 3c
       0.0055552386 -0.0068276 -0.000766227 0.018357402
0003f0 a3 cb 4a bc b4 11 ac 3c dc a5 af 3b 99 e6 5e b8
       -0.012377652 0.021004535 0.005360348 -5.3143685e-05

action_model._discrete_distribution.branches.1.bias f4 [2]
000000 a9 7c 1a bc aa 7c 1a 3c
       -0.009429135 0.009429136
